results/ovsi/cifar10/kd/resnet8_best.pth.tar (torch_old, 371446 bytes, 52 tensors)

module.conv1.weight f4 [64, 3, 3, 3]
00000000: 8f5c 1bbe de37 94bc 445f a43e a86b e2be
00000010: 4c54 90bd 39c1 003f 58cf 9cbe 8706 a0bd
00000020: d22d b33e 3089 40be c59e 89be 15ad 753d
00000030: dabd bbbe 39e4 5abe 7e27 9e3e 5993 d2bd
00000040: e4e7 cdbc 4052 a73e 1ffd 8b3d fc46 82bd
00000050: 8d9b 13bd 1262 dbbd 1572 8c3b 8f3b 343e
00000060: da0f 863d cc65 963d 46d3 153e 7101 05bd
00000070: 30e8 b0be daec 7bbe 5e86 5f3e 0fd7 db3d
00000080: 4d1b ec3c 51e3 a93d c664 603e 8f0d 083e
00000090: 2006 c3bd fe86 bebe 2840 b3be aa3e 313e
000000a0: 3631 193e 9592 cdbc 0584 913b 2fcd 4d3e
000000b0: c322 fb3c 5fcc b4bc b7f6 3ebe fb13 36be
000000c0: 87a5 183e 1f40 1e3e fad1 cb3b 7342 133d
000000d0: a2a8 333e 7b97 8b3d 602f b03c 0fbd 52bc
000000e0: 1c4a 20bd 8313 e33d e81b 8f3d de27 153d
000000f0: fa15 fe3d afdb bd3d 7889 b03d 3e4c d5bc
00000100: ac4a 6bbd b927 acbc 1a71 74bc 50e8 8cbd
00000110: 5428 98bb bb82 a5bc 47cc 93bd dd39 343c
00000120: b99e 683d 23cd 8b3d f81c 973d 424a b93c
00000130: 9194 fcbb 72d6 f93c 4ae5 2cbd 5f8b c3bd
00000140: ecb7 febc 5c8d 4c3e 43de 643f cd26 d53d
00000150: 0923 513e 3227 603f 2e2f 9c3e d1ce 1cbf
00000160: 9922 26bf 331d 28bf 1a37 fcbe ed5f 3fbf
00000170: 6554 1fbe 5075 5fbe 658c a5be 8c1a 123e
00000180: 0b81 a73e 5c7b 8f3e 3209 133f 7097 9f3e
00000190: b803 b8be 0d2a 9bbc 5049 a23c e1ce e3be
000001a0: 00b8 ccbe dd39 7e3e 7c4e 2f3e 5747 4f3e
000001b0: 09db debd a450 05be ce2e 00be e268 f2bd
000001c0: 8366 19be 12fb 26be 44a1 80bd 9efb 97bd
000001d0: 8cd5 bdbd ee1c eb3d 4fa9 c23d 5d86 c73d
000001e0: 9676 a63d 322a 6e3d b802 2e3d d50c aa3d
000001f0: be4e a23d d870 903d d45f 9f3d f0e5 643d
00000200: 4c57 e63d dea7 083c 3449 f8bc 20e3 c03c
00000210: 3616 04bc 4c70 47bd fbd3 3f3c 9dd8 91bd
00000220: 6ae0 79be 0c8e 17be 271d 133d 88e1 083e
00000230: a2ef 423e 0ad1 0fbc 9ffd f93c b164 2d3e
00000240: af75 7ebe 9814 88be 6a6e 74bd 50ee 79be
00000250: aba6 d63d 79a8 ba3e 3a29 76be 00ab f1bc
00000260: 4f2c 7a3e 68c0 23be f8e6 f5bc 6d6d 4b3d
00000270: d8cf 6ebe 3853 6e3e 3a36 f93e 6147 abbe
00000280: d754 1ebd c403 9e3e e259 13be 05c7 bbbd
00000290: 3a57 a2be c267 d73c 11b8 a43d b3a4 e5bd
000002a0: d0ef b43d 974e 113e ba7b e73c accf bebb
000002b0: 7829 0c3e b9c9 f9bd d74d 433e 9d13 ce3e
000002c0: f189 383e 5220 d13d ee0f 853e 37e2 213e
000002d0: 6ff8 fdba 1561 553e 8409 15be 47e1 26bb
000002e0: 9429 603e e634 f9bc 74ca 84be 623a 33be
000002f0: 51b0 73be 2a68 d63d 999b 08be b047 1fbe
00000300: 0122 62be effe fdbe e5b1 87be c4f4 a6bd
00000310: 97fb 04bf 3169 84be d271 8d3e 89b7 043f
00000320: 2269 8d3d 3e17 e33e e53c 553f e9de e63e
00000330: 8539 883e 8005 653e 844c cf3b 19b7 8bbe
00000340: 6971 1cbe 7fea 63be 810b adbe 601b 35bd
00000350: 7071 debc 93b6 87bd e348 4c3d 3143 99bc
00000360: b7fd 0f3e 4f8d 6c3e 7899 1fbd 164e debc
00000370: b734 97bd 742c 7dbd e571 90bd b298 99be
00000380: 0fce 6dbe 912e 4e3e 7653 7c3e 4313 33be
00000390: d5ff 033e d6ee 583d 7dee fbbd fb18 003e
000003a0: c4cd 20be 0d9b 90be 9b9b 643e bee6 ab3e
000003b0: 125e c5bd c08b 9a3c d28c 563d 3e2d c2bd
000003c0: e5cc a4bd 8cc0 43be 6cd7 8ebe 9b58 de3b
000003d0: d5e0 993c 3d37 4c3e 2236 353f 3984 95be
000003e0: fd2c 0cbf f17b 663e 0f0a a8be 92f5 33be
000003f0: 2022 423e 0b6e 2abe d3dc 1ebe b26e 8e3f
-0.15172027 -0.018093046 0.32103932 -0.4422276 -0.07047328 0.50294834 -0.3062694 -0.07813745
0.34995896 -0.18802333 -0.26878944 0.059979517 -0.36668283 -0.21376123 0.30889505 -0.102820106
-0.025134988 0.3267994 0.068353884 -0.063611954 -0.036037017 -0.10712065 0.0042860606 0.17600845
0.06545992 0.07343635 0.14631376 -0.032472078 -0.34552145 -0.2460207 0.21828601 0.107343785
0.028821612 0.0829531 0.21913442 0.13286422 -0.095226526 -0.37212366 -0.35009885 0.1730906
0.14960179 -0.02509431 0.004440787 0.20097803 0.030656224 -0.022070108 -0.18648802 -0.1778106
0.14906894 0.15454148 0.0062200995 0.035952043 0.17544797 0.06816002 0.021506965 -0.012862458
-0.039133176 0.11087706 0.069877446 0.036414973 0.124065354 0.09270417 0.0861997 -0.026037332
-0.05744426 -0.021015035 -0.014919544 -0.068802476 -0.0046434794 -0.020203939 -0.07216697 0.011000124
0.056791995 0.06826236 0.07378572 0.022618417 -0.00770814 0.030497763 -0.042210855 -0.09548067
-0.03109356 0.199758 0.89401644 0.10407791 0.20423521 0.8755981 0.30504745 -0.61253077
-0.6489654 -0.65669554 -0.4926079 -0.74755746 -0.15559538 -0.21822095 -0.32333675 0.1426794
0.3271564 0.28023803 0.57435906 0.31170225 -0.35940337 -0.01894095 0.019810349 -0.44493774
-0.3998413 0.2482676 0.17119783 0.20242058 -0.108816214 -0.13019043 -0.12517855 -0.11836411
-0.14980511 -0.16306713 -0.06280759 -0.07421039 -0.092692465 0.11480127 0.09504949 0.09742425
0.08128087 0.05814571 0.04248306 0.08303229 0.07925175 0.07052773 0.0778195 0.055883348
0.11247119 0.008340804 -0.030308343 0.023545802 -0.008061936 -0.04869108 0.011708255 -0.07121394
-0.24402013 -0.1480028 0.035916474 0.13367283 0.19036725 -0.008777866 0.030516444 0.16932942
-0.2484958 -0.26578212 -0.05967561 -0.24407315 0.10481008 0.3645666 -0.24039164 -0.029500484
0.24430965 -0.15991366 -0.030017361 0.049664903 -0.23321474 0.23273933 0.48674184 -0.33452895
-0.03865513 0.30862248 -0.14389756 -0.09168819 -0.31707174 0.026294593 0.080429204 -0.112130545
0.08834803 0.14190136 0.02825724 -0.0058230963 0.13687694 -0.12196679 0.19072662 0.4024934
0.1802137 0.10211243 0.25988716 0.1580895 -0.0019376407 0.20837815 -0.14554411 -0.0025463866
0.21890861 -0.030420732 -0.2593571 -0.1750274 -0.23797728 0.104690865 -0.13340606 -0.1555469
-0.22083284 -0.4960856 -0.2650291 -0.08152154 -0.51946396 -0.25861505 0.276259 0.5184255
0.06904818 0.4435367 0.8329604 0.45091942 0.26606384 0.2236538 0.00632626 -0.2728813
-0.15277638 -0.22257422 -0.3379784 -0.04421556 -0.0271537 -0.0662662 0.049874198 -0.018708797
0.14061628 0.2310078 -0.03896472 -0.027136844 -0.073831014 -0.061809972 -0.07052974 -0.2999931
-0.23223136 0.20134951 0.24641213 -0.17487817 0.12890561 0.052962147 -0.123013474 0.1250953
-0.15703493 -0.28243294 0.22324984 0.3357448 -0.09637083 0.018865466 0.05238039 -0.094812855
-0.08046893 -0.1911642 -0.2789873 0.006785465 0.018783966 0.19942947 0.70785725 -0.2920244
-0.54756147 0.22508217 -0.32820174 -0.17574146 0.1895833 -0.1664354 -0.15513925 1.1127532

module.bn1.weight f4 [64]
00000000: 188c 053f 7b75 a23e 7425 0c3e 78f0 c23e
00000010: 88c5 b53e d3c6 a93e e853 0b3f 143e 9e3e
00000020: e58b 373f e669 2f3f 8116 5c3f a51f 503e
00000030: 43d5 d23e dbd9 cd3e 737b 3b3f 6548 1e3f
00000040: 9339 c13e 87f1 d33e 364e e53e 7b51 443f
00000050: 8fdf 963e b7d0 bc3e 4df6 0a3f ac39 233f
00000060: e881 453f 6360 7c3e 511e a73e cbbc 053f
00000070: f8ec df3e 0f5b 3c3f a33d 043f 94e4 963e
00000080: 1010 5d3f 25ac 863e dabf 8a3b fc31 f83e
00000090: 3a7a 7d3f bdca 2b3f 0f2f f73d 8ec2 573f
000000a0: 4b70 ca3e 46f3 e53e 545a 953e 5e71 503f
000000b0: 6326 d13e ea83 a73e 4352 df3e 6585 ee3e
000000c0: c434 633e e280 1d3f 8671 263f 7e80 763e
000000d0: 87a3 ed3e 0777 e43e d35a f63e d9b0 b13e
000000e0: 1920 863e 22e9 c73e 6250 a73e 4332 713e
000000f0: b734 8a3e 77f8 f93e 106f 9a3e 73e9 053f
0.5216689 0.31730255 0.13686162 0.38074088 0.35502267 0.33159503 0.54424906 0.30906737
0.7169784 0.68520963 0.8597184 0.20324571 0.4117833 0.40205273 0.73235244 0.61829215
0.37739238 0.41395208 0.44786233 0.7668683 0.29467437 0.36877987 0.54282075 0.63759875
0.77151346 0.24646144 0.32640317 0.522412 0.4373548 0.73576444 0.5165655 0.29471266
0.86352634 0.2630321 0.0042342963 0.48475635 0.9901463 0.6710623 0.120695226 0.8428124
0.39538798 0.44912165 0.29170477 0.81422985 0.408496 0.3271783 0.43617448 0.46586147
0.22188097 0.61524785 0.65016973 0.24072453 0.46413824 0.4462206 0.48116168 0.34705237
0.26196364 0.39045054 0.32678515 0.2355433 0.26993343 0.48822376 0.3016286 0.5230934

module.bn1.bias f4 [64]
00000000: 0e55 4c3d 091b 0c3e 59dc cbbd a307 863e
00000010: 9eb3 a0be 2098 1b3e 3298 a0be 7edb 9b3e
00000020: 2df8 cbbe eb8e ac3e 5f74 1bbf f61d 273e
00000030: aae5 aebd aa83 8a3d a060 2abf a099 c9be
00000040: fd06 de3e 735e adbe 45da 97be 78b4 36bf
00000050: 254e 963d bd01 0a3e 3232 7fbe 37f7 babe
00000060: fe72 01bf d65a bfbe 6362 ee3d ab70 e93e
00000070: e730 7abd 7803 0ebf 4e96 b03e 97a1 aabe
00000080: 2d17 02bf 7d12 86bd 27c3 5abc e475 493e
00000090: 9508 0fbf 2411 88be a7de 4fbd d9d4 58bf
000000a0: 056b 57be 6ad3 0c3e 051a 643e e98c 6a3f
000000b0: 0df1 e23e dd37 e73e 00c0 cfbd 7e75 e0be
000000c0: 4164 81be 81f1 b03e 2507 b8be 34d7 3c3e
000000d0: 2fda a83e 0609 91be 59a6 073f c24c 6cbe
000000e0: 3d77 453e 9b46 8a3e 5c98 6dbe 0847 253e
000000f0: 321d 813d 3b20 a6be 295e 8cbe 5120 983e
0.049885802 0.13682188 -0.09954137 0.261777 -0.31387037 0.1519475 -0.31366116 0.30440897
-0.3983778 0.33702788 -0.60724443 0.16320023 -0.08539899 0.06763394 -0.6655369 -0.3937502
0.43364707 -0.33861122 -0.29658714 -0.71369123 0.07339124 0.13477226 -0.24921492 -0.36516735
-0.5056609 -0.3737399 0.116398595 0.4559377 -0.061081793 -0.5547404 0.34489673 -0.33326408
-0.50816613 -0.06546495 -0.013352192 0.19673878 -0.5587247 -0.26575577 -0.050749447 -0.8469978
-0.21036918 0.13752523 0.2227555 0.9162126 0.44324532 0.45159808 -0.10144043 -0.4383964
-0.252718 0.34559253 -0.3594295 0.18441468 0.3297896 -0.28327197 0.529882 -0.23076156
0.19283767 0.27006993 -0.23202652 0.16140378 0.06304397 -0.32446465 -0.27415588 0.29712155

module.bn1.running_mean f4 [64]
00000000: 058b 523d ded6 4ebd 5f4e 97bd d8aa 763d
00000010: 2511 013d 5a2f a9bc 4748 80be 31db 95bd
00000020: 738a 0f3e 06ab 473d 5d2e b93e b0d4 043d
00000030: 7212 e93d 90e7 db3e c4c1 dabd a044 a03e
00000040: 5fca a7bd e719 64be ec82 0fbe e3ef ca3e
00000050: 2e96 b0bc a7b6 6a3d 2fbd 793e 1bbb 683e
00000060: 4b0b a33e d55e adbc cd04 113e b30f ae3b
00000070: 77c2 e43c 97b4 b13e fbcf f03c fa94 dd3c
00000080: 2058 c33d ea58 07be b0c3 9bbb 7d69 3abd
00000090: fe6a 313e 9bac de3e c49c 933d f31f b63e
000000a0: c19e 463e cf3f cebd 69b8 fa3c e2a5 b93d
000000b0: 96bb 5cbc 6a7e 23be 597c b3be 4c00 71be
000000c0: 92b1 02be 5330 fdbd 6b66 4f3d 8635 7e3d
000000d0: d71e 2cbd 564b 273e e365 a7ba 63fb 71bd
000000e0: a4ff 023d 2291 90bd f7f5 cc3d 54bc 073d
000000f0: d26d 19bc 7e1f 133d f2c8 0cbe a087 b53d
0.05140211 -0.050497882 -0.07387995 0.060221523 0.03151049 -0.020652462 -0.25055143 -0.07317198
0.14017658 0.048747085 0.36168185 0.032429397 0.11380471 0.42950106 -0.10681489 0.31302357
-0.08192896 -0.22275506 -0.14014786 0.39636144 -0.021555986 0.057303097 0.24388574 0.22727625
0.31844553 -0.021163383 0.14161988 0.00531193 0.02792476 0.34708092 0.029396048 0.027048577
0.09538293 -0.13217512 -0.0047535524 -0.045510758 0.1732597 0.43491063 0.07207635 0.3557125
0.19396497 -0.10070764 0.030605512 0.09064843 -0.013472458 -0.15966192 -0.35055807 -0.2353527
-0.1276305 -0.12362733 0.050634783 0.062062763 -0.0420216 0.16337332 -0.0012771453 -0.05907763
0.03198208 -0.07058932 0.100078516 0.033138588 -0.009364562 0.035918705 -0.1374853 0.08863759

module.bn1.running_var f4 [64]
00000000: 52bf 4640 c352 1540 72a4 163e 02fb 053f
00000010: 15b5 863e 03b3 2940 be9b ae3f 42d0 813f
00000020: 2a14 2d40 a542 1241 7b50 2e40 7145 4f3f
00000030: bffd 413f 8298 5740 ffbb a93f de39 0440
00000040: 05b2 463f 4068 963f 0aae 5d3f ab1c 4540
00000050: 4724 963f 5c2b 3f40 8787 be3f 6cb2 993f
00000060: f48f 2640 c45c 6d3e b873 853f 8098 c03f
00000070: 6e47 cb3e b43f 0b40 9203 763f cbb7 943e
00000080: 685e cc3f 2cbd 393f 24dd 463a a57e df40
00000090: f1ac 1a40 b1e3 5f40 198b c83d 994a 3940
000000a0: daf4 c03f 3660 0040 cf8a 3340 b634 0440
000000b0: c594 183f f816 0040 50a5 1b40 7078 903f
000000c0: bd2e 933e 9da8 6a40 c450 a03f cded 1c40
000000d0: 74a9 0941 8f5d 593f 832b 5a3f 3b2b c23e
000000e0: fd16 443f bac8 c240 f498 473f d253 243f
000000f0: eb05 553f 5dc5 be3f 76bf ac3e 3016 6f40
3.1054273 2.3331764 0.14711168 0.5233613 0.2631003 2.651551 1.3641279 1.014168
2.7043557 9.141271 2.7236621 0.80965334 0.7577781 3.3686833 1.3260497 2.066032
0.77615386 1.1750565 0.8659369 3.0798748 1.1729821 2.9870214 1.488511 1.2007575
2.6025362 0.23179919 1.042594 1.5046539 0.39702934 2.1757631 0.960992 0.29046473
1.596631 0.7255428 0.0007586053 6.9842095 2.4168055 3.4982722 0.09792156 2.895178
1.5074723 2.0058722 2.8053472 2.0657172 0.59602004 2.001402 2.4319649 1.1286755
0.28746596 3.6665413 1.2524648 2.4520142 8.60387 0.84908384 0.85222644 0.37923607
0.7659758 6.0870028 0.7796776 0.641904 0.83212155 1.490398 0.33739823 3.7357292

module.layer1.0.conv1.weight f4 [16, 64, 3, 3]
00000000: 3398 823d 47f5 da3d a0ef bf3c 60dc bb3d
00000010: 3160 d83c b7b7 873c bada 1f3e efdb aa3d
00000020: 634d c73d c013 c73c d43b 68bd 9399 1fbd
00000030: e675 1c3d 7ee4 e5bc ebad 20bc c4e0 923c
00000040: 935a 2dbd 9b23 fd3c 9e63 88bd e9d9 aabc
00000050: 96ed db3c a4b3 41bd 48b9 c7bc 1228 a93c
00000060: cfe4 fdba 7ab6 38bc 050e 523b f0e3 4b3c
00000070: 10ce 393c 9c07 dfbd de5d 4dbe 343c f83d
00000080: 674a 8e3e e435 d4be 14b2 99bd 9419 df3e
00000090: 1883 96bc 67c2 67bc 9c37 b8bc 0565 aebc
000000a0: ae46 93bc 6428 e4bc 5c14 47bc 92b9 48bc
000000b0: d166 ffbc 2e0f 32bd 42c0 6fbd 50df bb3d
000000c0: 9e1b 1cbc 45bd 2abe 313b b5bc 7c4f 843d
000000d0: 8b16 e4bd 4ac6 9abd cdfa aebd 758b b6bd
000000e0: e4a1 fb3c fc90 0dbd c510 93bd 0c0e d43b
000000f0: 3f92 d0bb 91db 4cbd ebd2 8cbc 05a4 2a3e
00000100: af17 17be f632 43be 1d23 2c3e bb21 fdbd
00000110: 26a7 51be 2e0d 3a3e 6e46 913c d18e 82bd
00000120: 0795 b5bd 4fb3 18bd 6e4f d73d b3b3 abbd
00000130: 9186 12be f69b 7dbd e1ff b5bd 5c6e f3bd
00000140: e836 1dbd e701 b23c 1e73 533d 1517 543c
00000150: 5a68 e73b 3f14 58bd 85f0 a13d 0903 0d3e
00000160: 3b64 eabb 2e12 1f3e 4ca7 14be 7a45 4f3d
00000170: 0d99 823d 69f3 ffbd 70fb 2a3c efe6 d1bc
00000180: 4610 d4bd e39f 80bb 7ce4 5ebd d1c6 f83c
00000190: 8961 66bd d622 aabd 40ae be3d 89f5 2a3c
000001a0: 5ebf 51bd c22f 003e 2ef8 aa3d 10a4 ff3c
000001b0: 9837 97bd 7009 41bd 903d dbbd 6bcf 133d
000001c0: 8999 373d 9d49 a8bd 1f5f e33d c2f3 a83d
000001d0: e86e 713c 5068 87bc 61cd b73d 6c89 513d
000001e0: de56 37bd cb14 0f3d 25a2 da3c 5663 f0bc
000001f0: 680f 7b3b 9a28 36bc eb4a b5bc a3cb 4abc
00000200: ad6f 533d c8b3 c3bd 7051 0dbe 9ff2 963c
00000210: fc76 66bd be42 4bbe 1444 8dbc 7620 23be
00000220: ab1f c3bb 19c5 4f3d 2bcf 0dbe f0f7 34bd
00000230: fde0 883c 12fc 0fbe 3bb1 55bd a6c0 3e3b
00000240: 87d9 b53e 7497 283e d301 dabe 8b20 d9ba
00000250: 4362 db3e 6e1c e8bc 4220 52be 5fc7 083e
00000260: b061 813e 7cd1 ffbc f87f ccbc b545 c2bc
00000270: 64cc a1bc 692a 10bd afbf 5bbd 0bf4 38bd
00000280: cb84 6bbd e27c a7bd b982 16bd cd63 9f3d
00000290: 16b2 5c3c 777d 66bd 6635 033d 948c 31bc
000002a0: 1492 01bd d764 b33c 34ac febc 2785 4cbd
000002b0: eeff 8cbb 1943 973b bce3 15bd 5dd3 d53b
000002c0: 2ccd 123c fe6d b7bb c56e e33b 4f7d 68bc
000002d0: ba1f a0bc 72a9 0ebe bc05 dabd 3016 fa3c
000002e0: ae98 f9bd bce1 08be 6cdb c03d 60bf 40bd
000002f0: 143c f0bd 0f09 6d3d 00d4 03be 6775 9abe
00000300: 3af4 1a3e f6a3 a1bc dd09 85be cc96 7a3e
00000310: 9dcd 143e 3321 e2bd f662 1ebd 3fca efbc
00000320: 222d b83c 0117 5d3d 4076 82bc a7ba 8ebd
00000330: 5ee1 5f3d 9515 403d c28f c5bc f9b8 87bd
00000340: 7ce3 5abb 65dd a13c e426 c7bd f305 07bd
00000350: 3d3f 66bc 18cf 77bc 6317 0a3d bc06 04bc
00000360: 96e5 1bbe e684 d2bd d026 f73c f368 44be
00000370: 9a87 babd 7361 443d fc7b 3fbe 8b1d 6abd
00000380: a8bf 943d 6a63 acbc ac1c c0bb ec11 55bb
00000390: 6ea5 72bc 66f8 673c 934a 013d 2048 133c
000003a0: 5b4b 2c3d 40dd 723d ea6c 8cbd 1e52 5d3c
000003b0: 39cd fa3d 4052 2ebe fad7 61bd 4f69 4d3e
000003c0: 5b3a 0cbe fac5 27be 81a6 983d 8a6c 9bbc
000003d0: 4d37 80bc d266 1c3e fd67 643c ffd0 e7bd
000003e0: 5175 a43c 89ac 0abc 86af debd 2e4d 023d
000003f0: 2215 7cbc 7853 debd 5c8a 7d3d 0de0 18bd
0.06376686 0.10691314 0.023429692 0.091728926 0.026413055 0.016567094 0.15610781 0.0834273
0.09731557 0.02430141 -0.05669768 -0.03896482 0.038198374 -0.028063055 -0.00980709 0.017929442
-0.042322706 0.030900767 -0.066596255 -0.02085586 0.026846688 -0.04729046 -0.024380341 0.02064899
-0.0019370558 -0.011273975 0.0032051813 0.012444481 0.011340633 -0.10890123 -0.20055339 0.12120858
0.2779114 -0.41447365 -0.07504669 0.43574202 -0.018373057 -0.01414547 -0.022487454 -0.021288404
-0.017978039 -0.027851291 -0.01215085 -0.012251275 -0.031176956 -0.043471508 -0.05853296 0.09173453
-0.009528069 -0.16673763 -0.022122951 0.06460473 -0.11137112 -0.07557352 -0.0854393 -0.08913318
0.030716844 -0.034562096 -0.07180933 0.006471401 -0.00636509 -0.050014082 -0.017190417 0.16664131
-0.14755128 -0.19062409 0.1681027 -0.12359949 -0.20473918 0.1816909 0.017733779 -0.06374896
-0.08866315 -0.037280377 0.10513197 -0.08383884 -0.14309146 -0.061916314 -0.08886696 -0.11886284
-0.03838244 0.021729423 0.051623456 0.012944956 0.007062 -0.052753683 0.079072036 0.13770689
-0.0071530617 0.15534279 -0.14516944 0.050603367 0.06376848 -0.12497599 0.010435924 -0.025622813
-0.103546664 -0.00392531 -0.05441712 0.03036824 -0.05624536 -0.08307426 0.09310579 0.010434517
-0.051207893 0.12518218 0.08348118 0.03120616 -0.073836505 -0.04712814 -0.107051015 0.03608648
0.044824157 -0.082171656 0.11102127 0.08249618 0.014735915 -0.016529232 0.0897472 0.051156446
-0.044760577 0.03493194 0.026688645 -0.029344242 0.0038308743 -0.011118079 -0.02213045 -0.012377652
0.051620174 -0.09555775 -0.13800597 0.018426238 -0.056265816 -0.19849679 -0.017244376 -0.15930352
-0.005954703 0.050725076 -0.1384856 -0.044181764 0.016708845 -0.14061001 -0.052170973 0.0029106527
0.35517523 0.16464025 -0.42579517 -0.0016565485 0.42848405 -0.028333869 -0.20520118 0.13357304
0.25269842 -0.03122782 -0.024963364 -0.02371488 -0.019750781 -0.035196695 -0.0536496 -0.045154613
-0.057499688 -0.081781164 -0.03674576 0.07782707 0.013470193 -0.056271996 0.032033347 -0.010836739
-0.03163345 0.02189867 -0.031087972 -0.04993167 -0.00430297 0.004616153 -0.036594138 0.0065254406
0.00896005 -0.005597829 0.006940695 -0.014190032 -0.019546378 -0.13931826 -0.10645625 0.030528158
-0.121873245 -0.13367361 0.094168514 -0.04705751 -0.11730209 0.057869967 -0.1287384 -0.30167696
0.15132228 -0.019731503 -0.25984088 0.24471587 0.1453156 -0.110414885 -0.038668595 -0.029271243
0.022482459 0.053977016 -0.015925527 -0.06969195 0.054658286 0.046895582 -0.0241164 -0.066270776
-0.0033399751 0.01975889 -0.09724215 -0.032964658 -0.014053163 -0.015125059 0.03371371 -0.008058246
-0.15224299 -0.102792546 0.030169874 -0.1918066 -0.09107895 0.047944497 -0.1869964 -0.05715708
0.07263118 -0.021043498 -0.005862793 -0.0032511903 -0.014809949 0.014158344 0.03156526 0.008989364
0.042064052 0.05929303 -0.06856711 0.013508348 0.12246174 -0.17023563 -0.055137612 0.20059703
-0.13694136 -0.16384116 0.07453633 -0.018972654 -0.01565137 0.15273598 0.013940808 -0.1131916
0.020075472 -0.008463987 -0.10873322 0.031811886 -0.015385898 -0.10855764 0.061899528 -0.037323046

module.layer1.0.bn1.weight f4 [16]
00000000: ca9d 443f 71f2 a23f de9f 883f 3aa5 8e3f
00000010: 2091 933f d99e 4c3f d68b 393f d38c 533f
00000020: ca15 423f 641c 483f 624b 7f3f 480b 483f
00000030: a8d2 693f d38b a73f 8c94 333f 49e9 423f
0.76803267 1.2730237 1.0673788 1.1144173 1.1528664 0.7992988 0.72479 0.82636756
0.758145 0.7816832 0.997244 0.78142214 0.9133706 1.3089546 0.7014854 0.76137215

module.layer1.0.bn1.bias f4 [16]
00000000: a8ca 00bf 8578 a53e 5b92 1f3e bff9 1f3f
00000010: 15ac b93e e6dc 04bf f3a9 a1be 820e eebe
00000020: b4aa 9fbe c5df 4fbe ef44 99be ad83 1e3f
00000030: 8122 b2be 20f9 98bf f6d8 523e e3b2 c9be
-0.5030923 0.32318512 0.15583174 0.6249046 0.362641 -0.51899564 -0.31574973 -0.46495444
-0.31184924 -0.20300205 -0.29935405 0.6191967 -0.3479195 -1.1951027 0.20590577 -0.39394292

module.layer1.0.bn1.running_mean f4 [16]
00000000: 1cb7 9cbf e0b0 67bc aebb e2bf 672d 8cbf
00000010: a698 8dbf 0195 51bf 7e95 86bf 1a0c 96bf
00000020: 61f9 80bf c8bd 8cbf 4069 f7bf 4055 85bf
00000030: b735 75bf 44d8 af3e 55c4 08c0 f96e 11c0
-1.224338 -0.014141291 -1.7713525 -1.0951356 -1.106221 -0.81867987 -1.0514371 -1.1722443
-1.0076104 -1.0995417 -1.9328995 -1.0416641 -0.9578509 0.34344685 -2.1369832 -2.2723982

module.layer1.0.bn1.running_var f4 [16]
00000000: 9d6a a33f 3fb8 8640 5548 1040 2991 5a40
00000010: 4a5a 4140 59b4 913f ba8f af3f 468b a63f
00000020: ffed b93f e30d 6b40 3d34 6f40 82aa be3f
00000030: b5ce 8e40 c94d e93f 8249 bc3f 9484 ad3f
1.2766911 4.209991 2.2544148 3.4151099 3.0211358 1.1383163 1.3715737 1.3011253
1.4525756 3.6727226 3.7375634 1.4895785 4.462733 1.8226863 1.4709933 1.3556085

module.layer1.0.conv2.weight f4 [16, 16, 3, 3]
00000000: cb6b 8dbe f176 01be 899e 5b3d 05b2 bfbe
00000010: 1370 acbe eaeb 4fbe 4283 d7be b48f a8be
00000020: 4be4 29be facb e8bd d2a3 52be 7f3f fa3c
00000030: 80d0 40be 1154 14be 2f33 ce3d 6a21 b2bd
00000040: a75a d23c 0b32 d73c 2430 fc3d 99be 0bbd
00000050: edc1 9fbc 87c9 0d3d 71fa f9bd c1d0 68bd
00000060: 3788 0cbd 438f bebc 5717 d53d 3c47 b63d
00000070: d640 d33d 25ee 26be 3951 5dbd a0ef 2abd
00000080: 550c acbc 68f6 383d f429 f53d d433 133c
00000090: 322e 01be f701 d8bd bf6b 873c 0693 1fbe
000000a0: 3789 cbbd 935c 093e d0c5 c0be ebef a7bd
000000b0: ff8f 283e 276a febd daf0 9abe 2986 d8be
000000c0: ca18 aebe 12ca e2be 7d5a f2be 7f1f aebd
000000d0: 7de2 d3bd 2e0a 5fbe 3049 3a3e 9a0f 863d
000000e0: 4cac cf3d 7013 8c3d 9618 bdbd e793 ba3d
000000f0: 02c2 523d db5f a7bd d774 cb3d 3941 c53d
00000100: 7c1a 893c e744 a4bd 77d9 2dbd f96f 8ebd
00000110: fb38 97bd c554 123d 38de 7cbd c80f 9bbd
00000120: 81a4 073d 2a73 9b3d 9248 a2b9 34f3 fa3d
00000130: 9bf0 d13d 9fbd 103e 47b8 823d ed6b 0d3e
00000140: 8ea5 103e bfd8 d5be 6b57 d4be d7d8 65be
00000150: 6c2f f4be ada9 e8be 41ec a1be 3b2a f5be
00000160: 6e43 c9be b242 1bbe f32c c1bc caf3 17be
00000170: d943 d2bd 707b 913d aeee fcbd 2f64 96bd
00000180: 8997 083d b1b9 19be a7e4 393d d676 b6bc
00000190: 5ae5 36bd 0898 55be 9804 443d 4e7a e93c
000001a0: e7b9 36bd 0176 71be dffe 11bd 4306 e23d
000001b0: e644 4abe 34a9 cfbe a837 f6be fe84 9bbe
000001c0: 86dc 0bbf c836 2cbf 28d7 69be 11b1 c9be
000001d0: 5c29 0ebf 83fe 1fbd 0c41 973d d5ce c5bc
000001e0: ebd6 ac3d 4b27 513e d754 d13d 3f1b 8bbd
000001f0: 1cd6 8a3d 5d9b 6dbc cfbf 96bd b651 223d
00000200: 396e 7f3e a279 e6bd 072f dbbc 73c2 de3d
00000210: 2a32 273d eff9 973d a401 443d 0678 c5bd
00000220: 3d10 44be 6fa0 0e3c e4a7 823c 8ea3 b8bd
00000230: 27ec d73d 9193 4f3e 5418 c63c 79d5 1f3e
00000240: 4007 6d3c eaa5 c43d b55e 783a dd50 0a3e
00000250: 503f 773e 15f7 833c 4088 ed3d 9779 973e
00000260: c662 243e 4f9d 243d 1c94 67bd dab1 e2bd
00000270: 44b0 b23d 78f1 cc3a 59b2 8fbb 26df 703d
00000280: cfa5 57bd 5473 2d3d 0380 06bd a765 14be
00000290: a44a 43be 4fcd 9e3d d507 c03d 9f71 8bbd
000002a0: 7ef4 2c3d 312d 4dbc fede 823d 1bf9 253e
000002b0: e2cd 09bd 85b1 e9bc 4d71 9d3e 0af5 18bd
000002c0: 5228 efbd bfd0 e33d 5e95 01bd 7776 a2bd
000002d0: ae8c aabd 6cd7 95bd de84 f6bc 501a 733d
000002e0: ebcf 573d eac6 3ebc e15a cf3c 3f5b 24bd
000002f0: 4179 cfbc b63d c9bd a95c 343d 7db5 253e
00000300: 1ae8 d9bd 155c 0e3d b429 893e 9318 303d
00000310: aede 983d 4931 e13d 953c cc3c ff20 443e
00000320: 1215 f43d 8ac1 bf3c 694c 823e 722a 533e
00000330: 23d9 9538 e583 0d3e afeb 0d3e d779 c23d
00000340: d8e0 8f3e 2e5b 6b3d a56f 2b3e 6696 bc3e
00000350: 90b9 073e 610b d3bd dc29 753e e6d7 153e
00000360: a258 1fbe 9828 f3bd 9b04 abbc d3e3 34bd
00000370: a59d 9ebd ddae b4bd 3da9 ac3d 816c 543e
00000380: 7ac2 563d 066d bc3d 9bab d33d 30ea ee3c
00000390: 0a73 893c 5be6 303d 0dd5 acbc 881e 1cbe
000003a0: cec8 7cbd 8ede 0a3c d863 2a3d fd64 3dbe
000003b0: e11e c2bd 5ef5 1bbc 085c 5cbe b857 42be
000003c0: ac96 fcbd 88f2 25be bb59 34be b5a6 5fbe
000003d0: a223 1d3e c69b ba3e d113 afbe 6c88 343d
000003e0: 89fc a63e 78bf 58be 3d58 ed3c 5fcb 6f3d
000003f0: b9d6 d43d 5144 af3d a60b 983c 5a0d f9ba
-0.27621302 -0.12643029 0.053617988 -0.37440506 -0.33679256 -0.20304838 -0.4209233 -0.32922137
-0.16590993 -0.113670304 -0.20570305 0.030547855 -0.18829536 -0.14485194 0.10068356 -0.086977795
0.025677992 0.02626898 0.123138696 -0.034117315 -0.01950165 0.03461602 -0.12205971 -0.05683971
-0.034309592 -0.023261672 0.10404842 0.08900306 0.10315101 -0.16301782 -0.054032538 -0.04173243
-0.021001974 0.045156866 0.119708925 0.008984525 -0.12615278 -0.1054725 0.01653087 -0.15583429
-0.09938281 0.1341422 -0.3765092 -0.082000576 0.1646118 -0.12422591 -0.3026188 -0.42289856
-0.34003288 -0.44294792 -0.47334662 -0.08502101 -0.103459336 -0.21781227 0.18191981 0.065459445
0.10140285 0.06839645 -0.09233205 0.091102414 0.05145455 -0.0817258 0.09934395 0.09631581
0.016736262 -0.080209546 -0.04244372 -0.06954951 -0.07383915 0.035725374 -0.06173536 -0.075713694
0.033115868 0.07590325 -0.00030953117 0.122534186 0.1025097 0.14134835 0.06382804 0.13810702
0.14125654 -0.41766927 -0.41472945 -0.22445999 -0.4769243 -0.45441952 -0.3162556 -0.47883782
-0.39309257 -0.15162161 -0.023581004 -0.14839092 -0.10266847 0.07103622 -0.12350212 -0.07343327
0.03334764 -0.15012242 0.045384075 -0.022273462 -0.04465232 -0.20858777 0.047855943 0.028500702
-0.044610884 -0.23580171 -0.035643455 0.110363506 -0.19752845 -0.4055878 -0.48089337 -0.30374902
-0.5463337 -0.6727109 -0.22835982 -0.39392903 -0.5553186 -0.03906108 0.073854536 -0.024146477
0.0843943 0.20425145 0.1022126 -0.06792306 0.06779119 -0.0145023735 -0.07360803 0.039628707
0.2494439 -0.11253668 -0.026755823 0.10876932 0.040819325 0.07420718 0.047853127 -0.09642033
-0.1914682 0.008705243 0.015949197 -0.090155706 0.10543089 0.20271136 0.024181522 0.15608777
0.014467061 0.09601958 0.00094745617 0.1350741 0.24145246 0.016109029 0.11598253 0.29584953
0.16053304 0.040189084 -0.056537732 -0.11069079 0.08725026 0.0015635928 -0.0043852744 0.05880656
-0.05264836 0.042346314 -0.032836925 -0.14491902 -0.19071442 0.07754003 0.09376494 -0.06808781
0.042225353 -0.0125229815 0.06390189 0.16208307 -0.03364361 -0.02852703 0.30750504 -0.037343062
-0.11677612 0.111237995 -0.03163659 -0.079327516 -0.08327614 -0.07316479 -0.030092653 0.059351265
0.05268852 -0.0116441045 0.02531189 -0.04012608 -0.025326373 -0.098262236 0.04403368 0.16182514
-0.10639973 0.034755785 0.2678963 0.042992186 0.07464348 0.109957285 0.024931232 0.19153212
0.11918081 0.023407716 0.2544892 0.2062166 7.1453185e-05 0.13819845 0.13859437 0.09495895
0.2810123 0.057460003 0.16741808 0.36833495 0.1325438 -0.10304905 0.2394175 0.1463314
-0.15561154 -0.11872977 -0.02087622 -0.044162583 -0.07744912 -0.08822415 0.08430717 0.20744516
0.05243156 0.09200482 0.103354655 0.029164404 0.016778488 0.043188434 -0.021097684 -0.15246022
-0.06171494 0.008475913 0.041599125 -0.18495555 -0.09478546 -0.009518949 -0.21519482 -0.18978775
-0.12333426 -0.162058 -0.17612354 -0.21840937 0.15345624 0.3644697 -0.34194806 0.044075415
0.32614544 -0.2116679 0.02897274 0.05854356 0.103925176 0.08557952 0.018560242 -0.0019001171

module.layer1.0.bn2.weight f4 [16]
00000000: c027 7b3f 12d7 4d3f 719d 803f c7de a13f
00000010: 8d80 ae3f dd56 a43f 6b9c 533f 9b9b 83bf
00000020: 8a9f c13f aef0 533f 82db ff3e 7ae5 e93e
00000030: 196a bf3f dd16 c33f 1683 be3f b20b b83e
0.9810753 0.80406296 1.0048047 1.2646111 1.363298 1.2839009 0.8266055 -1.0281862
1.5126812 0.82789123 0.4997216 0.4568289 1.4954253 1.5241352 1.4883754 0.35946423

module.layer1.0.bn2.bias f4 [16]
00000000: c0cc 103f 5450 5dbe 3021 81be d597 b1bd
00000010: 1e7d 88bd 13fa c9bd 7484 fb3d 417f 30be
00000020: c567 57bd d237 533c d28c cf3e 0122 873e
00000030: 16c1 bebd 57b9 d1bd 288c c9bd 8fca a73e
0.56562424 -0.21612674 -0.25220633 -0.08671538 -0.06664489 -0.09862151 0.12281123 -0.17236044
-0.052589197 0.012891727 0.40537125 0.2639313 -0.09314172 -0.10240429 -0.09841186 0.32771727

module.layer1.0.bn2.running_mean f4 [16]
00000000: 84d5 0ac0 beae c23c 1973 2a3f 0a2c 91bd
00000010: aee1 383e dfdc 8abf 94bc eebd 13ce 7c3e
00000020: 3489 d3be 9ee8 80be cc7e b4bf 2995 5ebf
00000030: d7c3 69be e027 08bf c098 71be 1ee8 9f3e
-2.169282 0.023764964 0.66581875 -0.07088478 0.1805484 -1.0848655 -0.11657062 0.24687986
-0.41315615 -0.25177473 -1.4101195 -0.8694635 -0.22828613 -0.53185844 -0.23593426 0.3123178

module.layer1.0.bn2.running_var f4 [16]
00000000: 2083 2440 33b2 7f3f 1c2b a83f 95e1 7040
00000010: 9786 8f40 b67b 8740 de45 ce3f 89ef 1b40
00000020: 8f2a e440 6ac8 1140 5860 bd3f f4c6 773f
00000030: 4c8a db40 cddf af40 cf0e a040 57a7 313f
2.5705032 0.99881285 1.3138156 3.7637684 4.4851794 4.2338514 1.6115072 2.436495
7.130195 2.2778573 1.4795027 0.96787953 6.860632 5.4960694 5.0018077 0.69395965

module.layer1.0.shortcut.0.weight f4 [16, 64, 1, 1]
00000000: 3f13 d7be 8fb4 babb 35cf 693c 7967 49bc
00000010: db6a 253d f5de 40be 3b3b 76bd 59eb ff3c
00000020: 8c35 19bc abed a8be 0515 5cbe 3feb 0f3c
00000030: 9861 00be 58db 33be cea9 71be 395f 33bd
00000040: 7081 cebd 72d2 c6bd 046c efbd 3d11 19be
00000050: 84d4 493c 694f 243e bfe1 c7bd 9ebf 04be
00000060: 2466 e9bd a843 e9bc 8725 383d dbbd 8abd
00000070: bb9d 2bbe bf89 58be 00c1 4fbe 4727 1ebd
00000080: 847a 013d a5a9 04bd eff4 03bb f69b b5be
00000090: 77a1 94be 817f bcbd b34d c9bc 7408 70bd
000000a0: 2eb7 e13d 8dad 513e bfa2 053d 98d1 f3bd
000000b0: 3a22 7fbd 14bf a23d 8410 f5ba 0349 98bd
000000c0: ce5e b2bd 5f25 bf3d 644d 3bbc 6cf6 a03c
000000d0: 7257 863c 6bbd c7bd 8058 e43d 75c0 593c
000000e0: c69a 8e3c fdf6 ef3d 90bf af3d f635 a5bc
000000f0: 45ad f4bd 4ce8 923e f78c a3bd 1e72 2fbd
00000100: bf2f 6b3d 4477 79bd 370c 2c3d e9a0 603e
00000110: 9d09 7b3a 7447 eabc 6e73 8e3e 0ad5 cfbe
00000120: 8e90 93bc 7072 8d3c 8bb7 1bbc 198b bf3d
00000130: c75d ee3c 53ed e43e ba2b 4a3e 81ea 6c3d
00000140: bfd3 fbbc 3521 943d 5e69 093e a59b 11bd
00000150: 3f7f 15bd 2a35 26be 5809 983d 1bcd e4bd
00000160: 162c 9a3d ccc8 28be ecee 923e 9ace 74ba
00000170: 9c8b d93d 45ee 16bd ac2a 3bbd 3757 bb3c
00000180: ff71 393c 336e 873d fd5d 9aba 2273 f13d
00000190: 653d 9a3d e913 993d fded 803c 28a8 24bd
000001a0: 1231 003e 0243 84be 90c1 523c b656 06be
000001b0: b18e 4d3b a4b7 113e 121f 36be b7bd 383e
000001c0: 1283 303d f951 0fbe 1f39 a13c 7f20 8cbd
000001d0: 61e0 05be 2a38 bc3d b2d3 60be df45 fd3b
000001e0: 45d9 19be cec7 b9bb 9588 abbd 6763 043e
000001f0: 682a bf3d 5185 9a3d b266 d23c 15bb ecbd
00000200: 4437 1ebe bc2b 58bd 912b 84bd 5f67 d3bd
00000210: 19ef 2bbe 283d 3abe 7f69 6abe 9492 793e
00000220: 29d1 33bc 7a02 2abd 4a84 423e 10e5 b2be
00000230: 1d38 59bd 7edd 513e b155 54be c4a5 febd
00000240: d27b e03c 7cd9 53be fc3f 00be 8711 d3bc
00000250: b120 ecbd 9bd2 30be 180c cb3c 22c6 33be
00000260: f077 5f3c 1126 e1bd 05bb f5be cb4a 063a
00000270: ebf0 f0bd 35fb 8ebe e2b8 243d be3f 1cbe
00000280: 3877 093d 71c7 27be f205 89b9 a44c 123c
00000290: 7933 dbbd 7a87 55be 47f9 4bba d77f 2b3e
000002a0: 7e7f 32be 49ae 163e d1ac 943d d759 373e
000002b0: e8fb 4d3d 9c0a 57bf 5f57 ddbe f6c0 ffbd
000002c0: b19a cdbd 235b 3fbd b51b 9a3d 5de3 073c
000002d0: f0e3 5f3c be74 ac3d 9036 05bd f69d 2dbe
000002e0: 6041 283e 774a fdbc 6b76 2abe 6c57 b2be
000002f0: 0063 9cbe 760e 57bd a979 0abd 2302 4b3d
00000300: 80f1 e5bd d9fc dcbd 9e3b e9bc 96d4 ecbd
00000310: cb26 973c 6899 eb3c 9a6f 823e e12e 783d
00000320: 636e c0bd 3669 b8be 0370 dabd 3d90 40bd
00000330: bf61 8e3d 8689 d63d 5e6b c93c dd54 103c
00000340: c54e f9bd fd73 0e3d 9336 593c b195 dfbd
00000350: 59f2 c13c 829a 6ebd dd30 913d 62ed 6bbe
00000360: 35c6 94be 5a10 403c 04e2 babd af54 5a3c
00000370: dec7 b0bc 7d13 05be 9df2 1e3e 2a10 393d
00000380: 0f02 a83c f691 a0bc e6dc 5fba bf3a 103e
00000390: 58fa 73be 1af9 e43c b2ad 1d3b 5e80 32be
000003a0: 8c4e e2bc 15c1 debd 28f1 5b3e 73cc 063e
000003b0: 40e3 3ebe 7b1b 003a 7c7d ebbd 5c5b 62bb
000003c0: e9c2 8a3a 3123 c33e c2b1 043e 6bdd 63be
000003d0: c5e6 b5be bd54 adbd ee76 0c3d f438 1cbd
000003e0: 070b 0fbe d36b 943e 692e 34bd 5fba dabc
000003f0: eda2 16be eeb0 f7bd 9618 5fbd d770 9fbe
-0.4200687 -0.005697794 0.014270593 -0.012292736 0.04038511 -0.18835051 -0.06011508 0.031240152
-0.0093511455 -0.32993826 -0.21492393 0.008784114 -0.12537229 -0.17564142 -0.23599932 -0.043791983
-0.10083282 -0.09708108 -0.11690524 -0.14947982 0.012318734 0.16045918 -0.097598545 -0.12963721
-0.11396435 -0.028474644 0.044957664 -0.06774493 -0.16759388 -0.21146296 -0.20288467 -0.038611677
0.03161098 -0.032388348 -0.0020135005 -0.3547055 -0.29029438 -0.09204007 -0.024573183 -0.05860181
0.11021267 0.2047636 0.03262591 -0.11905211 -0.0622885 0.079466015 -0.0018696939 -0.07435801
-0.08709489 0.093333 -0.011432026 0.019648753 0.016399119 -0.097529255 0.111496925 0.013290514
0.017407786 0.11717031 0.085814595 -0.020167332 -0.11947111 0.28692853 -0.07985871 -0.04283344
0.05741858 -0.060904756 0.042003836 0.21936382 0.00095763226 -0.028598525 0.2782244 -0.40592223
-0.018013265 0.017266482 -0.009504209 0.09352703 0.02909745 0.44712314 0.19743243 0.057840828
-0.030740617 0.07232896 0.134191 -0.035548825 -0.036498304 -0.16231218 0.07423657 -0.11171933
0.0752794 -0.16482848 0.28697908 -0.00093386474 0.106223315 -0.036848325 -0.045694992 0.022868736
0.011318683 0.06612816 -0.0011777278 0.11789538 0.07531241 0.07474501 0.015738482 -0.04019943
0.12518719 -0.25832373 0.012863532 -0.13119015 0.0031365568 0.1423021 -0.1778529 0.1804112
0.04309375 -0.13996114 0.019680558 -0.06842136 -0.13073875 0.091904 -0.21955755 0.0077292765
-0.15024288 -0.0056695705 -0.0837566 0.12928544 0.0933426 0.07544959 0.025683735 -0.115591206
-0.1545077 -0.052776083 -0.06453622 -0.10322451 -0.16790427 -0.18187392 -0.22891806 0.24372321
-0.010975161 -0.041506268 0.18995777 -0.34940386 -0.05303203 0.20494649 -0.20735814 -0.12433961
0.027402792 -0.20688432 -0.12524408 -0.025765194 -0.11529673 -0.1726784 0.02478604 -0.1755605
0.013639435 -0.10993589 -0.47994247 0.00051228394 -0.117647015 -0.2792603 0.04021538 -0.1525869
0.03356096 -0.16384675 -0.00026135106 0.008929405 -0.10703177 -0.20852461 -0.00077809807 0.16747986
-0.17431447 0.14714922 0.072595246 0.17905365 0.050289065 -0.84000564 -0.4323072 -0.12487976
-0.10039271 -0.046717774 0.07524816 0.008293954 0.013665184 0.08420704 -0.032522738 -0.16954789
0.16431189 -0.030919297 -0.16646735 -0.34832323 -0.3054428 -0.052504025 -0.03380743 0.049562585
-0.11227703 -0.10790414 -0.02847081 -0.11563985 0.018451115 0.028759673 0.2547577 0.060591582
-0.093960546 -0.3601777 -0.10665896 -0.047012556 0.06952237 0.10475449 0.02458733 0.0088092955
-0.12173227 0.034778584 0.01325764 -0.10917223 0.02367513 -0.05825282 0.07089398 -0.23039773
-0.2905747 0.0117226485 -0.0912514 0.013325854 -0.02157968 -0.12995715 0.15522237 0.04518143
0.020508794 -0.01960085 -0.00085396913 0.1408491 -0.23825967 0.027950812 0.002405983 -0.1743178
-0.027625345 -0.10876671 0.21478713 0.13163929 -0.18641376 0.00048869074 -0.114985436 -0.0034539318
0.0010586652 0.38112786 0.12958434 -0.22252433 -0.35527626 -0.08463428 0.034293108 -0.038140252
-0.1396905 0.28988513 -0.043989573 -0.026700197 -0.14710589 -0.120942935 -0.054466806 -0.31140777

module.layer1.0.shortcut.1.weight f4 [16]
00000000: 2115 e03e 64fd f23e 85ff 753f 84a7 f03e
00000010: 4c39 863e a032 9e3e 8c7e 493f 4fd7 593f
00000020: 7add 963d dc1b 753f 7554 183f c01e 383f
00000030: 78f7 be3d f05d d63d aa88 3a3e 2931 383f
0.4376612 0.47458947 0.96093017 0.47002804 0.2621559 0.30898 0.7870872 0.8509416
0.07366462 0.95745635 0.5950387 0.7192192 0.09324545 0.10467136 0.18216196 0.7195001

module.layer1.0.shortcut.1.bias f4 [16]
00000000: c0cc 103f 5450 5dbe 3021 81be d597 b1bd
00000010: 1e7d 88bd 13fa c9bd 7484 fb3d 417f 30be
00000020: c567 57bd d237 533c d28c cf3e 0122 873e
00000030: 16c1 bebd 57b9 d1bd 288c c9bd 8fca a73e
0.56562424 -0.21612674 -0.25220633 -0.08671538 -0.06664489 -0.09862151 0.12281123 -0.17236044
-0.052589197 0.012891727 0.40537125 0.2639313 -0.09314172 -0.10240429 -0.09841186 0.32771727

module.layer1.0.shortcut.1.running_mean f4 [16]
00000000: 0dfd 27bf 5b3a 81be ac9d 2dbf 0644 9bbe
00000010: 8c58 a5be be50 57be 6213 c53e 8a9c 23be
00000020: a125 e9bd 708c 8dbe 86b5 2abc 71fe 9bbf
00000030: 3061 2ebd 8c75 e1bd e52f 57bf 6192 2a3f
-0.656205 -0.25239834 -0.67818713 -0.30325335 -0.32294118 -0.21026894 0.3849135 -0.15977684
-0.1138413 -0.27646208 -0.010419255 -1.2187024 -0.042573154 -0.110087484 -0.84057456 0.66629606

module.layer1.0.shortcut.1.running_var f4 [16]
00000000: cb5a 083f 7592 1a3e cc42 d43e 8d2a f43e
00000010: 1bdc 6c3e 38b2 ae3e 9652 023f 95eb 573f
00000020: ea06 0b3e f120 5c3f 96cd 043f 5348 383f
00000030: d372 113e d6be a93d 2371 933e adc8 163f
0.5326354 0.15094931 0.41457212 0.47688714 0.23130839 0.34120345 0.50907266 0.84343845
0.13576856 0.85987765 0.518762 0.7198536 0.14203958 0.08288352 0.28797254 0.58899957

module.layer2.0.conv1.weight f4 [32, 16, 3, 3]
00000000: 315f dabe 7a9c dbbe 7fc1 b8be c362 86be
00000010: d8fa 0fbd 1bb1 0c3e ed84 5c3d 08ab b53e
00000020: 6c11 bb3e bcb7 a23e ecb2 653e 0c9f 3d3e
00000030: 94d9 463e c790 203e cae1 c53d 0001 febd
00000040: 0f3a 3cbc 39c0 9bbc ac94 5dbc af6e 23bd
00000050: 8c37 8bbd 5ce6 f5bd 95d7 9ebd 43e3 223d
00000060: 4720 c9bd 24a7 babc 5e41 103d 40a2 b23d
00000070: a7b0 113d d6f3 3d3c 0d3e 04bd b411 04be
00000080: 6b91 06be 18a3 27bd a340 0cbe 81e0 2abe
00000090: de89 cd3e c184 e73e af78 573e 22f9 dc3d
000000a0: f442 f5bd 69f0 2fbe b41d 58be 8a5f b1be
000000b0: 6bff 7ebe abe1 153e 9b3e 053e fbfa 253b
000000c0: 45db ad3c 6207 73bd 63c2 19be 2067 c3bd
000000d0: 9a77 1fbe d5cf 46be 92d7 6d3e e0b7 8a3e
000000e0: 5d70 793d d63c febb 56bc 81bd 0e05 4bbd
000000f0: 9a4f 13bd 6150 c1bd c641 42be 18fc 5b3e
00000100: c0ef 873e 53ed 0b3c 0525 8d3e 422a dd3d
00000110: fa1a a93c b03b 093e 9644 b53d 1981 51bd
00000120: 1e49 8d3b ea75 02bd 7edd f0bb fc91 9fbd
00000130: ce93 bbbd 9f75 74be ecf5 03bd 15d0 1abe
00000140: 0be2 35be 7d46 963e 4710 633d e49a b2be
00000150: d233 623e 7b5e bebd c148 b7be 2040 f4bd
00000160: cf74 62be 2938 03be bf29 c8bd 6939 433e
00000170: a1e8 483e e3e7 e03c c863 ee3d 3a63 da3d
00000180: e1fb c83d 14d0 463e bb1a b53d af2e 12bd
00000190: 1fc7 eebc e8e4 2abd 6dfc 3dbd 6d05 b73d
000001a0: 1c2d 4b3d ba0c e9bd 1849 793d 4f2b 393d
000001b0: de01 4f3e d00a 253e 3d5a ebbc 6722 693d
000001c0: 407c adbd 883d 41be 75ba 01be 89db 8cbe
000001d0: 80b2 85be 41e3 873e 5074 c93e bc76 a93d
000001e0: e5c5 973e c830 793e 01f8 23bd aa98 aebd
000001f0: 11d6 21be 3d2a 5dbe b481 0c3e c000 653e
00000200: d1ba c33d 0aac fb3d 5608 a23d 98d2 0cbe
00000210: 3f3e 43be 7e4b a6be d532 77be e5d5 2b3e
00000220: f3b4 2f3e 8cc5 303e a309 1c3c ed95 00bd
00000230: 7af4 4bbd 2dae 1dbe 3e92 4abe 6532 5bbe
00000240: e0ed adbd e4c1 823d 67d5 b7bd 99e5 533e
00000250: 8428 d63e 342f 853e 7c1a 7a3e 05a2 063f
00000260: 9603 e73e f0d7 feb8 48b2 0abc a72c 833c
00000270: 27b2 e33d 1466 c13d 052b 1f3e 0c73 c63d
00000280: 80a5 203e 984b 543e 2249 453e 2b34 c83d
00000290: 38d4 e53d 4065 913d 3309 abbc a316 d03d
000002a0: cdd5 febd 7621 a1bd 4036 6a3d 259a 083e
000002b0: 4669 683e ab3e a13e e672 353d 6f96 5b3d
000002c0: 64b7 9b3e 6e36 f23d 9952 a3bd 6ad9 7cbb
000002d0: 3de6 5b3b 606e 493d 8747 153d d816 7cbd
000002e0: 5d24 97be bb3e fdbd 5192 1abe 1f96 bbbe
000002f0: 298b c7be 45d5 43be fcd9 17be be93 c83c
00000300: 8943 40be 4cb4 92be d7b8 1fbe cf05 5dbe
00000310: 6a58 a5be fb16 73be a77b 29be d6cd d9bd
00000320: d0b8 30bd f492 29be 0c9c 29be 210f 1abe
00000330: 0737 0dbe ba9d 4bbe 3f5d 0fbe 19ab 16be
00000340: f9ca 51bd 4654 30bd e3b7 3dbe b80b 24be
00000350: 0d65 27be 1fd4 00be bdb6 a8be 6310 a2be
00000360: 3dfe c03d 6d00 cdbc 2c97 453d 4c94 d23d
00000370: e48a b3bd edf1 853d b37a 07bd d6ee e7bd
00000380: 6367 8abc ef5d e93d 4e8f 383c 38e7 f8bc
00000390: d690 9dbd c20c 38be 1f0b 52bd c9c1 aabd
000003a0: 6f3c 43be 04cc 673d ef0f 9bbc 7d4c e83c
000003b0: 92dc d7bd 21a6 973d 9c5d 9f3b 9d52 ddbb
000003c0: b06f 36b8 700b 65bd 4839 d03c d8d0 2d3e
000003d0: 49c2 3d3e 33c5 a9bc 230e 023e b8be 193e
000003e0: 2a17 85bb fe54 9e3b ac87 823d 6bb9 2f3d
000003f0: f794 20bd ea21 07be d9dc 02bd b06e 383d
-0.4265075 -0.4289282 -0.36085126 -0.26247224 -0.035151333 0.13739435 0.053837705 0.3548205
0.3653673 0.31780803 0.22431535 0.18517703 0.19418937 0.15680228 0.096622065 -0.124025345
-0.011488452 -0.019012557 -0.013524216 -0.039900478 -0.06797704 -0.12006828 -0.07755963 0.039767515
-0.098206095 -0.022784777 0.03521859 0.08722353 0.03556886 0.01159378 -0.03228574 -0.12897378
-0.1314141 -0.040927023 -0.13696532 -0.16687204 0.40144247 0.4521847 0.21042131 0.10789706
-0.11975661 -0.17181553 -0.21105081 -0.34643203 -0.24902122 0.14636867 0.13012163 0.0025326598
0.02122272 -0.059333213 -0.15015559 -0.09541154 -0.15572968 -0.19415219 0.23226765 0.2709341
0.060898174 -0.007758717 -0.0633475 -0.049565367 -0.035964586 -0.09439159 -0.18970403 0.21482885
0.26550102 0.008540469 0.27567306 0.10799076 0.020642746 0.13401675 0.08850972 -0.051148508
0.0043116948 -0.031850733 -0.0073506227 -0.07791516 -0.09159051 -0.23872994 -0.03221695 -0.1511844
-0.1776201 0.29350653 0.055435445 -0.34883797 0.2209008 -0.092953645 -0.35797694 -0.119262934
-0.22114871 -0.12814392 -0.097735874 0.19064869 0.19619991 0.027454322 0.116401255 0.10663457
0.09813667 0.19415313 0.08842989 -0.035689052 -0.029147683 -0.04172221 -0.04638331 0.08936582
0.049603567 -0.113793805 0.060860723 0.045207318 0.20215556 0.16117406 -0.028729552 0.056917574
-0.084709644 -0.18871129 -0.12668784 -0.27511242 -0.26112747 0.26540568 0.39346552 0.082746
0.2964317 0.24335015 -0.040031437 -0.08525212 -0.15804316 -0.21598144 0.13721353 0.22363567
0.09557117 0.12288673 0.07911746 -0.1375221 -0.19066714 -0.3247947 -0.24140485 0.16780813
0.1715887 0.17262858 0.009523782 -0.03139298 -0.049793698 -0.15398474 -0.1978235 -0.21405943
-0.08492637 0.06384638 -0.0897625 0.20693053 0.41827786 0.26012576 0.24424165 0.5259097
0.45119923 -0.00012151885 -0.008465357 0.016012503 0.11117964 0.09443298 0.15543754 0.09689912
0.15688133 0.20731962 0.19266179 0.09775575 0.11222118 0.0709939 -0.02087841 0.101605676
-0.12443123 -0.0786771 0.057180643 0.13340051 0.22696409 0.31493124 0.04429903 0.05361026
0.30413353 0.11826788 -0.07974739 -0.0038581737 0.003355398 0.049177527 0.036445167 -0.061545223
-0.2951993 -0.123654805 -0.15094878 -0.3663797 -0.38973358 -0.19124325 -0.14829248 0.024484511
-0.18775763 -0.2865318 -0.15597855 -0.21584247 -0.32294017 -0.23739235 -0.16551076 -0.10634963
-0.043145 -0.16559964 -0.16563433 -0.15044834 -0.13790523 -0.19884387 -0.14000414 -0.14713706
-0.05121896 -0.04304912 -0.18527178 -0.16020095 -0.16347142 -0.12580918 -0.32951918 -0.31653127
0.09423492 -0.025024617 0.04823987 0.10282192 -0.08766726 0.06540284 -0.033076 -0.11324851
-0.016895002 0.113948695 0.011264635 -0.030383691 -0.07693641 -0.17973617 -0.051280137 -0.08337743
-0.19066022 0.05659105 -0.018928496 0.028356785 -0.10540117 0.074047334 0.004863454 -0.006754233
-4.34962e-05 -0.05591911 0.025417939 0.16974199 0.18531145 -0.020723915 0.12700705 0.1501416
-0.0040615993 0.004831909 0.063735336 0.042901438 -0.039204564 -0.13196531 -0.031948898 0.045027435

module.layer2.0.bn1.weight f4 [32]
00000000: 745c 4e3f 2e03 843f 1eaa 863f 1109 723f
00000010: 03ba 643f 4140 3e3f a9d8 2f3f bcc8 4e3f
00000020: 8c2c 313f 5662 443f d1ea 593f 03c3 6f3f
00000030: 3337 143f e981 2b3f ab5d 3a3f 59cb 483f
00000040: f06a 593f 9046 283f 0d41 363f 1854 6d3f
00000050: 7cc7 293f 5d34 643f cb15 a43f ea02 553f
00000060: 907e 413f 5f50 123f e63c 763f 24cb 623f
00000070: 12f8 353f 36cd 883f 5bd7 103f 4d1e 403f
0.8060982 1.031347 1.0520666 0.94545084 0.8934633 0.74316794 0.6868997 0.80775046
0.692086 0.7671255 0.85123926 0.9365694 0.5789673 0.669951 0.72799176 0.78435284
0.849288 0.6573267 0.7119301 0.9270644 0.66320014 0.891424 1.2819151 0.8320757
0.75583744 0.57153887 0.96186674 0.8859122 0.7108165 1.0687625 0.56578606 0.75046235

module.layer2.0.bn1.bias f4 [32]
00000000: 9a77 a5be 771b 63be 8a03 1bbf b4fd ba3c
00000010: 6957 bdbe f2d9 8ebe 370e 1cbe df08 4cbe
00000020: 289d 1dbd 7cd5 133f 90e8 92bb b4d9 09bf
00000030: 4c64 1e3e e3d4 113e 9950 4fbd 254b b8be
00000040: 01c5 543e 5119 703c 3200 88be 6e6f 0cbf
00000050: 4590 e33e 997f 893e b982 9ebe a66c 833e
00000060: 76a2 9abd 655c 703e 677e d6be 65cc 1fbd
00000070: 9493 3fbc 92b1 25be a5eb 3a3e 1f88 e5bd
-0.3231781 -0.22178446 -0.60552275 0.022826053 -0.3698075 -0.27900654 -0.15239798 -0.19925259
-0.038479954 0.57747626 -0.00448329 -0.53847814 0.15467948 0.14241366 -0.050613973 -0.3599483
0.20778276 0.014654473 -0.2656265 -0.5485753 0.44446006 0.26855162 -0.30959108 0.2566883
-0.07550518 0.23472746 -0.41893312 -0.039013285 -0.0116929 -0.16181019 0.18253954 -0.11207604

module.layer2.0.bn1.running_mean f4 [32]
00000000: 5db8 22bf 91e3 7f3f 8f11 08c0 f3fc 063f
00000010: 0ffb c1bf 20d7 893f 61c2 4340 df67 cdbf
00000020: ca8d 60be cd80 7ac0 bc78 bebf a176 14c0
00000030: ea8d 2a3b 1c5c 05c0 a575 6ebf 97e1 1dbf
00000040: d108 49c0 1fca 6d40 9770 e7be 62eb 4640
00000050: 9e09 503f 7bda 0dc0 3c37 8fc0 d259 cdbe
00000060: 1320 603f 99b7 a0bf 7d5a a4bf 52fd c7bf
00000070: 0734 8740 66b3 7bc0 3e8b 86c0 7400 8b3f
-0.63562566 0.99956614 -2.1260717 0.5272972 -1.5154742 1.0768776 3.058739 -1.6047324
-0.21929088 -3.9141114 -1.4880595 -2.3197405 0.0026024529 -2.083747 -0.9314826 -0.6167235
-3.141163 3.7154615 -0.45203087 3.1081166 0.81264675 -2.21646 -4.4754925 -0.4010759
0.8754894 -1.255603 -1.2840115 -1.5624182 4.225101 -3.9328246 -4.2044973 1.0859513

module.layer2.0.bn1.running_var f4 [32]
00000000: e210 5040 a304 d940 6321 7740 2aa5 d340
00000010: d9db 5f40 e08c 6840 ee19 ae40 0970 7040
00000020: dfcb 3f40 bfb0 3d41 fee6 0641 e105 7a40
00000030: a12c 5740 82e4 9f40 dde9 8840 d2c7 6440
00000040: c5ab cf40 a73d ba40 da9d 9340 c134 6f40
00000050: d657 ba40 c469 1141 59e2 1e41 8d65 0b41
00000060: 80d2 9240 4ff7 4840 301d 6140 49cd bf40
00000070: 783a 7d40 c048 0341 063a aa40 89ba cc40
3.2510304 6.781816 3.8614128 6.6139116 3.4977934 3.6335983 5.4406652 3.756838
2.9968183 11.855651 8.431395 3.9066088 3.362099 4.996644 4.278548 3.574696
6.489718 5.820026 4.613019 3.7375948 5.823222 9.088322 9.930261 8.712293
4.588196 3.1400945 3.5174065 5.993809 3.9566936 8.205261 5.319583 6.3977704
