results/YrJd/cifar10/ikd/resnet8_best.pth.tar (torch_old, 371450 bytes, 52 tensors)

module.conv1.weight f4 [64, 3, 3, 3]
0	0x3cb20c60	0.021734416
1	0xbad5b8d1	-0.001630569
2	0x3d3e9dd7	0.046537247
3	0x3d2bd895	0.041954596
4	0xbc14deb3	-0.009086299
5	0x3d3fa672	0.046789594
6	0x3c825e10	0.015913993
7	0xbd6ad575	-0.057332475
8	0xbba4dbbb	-0.0050310767
9	0x3ce95919	0.028484868
10	0x3afeab46	0.0019429706
11	0x3d3fc9a4	0.04682316
12	0x3d0df81c	0.034660444
13	0xbc8af19c	-0.016960911
14	0x3d0b3472	0.033985563
15	0xbb34c6bd	-0.0027584278
16	0xbd8dc64d	-0.069225885
17	0xbc8ef8a7	-0.017452551
18	0x3d436f32	0.047713466
19	0x3d12454b	0.035710614
20	0x3d9ff009	0.07809455
21	0x3d5ca8fc	0.053872094
22	0x3c7e51e6	0.015522456
23	0x3d88fc09	0.06688697
24	0x3c95c2bf	0.018281339
25	0xbd06bb25	-0.03289332
26	0x3c9f67f6	0.019458752
27	0x3def0021	0.116699465
28	0x3e5dcb93	0.21659689
29	0x3e3bb665	0.18331297
30	0xbf27b1d2	-0.6550571
31	0x3ea4de8b	0.32201037
32	0x3e99efdc	0.3006581
33	0xbe3fd79f	-0.18734597
34	0xbde68fc7	-0.11257892
35	0xbe8c44bd	-0.27396193
36	0x3c3eac72	0.011637794
37	0x3d2a8707	0.04163268
38	0xbd1fac8f	-0.038982924
39	0xbf0df34c	-0.55449367
40	0x3ed9e4ed	0.4255747
41	0x3e548ad6	0.20756087
42	0x3df8ce5a	0.121487334
43	0x3e57127f	0.2100315
44	0xbe642070	-0.22277999
45	0x3da16343	0.07880261
46	0xbe46c5da	-0.19411412
47	0xbe94e723	-0.29082593
48	0xbe9c2241	-0.30494884
49	0x3e6dc67b	0.23220246
50	0xbb9f5533	-0.0048624515
51	0x3e8308c5	0.25592628
52	0x3eb0a27c	0.34498966
53	0xbe14b92e	-0.14523765
54	0x39ec2145	0.00045038215
55	0xba28f7c1	-0.00064456096
56	0xba79d52d	-0.0009530362
57	0x3a2f8849	0.0006696028
58	0xb9c99bb7	-0.00038453724
59	0xba898723	-0.0010492544
60	0x391d825d	0.00015021251
61	0xb980c94f	-0.0002456405
62	0xba118245	-0.00055507227
63	0xbafc6a85	-0.001925782
64	0xbb2f07ad	-0.0026707456
65	0xbb32296f	-0.002718534
66	0xba86d40a	-0.0010286581
67	0xba8db187	-0.0010810354
68	0xbac6e20d	-0.001517357
69	0xbacc81cd	-0.0015602648
70	0xbab9ce1e	-0.0014175808
71	0xbacea1fc	-0.0015764828
72	0xb95b6d89	-0.00020926273
73	0xb9c08ebd	-0.00036727442
74	0xb8a43fc2	-7.832005e-05
75	0x3a355611	0.0006917427
76	0x3a9f742e	0.0012165362
77	0x3a505d0f	0.0007948437
78	0xba84cc48	-0.0010131681
79	0x39bacd43	0.00035629616
80	0x3a27c366	0.0006399661
81	0xbeabce09	-0.3355563
82	0xbce8c216	-0.02841286
83	0x3ecbb805	0.39788833
84	0x3e5f3e94	0.21801215
85	0xbd8eda8a	-0.06975277
86	0xbcb9ed7d	-0.022696251
87	0xbdf89458	-0.12137669
88	0x3dfb28fd	0.12263677
89	0xbd63ff92	-0.055663653
90	0xbeadd7e6	-0.3395378
91	0xbe02aee4	-0.12762028
92	0x3eb963b5	0.36208883
93	0x3eb9cdad	0.3628973
94	0xbe446045	-0.19177349
95	0xbe64b048	-0.22332871
96	0x3c99ae30	0.018759817
97	0x3dd022bc	0.10162875
98	0xbc13eb54	-0.009028275
99	0xbe4c5bb0	-0.19956851
100	0xbd0cd84b	-0.03438596
101	0x3eaaf64d	0.33391038
102	0x3eb9398f	0.36176726
103	0xbe253f2b	-0.16137378
104	0xbe2a7176	-0.16644844
105	0x3d7aa0c5	0.061188478
106	0xbd0bf197	-0.034165945
107	0xbd512248	-0.051058084
108	0x3e04d2c3	0.12971024
109	0xbe4f307a	-0.20233336
110	0x3e250f35	0.16119082
111	0xbcd575d9	-0.02605717
112	0xbee2e405	-0.4431459
113	0xbaf8bbd0	-0.0018976871
114	0x3ea1c98b	0.31599078
115	0xbdbd6151	-0.09247077
116	0x3e2dc75d	0.16970582
117	0x3e3b9158	0.18317163
118	0xbde1c49b	-0.11023828
119	0x3dff7b6f	0.12474715
120	0x3c733f9e	0.0148467105
121	0xbeb93c25	-0.361787
122	0xbb45ab37	-0.0030161866
123	0x3e7b2eda	0.24529591
124	0xbe074440	-0.13209629
125	0x3e1fc047	0.15600692
126	0x3d40e35a	0.04709182
127	0xbe2ee42a	-0.17079225
128	0x3d8bae1d	0.06820319
129	0xbe052d57	-0.13005577
130	0xbed5bbdd	-0.4174489
131	0xbd9d626c	-0.07684788
132	0x3c52aa61	0.012858004
133	0xbe8e315c	-0.27772033
134	0xb934d778	-0.00017246406
135	0x3c8f6a68	0.017506793
136	0xbcede938	-0.029041871
137	0x3dd75454	0.10514131
138	0xbe198950	-0.14993787
139	0xbe48aad7	-0.1959642
140	0x3dd4e706	0.10395627
141	0x3d619024	0.055069104
142	0xbd0bfe6a	-0.034178175
143	0x3e21dd9b	0.15807192
144	0x3d8cb63c	0.06870696
145	0xbbdc4cc1	-0.006723017
146	0x3d23295d	0.03983437
147	0xbda21209	-0.07913596
148	0xbe2436fe	-0.16036603
149	0xbc03289a	-0.008005286
150	0x3def3488	0.116799414
151	0x3caf995c	0.021435432
152	0x3db9eebc	0.09078738
153	0x3b91172c	0.004427811
154	0xbd59af53	-0.053145718
155	0xbda82b26	-0.08211355
156	0xbdca2586	-0.09870438
157	0xbe5f6412	-0.21815518
158	0xbe2d0d3e	-0.16899583
159	0x3d12e5e0	0.035863757
160	0xbdd73ee9	-0.10510046
161	0xbdf7cd00	-0.120996475
162	0x3d4b1b38	0.049586505
163	0x3d54959f	0.051900502
164	0x3dc0469d	0.093884684
165	0x3d84952f	0.06473767
166	0xbc27e785	-0.01024807
167	0x3bb25907	0.005442742
168	0x3d85195a	0.06498976
169	0xbb06607f	-0.0020504293
170	0xbbe4d2b3	-0.006983125
171	0x3d220013	0.039550852
172	0x3cd1de0b	0.025618574
173	0x3d752b3e	0.059855692
174	0x3d280286	0.04101803
175	0xbd338706	-0.04382994
176	0xbd10966e	-0.03529971
177	0x3d4296a3	0.04750694
178	0xbc742447	-0.014901227
179	0xbce14b84	-0.027501829
180	0x3bbe9a1d	0.0058167116
181	0x3b800e5b	0.0039079613
182	0x3cc008c6	0.023441684
183	0x3c8ac67e	0.016940352
184	0xbd5df423	-0.054187905
185	0xbd848f78	-0.06472677
186	0x3d17c2b3	0.037050914
187	0xbccfe4d7	-0.025377674
188	0xbd8a8949	-0.06764466
189	0x3d895263	0.06705167
190	0x3da65930	0.0812248
191	0x3d71e2d4	0.05905421
192	0x3cf91f5a	0.030410457
193	0x3cb0a4fe	0.02156305
194	0x3c1a1f97	0.009406946
195	0xbc0894de	-0.008336274
196	0xbd160a20	-0.03663075
197	0xbd3fc179	-0.04681537
198	0xbbfafaf1	-0.007659309
199	0x39deb9d9	0.00042481607
200	0x3b2f51ad	0.0026751563
201	0xba6d799e	-0.0009058955
202	0xbad385c0	-0.0016137883
203	0x39bf474d	0.00036483482
204	0x3ccf9a08	0.025342003
205	0x3c9852a7	0.0185941
206	0x3c17cffc	0.009265896
207	0xbd548a21	-0.051889542
208	0xbc6cfef9	-0.014465087
209	0xbbea35d8	-0.007147532
210	0xbac9c773	-0.0015394524
211	0x3d276a53	0.040872883
212	0x3d3a6a35	0.045511443
213	0x3d5eb83e	0.054374926
214	0x3dbd9812	0.09257521
215	0x3db2cebd	0.087308384
216	0xbe46f05a	-0.19427624
217	0xbe6cd562	-0.23128274
218	0xbe20564b	-0.15657918
219	0x3d7c0f8a	0.061538257
220	0x3da9c7b5	0.08290044
221	0x3de2d1ef	0.11075198
222	0x3e04b292	0.12958744
223	0x3e265469	0.16243137
224	0x3e407ba6	0.18797168
225	0xbe357512	-0.1772044
226	0xbe52ad22	-0.20573857
227	0xbe21871a	-0.15774193
228	0xbb3b4eb1	-0.002858084
229	0x3ca6bc1b	0.020353368
230	0x3d1f4767	0.038886454
231	0x3d3d002c	0.046142742
232	0x3d7106b6	0.05884429
233	0x3db99db8	0.090632856
234	0xbe0297ff	-0.12753294
235	0xbe1b39d8	-0.15158784
236	0xbda69279	-0.08133406
237	0xbbcd5214	-0.006265888
238	0x3cb5f1ef	0.02221009
239	0x3d804dea	0.06264861
240	0x3d0c56dc	0.034262523
241	0x3d1cf03f	0.038315054
242	0x3dba1eae	0.09087883
243	0x3d92b83e	0.07164048
244	0xbc859993	-0.016308581
245	0xbdc06c5e	-0.093956694
246	0x3e53f7e4	0.20700032
247	0xbc537b51	-0.012907819
248	0xbe7cefdd	-0.24700876
249	0x3e073b1a	0.13206139
250	0xbd08e31d	-0.033419717
251	0xbdf7fbab	-0.12108549
252	0x3e20fa3a	0.15720454
253	0xbc8d9730	-0.017284006
254	0xbe0d5c28	-0.13804686
255	0x3ea3b341	0.31972697

module.bn1.weight f4 [64]
0	0x3e0e53c5	0.13899143
1	0x3eaf4463	0.34231862
2	0x3aaba239	0.0013094611
3	0x3eb4ad3b	0.35288414
4	0x3f4d4979	0.80190235
5	0x3f10fbcb	0.56634206
6	0x3e4328d0	0.19058537
7	0x3c313546	0.010815924
8	0x3ec2f203	0.38075265
9	0x3e855b49	0.26046208
10	0x3e9facf6	0.31186646
11	0x3e8ae9b5	0.2713143
12	0x3e3090cc	0.17242736
13	0x3e56c379	0.20973004
14	0x3ec319ac	0.38105524
15	0x3ef852a9	0.48500565
16	0x3eb4d371	0.35317567
17	0x3dfe1bff	0.124076836
18	0x3ed1f719	0.41008833
19	0x3d893f04	0.067014724
20	0x3f043464	0.5164244
21	0x3ed31098	0.41223598
22	0x3f2dc112	0.67872727
23	0x3e7eaf3c	0.24871534
24	0x3ebb57a5	0.36590305
25	0x3e44c36a	0.1921517
26	0x3ef73658	0.48283648
27	0x3ef2e4b3	0.4744011
28	0x3e009951	0.12558486
29	0x3f00c4e0	0.5030041
30	0x3e82930f	0.25502822
31	0x3e9da00c	0.3078617
32	0x3e34ed97	0.17668758
33	0x3e5232df	0.20527218
34	0x3ebded9b	0.3709534
35	0x3e500ae4	0.20316654
36	0x3ecf5ecb	0.4050201
37	0x3eb943d2	0.36184555
38	0x3e8acc7a	0.27109128
39	0x3eb083dd	0.34475604
40	0x3f208120	0.6269703
41	0x3e92db7d	0.2868308
42	0x3e34826a	0.17627874
43	0x3eabb775	0.33538404
44	0x3eb33531	0.3500152
45	0x3ed53d05	0.41648117
46	0x3ec1d1ff	0.37855527
47	0x3e6eca18	0.2331928
48	0x3e08df18	0.13366354
49	0x3e974811	0.2954717
50	0x3d998ee2	0.07497956
51	0x3ed89618	0.42302012
52	0x3e982550	0.29715967
53	0x3e9c6683	0.3054696
54	0x3e8645c9	0.26225117
55	0x3ec8f38a	0.39248306
56	0x3eb29c2b	0.34884772
57	0x3e882b6d	0.2659563
58	0x3e7e120d	0.24811573
59	0x3d0fcef3	0.03510947
60	0x3ec14364	0.37746727
61	0x3e8ce17d	0.27515784
62	0x3eafbd45	0.3432409
63	0x3d8e8019	0.069580264

module.bn1.bias f4 [64]
0	0xbe334773	-0.17507724
1	0x3eb32da0	0.34995747
2	0xbb4dfceb	-0.0031431268
3	0x3e8b6195	0.27222887
4	0xbf1146d9	-0.5674873
5	0xbe9b0104	-0.30274212
6	0xbe4250bf	-0.18976115
7	0xbd391416	-0.04518517
8	0xbdd09d92	-0.10186304
9	0x3e15b6eb	0.14620559
10	0x3c1e10a3	0.009647521
11	0xbdc59c1a	-0.09648915
12	0x3e00a160	0.1256156
13	0x3e36d532	0.17854765
14	0xbd0d3763	-0.03447665
15	0x3e8c8ff8	0.2745359
16	0x3e0abde6	0.13549003
17	0xbdddf362	-0.10837437
18	0xbe04cd41	-0.12968923
19	0xbd7d122b	-0.061784904
20	0x3e9b5fdd	0.30346575
21	0xbcf646e0	-0.030063093
22	0xbeed971d	-0.46404353
23	0xbe0e354f	-0.13887523
24	0x3de9ff30	0.11425626
25	0xbe3034a3	-0.1720758
26	0x3ec4b989	0.38422802
27	0x3ecee2e2	0.40407473
28	0x3d2db378	0.042407483
29	0xbe9f4c90	-0.311131
30	0xbd4e5923	-0.050377976
31	0x3e0ce180	0.13757896
32	0x3dba2173	0.09088411
33	0x3e1ead2d	0.15495749
34	0xbe349133	-0.17633514
35	0xbe1f23ba	-0.15540972
36	0x3df6a560	0.120432615
37	0x3e2ced52	0.16887406
38	0x3e17224e	0.1475918
39	0xbea559cf	-0.3229508
40	0xbea31ef6	-0.3185956
41	0xbe6364d6	-0.22206435
42	0x3e2cf73d	0.16891189
43	0x3f3043cd	0.68853456
44	0x3e6baaff	0.23014449
45	0xbe2fcf97	-0.17169033
46	0xbe8f644c	-0.28006208
47	0x3e3d27f0	0.18472266
48	0xbdc741a0	-0.09729314
49	0x3def8dd0	0.116969705
50	0xbd62cf8d	-0.055373717
51	0x3e1ca5cd	0.15297623
52	0xbdc8e0c9	-0.09808499
53	0xbe8a5a08	-0.27021813
54	0xbe192886	-0.14956865
55	0x3dd70387	0.1049872
56	0xbe0ac2ff	-0.13550948
57	0xbcd4d107	-0.025978578
58	0xbdc6c022	-0.09704615
59	0xbca45a33	-0.020062542
60	0x3a4b13f5	0.0007746809
61	0x3e1f0399	0.15528716
62	0xbe75b349	-0.23994173
63	0x3ccafaa0	0.02477771

module.bn1.running_mean f4 [64]
0	0xbdde2065	-0.108460225
1	0xbd95c764	-0.07313421
2	0x3b947084	0.0045300145
3	0xbceed321	-0.029153408
4	0x3e9ba501	0.30399325
5	0x3e585a71	0.2112825
6	0xbd954b09	-0.072897024
7	0xbe017daf	-0.126456
8	0x3d5c6d99	0.053815458
9	0xbc9640c7	-0.018341435
10	0x3e5c2a72	0.21500567
11	0x3d442d14	0.047894552
12	0xbd261803	-0.040550243
13	0xbd0264d5	-0.031834442
14	0x3e8c9151	0.27454618
15	0x3db9f015	0.09078995
16	0xbda595c4	-0.08085206
17	0x3cf9eb12	0.030507598
18	0x3e43b957	0.1911367
19	0xbc94de8d	-0.018172527
20	0xbdc1837d	-0.094489075
21	0xbc052c38	-0.008128218
22	0x3eb830d5	0.35974756
23	0xbde6e065	-0.112732686
24	0x3ddd2f33	0.10800018
25	0xbd0a2e26	-0.033735417
26	0x3dbc90aa	0.0920728
27	0xbd22e4f4	-0.039769128
28	0xbd1cc7ac	-0.03827636
29	0x3deac0aa	0.11462529
30	0x3d934918	0.07191676
31	0xbb556b23	-0.003256508
32	0xbd02c7c7	-0.031928804
33	0xbbf647e9	-0.0075158966
34	0xbcbdd978	-0.023174986
35	0xbdc7df7b	-0.097594224
36	0xbd8ec0f2	-0.06970395
37	0xbd4f6966	-0.050637625
38	0xbcaae477	-0.020860894
39	0xbe462ec2	-0.19353774
40	0x3d90afa5	0.070647515
41	0x3dec82f2	0.11548413
42	0xbe020250	-0.12696195
43	0xbcef8e5c	-0.029242687
44	0xbcb113ad	-0.021615827
45	0x3b6b8d95	0.0035942544
46	0x3d720dae	0.059095077
47	0x3cd6401a	0.026153613
48	0xbd654075	-0.055969674
49	0x3da051e0	0.078281164
50	0x3c8a248f	0.016863136
51	0xbcfac105	-0.030609617
52	0x3d459570	0.048238218
53	0xbe128b25	-0.14310892
54	0xbdcc915e	-0.09988664
55	0x3d5ca979	0.05387256
56	0x3d9f6a72	0.07783975
57	0xbe80abd9	-0.2513111
58	0xbe28de71	-0.16491105
59	0xbba5de89	-0.0050619286
60	0x3c7a4890	0.015276089
61	0x3cda31e6	0.026635122
62	0xbd8ddfb3	-0.06927433
63	0xbcdc633f	-0.026902793

module.bn1.running_var f4 [64]
0	0x3ea4adb3	0.32163772
1	0x3f5e349d	0.8679903
2	0x39b94c45	0.00035342775
3	0x3eae1325	0.3399898
4	0x402f64be	2.7405238
5	0x3f95712a	1.167516
6	0x3e36ef25	0.17864664
7	0x3e9aafe5	0.30212322
8	0x3fb6f157	1.4292401
9	0x4021d5d4	2.528676
10	0x3f833905	1.0251776
11	0x3e4ed5f5	0.20198806
12	0x3ea02f06	0.31285876
13	0x3f12ab18	0.5729232
14	0x3fd43df2	1.6581404
15	0x3fcd2e44	1.6029744
16	0x3ff935c1	1.9469529
17	0x3ccba877	0.024860604
18	0x3f448aa9	0.7677408
19	0x3c9b1c4c	0.018934391
20	0x3fe7fd4f	1.8124179
21	0x402602f2	2.5939298
22	0x400628dc	2.0962439
23	0x3eb03319	0.34413984
24	0x3f5d35fe	0.8641051
25	0x3e145e95	0.14489205
26	0x3fbacc36	1.459357
27	0x3f586a08	0.8453679
28	0x3e74a1a0	0.2388978
29	0x3f20b512	0.6277629
30	0x3ea032a6	0.31288642
31	0x3f8873d6	1.066035
32	0x3f83d2a9	1.0298663
33	0x3eb408c6	0.35162944
34	0x3e68362c	0.22676915
35	0x3e7baf71	0.24578644
36	0x3f9aeb1d	1.2103001
37	0x403fc0a2	2.9961324
38	0x3f3e4831	0.74328905
39	0x3f22cda0	0.6359501
40	0x3ffc753b	1.9723276
41	0x3e954c70	0.2915988
42	0x3f78bd66	0.97164
43	0x3e7be4b0	0.24598956
44	0x404764ee	3.1155353
45	0x3f5cbd28	0.8622613
46	0x3f0357bc	0.5130575
47	0x3df3b85f	0.119004
48	0x3d8ac0f8	0.06775087
49	0x3fad6258	1.3545637
50	0x3c1fe538	0.00975924
51	0x40656d4b	3.5847957
52	0x3dffa36f	0.12482344
53	0x3ede545c	0.43423736
54	0x3e55dde8	0.20885432
55	0x3eadc40a	0.33938628
56	0x3f0f9dbc	0.5610006
57	0x3fa9c5eb	1.3263525
58	0x3f1b94aa	0.6077372
59	0x3a73f20a	0.0009305781
60	0x3e98d2dc	0.29848373
61	0x3fd8c3b3	1.6934723
62	0x3eb1964a	0.34684974
63	0x3d9e4012	0.07727064

module.layer1.0.conv1.weight f4 [16, 64, 3, 3]
0	0x3c7a1c90	0.015265599
1	0xbb78fd56	-0.0037992797
2	0xbc799cfd	-0.015235183
3	0x3c7cdb4f	0.015433147
4	0x3b88a9de	0.0041706404
5	0x3aa94d54	0.0012916722
6	0x3c459a95	0.012060781
7	0x3c5af3ed	0.0133638205
8	0x3ca371e2	0.019951764
9	0xbdfe3ed3	-0.124143265
10	0xbdf7e3b2	-0.12103976
11	0xbd131ef0	-0.035918176
12	0x3d577cac	0.05260913
13	0x3e0e7cbc	0.1391477
14	0x3e1c9993	0.15292959
15	0x3d8d86e2	0.069104925
16	0xbd6f5cd9	-0.058438156
17	0x3b3dcd9d	0.0028961666
18	0xb9c7fb30	-0.00038143387
19	0x395785ed	0.00020553889
20	0x3a228e39	0.00062010024
21	0xba0526f7	-0.00050793536
22	0xb85afe5f	-5.221215e-05
23	0x3a285774	0.0006421723
24	0xb9ad798b	-0.00033087688
25	0x38a0144e	7.6331766e-05
26	0x3984812f	0.0002527325
27	0xbcda9d06	-0.026686203
28	0xbd00e9cb	-0.031472962
29	0xbd816d26	-0.063196465
30	0x3c642305	0.013924365
31	0xbe0c4b16	-0.13700518
32	0xbdd518d6	-0.10405128
33	0x3dfe94dd	0.12430737
34	0x3d5ada9c	0.05343114
35	0x3df17e49	0.11791665
36	0xbe05fd9b	-0.13085024
37	0xbdacdd42	-0.08440639
38	0xbd2a06b0	-0.041510284
39	0x3c1ffce2	0.009764882
40	0xbd7fd557	-0.062459316
41	0xbdfbd93d	-0.12297294
42	0x3d1e0212	0.038576193
43	0xbd379a28	-0.04482475
44	0xbdbf078b	-0.093276106
45	0x3cf892d3	0.030343449
46	0x3c59ab88	0.013285525
47	0x3d0601f5	0.03271671
48	0x3dbcae98	0.092129886
49	0x3c7cd89d	0.015432504
50	0xbce1ede9	-0.027579265
51	0x3d3589c3	0.044320833
52	0x3c2e154d	0.010625196
53	0xbc596287	-0.01326812
54	0xbc87977d	-0.016551727
55	0xbcf75f09	-0.030196683
56	0xbd257adb	-0.040400367
57	0xbc1678e0	-0.009184092
58	0xbc99c018	-0.018768355
59	0xbce31dbe	-0.027724143
60	0xbaa45b31	-0.0012539384
61	0x3c38710b	0.01125742
62	0x3c1b1faf	0.009468003
63	0xbb5d49f2	-0.0033765999
64	0x39baad11	0.0003560563
65	0x3c58e433	0.013238001
66	0x3be56b63	0.007001327
67	0x3bc108a6	0.0058909236
68	0x3c0baeab	0.008525531
69	0x3c7b46c7	0.015336699
70	0x3c0a6770	0.008447513
71	0xbaa2d455	-0.0012422899
72	0xbd11b919	-0.035576914
73	0xbcaf50b0	-0.02140078
74	0xbc237847	-0.009977407
75	0xbd3b1006	-0.045669578
76	0xbcf81011	-0.030281099
77	0x3c9f03ad	0.019410932
78	0xbcdfe2c3	-0.027329808
79	0xbdc1ed45	-0.09469084
80	0xbe068873	-0.13137989
81	0xbe1aadaf	-0.15105318
82	0xbdea338a	-0.114356115
83	0xbdbf2f07	-0.09335142
84	0xbe6be12c	-0.23035115
85	0xbe73f4fa	-0.2382392
86	0xbe882a21	-0.26594642
87	0xbe2d6d31	-0.16936184
88	0xbe312b6e	-0.17301723
89	0xbe86d912	-0.26337487
90	0xbdb29adc	-0.08720943
91	0xbcb8856a	-0.022524554
92	0x3d3d15cc	0.046163365
93	0xbcdcaa7e	-0.026936766
94	0xbb8f2109	-0.004367952
95	0x3cd11d50	0.025526673
96	0x3d240902	0.040047653
97	0x3c571617	0.013127825
98	0xbd2d62b0	-0.042330444
99	0xbd80494d	-0.06263981
100	0xbcbf619f	-0.023361979
101	0x3cf96231	0.03044233
102	0xbcb7ec00	-0.0224514
103	0xbbf42e3d	-0.007451801
104	0xbc9578c3	-0.01824606
105	0x3bffb4cd	0.0078035356
106	0xbd16c8ee	-0.036812715
107	0xbd81c25f	-0.063359015
108	0x3daf296f	0.08552825
109	0x3b1a832f	0.0023576727
110	0xbd0fda36	-0.03512021
111	0x3d6375ba	0.055532195
112	0xbc87bd9b	-0.016569903
113	0xbd2e811b	-0.042603593
114	0xbbeda991	-0.00725288
115	0xbc659ce2	-0.014014455
116	0xbc0e1ae5	-0.008673404
117	0xbd129e82	-0.035795696
118	0xbd0935cc	-0.03349857
119	0x3c8cb62f	0.017176716
120	0xbd4dee58	-0.05027613
121	0xbcd342c0	-0.025788665
122	0x3d6432ba	0.05571244
123	0xbb0fd0cc	-0.002194452
124	0x3c3cc12a	0.011520663
125	0x3d7dd3fe	0.06196975
126	0x3d8ccbff	0.06874847
127	0x3cf123a9	0.02943595
128	0xbcb52cf5	-0.022116164
129	0x3dd1001e	0.102051005
130	0x3c837da3	0.01605112
131	0xbda4fc26	-0.08055906
132	0x3cde9bd7	0.02717392
133	0xbbdf85b2	-0.0068213576
134	0xbda1f246	-0.07907538
135	0xbc935247	-0.017983569
136	0x3b96cd8c	0.00460214
137	0x3d9fd5a4	0.078044206
138	0x3dffc1fa	0.1248817
139	0xbbc914eb	-0.006136527
140	0xbd1176fc	-0.035513863
141	0x3d60003c	0.054687724
142	0xbd61b16d	-0.055100847
143	0x3d1999d1	0.037500206
144	0xbdc8eddd	-0.09810994
145	0xbd54587a	-0.05184219
146	0xbdafff10	-0.08593571
147	0xbe0b26bd	-0.13588996
148	0xbe2e77ad	-0.1703784
149	0xbe8b8389	-0.2724879
150	0xbd997965	-0.07493857
151	0xbe100431	-0.14064099
152	0xbe635007	-0.22198497
153	0xbc9986b9	-0.018740999
154	0xbc8a2749	-0.016864436
155	0xbc51d701	-0.012807609
156	0xbc96f4bf	-0.01842725
157	0xbc8e8577	-0.017397625
158	0xbc7e2b68	-0.015513279
159	0xbca15b30	-0.019696802
160	0xbca23004	-0.019798286
161	0xbcb0a82a	-0.021564562
162	0x3ce520bf	0.027969716
163	0x3c11bfb3	0.008895802
164	0xbc880fc7	-0.016609086
165	0x3d5fb589	0.054616485
166	0xbc67a2da	-0.014137948
167	0xbdb6a93f	-0.08919
168	0x3d3bc985	0.04584648
169	0xbc381495	-0.011235376
170	0xbdb52b8e	-0.08846198
171	0xbc5b95d3	-0.01340242
172	0xbbdbf220	-0.006712213
173	0x3b186b62	0.0023257365
174	0xbc0c3ff0	-0.008560166
175	0xbb35d0d9	-0.002774289
176	0x3b7a7eba	0.0038222508
177	0xbbce1e73	-0.006290251
178	0xbc728610	-0.014802471
179	0xbc9196ec	-0.01777216
180	0x3db031ad	0.08603225
181	0xbcd2b807	-0.025722517
182	0xbe0d8ccb	-0.1382324
183	0xbe45305f	-0.19256733
184	0xbdbb19c2	-0.09135772
185	0x3d91bc90	0.071160436
186	0xbd0dc5e3	-0.034612548
187	0xbd1a17be	-0.0376203
188	0x3db4f152	0.08835091
189	0x3e429a5b	0.19004194
190	0x3d293823	0.0413133
191	0xbe249d5e	-0.16075656
192	0x3d2b7723	0.041861665
193	0x3bdcc4d2	0.00673733
194	0x3d5b18af	0.053490337
195	0xbda74869	-0.08168108
196	0xbda68253	-0.08130326
197	0x3d03830d	0.0321074
198	0x3d729223	0.059221398
199	0x3d80bfe4	0.062866
200	0x3d724405	0.0591469
201	0x3dee1db7	0.116267614
202	0x3cfc7d3f	0.03082144
203	0xbd91583e	-0.07096909
204	0x3d91fa63	0.071278356
205	0x3c981355	0.018563906
206	0xbd99ad27	-0.07503729
207	0xbc48d972	-0.012258874
208	0xbc2495cd	-0.010045481
209	0xbc2a0322	-0.0103767235
210	0xbbc12465	-0.005894231
211	0x3ae8d89b	0.0017764749
212	0x3bf66a8c	0.0075200256
213	0xbc55f906	-0.01305986
214	0x3b36f17c	0.0027914932
215	0x3c13a0a6	0.00901047
216	0xbc3ad65a	-0.011403644
217	0xbc863aa2	-0.01638538
218	0x3d2812f3	0.041033696
219	0x3d8417f2	0.0644988
220	0xbcf1488a	-0.029453535
221	0xbdab2613	-0.083568715
222	0x3cc9c7ec	0.024631463
223	0xbd117118	-0.035508245
224	0xbd8a6b7d	-0.06758783
225	0x3becd35d	0.007227345
226	0xbc8a55a3	-0.016886538
227	0xbd2358a2	-0.03987945
228	0x3c3b0e17	0.0114169335
229	0xbba9a48b	-0.0051770858
230	0xbb050725	-0.0020298448
231	0x3bf628a1	0.0075121676
232	0x3b3316d3	0.0027326837
233	0x3c707f20	0.014678746
234	0xbd27d1fe	-0.04097175
235	0xbdc41a1f	-0.09575295
236	0x3d75fcf8	0.060055703
237	0xbd619e55	-0.055082638
238	0xbd5d1bd9	-0.053981636
239	0x3dd5dfbf	0.10443067
240	0xbdaaf9fb	-0.08348461
241	0xbcf5f76f	-0.030025212
242	0x3ce6d731	0.028178783
243	0x3e043018	0.12908971
244	0x3afe822e	0.0019417459
245	0x3ca669c1	0.0203141
246	0xbded9c0f	-0.116020314
247	0x3dabf2f3	0.08395948
248	0x3e56d892	0.20981053
249	0x3d8b0b2a	0.06789239
250	0xbc920f23	-0.017829483
251	0x3c288cd7	0.010287485
252	0x3d8b88e8	0.06813222
253	0xba8bb5c9	-0.0010659035
254	0xbd1aff88	-0.03784135
255	0x3ca0e856	0.019642036

module.layer1.0.bn1.weight f4 [16]
0	0x3f08fabb	0.53507584
1	0x3f07b489	0.5300985
2	0x3f0dad93	0.5534298
3	0x3f388035	0.7207063
4	0x3f2f26e6	0.6841873
5	0x3f3ca2fb	0.7368619
6	0x3edbb726	0.4291317
7	0x3f57ee56	0.84348047
8	0x3f13b098	0.57691336
9	0x3f0d48b9	0.5518909
10	0x3f2725fa	0.6529232
11	0x3f3badc6	0.7331203
12	0x3f15089f	0.5821628
13	0x3f28304f	0.65698713
14	0x3f2487e9	0.6426988
15	0x3f1095e3	0.5647871

module.layer1.0.bn1.bias f4 [16]
0	0xbdf60dc6	-0.12014346
1	0xbe7778cd	-0.24167176
2	0xbe838573	-0.2568775
3	0x3ec9a705	0.39385238
4	0x3e914789	0.2837489
5	0xbe6acbc7	-0.22929297
6	0x3e0761cf	0.13220905
7	0xbf468df6	-0.77560365
8	0x3dddd8d7	0.108323745
9	0xbe8ba2b0	-0.27272558
10	0x3e83fcfe	0.25778955
11	0x3e446e5a	0.19182721
12	0x3b561531	0.003266644
13	0xbea63e72	-0.32469517
14	0xbf288f8e	-0.6584405
15	0xbe77c773	-0.24197178

module.layer1.0.bn1.running_mean f4 [16]
0	0xbf41a527	-0.7564263
1	0xbf2b81eb	-0.66995114
2	0xbf28346f	-0.6570501
3	0xbf4a6ed2	-0.7907535
4	0xbf1c2611	-0.60995585
5	0xbe5c5f95	-0.21520837
6	0xbf5e6a80	-0.86881256
7	0x3f3554a6	0.7083229
8	0xbeb7ad10	-0.35874224
9	0xbf1ead1f	-0.6198291
10	0xbf723cd6	-0.9462408
11	0xbf3e1842	-0.74255764
12	0xbf202ca2	-0.62568104
13	0xbf62c1d2	-0.88576996
14	0x3f56f4f9	0.8396755
15	0xbe962758	-0.29326892

module.layer1.0.bn1.running_var f4 [16]
0	0x3f8fd889	1.1237956
1	0x3ed44213	0.4145666
2	0x3ed4383c	0.41449153
3	0x3f8ee759	1.1164352
4	0x3f7513f8	0.95733595
5	0x3fa30f0d	1.2738968
6	0x3f1d90f7	0.61549324
7	0x3ee925dc	0.45536697
8	0x3f2ede06	0.6830753
9	0x3ec9adfb	0.3939055
10	0x3f63095a	0.88686144
11	0x3f9c8b6b	1.2230047
12	0x3f0840cb	0.53223866
13	0x3f5cab85	0.8619922
14	0x3e8fc155	0.28077188
15	0x3ed0c04e	0.40771717

module.layer1.0.conv2.weight f4 [16, 16, 3, 3]
0	0xbc471079	-0.0121499235
1	0xbdf68410	-0.12036908
2	0xbdea5ad1	-0.11443103
3	0x3c57f0aa	0.013179937
4	0xbc7530b8	-0.014965229
5	0x3c4157ac	0.011800688
6	0x3cd42d1d	0.025900418
7	0x3d5fb55e	0.054616325
8	0x3e07ed4f	0.1327412
9	0x3e044762	0.12917855
10	0x3bcf03a0	0.006317571
11	0xbd8f7833	-0.07005348
12	0x3e39192a	0.18076006
13	0x3d401289	0.046892677
14	0xbd90cdcb	-0.07070502
15	0x3d5b4be3	0.053539168
16	0xbc24c3f3	-0.010056484
17	0xbd81a741	-0.06330729
18	0x3d884c9b	0.06655236
19	0xbcc797c2	-0.024364356
20	0xbd53f9d5	-0.05175193
21	0xbcc0c81c	-0.02353292
22	0x3dde72ed	0.10861764
23	0x3e37e580	0.17958641
24	0xbe0b445d	-0.13600297
25	0xbcd8a270	-0.026444644
26	0x3e100614	0.14064819
27	0xbd919501	-0.07108498
28	0x3c0049e1	0.007830114
29	0x3a2421a3	0.0006261116
30	0xbd270bca	-0.040782727
31	0xbdaf4afe	-0.085592255
32	0xbd9ab247	-0.07553535
33	0x3dcb2793	0.099196576
34	0x3d4e7369	0.050403032
35	0x3d444ce7	0.047924902
36	0x3c0d7a73	0.008635151
37	0xbdd10891	-0.10206712
38	0xbca9a566	-0.020708751
39	0x3dd759e1	0.1051519
40	0x3d5dd99d	0.05416261
41	0x3d2fd94e	0.042931847
42	0x3dc6fb67	0.0971592
43	0x3d9869a5	0.07442025
44	0x3d085423	0.033283364
45	0xbd3b529e	-0.045733087
46	0xbd54e200	-0.051973343
47	0xbc109a34	-0.008825827
48	0x3dc877f6	0.09788506
49	0x3e04987c	0.12948793
50	0x3d9b2b9c	0.07576677
51	0x3dc8a534	0.09797135
52	0x3d92b2cd	0.0716301
53	0x3d299ca6	0.041409157
54	0x3d509e1c	0.050932035
55	0x3bd0931e	0.006365194
56	0xbde01934	-0.10942307
57	0x3e968d0e	0.2940449
58	0x3eada4cf	0.339148
59	0x3e2bb41a	0.16767922
60	0x3e0f8e2c	0.14019078
61	0x3e2bead0	0.16788793
62	0x3dbf00fe	0.09326361
63	0xbda062cb	-0.07831343
64	0xbd0bad5c	-0.034100875
65	0x3b951787	0.004549924
66	0xbdaaf0f2	-0.08346738
67	0xbd7b7237	-0.06138822
68	0xbccaab5d	-0.024739916
69	0xbdf29952	-0.1184565
70	0xbdda20d5	-0.106507935
71	0xbdcbeef9	-0.0995769
72	0x3d95acbd	0.07308338
73	0xbdab61b0	-0.08368242
74	0xbd5ca1af	-0.05386513
75	0xbc201577	-0.009770743
76	0xbde8d65f	-0.11369013
77	0xbd7d67c9	-0.061866555
78	0xbd7a3d62	-0.061093695
79	0xbe493b29	-0.19651474
80	0xbe1037c8	-0.14083779
81	0xbdf77fae	-0.120849
82	0xbe3e15e9	-0.18563046
83	0xbac307f2	-0.0014879687
84	0x3dcc2116	0.09967248
85	0x3dbc95b0	0.09208238
86	0x3d9a3de2	0.075313345
87	0x3e8938e0	0.26801205
88	0x3daf4923	0.085588716
89	0xbdb85d61	-0.090021856
90	0xbdecb3f8	-0.11557764
91	0xbe67beb0	-0.22631335
92	0xbe9accf8	-0.30234504
93	0x3df7d1e2	0.12100579
94	0x3e0063b0	0.12538028
95	0xbc2bd6bc	-0.010488208
96	0x3db70985	0.089373626
97	0x3e3f5cb7	0.18687712
98	0x3e1d15b6	0.15340313
99	0xbe094518	-0.13405263
100	0xbc1b26e3	-0.009469721
101	0x3da5b034	0.08090249
102	0xbd5aca25	-0.053415436
103	0xbb7940f4	-0.00380331
104	0x3e033c2e	0.12815925
105	0xbd49ce54	-0.049269035
106	0xbd06a8da	-0.032875873
107	0xbd0c2974	-0.03421922
108	0xbc42718b	-0.011867891
109	0xbca0d432	-0.019632433
110	0x3da466a7	0.08027392
111	0xbdf42e34	-0.11922875
112	0xbdfa00ad	-0.1220716
113	0xbdaeadcf	-0.08529245
114	0xbdd93951	-0.10606635
115	0xbdd52c11	-0.104087956
116	0xbdb896be	-0.09013127
117	0xbd23e70c	-0.040015265
118	0xbdad692d	-0.08467326
119	0xbd63288c	-0.05545859
120	0xbd80933b	-0.06278082
121	0xbd1e89e3	-0.038705718
122	0xbc30f34d	-0.010800195
123	0xbdc5de92	-0.096615925
124	0xbdcb01f7	-0.09912484
125	0xbd854a3b	-0.06508299
126	0xbe017fab	-0.12646358
127	0xbe078f52	-0.13238266
128	0xbe07901a	-0.13238564
129	0xbd8d4ad8	-0.06899041
130	0xbd53afc9	-0.051681314
131	0xbd687d96	-0.056760393
132	0xbd75f17b	-0.060044747
133	0xbd82732b	-0.06369623
134	0xbdbccb5a	-0.09218474
135	0xbc8b4df5	-0.017004946
136	0xbac95389	-0.0015359978
137	0xbcc1f591	-0.023676665
138	0x3d074ea5	0.033033986
139	0x3dfb21a5	0.122622766
140	0x3c888859	0.016666578
141	0xbddbe197	-0.10736387
142	0xbd85ec87	-0.06539255
143	0xbd790c85	-0.060802955
144	0xbe108e96	-0.14116892
145	0xbd231097	-0.039810743
146	0xbe146dac	-0.14494962
147	0xbdb09c19	-0.08623523
148	0x3c35ef5d	0.011104432
149	0x3d0e10fe	0.034684174
150	0xbe980b42	-0.2969609
151	0xbe12205d	-0.14270158
152	0x3cd381b3	0.025818681
153	0x3a90ff77	0.0011062463
154	0xbd2181d6	-0.03943046
155	0xbdbb6bb2	-0.091514006
156	0xbd3ab915	-0.045586664
157	0x3d22fa97	0.039789762
158	0x3c3e2ca7	0.011607326
159	0xbcd636b0	-0.026149124
160	0x3d4fe7f8	0.050758332
161	0x3d9cbfc6	0.076537654
162	0x3d6c259b	0.05765305
163	0x3dcb9a78	0.09941572
164	0xbd50ae36	-0.05094739
165	0x3e0c4075	0.13696463
166	0x3d736460	0.059421897
167	0xbe0e6616	-0.1390613
168	0x3e3fd4bd	0.18733497
169	0x3af9dfc3	0.0019063879
170	0xbe301b55	-0.17197926
171	0xbd9bf548	-0.07615143
172	0xbacfe07c	-0.0015859748
173	0x3de2c9f7	0.11073678
174	0xbe8cae19	-0.27476576
175	0x3db5976a	0.088667706
176	0x3e9a27ad	0.30108395
177	0xbe8eeedd	-0.27916613
178	0x3dcf2a6a	0.10115512
179	0x3e650907	0.22366725
180	0xbcc2f2f5	-0.023797492
181	0x3db91c7a	0.090386346
182	0xbe099d75	-0.13438971
183	0x3e54f7a3	0.20797591
184	0x3e02c9c7	0.12772284
185	0xbeb07bd4	-0.34469473
186	0x3ddc0937	0.10743945
187	0xbb7e5af6	-0.003881154
188	0xbe898fba	-0.26867467
189	0x3e09960f	0.13436149
190	0xbd33c838	-0.043892115
191	0xbd3a8498	-0.045536608
192	0x3df6632e	0.12030636
193	0xbd18a624	-0.03726782
194	0xbd9c35ee	-0.07627474
195	0x3e130ee5	0.1436115
196	0x3c9fb7f8	0.019496903
197	0x3c9d1f24	0.019179888
198	0x3db7ed22	0.08980776
199	0xbc0e1f21	-0.008674414
200	0xbdf1de0e	-0.11809932
201	0x3dd3c642	0.10340549
202	0xbdbb0e5f	-0.091336004
203	0xbd26cf72	-0.04072518
204	0x3e325f52	0.17419174
205	0xbdeab8eb	-0.114610516
206	0xbe178f61	-0.14800788
207	0x3daf3c4f	0.08556425
208	0xbe536b2c	-0.20646352
209	0xbeb5699c	-0.35432136
210	0x3db2a7c4	0.08723405
211	0xbdf4d71e	-0.11955093
212	0xbe71e2ec	-0.2362172
213	0x3dc2a5a8	0.09504253
214	0xbdb05ff7	-0.08612054
215	0xbe44a69a	-0.19204178
216	0x3e65ef6f	0.22454618
217	0xbd665b92	-0.056239672
218	0xbe63a409	-0.22230543
219	0x3e83ef1a	0.25768358
220	0x3cea7b4c	0.028623246
221	0xbe891eb8	-0.2678125
222	0x3e682d98	0.22673643
223	0x3c7bbce0	0.0153648555
224	0xbe90b7fa	-0.28265363
225	0x3d0862dc	0.033297405
226	0x3db698a8	0.089158356
227	0xbd835ab4	-0.064137846
228	0x3df93fe3	0.121703885
229	0x3d9cca12	0.07655729
230	0xbc7e2e42	-0.015513958
231	0x3e17a682	0.14809611
232	0x3db41a35	0.08794061
233	0x3d8a0b41	0.06740428
234	0x3e25f2f5	0.16205962
235	0x3c737602	0.014859678
236	0xbdb7b985	-0.08970932
237	0x3e2496c0	0.16073132
238	0xbe48c13b	-0.19604962
239	0x3cc958d0	0.024578482
240	0xbc89b006	-0.016807567
241	0xbe2d5840	-0.16928196
242	0x3df4eb57	0.1195895
243	0x3e6ecbd0	0.23319936
244	0xbd01d725	-0.03169932
245	0xbe33ef2a	-0.17571703
246	0x3d2f4912	0.042794295
247	0xbd5d00d4	-0.053955868
248	0xbe329536	-0.17439732
249	0xbcf6b72d	-0.030116642
250	0x3d938322	0.07202746
251	0x3d0ed54c	0.034871385
252	0xbd19615f	-0.037446376
253	0xbdf3c41f	-0.119026415
254	0x3d1d8195	0.038453657
255	0x3b1bda5f	0.0023781282

module.layer1.0.bn2.weight f4 [16]
0	0x3f06e69b	0.52695626
1	0x3f406313	0.75151175
2	0x3f8650ac	1.0493369
3	0x3f7a6802	0.97814953
4	0x3f7ed5a1	0.9954472
5	0x3f272482	0.6529008
6	0x3f897080	1.0737457
7	0x3f8ff954	1.1247964
8	0x3edc0dbe	0.42979234
9	0x3f1447fc	0.5792234
10	0x3f4e8f68	0.8068757
11	0x3e89087c	0.26764286
12	0x3f86451a	1.0489838
13	0x3e753ada	0.23948231
14	0x3f4f7338	0.81035185
15	0x3f2dca32	0.6788665

module.layer1.0.bn2.bias f4 [16]
0	0x3d959b4a	0.0730501
1	0xbe0f77e5	-0.1401058
2	0xbd62c225	-0.055360932
3	0xbdf92a2c	-0.12166247
4	0xbd836ebc	-0.06417605
5	0x3daecaee	0.085347995
6	0xbe07cf7e	-0.13262746
7	0xbd95de36	-0.07317774
8	0x3ddeec5c	0.10884926
9	0xbe02a26b	-0.1275727
10	0xbde4769f	-0.11155438
11	0x3e6bb263	0.23017268
12	0xbd2597d8	-0.040428013
13	0x3da97dd6	0.082759544
14	0x3e919731	0.28435662
15	0x3e978957	0.2959697

module.layer1.0.bn2.running_mean f4 [16]
0	0xbced0931	-0.028935047
1	0xbe585a76	-0.21128258
2	0xbec09232	-0.37611538
3	0xbd71740c	-0.05894856
4	0xbda9b3fa	-0.08286281
5	0x3e002e51	0.12517668
6	0xbebabf19	-0.3647392
7	0xbd31bc6f	-0.043392595
8	0x3eac1dc3	0.33616456
9	0x3edda344	0.43288624
10	0x3d855138	0.06509632
11	0xbf3ea638	-0.7447238
12	0xbd044ae6	-0.03229799
13	0x3f11d1d1	0.5696078
14	0xbf9b02ab	-1.2110189
15	0xbecdf840	-0.40228462

module.layer1.0.bn2.running_var f4 [16]
0	0x3e673dfd	0.2258224
1	0x3ed4b67b	0.41545472
2	0x3f96fc88	1.1795816
3	0x3f2ab2c9	0.66679054
4	0x3f707f42	0.9394418
5	0x3ebbd069	0.36682442
6	0x3f9abbe6	1.2088592
7	0x3f8420db	1.0322527
8	0x3e4ccdea	0.20000425
9	0x3e165178	0.14679515
10	0x3eefc8e8	0.46832967
11	0x3e4b2e63	0.19841914
12	0x3fad450c	1.3536696
13	0x3e74a200	0.23889923
14	0x3f24f316	0.6443342
15	0x3ee78b46	0.45223445

module.layer1.0.shortcut.0.weight f4 [16, 64, 1, 1]
0	0xbd68a387	-0.056796577
1	0xbcc79b27	-0.024365975
2	0xbaf97e55	-0.0019034842
3	0xbd8824fa	-0.06647678
4	0xbe1948eb	-0.14969222
5	0xbea97cdc	-0.33103073
6	0xbda6df03	-0.08148005
7	0xbca64961	-0.020298662
8	0x3e21fc3c	0.15818876
9	0x3cc82da3	0.024435824
10	0xbe29d233	-0.16584091
11	0x3be64e4f	0.007028378
12	0xbd2dcb5b	-0.042430263
13	0xbc5ac907	-0.013353593
14	0xbe4063a9	-0.18788017
15	0x3d0ed782	0.034873493
16	0x3c6e1394	0.014531035
17	0xbd261467	-0.0405468
18	0xbe077c68	-0.13231051
19	0xbbdd07fe	-0.0067453375
20	0x3cc3b770	0.02389118
21	0x3e4405e4	0.19142872
22	0xbe0e5b87	-0.13902102
23	0xbdbb4892	-0.09144701
24	0x3d1093ac	0.03529708
25	0xbd032263	-0.032015216
26	0x3d9bba32	0.07603873
27	0x3d51b74a	0.05120019
28	0xbd26b3df	-0.040698882
29	0xbcb0e693	-0.021594321
30	0xbe14cbeb	-0.14530914
31	0xbd15db7b	-0.036586266
32	0x3c4a1eb2	0.01233642
33	0x3b08f605	0.0020898592
34	0x3bfae589	0.0076567573
35	0xbdacf366	-0.08444862
36	0xbd567b6f	-0.05236381
37	0x3e3b04cf	0.18263553
38	0xbe2ba52d	-0.16762228
39	0xbe47126e	-0.19440624
40	0x3e6653b7	0.22492872
41	0xbd7aa1d2	-0.06118948
42	0xbc8fc9f8	-0.01755236
43	0x3a8d55f6	0.0010783065
44	0x3d6dbe50	0.058042824
45	0x3da1c214	0.078983456
46	0xbe05640c	-0.13026446
47	0x3d659f51	0.05606014
48	0xbd25f454	-0.040516213
49	0x3d47dd32	0.048794933
50	0xbc93c0ae	-0.018036213
51	0x3df31129	0.118685074
52	0xbcda9384	-0.026681669
53	0xbe400593	-0.18752126
54	0xbe0ccf98	-0.13751066
55	0x3e34711d	0.17621274
56	0x3dd7912e	0.10525738
57	0xbe63bebc	-0.22240728
58	0xbe78cc0f	-0.24296592
59	0xbbc09beb	-0.005877962
60	0x3e3d0177	0.1845759
61	0xbc669f69	-0.014076092
62	0xbdcd912e	-0.100374565
63	0x3d06e8a6	0.032936715
64	0x3cf466da	0.0298342
65	0xbe00013c	-0.12500471
66	0xba4f54c3	-0.0007909054
67	0x3d800072	0.06250085
68	0xbcb2ca1c	-0.021824889
69	0xbda8a626	-0.08234815
70	0x3ae7f82d	0.0017697864
71	0xbc812e5e	-0.01576918
72	0xbdeeff89	-0.11669833
73	0x3e4c3203	0.19940953
74	0xbdf23b99	-0.118277736
75	0xbe02bf9a	-0.12768403
76	0x3b337d20	0.0027387813
77	0xbdf818be	-0.12114094
78	0x3e715731	0.23568417
79	0x3d94d11f	0.07266449
80	0x3db5c884	0.08876136
81	0x3c46ccff	0.012133836
82	0x3d8d561b	0.06901189
83	0xbc08a721	-0.008340628
84	0x3aea6fef	0.0017886142
85	0xbe2a3372	-0.16621187
86	0xbd86049b	-0.06543847
87	0x3c9a6d2b	0.018850883
88	0xbd7b64f8	-0.06137559
89	0xbda06783	-0.07832243
90	0x3dd28005	0.10278324
91	0xbd2f6889	-0.042824302
92	0xbd716c03	-0.0589409
93	0xbc564a2b	-0.013079206
94	0x3d15e4c6	0.03659513
95	0x3c9e047b	0.019289246
96	0x3df50c26	0.11965208
97	0x3cf5cf40	0.030006051
98	0xbc85d121	-0.016335072
99	0x3c8537e7	0.016262008
100	0xbdf90612	-0.12159361
101	0xbeba0d55	-0.36338297
102	0xbd79cc62	-0.06098593
103	0x3c9fc98d	0.019505287
104	0xbe63fd44	-0.22264582
105	0x3c7baf84	0.01536167
106	0xbde8fc59	-0.113762565
107	0x3d1a25c4	0.037633672
108	0xbd4c08ae	-0.049812965
109	0xbd9506ff	-0.07276725
110	0xbdb2d590	-0.0873214
111	0x3d2bf644	0.041982904
112	0xbcc42035	-0.023941139
113	0xbdcc414c	-0.09973392
114	0x3c0a7e5d	0.008452979
115	0xbe788872	-0.242708
116	0xbd6fe262	-0.058565505
117	0xbc9c5bf6	-0.01908682
118	0x3cd4fab5	0.025998453
119	0xbda0a47b	-0.07843872
120	0xbbcce780	-0.006253183
121	0xbdfad177	-0.122469835
122	0xbd9c2a2e	-0.07625233
123	0xb9cf3078	-0.0003951823
124	0x3c72b71c	0.0148141645
125	0x3e44aa75	0.19205649
126	0xbd743599	-0.059621427
127	0xbd364dd6	-0.044507824
128	0xbc3f77dd	-0.0116862925
129	0xbcfa3d69	-0.03054686
130	0xba00c90b	-0.000491277
131	0x3d96b282	0.073582664
132	0xbe097ce5	-0.1342655
133	0xbe3081aa	-0.17236963
134	0x3cf9c824	0.030490942
135	0xb9339714	-0.00017127051
136	0x3de41bee	0.1113814
137	0x3d14536f	0.03621238
138	0x3d4ecc3e	0.05048775
139	0x3d36c08a	0.044617213
140	0x3d3d322f	0.046190437
141	0xbcf641bb	-0.03006064
142	0xbd028b03	-0.031870853
143	0x3e1601c9	0.14649118
144	0x3d94ac89	0.07259471
145	0x3b2212fe	0.0024730559
146	0xbb06c834	-0.0020566108
147	0x3bbb0b6f	0.00570815
148	0xbed1d058	-0.40979266
149	0xbe2482fd	-0.16065593
150	0x3cab141e	0.020883616
151	0xbbf41d45	-0.0074497783
152	0x3cb03df9	0.021513926
153	0x3d2f1f8c	0.042754695
154	0xbcc4a01d	-0.02400213
155	0xbe75989d	-0.23983999
156	0xbcb93ad8	-0.022611067
157	0xba7dd28e	-0.0009682559
158	0xbd29ba10	-0.04143721
159	0x3cfdf50e	0.03100064
160	0x3d2a1712	0.041525908
161	0xbe29b6e3	-0.16573672
162	0xbd1217b2	-0.03566713
163	0x3de3788d	0.111069776
164	0xbaf2470c	-0.0018484308
165	0x3e54ac38	0.20768821
166	0xb9a7c348	-0.00031998218
167	0x3d4e4be6	0.05036535
168	0xbbae2ee7	-0.00531565
169	0xbc598f90	-0.013278857
170	0xbe380679	-0.17971219
171	0xbe027f36	-0.1274384
172	0x3e38f867	0.18063508
173	0x3d90ab50	0.07063925
174	0x3da8b60d	0.082378484
175	0xbd033471	-0.032032434
176	0x3d73f3e6	0.05955877
177	0xbc6d8062	-0.014495941
178	0x39a6670d	0.00031738766
179	0xbe949eda	-0.29027444
180	0xbd185a7f	-0.03719568
181	0x3d8c0b17	0.06838053
182	0x3bfb5fa9	0.0076713157
183	0x3df7b426	0.120949075
184	0x3c918bc5	0.017766843
185	0xbd31d4e7	-0.04341593
186	0x3e0b02f7	0.1357535
187	0x3aad9ffc	0.0013246532
188	0x3d3a2e98	0.04545459
189	0x3d079ce2	0.0331086
190	0xbde03d31	-0.10949171
191	0x3d0da10f	0.034577426
192	0xbc026b55	-0.00796016
193	0x3d8d9f4b	0.06915148
194	0xba4e939d	-0.00078802725
195	0xbde69395	-0.11258618
196	0xbe2a50cf	-0.16632389
197	0xbd291426	-0.04127898
198	0xbce301a5	-0.027710745
199	0xbb8d0696	-0.0043037636
200	0xbd412333	-0.04715271
201	0xbe2d2eef	-0.16912435
202	0x3cabf8b4	0.020992614
203	0x3d450bf4	0.048107103
204	0x3cc36410	0.023851424
205	0xbd644179	-0.055726502
206	0x3d77de17	0.060514536
207	0xbdf4060d	-0.119152166
208	0x3c6d6c35	0.014491131
209	0x3ca46009	0.020065324
210	0xbce7405f	-0.028228937
211	0x3a846288	0.0010100165
212	0xbdad792a	-0.08470376
213	0xbe2db1df	-0.16962384
214	0xbd6fe4c0	-0.058567762
215	0x3d72c4d3	0.059269737
216	0x3c333983	0.010939005
217	0xbdc75f27	-0.09734946
218	0xbe3a5e56	-0.18200049
219	0x3e585b75	0.21128638
220	0xbd4e71e6	-0.05040159
221	0xbdcfd7f1	-0.101486094
222	0x3daed46d	0.08536611
223	0x3cb59af7	0.02216862
224	0xbda55c6b	-0.08074268
225	0xbd942a0c	-0.07234582
226	0x3cb8183f	0.022472499
227	0xbd0ecc1a	-0.034862615
228	0xbdc6bab1	-0.09703577
229	0x3de91c68	0.11382371
230	0x3d605474	0.05476804
231	0x3d0caf8b	0.0343471
232	0xbeaa5451	-0.33267453
233	0x3a2c2118	0.00065662106
234	0xbcb9ec31	-0.022695633
235	0x3d9c3885	0.07627968
236	0xbe02288c	-0.1271078
237	0x3b3636a0	0.0027803555
238	0xbd49dfab	-0.049285572
239	0xbd2b2762	-0.041785605
240	0xbcf38103	-0.029724604
241	0x3d2e6069	0.042572413
242	0x3bcb7fec	0.006210318
243	0x3c2b933c	0.010472115
244	0x3cebcad1	0.028783234
245	0xbc86097f	-0.01636195
246	0x3d7e3f69	0.06207219
247	0x3ce78d69	0.028265672
248	0xbd4edbcd	-0.050502587
249	0xbd8e34c7	-0.0694366
250	0xbd33f663	-0.043936145
251	0x3b0f0ed1	0.00218289
252	0x3d1b8f47	0.037978437
253	0xbe023fc1	-0.12719633
254	0xbd34a3ba	-0.044101454
255	0x3d1195e7	0.03554335

module.layer1.0.shortcut.1.weight f4 [16]
0	0x3ec18f3e	0.37804598
1	0x3eb20da2	0.34776026
2	0x3e6a99f0	0.22910285
3	0x3e39a38a	0.18128791
4	0x3e31d2b2	0.1736553
5	0x3eeb543f	0.45962712
6	0x3ea08687	0.31352636
7	0x3da47a77	0.08031171
8	0x3ed01e01	0.4064789
9	0x3f2132f6	0.62968385
10	0x3ef2c66b	0.47417006
11	0x3efd3b52	0.4945932
12	0x3dcbbfa6	0.099486634
13	0x3f0c25f6	0.54745424
14	0x3ede54ad	0.43423977
15	0x3eadfd34	0.3398224

module.layer1.0.shortcut.1.bias f4 [16]
0	0x3d959b4a	0.0730501
1	0xbe0f77e5	-0.1401058
2	0xbd62c225	-0.055360932
3	0xbdf92a2c	-0.12166247
4	0xbd836ebc	-0.06417605
5	0x3daecaee	0.085347995
6	0xbe07cf7e	-0.13262746
7	0xbd95de36	-0.07317774
8	0x3ddeec5c	0.10884926
9	0xbe02a26b	-0.1275727
10	0xbde4769f	-0.11155438
11	0x3e6bb263	0.23017268
12	0xbd2597d8	-0.040428013
13	0x3da97dd6	0.082759544
14	0x3e919731	0.28435662
15	0x3e978957	0.2959697

module.layer1.0.shortcut.1.running_mean f4 [16]
0	0x3c86f50c	0.01647427
1	0xbe49099c	-0.19632572
2	0xbe983621	-0.29728797
3	0xbe3992b1	-0.18122365
4	0xbde475ab	-0.11155256
5	0xbe07c981	-0.13260461
6	0xbe2cbc76	-0.16868767
7	0xbe1538cc	-0.14572448
8	0x3ee1051f	0.4394922
9	0xbe955f5a	-0.2917431
10	0xbe440585	-0.1914273
11	0xbed45762	-0.41472918
12	0x3cd99044	0.026558049
13	0x3e5c3012	0.21502712
14	0xbeb83f58	-0.35985827
15	0xbe8f7df0	-0.2802577

module.layer1.0.shortcut.1.running_var f4 [16]
0	0x3d49c00c	0.049255416
1	0x3dedfbef	0.11620318
2	0x3e0837d9	0.13302554
3	0x3d92112a	0.0713218
4	0x3d5c6222	0.053804524
5	0x3e1460cb	0.14490049
6	0x3dcb3753	0.09922662
7	0x3cbb3fce	0.022857573
8	0x3db143ad	0.08655486
9	0x3dede33a	0.11615606
10	0x3e1e6ccf	0.15471195
11	0x3e1e2936	0.15445408
12	0x3d25b98f	0.040460166
13	0x3e3c7f37	0.18407904
14	0x3e1a67f9	0.15078725
15	0x3dc65023	0.096832536

module.layer2.0.conv1.weight f4 [32, 16, 3, 3]
0	0xbdc530b7	-0.09628432
1	0xbe055765	-0.1302162
2	0xbd2f5600	-0.042806625
3	0xbdb59ffd	-0.08868406
4	0xbd9d3614	-0.0767633
5	0x3ceee2be	0.029160853
6	0xbdd8c471	-0.10584343
7	0xbdb3e28e	-0.08783446
8	0x3c8c97f4	0.0171623
9	0x3dd42c9b	0.1036007
10	0x3e177112	0.14789227
11	0x3e047bed	0.12937899
12	0x3dc241a2	0.09485175
13	0x3e402159	0.18762721
14	0x3dcd2deb	0.10018524
15	0x3d8c7d88	0.06859881
16	0x3dfdd896	0.12394826
17	0x3e00e383	0.12586789
18	0xbe48d3df	-0.19612072
19	0xbecd6b63	-0.40120992
20	0xbe645f2e	-0.22301933
21	0xbede8c65	-0.43466488
22	0xbf1c753c	-0.61116385
23	0xbec56366	-0.38552397
24	0xbeb03b69	-0.34420326
25	0xbedc80e0	-0.43067074
26	0xbd9fda0d	-0.07805262
27	0xbc1483f9	-0.009064668
28	0x3be64c3e	0.0070281317
29	0x3c611c7d	0.013739702
30	0x3d153271	0.036425058
31	0x3d9a0227	0.07519942
32	0xbd2075d3	-0.039174866
33	0x3e1a13d0	0.1504662
34	0x3e064938	0.13113868
35	0x3dafbfbf	0.085814945
36	0x3e03c661	0.12868644
37	0x3e782aeb	0.24235122
38	0x3decfe36	0.115719244
39	0x3e027a34	0.1274193
40	0x3ea2b70f	0.31780288
41	0x3e740b0d	0.2383234
42	0x3db36f85	0.08761505
43	0x3e87ac6a	0.2649873
44	0x3e42a60b	0.19008653
45	0x3c42225d	0.011849013
46	0x3e08ec29	0.13371338
47	0x3d8a2a5f	0.06746363
48	0x3d309160	0.04310739
49	0x3df1b966	0.1180294
50	0x3dec7062	0.11544873
51	0x3d1675f4	0.036733583
52	0x3c67c2bc	0.014145549
53	0x3d561482	0.05226565
54	0xbe2b82e9	-0.16749157
55	0xbe9d1991	-0.30683568
56	0xbdaaa22c	-0.08331713
57	0xbe806e88	-0.2508433
58	0xbed0f734	-0.408136
59	0xbd46c049	-0.04852322
60	0xbdbc7a60	-0.09203029
61	0xbe6fd697	-0.23421703
62	0xbd857f1c	-0.06518385
63	0x3d568adf	0.05237853
64	0x3cfe1ec4	0.03102053
65	0x3d81f140	0.06344843
66	0x3dfb98e2	0.122850195
67	0x3e0f8ef7	0.1401938
68	0x3d83ce50	0.06435835
69	0x3de29dbf	0.11065244
70	0x3e1551cd	0.14581986
71	0x3d4458ec	0.047936365
72	0xbd8380f9	-0.06421084
73	0x3d2fb46d	0.042896677
74	0x3ddb893e	0.10719536
75	0xbd8af275	-0.06784526
76	0xbd372b5c	-0.044719085
77	0xbd9900ca	-0.074708536
78	0xbe14ee06	-0.14543924
79	0xbe1a9419	-0.15095557
80	0xbd856e53	-0.06515183
81	0x3c9c020c	0.019043945
82	0xbda56f20	-0.08077836
83	0xbdc0b8cc	-0.09410247
84	0xbcd5dba9	-0.026105719
85	0xbe09c20a	-0.13452926
86	0xbdd2536c	-0.10269818
87	0x3d75128d	0.059832145
88	0x3c3e9e28	0.011634387
89	0x3dbd7c95	0.09252278
90	0x3d9afd9c	0.075679034
91	0x3e0689d0	0.13138509
92	0x3cd5cff0	0.026100129
93	0x3aa613ea	0.001267073
94	0x3d0156c8	0.0315769
95	0xbc5abe5d	-0.01335105
96	0xbdaa219f	-0.08307194
97	0xbd9215d5	-0.071330704
98	0xbd658f21	-0.0560447
99	0x3ca41abc	0.02003228
100	0xbd605392	-0.0547672
101	0xbdd5ea8c	-0.10445127
102	0x3e0e1d37	0.13878332
103	0xbb2231a2	-0.0024748822
104	0xbdf78a4a	-0.120869234
105	0x3e267d16	0.16258654
106	0x3da104ee	0.078622684
107	0x3c1392fb	0.009007211
108	0xbcaed399	-0.021341132
109	0xbc517184	-0.012783412
110	0x3b336c74	0.0027377876
111	0xbd7c68c6	-0.061623357
112	0x3ceda14b	0.029007575
113	0xbb7adfc4	-0.0038280347
114	0xbd40a9a0	-0.047036767
115	0x3d885a3d	0.066578366
116	0x3de3ed44	0.11129239
117	0xbdd21b28	-0.10259086
118	0xbd907fcc	-0.07055625
119	0xbcddbdc0	-0.027068019
120	0xbdc96519	-0.09833736
121	0xbcf549a9	-0.02994235
122	0x3cd19e63	0.02558822
123	0xbc995633	-0.01871786
124	0x3df10d42	0.11770107
125	0x3e38c487	0.18043719
126	0x3d89c838	0.06727642
127	0x3e5ac2dc	0.21363395
128	0x3dc7faf3	0.09764662
129	0x3d86dca6	0.06585054
130	0x3e1b700e	0.15179464
131	0x3dcbfb36	0.09960024
132	0x3c9f0cba	0.019415248
133	0x3e05dd32	0.1307266
134	0x3e055d1d	0.13023801
135	0x3c8b28fc	0.016987316
136	0x3d2d0694	0.0422426
137	0x3da1b3fa	0.07895656
138	0xbe0bda82	-0.13657573
139	0xbe072897	-0.13199078
140	0xbdc63af1	-0.09679211
141	0xbe386034	-0.18005449
142	0xbd953354	-0.07285181
143	0xbc5d47b6	-0.013505867
144	0xbc4afd4a	-0.01238949
145	0x3d63d2ee	0.05562108
146	0x3dd5edf8	0.104457796
147	0xbe126cf1	-0.1429937
148	0x3d34cfa9	0.044143353
149	0x3e73747c	0.23774904
150	0xbdfd942f	-0.123817794
151	0x3d3ec896	0.046578012
152	0x3e0d830a	0.13819519
153	0x3d5e62f1	0.054293577
154	0x3cb3aebc	0.021933906
155	0xbcc5fe53	-0.024169123
156	0x3c3e7759	0.011625134
157	0xbbeb1e01	-0.0071752076
158	0xbd2c75d2	-0.04210455
159	0x3ba2d876	0.004969652
160	0x3d07c2bb	0.033144694
161	0xbdc3fbbc	-0.09569499
162	0x3c54763c	0.012967642
163	0x3d18ab3b	0.037272673
164	0x3dec54db	0.115396224
165	0xbe023d12	-0.12718609
166	0xbda67e90	-0.08129609
167	0x3d01300e	0.03153997
168	0xbe042ad2	-0.1290696
169	0xbd9a86f2	-0.0754527
170	0x3d0a1a37	0.033716407
171	0xbc635067	-0.01387415
172	0x3dff7b9e	0.1247475
173	0x3dcd2d97	0.10018461
174	0x3c9cf36b	0.01915904
175	0x3e18fde7	0.14940606
176	0x3e330b9d	0.17484899
177	0xbc038956	-0.008028349
178	0x3dd7d847	0.105392985
179	0x3de013fc	0.10941312
180	0x3d94d96f	0.07268035
181	0x3e67e98c	0.22647685
182	0x3e27439f	0.16334389
183	0xbe07a46d	-0.13246317
184	0xbc711859	-0.014715278
185	0x3d48f290	0.04905945
186	0xbe4bfa56	-0.19919714
187	0xbe25ccaf	-0.16191362
188	0xbcfc9975	-0.030834893
189	0xbd62a6fe	-0.055335037
190	0xbcbbf1fe	-0.02294254
191	0xbd1d2ebf	-0.03837466
192	0xbd8a33db	-0.06748172
193	0xbe2e6668	-0.17031252
194	0xbe0c8c73	-0.13725452
195	0xbe2d7a51	-0.16941191
196	0xbe8a2912	-0.2698446
197	0xbe0b83ea	-0.1362454
198	0xbd990b92	-0.0747291
199	0xbd628821	-0.055305604
200	0x3d69dc89	0.057095084
201	0xbe26489a	-0.16238633
202	0xbdc9b214	-0.09848419
203	0xbae55be0	-0.0017498694
204	0xbdfcfc4f	-0.123528115
205	0xbc4137e0	-0.011793107
206	0x3d143620	0.03618443
207	0x3b7b7180	0.0038367212
208	0x3d80746e	0.06272207
209	0x3dbf9936	0.093553945
210	0xbd2d05aa	-0.04224173
211	0x3cae2682	0.021258596
212	0x3ce70148	0.028198853
213	0xbd212389	-0.03934053
214	0xbc64a610	-0.013955608
215	0x3c27b70c	0.010236513
216	0x3e163ddf	0.1467204
217	0xbc6b55a5	-0.014363681
218	0xbdd96d88	-0.106165946
219	0x3df1652c	0.11786875
220	0xbdd91b91	-0.10600961
221	0xbe058444	-0.13038737
222	0xbc8ca9a7	-0.01717074
223	0xbdec481c	-0.11537191
224	0x3b65d5de	0.0035070102
225	0x3ca04252	0.019562874
226	0xbda0e0c4	-0.07855371
227	0xbdfea4e7	-0.124337964
228	0xbd3241b4	-0.04351969
229	0xbc5bcaa0	-0.013415009
230	0xbd91f3c6	-0.07126574
231	0xbdd915b8	-0.10599846
232	0xbcca1359	-0.024667429
233	0xbd6d3bc5	-0.05791833
234	0x3d8f7bc5	0.07006029
235	0x3e14e81f	0.14541672
236	0x3bedec77	0.007260855
237	0xbdec2216	-0.11529939
238	0x3d72b9b8	0.059259146
239	0x3debef70	0.115202785
240	0xbe44326c	-0.1915986
241	0xbd32ac4f	-0.043621358
242	0x3de01519	0.10941524
243	0x3e59808b	0.21240442
244	0x3d0fbda8	0.03509298
245	0xbdab47a0	-0.08363271
246	0x3e916429	0.2839673
247	0x3e021927	0.12704907
248	0xbd335400	-0.04378128
249	0x3dc8a291	0.09796632
250	0xbd832f1f	-0.06405472
251	0xbe150364	-0.14552075
252	0x3c128ead	0.008945149
253	0x3c96f2d5	0.018426338
254	0x3d3a9da3	0.04556049
255	0xbdd018af	-0.10160958

module.layer2.0.bn1.weight f4 [32]
0	0x3f18e97a	0.59731257
1	0x3f16b7df	0.58874315
2	0x3f368635	0.71298534
3	0x3f09000a	0.53515685
4	0x3f0a40b2	0.5400497
5	0x3ef39911	0.47577718
6	0x3f0b61a3	0.54445857
7	0x3f05eaf5	0.5231164
8	0x3f346c59	0.70477825
9	0x3f4d878b	0.8028495
10	0x3f249ef7	0.6430506
11	0x3f0f19c3	0.55898684
12	0x3f1bbb0e	0.608323
13	0x3ed63db6	0.41843957
14	0x3f4503f8	0.7695918
15	0x3f099953	0.5374958
16	0x3f0fe6fd	0.56211835
17	0x3f107231	0.5642424
18	0x3f0c9632	0.5491668
19	0x3f22c204	0.63577294
20	0x3f0bc0a1	0.54590803
21	0x3ee36bb6	0.44418114
22	0x3f134172	0.57521737
23	0x3edf1f37	0.43578503
24	0x3f1934fd	0.5984648
25	0x3f2461da	0.6421181
26	0x3efb0040	0.49023628
27	0x3eca21c4	0.39478886
28	0x3f4b61f4	0.7944634
29	0x3f070dae	0.5275525
30	0x3f2d100c	0.6760261
31	0x3ed1da6a	0.4098695

module.layer2.0.bn1.bias f4 [32]
0	0x3dba72f0	0.09103954
1	0xbd59bb95	-0.053157408
2	0xbed21339	-0.4103029
3	0xbe91adde	-0.28452963
4	0xbd2bb429	-0.04191986
5	0xbc0d4871	-0.008623228
6	0xbe56c7f9	-0.20974721
7	0xbc93f2d1	-0.01806012
8	0xbdcbfe23	-0.09960582
9	0xbd5960e5	-0.05307092
10	0xbdbb9927	-0.09160071
11	0x3e7e914c	0.24860114
12	0xbe07cb43	-0.13261132
13	0xbcd69f8e	-0.026199128
14	0xbe8146fd	-0.25249472
15	0xbdf363e2	-0.118842855
16	0xbe0e070e	-0.13869879
17	0x3e46119e	0.19342658
18	0xbd8ecc3a	-0.06972547
19	0xbdb196f5	-0.08671371
20	0xbe5247b3	-0.20535164
21	0x3d2aaa98	0.041666597
22	0xbe32a12c	-0.17444295
23	0x3df664e2	0.120309606
24	0xbe7ebddf	-0.24877118
25	0xbe97c1f6	-0.29640168
26	0xbd3acf4e	-0.045607857
27	0x3e6f7954	0.23386127
28	0xbe6a57b7	-0.22885023
29	0x3d9b3cc2	0.07579948
30	0xbdac090f	-0.08400165
31	0x3daecc09	0.0853501

module.layer2.0.bn1.running_mean f4 [32]
0	0xbde88f94	-0.1135551
1	0xc02db7f4	-2.7143526
2	0xbf2ede5c	-0.68308043
3	0xbfd84613	-1.6896385
4	0xbeaed1be	-0.34144396
5	0xbfea0a4a	-1.828439
6	0x3fc180ad	1.5117394
7	0xbee8a2d4	-0.45436728
8	0xbf8adf92	-1.0849478
9	0xc0083b3c	-2.1286154
10	0xbffd5808	-1.979249
11	0xbfcd98f2	-1.60623
12	0xbfbcc58f	-1.474779
13	0xbf2bf1a9	-0.6716562
14	0xbfe7bf8f	-1.8105334
15	0x3dd4ffb6	0.104003355
16	0xbe935878	-0.28778434
17	0xbfbe0a00	-1.4846802
18	0xbf88fc81	-1.0702058
19	0xbf7e03ea	-0.9922472
20	0xbe627603	-0.2211533
21	0x3f3db091	0.74097544
22	0xbec72526	-0.3889553
23	0xbf416ae1	-0.7555371
24	0x3db2834e	0.08716451
25	0xbe298ca4	-0.16557556
26	0x3ed06f89	0.40710095
27	0xbf1b4f66	-0.6066803
28	0xbf593d47	-0.84859127
29	0xbf72be5e	-0.9482173
30	0xbf8891ff	-1.0669554
31	0xbf074f21	-0.52855116

module.layer2.0.bn1.running_var f4 [32]
0	0x3fff6924	1.9953961
1	0x3fd22ed2	1.6420538
2	0x3f8c3fc5	1.0956961
3	0x3f2c5b37	0.6732668
4	0x3f54c91b	0.8311936
5	0x3f672c46	0.9030193
6	0x3fa40303	1.2813419
7	0x3f4ab677	0.7918467
8	0x3fbff0cd	1.4995362
9	0x3fedd565	1.8580748
10	0x400acd82	2.1687932
11	0x3fdc7a46	1.7224815
12	0x3fda67a1	1.7062875
13	0x3f3ddbb1	0.7416335
14	0x3ff13c92	1.884661
15	0x3f6ad07c	0.9172437
16	0x3f31d58a	0.6946646
17	0x4010177b	2.2514331
18	0x3f759b18	0.9593978
19	0x3fb5d73d	1.420631
20	0x3f3f1ac6	0.7465023
21	0x3f96b48a	1.1773846
22	0x3fc55d21	1.5419046
23	0x3f9388e3	1.152615
24	0x3f86cdc3	1.0531543
25	0x3f7f210f	0.9965982
26	0x3f36fc52	0.7147876
27	0x3f89c622	1.076359
28	0x3f8a13b3	1.0787262
29	0x4024410d	2.5664704
30	0x3f872727	1.0558823
31	0x3f5477db	0.82995385
