results/fDm2/cifar10/ikd/resnet8_best.pth.tar (torch_old, 371450 bytes, 52 tensors)

module.conv1.weight f4 [64, 3, 3, 3]
000000 f6 7c b0 bd 5f 33 2d be 76 25 a8 bd ef 69 2d 3e
       -0.086175844 -0.16914128 -0.0821027 0.16934942
000010 08 ab 21 3e a1 ef 04 3e a0 bd e5 bd 31 b4 1f be
       0.157879 0.12982036 -0.11217809 -0.15596081
000020 46 e0 cc bd b5 d7 82 bd 75 12 1d be f6 c6 85 bd
       -0.10003714 -0.06388799 -0.15339072 -0.065320894
000030 ca f2 56 3e ff ce 35 3e cc 83 12 3e 84 e8 a1 bd
       0.20991054 0.17754744 0.14308089 -0.07905677
000040 5b 4f fd bd 71 0e a1 bd 66 19 ed bd cb 1c 43 be
       -0.123686515 -0.078640826 -0.1157711 -0.19053952
000050 d0 f5 97 bd d4 42 39 3e 36 73 28 3e f9 4f 2f 3e
       -0.07419932 0.18091899 0.164502 0.17120351
000060 71 6a 02 be 04 b1 1d be be 25 9c bd 80 1c 6e bd
       -0.12735917 -0.15399557 -0.07624386 -0.05813265
000070 72 5b cf 3d 55 e3 df 3d 5d 0c b7 be a2 d9 d8 3d
       0.10124864 0.10932032 -0.3575162 0.10588385
000080 2f d6 7d 3e aa 3b 75 be 44 af 68 3d 8f f7 8d 3d
       0.24788736 -0.23948541 0.05680777 0.06931984
000090 8b b6 9d be 04 14 38 bc a0 5f 79 3e 07 5f 16 bf
       -0.30803332 -0.011235241 0.24352884 -0.5873875
0000a0 e0 54 54 3c 55 a3 c4 3e 9d 82 56 be 6e 93 0e 3e
       0.012959689 0.38405862 -0.20948263 0.13923427
0000b0 3d 44 81 3e 72 9a 88 be 22 59 00 bd 3d 7d 88 3d
       0.25247374 -0.26680332 -0.031335004 0.06664512
0000c0 fb 9f e4 be 79 7f ef 3d a5 1a b8 3e 3a 09 5e be
       -0.44653305 0.11694235 0.35957828 -0.21683207
0000d0 28 db 65 3e 11 10 9e 3e e5 bf 88 bd 4a 8e 8c bd
       0.22446883 0.30871633 -0.06677226 -0.06863077
0000e0 fb a0 cc bd 06 66 f9 bc f8 e1 a7 bc c6 d9 35 bd
       -0.09991642 -0.030444156 -0.020493492 -0.044397138
0000f0 3c 9f 78 3c bb 30 49 3d 49 1c dd 3c b9 25 ca bd
       0.015174683 0.04911874 0.026991026 -0.09870476
000100 7e 26 93 bd f4 5b 26 bd 4a 10 57 bd 4b f7 66 3c
       -0.07185076 -0.040615037 -0.05250577 0.014097045
000110 95 2a 8c 3d e9 84 94 bb ae 76 ac 3d c8 69 ea 3d
       0.068440594 -0.0045324457 0.08421074 0.114459574
000120 cd a5 d1 bc 53 b3 0a 3d c6 e5 b8 3d 4f 26 d3 bb
       -0.025591755 0.033862423 0.09028201 -0.0064437757
000130 11 e9 db 3d 32 42 3c 3e 73 b1 96 bd 28 bb 7d 3d
       0.10737813 0.18384627 -0.073580645 0.061946064
000140 c7 fc f3 3d 4b 68 b1 be 17 8d 66 be 9c 25 84 3c
       0.11913448 -0.34649882 -0.22514759 0.016131215
000150 19 14 8b bc 18 90 89 3d f1 e6 74 3e af e0 e1 3d
       -0.016977357 0.06716937 0.23916222 0.11029183
000160 73 82 16 3e ea 62 2c 3e 33 27 4a be 6b 91 43 be
       0.146982 0.16834608 -0.19741516 -0.19098441
000170 92 7e 84 bc b1 6a 22 3d 7c a5 f0 bc b0 f1 e1 3d
       -0.016173635 0.03965253 -0.029375784 0.11032426
000180 29 d9 12 3e 60 67 84 bc 45 4e e1 bc 77 8b 18 bd
       0.14340653 -0.016162574 -0.027503142 -0.03724238
000190 ad da 01 3d 5f 86 c7 3d 5d ce 5c 3d ea cf 60 3d
       0.031702686 0.09742426 0.05390774 0.054885782
0001a0 fe 1b fb 3d c1 cd cf 3c 97 7a 00 be 39 d3 31 be
       0.122611985 0.025366666 -0.12546764 -0.17365731
0001b0 19 ce d0 3d e6 65 d2 bd 33 e2 88 3d 1b f3 0a bd
       0.1019556 -0.10273342 0.06683769 -0.03392325
0001c0 78 ed 7f be 19 3e a3 bc 0f 93 2b 3e 5c 43 23 bd
       -0.24992931 -0.019927071 0.16755317 -0.03985916
0001d0 2d 77 a0 3d e5 89 a3 3d e9 15 da bd cb 82 9b 3d
       0.07835231 0.07985286 -0.1064871 0.07593306
0001e0 b0 c5 e3 bd 75 8a 8c be 30 e5 35 bd 30 29 9f 3d
       -0.1112169 -0.27449384 -0.044408023 0.07771528
0001f0 ea e6 9e bd ff 02 4d 3d 3f fd 4c 3d 05 06 76 bd
       -0.07758887 0.050051685 0.0500462 -0.060064334
000200 f8 5c 95 3d c3 e9 fd bd fe fa 5e be 37 44 a8 bd
       0.07293123 -0.12398102 -0.21775433 -0.08216136
000210 1e b2 35 3c 19 ba dd bd 20 2d 3d bd a5 67 47 3d
       0.01108983 -0.10826511 -0.046185613 0.048682828
000220 9b 1d 9d 3c 85 21 87 3d 41 32 8b bd 90 28 f5 bd
       0.019179156 0.0659819 -0.067966945 -0.11970627
000230 c8 e9 6e 39 57 93 9b 3c bb de 57 bd 5d 9c c6 ba
       0.00022784539 0.018991156 -0.052702647 -0.0015152801
000240 7c 54 11 3d 4f 65 8e bc 41 87 d6 3c 23 e8 e9 bd
       0.03548096 -0.017382292 0.026187541 -0.1142123
000250 f6 4e 0f be a5 b7 cc bc b7 c9 d9 3b 1d 5f d5 bb
       -0.13994965 -0.024989912 0.0066463607 -0.0065115825
000260 6b 04 1b 3d 3e bb 0f bc 7a 9e 91 bd cc 3a a5 bc
       0.03784601 -0.008772669 -0.07110305 -0.020169638
000270 c5 d3 06 be f1 f9 46 be 40 ee ac bd cc 54 98 bd
       -0.13166721 -0.19431283 -0.0844388 -0.07438049
000280 e9 f3 0a be cc 62 ab bd 70 8f 15 3d 26 da 9b 39
       -0.13569607 -0.083684534 0.036513746 0.00029726437
000290 fb 1c 1c bc 20 11 ac 3d 6f c4 5c bb bb 18 93 bd
       -0.009528394 0.08401704 -0.003368642 -0.07182451
0002a0 46 7e b6 3d 7d 5c 27 3d 9b 62 a1 bc 24 27 e2 3c
       0.089108035 0.040859688 -0.019700339 0.027606554
0002b0 20 96 54 3b d8 47 d2 3c 9d 5c 6f 3d d0 ca 60 bc
       0.0032438114 0.025669023 0.058437932 -0.013720229
0002c0 20 c0 f4 bc 00 58 85 3d 0e 15 c1 3c 63 19 82 3c
       -0.029876769 0.06510925 0.02356961 0.015881246
0002d0 2d d3 24 bc ba bb a7 bb ff b7 01 3d f3 bf ae 3c
       -0.010060114 -0.0051188143 0.031669613 0.021331763
0002e0 e7 20 0d bc 3e fe 94 3b 2d 79 88 3c 67 e4 83 3a
       -0.008613802 0.0045469096 0.016659344 0.0010062576
0002f0 64 bb ee 3c ac 01 9c 3d b4 5b 31 bd 57 04 0f bd
       0.02914209 0.076175064 -0.043300346 -0.03491625
000300 0a c6 4b bd 3c e5 bc bd 92 6a 1b be f6 17 e7 bc
       -0.04974941 -0.092234105 -0.15177372 -0.028209668
000310 e1 f7 24 bd 65 fc d4 bd 94 73 1a bd 90 3a e2 bd
       -0.04027546 -0.10399703 -0.03770788 -0.11046326
000320 e3 0f a8 bd be 17 d0 bd 80 65 59 bd e9 7a e9 bd
       -0.08206155 -0.101607785 -0.053075314 -0.114003964
000330 3f 8b 13 bd 64 68 90 3d 4f d4 c8 bb c6 26 75 bd
       -0.036021467 0.07051161 -0.006128825 -0.05985143
000340 e0 a7 08 bc 3b 62 17 bc 94 b5 8d 3c d4 23 53 3e
       -0.008340806 -0.009239729 0.017298497 0.20619136
000350 85 ff e4 3d bd 18 dd 3d 7f 0a a7 3e a5 a7 71 3e
       0.11181549 0.10795734 0.32625195 0.23599108
000360 ea a1 65 be 2d 8f aa be e0 fb 72 be fa 59 06 3d
       -0.22425047 -0.3331236 -0.23728895 0.032800652
000370 e3 40 63 3d b3 88 ed 3d f2 7e 01 3e 10 0b 08 3e
       0.055481803 0.11598339 0.12646082 0.1328547
000380 a7 0f 1b 3e 06 91 6c be f6 32 93 be e0 26 74 be
       0.1514269 -0.23102197 -0.28749818 -0.23842955
000390 42 63 e9 3d e5 41 3c 3e 59 32 1e 3e 41 5d 6d 3e
       0.11395885 0.18384512 0.15448894 0.23180105
0003a0 74 63 6c 3e 53 5c 21 3e 5b ec 4c be 9c ed 80 be
       0.23084813 0.15757875 -0.20012037 -0.25181282
0003b0 e5 74 35 be 90 9c 65 3d 9c e8 c4 3d 3a 96 50 3d
       -0.17720373 0.056057513 0.09614679 0.050924517
0003c0 4a 42 23 3e 6e a0 0b 3e d5 a7 5e 3d 47 c4 3c bc
       0.15943256 0.13635418 0.054359276 -0.011521406
0003d0 60 6b 31 be 77 82 2d 3d f4 3c 95 3e 04 d2 02 be
       -0.17326117 0.04236075 0.29148066 -0.12775427
0003e0 4f 5a 2d be 4b 66 21 3e 4c 8a 05 be 0c 42 b1 3b
       -0.16928981 0.15761678 -0.13041037 0.0054094847
0003f0 39 38 db 3d 43 0e 26 be 77 66 22 bc a1 7c e4 3e
       0.10704083 -0.16216378 -0.009912125 0.44626334

module.bn1.weight f4 [64]
000000 e0 29 ee 3e ba d3 e8 3e 56 41 ae 3e 0b c9 6d 3e
       0.46516323 0.45474035 0.34034222 0.23221223
000010 dd 2d 12 3f 50 22 f5 3e 0a df 5e 3e 38 72 9d 3e
       0.5710123 0.4787774 0.2176477 0.30751204
000020 21 21 92 3e 5e 7f b2 3e a8 b3 7e 3e 33 72 9a 3e
       0.285409 0.34862798 0.24873221 0.30165252
000030 1c 02 91 3e 2a 72 4d 3e 61 2a 49 bd 77 e6 44 3f
       0.28321922 0.20063081 -0.04911268 0.7691416
000040 2d eb 39 3e 94 3f 45 3e 0d 4c c8 3e 07 18 81 3e
       0.18156119 0.19262534 0.39120522 0.25213644
000050 ad e4 6d 3e 42 94 9a 3e 86 f8 fd 3e 03 d4 1b 3e
       0.23231764 0.30191237 0.4960367 0.15217595
000060 0f 7e 9d 3e eb e3 15 3e c7 7b a4 3e c3 30 ef 3e
       0.30760238 0.14637725 0.32125685 0.4671689
000070 c2 d5 a4 3e c7 bd 29 3f 28 94 90 3e f5 1a 95 3e
       0.32194334 0.663052 0.28238034 0.2912213
000080 0f 50 a9 3e 3a 5d 81 3e 54 db a8 3e c1 d3 97 3e
       0.33068892 0.2526644 0.32979834 0.29653743
000090 65 58 d2 3e 9c 45 84 3e 8c 2b d4 3e dd 14 a6 3e
       0.41083065 0.25834358 0.41439474 0.32437792
0000a0 f1 82 c7 3e 0b f0 a3 3e 9b 57 32 3f 11 cb ce 3e
       0.38967088 0.32019076 0.69664925 0.40389302
0000b0 02 91 26 3e 1d eb 4c 3e 5d 32 47 3e a1 bd 99 3e
       0.16266254 0.20011564 0.19452806 0.30027488
0000c0 43 55 bf 3d 84 be 05 3f 98 91 e5 3d 06 0e bd 3e
       0.09342434 0.5224383 0.112094104 0.36924762
0000d0 a6 ae 84 3e ce 84 6e 3e f6 ba 77 3d ef 52 af 3e
       0.25914496 0.23292848 0.060481034 0.3424296
0000e0 13 86 b3 3e ae 0a 83 3c e9 d7 46 3e 73 8e b1 3e
       0.35063228 0.015996303 0.194183 0.34678993
0000f0 b4 b9 6a 3c 26 40 cd 3e 03 d1 bd 3e 8f c1 7b 3e
       0.014326502 0.40088004 0.37073526 0.24585555

module.bn1.bias f4 [64]
000000 a6 e9 f4 be 26 5f 65 3e f8 8c 3f be 2d a9 69 3d
       -0.4783451 0.22399577 -0.18706119 0.057046104
000010 42 c9 f9 be 0d fb 4d be bd 21 85 be c3 8f 9b bd
       -0.4878636 -0.201153 -0.26002303 -0.0759578
000020 1d ff 68 3e a3 a1 52 3e d1 00 6b be 30 15 1d bd
       0.22753568 0.20569472 -0.2294953 -0.038350284
000030 f4 8c 25 be e8 81 19 be 6c 60 0f 3d bc 27 9d be
       -0.1616705 -0.14990962 0.035004064 -0.30694377
000040 27 b5 bc 3c a7 c0 c9 bd 25 fb 01 be e6 94 4d 3e
       0.023035599 -0.09851199 -0.1269346 0.20076331
000050 de 7b 1d 3e 28 42 b7 3c 3f 21 bf be c4 2b c3 3d
       0.15379283 0.022370413 -0.37330052 0.09529832
000060 fd 27 fc 3d ae eb c0 3d 60 77 ab 3d d6 50 80 3e
       0.12312315 0.09419952 0.08372378 0.25061673
000070 7e 7d 95 be 04 d3 1b bf 7a f9 b1 3d e0 ae 04 3e
       -0.29197305 -0.6086886 0.08690162 0.12957335
000080 77 bb 18 3e 8f 25 a9 3d fa 49 99 3e b3 1a 35 3d
       0.14915262 0.08259117 0.29939252 0.044214915
000090 b6 c3 1c 3e 42 fd fc bd 42 1d 97 be cf da 68 be
       0.15309033 -0.123529926 -0.2951451 -0.22739719
0000a0 e6 4f f1 bd 77 b1 22 be 55 93 d2 be 6f 10 28 3f
       -0.117828175 -0.1588801 -0.4112803 0.65650076
0000b0 58 26 b7 3c d4 b8 c9 bd ee eb 64 be 4d 3c cb 3e
       0.02235715 -0.09849706 -0.22355625 0.39694443
0000c0 b4 6b 9c bd 58 af 7b 3e 7c ff 85 3d bc e5 b2 3e
       -0.0763773 0.24578607 0.065428704 0.34940898
0000d0 db a1 97 3d e7 80 47 be 74 51 5e bd 95 c8 09 3f
       0.07403918 -0.19482766 -0.0542769 0.5382169
0000e0 9f 61 8f be 67 b4 23 bd 7f 38 90 bd 6d 02 88 be
       -0.28004166 -0.039966967 -0.07042026 -0.2656435
0000f0 f7 a0 16 bd 70 2c 97 3d 0f f5 12 be 18 e8 68 3c
       -0.0367746 0.07381523 -0.14351295 0.014215492

module.bn1.running_mean f4 [64]
000000 a8 42 cb 3d 84 8c 10 bd 61 b8 9f bd dc 0c 82 bc
       0.09924823 -0.035290256 -0.07798839 -0.015875272
000010 e4 d5 a0 3e 1b b1 ad 3e 66 cb e5 bd 22 ea 99 3c
       0.31413186 0.33924183 -0.11220436 0.018788401
000020 2e bb 50 bd 38 71 84 3d af 09 68 bd 58 7d ec 3c
       -0.05095976 0.06466907 -0.05664986 0.028868362
000030 fc 1a 08 3b 4b 11 cb b9 fe 31 cb 3d d0 f4 53 3e
       0.0020768037 -0.00038732062 0.09921645 0.20698857
000040 1e 8a 16 bb 5f 77 a6 3d c1 0c 6a 3e 65 01 bc 3d
       -0.0022970508 0.08128237 0.22856428 0.091799535
000050 5a 36 62 bd 10 5a 0a bc 76 fa 36 3e 0d 08 6b bc
       -0.055227615 -0.008444324 0.17868981 -0.014345181
000060 2d db 6e 3e bf b0 b6 bc f0 c5 6f 3c 62 8b 03 be
       0.23325796 -0.022301076 0.014634594 -0.12846139
000070 79 30 38 be 40 da c8 3e ea 9d e0 3b a7 98 bc bb
       -0.17987241 0.39229012 0.0068547623 -0.0057555023
000080 5a 96 85 bd ff 27 3d bc 80 c2 22 bd ad 1c 2e be
       -0.06522818 -0.01154518 -0.03973627 -0.17003126
000090 b7 96 f6 bc ab 12 1c be 78 9a db 3d ea e5 4a 3d
       -0.030101163 -0.15241496 0.10722822 0.04953567
0000a0 c4 a4 33 3d e3 48 0a 3e 2b f2 21 bd 35 b5 c4 bc
       0.043858305 0.13504367 -0.03953759 -0.024012187
0000b0 cb 78 9d 3c 13 93 8f bd 0a 42 82 bd 3a 5b 1f 3b
       0.019222638 -0.07010474 -0.06360252 0.002431585
0000c0 25 45 21 3d 66 b9 82 3d 2b d6 48 bc b1 43 0e be
       0.039372582 0.06383018 -0.012258093 -0.1389301
0000d0 7d 21 59 bb 57 55 a0 bd 76 55 00 3d 78 66 34 bc
       -0.0033131533 -0.07828777 0.031331502 -0.011010759
0000e0 a0 7d 8a 3c 3a eb a4 3d 8b fa f2 bd 2d 27 21 be
       0.016905606 0.080526784 -0.118641935 -0.157376
0000f0 ff fb 84 bd f1 b5 8f bc 76 80 cf 3d 16 c1 c5 bc
       -0.06493377 -0.017542811 0.10131924 -0.024139922

module.bn1.running_var f4 [64]
000000 a6 b8 49 3f 5b c9 97 40 fd ab df 3e 9d 83 15 3f
       0.78797376 4.7433295 0.43685904 0.5840395
000010 32 ca df 3f 6e 4d fa 3f 57 92 76 3e 56 1e 00 3f
       1.748358 1.955488 0.24079262 0.5004629
000020 72 d3 46 40 56 28 0f 40 86 18 df 3d 9d e2 32 3f
       3.1066556 2.236837 0.10893349 0.69877034
000030 a5 f9 b6 3d 7a cd 1c 3e 99 36 18 3e 2e 69 03 40
       0.08934335 0.15312758 0.14864577 2.0532947
000040 63 52 eb 3d f8 67 16 3e 61 8b 93 3f f1 6e 27 40
       0.114903234 0.14688098 1.152691 2.6161463
000050 7b 13 28 3f c5 42 a8 3f 3d 63 2b 3f 10 35 61 3f
       0.65654725 1.3145376 0.669483 0.8797159
000060 4c 5d a3 3f 8c 39 06 3e 2c 0a 25 3e ae 08 e6 3f
       1.2762847 0.1310789 0.16117162 1.7971399
000070 67 80 0b 3f 24 c1 24 40 b3 33 f1 3e 9d 41 be 3f
       0.544928 2.5742884 0.47109756 1.4863774
000080 94 cd 2a 40 f5 4b ac 3f 4e 36 d6 3e ac 9f 15 3f
       2.6687975 1.346068 0.41838306 0.58446765
000090 44 58 c1 3f e8 dd ec 3e 47 19 fa 3e 49 c0 9a 3e
       1.5105062 0.4626305 0.4884741 0.30224827
0000a0 29 92 d5 3f e1 68 ed 3e be 6c b4 3f 95 15 cf 3e
       1.668523 0.4636908 1.4095685 0.40446153
0000b0 88 21 05 3e bc 48 8a 3e f5 af 1f 3e 4b 10 f3 3e
       0.13001072 0.27008617 0.15594466 0.47473368
0000c0 66 40 06 3d 6f 0b dd 3f 54 87 89 3d 1f de eb 3f
       0.03277626 1.7269114 0.06715265 1.8427161
0000d0 1d 2d a2 3f 67 06 43 3e c3 53 e3 3c 87 16 08 3f
       1.2670017 0.19045411 0.027749902 0.53159374
0000e0 b7 d9 c1 3e cc a1 c8 3d 80 c5 70 3e 53 b8 e6 3e
       0.37861416 0.09796485 0.2351284 0.45062503
0000f0 6e f7 83 3d 75 27 35 3f 0d 9a 23 3f cb 87 f3 3d
       0.06443678 0.7076333 0.6390694 0.11891135

module.layer1.0.conv1.weight f4 [16, 64, 3, 3]
000000 ea 54 52 3b de 4d 6a bc 12 68 a0 bc 69 99 62 bd
       0.003209407 -0.014300792 -0.019580875 -0.055322085
000010 eb c9 20 bd c5 1e 06 bc 7e b0 67 3c ae 85 97 3b
       -0.039255064 -0.008186047 0.0141412 0.00462409
000020 62 9d 09 3c 07 9b e9 ba 93 92 62 3c 17 41 26 3e
       0.008399339 -0.0017822691 0.013828891 0.16235767
000030 e1 09 67 3e 06 1e 4f 3e 8c 4e aa 3e 16 57 bb 3d
       0.22562362 0.20226297 0.33263052 0.0914747
000040 b7 7f 86 3d b6 a2 87 3d 5a 74 16 bd 50 37 61 bd
       0.065673284 0.066228315 -0.036732055 -0.05498439
000050 eb 35 9e bc d6 07 a6 bc a2 fc 3b bd ae b0 5c 3c
       -0.01931282 -0.020267408 -0.045895226 0.013469858
000060 87 1c c8 bc 65 c9 06 bd 97 3d 99 bc b8 bc 7a bd
       -0.024427665 -0.03290691 -0.018706126 -0.061215132
000070 aa d0 3c bd 98 06 0a bd 82 44 0d 3d b3 86 ea 3b
       -0.046097435 -0.033697695 0.034489162 0.0071571707
000080 50 f8 93 3d c9 9d 03 3e f2 ad 8b 3c a7 8a c2 3c
       0.07225096 0.12853159 0.017050717 0.023747755
000090 75 37 fc 3c eb f4 b1 3d 28 2f 2f 3d e2 ca ed 3d
       0.030788163 0.086892925 0.04276958 0.116109625
0000a0 c6 c1 ff 3c 85 80 e8 bd e5 70 1b 3c 30 9b 4b bd
       0.031220328 -0.11352638 0.009487365 -0.049708545
0000b0 93 89 09 be ad 8c 3c 3d 86 b5 a3 3d e0 86 51 3d
       -0.13431387 0.046032596 0.07993607 0.051154017
0000c0 64 05 9a 3d 23 95 1f 3d f0 72 39 bd ed 2a bb bc
       0.075205594 0.038960587 -0.04527563 -0.022847617
0000d0 35 db b7 bc 5c a1 4b bd d4 cf 53 3b e0 9b db 39
       -0.022443393 -0.04971443 0.003231992 0.0004188707
0000e0 fe 01 82 bc c1 b5 70 bc 06 f2 92 bc 53 3f ae bc
       -0.01587009 -0.014691771 -0.017937671 -0.02127043
0000f0 a4 80 a0 bc ed ba dd bb 11 89 62 bc 0c e9 75 bd
       -0.01959259 -0.006766668 -0.0138266245 -0.060036704
000100 74 e5 29 bd f0 ce 01 3d 9c b7 35 bc 60 d6 bd bc
       -0.04147859 0.03169149 -0.011091139 -0.023173511
000110 98 99 e3 3c fe 39 24 3d 95 63 5e 3c f0 f9 1f bc
       0.0277832 0.04009437 0.013573547 -0.00976418
000120 78 41 ec bd a6 51 87 bc 0b 6e 19 3e 84 52 b3 bd
       -0.11535925 -0.016518425 0.14983384 -0.08755973
000130 fe 69 5b bd a3 27 a0 3d 84 ea 9f 3d cf b5 0d bd
       -0.05356788 0.0782006 0.07808402 -0.034597214
000140 01 3c 04 be 23 7f ee bd 55 53 16 3d 4a f7 4e bd
       -0.12913515 -0.11645343 0.036700565 -0.050528802
000150 9a cd 8a be 35 98 14 be 1a f7 80 be 56 45 10 be
       -0.27109987 -0.14511187 -0.25188524 -0.1408895
000160 92 a5 bb bd 76 c5 79 be 2e 4c 67 bc 38 cb 62 bc
       -0.091624394 -0.24391732 -0.014117284 -0.013842396
000170 68 02 5e bc fe 6f 19 3c e8 65 35 3c 3b 98 2a bc
       -0.013550378 0.00936508 0.01107166 -0.010412271
000180 15 73 af 3c f6 20 3c 3c c3 e2 6c bc ba 29 e6 3c
       0.02141718 0.011482468 -0.014458361 0.028096069
000190 c9 63 d9 3b ad 71 c0 bb 30 77 da 3c 23 c3 14 bc
       0.00663421 -0.005872926 0.026668161 -0.009079727
0001a0 b1 88 cf bc 8f 2b 79 3d b3 3d c9 bc 05 b9 b4 bd
       -0.025333734 0.060832556 -0.024565553 -0.08824352
0001b0 bc 0e 0c bb f9 70 e6 3b 1a 84 06 3d 65 6f b4 bc
       -0.0021371087 0.0070325104 0.032840826 -0.022025773
0001c0 55 39 01 bc e0 46 06 3d 27 95 35 bd 5b 8f b7 bc
       -0.007887204 0.032782435 -0.044331696 -0.022407224
0001d0 83 d0 36 3c 98 04 8d bc a1 ee 11 bd 44 a2 cf bc
       0.0111581115 -0.017214105 -0.035627965 -0.025345929
0001e0 bd 74 1e bc be 23 d9 bc 7b 71 83 bc e7 93 e3 bb
       -0.009671387 -0.026506301 -0.016045323 -0.0069451216
0001f0 af fe 4c bc 3f 63 88 3b 13 a7 5e bc f5 88 b3 3a
       -0.012511893 0.0041622217 -0.013589638 0.0013697433
000200 5b 71 23 3c 37 f6 71 bc 36 18 e5 3a 4c be 5b 3c
       0.0099757565 -0.014768175 0.0017478529 0.0134120695
000210 b7 53 83 bc ac a7 c1 b9 81 9a da 3b 4a 1a 1d be
       -0.01603113 -0.00036936754 0.0066712503 -0.1534206
000220 bf d1 00 bd 1b 3d f4 bc cf e0 56 3d 76 56 75 3d
       -0.03145003 -0.029814294 0.052460488 0.05989691
000230 cf 73 2e be 1a 0a ee bc 7c e5 a2 bd af e2 76 be
       -0.17036365 -0.029057551 -0.07953927 -0.2410991
000240 a8 22 12 3d b3 1a 89 3d 35 42 bb bc 89 48 06 3c
       0.035677582 0.066945456 -0.022858718 0.008196005
000250 58 a7 8f 3c 4c 3e 8c bd 7b b8 9f bc 55 70 01 bc
       0.01753585 -0.0684782 -0.019497147 -0.007900317
000260 da 21 3c bd 91 c1 9c bc 07 df ec bb 57 7d ce b4
       -0.04593072 -0.019135268 -0.0072287354 -3.8461687e-07
000270 64 de ce 39 a3 08 8f 3b 84 e8 8d bb e3 78 e2 3b
       0.00039457076 0.0043650432 -0.0043306965 0.0069113835
000280 b0 f3 0f 3c a8 93 08 bc 5f 65 a6 3d 17 fd 46 3d
       0.008786127 -0.008335985 0.08124804 0.04858121
000290 dd 2b 11 bc b9 d7 ae 3d 56 e9 00 bc e1 a0 a9 bd
       -0.0088605555 0.085372396 -0.007868132 -0.08282638
0002a0 e4 d5 3f bc d4 c7 53 bd ed af 76 bd 9f d5 b8 bd
       -0.01170871 -0.051704243 -0.06022637 -0.0902512
0002b0 d6 73 d1 bb 7c 3e 25 3e 56 bf 9b bc 98 58 1d bd
       -0.0063919825 0.16137117 -0.019012135 -0.038414568
0002c0 a5 50 05 3d 11 4e ff 3d 0a 36 09 3c ad 0b cd bd
       0.03254761 0.12466062 0.0083747 -0.100119926
0002d0 d9 cc da 3c e4 59 fc bc f1 3f b6 bd 7c 13 2c bd
       0.026709007 -0.030804582 -0.088989146 -0.04201077
0002e0 a3 ff 25 bc 55 14 9f 3c b7 a8 cc 3b b6 7a df 3c
       -0.010131749 0.019418875 0.0062456983 0.027280193
0002f0 09 30 82 3d 7c 79 0b 3e c7 fa 5f bb 19 8a f9 bd
       0.06356818 0.13620561 -0.0034176575 -0.12184543
000300 3b f0 6f bd 35 33 bb bd 82 52 35 bd d8 f8 ec bd
       -0.05857871 -0.09140626 -0.04426814 -0.11570901
000310 7b 5a 9f bd 87 92 c0 3c 1a f3 17 3e 0d a6 62 3d
       -0.0778093 0.02350737 0.1483883 0.05533414
000320 a2 89 44 bd e4 22 44 3d f9 a4 04 bd cc 83 9e bd
       -0.04798282 0.047884837 -0.032383893 -0.07739982
000330 99 51 fb 3c 24 e0 37 3a b9 2c 6d bc d3 e8 43 bd
       0.030678557 0.00070142956 -0.014475995 -0.04782946
000340 a1 ad 59 bd 6c dd f4 bc 14 13 e4 bc 31 6e a2 bb
       -0.0531441 -0.029890738 -0.027841128 -0.0049569835
000350 d2 9f 47 3d e2 93 2f 3c 07 a3 32 3d 66 51 b6 3d
       0.0487364 0.01071641 0.043612506 0.08902244
000360 b9 7e 18 3e 22 df 98 3d e4 91 ef bc 06 56 12 3e
       0.14892091 0.07464434 -0.02924437 0.14290628
000370 48 d7 fc 3c 38 da ab bd 2b eb cd bd d8 84 e2 bd
       0.030864373 -0.08391231 -0.1005462 -0.11060494
000380 46 ce a6 bd e5 69 49 3c 62 31 d1 b8 fd da bc bc
       -0.08144812 0.012293314 -9.975095e-05 -0.02305364
000390 ab 68 3e bd 82 62 77 bc 9c 47 8f 3a 07 81 1a bd
       -0.046486538 -0.01509917 0.0010931375 -0.037720706
0003a0 a6 ff bb 3a 0a d8 94 3c 8b 85 c7 3b c7 73 5a 3d
       0.0014343157 0.018169422 0.0060889176 0.05333307
0003b0 c7 a4 58 3d 39 71 be bb 9b 88 36 3d 55 83 1c 3d
       0.05289152 -0.005811837 0.04456387 0.038211185
0003c0 3c c2 18 bd 93 0d 11 bd 71 1e 66 bd 99 04 d6 3d
       -0.03729461 -0.035413336 -0.056181375 0.10450096
0003d0 d0 93 5e bb c2 ff 90 3d de 32 72 be 3f 7d 4f bb
       -0.0033962615 0.07080032 -0.23652217 -0.0031660346
0003e0 b5 f1 7c 3e 4d cc 71 bd d4 c7 1a bd a1 4a 50 bd
       0.24701579 -0.059032727 -0.037788227 -0.05085242
0003f0 ff 2e 07 bc ce 84 d2 bc 23 c3 2b bd d0 2e 14 bb
       -0.008250951 -0.025698092 -0.041934144 -0.002261091

module.layer1.0.bn1.weight f4 [16]
000000 1c 59 1e 3f e2 d4 38 3f 89 ab 14 3f fa 40 47 3f
       0.6185472 0.72199833 0.5807424 0.7783352
000010 8d 65 10 3f e4 c9 fa 3e bb 51 07 3f 1d 1d 54 3f
       0.56404954 0.48982155 0.52859086 0.82856923
000020 77 7c 26 3f e8 15 18 3f ea a6 3e 3f 23 89 01 3f
       0.6503367 0.59408426 0.7447344 0.5059988
000030 c5 0f e8 3e 4c b1 12 3f 33 bb 2c 3f 71 aa 2d 3f
       0.4532453 0.57301784 0.67473143 0.678382

module.layer1.0.bn1.bias f4 [16]
000000 94 f7 38 be 7b f7 47 3e a8 1b 9b be 5b 36 20 3f
       -0.18063194 0.19528 -0.30294538 0.6258294
000010 fd c7 39 3d a0 d1 af bd df 78 30 be 6a f5 48 bf
       0.04535674 -0.08584905 -0.17233609 -0.7849947
000020 6b e4 9e be 8d fd d6 be d6 89 81 3e 8f 1b 56 3e
       -0.31033644 -0.4199032 0.25300473 0.2090895
000030 65 9f f7 bd 6d 70 ec bd 99 58 d6 be 28 32 d5 be
       -0.12090949 -0.11544881 -0.4186447 -0.4163983

module.layer1.0.bn1.running_mean f4 [16]
000000 a4 7d 42 bf c6 7a 2a bf 5c 68 af be 12 1e cb be
       -0.7597296 -0.6659359 -0.34259307 -0.3967138
000010 89 70 f6 be 7e c8 ec be cf 7b 11 bf 41 6b af 3e
       -0.48132733 -0.46246713 -0.5682954 0.34261516
000020 47 58 8e bf 4a 30 06 bf 53 07 85 bf 7a d2 ba be
       -1.112069 -0.52417433 -1.039286 -0.36488706
000030 b4 21 39 bf d5 7b 96 be ee 94 37 3f f1 53 38 bf
       -0.7231705 -0.2939135 0.71711624 -0.72003084

module.layer1.0.bn1.running_var f4 [16]
000000 17 c5 95 3f 86 55 8d 3f c6 ee b7 3e ef b3 81 3f
       1.1700772 1.1041725 0.35924357 1.0133036
000010 54 3e d4 3e 82 6f b3 3e 07 bc ea 3e 1e fa b0 3e
       0.41453803 0.3504601 0.45846578 0.34565824
000020 86 05 02 3f fa 52 98 3e 0b 3f 8f 3f 87 10 05 3f
       0.5078968 0.29750806 1.1191114 0.51978344
000030 a3 d2 c2 3e c3 e3 07 3f 55 e6 c4 3e 9f d3 d6 3e
       0.38051328 0.5308191 0.3845698 0.4195833

module.layer1.0.conv2.weight f4 [16, 16, 3, 3]
000000 60 79 ab 3d 8d 99 de bc 14 f2 94 bc 79 eb d8 3c
       0.0837276 -0.027172828 -0.018181838 0.02647947
000010 55 09 2b bc e3 7b 59 3d 6a 92 20 be 18 82 9a bd
       -0.010439237 0.053096663 -0.15680853 -0.07544345
000020 3c e6 0f 3e e9 0e 2d 3e 18 3d 8f bc 1f 8c 98 bc
       0.14052671 0.16900219 -0.017485186 -0.018621502
000030 08 d9 31 3c 99 8e 45 3d 8f 1f d1 3d f7 df 89 bc
       0.010854967 0.048231695 0.102110974 -0.016830428
000040 b0 54 01 3e fe 75 81 3d c3 01 56 bd c4 36 1c be
       0.12629962 0.06321333 -0.052247774 -0.15255266
000050 c8 bb ea bd ce fb a7 3c b1 6e 80 3d 15 ca 25 3d
       -0.11461598 0.020505812 0.06271113 0.040475924
000060 99 e8 95 bd c4 1a df ba e5 1d e7 3d 58 4a 2b bd
       -0.07319755 -0.0017021527 0.11284999 -0.041818947
000070 97 81 9d bd 3f 5e 42 3d ad 0b 43 3d 75 02 05 bd
       -0.07690733 0.04745316 0.047618557 -0.032473046
000080 c0 a1 10 be 0f f4 2f 3e a8 cb 48 3e fe f9 a1 3d
       -0.14124203 0.17182945 0.19608939 0.0790901
000090 d7 ab 24 be 32 a4 d8 bd 47 f7 2e bd e6 4d c1 3d
       -0.16081177 -0.10578193 -0.04271629 0.09438686
0000a0 6c 0e ca bd 51 9b 5b be c8 01 29 3e 66 d3 29 3e
       -0.09866032 -0.21445967 0.16504586 0.16584548
0000b0 42 1f fe bc 8b 9e a5 3d 89 a1 67 3d 4f c8 ba bd
       -0.031020764 0.0808688 0.056550536 -0.09120237
0000c0 fb 40 3b 3e b4 a6 f7 3d 11 33 25 be 66 43 8b 3e
       0.18286507 0.12092343 -0.16132762 0.27199858
0000d0 71 86 a1 3e 22 a5 ce 3d 00 93 a0 3d 0a 2d 30 be
       0.31547883 0.1009009 0.07840538 -0.17204681
0000e0 0f 05 fa bc 7a a8 e2 3d e5 4a eb 3b 8e 69 98 bd
       -0.03051999 0.110672906 0.007180559 -0.07442008
0000f0 2a 07 77 3d 35 95 07 3e 62 e0 9c bc fc 11 88 bd
       0.060309567 0.13240512 -0.019149963 -0.06644055
000100 e9 68 1c bd 13 8b 0b ba 75 c9 46 be 43 19 4a be
       -0.038185988 -0.0005323153 -0.19412787 -0.19736199
000110 59 18 39 be 63 38 cd bc 8a 03 a1 bc c4 b0 8e bb
       -0.18075694 -0.025051301 -0.019655008 -0.004354568
000120 0b bb de 3d fe 0a 26 3d 3d b2 07 3e 9e 41 fe 3c
       0.10875519 0.040537827 0.13251586 0.031037148
000130 d1 0b 3b bd 89 4d 37 3d f8 82 89 3d e1 11 3e bd
       -0.045665566 0.044751678 0.067144334 -0.04640377
000140 b4 bd 07 bd 00 be 50 3d 8f 2c a8 bd 26 04 11 be
       -0.0331399 0.050962448 -0.08211624 -0.14161739
000150 6d 59 1e 3e 76 ef a1 3d d4 33 da 3c 22 91 1e 3d
       0.154638 0.07907002 0.026636042 0.03871263
000160 f2 7f 1f 3c 5c a4 0c bc 68 4c 86 3c 19 7c 45 3e
       0.009735094 -0.008584108 0.016393855 0.19285621
000170 39 89 be 3d 1c 8e ac 3d e8 1c c0 3c 79 19 ab 3d
       0.09303517 0.08425543 0.023451284 0.08354468
000180 1b f3 cc bd bc 76 2d be 2a 3d 1e be bc 25 9d 3d
       -0.10007306 -0.16939825 -0.1545302 0.07673213
000190 41 8d 1b be 25 da f3 bd db be 5b 3d 07 e1 f2 3d
       -0.15190603 -0.11906842 0.05364881 0.11859327
0001a0 37 8c f6 3c 93 15 1d be 8d 9d cf 3d c9 4a 62 3e
       0.030096157 -0.15340261 0.10137472 0.22098841
0001b0 41 66 e3 3d c1 b6 aa 3e 29 58 64 3e a9 ee 8e bd
       0.11103488 0.33342555 0.22299255 -0.069791146
0001c0 e4 f2 21 3e 04 03 94 3e 86 81 29 be d4 7c 73 be
       0.15815312 0.2890855 -0.16553316 -0.23778087
0001d0 32 49 aa bd 7e c2 0b be f4 8c be bd ca 16 77 3d
       -0.08314742 -0.13648412 -0.093042284 0.060324468
0001e0 ae 66 2a be 27 93 89 bd 9c f5 48 3d 0f 17 8c 3d
       -0.16640732 -0.0671752 0.049062356 0.068403356
0001f0 c8 3c 67 bd a3 86 85 bd aa 0f a3 3d f8 bf 05 3e
       -0.05645445 -0.065198205 0.07961972 0.13061512
000200 90 7d 0c 3e da 59 97 bd c9 5a 95 bc 7f 6e 4f bc
       0.13719773 -0.07390185 -0.018231766 -0.012660622
000210 82 89 53 be 03 90 77 be 55 4a 6d be a1 97 4b be
       -0.20657924 -0.2417603 -0.23172887 -0.1988206
000220 8b d8 73 be 63 1b 37 be 8c d2 f2 37 c7 ed 66 be
       -0.23813073 -0.17881541 2.8946692e-05 -0.22551642
000230 7d 67 4c be 41 24 38 3e 0d 09 21 3e 19 f2 44 3c
       -0.19961353 0.1798258 0.15726109 0.012020611
000240 7f c6 7a bc e9 9a 0d 3d c9 bc bd 3c 6b 82 9f bc
       -0.015306114 0.034571562 0.023161309 -0.019471368
000250 a2 73 50 3d bd a1 34 3d b2 ac 0f bd 76 03 0d bd
       0.050891526 0.04409956 -0.035076804 -0.03442713
000260 e7 3b 89 bc 15 57 71 3d da e3 d0 3d 73 81 19 3e
       -0.016752196 0.05892094 0.10199709 0.14990787
000270 71 d6 76 b9 ad 64 1d bd 7c 91 ae 3c f0 60 1e be
       -0.00023540274 -0.03842609 0.021309607 -0.15466666
000280 5e e6 28 be 64 00 b9 bd d9 3b 9c bd d6 02 bb 3d
       -0.16494128 -0.09033278 -0.076286025 0.091314
000290 75 f3 9f 3d 9d f8 0d be f4 39 e5 3d b7 5f 44 3e
       0.078101076 -0.1386437 0.11192694 0.19177137
0002a0 a6 cc 1d be 10 29 09 3e 70 1d 5b 3e d4 ce c2 3d
       -0.15410098 0.1339457 0.21397948 0.095121056
0002b0 c2 7e b7 bd 71 68 e6 bd a7 86 e3 3c c1 8a 6e bc
       -0.08959724 -0.11250389 0.027774168 -0.014559449
0002c0 e3 72 9b bd 52 a3 0b 3d 4f ff ef 39 fb cf 0b bd
       -0.07590272 0.0340913 0.00045775852 -0.034133893
0002d0 46 8a 07 be 5d 68 48 3c 09 eb e8 bd eb 8b f3 bd
       -0.13236341 0.012231913 -0.113729544 -0.118919216
0002e0 cd 90 d7 3c fd 84 8e bd 7c 98 90 bc 79 1f f4 3d
       0.026314164 -0.06958959 -0.017650835 0.119200654
0002f0 d5 1a a9 3d 12 60 3b be d3 c6 21 be 7b ff e7 bd
       0.08257071 -0.18298367 -0.15798502 -0.11328026
000300 f3 07 c5 3c 11 0a 64 3d 89 b8 a5 3d ea 4f b8 3d
       0.024051642 0.055673663 0.08091838 0.089996174
000310 d5 18 7a 3e fb ef 83 3e c4 f6 c5 3d 73 62 fc 3c
       0.24423535 0.25769028 0.096662074 0.030808663
000320 4a 6c 4d bd cd fb a5 3d fd d9 91 bc 19 9d 0c bd
       -0.0501521 0.08104668 -0.01780414 -0.034329507
000330 e4 a8 fb 3d 88 1d 7e 3c a1 94 a6 3b 86 32 6d bd
       0.12288073 0.0155099705 0.005083636 -0.05790951
000340 b5 3b 8f bd 83 d2 db bd 0b 89 b0 bc cc ea 0c bd
       -0.0699381 -0.10733511 -0.021549722 -0.034403607
000350 03 24 9c bd b4 05 b9 3d b1 8a 93 3d b8 58 d3 3c
       -0.07624056 0.09034291 0.07204188 0.02579914
000360 5d a3 cd bd d9 d5 77 bd 2a fb b3 bc 57 35 ee bd
       -0.10040925 -0.060506675 -0.02197035 -0.116312675
000370 65 d0 4a bd 74 55 6a 3b 01 04 3a be 4e e0 99 bd
       -0.049515147 0.00357565 -0.1816559 -0.07513486
000380 0d 6d 15 3d 42 54 65 3d fe a4 bd 3d e3 6c 28 3d
       0.036480952 0.055988558 0.092599854 0.041119467
000390 e0 c2 d1 3d e7 b8 17 3e e7 ff 82 3d 93 79 c6 3d
       0.102422476 0.14816628 0.06396466 0.09691157
0003a0 57 f3 ed 3d 66 22 91 3d 62 a4 5b bd 5f c1 28 bd
       0.11618679 0.07086639 -0.053623565 -0.041200038
0003b0 7a 43 3d be 28 74 b5 bc 98 45 8d bc 00 84 35 bd
       -0.18482772 -0.022150114 -0.017245099 -0.044315338
0003c0 16 a2 09 be ae a6 49 bd 07 5f 15 be 1a 99 66 3c
       -0.13440737 -0.049231224 -0.14587031 0.014074588
0003d0 64 c5 a1 3c 9c 34 c4 bd db c5 89 3d 37 d1 41 3d
       0.019747443 -0.09580347 0.06727191 0.047318663
0003e0 c5 4f 80 bd 93 6f c6 3d cf c1 ae 3d cd 8e ee bc
       -0.06265215 0.0968925 0.0853306 -0.029120827
0003f0 e1 ad 0d be d8 e2 84 3c cf d2 d8 3d 87 9f 3e be
       -0.13835861 0.016221449 0.105870835 -0.18615542

module.layer1.0.bn2.weight f4 [16]
000000 66 03 18 3f a6 96 ae 3e e2 eb 92 3f dc b4 81 3f
       0.59380186 0.3409931 1.1478236 1.0133319
000010 31 ed 6f 3f c1 07 3b 3f 99 d3 6f 3f 3e ab 87 3f
       0.937213 0.73058707 0.9368225 1.0599134
000020 a5 a1 18 3f 58 4c 36 3f 2a 4e 6c 3f dd 59 7c 3e
       0.5962165 0.7121024 0.9230677 0.24643655
000030 7d 7d 92 3f 6e 4e b4 3e 3a 94 87 3f cb 8e 3c 3f
       1.1444546 0.35216087 1.059211 0.73655385

module.layer1.0.bn2.bias f4 [16]
000000 c8 59 4c bd 75 d6 4f 3e e2 4c 84 bd 2c 0e 84 bd
       -0.04989031 0.20296653 -0.06459977 -0.064480156
000010 a3 4b 3f be 95 fa 95 3d d9 0e ab bd ea aa 24 bd
       -0.18681197 0.07323185 -0.08352441 -0.04020206
000020 da 31 3f bb 81 d6 22 be a5 6d a8 bd 2e 49 36 3e
       -0.0029174 -0.15902139 -0.08224038 0.17801353
000030 af 80 82 bd 4f 2b 96 3e 26 36 1e be c4 76 b6 3e
       -0.06372201 0.29329917 -0.15450343 0.35637486

module.layer1.0.bn2.running_mean f4 [16]
000000 2d e1 9c 3e c4 23 e7 be 36 23 a1 be 68 73 78 be
       0.30640545 -0.45144475 -0.31472176 -0.24262774
000010 e3 05 b1 3c d5 e5 b9 3e ed 05 31 be f8 74 b8 3d
       0.021609252 0.3630816 -0.17287417 0.09006685
000020 f5 de 00 3e a7 51 3f 3e 23 84 d4 bd e0 1e fa be
       0.12585051 0.18683492 -0.103767656 -0.4885168
000030 4f b6 28 be 41 56 2f be 4a bd 03 bf b8 54 1f bf
       -0.16475795 -0.17122747 -0.5146071 -0.62238646

module.layer1.0.bn2.running_var f4 [16]
000000 dd 23 b3 3e e3 ff 50 3e 6d 1d c6 3f 18 1d 76 3f
       0.349883 0.20410113 1.547773 0.96138144
000010 e0 38 1b 3f bc 56 ef 3e b3 76 34 3f fe d3 79 3f
       0.6063366 0.4674586 0.7049362 0.975891
000020 b9 d8 76 3e c5 a6 46 3e 50 ad 4a 3f 2a 14 1a 3e
       0.2410611 0.19399555 0.79170704 0.15046754
000030 69 ef bd 3f 13 eb 91 3e 8f b0 6a 3f 9a 50 10 3f
       1.4838687 0.2849966 0.9167566 0.5637299

module.layer1.0.shortcut.0.weight f4 [16, 64, 1, 1]
000000 88 09 ca 3c 4f 8f ab 3d 0b 5d 8c bd 90 13 4b be
       0.024662748 0.08376943 -0.06853684 -0.19831681
000010 5a 59 d1 bd 28 29 11 be 08 d2 b2 bc 86 88 b9 bc
       -0.102221206 -0.14175856 -0.021828666 -0.022648107
000020 50 7b a4 be 3b 2c 43 be ac 3e d7 bb a7 55 5b 3e
       -0.3212533 -0.19059841 -0.0065687504 0.21419393
000030 6e 1a 8b bd fb 8b cd bd 3a 36 66 bd a2 dd b7 bd
       -0.067921504 -0.10036465 -0.05620406 -0.0897782
000040 94 9f 3a bb b0 df 5c bd 48 26 82 bd df 45 c9 be
       -0.0028476464 -0.053924263 -0.06354958 -0.3931112
000050 bf 04 f0 bd 7e 62 23 3e 44 2a 4d bd 56 c6 0b bc
       -0.11719655 0.1595554 -0.050089136 -0.008531174
000060 18 0e 2f 3e 82 3a 20 bb f7 16 e8 bd 84 30 05 3e
       0.1709522 -0.0024448936 -0.11332505 0.13006788
000070 db 58 2d 3d ee 53 a1 bd 8e d2 46 bd 2b 13 ac 3d
       0.042321067 -0.078773364 -0.048540644 0.084020935
000080 d3 dd 5b be e2 ed 2e be 8e 37 e7 3c 24 97 86 be
       -0.21471338 -0.17082933 0.028224733 -0.26287186
000090 47 ff af bd e8 c0 10 be eb 56 cb bd d8 21 5e bd
       -0.08593612 -0.14136088 -0.09928688 -0.054231495
0000a0 70 8d 88 3e 73 64 b0 3d 08 f7 06 3e 06 ca f2 3d
       0.26670408 0.08612909 0.13180172 0.11854939
0000b0 d3 41 b1 3d 49 c2 4b 3c 03 8f e7 3b 51 23 ec 3d
       0.08655133 0.012436458 0.007066609 0.115301736
0000c0 30 72 ed bc 1d 60 d0 3d 5f fd b5 bb a5 2f bc 3e
       -0.028985113 0.10174582 -0.005553886 0.367551
0000d0 89 8f 9f 3d 5e f4 f8 bc e2 19 24 bd 1d e0 75 be
       0.07791049 -0.03038996 -0.040063746 -0.24011274
0000e0 07 75 23 be 49 72 c0 bc 51 81 a7 bd e8 11 2a bd
       -0.15962611 -0.023491995 -0.08178962 -0.041520983
0000f0 26 fd 01 bc dc 5a f2 bd 24 1b 05 3e 6b 43 cd bb
       -0.00793389 -0.11833736 0.12998635 -0.0062641404
000100 46 cd 7c 3d dc cc 81 3d 46 a6 a4 bc 5f 03 d0 bc
       0.0617192 0.06337902 -0.020098817 -0.025392232
000110 f9 a7 fa 3c 8b 2b d1 bd dd 4d cc bd 00 67 3c 3e
       0.030597674 -0.10213383 -0.09975789 0.18398666
000120 31 bc 0c 3e b8 21 3a 3e f8 21 3a bd e3 09 35 3e
       0.13743664 0.18176925 -0.04544255 0.17679553
000130 67 ee 12 be 1f 2c 82 bd 10 c3 f9 bc a4 c7 06 3e
       -0.14348756 -0.06356072 -0.03048852 0.13162094
000140 e4 1d f0 3c 55 38 85 3d 50 38 0a 3e 02 c1 12 3e
       0.029311128 0.06504885 0.13498044 0.14331439
000150 c7 44 c4 be 8d 55 17 be dc 00 42 3e 4c 55 34 3e
       -0.38333723 -0.14778729 0.1894564 0.17610663
000160 6e 7a bb be db 3f 39 bc f9 96 12 bc 9d d9 03 bd
       -0.36616844 -0.011306728 -0.0089471275 -0.032189954
000170 1b 34 6f be 90 99 bd 3d 01 ba 38 bd 4a 05 40 3e
       -0.2335972 0.09257805 -0.045099262 0.18752018
000180 89 78 66 3e 5c dd 19 3e 36 b5 87 bd 9a 7e 22 be
       0.22506918 0.15025848 -0.0662636 -0.15868607
000190 07 7a e3 bd f6 29 9d bd 7e fd 2d be 6e 22 d3 bd
       -0.11107259 -0.07674019 -0.16991231 -0.10309301
0001a0 b8 d9 f5 bd 6e 27 c0 3d 8f db 05 3d 77 a9 32 bd
       -0.12004417 0.093825206 0.03268009 -0.043618646
0001b0 89 b5 45 3d 58 3b 90 bd 12 fb e5 bc 96 7e 87 bc
       0.04826883 -0.07042569 -0.028073821 -0.016539853
0001c0 dd 27 a2 bc 93 6b 18 3d d7 3e f9 3b 5a fc 76 bd
       -0.019794399 0.037211966 0.007606368 -0.060299255
0001d0 67 a5 5a bc 30 ab 1b be 5c 0d 8e bc 6f 8e 48 be
       -0.013345099 -0.15202022 -0.017340355 -0.19585584
0001e0 76 c8 48 be f7 52 c4 bb 86 77 15 be b2 5b 8a be
       -0.1960772 -0.0059913355 -0.14596376 -0.27023083
0001f0 75 b6 81 bc 60 26 43 3d d5 e4 48 3b c8 ee ff bc
       -0.015834073 0.04764402 0.0030653973 -0.03124179
000200 e9 7a 58 bd 41 d4 39 3e bc ac b1 3d ac 36 54 3c
       -0.05285159 0.18147375 0.086755246 0.012952488
000210 de e2 a9 bc 19 ed b1 bd 1f 6c 2f 3d 2e 42 8f 3d
       -0.020738062 -0.08687801 0.04282772 0.06995045
000220 8d dc fa 3d 54 8f 18 bd 62 a8 3b 3c a3 51 c8 3d
       0.12249098 -0.037246063 0.01145372 0.09781196
000230 c9 bb 8e 3d 09 d8 ad 3c 98 f7 64 bc 27 3b 13 3e
       0.06969411 0.021221178 -0.013975047 0.14378034
000240 af 8c 14 3d 13 4e 31 3d ab 05 ee 3d 95 f2 60 3e
       0.03626698 0.043287348 0.11622175 0.21967538
000250 6c af 05 3c 27 79 bc bd 8c 92 3a bd 0a 44 10 bd
       0.0081595 -0.092027955 -0.045549914 -0.035221137
000260 7e 8d aa 3d 7a c5 85 bd 3a 81 9a 3c 96 20 a1 be
       0.08327769 -0.06531806 0.018860448 -0.31470174
000270 01 a0 76 3d b7 c2 96 bc 7b cf 30 be 88 3a 17 3d
       0.060211185 -0.018403394 -0.17266648 0.036921054
000280 3b 0b db 3c ba 56 03 bd 9f f8 18 3c b7 66 7a bd
       0.026738754 -0.03206513 0.00933662 -0.061133113
000290 a5 3f 49 bd 1e c1 b7 3c 47 e9 6a 3a af a8 f9 3c
       -0.04913296 0.022430953 0.00089611526 0.030475942
0002a0 4d 26 14 3d 65 1c c1 bd cf 44 81 3a d5 8c 83 bd
       0.03616934 -0.09429244 0.0009862426 -0.06423346
0002b0 a5 0c 9a 3c 2d e0 a6 3d 34 56 09 3d fb 3e f8 3d
       0.018804858 0.08148227 0.033529475 0.121213876
0002c0 58 48 b2 bb 36 e4 03 bc 66 22 1a bd 21 30 a4 be
       -0.005440753 -0.008050015 -0.03763046 -0.3206797
0002d0 60 cd c8 bd 68 1c 4d 3d 23 47 1d 3c d9 78 38 3d
       -0.09804797 0.05007592 0.00959948 0.045037124
0002e0 34 16 28 3d a9 88 97 bc e6 80 0d 3d 79 42 9a 3d
       0.0410368 -0.018497782 0.034546755 0.0753221
0002f0 e7 42 55 bb 83 78 cb 3c ed 77 00 3c 25 64 c4 bc
       -0.0032541098 0.024837738 0.007841093 -0.023973534
000300 b2 ce 8a bc aa 4c 41 ba f3 9e bc 3c b6 1a 02 bc
       -0.016944263 -0.00073737896 0.023025012 -0.007940939
000310 6d 38 63 bd a8 98 3d 3c 11 46 0c 3b 18 9d d2 3c
       -0.055473734 0.011572041 0.0021404068 0.025709674
000320 fe 3b 45 3d 87 e4 11 bd 12 70 bd bb 3b 00 5b 3c
       0.048152916 -0.03561833 -0.005781182 0.013366754
000330 f6 2a c0 3a 5a 82 c0 ba 11 f3 16 bc 0a 47 2d be
       0.0014661241 -0.0014687285 -0.009213225 -0.1692163
000340 7c 27 b9 39 49 12 fb 3a 84 10 f0 bc 7e a3 02 3d
       0.00035315368 0.001915523 -0.02930475 0.0318942
000350 9b 45 2a bc db 1d 4a bc 74 03 f5 bc eb e8 eb 3b
       -0.010392572 -0.01233622 -0.029908873 0.007199397
000360 a3 28 2d 3c cd 7f 97 3b a1 69 29 bd ff e3 4b 3d
       0.010568771 0.0046233893 -0.0413605 0.04977798
000370 01 3b 28 bb 80 d8 74 bd ec ff 91 3c 86 11 8e bc
       -0.0025669935 -0.059776783 0.017822228 -0.01734234
000380 6a b2 d9 bc 72 a4 80 bc ee 09 1e 3b 50 d5 b2 bc
       -0.026574332 -0.015703414 0.0024114805 -0.021830231
000390 49 e7 86 bb 1c a9 a3 3c 33 90 8b bb 93 f1 fa 3b
       -0.004116927 0.019978099 -0.0042591332 0.0076581924
0003a0 c9 d7 5f 3d 40 d7 47 3c 69 a4 7e 3d f6 48 32 3d
       0.054649148 0.012197316 0.062168512 0.043526612
0003b0 83 b7 91 bc 4f 69 eb 3a 37 01 01 39 90 92 ec bc
       -0.0177877 0.0017960462 0.00012302851 -0.02887848
0003c0 f8 68 af 3b e0 fd 58 bd 94 dd ce 3b b1 90 08 3c
       0.0053530894 -0.05297649 0.0063130353 0.008335278
0003d0 b7 46 6e ba c2 32 37 3b eb 3c 51 3b 28 41 01 3d
       -0.0009089517 0.0027953838 0.003192718 0.03155628
0003e0 2a b6 d8 3b 01 19 79 bb cf 89 fe bb 29 ea d2 3b
       0.0066135125 -0.0038009288 -0.007767893 0.0064366055
0003f0 38 42 6c 3b bb 38 20 3c 8d 26 df 3a 6c de 13 bd
       0.0036050212 0.009779151 0.0017025039 -0.03610079

module.layer1.0.shortcut.1.weight f4 [16]
000000 67 9f 16 3f 3b 0d e3 3e 74 91 26 3e 45 6e 15 3d
       0.5883698 0.44346032 0.16266423 0.036482114
000010 d1 5f b4 3e 66 7a b8 3e 22 1d 49 3e 78 72 05 3d
       0.35229352 0.36030883 0.1964002 0.03257987
000020 8a a6 c0 3e 6d f8 ec 3e 07 2c 55 3e 24 47 0c 3f
       0.3762706 0.46283284 0.20817576 0.5479605
000030 6d 1b 89 3d 8f 11 f7 3e 77 18 48 3e 53 02 6e 3e
       0.06694684 0.48255584 0.19540583 0.23243074

module.layer1.0.shortcut.1.bias f4 [16]
000000 c8 59 4c bd 75 d6 4f 3e e2 4c 84 bd 2c 0e 84 bd
       -0.04989031 0.20296653 -0.06459977 -0.064480156
000010 a3 4b 3f be 95 fa 95 3d d9 0e ab bd ea aa 24 bd
       -0.18681197 0.07323185 -0.08352441 -0.04020206
000020 da 31 3f bb 81 d6 22 be a5 6d a8 bd 2e 49 36 3e
       -0.0029174 -0.15902139 -0.08224038 0.17801353
000030 af 80 82 bd 4f 2b 96 3e 26 36 1e be c4 76 b6 3e
       -0.06372201 0.29329917 -0.15450343 0.35637486

module.layer1.0.shortcut.1.running_mean f4 [16]
000000 d9 9a 06 be 2e c0 0e be be c3 77 bd 5f 63 cc 3b
       -0.13145007 -0.13940498 -0.06048941 0.006237432
000010 f2 7b 5a be 23 b8 34 3e e0 61 cf bd db c1 38 bd
       -0.21336344 0.17648368 -0.1012609 -0.04510675
000020 8f 7f 9a 3e 5a e7 8f be 3d d0 8e 3c d2 7a d7 be
       0.30175444 -0.28106195 0.01743328 -0.42085892
000030 36 e0 00 bd 54 3b 12 3e 78 06 e9 be fb 2a 85 be
       -0.031463824 0.14280444 -0.45512748 -0.26009354

module.layer1.0.shortcut.1.running_var f4 [16]
000000 80 e9 28 3e cc 3f f8 3d 25 48 a9 3d a4 88 87 3c
       0.16495323 0.12121543 0.082657136 0.016544648
000010 56 f0 9a 3d c6 a0 8a 3d 83 1a 84 3d 03 02 97 3c
       0.07565372 0.06768946 0.06450369 0.018433576
000020 1c 91 a7 3d 94 7a af 3d e8 40 4a 3d fe f1 2f 3e
       0.08181974 0.08568302 0.049378306 0.17182156
000030 4a b0 f0 3c 22 af 2d 3e 6e e6 72 3d f5 b0 5e 3d
       0.029380936 0.16961339 0.059301786 0.054367978

module.layer2.0.conv1.weight f4 [32, 16, 3, 3]
000000 61 cd b1 3d 79 8e a0 3d d6 e6 3f bd de 45 bc 3d
       0.08681751 0.078396745 -0.046851 0.091930136
000010 d8 d4 96 3d 87 0d 0b ba 40 9f 92 3c 83 74 aa bb
       0.073648155 -0.0005304445 0.017898202 -0.0052018776
000020 c3 1e 6c bd 15 ee 14 bc f2 a6 0b bc 24 14 74 3b
       -0.057646524 -0.009089966 -0.00852369 0.003724345
000030 18 f2 3e bd df e9 5c bd 99 8e 17 bd 7a 04 5d bc
       -0.046617597 -0.053933974 -0.037001226 -0.013489837
000040 43 4f 7e bc 12 dc 02 bd f8 53 bc 3d 5a af f2 3d
       -0.015521827 -0.031948157 0.09195703 0.11849852
000050 19 16 3d 3d 05 19 43 3e 0e 5e fb 3c 12 e9 c9 bd
       0.046163652 0.19052513 0.030684497 -0.09858908
000060 e5 05 a6 3d 56 49 8b bd 11 60 f1 bd d8 88 21 3e
       0.08106593 -0.06801097 -0.11785901 0.15774858
000070 6c b7 81 3e 4d fa c0 3d 92 6c 86 3e 34 a4 bd 3d
       0.25335252 0.09422741 0.26254708 0.09259835
000080 80 cc e6 bd 28 d6 02 3e 31 16 6d bd 81 b2 a1 be
       -0.11269474 0.12777007 -0.05788249 -0.315815
000090 39 ee 25 3e 58 8f 11 3e f3 12 89 bb 46 14 98 3e
       0.16204156 0.14214838 -0.004183167 0.29702967
0000a0 7b 20 29 3d 30 35 e2 bd 9e f2 a5 3d 1e 5b 1c be
       0.04129074 -0.11045301 0.08102916 -0.15269133
0000b0 0c d3 28 be c4 40 2c 3c 95 e2 a5 3d e2 89 e7 3c
       -0.16486758 0.010513488 0.08099858 0.02826399
0000c0 90 cb 94 3d 19 00 7b 3d 74 aa 49 3c bc 0c e5 bc
       0.07265389 0.06127939 0.012308706 -0.027960174
0000d0 e4 3b b0 bd 99 64 a2 bd eb 24 f7 3d 39 d1 0f 3b
       -0.08605173 -0.07929344 0.120675884 0.0021944775
0000e0 90 f0 12 be 62 a1 0b 3e 58 bf cb bd 41 30 4f be
       -0.1434958 0.13635781 -0.09948605 -0.20233251
0000f0 91 24 b0 bc 46 4c 42 be 06 43 3e be b6 c5 eb 3d
       -0.021501811 -0.18974409 -0.18580255 0.1151232
000100 c6 c0 09 3d 00 54 b6 bd a5 68 39 3d 68 82 81 be
       0.03363111 -0.089027405 0.045265812 -0.25294805
000110 5c 9c b5 be 21 34 4b bd 67 1c 9b be e3 ba 88 be
       -0.35470855 -0.04961026 -0.30295107 -0.26705083
000120 d9 20 61 3d c9 fb 75 3d a8 1d 26 bb fe af 8b 3d
       0.054962967 0.060054574 -0.0025347266 0.06820677
000130 20 e3 53 3d 7c 2a 6a bc 46 5f 22 bd 50 e4 85 bd
       0.051730275 -0.014292356 -0.03964164 -0.06537688
000140 42 db ec bd d2 ee 70 bd 37 b7 13 bd d9 28 3d 3d
       -0.115652576 -0.058821507 -0.0360634 0.046181533
000150 71 32 5a bd 17 7e 45 3d eb 21 5e 3d 7d d7 1b bd
       -0.05327076 0.04821595 0.054231565 -0.038047303
000160 4b 0a 9f 3d e7 de 06 bc c5 12 22 3d 62 e8 c9 3c
       0.07765635 -0.008231855 0.03956868 0.024646942
000170 56 5d f9 bd b9 81 85 3d 57 ec 93 bd c9 fd 91 be
       -0.121760055 0.06518883 -0.072228126 -0.28513935
000180 19 34 cc bc 6d ab 3b be 22 84 95 be 34 09 be bd
       -0.024927186 -0.18327112 -0.29202372 -0.09279099
000190 85 43 78 3d 1f a2 30 3e ca 2a 3f bd e5 98 d5 3d
       0.060611267 0.17249344 -0.046671666 0.10429553
0001a0 48 49 48 3e 70 a8 cf bc 94 53 51 3d 7d 86 93 3d
       0.19559205 -0.025348872 0.051105097 0.07203386
0001b0 be 97 c4 3d 16 5f 6e 3d 29 5d be bd eb ab f4 3d
       0.09599255 0.05819615 -0.09295113 0.11946853
0001c0 2d 94 d8 bd d4 2b 43 be f0 bf 97 3d 82 62 8f bd
       -0.10575137 -0.19059688 0.07409656 -0.07001211
0001d0 96 bf 0b be e3 67 e0 bc ae b8 b1 3d 3a 5f 55 3d
       -0.13647303 -0.027393287 0.08677803 0.05209277
0001e0 6c cc e4 3b 5e 0b c7 3d 3e 27 40 bc 25 0c 29 bd
       0.006982377 0.09718965 -0.011728106 -0.041271348
0001f0 f1 6a d7 bc 79 c7 a4 bd 29 ea d1 3c f8 8e 5d 3d
       -0.02629611 -0.08045859 0.025624352 0.054091424
000200 18 62 8a 3d 72 51 58 3c 17 7e 87 bd df ed d6 bd
       0.06756991 0.013203012 -0.066158466 -0.10494589
000210 78 d5 26 3d 33 41 0a be 84 46 80 be 10 ae 11 be
       0.040730923 -0.13501434 -0.250538 -0.14226556
000220 dd 51 f6 bd d4 cc 9f bd 4f 40 ab bd 4c 8e 03 3e
       -0.12027333 -0.0780274 -0.08361875 0.1284725
000230 02 64 2f 3e bc f1 9e ba d7 1e 3b 3e 6d d8 81 3e
       0.17127994 -0.0012126486 0.18273483 0.25360432
000240 89 ea 9b 3d 7e 43 2e bc 85 ba 21 3d 74 84 dd 3c
       0.076130934 -0.010636209 0.03948452 0.027040698
000250 ba 81 06 be 30 f5 21 be 97 69 29 3e da 9a d4 3d
       -0.13135424 -0.15816188 0.16544186 0.10381098
000260 77 b0 ba 3d 7a a4 48 3e c0 80 a4 3d 1a cf e8 3c
       0.09115689 0.19593993 0.080323696 0.028419066
000270 c6 17 d7 3d 86 a1 13 3d 8c 60 aa bb 47 ad 90 3d
       0.10502581 0.036042713 -0.0051994976 0.070643
000280 24 6b b1 3c ca 64 83 bd 8e a1 2a be 2a 17 ba be
       0.021657534 -0.06415708 -0.1666319 -0.36345798
000290 bf ce af bd e7 2e 8f be 6f 91 fe be 09 db 63 be
       -0.085843556 -0.2796547 -0.49720332 -0.22251524
0002a0 a0 86 c3 bd 3d 50 97 be 1f ae 0c be 8e 4c f1 bd
       -0.09547162 -0.29553404 -0.13738297 -0.1178218
0002b0 b2 27 61 be fc 97 aa bd 97 74 30 be 6b 2d a8 be
       -0.21987799 -0.0832977 -0.17231975 -0.3284715
0002c0 67 13 3b be 62 5b 89 bd 73 3e 50 be 6b 2a b7 3a
       -0.1826912 -0.06706883 -0.20336322 0.0013974434
0002d0 7b 2b bb 3d f4 6e 2c 3e d4 8e 08 3c ad c3 b9 3d
       0.091391526 0.168392 0.008334834 0.09070525
0002e0 c3 14 21 3e 11 56 18 bc 34 8c d7 3d 75 a7 10 3e
       0.15730576 -0.009297864 0.105247885 0.1412638
0002f0 2d 2e 4a 3d 79 43 18 be 07 d8 45 be 6f 1c e2 bd
       0.049360443 -0.14869489 -0.19320689 -0.110405795
000300 75 60 4b be a2 13 84 be 92 37 76 be f3 a3 82 bd
       -0.19861014 -0.2579623 -0.24044636 -0.06378927
000310 8c 18 11 be 59 3c 91 bd 78 b7 dd 3d 40 8d 92 3d
       -0.1416952 -0.070915885 0.108260095 0.071558475
000320 39 27 00 bd a4 3f 83 3d fc ff 83 3d 3c ee ed bc
       -0.031287406 0.06408623 0.064453095 -0.029044263
000330 f0 d4 10 3d a1 4e 15 3d 80 b5 81 bd fa c9 62 be
       0.035359323 0.03645194 -0.063334465 -0.2214736
000340 37 ba a4 be 3c c8 34 be a5 bc 87 be 98 1d d1 be
       -0.3217332 -0.17654508 -0.26511112 -0.4084289
000350 04 f3 82 be 04 9f 52 bd e4 67 27 be cc a1 ce bd
       -0.2557603 -0.05142118 -0.16348225 -0.10089454
000360 49 b0 69 3c e4 87 fe bd 09 15 22 be 56 d6 62 3d
       0.014263221 -0.12428263 -0.15828337 0.055380188
000370 4b ed 84 bd 60 eb c3 bd 9e 32 da 3d 83 a9 01 bd
       -0.064905725 -0.095663786 0.10654186 -0.0316558
000380 74 3b fa 3c 55 49 a4 3d da a2 05 3d 85 f0 e7 3c
       0.030545928 0.080217995 0.03262601 0.02831293
000390 bf fa 47 3c e5 83 c2 bb 85 b8 16 3d 7a 7f 47 bc
       0.012205779 -0.005936133 0.036797065 -0.012176389
0003a0 27 5b 10 3c 5e 53 a9 3d 77 0e 04 be 38 5e 04 be
       0.008810795 0.08267854 -0.12896143 -0.12926567
0003b0 16 7b 5e 3d ec de e6 bd 7d 4d 9c bd 8e 84 6c 3d
       0.054316603 -0.11272988 -0.07631967 0.0577436
0003c0 cf 03 f0 3c fa f6 25 bd 6c 67 a2 bb 81 f9 dc 3d
       0.029298691 -0.04051874 -0.0049561765 0.107897766
0003d0 9e db 18 3e 57 58 31 3e c0 f6 a3 3c 08 fd 66 3c
       0.14927527 0.17318855 0.02001512 0.014098413
0003e0 d4 d8 80 3c 89 39 49 bd 02 f1 99 bd ab 93 c2 bd
       0.015728392 -0.049127135 -0.07516672 -0.09500822
0003f0 06 5c 59 3d ce c8 b8 3d 3c 5d b6 3c 0c 79 23 3d
       0.053066276 0.090226755 0.022261254 0.03991036

module.layer2.0.bn1.weight f4 [32]
000000 83 4b 3a 3f 41 02 20 3f 87 0b 12 3f fc 0a 01 3f
       0.7277147 0.6250344 0.5704884 0.50407386
000010 b5 f3 0e 3f 52 51 0e 3f 5d a0 fe 3e 43 ab 17 3f
       0.5584062 0.55592835 0.49731722 0.592457
000020 f8 72 11 3f 1a 77 14 3f 5c 75 ec 3e d7 e9 1f 3f
       0.56816053 0.57994235 0.46183288 0.62466186
000030 4d 57 16 3f c0 bb f7 3e 13 49 29 3f 53 8a 1f 3f
       0.5872696 0.4838543 0.6612713 0.6232044
000040 f6 52 0c 3f b4 74 ff 3e b8 4e 05 3f 57 dc b5 3e
       0.5481409 0.49893725 0.5207324 0.35519668
000050 b8 52 55 3f c6 00 ed 3e 42 bc f2 3e b7 e9 24 3f
       0.83329344 0.46289653 0.47409254 0.6441912
000060 de 4b 0a 3f 36 b2 1d 3f b9 89 12 3f 52 e3 28 3f
       0.54022014 0.61600053 0.572414 0.65971863
000070 eb 37 28 3f a9 4b 01 3f d6 7c fe 3e 5b d4 0b 3f
       0.65710324 0.50506073 0.49704617 0.54620904

module.layer2.0.bn1.bias f4 [32]
000000 ff 1c a6 be a3 30 22 3c 60 46 8e be ce ae 95 bd
       -0.32443997 0.009899291 -0.27788067 -0.07308732
000010 7f 57 27 bc 11 2d d0 3d b7 f5 be bd 36 db b9 be
       -0.010213732 0.10164846 -0.0932421 -0.36300057
000020 57 04 3e 3e 00 00 90 bc f4 6e ff bc 6d 3c 6a 3d
       0.18556343 -0.017578125 -0.031180836 0.057186533
000030 0a c3 03 be 13 96 5b bd 51 71 01 3d 4a da 6a be
       -0.1286737 -0.05360992 0.031602208 -0.22934833
000040 78 09 70 3c e2 f2 24 be 06 92 31 be 5c 6b 86 3e
       0.014650695 -0.16108277 -0.1734086 0.26253784
000050 36 52 91 be 7e 0c 15 be cd 01 d1 bc d1 71 b9 bd
       -0.28383034 -0.14555547 -0.025513554 -0.09054912
000060 ba 08 2e bd 87 93 81 be ec de 0b bd f5 57 21 be
       -0.04248879 -0.25307867 -0.03414814 -0.15756209
000070 a7 ef 97 3c 19 82 76 be 5f 0a 76 3e 57 50 af bd
       0.018546892 -0.24073066 0.24027394 -0.085602455

module.layer2.0.bn1.running_mean f4 [32]
000000 61 80 f5 bd 2a c4 2e c0 44 27 de 3f d5 fc db bf
       -0.11987377 -2.730723 1.7355733 -1.7186533
000010 68 9c 72 bf ce d5 18 bf c8 46 e0 bc 49 90 12 3f
       -0.94769907 -0.5970124 -0.027377501 0.5725141
000020 c6 15 a9 bf fe 24 f0 be 39 80 61 bd bd fb 63 bf
       -1.320977 -0.46903223 -0.055053923 -0.89056
000030 86 28 31 bf 9a ae 63 3f bf a0 e1 bf cc 8b fc bf
       -0.6920246 0.88938296 -1.7627181 -1.9730163
000040 54 60 89 3f e1 a0 a4 3e 88 03 1d 3f d5 7a 7a be
       1.0732522 0.3215399 0.61333513 -0.24460919
000050 2a ff 0f c0 8f d7 5f be 1f 56 6a 3f 77 5c be bf
       -2.249949 -0.21859573 0.9153766 -1.4871968
000060 68 66 a5 be db 47 a3 bf 4e 35 58 bf 15 71 d3 be
       -0.32304692 -1.2756304 -0.84456336 -0.41297212
000070 aa 21 95 be 38 9c 2e bf 81 2d 52 3f fc 69 85 bf
       -0.29127246 -0.6820712 0.82100683 -1.0422969
