results/wjyU/cifar10/nokd/resnet8_best.pth.tar (torch_old, 371450 bytes, 52 tensors)

module.conv1.weight f4 [64, 3, 3, 3]
00000000: c39b a53e a4f7 2a3e 0c10 04be 7e77 7d3e
00000010: 058e 23be 926b a7be 7c71 603d c265 80be
00000020: 69fb d6be 56c7 49bd 07de 2fbd 8930 12bd
00000030: 31ea 9ebd efe0 1abe ed0a 113c 7019 f6bc
00000040: 0b27 ee3c 818a bb3d 2b2c ccbe 5405 2bbe
00000050: a58e 0c3d 198c 92be 85be ccbd 11bb 4c3e
00000060: 98f5 c4bd f936 273e 0ac7 8c3e 2134 0e3c
00000070: 46de 83bc 949b 76bc dadc fa3c 6750 7b3c
00000080: e093 033c c76c 193d dcfb b33c e095 c33c
00000090: 21bf fe3c d8a3 9a3b f39e 9539 ba04 4f3d
000000a0: 2df3 213d fe69 a03c ff37 333d ce9d f43c
000000b0: f04a 063d 3d0f 983c aa7b e73b 1f0b 14bc
000000c0: 519f ba3c dff6 d73b 9591 c1bb de0d f63b
000000d0: 9c78 04bc fb10 a8bb 326f bb3a bd28 cd3c
000000e0: d16c f03c 432c 14bd 500d 1bbd 55b4 81bb
000000f0: 0b91 1abd e259 9dbd b927 05bd 9f5e 7e3d
00000100: 6390 c83d 6ed1 be3d d9d2 02bb 915d 213c
00000110: 644e 1b3d bfe2 5dbd ba78 91bd 3887 efbc
00000120: 2189 6d3d d793 af3d ddad 6d3d 7364 7a3b
00000130: 5886 5b3c 3f4a 303c 47ec 78bd f201 a3bd
00000140: 41f1 86bd eabc 2b3e 3a70 a63e 35fc 423e
00000150: c23e e23c f145 0bbd 915b f1bd 17b8 3ebc
00000160: a2ad 5fbe af53 67be d87f 343d bbb1 713e
00000170: 4f58 ef3d 0732 44bd 28d4 70bd 8b06 cbbd
00000180: 9adc 08bd 223b 21be aaa6 e9bd b8fb 9d3d
00000190: d107 453e 60a0 a03d 9136 a93c 328e 8fbc
000001a0: ce35 d5bd 3e67 6fbb 3c09 03be 3dc8 15be
000001b0: 86d5 f2bc f5b7 3bbd 4904 6bbc 939d 73bd
000001c0: a2f2 fcbd 9ced e3bd 013d 14bd 114a 8dbd
000001d0: 8c42 aabd 4fe4 aebc 9bfb 92bd f6ac 50bd
000001e0: 5d5a 823c 5dd1 2cbd 90f9 6dbd ebc2 c53d
000001f0: 6272 c13d 9e0e 753d 3ec6 39bd 8068 8bbd
00000200: f844 4ebd 1425 cb39 d1c3 3bbd 9386 41bd
00000210: df46 c73d 1121 c03d 4658 913d d4b1 313e
00000220: 2c57 403e 7bbb c33d 2a22 383e b9d3 7c3e
00000230: 1199 0f3e f2c5 c23d 0625 8f3e 0e88 e13d
00000240: 124c e3bd 7a1a 9dbe a8fa 3ebe 0433 79be
00000250: f5e0 f5be ec03 9ebe 9d09 30be e751 96be
00000260: 0ab5 51be 4485 9e3a 7532 033e 416a 0d3e
00000270: e005 e43d cd54 683e c241 873e 6cc9 52bc
00000280: d52d fb3d ae23 063e e3bc 91bb 1595 603d
00000290: 09ed 383d 66f6 403d ebe5 8f3d 53d3 883c
000002a0: ac11 753c 3fc7 24bd a109 b4bd cf9d 4bbd
000002b0: 5d98 0bbc 4206 893a 21f2 3dbc 69c7 2fbc
000002c0: ae09 04bd 0c8e 99bc 66fe a3bd 5841 c8bd
000002d0: ab2f 3c3b f0ee cdbb c9c2 573c a56f babc
000002e0: d400 51bd 8e03 61bd 3fe8 86bd 43f7 13be
000002f0: fcf4 10be c645 5a3e b7e9 df3e 4935 fb3e
00000300: a1ca 7dbe 486f a5bd 6d25 7c3e 8d61 a8be
00000310: ccaa 1dbf 4cf2 02be 5645 c5bd aed9 49be
00000320: 2bd2 6dbe 285a 0ebd 5563 46bd 6548 53bd
00000330: babe 853e c775 3b3d f0a0 da3d cbc1 10be
00000340: 31a4 4cbe 6f08 0dbf d442 033e ca30 733e
00000350: 16ba 0bbe 1d7b 883e aab6 a53e 0aa1 cd3d
00000360: 10ad 6c3e 0261 2e3e 63dc 8f3d 980b f23d
00000370: 899a 2c3b cc7e c0bd 7c59 993c d03a 25be
00000380: 64ae 57be 9029 9fbc 5041 07bd 7f57 343c
00000390: 01f2 febc d34a 02bc f42e 323c 6088 033d
000003a0: 0218 123d 6775 033d 5c9a a3be 2cb3 0cbe
000003b0: a26a 01bc 786e 0bbe aa33 063e 4b4d 623e
000003c0: bb71 233c 8d4d 6f3e e3b1 813e cdce e6bd
000003d0: bc39 ccbe 8c67 b93e d5f0 c2bd 2152 183f
000003e0: 5ebf f7be df39 52be a994 d5bc 1322 543e
000003f0: d03a 1f3d fa26 b8bd bdc2 853e f074 683d
0.323454 0.1669603 -0.12896746 0.24752614 -0.15972145 -0.32699257 0.054795727 -0.25077635
-0.41988686 -0.049262367 -0.04293635 -0.035690818 -0.07759512 -0.15124868 0.008852703 -0.030041426
0.029071352 0.09157277 -0.39877447 -0.16701251 0.034315724 -0.2862251 -0.09997276 0.19993235
-0.09617156 0.16329564 0.27495605 0.008679421 -0.0160972 -0.015051741 0.030622888 0.015338994
0.008030862 0.037457254 0.021970682 0.023875177 0.031096997 0.0047192387 0.0002853792 0.050541617
0.03953855 0.019581791 0.043754574 0.029860403 0.03278631 0.018561954 0.0070643025 -0.009035855
0.022781046 0.0065907086 -0.0059072473 0.0075089773 -0.008085396 -0.0051289774 0.0014300107 0.02504384
0.029348763 -0.036175024 -0.037854493 -0.003958265 -0.03773598 -0.076831594 -0.032508586 0.062101956
0.097931646 0.09317289 -0.00199621 0.009848968 0.037916556 -0.05417132 -0.07103105 -0.029239282
0.057992104 0.0857312 0.058027137 0.0038206845 0.013398729 0.010759889 -0.060772207 -0.079593554
-0.06588984 0.16771284 0.32507497 0.19041522 0.027617816 -0.03400225 -0.11785043 -0.01164057
-0.2184358 -0.22590517 0.044067234 0.23602955 0.116867654 -0.047899272 -0.058796078 -0.09913357
-0.033413507 -0.15745214 -0.11408742 0.07714027 0.19241263 0.07843089 0.020655902 -0.017523859
-0.10410653 -0.0036530043 -0.12796491 -0.14627166 -0.029642832 -0.045829732 -0.014344283 -0.059476446
-0.12350966 -0.11129305 -0.03619099 -0.06898893 -0.08313474 -0.0213491 -0.07176896 -0.0509462
0.01591223 -0.042191852 -0.05809933 0.09656318 0.09445645 0.059828393 -0.045355074 -0.06807041
-0.050358742 0.00038746803 -0.045841042 -0.04724748 0.097303145 0.09381307 0.07096915 0.17352992
0.18783253 0.095572434 0.17981783 0.24690141 0.14023234 0.09510411 0.27957934 0.110122785
-0.11098494 -0.30684263 -0.18650305 -0.24335867 -0.4802319 -0.30862367 -0.17191167 -0.29359362
-0.20479217 0.001209416 0.12812217 0.13810064 0.11133933 0.22688599 0.26417357 -0.0128654055
0.12264601 0.13099548 -0.004447566 0.054829676 0.04514793 0.047109984 0.07026275 0.01670233
0.014957827 -0.04022908 -0.08790899 -0.049711045 -0.008520213 0.0010454135 -0.011593373 -0.010728695
-0.032235794 -0.018744491 -0.08007507 -0.09778088 0.0028714936 -0.006284587 0.013168999 -0.022758314
-0.05102618 -0.05493503 -0.06587266 -0.14449792 -0.14155954 0.21315679 0.43732998 0.4906409
-0.24784328 -0.08077866 0.24623652 -0.32886925 -0.6158874 -0.12787741 -0.096323654 -0.19711944
-0.23224704 -0.03475395 -0.048434574 -0.051582713 0.26122075 0.045766618 0.10675228 -0.14136426
-0.19984509 -0.55090994 0.12818462 0.2374908 -0.13645205 0.26656428 0.32365924 0.100404814
0.23112893 0.17029193 0.07024457 0.118186176 0.0026337227 -0.093991846 0.018719427 -0.16135716
-0.21062618 -0.019428998 -0.03302127 0.011007189 -0.031121256 -0.00795241 0.010875452 0.03211248
0.035667427 0.032094385 -0.31953704 -0.13740224 -0.007898958 -0.13616359 0.13105646 0.22099797
0.009975846 0.23369427 0.2533103 -0.11269913 -0.39887798 0.36211812 -0.09518591 0.5950032
-0.4838819 -0.20529889 -0.026071863 0.20716123 0.038874447 -0.08991809 0.26125136 0.056752145

module.bn1.weight f4 [64]
00000000: bfec bb3e 34be f93d 5ff8 553e cf8c a13e
00000010: 7727 4d3e 7828 623e bb2f 793e 4fca 933e
00000020: 9bf9 593e 9af0 223f bea0 b53e 8234 b13e
00000030: 7414 023f f877 933e 1317 6a3e c3ea cc3e
00000040: fde5 9d3e 9fa3 5c3e 3f94 6b3e 05c5 d83e
00000050: c3d6 3f3e 77a8 0c3f 08a8 933e 9248 663e
00000060: 1ef8 e23e e44e 7b3e 7c63 883e 91d0 003f
00000070: 216e 823e 4dd7 6e3e 4c5a a73e 2384 993e
00000080: 2faf b63e f49e b13e 96ce d33e 2229 8f3e
00000090: 4a56 513e 5e2e c93e fbb7 7d3e 4673 ae3e
000000a0: 032f 803e 555e 493e 83ae 0d3f 0f2b ac3e
000000b0: 8973 933e 3636 503e 7d69 b43e 267f 863e
000000c0: 7106 153f 68cc 093f 19da 0b3e bf12 0b3f
000000d0: d89b 653e ceea ab3e d451 9a3e d720 a43e
000000e0: 06a5 3d3e f0c6 733e 4b21 9c3e 5849 5f3e
000000f0: cdb1 a73e 7d58 d93e 1ae1 b13e 7110 bb3e
0.3670406 0.121944815 0.20895527 0.3155274 0.20034586 0.2208575 0.24334614 0.28865287
0.21286623 0.6364838 0.354742 0.34610373 0.5081246 0.28802466 0.22860365 0.4002286
0.3083953 0.21546791 0.2300577 0.42337814 0.18734269 0.54944557 0.28839135 0.22488621
0.44329923 0.24541813 0.266384 0.5031825 0.25474647 0.23324318 0.3268608 0.29983625
0.3568053 0.34691584 0.4136855 0.2796107 0.20443073 0.39293188 0.24777214 0.34072322
0.25035867 0.19664891 0.5534441 0.336266 0.28799084 0.2033318 0.3523673 0.26268882
0.58212954 0.53827524 0.13657416 0.5432548 0.22422731 0.3357758 0.30140555 0.32056305
0.18519983 0.23806357 0.3049415 0.21805322 0.3275284 0.42450324 0.3474205 0.3653598

module.bn1.bias f4 [64]
00000000: 74b3 18be 2dd3 19be f854 c9bd 8945 bd3d
00000010: 2b4c 12bd d31f 8d3e bd1d d8bd f1fa a23e
00000020: 3400 dbbd 755c d43e c351 3abe 0c32 11bd
00000030: ae94 863e e72a 89bd 0702 0fbe 7219 55be
00000040: 5723 c7bc 4251 d1bb 094e 763d 33b3 753e
00000050: dce2 3cbe 90f3 95be 4bc5 9d3e 0894 243e
00000060: ee71 0cbd 6107 c1bd f217 07bb dd42 b83e
00000070: 3a90 8d3d f09d 35be cb9a 213e ffc2 443e
00000080: 9f11 fe3d ea68 8ebd 739e a2be 7e9c f53e
00000090: fb40 5dbd 2e24 193e 14b7 49be f908 c53c
000000a0: c255 023e 4409 e6bd ad97 93be cf25 26be
000000b0: 1bf9 093e f005 5abd 1e79 733e c6fa f23c
000000c0: 5d01 813e e483 dcbc 4bf4 1ebd 0f13 bf3e
000000d0: ab83 383b a525 0abe 5c29 c3bd a080 05bd
000000e0: f4b2 d0bd b990 b53d dcfe 893d 44a8 4a3e
000000f0: a0df 21be cb32 28be ce1d 81be 870f 5fbe
-0.14912206 -0.15021963 -0.0983066 0.092417784 -0.03571717 0.27563342 -0.10552547 0.31832078
-0.10693398 0.4147679 -0.18195252 -0.03544812 0.2628531 -0.06697636 -0.13965617 -0.20810488
-0.024308844 -0.0063878605 0.060133014 0.2399414 -0.18445915 -0.29287386 0.30814585 0.16072094
-0.03428834 -0.094252355 -0.0020613638 0.35988513 0.06912275 -0.1773603 0.15781705 0.1921501
0.12405705 -0.069536045 -0.31761512 0.47970957 -0.05401705 0.14955208 -0.19698745 0.02405213
0.12728027 -0.11232236 -0.28826657 -0.1622536 0.13473932 -0.05322832 0.23776671 0.029660594
0.25196353 -0.02691836 -0.038807195 0.37319228 0.0028154652 -0.13490923 -0.09529373 -0.03259337
-0.101903826 0.08865494 0.06738064 0.1979075 -0.15807962 -0.16425626 -0.25218052 -0.21783267

module.bn1.running_mean f4 [64]
00000000: 1a10 833e 6f83 cfbd d17c a43b 5876 b63b
00000010: f217 123e f8eb c8bc 0aed 293e 284f c43b
00000020: bac9 00be 2224 60bd 1c6e 4b3e 57bb 82bd
00000030: ea3c 9cbd 5143 813b ec44 ae3d 8619 4d3e
00000040: 1aeb 093d b76b 4b3d 5bf0 53be ac29 14bd
00000050: 7dc8 16be 37c4 d0bb 865b 91bb 5e61 64bd
00000060: a386 a33d 5177 6c3c fede 9dbd dd4c 283d
00000070: e67f 053e 0b94 8d3d 0dc7 e53c 063f 5e3d
00000080: 5425 b93d 8638 54bc 6fe0 b63d 48dd 41be
00000090: 354f e03c 0728 c7bd e057 2ebe 06cd 3fbe
000000a0: a539 713d b385 00be c68f 9b3d c1b7 b23d
000000b0: fba9 2b3c 823e d63d d90e cabc 1199 7dbd
000000c0: 3235 a3bd 890f a33d 40ca fd3d 64df 9e3d
000000d0: d57f 0fbd 3945 5dbe fac1 23bd 8e62 dc3d
000000e0: 9159 8abd a591 01be 9092 b03e 17f0 8dbb
000000f0: d1f6 0b3e 3cf9 cd3d 5d42 433e eda1 483e
0.25598222 -0.10132491 0.005019762 0.005568307 0.14266947 -0.024526581 0.1659433 0.0059908815
-0.12576953 -0.05472196 0.19866222 -0.063833885 -0.07628806 0.0039447923 0.085092396 0.20029268
0.033671476 0.04966327 -0.20697157 -0.036172554 -0.14724918 -0.006371047 -0.0044359593 -0.05575692
0.07984664 0.014432744 -0.07708548 0.041088928 0.1303707 0.069130026 0.028049016 0.054259323
0.09040323 -0.012952929 0.08929526 -0.18932068 0.027381519 -0.097244315 -0.17025709 -0.18730554
0.058892865 -0.12551002 0.07595782 0.087264545 0.010477538 0.10461141 -0.024665283 -0.061913554
-0.079691306 0.079619475 0.12392092 0.07757452 -0.03503402 -0.21608438 -0.039979912 0.10760985
-0.06755365 -0.12653215 0.34486818 -0.0043315995 0.13668372 0.10057303 0.19068284 0.1959302

module.bn1.running_var f4 [64]
00000000: 2b7e dc3f d96d 703e bfd9 8b3e 0a19 dd3f
00000010: c548 253f b172 133f 31d9 563f 150c c43e
00000020: 461d e93e 2a97 743f 0ec1 9d3f 7288 e63f
00000030: 58cf 4a3f d0f5 f93e f328 f53e 1667 df3f
00000040: aa71 e63f cbc0 103f f477 893f ce37 3340
00000050: a916 fb3e 67f6 4f3f 4edb d13e 31d6 633f
00000060: a17b 1040 aa4a cc3e e6fb 8a3f d143 833f
00000070: 4cdc 4c3f 4754 3d3e 0d4c 423f 7b2e fd3f
00000080: 722e 533f f956 a63e a5de 053f 009f 9f3f
00000090: d233 693e 4d73 ca3f 4733 2c3f 1c3f 893f
000000a0: 67f0 103f 5ebf 053f 3f85 3d3f 18d9 ad3e
000000b0: ddd8 bc3f 4a7f 733f d86f 0b40 7c8e 9a3f
000000c0: aa47 0540 19fc 7c40 1936 093f 388d c13f
000000d0: 03ad 623f c939 8f3f 6e49 473f 360d ea3f
000000e0: 5b02 bc3e 7e33 223f b252 3640 f5ac 6c3f
000000f0: 8e93 f23e d8a4 3e3f da0c 5a3f 0971 823f
1.7226003 0.23479404 0.27314565 1.7273266 0.6456416 0.5759688 0.8392516 0.38290468
0.45530146 0.9554316 1.2324541 1.801039 0.7922263 0.48820353 0.47882804 1.7453334
1.8003438 0.5654418 1.0739732 2.800281 0.49040726 0.81235355 0.4098763 0.88998705
2.2575457 0.39900714 1.0858123 1.0255071 0.80023646 0.1848918 0.75897294 1.977981
0.82492745 0.3248823 0.52292854 1.2470398 0.22773674 1.5816437 0.67265743 1.0722384
0.56616825 0.5224513 0.7403144 0.33954692 1.4753681 0.951161 2.1787014 1.2074733
2.082499 3.9528868 0.5359817 1.5121222 0.88545245 1.118951 0.7784642 1.8285282
0.36720547 0.6335982 2.8487973 0.9245141 0.473782 0.7447028 0.8517586 1.0190746

module.layer1.0.conv1.weight f4 [16, 64, 3, 3]
00000000: 3fa7 2cbc 2099 21bc ce96 8b3d 0b49 6cbd
00000010: e2a4 28bc e588 bf3c 7a4a db3b d359 c13c
00000020: f090 48bd 732e b03c acb8 ea3c b5aa 983c
00000030: b22a 923c a000 ae3c a084 673c 0d61 8bbc
00000040: 721c b5bc 50b6 37bc 0eed c1ba 3f91 04bc
00000050: 1e4f adbb 8683 99bb f5ed 6ebc 139f a7bc
00000060: 4dd3 2f3c 6d37 13bc 404c 10bd 6b92 a23c
00000070: 2806 19bc 305a 76bd 32eb da3c 6e17 94bb
00000080: 42dc febd b678 e43d 0251 8f3d e7d1 afbd
00000090: 598c dcbc d03f afbc b319 29bd d8d2 1bbd
000000a0: f51d e1bb 3170 0bbd e5c4 373c 878c bf3c
000000b0: 6b7a 543c 4d0f 17be cc61 babd 4915 033c
000000c0: 9f2b 8bbd 6cfa b93c 354c 0a3e 46b9 91bd
000000d0: 2869 a23d 03ea 2b3e 940a 2fbc ebc0 ac3a
000000e0: a177 63bc 6bc1 2f3d 73fd e03c 0cbf cdbc
000000f0: d066 ec3c 3355 d13c 3525 2cbb be76 cf3b
00000100: 4338 d5bc 6828 a43c 42f6 c2bd 4b91 2ebd
00000110: 9096 dabd 0ab7 463d 8261 cd3d 8c12 063d
00000120: c584 36bd 9968 91bd 1da1 f8bc d534 88bd
00000130: dee9 61bd 842c 10bd 0a45 253b da60 fd3c
00000140: f41c f43c b84c 303d 9f8f 44bc bb7b c7bd
00000150: d696 d3bd f455 243e 0d8c c2bd 91d0 193e
00000160: 2ed5 d1be 3e92 de3d 5473 543d 0f2a 7b3d
00000170: 4466 943b 3d36 723d e684 053d ce0a a6bc
00000180: 27c9 433a 8c02 7cbd 634f 12be 5af7 c7bc
00000190: 72b1 1dbe 04f1 21bc 7a3a 09bd b27a 28bd
000001a0: 5079 b3bc 2f9a 5a3c 11d4 153c 47ca 373d
000001b0: 2d00 903a 7b9f f639 3370 71bd 29ff 3cbc
000001c0: f80a a53a 860b 70be 8822 9f3c dc68 2abc
000001d0: c8b0 1c3e 6421 f63d 8850 533d 201e 3bbd
000001e0: 2b54 693d 6711 38bc 6fbe acbd 84dd 8ebc
000001f0: 91ff 8fbd 561e 8fbd cc78 d13b 9b3c 28bb
00000200: 386c febc 2e10 123d 8399 b43c c72e c5bc
00000210: 2168 7f3c 764e 233c f862 0bbc d99c 9cbc
00000220: 438d f8bc ea0a 5ebd 1136 eabd b693 90bd
00000230: 8d15 babd 4617 0dbd fb2f fbbc 1440 ef3c
00000240: 9c5a 3dbd eafd 14be fd26 dd3a 8fcc 47bd
00000250: e84e c3bc 3cfc e13a 43b6 25bc 6793 e13c
00000260: e49f 8b3d 8be1 35bc 2eec 25bc 1088 1a3b
00000270: 86bd 96bd 202c d9bc bec4 9b3a 29c4 20bd
00000280: 11b6 903b 6f14 843c 1000 e1bc f3d0 b33b
00000290: 7184 d4bc 16bd 203c 74c7 173d 8cb7 873c
000002a0: 41fb 80bc 94f4 a23c 39cf 343c 82de a5bc
000002b0: 11ce 863d 26c2 003d 9ea0 813c b60e 863d
000002c0: 56db 83bc fe64 29bc 1fe0 02bd 256c 95bd
000002d0: f16f d93b 1574 853b 7e36 73bc c294 d73c
000002e0: d234 8f3c d1ba 48bc d437 f73b 8c1c 74bb
000002f0: 1932 84bc 1f7d bebc d8a4 36bc 912c 17bd
00000300: 2a5b b13c 5d7a 46bd 9570 a83c d391 82bc
00000310: 491a 62bd bfd2 21ba 3c71 60bd e761 1f3b
00000320: 3d9e 1ebd 2fb9 d5bc 3dd8 44bc 6900 a5bb
00000330: ffc5 72bd 9299 68bd b349 5abd 4436 363d
00000340: e623 80bd eb37 be3c ccda a23b 852b fcbc
00000350: 584b b23c 23b3 62bd 6b73 8fbd 63a7 a6bd
00000360: eeb4 aebd 34d7 f73a e82a 503d 58b4 cdbd
00000370: 5597 9f3c d4a2 eb3c 5182 a6bd 41e3 8abb
00000380: eb8e bc3d 68ff 96bb d5d9 c0bb d9f4 e63b
00000390: 95a1 1ebc 0062 68bc bb6a 12bc 6430 cc3b
000003a0: 1f15 aabb f3ae 0dbd 48f8 ecbb 230f e23c
000003b0: cdf9 273d 31d4 883b e354 893d 298b 243d
000003c0: cf8e d43c 53e1 873d e2e0 a13c 785f e93d
000003d0: c14d 063e dce0 a53c b679 d0bc 51f4 66be
000003e0: 6350 91bd 0b05 d13c 77fa 7a3e 4233 07be
000003f0: 5c0e 95bd f1e7 4a3c 7a8c ee3c 56e6 7ebd
-0.010537921 -0.009863168 0.06815873 -0.057686847 -0.010293217 0.023380706 0.006692228 0.023602402
-0.04896635 0.021506524 0.028652512 0.018636087 0.017842624 0.021240532 0.014130741 -0.01701405
-0.02210829 -0.0112129 -0.0014795379 -0.00809127 -0.0052889725 -0.0046848683 -0.014583101 -0.020461595
0.01073153 -0.0089853825 -0.035228968 0.019845208 -0.009339847 -0.060144603 0.026723478 -0.0045193946
-0.124443546 0.11155836 0.06997873 -0.085849576 -0.026922392 -0.021392733 -0.041284274 -0.038042873
-0.0068700262 -0.03404254 0.011216377 0.023382438 0.01296864 -0.1475193 -0.091006845 0.00800068
-0.067954294 0.022702418 0.13505633 -0.07115416 0.07930213 0.16788487 -0.010683674 0.0013180053
-0.013883502 0.042909067 0.027464604 -0.025115512 0.028857619 0.025553321 -0.0026267294 0.006331294
-0.026027804 0.020038798 -0.09519626 -0.04261903 -0.10673249 0.048514403 0.10028364 0.03273253
-0.044560213 -0.071000285 -0.030350262 -0.06650702 -0.055154674 -0.035198703 0.0025218152 0.030929971
0.029798962 0.043041915 -0.011997133 -0.097403966 -0.10331504 0.16048414 -0.09499369 0.15020968
-0.40982956 0.10867737 0.051867798 0.061319407 0.0045287926 0.059133757 0.032597445 -0.020268824
0.00074686337 -0.061525866 -0.14288096 -0.024409939 -0.15399721 -0.009884123 -0.033503033 -0.041132636
-0.021908432 0.013342424 0.009144799 0.04487064 0.001098638 0.000470396 -0.058944892 -0.011535444
0.001259177 -0.23441896 0.019425645 -0.010400977 0.15301812 0.120180875 0.051590472 -0.045683026
0.056965034 -0.011234618 -0.0843476 -0.017439611 -0.07031167 -0.06988208 0.006392574 -0.002567089
-0.031057462 0.03565996 0.022045856 -0.024070157 0.015588791 0.009967437 -0.008507483 -0.01911776
-0.030340796 -0.054209627 -0.114360936 -0.070594236 -0.09086142 -0.034446023 -0.030662527 0.02920536
-0.04622899 -0.14549986 0.0016872581 -0.048779067 -0.023841336 0.0017241309 -0.010114255 0.027536107
0.06817606 -0.011101137 -0.01012711 0.0023579635 -0.073603675 -0.026510298 0.0011884195 -0.039249573
0.0044162353 0.016123025 -0.02746585 0.005487555 -0.02594206 0.009810707 0.037055448 0.016567014
-0.015744807 0.019892015 0.011035734 -0.020247702 0.06582273 0.031435154 0.015823659 0.06545775
-0.016095798 -0.01033902 -0.03195202 -0.072960176 0.006635659 0.004072676 -0.014844535 0.02631605
0.017481241 -0.012251572 0.007544497 -0.003724846 -0.01613717 -0.023253022 -0.0111477 -0.036907736
0.021649916 -0.04845654 0.020561496 -0.015938675 -0.05520085 -0.0006173066 -0.05479549 0.002431983
-0.038725127 -0.026089279 -0.012014446 -0.0050354493 -0.059270855 -0.05678708 -0.05329294 0.044485345
-0.06256847 0.023220023 0.0049699303 -0.03078247 0.021764442 -0.05534662 -0.07004436 -0.08137395
-0.08530603 0.001890874 0.05082217 -0.100441635 0.01948134 0.028764166 -0.08130325 -0.0042385166
0.09206947 -0.0046080835 -0.0058853426 0.007048231 -0.009682079 -0.014183521 -0.008936579 0.0062313545
-0.005190506 -0.034590673 -0.007231746 0.027595108 0.041009713 0.004175686 0.06705644 0.040171776
0.025947003 0.06634774 0.019760553 0.11395162 0.13115598 0.020248823 -0.025448661 -0.22554137
-0.07095411 0.0255151 0.24509607 -0.13203147 -0.072781295 0.012384401 0.029119719 -0.062231384

module.layer1.0.bn1.weight f4 [16]
00000000: b300 f03e 9cee 063f dbfb 113f bea2 293f
00000010: 94c1 f13e 0e96 dd3e 3507 cd3e 788e c03e
00000020: 3994 2a3f f76c a03e 7ace 423f ba17 c63e
00000030: 1103 1b3f b956 023f ef4f bd3e 596a a43e
0.46875533 0.5270784 0.57024926 0.6626395 0.47218 0.43278545 0.4004456 0.37608695
0.6663242 0.31333134 0.7609631 0.38689977 0.60551554 0.5091358 0.36975047 0.32112387

module.layer1.0.bn1.bias f4 [16]
00000000: e293 573e 8f87 fc3d 42fc a1be c867 6d3e
00000010: 1f0a 823d 4657 b3bb b7fb b1be e6e1 21be
00000020: c573 913e b688 10bd ef9f cc3d a853 28bd
00000030: af1b d0be 39c0 50bd d372 b73d 6f2d 46bb
0.21052507 0.12330543 -0.3163777 0.2318412 0.06349587 -0.0054730503 -0.34762356 -0.1580883
0.28408638 -0.035286628 0.099914424 -0.041095406 -0.4064612 -0.050964568 0.08957448 -0.0030239483

module.layer1.0.bn1.running_mean f4 [16]
00000000: 7690 41bf da01 c4be a0f9 78bf 59ab 4abf
00000010: 4a9a 0ebf 102f 3bbf b5ee 3fbd 4f9f 6cbf
00000020: 9f68 94bf fa27 cabe e87d 75bf 417a 26bf
00000030: 498a 9cbf bab1 4abf 66a7 45bf 3f18 dfbe
-0.75611055 -0.38282663 -0.972559 -0.79167706 -0.55704176 -0.73118687 -0.04685851 -0.92430586
-1.1594428 -0.39483625 -0.9589524 -0.65030295 -1.2229701 -0.7917744 -0.77208555 -0.43573186

module.layer1.0.bn1.running_var f4 [16]
00000000: 19c9 1b3f 770c 263f 0f99 573f 7685 9c3f
00000010: b206 133f 2afc 1e3f 5530 e23e 0a75 d93e
00000020: 2852 a63f f279 4e3e 1b4c a63f a658 173f
00000030: e677 693f b292 8d3f 2f62 293f 1af7 f53e
0.60853726 0.6486277 0.84217924 1.2228229 0.5743209 0.6210352 0.441775 0.42472106
1.2993822 0.20163706 1.2991976 0.5911964 0.91198575 1.1060393 0.6616544 0.48040086

module.layer1.0.conv2.weight f4 [16, 16, 3, 3]
00000000: 46f5 b13d acfe a03d 5b33 333d 8783 783c
00000010: da7b 863d da8a d03c 60c7 c8bd a92d 89bd
00000020: 8b64 cdbd 5cc8 9e3d 9597 813a 3ce8 a6bc
00000030: 27c4 153b 5c90 de3c 8cee b5bd 95ae 0dbd
00000040: 7db8 dbbd e853 09be d0fe 843c f757 be3d
00000050: c455 293e 983b 47bd 2b07 373d c76b 1f3e
00000060: 464c 20bd 2a29 213d 7cdd 8b3d f499 b93d
00000070: 7ff9 963d 3d1e 893d e919 513d 557f be3c
00000080: 883e dbbc 25d9 4b3c 9edd cd3c 75e7 0e3d
00000090: 2891 1dbe bcf5 82bd 9ef5 86bd 627c 26bd
000000a0: 3f1a bf3c 9131 833c 2b10 973d a5ea 153d
000000b0: 27a6 d13d 4101 c4bb e9f8 ea3b 3d98 db3b
000000c0: b377 ecbb 8586 953c aa5a acbd ea9c fe3b
000000d0: 75e6 303d be4a 81bd 1e03 2e3c 0516 8e3c
000000e0: a3ff 083d ffea 343d aeb4 5d3d df89 9f3d
000000f0: 2a95 13bc 70c8 62bc ca55 83bb 5b02 743d
00000100: 5b77 1b3d 9cb7 7d3d dad1 21bd 9678 99bd
00000110: 20d2 39bb 3d5f aabd facf 58bd f77b 0bbd
00000120: df0d eabc 4540 223e 7104 583e 7fb4 11be
00000130: 2059 7cbd 7f52 9d3d 3359 87bd 9cc1 a8bc
00000140: 94cc a43d 850d f2bc 5104 7cbd 202d 45bd
00000150: 0924 b3bd 3c00 cdbd 1e2e a8bd 5ff8 5dbc
00000160: eeb3 07bd 9578 20bc 4560 e9bd 174a c2bd
00000170: 8501 373d fa3f 62be 8933 75bc 31ca 0fbd
00000180: e384 a3bd 3c3f 99bd c120 c4bc b82d f63c
00000190: 9a53 b63d 937a 72bc 2fd7 973d ebdd 013e
000001a0: 1e8c 953c 0889 9a3a a3cf 483d 9336 c3bc
000001b0: 988c 9e3d 5597 51bd 444d a0b9 1db3 893d
000001c0: f363 31bd aeea 8a3d c210 853d 1c4b fc3b
000001d0: 7fb8 673d 5f48 c53b 4783 063d 0b5f fb3d
000001e0: 2d82 0fbe 691d f9bb 9b89 183c 4ee1 91bd
000001f0: 0fe1 103d 928c f5bc 8be0 68bd ba55 bbbd
00000200: d7f1 e23c 90cc 60be 4740 a4be 13f0 81be
00000210: d357 ddbd 78a3 91be 1c4f 85be c101 d5bb
00000220: 1514 b1bb 2312 e03d 7d1a b73c 57a1 28bc
00000230: 4f5e 633d 102d ac3d 2bb3 193d 6989 753d
00000240: 3212 b2bd 1e31 5e3e 943b 78bc 7cbd be3d
00000250: f025 d13b ba9e babc 4d10 683d c83f 1cbe
00000260: 1390 53bd 4bf5 42bd 8ff0 d1bd d58d 1fbd
00000270: e72f 153e 9668 8d3e 7fcd 87be 0f89 b33d
00000280: c66e 463e bc84 6bbe a5a3 4f3b 8e78 f1bd
00000290: a9f5 33be 960e 0b3e bb03 a9bd f221 e0bd
000002a0: 1fe0 87bd 51b7 06bc 912d d2bd d629 e7bd
000002b0: e52c 4cbd 711d 2f3e da04 a2be 805a acbe
000002c0: c56c e33e a4ae 9bbe 2d85 53be 78cf 603e
000002d0: d389 7b3d 6566 43bd 9c3e 17bd 875b efbc
000002e0: e854 37bc b375 0e3c 48c6 e2bd ad98 8abd
000002f0: 1558 343e ec5d fb3c 870e c73d c290 30be
00000300: 8155 9e3d 7620 693e 018a 90be 21b5 883d
00000310: 4c81 2e3e 3d46 78bd 4238 c93c 2f0d 713c
00000320: 2716 c43b 7891 0b3c ad70 49bd 58d6 4cbc
00000330: 1588 6c3c ad44 a0bc 3407 4bbc 33d0 42bb
00000340: b80c e6bb 5c39 09bd 81b2 05be ec3a b9bc
00000350: 64e2 1dbd 3841 2fbc 54f3 e13c a81d a3bd
00000360: 9d1b d1bd f584 18bd 356d e83d 1663 fabd
00000370: d211 a5bd 1675 3a3e 8f5d 8ab9 32bb 4dbd
00000380: d9f9 0c3d 9700 04bd 99f7 93bc 0322 bfbc
00000390: 1488 7cbd 6ebe aebc 8db7 763d 692f 00bd
000003a0: fdd1 183d 9dad 313d f1ed 6b3d 4654 473e
000003b0: 27e3 dcbc b6e7 a7bc 18cf a13e 2d77 5abe
000003c0: fc48 b7bc b51a 103d a166 ddbd b38a 22be
000003d0: 54be acbd 56bc 393e 3981 4dbe a8a5 0bbe
000003e0: 37e4 b93e b852 33be 0915 b0bd 3c90 a33e
000003f0: 5b70 61be 61d7 8d3d 8334 dabd 5fbc 70be
0.0868936 0.07861075 0.04375015 0.015168077 0.065665916 0.025456835 -0.09803653 -0.06698162
-0.10028943 0.07753059 0.0009887094 -0.02037441 0.0022852512 0.027168445 -0.0888339 -0.034590323
-0.10728548 -0.13410914 0.016234785 0.09294122 0.16536623 -0.048640817 0.04468457 0.15568458
-0.03913524 0.039345898 0.06829354 0.09062567 0.07371806 0.066952206 0.0510501 0.023254076
-0.026763216 0.012441908 0.02513009 0.034888703 -0.15387404 -0.06394526 -0.065898165 -0.040645964
0.023327945 0.016014846 0.07376131 0.036600728 0.10236769 -0.005981595 0.0071707857 0.006701498
-0.0072164177 0.01825262 -0.0841573 0.0077701705 0.04318853 -0.06313084 0.01062086 0.017344484
0.03344692 0.044169422 0.054127388 0.07789969 -0.009007731 -0.013841733 -0.0040080296 0.05957256
0.037955623 0.06194268 -0.03950677 -0.07493703 -0.0028354004 -0.083189465 -0.052932717 -0.03405377
-0.028571067 0.1584483 0.21095444 -0.1422901 -0.061608434 0.076817505 -0.0660881 -0.020600133
0.08046833 -0.029547462 -0.061527554 -0.048138738 -0.087471075 -0.1000981 -0.08211921 -0.013547986
-0.03313058 -0.009794374 -0.11395315 -0.09486788 0.044679184 -0.22094718 -0.0149659 -0.035104934
-0.079843305 -0.07482764 -0.0239414 0.030051097 0.089026645 -0.014799732 0.0741409 0.12682311
0.01825529 0.0011790106 0.049026143 -0.023829734 0.0774166 -0.051169712 -0.00030575146 0.06723616
-0.04330821 0.06783043 0.06497337 0.0076993834 0.056572434 0.00602059 0.03284004 0.122739874
-0.14014502 -0.007602383 0.009310151 -0.071230516 0.035370883 -0.029974256 -0.056854766 -0.091472104
0.027703209 -0.21953034 -0.3208029 -0.25378475 -0.10807767 -0.2844503 -0.26036918 -0.006500453
-0.0054040053 0.10940959 0.022351498 -0.010292373 0.05550986 0.084070325 0.037524384 0.059945498
-0.08694877 0.21698424 -0.015150923 0.09313485 0.0063826963 -0.022780765 0.05665617 -0.15258706
-0.05165107 -0.04759721 -0.10250961 -0.03895362 0.14569055 0.27618855 -0.2652397 0.08766376
0.19378194 -0.22999853 0.0031683233 -0.11790572 -0.1757418 0.13579783 -0.08252665 -0.109439746
-0.066345446 -0.008222417 -0.10262597 -0.112872764 -0.049847502 0.17101075 -0.31644326 -0.33662796
0.44418922 -0.30406678 -0.20656271 0.21954143 0.061410736 -0.047705073 -0.036924943 -0.029218448
-0.011189677 0.008695054 -0.110729754 -0.06767402 0.17611726 0.030684434 0.09719568 -0.1724272
0.07731152 0.22766289 -0.2823029 0.066751726 0.1704151 -0.06061386 0.024562959 0.014712616
0.005984086 0.008518569 -0.04917972 -0.012502275 0.014436741 -0.019563997 -0.012391854 -0.0029726147
-0.007020559 -0.033501968 -0.13056375 -0.022611104 -0.03854598 -0.010696702 0.027581848 -0.07964641
-0.10210345 -0.037236173 0.113489546 -0.122259304 -0.080600396 0.18208727 -0.00026391118 -0.05022735
0.03441796 -0.032227125 -0.0180624 -0.023331648 -0.06165321 -0.021331038 0.06023364 -0.031295214
0.037309635 0.04337846 0.057599965 0.19465742 -0.026963783 -0.02049623 0.31603312 -0.21334524
-0.022373669 0.03518172 -0.108105905 -0.15873222 -0.0843474 0.1813825 -0.20068826 -0.13637412
0.36306927 -0.17512023 -0.08597762 0.3194598 -0.22015516 0.06925846 -0.10654547 -0.23509358

module.layer1.0.bn2.weight f4 [16]
00000000: 5ac1 713e f6a3 783f 810b 793f 9978 f23e
00000010: f7d6 903e 451b 8f3f c90d c43e ebed ae3e
00000020: 9692 d13e a6b4 5b3f 8b32 833f 921d a63e
00000030: 4e69 923e 6b69 c33e 97e6 333f 9eb7 753f
0.23608914 0.97125185 0.9728318 0.47357634 0.28289005 1.1180197 0.38291767 0.34165892
0.4093215 0.8582252 1.02498 0.32444435 0.28595966 0.38166365 0.7027373 0.959833

module.layer1.0.bn2.bias f4 [16]
00000000: da56 413e 64b8 f8bd d559 e1bd 8a89 43be
00000010: e93f 553e f7e3 3abd 56f3 973b 3a51 2f3c
00000020: 7a19 4f3e 2a39 04be 18dd 08be a680 713e
00000030: a525 26be 88dc 15be 7e18 04bd 3e1b c5bd
0.18880787 -0.12144545 -0.11003462 -0.19095436 0.20825161 -0.04562756 0.004637162 0.010700518
0.20224562 -0.12912431 -0.1336559 0.23584232 -0.16225298 -0.14634907 -0.03224992 -0.09624337

module.layer1.0.bn2.running_mean f4 [16]
00000000: 4d3b 87be 769c 83be ebb4 2dbe 1852 9fbe
00000010: cf66 f93e 84ad 9cbd 6320 01be 703e c13e
00000020: 22e9 69be 5e4f 42be a933 96be 0b98 1fbe
00000030: 1bff 833e 3606 763d 7f42 333e cda2 22be
-0.2641243 -0.25705308 -0.16963546 -0.3111732 0.4871125 -0.07650283 -0.12610011 0.3774295
-0.2284284 -0.18975589 -0.2933629 -0.15585344 0.25780568 0.060064517 0.17505835 -0.15882416

module.layer1.0.bn2.running_var f4 [16]
00000000: a3bf 1d3e 51b2 303f d452 ed3e 7487 043e
00000010: 3346 fc3d d50b 3a3f 26dc ca3d eb1e fb3d
00000020: f86a 463e d490 c83e 387b 493f c336 133e
00000030: 58e9 ac3d fadf b63d 9807 a33e 168e 553f
0.15405135 0.6902209 0.46352255 0.12942296 0.12318077 0.72674304 0.09905271 0.122617565
0.19376743 0.39172995 0.7870364 0.14376359 0.08442944 0.08929439 0.3184173 0.8341993

module.layer1.0.shortcut.0.weight f4 [16, 64, 1, 1]
00000000: a330 8cbe 0c45 fd3b 1e3d 703d bf00 98b9
00000010: 02ff 50be 5088 1abe fd49 eb3c 9417 51be
00000020: 7dd8 5bbe 60b0 a83d c8a8 e6be a318 663d
00000030: e527 98ba 5355 87be 7daa a3bd a432 29be
00000040: 5b29 343d 258b 6dbd 2f3f ed3d c203 463d
00000050: 978d 02be 8090 6aba f052 c53d 7719 bf3b
00000060: a72b e63c 43d9 543d 421a 4ebe 3d8b b2bc
00000070: 106f d8bd 56fd efbb 5a10 26bd add1 653d
00000080: 1b11 73be a548 f4bc 01fe d5be 38cd 90bb
00000090: 4a64 553d c25a 0d3e f9ca 1c3d 1ed5 433d
000000a0: 68c7 febc 1824 2b3d 1270 0ebe a528 65be
000000b0: c897 25bf 28e4 d43c a0e8 d9bc 2c7a ebbe
000000c0: 6c63 483d 21b7 6f3d b469 11bc 7319 1abe
000000d0: 46b1 f73c 541d cd3d 701d e23d e6c3 873d
000000e0: 9646 b6bd cea6 1abe 7425 c1bc 09ea 8fbc
000000f0: 91bf fcbd 5ff9 d5bd 03e8 92bd 2d72 8dbb
00000100: 222d 38bd 2a1c 643c 1fe0 023d 94af a9bd
00000110: 92cc 66bc d0db b4bd a8ea 87bd e2e4 ecbc
00000120: 0ca0 18bc b3ff 72be f302 b5bc 02a5 4d3d
00000130: ff7d 06be f8ef 9abd cb71 0fbd cc5d 9abd
00000140: cf87 fe3c 600c 41bc 2a2c 22bd d1ed 86be
00000150: 19d2 4cbd a39d 2abe d6f4 e7bd e21a 5c3d
00000160: 8d4a 07be 6fbf bf3c 1988 bebd c9ed 26bd
00000170: 56bf cebd 2162 d5bc ded4 1ebe 17a3 12bb
00000180: 2f52 67ba 5fb8 81bd 34dc ccbb 671e 41bd
00000190: d74a 00bc cf35 9ebd ffe7 043b 1898 8d3c
000001a0: 7ba3 d3bc 07c3 2a3c 5dc5 99bd ee07 2c3d
000001b0: 8bb5 9cbd 5f8d 75be 6d74 9d3c db2f 99bd
000001c0: d0ad 32bc 9641 53be 49a4 a0bc 3ffb c03c
000001d0: b4f6 e7bc 6acf caba dbd0 bebb bb64 1b3d
000001e0: 0304 feba ff41 363d 6484 c43c 3bb4 573c
000001f0: 28dd 213d 879c 2a3c 1740 f7bc c2d2 99bd
00000200: 4484 a53c ce10 663c c190 88bb ffc2 4d3c
00000210: df3f 2d3c cf33 95bc 4ed7 353c 81be a4bd
00000220: bc2c d93c 80e5 183d 143b 09bd 2dd7 edbc
00000230: 0beb 6cbc d011 40bd 9a3b ffbc d545 83bd
00000240: 1928 1dbd 3876 283c 9d6f 1c3d 3c95 04bd
00000250: 0986 6e3c a744 813b 3b2b e2bc 3245 f33c
00000260: 11ce abbd 0e82 3ebc 640b 4b3d 69ca 20be
00000270: f691 cdbc 7e8a 583c 7896 343d 5705 bbbc
00000280: d1ab 453c 7d85 bebc cd2c 68bd 4405 a5bb
00000290: 2a77 db3c 46f7 953c c93f 1b3c d2c5 d6bd
000002a0: 83c3 41bd f381 263d 6a1b 85bd c742 973c
000002b0: 36db 2cbc d320 fb3c 6ad2 e3bc 5caf 6cbb
000002c0: 21a5 5e3d bdb4 a9bd 6334 f2bc ff80 18be
000002d0: 3df8 1fbb 6a97 c7bb ad91 0e3c 963a 90bc
000002e0: 0c63 91bb e2f0 0dbd 4b37 473d 2c07 33bc
000002f0: ddd6 10bd fea2 b2bc e6e2 cdbb c4c8 a53c
00000300: 8f66 26bd 0474 0bbd 54bf 093e 3373 7e3e
00000310: 897f 45bd 1106 3ebd 9051 c7bd f87e 813e
00000320: 5b73 813d 2185 28be c017 3fbe 5e77 99bd
00000330: 7479 883c 24a3 37be b29c cebd b2a1 c53d
00000340: 784a c3bd 0355 6c3e bf3e edbd 4b55 46bd
00000350: 8384 33bc f500 bc3c 8353 d3be a133 79bd
00000360: 2ec4 d0bd 2678 2d3e 968b 1fbb 70dc abbd
00000370: 32a1 86be 5a4e 02be 1138 903d 1b3e 21be
00000380: ac0b 8dbc 73cb e23d e248 b6bc 175c 1dba
00000390: fe16 c4bd b2fb e3bc e9f9 a7bd 6672 343c
000003a0: 7197 85bd ef36 9dbd a759 06be a937 81bd
000003b0: d343 d13c 89b2 98bd 7db1 8fbc 70e8 c43d
000003c0: 3248 463d 33b3 c9bd 7949 47be 26d3 203e
000003d0: 8fa2 403e 5ea3 39be e576 3d3e ddde acbd
000003e0: 7ad9 e5bd ae11 83bd ff9a e1bc 6049 523e
000003f0: e96d 17be 23ab 2ebe b775 dbbd a1ee b5bd
-0.27380857 0.0077291783 0.058652036 -0.00028992255 -0.20409778 -0.15091062 0.028721804 -0.2041915
-0.21469302 0.08236766 -0.45050645 0.05617584 -0.0011608569 -0.26432285 -0.079915024 -0.16523224
0.043984752 -0.057994027 0.11584317 0.048343427 -0.12749325 -0.0008947924 0.0963496 0.005831893
0.028096987 0.05196501 -0.20127204 -0.02179491 -0.105680585 -0.007323901 -0.040542938 0.056108166
-0.23736994 -0.029819796 -0.41795352 -0.004418995 0.052097596 0.13804153 0.038279507 0.047810666
-0.031100944 0.04178247 -0.13909939 -0.22378786 -0.64684725 0.0259877 -0.026600182 -0.45991647
0.04892294 0.058524255 -0.008875299 -0.1504877 0.030235898 0.100153595 0.11040771 0.066291615
-0.08900182 -0.15102693 -0.02357743 -0.017567651 -0.12341226 -0.104479544 -0.07173159 -0.0043165893
-0.044964917 0.01392273 0.03195202 -0.08285442 -0.014086859 -0.088309884 -0.06636554 -0.028917734
-0.009315502 -0.23730354 -0.022096133 0.05020619 -0.13134001 -0.07565302 -0.03502063 -0.075374216
0.031070618 -0.011782736 -0.0395929 -0.26353315 -0.050005052 -0.16661696 -0.113259956 0.053736575
-0.13212033 0.023406712 -0.09303302 -0.040754113 -0.10095088 -0.026047768 -0.1551089 -0.002237504
-0.0008824197 -0.06333994 -0.006251836 -0.047148135 -0.007830343 -0.07725107 0.0020279882 0.017284438
-0.02583479 0.010422475 -0.07508347 0.04199975 -0.07651814 -0.2397971 0.019220555 -0.07479831
-0.010905698 -0.20630488 -0.019609587 0.023557303 -0.02831588 -0.0015473191 -0.0058232374 0.03793786
-0.0019379858 0.044496533 0.02398891 0.013165529 0.03951755 0.010413296 -0.030181928 -0.07510902
0.02020467 0.0140420925 -0.0041676466 0.012558698 0.01057431 -0.01821318 0.011098696 -0.08044148
0.026510589 0.037328243 -0.033503607 -0.029033268 -0.0144603355 -0.046891987 -0.03115635 -0.06409804
-0.03836832 0.010282092 0.03819238 -0.032368883 0.014558324 0.0039449516 -0.027608505 0.02969608
-0.083889134 -0.011627687 0.04957141 -0.15702213 -0.025094014 0.013216613 0.04408881 -0.022829695
0.01206489 -0.023257012 -0.05668335 -0.005036028 0.02679022 0.018306386 0.009475657 -0.1048695
-0.047305595 0.040651273 -0.064993694 0.01846446 -0.010550311 0.0306553 -0.027810294 -0.0036115265
0.054356698 -0.08286426 -0.029565996 -0.14892958 -0.0024409436 -0.006091048 0.008701724 -0.017606061
-0.004436856 -0.034653552 0.048636716 -0.010927003 -0.03536116 -0.021806236 -0.006283152 0.020237334
-0.04062515 -0.034046188 0.13451892 0.24848633 -0.04821733 -0.046392504 -0.09732354 0.25292182
0.063208304 -0.16457035 -0.18661404 -0.074934706 0.016659476 -0.17933327 -0.10088481 0.096499816
-0.09535688 0.23079304 -0.115842335 -0.048421185 -0.010956886 0.022949675 -0.41274652 -0.060840253
-0.10193668 0.16940364 -0.0024344674 -0.083916545 -0.26294857 -0.12725201 0.07041944 -0.15746348
-0.01721748 0.11073961 -0.02225155 -0.0006002797 -0.09574698 -0.027829979 -0.082019635 0.011013603
-0.06523026 -0.076764934 -0.13120137 -0.063094445 0.025545036 -0.07455928 -0.017540688 0.096146464
0.048408695 -0.09848633 -0.19461621 0.15705547 0.18812011 -0.18128726 0.18502386 -0.08440945
-0.11223121 -0.063998565 -0.027539728 0.20535803 -0.14788021 -0.17057471 -0.10715812 -0.088834055

module.layer1.0.shortcut.1.weight f4 [16]
00000000: 35af bb3e 2c4d 3f3e fab1 8a3d 1150 073f
00000010: f19b a03e d5bd 763d c1d8 ef3e 2887 0d3f
00000020: baeb ad3e 5ea8 a93e f2ce c73d d3c7 113f
00000030: 9969 1a3f cc52 e23e e5f7 b53e 922b 853d
0.3665711 0.18681782 0.067722276 0.52856547 0.31368974 0.06023963 0.46845058 0.5528436
0.33968908 0.33136266 0.097562686 0.5694553 0.6031738 0.44203794 0.3554069 0.06502451

module.layer1.0.shortcut.1.bias f4 [16]
00000000: da56 413e 64b8 f8bd d559 e1bd 8a89 43be
00000010: e93f 553e f7e3 3abd 56f3 973b 3a51 2f3c
00000020: 7a19 4f3e 2a39 04be 18dd 08be a680 713e
00000030: a525 26be 88dc 15be 7e18 04bd 3e1b c5bd
0.18880787 -0.12144545 -0.11003462 -0.19095436 0.20825161 -0.04562756 0.004637162 0.010700518
0.20224562 -0.12912431 -0.1336559 0.23584232 -0.16225298 -0.14634907 -0.03224992 -0.09624337

module.layer1.0.shortcut.1.running_mean f4 [16]
00000000: 0082 e6be 2a5a 0ebf e1f3 5bbe 2272 6fbe
00000010: 2ea7 2a3f 2672 4ebe 2440 34bf d819 463e
00000020: b696 b23c 2654 efbe efc6 82be 8b6e 83be
00000030: 0d03 7ebe 0f77 57bd f140 433e f623 fbbd
-0.45021057 -0.5560633 -0.21479751 -0.23383382 0.66661346 -0.20160732 -0.7041037 0.19345796
0.02180038 -0.46743888 -0.255424 -0.25670275 -0.24805851 -0.052603777 0.19067742 -0.122627184

module.layer1.0.shortcut.1.running_var f4 [16]
00000000: af85 193e e84f fd3d d2ea ec3c 9eb3 b93d
00000010: e74d 013e 0369 203d 2014 183e 84e3 e83d
00000020: 3a6d b13d baba e53d cb64 b63d 4a76 4c3e
00000030: c0b2 ce3d e6ce bd3d 28d1 0a3e acb8 943d
0.14992402 0.123687565 0.028920565 0.090674624 0.12627374 0.039162647 0.14851427 0.1137152
0.086634114 0.11217256 0.089059435 0.19966999 0.100926876 0.09267978 0.1355635 0.07261786

module.layer2.0.conv1.weight f4 [32, 16, 3, 3]
00000000: 32f5 203e 7f2a 1f3e 9fdc f63b d0cc 303d
00000010: c78d 4a3d 362c 99bd 50c4 55bd 2e93 1e3d
00000020: bda1 42bc 512b 033e 7345 b33d 4484 b83d
00000030: 134d 2c3e c8bf 043c 441e b13d f36d f03d
00000040: d3ad d9bc 6d3c 0abb 0333 bcbd 908b b0bd
00000050: 9403 463d c81a 89bd f83a f0bd 765e 31bd
00000060: 0283 17be 7c3b bbbd 3f73 5ebd ff45 cfbd
00000070: e728 2e3d 9c3d 823d 2401 3abe d6fe 7fbd
00000080: 9702 ddbc f13f 82bd a474 2dbd 2e92 72bd
00000090: ede6 273c 1399 8e3d 5363 7ebc 1633 78bc
000000a0: 5aa2 943c 19d2 933c 8a90 f9bb 4820 e0bb
000000b0: 1172 d23c 661d b0bd 6a3b cf3c 959e b73d
000000c0: 37df 6a3b b7da a9bb dee1 ba3c 0134 3dbd
000000d0: e428 6e3c c590 b73c b504 823d 47b7 213d
000000e0: 526a 0dbd c501 343c d5a6 b7bd 6cc8 09be
000000f0: 8062 00bc 8ce5 bbbd 1f83 08be 829b 0bbe
00000100: af93 62be 7e33 c8bd b7ca febd b8c6 52be
00000110: 30a3 c9bd 84c9 a3bd fb54 48be a0c2 c9bd
00000120: 11e3 4fbd a60e 73be 4f56 32be 662d 1cbe
00000130: 496a 92be e6d1 48be 670a d5bd 4fb6 69be
00000140: c04e 8abd 2d39 fb3d 51cd eb3c b2d0 eabb
00000150: c145 9d3d 1335 113e 4721 d2bc 19f4 a93d
00000160: f597 003d 28ea 013c 6d26 263e ca0a 3e3d
00000170: bbb5 b43c 6b8f 0a3e eb61 35bd ffc0 9cbd
00000180: b62d e83d 5a60 003c 1898 573d 810b 703d
00000190: d94b 4dbe c884 8abe d900 c7bc 87ed 93be
000001a0: 09a5 a5be 94b1 7ebd b1c2 31be f146 1cbe
000001b0: 9cfd 773d 82f0 bebd 6a5d 13be 421b 1b3d
000001c0: 283f cdbd d99a 59be 1a5e 053c 28cb f3bd
000001d0: ee8d 37be f832 123d ed81 05bd 8a9f c7bd
000001e0: 3037 963a 71ee a0bd 732c 7fbd 0b92 c6bc
000001f0: 30c3 c83d f445 303e d167 b1bc a763 12bd
00000200: 1d6b 133c 81aa 31bd e076 dbbd ebee 44bd
00000210: 77d2 743c 81f7 783d a891 853d 96a3 ca3b
00000220: 6007 b1bd 9035 7bbd 8190 a2bd 45e1 60be
00000230: 42ae 35be 40d9 2abe 3d53 78be c041 77be
00000240: 7026 97bc db0a c3bc 44c5 14bc 8fe8 7bbd
00000250: 1b4f 2dbd fbd1 e5bc 300c f93b 1bdd 0a3d
00000260: 5c44 3c3d bb9f cf3d 77ba 073e b32b 193d
00000270: 954f 3f3d dc27 9c3d 4819 90bb af0a ec3d
00000280: 9986 ec3d 4ead d13d d366 e5bd d917 14be
00000290: d248 88bd d221 e8bc e522 91bd 8035 a93c
000002a0: dc84 843d 6ac4 5c3d 6796 c63d 4cfa 8ebe
000002b0: 6c5d 77be d0be bfbd 2afd c8bd d780 b3bd
000002c0: 4a9a 283a 8cb5 6b3d 6eb3 143d 3783 e53d
000002d0: 9568 69bc bbb7 27bd ba1b 20be 0954 be3d
000002e0: c663 533d cc7a f4bc 7518 153d f953 953c
000002f0: e8cb 7ebd 18f0 abbd ec54 81be 0dab 153d
00000300: 9aba 72bd 7a86 aebd 23d3 24ba cbb5 d13d
00000310: 0743 df3d 6bb6 a63d 9911 e53d 3529 ed3d
00000320: cbce edbc 81eb b63d 1094 953d a88f cbbc
00000330: 16ac 1a3d 7280 243d 8a73 64bd 72c1 8e3c
00000340: e01f 70bd 7e6d ddbc d797 0f3d 3f47 00bd
00000350: 24bb 043d 8998 9f3d 95b2 163d 1a49 dc3d
00000360: 3ccf 0b3c 30f2 c53c 4015 c13a e475 91bd
00000370: 7fe0 dabd 4702 2bbd 84fe d2bd e336 9ebd
00000380: 141d aabd e5d0 20bd 1d2f b7bd 4cb6 69bd
00000390: c165 dbbd f5c1 6dbd d9c0 a53b 9510 743d
000003a0: 7556 f13d e7c3 473e 538b 5bbe dfd8 71be
000003b0: 86ee 04be 7b10 70be 328f 98be a630 f9bd
000003c0: 0655 c5bc 2688 34be eabf 18bc 14e7 0f3d
000003d0: 2549 c83d 316a 2b3d 033c 97bb 1dfa 933b
000003e0: 95bd dcbb 3611 fabc e56c 023c fb32 bfbd
000003f0: 3573 643d df4a e93c 61bb 29bd 040c 4e3d
0.15718535 0.15543555 0.0075336243 0.043164074 0.049451616 -0.07479136 -0.05218917 0.03871458
-0.011879382 0.12809493 0.08753481 0.09009603 0.16826276 0.008102365 0.08648351 0.11739721
-0.026572144 -0.0021093145 -0.09189417 -0.086203694 0.048343256 -0.06694561 -0.117299974 -0.043302976
-0.1479607 -0.09142205 -0.054309126 -0.101207726 0.042519476 0.06359407 -0.18164498 -0.06249889
-0.026978774 -0.06359852 -0.042347565 -0.05922144 0.010247928 0.0696279 -0.01552661 -0.015148899
0.018143822 0.018044518 -0.0076161074 -0.0068397857 0.025689157 -0.08599357 0.025296886 0.08965794
0.0035838613 -0.0051835435 0.02281278 -0.046192173 0.014536116 0.022407899 0.06348554 0.039481428
-0.034525223 0.01098675 -0.089673676 -0.13455361 -0.007835984 -0.09174642 -0.13331269 -0.1363354
-0.2212665 -0.09775446 -0.124410085 -0.20583618 -0.09845579 -0.079974204 -0.19563667 -0.09851575
-0.050753657 -0.23736057 -0.17415737 -0.15251693 -0.28596714 -0.1961132 -0.10402375 -0.22823451
-0.067533016 0.12266765 0.028784426 -0.0071659917 0.0767932 0.14180402 -0.025650633 0.08298511
0.031394918 0.007929362 0.16225596 0.046397008 0.022059312 0.13531272 -0.044282835 -0.076539986
0.11336844 0.007835472 0.052635282 0.05860472 -0.20048465 -0.2705443 -0.024292396 -0.28892156
-0.32352474 -0.06218107 -0.17359425 -0.15261437 0.060544595 -0.09323217 -0.14391103 0.037867792
-0.10021812 -0.21250476 0.008140111 -0.11903983 -0.17925236 0.03569314 -0.03259461 -0.097472265
0.0011460539 -0.07857979 -0.06229825 -0.02423956 0.09802854 0.17214185 -0.021655949 -0.035739567
0.008997706 -0.043375496 -0.10716033 -0.048079412 0.014942757 0.060782913 0.06521922 0.0061840517
-0.08643985 -0.061330378 -0.07937718 -0.21960934 -0.17742255 -0.16684437 -0.24250503 -0.24146175
-0.018450946 -0.023808887 -0.009080235 -0.061501082 -0.04231177 -0.028054228 0.00760033 0.03390227
0.04596363 0.10137888 0.13254724 0.03739519 0.046706755 0.0762479 -0.004397545 0.11525475
0.1154911 0.10238133 -0.11201253 -0.14462222 -0.06654514 -0.02833644 -0.07086734 0.020655394
0.064706534 0.053898253 0.09696656 -0.27925336 -0.24156731 -0.093625665 -0.09813912 -0.087648086
0.0006431682 0.057546183 0.03630393 0.11206668 -0.014246126 -0.040946703 -0.15635577 0.09293372
0.051608823 -0.02984371 0.036400277 0.018228518 -0.06220618 -0.083954036 -0.25260103 0.03654008
-0.05925999 -0.08521743 -0.00062875653 0.102397524 0.10901456 0.08140262 0.11184997 0.11580125
-0.02902927 0.089316376 0.07303631 -0.024848774 0.03776177 0.040161557 -0.05577425 0.017426226
-0.05862415 -0.027029749 0.035056915 -0.031317946 0.032405034 0.07792766 0.036791403 0.107561305
0.008533295 0.024163336 0.0014731064 -0.07102564 -0.106873505 -0.04175022 -0.10302451 -0.077253126
-0.083063275 -0.039261717 -0.08944533 -0.057058617 -0.107127674 -0.0580463 0.0050583896 0.059586126
0.117840685 0.19508325 -0.21439867 -0.23617886 -0.12981614 -0.23443787 -0.2979675 -0.12167482
-0.024088394 -0.17630062 -0.0093231 0.035132483 0.09779576 0.04184932 -0.0046153083 0.0045159
-0.006736467 -0.030525785 0.007960533 -0.09335896 0.055773932 0.028478084 -0.041438464 0.050304428

module.layer2.0.bn1.weight f4 [32]
00000000: 76a3 003f 7ba8 c73e fa66 103f 048a d53e
00000010: 813e eb3e 4c3d e43e 02a6 053f 64a0 9c3e
00000020: 2728 0b3f 6b23 0a3f ae95 d03e 559b e73e
00000030: d325 c23e 7167 e43e f93c 193f 90b6 1c3f
00000040: 40bb bc3e 914e 303f 2f64 253f 08f2 dd3e
00000050: e964 013f a4fe fa3e 689d ed3e 84ba e03e
00000060: d22e d93e eb72 0e3f 21e1 dd3e 5cc9 013f
00000070: 2587 2e3f 2fe5 153f 3e8d df3e 74d6 1f3f
0.5024942 0.38995728 0.5640713 0.4170686 0.45946124 0.44578016 0.5220643 0.30591118
0.5435814 0.53960294 0.40739197 0.45235696 0.37919483 0.4461017 0.5985866 0.6121607
0.3686161 0.6886988 0.64605993 0.43348718 0.505446 0.490224 0.46409154 0.438923
0.42418534 0.556441 0.43335822 0.50697875 0.68174964 0.5855283 0.43662447 0.62436604

module.layer2.0.bn1.bias f4 [32]
00000000: 07c6 23be 44f6 763e 396d 66be e5af 78be
00000010: 3322 bdba 7893 093d 894a 3fbe dc8d c8bd
00000020: 8041 0cbd 7882 6dbe b9c2 24be a866 55bd
00000030: aab0 5e3d 4454 2f3e ced3 2cbe 3acc a3bc
00000040: cc16 383e 4cd5 59bd fe0e 30be fd16 5bbd
00000050: e675 5bbe 70a6 87be 6fcb 9fbd dfed de3d
00000060: 5e2a 583d 4f98 a9be 4f1d c6bd 5853 d6bc
00000070: be9d ce3b 5f26 7dbe b244 6b3b 57a5 87be
-0.1599351 0.2411738 -0.22502603 -0.24285848 -0.0014429748 0.033587903 -0.18680777 -0.097926825
-0.034242153 -0.23194301 -0.16089906 -0.052099854 0.0543677 0.17121989 -0.16877672 -0.019994844
0.17977446 -0.05318193 -0.17193219 -0.05348872 -0.21431693 -0.2649417 -0.07802474 0.10885214
0.05277478 -0.33124015 -0.09673559 -0.026162788 0.0063054254 -0.24721669 0.00358991 -0.26493332

module.layer2.0.bn1.running_mean f4 [32]
00000000: d1d1 07c0 489b 62bf b887 82bf 3fa4 aa3e
00000010: 17ea e4be 4d89 53bf 3423 003d 2ac4 d73d
00000020: 58fb fe3e 5f64 1cbf 783a 04bd 5948 0ec0
00000030: a1f8 ed3e 78cc 6fbf 7726 1dbf 3c3a c8bf
00000040: 8f6b dfbe 61d5 71bf b2c8 33bf 7980 58bf
00000050: 40e3 57bf 8060 10c0 c104 1a3f c925 cfbf
00000060: 15f8 61be bd02 23bf 1516 4e3f 5ea0 82bf
00000070: 3fca d5bf cac0 79be 04fc 0bbf 4af0 42bf
-2.1221812 -0.8851819 -1.0197668 0.33328435 -0.44709846 -0.8263138 0.031283572 0.10535462
0.49801135 -0.61090654 -0.032282323 -2.2231658 0.4647875 -0.9367137 -0.6138682 -1.5642772
-0.43636748 -0.94466215 -0.7022811 -0.84571034 -0.8433113 -2.25589 0.60163504 -1.6183406
-0.22067292 -0.63676053 0.80502445 -1.020519 -1.6702346 -0.2438995 -0.5468142 -0.761479

module.layer2.0.bn1.running_var f4 [32]
00000000: 7af9 103f 4dee 453f da28 3d3f 564c f53e
00000010: b424 ea3e a894 1f3f c7a3 633f 2c66 b43e
00000020: bcfd 303f 74e0 1a3f 4347 d13e f4d2 103f
00000030: 6dd7 163f 3942 853f dd13 eb3e 9fe3 743f
00000040: afdc d33e 3dfb 7d3f 9935 8f3f 348e eb3e
00000050: 709e 103f 39ae 453f 5411 3e3f b36d 483f
00000060: 4039 493f f709 c23e cde6 343f 584f 613f
00000070: d4b6 dc3f 78f5 153f ecb2 193f 9d6d 1f3f
0.5663067 0.77316743 0.7389046 0.47909802 0.45731127 0.62336206 0.8892178 0.352342
0.6913717 0.6049874 0.4087468 0.5657189 0.58922464 1.0410835 0.45913592 0.9565982
0.41379306 0.99211484 1.1188232 0.4600693 0.56491756 0.7721897 0.7424519 0.7829239
0.7860298 0.37898228 0.70664674 0.88011694 1.7243295 0.5857768 0.6003864 0.6227663
