results/Mb3W/cifar10/ikd/resnet8_best.pth.tar (torch_old, 371448 bytes, 52 tensors)

module.conv1.weight f4 [64, 3, 3, 3]
0.010099555 0.007862646 0.007965204 0.022925634 0.014852931 0.015015981 0.024683755 0.013450785
0.009963076 0.017942533 0.017734842 0.013586822 0.018413179 0.0065121646 0.008459631 0.0062180026
-0.010324113 -0.009279189 0.010526833 0.009652933 -0.002227163 0.011345501 0.0015910703 0.001164167
0.00052284496 -0.011400581 -0.011137673 0.29325774 -0.024650948 -0.046452098 -0.7629656 0.35476264
0.19596094 0.024590766 -0.03882215 -0.06362799 0.09566299 -0.025237277 -0.20419607 -0.6839496
0.6014043 0.12125782 0.20410854 0.057623908 -0.25417507 0.2265 -0.19368379 -0.060090475
-0.24899088 0.37117913 0.053471733 0.13723451 0.11347044 -0.32137835 -0.018923867 -0.17821087
-0.18871117 0.15612558 0.030890202 0.026672678 0.2176567 0.12965679 0.05474658 -0.043368045
-0.15631351 -0.1411425 0.086402364 -0.05848781 -0.052917283 0.14195922 -0.0006470632 -0.06438334
0.011364598 -0.093264595 -0.058171317 0.11070655 -0.03684781 -0.033118036 0.14008375 0.004222936
-0.045176484 0.08105333 0.08808409 0.09574562 0.058169752 0.10720034 0.112857394 -0.066585444
-0.025527813 0.017331608 0.025497321 0.06884351 0.0987358 -0.0022169047 0.055106442 0.070901476
-0.0806659 -0.05768551 -0.027192805 -0.028983286 -0.025751304 -0.030040678 -0.043838527 -0.023846967
-0.032911018 -0.10207414 -0.1024555 -0.079683915 0.09480928 -0.12285059 0.062020574 -0.1521763
-0.34238482 -0.11594327 0.15308103 -0.10197934 0.11760267 0.22070335 -0.049638797 0.15448886
0.020000787 -0.18053831 0.07879537 0.2337914 -0.0441611 0.223914 0.106316306 -0.15277538
0.09232046 -0.23229913 -0.44352865 -0.14551175 0.038369782 -0.25158125 0.043768704 0.17336497
-0.067478664 0.15336141 -0.063755006 -0.36986047 -0.0009075905 0.2526162 -0.02351263 0.22745696
0.041197617 -0.17778908 0.05891949 -0.14269032 -0.37706503 -0.09427985 0.124626055 -0.031576555
0.06376768 0.025173089 -0.081546456 0.010667456 -0.20448096 -0.33721688 -0.19736606 0.012691488
-0.04987902 -0.07437659 -0.031805918 -0.0063705565 -0.03753535 -0.021455824 -0.018400067 -0.04357483
-0.043762524 -0.05318003 -0.054944623 -0.080368735 -0.062308542 -0.030431388 -0.047481388 -0.03511487
-0.0037436616 -0.016830215 -0.009337687 0.014034129 -0.026390707 -0.04307661 -0.06607714 0.00085054786
-0.033917025 -0.062116332 0.033357583 0.0023936003 -0.039440457 -0.13176653 -0.13019428 -0.13845709
0.07738812 0.1407108 0.07380099 -0.0057703666 -0.0373709 -0.06660118 -0.19005924 -0.13732332
-0.21964012 0.11989256 0.23838337 0.07724424 0.04241067 0.052039918 -0.032319523 -0.17492917
-0.09384447 -0.13821274 0.18249764 0.31258234 0.18288384 0.03400435 -0.008944166 -0.059300326
-0.14897776 -0.22511977 -0.10336695 0.0944064 0.013125078 0.09826021 0.11735222 0.08367502
0.0549782 -0.13937654 -0.16029537 -0.121379144 0.15404318 0.13479035 0.106739424 0.19553004
0.1892883 0.10793687 -0.28062707 -0.3000923 -0.1794482 0.014879984 -0.032024 0.010632364
0.18877015 0.11491534 0.076506376 0.052907493 -0.026944527 -0.06508704 0.13907006 -0.017475525
-0.14012009 0.10148499 0.028032187 -0.07957653 0.10619522 -0.0884807 -0.17020433 0.23580286
00000000: 9b78 253c 54d2 003c 7d80 023c 8ace bb3c
00000010: b559 733c 9705 763c 9635 ca3c ae60 5c3c
00000020: 2b3c 233c 38fc 923c a948 913c 439b 5e3c
00000030: 3cd7 963c ff63 d53b 449a 0a3c 63c0 cb3b
00000040: 7826 29bc bd07 18bc bd78 2c3c 5627 1e3c
00000050: 98f5 11bb 7be2 393c 768b d03a f696 983a
00000060: 880f 093a 81c9 3abc c97a 36bc e125 963e
00000070: c9f0 c9bc 8e44 3ebd b751 43bf 73a3 b53e
00000080: fca9 483e 9372 c93c fa03 1fbd 644f 82bd
00000090: f5ea c33d 68be cebc c618 51be 5217 2fbf
000000a0: a2f5 193f 0556 f83d d401 513e 0c07 6c3d
000000b0: 3c23 82be 9eef 673e 0b55 46be 6e21 76bd
000000c0: 77f7 7ebe 310b be3e 2d05 5b3d 3487 0c3e
000000d0: 3163 e83d b48b a4be 3a06 9bbc e97c 36be
000000e0: 803d 41be 62df 1f3e 730d fd3c a980 da3c
000000f0: 66e1 5e3e c0c4 043e f33d 603d b1a2 31bd
00000100: a610 20be a987 10be b9f3 b03d ea90 6fbd
00000110: cbbf 58bd c25d 113e ad9f 29ba 6adb 83bd
00000120: 9432 3a3c 8201 bfbd 0c45 6ebd 1eba e23d
00000130: bbed 16bd c7a6 07bd 1d72 0f3e 8e60 8a3b
00000140: fa0a 39bd 4aff a53d 6e65 b43d 4816 c43d
00000150: 6843 6e3d da8b db3d c721 e73d f35d 88bd
00000160: b41f d1bc 04fb 8d3c c2df d03c d3fd 8c3d
00000170: ff35 ca3d 7d49 11bb 4bb7 613d cb34 913d
00000180: 2a34 a5bd a447 6cbd 72c3 debc 5b6e edbc
00000190: 66f4 d2bc de17 f6bc 0790 33bd b75a c3bc
000001a0: b4cd 06bd 3f0c d1bd 30d4 d1bd 5231 a3bd
000001b0: 5e2b c23d 1799 fbbd 4909 7e3d 1bd4 1bbe
000001c0: 104d afbe aa73 edbd 46c1 1c3e 8bda d0bd
000001d0: abd9 f03d 0f00 623e 0d52 4bbd 5432 1e3e
000001e0: b1d8 a33c 09df 38be 785f a13d 0367 6f3e
000001f0: 45e2 34bd b649 653e 5dbc d93d 2671 1cbe
00000200: 8212 bd3d d3df 6dbe 3016 e3be 0801 15be
00000210: a229 1d3d 42cf 80be d046 333d 9686 313e
00000220: 4132 8abd c60a 1d3e fc91 82bd 5a5e bdbe
00000230: 5eeb 6dba e956 813e 8f9d c0bc 7aea 683e
00000240: d5be 283d 570e 36be 9055 713d 691d 12be
00000250: ab0e c1be cb15 c1bd f23b ff3d 6b56 01bd
00000260: a198 823d cb37 ce3c d401 a7bd 8ec6 2e3c
00000270: 7563 51be b1a7 acbe 541a 4abe f5ef 4f3c
00000280: f14d 4cbd c152 98bd ec46 02bd 1ac0 d0bb
00000290: abbe 19bd 20c4 afbc bdbb 96bc 857b 32bd
000002a0: 5540 33bd 4ed3 59bd 9d0d 61bd 5d98 a4bd
000002b0: 3e37 7fbd 3f4b f9bc d87b 42bd 9cd4 0fbd
000002c0: 3858 75bb 85df 89bc 19fd 18bc 67ef 653c
000002d0: 5331 d8bc 1971 30bd 7453 87bd 4df7 5e3a
000002e0: 94ec 0abd b26d 7ebd f6a1 083d f3dd 1c3b
000002f0: 518c 21bd ceed 06be a651 05be b2c7 0dbe
00000300: aa7d 9e3d 7e16 103e f924 973d 5815 bdbb
00000310: 3b12 19bd 3366 88bd e49e 42be 7c9e 0cbe
00000320: 57e9 60be 3b8a f53d c51a 743e 3a32 9e3d
00000330: d0b6 2d3d cf27 553d 7a61 04bd a220 33be
00000340: 8831 c0bd a487 0dbe a9e0 3a3e cb0a a03e
00000350: e745 3b3e 2548 0b3d 8d8a 12bc e6e4 72bd
00000360: a08d 18be cc85 66be 0db2 d3bd 2558 c13d
00000370: 910a 573c a63c c93d 5c56 f03d cf5d ab3d
00000380: d230 613d b9b8 0ebe 7824 24be a195 f8bd
00000390: 7fbd 1d3e 7b06 0a3e 339a da3d 0739 483e
000003a0: cbd4 413e 010e dd3d 5aae 8fbe b3a5 99be
000003b0: 45c1 37be 2dcb 733c 992b 03bd 5e33 2e3c
000003c0: f64c 413e bc58 eb3d 60af 9c3d 87b5 583d
000003d0: c5ba dcbc 5b4c 85bd 6268 0e3e d528 8fbc
000003e0: a47b 0fbe 5dd7 cf3d c2a3 e53c 05f9 a2bd
000003f0: e17c d93d 5f35 b5bd 0b4a 2ebe 4e76 713e

module.bn1.weight f4 [64]
0.09253979 0.45208618 0.24089073 0.30128992 0.66805184 0.8685635 0.12721275 0.5718186
0.24741288 0.18765277 0.01895599 0.331404 0.15126532 0.0015333646 0.23786712 0.43770126
0.22784947 0.14832072 0.24306041 0.23982404 0.2546857 0.320443 0.4110386 0.19630216
4.152002e-06 0.055074804 0.29153198 0.38978904 2.6270334e-07 0.2520113 0.41645333 0.2634436
0.20065826 0.20911187 0.3358579 1.1167854e-06 0.07839222 0.23603141 0.2578366 0.3789338
0.4996941 0.07946266 0.31508353 0.19290252 0.25547943 0.18588683 0.2784505 0.226782
0.2206321 0.23203033 0.1542525 0.6704197 0.40121025 3.5605797e-07 0.008040852 0.27549428
0.6449609 0.291142 0.38390455 0.2839195 0.06441023 0.20737918 0.33534843 0.15440235
00000000: 8085 bd3d d777 e73e 0fac 763e ac42 9a3e
00000010: 7205 2b3f 2d5a 5e3f 0f44 023e b462 123f
00000020: cd59 7d3e 0c28 403e 9849 9b3c c9ad a93e
00000030: 4ce5 1a3e 2efb c83a 7093 733e 611a e03e
00000040: 5f51 693e 63e1 173e d4e4 783e 6f94 753e
00000050: 2a66 823e 1b11 a43e a773 d23e 6f03 493e
00000060: 6d51 8b36 1e96 613d ae43 953e 6e92 c73e
00000070: ac09 8d34 a007 813e 5f39 d53e 14e2 863e
00000080: 5c79 4d3e 6c21 563e 91f5 ab3e 74e4 9535
00000090: 1a8c a03d 38b2 713e 2903 843e 9c03 c23e
000000a0: e8d7 ff3e 52bd a23d a152 a13e 3d88 453e
000000b0: 33ce 823e 1e59 3e3e 1091 8e3e 8a39 683e
000000c0: 62ed 613e 5c99 6d3e 5ef4 1d3e a0a0 2b3f
000000d0: 6e6b cd3e 3c28 bf34 c7bd 033c 960d 8d3e
000000e0: 281c 253f 9010 953e 238f c43e e65d 913e
000000f0: 83e9 833d 355b 543e cab2 ab3e a61b 1e3e

module.bn1.bias f4 [64]
-0.10131489 0.30087313 -0.012454635 -0.37829977 -0.5226909 -0.63140017 0.087329485 -0.31126988
0.16477266 0.21984653 -0.015759524 0.17814377 -0.10737374 -0.0065950532 0.21243927 0.4964634
-0.14795665 -0.16949126 -0.20104043 -0.1746748 -0.22759451 0.18997853 -0.08262684 0.10927622
-3.3541623e-05 -0.044989593 -0.21158606 -0.19832754 -5.422969e-07 -0.12982671 0.3042025 0.13530995
0.080770075 0.08794262 0.29800835 -3.3712079e-06 -0.09287218 0.031262763 0.068193 -0.22852957
-0.12299289 -0.09356615 0.124669395 0.06325411 0.31904542 0.04751256 -0.15316051 -0.2602617
-0.16516088 0.12686816 0.025702639 0.37864962 0.17935547 -1.1334337e-06 -0.028229816 0.2266619
-0.47673166 -0.034808856 -0.029587256 0.16335264 -0.05447345 -0.17654595 0.013133536 -0.18322612
00000000: 2e7e cfbd 0b0c 9a3e 870e 4cbc 82b0 c1be
00000010: 12cf 05bf 71a3 21bf cdd9 b23d c45e 9fbe
00000020: 2aba 283e 731f 613e 1e1a 81bc 526b 363e
00000030: c3e6 dbbd 511b d8bb ae89 593e 7330 fe3e
00000040: f381 17be 1e8f 2dbe 8bdd 4dbe f3dd 32be
00000050: 890e 69be bb89 423e 4338 a9bd 36cc df3d
00000060: 0baf 0cb8 0247 38bd 04aa 58be 6016 4bbe
00000070: 5c92 11b5 4bf1 04be 6ec0 9b3e b18e 0a3e
00000080: c86a a53d 431b b43d 8d94 983e e93c 62b6
00000090: c533 bebd 620d 003d c6a8 8b3d a803 6abe
000000a0: b2e3 fbbd 9c9f bfbd ab52 ff3d 5f8b 813d
000000b0: ec59 a33e 889c 423d 1cd6 1cbe 0641 85be
000000c0: ef1f 29be bae9 013e 578e d23c 5dde c13e
000000d0: f6a8 373e 7c20 98b5 3742 e7bc 0f1a 683e
000000e0: 2c16 f4be bb93 0ebd f960 f2bc ea45 273e
000000f0: 8d1f 5fbd 76c8 34be 0b2e 573c a19f 3bbe

module.bn1.running_mean f4 [64]
-0.06048191 -0.019953687 0.023122583 -0.057706475 0.26606104 0.4151496 0.23716135 -0.05233079
-0.04888981 0.00423302 0.010397668 -0.050315116 -0.02283688 -0.0051428378 -0.06085884 0.03503331
0.06662452 -0.09202511 -0.10115219 0.11267765 -0.067270964 -0.0033160844 0.24884565 0.06612819
-9.772906e-05 0.024085147 0.09286958 0.030311815 1.1460958e-06 0.012629108 -0.07511566 -0.030097658
0.023944838 0.02355726 -0.029499238 6.0055704e-06 -0.052462786 -0.028211696 0.056912664 -0.1826291
0.110833265 -0.0485066 -0.08816367 0.03031715 -0.0029988538 0.030439362 0.0068685715 -0.13975471
-0.036709495 0.056819633 0.0058218166 -0.10505024 -0.015903179 1.2479603e-06 0.053835563 0.029926976
0.2624459 -0.21817632 0.31781873 -0.109923854 0.038150523 -0.052605778 0.017741913 -0.08172764
00000000: e1bb 77bd ea75 a3bc 926b bd3c a05d 6cbd
00000010: 2739 883e 7d8e d43e 6dda 723e cf58 56bd
00000020: ae40 48bd 25b5 8a3b fb5a 2a3c 3917 4ebd
00000030: 6914 bbbc 4085 a8bb 1e47 79bd 177f 0f3d
00000040: 7072 883d a977 bcbd e128 cfbd 8ac3 e63d
00000050: 5cc5 89bd aa52 59bb 65d1 7e3e 376e 873d
00000060: e4f3 ccb8 374e c53c 6832 be3d 7c50 f83c
00000070: 8dd3 9935 51ea 4e3c 3dd6 99bd 5d8f f6bc
00000080: f727 c43c 28fb c03c 63a8 f1bc 7583 c936
00000090: 38e3 56bd 371c e7bc 411d 693d 1f03 3bbe
000000a0: 8dfc e23d dbae 46bd 278f b4bd ac5b f83c
000000b0: 6b88 44bb f85b f93c c111 e13b dc1b 0fbe
000000c0: b25c 16bd b4bb 683d f0c4 be3b 9524 d7bd
000000d0: 6247 82bc 977f a735 ae82 5c3d 6b29 f53c
000000e0: 4f5f 863e 9d69 5fbe 23b9 a23e c21f e1bd
000000f0: b943 1c3d 2879 57bd 7d57 913c d260 a7bd

module.bn1.running_var f4 [64]
0.061840538 0.5373861 0.89234555 0.39233 1.920649 3.3532088 0.90107423 0.90589046
1.9649177 1.6724781 0.0017095706 0.61107403 0.06796062 0.00077051955 0.5564168 0.52292794
0.26373518 0.12883073 0.27054796 0.19200641 0.25305933 4.4833493 1.4648913 0.5177546
2.2741479e-07 0.015234721 0.2945411 0.7339568 3.0177628e-11 0.04643007 0.7640917 1.4268608
1.422457 1.5904095 0.3386063 6.0629357e-10 0.052462768 1.2215023 0.40869617 0.6095947
1.9226388 0.03825217 1.468117 0.17789601 0.32300958 1.1258911 0.29964694 0.2973662
0.10067489 0.6164681 0.3199222 1.8164452 5.8482437 2.9045356e-11 0.047088366 0.32503223
1.4621152 0.9204371 1.8345249 0.7776768 0.024260465 0.12186142 1.7580117 0.18160352
00000000: 814c 7d3d 2392 093f c270 643f 7adf c83e
00000010: d4d7 f53f f99a 5640 cdac 663f 70e8 673f
00000020: 6c82 fb3f c313 d63f ac13 e03a 596f 1c3f
00000030: f02e 8b3d b1fc 493a 5571 0e3f 9bde 053f
00000040: 4c08 873e 34ec 033e 4385 8a3e 549d 443e
00000050: fe90 813e 9977 8f40 8f81 bb3f 918b 043f
00000060: 4d2f 7434 0d9b 793c 17ce 963e 98e4 3b3f
00000070: fdb8 042e 752d 3e3d 839b 433f 60a3 b63f
00000080: 1213 b63f 8a92 cb3f ce5d ad3e 1ea8 2630
00000090: 33e3 563d 305a 9c3f a040 d13e 660e 1c3f
000000a0: 0719 f63f 4fae 1c3d 42eb bb3f 5f2a 363e
000000b0: 8361 a53e 331d 903f 536b 993e 6240 983e
000000c0: a32e ce3d dad0 1d3f d8cc a33e 4781 e83f
000000d0: d024 bb40 547c ff2d bbdf 403d a06a a63e
000000e0: 9726 bb3f c4a1 6b3f b6d1 ea3f d415 473f
000000f0: e2bd c63c 7b92 f93d 8706 e13f 46f6 393e

module.layer1.0.conv1.weight f4 [16, 64, 3, 3]
0.008351321 -0.0010576694 -0.014929206 0.010748092 0.008550602 0.0056727184 0.008636781 0.019150598
0.02405801 -0.15271299 -0.19824806 -0.0032887033 0.09317525 0.14654246 0.21799916 -0.19615734
-0.13665253 -0.045932665 -0.069993116 -0.007613273 -0.018337041 -0.054058757 -0.07561403 -0.067248136
0.052285194 -0.05089313 -0.096311994 0.0083550215 -0.010324249 -0.032439016 -0.031114735 -0.06064758
-0.01965497 -0.010939259 0.0137513345 0.025939558 -0.12263887 -0.13746673 -0.033452258 0.031980637
-0.13839771 -0.062718675 0.072023615 -0.06978033 -0.0026207308 -0.15533571 -0.10560949 -0.02505118
0.17028047 -0.035934053 -0.19393504 0.17743483 0.021202987 -0.08237211 0.026181165 -0.023767361
-0.05631653 0.082376525 0.009104633 -0.054832585 0.0896935 0.033208124 -0.036450803 0.018834777
0.10007631 0.13075799 0.017287808 0.0011065198 0.090818994 -0.06768393 -0.16756372 -0.08338647
-0.1342644 0.001476762 0.13658795 -0.087149605 -0.11366906 0.036054406 0.074540585 -0.14086539
-0.1654016 -0.12581336 -0.06837657 0.011826623 -0.13661441 -0.17238852 -0.10602617 0.023997925
-0.10658395 -0.18117577 -0.001608165 5.5957888e-05 0.0001523413 -0.0006635678 -0.00045688017 -0.0012259856
-0.0008346126 -0.0015510132 -0.0022777324 -0.105688855 -0.023908729 0.049759164 0.013412183 -0.0053146747
0.00079211843 -0.018261448 0.0021061113 -0.025773987 -0.02529026 -0.01003397 -0.002971408 -0.017630765
-0.007070521 0.0004955904 -0.010254438 -0.008574825 -0.0076457234 -0.00017640245 0.00039493872 0.0018661453
0.00034171197 -0.00036982007 7.5947784e-05 0.002013775 0.0005759755 -0.0005758134 0.057239383 0.019538648
0.038578905 -0.059272557 0.0051946994 0.08922148 -0.124507315 -0.055235192 -0.023268063 -0.05886206
0.04361635 0.034595694 0.15663159 -0.15195674 -0.08036045 0.09600446 -0.0467186 -0.10044428
0.058793113 0.003413711 -0.04243057 0.028140722 0.0047039185 -0.016300628 0.006668668 0.022151547
0.024939809 0.020177113 0.008686256 -0.0070765587 0.018530708 0.025833957 0.02403026 0.0132237915
0.031113036 0.04053755 -0.00483972 -0.022466615 -0.037043545 0.023862353 0.0076326993 -0.009065033
0.03799244 0.056025565 0.041460715 -0.0056329384 -0.008604324 0.01809832 0.04494626 0.00089155213
-0.029025475 0.045429938 0.016877534 -0.018654374 -0.022142181 -0.04663407 -0.040022906 -0.04737878
-0.04496848 -0.0043248776 -0.010723327 0.009407445 0.016048925 0.18868627 -0.013760847 -0.17494164
0.036798604 -0.050240025 -0.041826196 0.0068250424 0.094193675 0.117977 -0.057983983 -0.03965524
-0.012577328 0.07849782 -0.037116725 -0.07806975 0.12541704 -0.005714096 -0.078232646 -0.016591994
-0.033724707 -0.012543242 0.012518478 0.011598967 -0.008108627 -0.013776145 0.030356497 0.04259293
3.1547075e-05 -5.2310656e-06 -2.8571929e-05 4.3604905e-05 7.673646e-06 -2.776421e-05 1.6542817e-05 -5.6686413e-06
-2.3836008e-05 0.0051754797 -4.540196e-05 -0.007207588 0.0022771358 -0.000295647 -0.0029907103 -0.0023644108
0.0010376457 0.0026216754 -0.0072038374 -0.012509748 0.022362705 -0.02755305 0.012742227 0.04926785
-0.024921555 -0.0025617827 0.038370162 0.003411812 -0.0048354934 -0.0006364352 -0.046625752 -0.04253174
0.021309236 -0.061728533 -0.0034309921 0.083916835 3.416996e-08 -1.5203811e-07 -2.0313713e-07 -1.6374457e-07
00000000: fbd3 083c 7fa1 8aba a199 74bc c418 303c
00000010: d317 0c3c 36e2 b93b 4981 0d3c b7e1 9c3c
00000020: 4e15 c53c cb60 1cbe 8a01 4bbe 4987 57bb
00000030: aad2 be3d 3a0f 163e 2c3b 5f3e 78dd 48be
00000040: a4ee 0bbe e423 3cbd 8d58 8fbd c378 f9bb
00000050: 9037 96bc b76c 5dbd 87db 9abd 64b9 89bd
00000060: 0029 563d 5175 50bd 393f c5bd 80e3 083c
00000070: 0a27 29bc c6de 04bd 54e4 febc 9969 78bd
00000080: 7603 a1bc 943a 33bc 474d 613c 327f d43c
00000090: 162a fbbd 14c4 0cbe 3c05 09bd 21fe 023d
000000a0: 21b8 0dbe a672 80bd 1e81 933d fde8 8ebd
000000b0: 91c0 2bbb 5310 1fbe ca49 d8bd 2238 cdbc
000000c0: 015e 2e3e 962f 13bd e896 46be 7ab1 353e
000000d0: e3b1 ad3c b5b2 a8bd e279 d63c c5b3 c2bc
000000e0: 29ac 66bd 06b5 a83d 992b 153c 2298 60bd
000000f0: 3ab1 b73d 3e05 083d 704d 15bd 644b 9a3c
00000100: cff4 cc3d 6ce5 053e 299f 8d3c a508 913a
00000110: 4fff b93d df9d 8abd d395 2bbe 87c6 aabd
00000120: 9b7c 09be e98f c13a b6dd 0b3e 7e7b b2bd
00000130: 53cb e8bd c9ad 133d bca8 983d 043f 10be
00000140: 095f 29be 38d5 00be 0409 8cbd 74c4 413c
00000150: a6e4 0bbe 9e86 30be 4024 d9bd 4c97 c43c
00000160: b048 dabd 2486 39be 10c9 d2ba 53b4 6a38
00000170: cebd 1f39 48f3 2dba 6b89 efb9 40b1 a0ba
00000180: e7c9 5aba 5e4b cbba 0246 15bb 6673 d8bd
00000190: 3ddc c3bc 44d0 4b3d c6be 5b3c b926 aebb
000001a0: 2ba6 4f3a 0899 95bc af06 0a3b f823 d3bc
000001b0: 852d cfbc 8565 24bc f4bb 42bb 656e 90bc
000001c0: d4af e7bb 82ea 013a 3b02 28bc 6c7d 0cbc
000001d0: fa88 fabb acf8 38b9 c70f cf39 7299 f43a
000001e0: ce27 b339 69e4 c1b9 2846 9f38 8af9 033b
000001f0: 10fd 163a 2ff2 16ba d873 6a3d 840f a03c
00000200: ea04 1e3d c8c7 72bd 4c38 aa3b c0b9 b63d
00000210: b1fd febd 4c3e 62bd aa9c bebc 5819 71bd
00000220: 0fa7 323d 37b4 0d3d 0864 203e 8c9a 1bbe
00000230: 0594 a4bd fc9d c43d 015c 3fbd bbb5 cdbd
00000240: 0cd1 703d 91b8 5f3b adcb 2dbd 5f87 e63c
00000250: 5423 9a3b e588 85bc d784 da3b 2977 b53c
00000260: 924e cc3c 794a a53c cc50 0e3c 7ae2 e7bb
00000270: b6cd 973c bca1 d33c 1cdb c43c 9aa8 583c
00000280: c4e0 fe3c b40a 263d 8496 9ebb e80b b8bc
00000290: f9ba 17bd fb7a c33c b91b fa3b 8185 14bc
000002a0: f69d 1b3d 107b 653d b6d2 293d 8394 b8bb
000002b0: 27f9 0cbc ee42 943c 9219 383d 0db7 693a
000002c0: d5c6 edbc be14 3a3d c142 8a3c 0fd1 98bc
000002d0: 8563 b5bc 5e03 3fbd 0fef 23bd 4010 42bd
000002e0: de30 38bd b4b7 8dbb e5b0 2fbc af21 1a3c
000002f0: 0979 833c f936 413e 2d75 61bc e723 33be
00000300: 22ba 163d 7cc8 4dbd f251 2bbd 9ba4 df3b
00000310: 9de8 c03d ed9d f13d 9d80 6dbd 886d 22bd
00000320: 2311 4ebc 77c3 a03d b507 18bd 08e3 9fbd
00000330: 536d 003e 503d bbbb 7038 a0bd efeb 87bc
00000340: eb22 0abd 2c82 4dbc 4d1a 4d3c 9809 3e3c
00000350: 0cda 04bc 57b5 61bc 30ae f83c ed75 2e3d
00000360: 6a51 0438 8386 afb6 c0ad efb7 69e4 3638
00000370: 0fbe 0037 30e7 e8b7 6ec5 8a37 4235 beb6
00000380: 70f3 c7b7 1297 a93b fc6d 3eb8 a12d ecbb
00000390: 003c 153b 1201 9bb9 cbff 43bb 3bf4 1abb
000003a0: 9d01 883a 6ad0 2b3b 2b0e ecbb b0f5 4cbc
000003b0: fe31 b73c efb6 e1bc c6c4 503c 16cd 493d
000003c0: 4a28 ccbc 95e3 27bb 082a 1d3d b598 5f3b
000003d0: 0f73 9ebb 71d6 26ba a5fa 3ebd c335 2ebd
000003e0: b590 ae3c 0fd7 7cbd 7fda 60bb 97dc ab3d
000003f0: 45c2 1233 eb3f 23b4 e91d 5ab4 c4d1 2fb4

module.layer1.0.bn1.weight f4 [16]
0.5162585 0.53131557 0.5399127 0.5069864 0.70650953 0.77277607 0.6735737 0.69478536
0.42651552 0.51172704 0.3153785 3.3435295e-08 0.5090143 0.5047248 0.7626368 0.60056436
00000000: 8429 043f 4c04 083f b837 0a3f dcc9 013f
00000010: cfdd 343f a7d4 453f 536f 2c3f 74dd 313f
00000020: 3e60 da3e 8b00 033f 4a79 a13e 7f9a 0f33
00000030: c34e 023f a535 013f 2a3c 433f 96be 193f

module.layer1.0.bn1.bias f4 [16]
0.13128129 -0.22774939 -0.24338081 -0.0925216 0.27290502 -0.07575303 0.29771262 -0.44873434
-0.1823176 -0.28404626 0.33331865 -1.8544648e-07 0.33258256 0.25781634 -0.66810966 -0.1562997
00000000: 9a6e 063e 2337 69be d238 79be f77b bdbd
00000010: 35ba 8b3e 6824 9bbd ca6d 983e 82c0 e5be
00000020: 77b1 3abe 836e 91be bea8 aa3e 241f 47b4
00000030: 4348 aa3e 8100 843e 3c09 2bbf 070d 20be

module.layer1.0.bn1.running_mean f4 [16]
-1.0201182 -0.07324882 -0.5100625 -0.34217215 -0.7970419 -0.10267033 -0.4489622 0.19146408
-0.3431924 -0.6537116 -0.6364141 -1.4140394e-07 -0.33962572 -0.9213951 0.52868766 -0.31017888
00000000: 3c93 82bf 7a03 96bd 7593 02bf 3031 afbe
00000010: f00a 4cbf d244 d2bd 60de e5be 290f 443e
00000020: eab6 afbe a559 27bf 09ec 22bf d2d4 17b4
00000030: 6ce3 adbe 8de0 6bbf 1358 073f c4cf 9ebe

module.layer1.0.bn1.running_var f4 [16]
0.66201395 0.23505212 0.31807443 0.5017919 0.50601524 2.8402517 0.5397877 0.30904165
0.17269115 0.26677066 0.22731826 2.711358e-13 1.242628 0.7338311 0.31305447 0.64146036
00000000: bf79 293f 81b1 703e a7da a23e 6f75 003f
00000010: 378a 013f afc6 3540 872f 0a3f b53a 9e3e
00000020: f3d5 303e 2a96 883e 1ec6 683e c9a2 982a
00000030: 6f0e 9f3f 5bdc 3b3f ad48 a03e bf36 243f

module.layer1.0.conv2.weight f4 [16, 16, 3, 3]
0.11386474 0.118859924 0.103150025 0.012877259 0.03023391 0.07503721 -0.12657098 -0.010921798
0.084233485 0.06714966 0.1451789 -0.009188907 0.077229545 0.07446693 -0.058546826 0.011494439
-0.0025752285 -0.071172625 0.023288148 -0.0028701788 -0.12281046 0.035799578 0.014511707 -0.08606411
0.012526273 0.077574074 0.08470007 -0.05196614 -0.115471065 -0.14786273 0.027696043 0.010412567
-0.15613812 0.13583301 0.059258446 -0.09625434 -0.20995279 -0.12620002 0.00173821 -0.11749602
-0.04249743 0.16572343 0.01547334 0.16358775 0.21432103 -0.08666473 0.01581159 0.0015700862
0.08279305 0.013285671 -0.081614554 0.07416316 0.0160546 0.0109382495 -0.013386848 0.106871486
0.12673692 0.02135477 0.09132941 0.1747976 -0.103803664 -0.09991161 -0.012566074 -0.006067571
0.0018314339 0.09111614 -0.0017269568 0.0075897886 0.022162965 -0.004853079 -0.06820207 -0.1042354
-0.054755747 -0.060231622 -0.02389099 -0.15512368 -0.1007105 0.113974534 -0.05806791 0.0052001723
0.18521944 -0.13857839 -0.08062702 0.016541945 -0.07377591 -0.039862428 -0.05543921 0.03138325
0.025290737 0.0083885575 0.23700555 -0.08290775 -0.49726927 0.32456863 0.059299845 -0.42923295
0.4540187 0.3719157 -0.119061776 5.7597862e-08 1.1929296e-08 -4.68778e-08 4.5161695e-08 2.2621922e-08
-9.483941e-09 5.333751e-08 -1.4114969e-08 -9.017441e-09 0.09996762 0.037036035 0.070361376 -0.087630734
-0.11954365 0.035155926 -0.09407241 0.025016157 0.065214455 -0.026063528 0.07141896 0.13136159
0.05374577 0.021402793 0.026890447 0.031018144 0.0659998 -0.09227869 0.016031712 0.041393805
-0.06270845 -0.05474943 -0.019724533 -0.12821636 -0.0026020457 0.048833624 -0.08000685 0.0834688
-0.020439172 0.018164743 0.017040571 0.017722538 0.021795088 -0.0018353834 0.05855659 -0.021445846
-0.104887165 -0.15997827 0.017750837 -0.2073633 -0.3655708 -0.09034506 -0.05075937 -0.2821336
-0.17765984 -0.024844728 0.016729517 0.100508235 -0.022467695 0.029266631 -0.0066678883 0.14104645
-0.0029908994 0.025111249 -0.040162854 -0.009805877 0.13212207 -0.012163541 -0.042512037 0.017395727
-0.040716287 -0.038558457 -0.059780426 0.0067117224 0.052742843 0.14809027 0.13871829 0.1629338
0.016516618 -0.03899256 -0.052109674 -0.12890966 0.06858988 0.08303126 -0.10145267 0.076779954
0.039121065 -0.19857328 0.092098415 0.02720531 -0.04558668 0.025412379 -0.037947606 0.122068435
0.044784 -0.12347394 -0.0008200527 0.063803785 -0.04163122 -0.10844824 0.0114992885 -0.05555939
0.032650825 -0.07617343 -0.04050431 0.08463188 -0.24620259 0.039726432 0.15526481 0.08046894
-0.18332994 -0.2425409 0.04901203 -0.020228812 -0.10991711 0.08128592 0.036143903 -0.14449622
0.10322041 -0.021922925 0.0050991056 0.0031754617 -0.06776187 0.04933331 0.051350635 0.020883126
0.044703662 -0.020960571 -0.053981815 0.08169648 0.024787612 -0.04206755 0.0154878665 0.013644677
0.06641585 0.061352905 -0.08124677 -0.06002038 -0.0065182117 -0.119587965 0.055130985 0.23344173
0.0032026563 -0.016845038 0.042725176 3.673424e-08 1.7271923e-08 -7.4575134e-08 7.4324376e-08 1.3047274e-07
3.5703735e-08 1.18822015e-07 1.7563616e-07 1.2745514e-07 -0.014420688 0.050182033 0.13564523 0.08053861
00000000: eb31 e93d d56c f33d 5240 d33d 24fb 523c
00000010: 1bad f73c 1cad 993d d39b 01be 57f1 32bc
00000020: 9b82 ac3d c385 893d c7a9 143e 128d 16bc
00000030: 862a 9e3d 1e82 983d ccce 6fbd 2c53 3c3c
00000040: 2ac5 28bb f4c2 91bd c9c6 be3c 9c19 3cbb
00000050: 0d84 fbbd 94a2 123d 83c2 6d3c 6142 b0bd
00000060: ff3a 4d3c 28df 9e3d 3b77 ad3d 72da 54bd
00000070: 187c ecbd 5469 17be d0e2 e23c 7999 2a3c
00000080: ace2 1fbe cf17 0b3e fcb8 723d ff20 c5bd
00000090: ddfd 56be 943a 01be a6d4 e33a c1a1 f0bd
000000a0: c911 2ebd 67b3 293e e483 7d3c 8c83 273e
000000b0: f976 5b3e 477d b1bd 4f87 813c 5acb cd3a
000000c0: 678f a93d 25ac 593c 8825 a7bd dbe2 973d
000000d0: f084 833c 5836 333c 8354 5bbc 70df da3d
000000e0: 53c7 013e 33f0 ae3c ea0a bb3d 24fe 323e
000000f0: 0497 d4bd 759e ccbd efe1 4dbc 7ad2 c6bb
00000100: b90c f03a 199b ba3d 0e5b e2ba c3b3 f83b
00000110: 1b8f b53c 9406 9fbb 87ad 8bbd 5f79 d5bd
00000120: 9047 60bd 6fb5 76bd 0ab7 c3bc bed8 1ebe
00000130: 4e41 cebd 7b6b e93d 9ed8 6dbd 3566 aa3b
00000140: 2aaa 3d3e 7ee7 0dbe c71f a5bd f982 873c
00000150: d317 97bd c946 23bd 3a14 63bd b98b 003d
00000160: 852e cf3c 2970 093c 95b1 723e 8acb a9bd
00000170: 149a febe dc2d a63e 65e4 723d 6cc4 dbbe
00000180: 2475 e83e bc6b be3e a9d6 f3bd 8561 7733
00000190: 99f1 4c32 b056 49b3 cff7 4133 2252 c232
000001a0: d0ee 22b2 3615 6533 4a7e 72b2 20eb 1ab2
000001b0: d3bb cc3d 19b3 173d a019 903d be77 b3bd
000001c0: 4dd3 f4bd a9ff 0f3d 09a9 c0bd afee cc3c
000001d0: 288f 853d 2e83 d5bc 1b44 923d a783 063e
000001e0: 8624 5c3d e954 af3c 5b49 dc3c c319 fe3c
000001f0: e72a 873d 9cfc bcbd f054 833c 8d8c 293d
00000200: 4a6d 80bd f040 60bd 5895 a1bc 264b 03be
00000210: 1587 2abb c405 483d a2da a3bd b1f1 aa3d
00000220: 0d70 a7bc 3ace 943c ab98 8b3c db2e 913c
00000230: 9d8b b23c 3f91 f0ba 09d9 6f3d 33af afbc
00000240: 15cf d6bd 58d1 23be 346a 913c 0b57 54be
00000250: 192c bbbe d506 b9bd 0fe9 4fbd d173 90be
00000260: 76ec 35be 2c87 cbbc 570c 893c 43d7 cd3d
00000270: 2c0e b8bc 93c0 ef3c 4d7e dabb 7b6e 103e
00000280: f702 44bb 1bb6 cd3c ce81 24bd d4a8 20bc
00000290: 024b 073e 9749 47bc 1a21 2ebd 7c81 8e3c
000002a0: 1fc6 26bd 79ef 1dbd 52dc 74bd 02ee db3b
000002b0: e108 583d faa4 173e 2b0c 0e3e 1ed8 263e
000002c0: dc4d 873c aab6 1fbd f470 55bd e500 04be
000002d0: da78 8c3d 4b0c aa3d 6bc6 cfbd cf3e 9d3d
000002e0: 693d 203d cb56 4bbe 189e bc3d acdd de3c
000002f0: 19b9 3abd 9f2d d03c f36e 1bbd 04ff f93d
00000300: 6d6f 373d e8df fcbd cef8 56ba 8fab 823d
00000310: 8085 2abd 1c1a debd 8367 3c3c 3e92 63bd
00000320: dfbc 053d d100 9cbd d9e7 25bd 7b53 ad3d
00000330: 881c 7cbe 2fb8 223d bdfd 1e3e e6cc a43d
00000340: d8ba 3bbe a45c 78be d7c0 483d e5b6 a5bc
00000350: 391c e1bd 3c79 a63d a10b 143d d1f6 13be
00000360: 3965 d33d b597 b3bc 6616 a73b 681b 503b
00000370: bcc6 8abd ba11 4a3d 0b55 523d 1713 ab3c
00000380: 301b 373d 81b5 abbc 091c 5dbd 7c50 a73d
00000390: 640f cb3c 064f 2cbd d2c0 7d3c ec8d 5f3c
000003a0: 0805 883d 2f4d 7b3d b564 a6bd eed7 75bd
000003b0: b996 d5bb 89ea f4bd 07d1 613d 590b 6f3e
000003c0: a8e3 513b 9bfe 89bc 9800 2f3d b9c5 1d33
000003d0: 5c5d 9432 1d26 a0b3 429c 9f33 1318 0c34
000003e0: ac58 1933 182b ff33 8096 3c34 9ada 0834
000003f0: c044 6cbc ad8b 4d3d 95e6 0a3e 6df1 a43d

module.layer1.0.bn2.weight f4 [16]
0.56312484 0.6856976 0.9875534 0.91443264 0.73862547 0.5798331 0.5381822 0.94435656
0.7566595 0.32926893 0.92969507 0.23409648 1.0583615 0.34848678 0.7303115 0.6805385
00000000: f328 103f e189 2f3f 4dd0 7c3f 4218 6a3f
00000010: 8f16 3d3f f16f 143f 4fc6 093f 5ac1 713f
00000020: 70b4 413f f095 a83e 7f00 6e3f fdb6 6f3e
00000030: 6478 873f dc6c b23e b2f5 3a3f c537 2e3f

module.layer1.0.bn2.bias f4 [16]
-0.19923942 -0.15137401 -0.09559036 0.14966042 -0.08854935 -0.21122979 0.22530147 -0.096101224
-0.122655496 0.20769833 -0.109063186 0.21634112 -0.0626045 0.18012217 -0.1335944 0.22652252
00000000: 6b05 4cbe ca01 1bbe e1c4 c3bd 9540 193e
00000010: 5d59 b5bd 9f4c 58be 6eb5 663e b8d0 c4bd
00000020: ce32 fbbd dfae 543e 855c dfbd 8788 5d3e
00000030: ca36 80bd f271 383e f8cc 08be 85f5 673e

module.layer1.0.bn2.running_mean f4 [16]
0.4225917 -0.02092202 -0.13968691 -0.6155275 -0.10881145 0.052429408 -0.5991631 -0.03906091
-0.2163263 -0.6461336 -0.5538478 0.17288959 -0.033116564 -0.46460223 0.1709593 -1.0410719
00000000: f05d d83e a864 abbc 160a 0fbe 3693 1dbf
00000010: 8ad8 debd 38c0 563d c162 19bf 55fe 1fbd
00000020: a484 5dbe 0369 25bf f8c8 0dbf f809 313e
00000030: 3ca5 07bd 58e0 edbe f40f 2f3e d841 85bf

module.layer1.0.bn2.running_var f4 [16]
0.11388513 0.45765224 0.6553893 0.9402381 0.4433032 0.10481057 0.27416977 0.61933124
0.36154956 0.17913215 0.7138441 0.15810126 1.3598974 0.24835195 0.5025394 0.5226859
00000000: 9b3c e93d 6551 ea3e 98c7 273f 72b3 703f
00000010: a3f8 e23e eda6 d63d fb5f 8c3e 7e8c 1e3f
00000020: 061d b93e 6b6e 373e 7dbe 363f 4ce5 213e
00000030: 1e11 ae3f f94f 7e3e 6ca6 003f bece 053f

module.layer1.0.shortcut.0.weight f4 [16, 64, 1, 1]
-0.031772666 0.066317566 -0.02786841 -0.033106692 -0.012444532 0.16749895 0.1437768 0.036218427
-0.031405296 0.044788353 -0.003487746 -0.21137744 -0.043403246 -0.0055069057 -0.4643192 0.07059344
-0.04789275 -0.018092005 -0.009827334 -0.12856834 -0.07551753 0.1773172 0.064257585 -0.3312073
-0.00012835303 -0.002321955 -0.039666243 -0.22046806 5.3910156e-07 -0.030412905 -0.025230814 -0.07669662
0.037268396 0.043727834 0.037800815 -2.3625255e-06 -0.032030374 -0.09104025 -0.25049207 -0.073632784
0.12278307 -0.013617783 0.01811662 0.16895987 -0.03713181 0.04608316 -0.23426384 -0.028790886
-0.028393345 -0.21217741 -0.17582422 -0.024328625 -0.03958851 -4.785748e-07 -0.03196351 -0.034081493
-0.20885353 -0.2218939 -0.19848484 0.27969414 5.1939798e-05 -0.07160259 0.049520228 -0.027173547
0.0003525109 -0.103593536 0.04481816 -0.089241646 -0.068783775 0.04968475 0.008834665 -0.13230778
-0.014130437 0.2990717 0.00046119455 0.093947284 -0.02450612 -0.00012129361 -0.09763111 0.068068735
-0.024735292 0.008381152 0.017518805 0.06803995 -0.05388172 -0.13690615 0.048492327 -0.08219273
-2.0552981e-05 -0.003925058 0.038162123 -0.023390364 -3.4103877e-07 0.113801844 0.054605465 -0.010277503
0.2487576 0.2537427 0.15603912 -1.0012524e-06 -0.019212885 -0.20546055 -0.06236177 -0.10544728
-0.12347278 0.001063425 0.13035186 0.020559404 0.04676783 0.18848349 -0.16720237 0.014855634
0.0045268415 -0.20720884 -0.0075693564 -0.0552897 -0.60248 -1.0490729e-07 -0.0113315275 -0.072794594
-0.02121798 0.020642895 0.07563384 -0.047426697 -0.0003388141 -0.04757496 -0.2070955 -0.061815582
0.020802787 -0.10416284 -0.040086072 -0.027040945 0.085632585 -0.002788074 0.046889435 -0.092310764
-0.023999946 0.026422888 0.0019426984 -0.04390882 -0.013442303 0.0012460456 -0.06323313 0.066903144
-0.10143742 0.03185193 0.04088359 0.033354875 -0.011586335 -0.013272355 0.014901928 0.026079476
-2.43038e-05 -0.0056811045 -0.09608674 -0.11971257 -4.3696102e-07 0.002259578 0.021640804 -0.08787559
-0.0017664668 -5.568572e-05 0.022600906 -1.6136488e-06 0.015555721 -0.07266698 -0.09282299 0.013023174
-0.07220337 0.018296672 -0.062895976 0.023163328 -0.06527583 0.0010796359 0.003537377 0.049911387
-0.013913694 -0.02937852 -0.088173814 -0.26535857 -0.03382736 -4.7934935e-07 0.009406635 0.08220705
-0.097321875 0.013922822 -0.02483324 -0.007846068 0.0041997894 0.03396379 -0.022105321 0.00017458764
-0.0128333885 -0.01956135 -0.13169232 -0.036823828 0.1242156 -0.016003693 -0.04533271 -0.20809828
-0.15321061 -0.0050085806 -0.0027462498 0.06443141 -0.030894 -0.001778927 0.053486425 0.024931796
0.0012704099 -0.0076056174 0.00260893 -0.01031763 -0.014121202 -0.03354842 -0.06461326 0.055087633
-3.5102714e-06 -0.004682359 0.0272569 -0.071258 1.19128856e-07 0.02911177 -0.0839292 0.07233011
-0.0036711665 -0.0027040134 -0.089560695 -3.5145524e-07 -0.015515132 -0.072539456 -0.0047920505 0.05962628
-0.14227426 -0.0053005633 -0.06757706 -0.03612853 -0.0883287 -0.0015961878 -0.0120686125 -0.01429459
0.003420923 0.028285982 -0.055890013 -0.27237442 0.020275375 2.1623164e-07 0.00892126 -0.036286484
-0.09669121 0.0978473 0.040680703 0.030088121 -0.0071103754 -0.02233056 -0.10172027 -0.022845827
00000000: 0e24 02bd 81d1 873d 4b4c e4bc e29a 07bd
00000010: 26e4 4bbc d884 2b3e 3a3a 133e c659 143d
00000020: d7a2 00bd fe73 373d ab92 64bb 5473 58be
00000030: 9ac7 31bd 4673 b4bb 3fbb edbe 4b93 903d
00000040: 302b 44bd af35 94bc d402 21bc 6ba7 03be
00000050: efa8 9abd a492 353e 7b99 833d 0194 a9be
00000060: 8196 06b9 f12b 18bb 1279 22bd 61c2 61be
00000070: c7b6 1035 7c24 f9bc dab0 cebc 1e13 9dbd
00000080: bfa6 183d f51b 333d 07d5 1a3d e18b 1eb6
00000090: 4832 03bd 5073 babd 7f40 80be c9cc 96bd
000000a0: b175 fb3d 1f1d 5fbc 4e69 943c d103 2d3e
000000b0: 8617 18bd b2c1 3c3d dce2 6fbe ddda ebbc
000000c0: 2999 e8bc 0945 59be 440b 34be d34c c7bc
000000d0: 9027 22bd 6977 00b5 2bec 02bd 0999 0bbd
000000e0: b3dd 55be 2838 63be 9c3f 4bbe 1234 8f3e
000000f0: efd9 5938 61a4 92bd b9d5 4a3d 0f9b debc
00000100: 36d1 b839 d928 d4bd 3f93 373d 53c4 b6bd
00000110: 82de 8cbd 3d82 4b3d 45bf 103c b17b 07be
00000120: 5983 67bc ed1f 993e 7ccc f139 6f67 c03d
00000130: 0fc1 c8bc 035f feb8 d2f2 c7bd 9f67 8b3d
00000140: aba1 cabc 1951 093c 9983 8f3c 8858 8b3d
00000150: 14b3 5cbd 2031 0cbe e49f 463d a954 a8bd
00000160: 3169 acb7 c69d 80bb e34f 1c3d 269d bfbc
00000170: 0318 b7b4 f110 e93d fba9 5f3d f962 28bc
00000180: 50ba 7e3e 90ea 813e b8c8 1f3e c562 86b5
00000190: 5764 9dbc 4064 52be 0e6f 7fbd bef4 d7bd
000001a0: 4cdf fcbd 9f62 8b3a f57a 053e 326c a83c
000001b0: a08f 3f3d d101 413e 1937 2bbe 0c65 733c
000001c0: e655 943b 8e2e 54be 5d08 f8bb 7477 62bd
000001d0: 213c 1abf 6549 e1b3 dfa7 39bc 5515 95bd
000001e0: 54d1 adbc 4a1b a93c eae5 9a3d 7f42 42bd
000001f0: dca2 b1b9 f6dd 42bd d810 54be 5632 7dbd
00000200: 9b6a aa3c 5453 d5bd 4b31 24bd f984 ddbc
00000210: 2360 af3d 1fb8 36bb 230f 403d 6d0d bdbd
00000220: 899b c4bc d074 d83c 24a2 fe3a bcd9 33bd
00000230: 1b3d 5cbc 5a52 a33a 5f80 81bd 8404 893d
00000240: 6cbe cfbd 2b77 023d 8d75 273d 1f9f 083d
00000250: 9cd4 3dbc 4b74 59bc 3727 743c a0a4 d53c
00000260: 03e0 cbb7 8f28 babb 20c9 c4bd dd2b f5bd
00000270: 7797 eab4 6e15 143b 0e48 b13c 1ef8 b3bd
00000280: ca88 e7ba 1690 69b8 8925 b93c 8d94 d8b5
00000290: 6cdd 7e3c 6dd2 94bd fb19 bebd 275f 553c
000002a0: 5cdf 93bd e7e2 953c 9bcf 80bd 05c1 bd3c
000002b0: 56af 85bd 9282 8d3a 57d3 673b e26f 4c3d
000002c0: 43f6 63bc 39ab f0bc 7994 b4bd 14dd 87be
000002d0: 8f8e 0abd a3ac 00b5 491e 1a3c 2b5c a83d
000002e0: b150 c7bd 8c1c 643c 146f cbbc cb8c 00bc
000002f0: 639e 893b 9d1d 0b3d 3816 b5bc 8311 3739
00000300: 2243 52bc 203f a0bc 5ada 06be 95d4 16bd
00000310: c064 fe3d 2d1a 83bc cbae 39bd b717 55be
00000320: 3ee3 1cbe 051f a4bb 6dfa 33bb 9df4 833d
00000330: 6a15 fdbc e32a e9ba 9514 5b3d c43d cc3c
00000340: e283 a63a 8b38 f9bb 95fa 2a3b 470b 29bc
00000350: 9d5c 67bc 116a 09bd f553 84bd 92a3 613d
00000360: 0192 6bb6 796e 99bb dd49 df3c b7ef 91bd
00000370: c8d3 ff33 cf7b ee3c 13e3 abbd cf21 943d
00000380: f497 70bb d135 31bb 996b b7bd a4af bcb4
00000390: 2e33 7ebc 918f 94bd a206 9dbb b03a 743d
000003a0: 58b0 11be 59b0 adbb d765 8abd 82fb 13bd
000003b0: ade5 b4bd 2d37 d1ba 6ebb 45bc db33 6abc
000003c0: 9031 603b 01b8 e73c edec 64bd a974 8bbe
000003d0: 8b18 a63c 4d2d 6834 7a2a 123c 23a1 14bd
000003e0: 0b06 c6bd 2a64 c83d cfa0 263d 5d7b f63c
000003f0: 27fe e8bb 94ee b6bc b852 d0bd 2c27 bbbc

module.layer1.0.shortcut.1.weight f4 [16]
0.5921851 0.5763432 0.11761346 0.1368767 0.38370314 0.4027996 0.19510822 0.07413949
0.3339204 0.5224043 0.2486654 0.42320788 0.057650015 0.4140322 0.42872962 0.07117867
00000000: 7199 173f 3a8b 133f 53df f03d 6829 0c3e
00000010: bd74 c43e c03b ce3e 73ca 473e 72d6 973d
00000020: 9df7 aa3e 4abc 053f 25a2 7e3e b4ae d83e
00000030: 6c22 6c3d 07fc d33e 7382 db3e 1fc6 913d

module.layer1.0.shortcut.1.bias f4 [16]
-0.19923942 -0.15137401 -0.09559036 0.14966042 -0.08854935 -0.21122979 0.22530147 -0.096101224
-0.122655496 0.20769833 -0.109063186 0.21634112 -0.0626045 0.18012217 -0.1335944 0.22652252
00000000: 6b05 4cbe ca01 1bbe e1c4 c3bd 9540 193e
00000010: 5d59 b5bd 9f4c 58be 6eb5 663e b8d0 c4bd
00000020: ce32 fbbd dfae 543e 855c dfbd 8788 5d3e
00000030: ca36 80bd f271 383e f8cc 08be 85f5 673e

module.layer1.0.shortcut.1.running_mean f4 [16]
-0.20104545 -0.095439956 -0.23187593 -0.2812489 -0.11213693 0.35003716 -0.30939096 -0.08220013
-0.13104433 -0.5615857 -0.21987538 -0.24116921 -0.1705727 0.24957721 -0.33924526 -0.05907058
00000000: dcde 4dbe 0676 c3bd e270 6dbe dbff 8fbe
00000010: 0ca8 e5bd 1238 b33e 7e68 9ebe 8b58 a8bd
00000020: 7c30 06be 15c4 0fbf 0327 61be 10f5 76be
00000030: 9caa 2ebe 2b91 7f3e 8eb1 adbe fef3 71bd

module.layer1.0.shortcut.1.running_var f4 [16]
0.06956508 0.15083493 0.038443282 0.057470124 0.112286754 0.040049795 0.03607136 0.022582322
0.064523265 0.098313816 0.073294796 0.09678633 0.020360103 0.10994574 0.1310146 0.008991069
00000000: 2378 8e3d 7974 1a3e b476 1d3d cb65 6b3d
00000010: 99f6 e53d 410b 243d 90bf 133d 90fe b83c
00000020: c624 843d c158 c93d 951b 963d e937 c63d
00000030: 3bca a63c 3b2b e13d b128 063e 474f 133c

module.layer2.0.conv1.weight f4 [32, 16, 3, 3]
0.19055857 0.07066277 -0.056321505 0.002553747 -0.065641895 -0.13453278 -0.038869478 -0.13527222
-0.123067446 -0.1513024 -0.0137925325 0.03258675 -0.02571688 0.09125461 0.15889582 0.10508598
0.17461954 0.17025597 -0.080435224 -0.09730042 -0.00223893 -0.07974848 -0.02836141 0.06926022
-0.010290583 0.038543876 0.042498257 0.092442945 0.0802876 -0.05187776 0.08620769 0.03876266
-0.107196815 -0.055632655 -0.03878748 -0.11775874 -0.024090352 0.03689017 0.009859649 -0.009250405
0.11693145 -0.06387822 -0.013883623 0.068324745 -0.19463862 -0.045004603 0.00012074241 -0.085816756
-0.030884633 -0.007296647 -0.014715273 -0.029306477 -0.046486653 -0.0388832 0.10116129 0.15815927
-0.059361696 0.08960247 0.019656442 -0.12717208 0.066485904 -0.07787595 -0.15411466 -0.092396885
-0.07881101 -0.041121263 -0.1211626 0.02346464 0.099666044 -0.016368842 0.09479263 0.11539946
-0.109709755 -0.10215131 0.08031842 -0.18349318 -0.017194413 0.17680778 -0.10575493 0.17008123
0.20877223 0.12626725 0.1469216 0.03993296 0.09049444 0.06764207 -0.07920647 0.1466115
0.028584424 -0.109536566 -0.15352084 0.1277872 0.18135488 -0.11118682 0.13935088 0.25013703
0.0141033195 0.1865783 0.22033839 0.26155293 0.05728232 -0.16955866 0.25638157 -0.023422932
-0.22056608 0.079190776 -0.14627562 -0.18723668 -0.096053585 -0.053629413 -0.05703901 -0.097952805
-0.09344636 0.00052735367 0.01120678 -0.014406469 0.013655385 -0.12617555 -0.048530746 0.19880858
-0.14770587 0.0033920151 0.24532339 -0.1156658 0.09153071 0.18112311 -0.04746395 -0.08344228
-0.0072727576 -0.12601003 -0.04287837 0.12751016 -0.07064353 0.034636915 0.05391374 0.017372811
0.026290495 -0.10244118 0.18693838 0.005611756 -0.16944887 0.15823577 -0.07701629 -0.2531037
-0.11247077 -0.05844976 0.032888625 -0.06941462 -0.038057555 -0.002020599 -0.038529295 -0.024059575
0.037571847 0.016911993 0.093184896 0.05039994 0.13869874 0.29886788 0.1448683 0.080008596
0.25690737 0.072208636 -0.16882035 -0.26908433 -0.10609147 -0.26136196 -0.26882324 -0.16275132
-0.14725499 -0.2714824 -0.1267382 -0.034706905 0.036214937 -0.08145227 0.061836004 0.18190545
0.04117417 0.10817393 0.21178497 0.065270536 0.2305788 0.18772505 0.034015033 0.13900167
0.1974921 0.091322646 0.049775872 0.11939923 0.020987567 0.0117692305 -0.047902457 -0.030604178
-0.05923544 -0.12735547 -0.089383945 -0.07787034 -0.09015537 -0.022810059 0.0008995698 -0.089165926
-0.08964807 -0.034725513 -0.07260761 -0.076257266 0.06775017 0.04128241 0.030136775 -0.027863791
-0.1583532 -0.1645398 -0.19909748 -0.38175252 -0.36035877 -0.1327565 -0.3424499 -0.26622093
-0.003339166 -0.02680709 0.046057824 -0.0070063346 -0.088415764 -0.055088308 0.035163257 -0.11796175
-0.093853235 0.10039977 0.06266283 -0.018257758 0.17182124 0.12629722 0.046740305 0.07474781
0.0056334552 -0.075362474 0.08413761 0.020921122 0.07136634 -0.038488228 -0.012515631 0.017058369
-0.104886636 -0.09689856 -0.0023955132 0.046215303 0.028602483 0.05546333 0.049747027 0.08859808
0.08657114 -0.08723427 -0.0043671834 -0.012153593 0.07373729 0.13409017 0.0013510876 0.10561344
00000000: c921 433e a4b7 903d 61b1 66bd c45c 273b
00000010: 426f 86bd f6c2 09be 9a35 1fbd cd84 0abe
00000020: c90a fcbd 04ef 1abe 13fa 61bc af79 053d
00000030: 35ac d2bc b2e3 ba3d 96b5 223e 5137 d73d
00000040: 77cf 323e 9557 2e3e 39bb a4bd 7145 c7bd
00000050: 03bb 12bb 2c53 a3bd 3056 e8bc 4dd8 8d3d
00000060: d599 28bc 2fe0 1d3d a712 2e3d ba52 bd3d
00000070: d36d a43d c67d 54bd a88d b03d 98c5 1e3d
00000080: 018a dbbd 11df 63bd 9fdf 1ebd 7f2b f1bd
00000090: 2159 c5bc 261a 173d 5e8a 213c 038f 17bc
000000a0: c279 ef3d 96d2 82bd 2378 63bc d8ed 8b3d
000000b0: 594f 47be bf56 38bd 1637 fd38 b2c0 afbd
000000c0: c501 fdbc b618 efbb 5418 71bc 2314 f0bc
000000d0: ca68 3ebd fe43 1fbd a72d cf3d 81f4 213e
000000e0: 4025 73bd 8081 b73d 8c06 a13c 6639 02be
000000f0: c329 883d 6d7d 9fbd 3cd0 1dbe 943a bdbd
00000100: ab67 a1bd c56e 28bd 1924 f8bd eb38 c03c
00000110: b61d cc3d f317 86bc a322 c23d 8d56 ec3d
00000120: 82af e0bd b534 d1bd fc7d a43d a3e5 3bbe
00000130: 4cdb 8cbc 190d 353e 0a96 d8bd c629 2e3e
00000140: 63c8 553e 344c 013e 9e72 163e be90 233d
00000150: 2655 b93d ed87 8a3d 0037 a2bd 5321 163e
00000160: e229 ea3c b554 e0bd 9134 1dbe a6da 023e
00000170: 18b5 393e eab5 e3bd ffb1 0e3e f611 803e
00000180: 9c11 673c 620e 3f3e 63a0 613e 44ea 853e
00000190: dea0 6a3d c9a0 2dbe 7244 833e 73e1 bfbc
000001a0: 13dc 61be c62e a23d 47c9 15be f9ba 3fbe
000001b0: beb7 c4bd 84aa 5bbd bda1 69bd 7b9b c8bd
000001c0: ce60 bfbd 1b3e 0a3a a49c 373c 1c09 6cbc
000001d0: d6ba 5f3c 2a34 01be 2dc8 46bd 7a94 4b3e
000001e0: 3540 17be 924c 5e3b 0e36 7b3e 31e2 ecbd
000001f0: 7474 bb3d 5678 393e 8f69 42bd c9e3 aabd
00000200: 5050 eebb c608 01be 3ba1 2fbd 0692 023e
00000210: 8ead 90bd 70df 0d3d a7d4 5c3d 6d51 8e3c
00000220: 2a5f d73c aecc d1bd c66c 3f3e d2e2 b73b
00000230: 0184 2dbe 8f08 223e b7ba 9dbd cf96 81be
00000240: 1357 e6bd 0469 6fbd 39b6 063d 4129 8ebd
00000250: 3de2 1bbd 076c 04bb e5d0 1dbd 9618 c5bc
00000260: f0e4 193d 058b 8a3c b9d7 be3d 2b70 4e3d
00000270: 0b07 0e3e 3605 993e 5b58 143e 8cdb a33d
00000280: 5d89 833e 1fe2 933d 3edf 2cbe 6cc5 89be
00000290: 7c46 d9bd 3cd1 85be 33a3 89be 48a8 26be
000002a0: 03ca 16be beff 8abe a9c7 01be d428 0ebd
000002b0: 1d56 143d 73d0 a6bd c047 7d3d 6c45 3a3e
000002c0: 3fa6 283d 4b8a dd3d 29de 583e 8fac 853d
000002d0: d91c 6c3e ff3a 403e 5953 0b3d 7456 0e3e
000002e0: 5e3b 4a3e 5e07 bb3d c9e1 4b3d 9587 f43d
000002f0: 1eee ab3c bbd3 403c 5e35 44bd 9db5 fabc
00000300: dca0 72bd 7969 02be ee0e b7bd 7c7a 9fbd
00000310: 61a3 b8bd 29dc babc 1bd1 6b3a a09c b6bd
00000320: 6899 b7bd 573c 0ebd 4cb3 94bd c52c 9cbd
00000330: 9ac0 8a3d bf17 293d 66e1 f63c 9b42 e4bc
00000340: 5727 22be 1f7d 28be 36e0 4bbe 1175 c3be
00000350: f280 b8be 52f1 07be 9855 afbe 1c4e 88be
00000360: e9d5 5abb 8b9a dbbc 21a7 3c3d 6595 e5bb
00000370: 5313 b5bd 47a4 61bd 5907 103d ee95 f1bd
00000380: 2036 c0bd 659e cd3d 5f55 803d 4b91 95bc
00000390: e8f1 2f3e 0f54 013e c372 3f3d 6115 993d
000003a0: d998 b83b a457 9abd 5750 ac3d c662 ab3c
000003b0: 8428 923d d5a5 1dbd 5c0e 4dbc febd 8b3c
000003c0: cece d6bd c172 c6bd 0bfe 1cbb 424c 3d3d
000003d0: c14f ea3c 842d 633d 8ac3 4b3d e972 b53d
000003e0: 364c b13d e2a7 b2bd 971a 8fbb dd1f 47bc
000003f0: 9403 973d ef4e 093e fa16 b13a dc4b d83d

module.layer2.0.bn1.weight f4 [32]
0.48409432 0.62225455 0.5815077 0.4402988 0.5902446 0.5386121 0.5408971 0.78007877
0.66280603 0.6393922 0.5456684 0.5299034 0.36147073 0.5939384 0.5805286 0.5390161
0.5238815 0.606631 0.424564 0.52129793 0.51784694 0.53760314 0.5388805 0.49611285
0.535873 0.5659628 0.5191018 0.5007451 0.75988066 0.47504008 0.5308814 0.4756613
00000000: 36db f73e 134c 1f3f b0dd 143f d86e e13e
00000010: 451a 173f 7ce2 093f 3b78 0a3f 3eb3 473f
00000020: a8ad 293f 35af 233f edb0 0b3f c0a7 073f
00000030: b112 b93e 590c 183f 869d 143f f6fc 093f
00000040: 191d 063f 2b4c 1b3f 7460 d93e c873 053f
00000050: 9e91 043f 5ca0 093f 13f4 093f 8102 fe3e
00000060: f92e 093f f0e2 103f dbe3 043f d530 003f
00000070: 8a87 423f 7438 f33e d8e7 073f e189 f33e

module.layer2.0.bn1.bias f4 [32]
-0.112859726 -0.11725999 -0.21157116 0.10608362 -0.35657212 -0.23213322 -0.16988523 -0.15769391
-0.24109021 -0.06257925 -0.06893094 -0.13345104 0.046816744 -0.13769749 0.095596075 -0.27693698
-0.27758548 -0.041530695 0.053274997 -0.101400994 -0.20404828 -0.21129575 -0.15223068 0.023253007
-0.08885013 -0.23197657 -0.10300383 -0.1048633 -0.13268179 0.22246833 0.22346684 -0.19553271
00000000: 0023 e7bd 0126 f0bd 1ca6 58be 5e42 d93d
00000010: 9f90 b6be 55b4 6dbe 65f6 2dbe 837a 21be
00000020: 5ae0 76be 8d29 80bd aa2b 8dbd 64a7 08be
00000030: eac2 3f3d 9200 0dbe e0c7 c33d afca 8dbe
00000040: af1f 8ebe 171c 2abd e236 5a3d 53ab cfbd
00000050: 08f2 50be ea5d 58be 5ce2 1bbe 177d be3c
00000060: 0ff7 b5bd 448b 6dbe acf3 d2bd 92c2 d6bd
00000070: bcdd 07be bdce 633e 7ed4 643e ba39 48be

module.layer2.0.bn1.running_mean f4 [32]
0.24371076 -0.016121723 0.5669951 -1.3172915 0.22426154 0.55821836 0.61969 -1.2580042
-0.29941666 0.3660579 0.042136673 -0.28743562 0.35030505 -0.054054543 -0.42981508 -0.09026906
-0.15380459 -0.779078 0.27874902 0.08040813 0.541255 -0.089622065 -0.494104 1.1300123
-0.6162604 -0.4769484 1.0033627 0.28712708 -2.5502028 0.89302146 -0.577296 -0.054768994
00000000: 508f 793e b411 84bc 9726 113f 029d a8bf
00000010: d1a4 653e 66e7 0e3f 01a4 1e3f 4806 a1bf
00000020: 244d 99be f16b bb3e 8197 2c3d c32a 93be
00000030: 2f5b b33e 4c68 5dbd b910 dcbe fcde b8bd
00000040: f37e 1dbe a871 47bf 31b8 8e3e 05ad a43d
00000050: b08f 0a3f c68b b7bd 33fb fcbe 3ea4 903f
00000060: 3ec3 1dbf 9532 f4be 306e 803f 5202 933e
00000070: 8636 23c0 0e9d 643f acc9 13bf 7455 60bd

module.layer2.0.bn1.running_var f4 [32]
0.5820951 1.1832432 0.83779603 1.5859658 0.6517848 0.56410104 0.6162421 0.9841508
0.77533567 1.4195516 1.1210287 0.6264944 0.53570014 0.57693887 1.0445715 0.68103385
0.7030012 0.9060748 0.6969641 1.1712167 0.6414498 0.4775683 0.63097245 0.9238574
0.6389117 0.51282907 0.8735329 0.6850418 1.3141979 1.087109 1.460679 0.56155056
00000000: 2f04 153f 8374 973f cd79 563f ed00 cb3f
00000010: 5edb 263f ed68 103f 0bc2 1d3f 4ff1 7b3f
00000020: 667c 463f deb3 b53f de7d 8f3f f061 203f
00000030: a523 093f 44b2 133f 85b4 853f 3c58 2e3f
00000040: e3f7 333f 85f4 673f 3d6c 323f 6eea 953f
00000050: 0e36 243f d583 f43e 6987 213f eb81 6c3f
00000060: b88f 233f c448 033f da9f 5f3f e65e 2f3f
00000070: a337 a83f 6326 8b3f 88f7 ba3f c7c1 0f3f
