results/260y/cifar10/nokd/resnet8_best.pth.tar (torch_old, 371446 bytes, 52 tensors)

module.conv1.weight f4 [64, 3, 3, 3]
0.07027027 0.03846302 0.07269735 0.07141616 0.008868357 0.047185212 0.031871345 -0.0753514
-0.017982572 0.020835334 -0.020187033 0.039909877 0.035715826 -0.042697813 0.016291302 0.04625142
-0.07000266 -0.0008166434 -0.009646226 -0.022876326 -0.0043860464 0.027006337 -0.029985819 -0.010647973
0.050370134 -0.059275888 -0.0282469 -0.19337864 -0.06546183 0.047626294 -0.1430327 0.07878893
0.09758849 0.06319549 0.13194925 0.036004417 -0.23618378 -0.06941623 0.04598056 -0.18314956
0.083438836 0.088529706 0.11578307 0.2281975 0.10713567 -0.26376262 -0.102694936 0.030752188
-0.24491964 0.04865699 0.09841657 0.050720822 0.21272871 0.13856493 -0.030795632 -0.05306181
-0.075558476 -0.017536744 -0.02372745 -0.023613494 0.03194574 0.012745212 -0.002361884 -0.010069754
-0.00033999697 -0.029089453 0.025768192 0.069305174 0.072860174 0.025815116 0.04592627 0.04466924
0.027102694 0.061466996 0.027761338 0.07408952 0.13003352 0.13437814 -0.009086052 0.014163302
0.025542347 -0.15689416 -0.15026902 0.13212827 -0.023987899 0.0049468 0.1208666 0.10429206
0.060986012 -0.0728824 -0.060277868 -0.16178732 0.076267555 0.08279538 -0.030802608 0.023045909
0.15834804 0.016826428 -0.1410426 0.01764328 -0.05122696 0.14409384 0.028116096 -0.07469883
-0.0009469337 0.06636488 -0.07475622 -0.20483823 0.10221114 -0.12283449 0.1090197 -0.07737511
-0.30072 -0.091559164 0.1738082 0.014633614 0.21630105 0.16697545 -0.0347934 0.1989611
-0.065848865 -0.27213922 -0.05815947 0.10072532 -0.056374323 0.1654957 0.07793128 -0.119160116
0.051420927 -0.17043935 -0.35674578 -0.17735957 -0.0074867583 -0.14240763 0.06377503 0.047100578
0.012042194 -0.024771236 0.069701776 -0.014300645 -0.11105967 0.02711302 -0.048220247 -0.07822002
0.093807474 -0.041076556 -0.10063418 0.15476947 -0.016657006 -0.1606444 0.13544455 0.0073496187
-0.08581679 0.06264983 -0.04686864 -0.09912798 0.14902678 -0.011834074 -0.15595692 0.15447403
0.021989848 -0.08391008 0.0060010627 -0.047279526 -0.06457082 0.061225183 -0.023541167 -0.07512006
0.15502718 0.08049069 0.033935457 -0.016930193 -0.06273357 -0.023873495 0.038440015 -0.07034255
-0.07876153 0.13966833 0.040649787 0.020283349 -0.00919662 -0.101960264 -0.12309158 0.072628535
-0.08164913 -0.18054213 0.16792935 0.054073676 -0.048132125 0.2708163 0.17857467 0.07073643
0.07866635 -0.04374791 -0.11760429 -0.052713934 -0.17478816 -0.18403475 -0.012328132 -0.06559198
-0.061693206 -0.109557696 -0.084244765 -0.056427363 -0.08263266 -0.048170723 -0.025629614 -0.12776327
-0.063921764 -0.114787325 0.018271852 0.17633104 0.123114 0.1269203 0.26131254 0.17864409
-0.0043323776 -0.0048125233 -0.0037741377 0.0013941962 0.0032417949 0.0011575681 0.0052418076 0.0060887816
0.0016345095 -0.004440231 -0.00528765 -0.002894244 -0.002597151 -0.00013910454 -0.00023572837 -0.00014362246
0.000563597 -0.0014535113 -0.0031653016 -0.002102494 1.0372257e-05 -0.0030685742 0.00055296096 0.0015712372
-0.0030639174 -0.0016536794 -0.0025844935 0.079970255 0.018022321 -0.05811633 0.15373401 -0.03733307
-0.2069868 0.103786744 -0.105210565 -0.11770503 0.20854956 0.00078052044 -0.14093728 0.32574722
00000000: dce9 8f3d 668b 1d3d 59e2 943d a342 923d
00000010: 964c 113c 4845 413d 878b 023d d651 9abd
00000020: 3050 93bc ddae aa3c 475f a5bc 8a78 233d
00000030: c24a 123d e7e3 2ebd 5675 853c 2172 3d3d
00000040: 8e5d 8fbd 0314 56ba 340b 1ebc 2267 bbbc
00000050: d3b8 8fbb 653c dd3c d2a4 f5bc d674 2ebc
00000060: ea50 4e3d 46cb 72bd 0b66 e7bc 0d05 46be
00000070: da10 86bd ca13 433d 2a77 12be 175c a13d
00000080: 79dc c73d a36c 813d b41d 073e 5e79 133d
00000090: 29da 71be 192a 8ebd 1d56 3c3d 8f8b 3bbe
000000a0: fbe1 aa3d 104f b53d ad1f ed3d 9bac 693e
000000b0: f269 db3d e50b 87be b951 d2bd 03ec fb3c
000000c0: 37cc 7abe 8d4c 473d a08e c93d a3c0 4f3d
000000d0: 8ed5 593e f7e3 0d3e 1f47 fcbc 5757 59bd
000000e0: 67be 9abd 38a9 8fbc 1260 c2bc 1671 c1bc
000000f0: 89d9 023d 4bd1 503c d7c9 1abb 9cfb 24bc
00000100: 9f41 b2b9 014d eebc d117 d33c dfef 8d3d
00000110: b737 953d 397a d33c 2f1d 3c3d 18f7 363d
00000120: 7806 de3c d1c4 7b3d bf6b e33c 3fbc 973d
00000130: 8227 053e 6c9a 093e aadd 14bc 320d 683c
00000140: 2f3e d13c dda8 20be 1fe0 19be a24c 073e
00000150: 4582 c4bc c418 a23b e888 f73d 1397 d53d
00000160: 78cc 793d 5e43 95bd ede5 76bd 93ab 25be
00000170: 2a32 9c3d a090 a93d c055 fcbc c6ca bc3c
00000180: fd25 223e 94d7 893c 796d 10be a488 903c
00000190: 5cd3 51bd 568d 133e ba53 e63c b3fb 98bd
000001a0: a53b 78ba 4fea 873d ca19 99bd 1dc1 51be
000001b0: 1354 d13d a690 fbbd b845 df3d d776 9ebd
000001c0: f9f7 99be 5f83 bbbd c7fa 313e d3c1 6f3c
000001d0: 067e 5d3e 9dfb 2a3e 8683 0ebd 75bc 4b3e
000001e0: c5db 86bd d555 8bbe a038 6ebd 1449 ce3d
000001f0: c3e8 66bd b477 293e 6f9a 9f3d 380a f4bd
00000200: c09e 523d a787 2ebe 62a7 b6be bf9d 35be
00000210: 7b53 f5bb 4ed3 11be 7c9c 823d 89ec 403d
00000220: 9f4c 453c 0ced cabc cebf 8e3d 414d 6abc
00000230: 4173 e3bd 201c de3c 9882 45bd d131 a0bd
00000240: 221e c03d e43f 28bd 4b19 cebd e37b 1e3e
00000250: 4674 88bc f77f 24be fab1 0a3e 12d5 f03b
00000260: b7c0 afbd 8e4e 803d 55f9 3fbd 9c03 cbbd
00000270: 7a9a 183e b4e3 41bc 2cb3 1fbe 712e 1e3e
00000280: 0e24 b43c 0cd9 abbd 90a4 c43b 2da8 41bd
00000290: b53d 84bd 42c7 7a3d 68d9 c0bc 8cd8 99bd
000002a0: 72bf 1e3e 4ed8 a43d e8ff 0a3d 30b1 8abc
000002b0: 757a 80bd 5992 c3bc 4773 1d3d c10f 90bd
000002c0: ba4d a1bd 3705 0f3e 6480 263d 4429 a63c
000002d0: 6cad 16bc 8bd0 d0bd 7017 fcbd 45be 943d
000002e0: a937 a7bd 09e0 38be acf5 2b3e 5c7c 5d3d
000002f0: 3126 45bd 6fa8 8a3e 47dc 363e 43de 903d
00000300: d31b a13d 0231 33bd 85da f0bd 91ea 57bd
00000310: abfb 32be 9b73 3cbe effb 49bc 1755 86bd
00000320: 04b2 7cbd c95f e0bd 8588 acbd 6120 67bd
00000330: 503b a9bd aa4e 45bd 32f5 d1bc 60d4 02be
00000340: 6ae9 82bd 9e15 ebbd daae 953c 2090 343e
00000350: 3123 fc3d 65f7 013e c2ca 853e 7aee 363e
00000360: 9ef6 8dbb 5fb2 9dbb 8657 77bb 76bd b63a
00000370: 4b74 543b 8ab9 973a 78c3 ab3b 6784 c73b
00000380: 0a3d d63a 5b7f 91bb 0644 adbb 5bad 3dbb
00000390: f734 2abb 97dc 11b9 da2d 77b9 5c99 16b9
000003a0: 5bbe 133a bf83 beba f370 4fbb ffc9 09bb
000003b0: 8104 2e37 221a 49bb 95f4 103a f9f1 cd3a
000003c0: 01cc 48bb 46c0 d8ba 9b60 29bb 72c7 a33d
000003d0: 8ca3 933c 640b 6ebd 736c 1d3e 90ea 18bd
000003e0: 59f4 53be 258e d43d a378 d7bd 560f f1bd
000003f0: 048e 553e d79b 4c3a dd51 10be 57c8 a63e

module.bn1.weight f4 [64]
0.18029672 0.24419998 0.23380403 0.27877304 0.5993201 0.1303868 0.23131235 0.15512466
0.00097607076 0.22465459 0.24582286 0.19658595 0.20179325 0.15364587 0.12526673 0.27587983
0.189493 0.1817903 0.091509946 0.27728966 -3.734994e-06 0.3346677 0.16203167 0.30934075
0.11840399 0.2742709 0.16981596 0.2804254 0.19885409 0.15390496 0.21956828 0.00338496
0.17543504 0.33416215 0.19813354 0.13798635 0.25284865 0.22522105 0.2615165 0.24118188
0.23300323 0.10033498 0.27283442 0.42789456 0.20927773 0.2177453 0.130045 0.18635917
0.38958737 0.26927656 0.13165103 0.26008397 0.31799358 0.16225334 0.29437408 0.15128078
0.5605194 0.17237347 0.30535802 0.30270293 0.21233757 0.09564589 0.23215629 0.21435875
00000000: b49f 383e 8f0f 7a3e 536a 6f3e 57bb 8e3e
00000010: 0b6d 193f 1e84 053e 25dd 6c3e 00d9 1e3e
00000020: 00df 7f3a da0b 663e fdb8 7b3e d44d 493e
00000030: e4a2 4e3e 5855 1d3e ec45 003e 1f40 8d3e
00000040: 740a 423e 3d27 3a3e 9169 bb3d e9f8 8d3e
00000050: b5a6 7ab6 9159 ab3e a1eb 253e e961 9e3e
00000060: cb7d f23d 3c6d 8c3e 3ce4 2d3e eb93 8f3e
00000070: 68a0 4b3e 4399 1d3e 82d6 603e 34d6 5d3b
00000080: 3ea5 333e 4d17 ab3e 85e3 4a3e 4b4c 0d3e
00000090: 6175 813e 59a0 663e 7ee5 853e 62f8 763e
000000a0: 6698 6e3e 6d7c cd3d f4b0 8b3e ff14 db3e
000000b0: e74c 563e a0f8 5e3e 842a 053e f0d4 3e3e
000000c0: ff77 c73e 9ede 893e 87cf 063e ba29 853e
000000d0: 0ed0 a23e bd25 263e 33b8 963e 59e9 1a3e
000000e0: 337e 0f3f ac82 303e e357 9c3e e1fb 9a3e
000000f0: 056f 593e fee1 c33d 61ba 6d3e dc80 5b3e

module.bn1.bias f4 [64]
-0.18151124 0.10158928 -0.1629862 -0.13143429 -0.45382625 0.096492045 -0.022043193 0.051050473
-0.0044259434 0.106260575 -0.13140033 0.3769819 0.18727574 0.014908871 0.13712482 -0.07642068
0.053115614 -0.0014366063 -0.105644435 0.37940463 -0.021927964 0.14509223 0.077553585 -0.14751454
0.06070152 -0.14812401 0.11591282 0.082883164 -0.013761187 -0.13068897 0.041406777 -0.014510788
-0.041448522 -0.24326828 0.21211961 0.09535172 0.08495487 0.107246555 -0.2744647 0.14610252
0.16253847 -0.094893605 0.25718296 -0.28808597 -0.0007491579 -0.16379237 -0.07064692 0.1420881
-0.33252463 0.09756813 -0.16671273 0.07050919 -0.096688785 -0.18360348 -0.111299746 0.06268244
-0.41600704 0.05852628 -0.22526282 -0.09325941 0.27198204 0.097740255 -0.044182215 -0.21846311
00000000: 15de 39be 0a0e d03d dbe5 26be b696 06be
00000010: ea5b e8be 9f9d c53d ed93 b4bc 4d1a 513d
00000020: 8107 91bb 259f d93d cf8d 06be c603 c13e
00000030: 36c5 3f3e 5644 743c 736a 0c3e 7282 9cbd
00000040: c28f 593d 824c bcba 1c5c d8bd 5341 c23e
00000050: 46a2 b3bc 0f93 143e 6ad4 9e3d 0d0e 17be
00000060: 28a2 783d d2ad 17be b363 ed3d a6be a93d
00000070: 9a76 61bc 54d3 05be 279a 293d a8be 6dbc
00000080: edc5 29bd 521b 79be e235 593e c347 c33d
00000090: d2fc ad3d 15a4 db3d a386 8cbe e69b 153e
000000a0: 7c70 263e 9457 c2bd 7cad 833e 0180 93be
000000b0: 2363 44ba 30b9 27be 55af 90bd 8b7f 113e
000000c0: ab40 aabe cdd1 c73d beb6 2abe 1f67 903d
000000d0: c504 c6bd 8d02 3cbe 1ff1 e3bd a75f 803d
000000e0: e0fe d4be 41b9 6f3d 4cab 66be cafe bebd
000000f0: 3b41 8b3e 0b2c c83d 69f8 34bd cbb4 5fbe

module.bn1.running_mean f4 [64]
-0.0426476 -0.08137985 -0.1706288 0.054121807 0.2550143 0.04677636 0.050516017 -0.01140876
0.006586777 0.02972704 0.061548248 -0.033305608 0.029117022 0.00018483345 -0.03139372 0.08139317
-0.043134682 -0.15594453 -0.06672519 0.022545923 -0.052031364 0.057338186 0.02028354 0.00673648
-0.00035341576 -0.10284376 -0.0072625624 -0.04764203 0.14833626 -0.048367105 -0.021145446 -0.01950542
0.022974031 0.15691203 -0.0009902684 -0.0048866062 -0.046307083 0.11980353 0.044760153 0.04948231
-0.09091513 -0.074540295 -0.054858737 0.011391199 0.13535982 -0.06308474 0.06426629 0.0027057582
0.1584236 0.008246616 -0.05049067 -0.024574354 0.068732515 -0.123666994 0.15336907 -0.05228287
0.25791183 -0.024383588 0.13339075 0.16235052 0.014491629 -0.006694165 -3.1282518e-05 -0.06591333
00000000: 40af 2ebd 7baa a6bd 51b9 2ebe d4ae 5d3d
00000010: 3c91 823e 9298 3f3d e2e9 4e3d cfeb 3abc
00000020: e4d5 d73b 1f86 f33c 041a 7c3d 766b 08bd
00000030: d286 ee3c dacf 4139 b496 00bd 76b1 a63d
00000040: fead 30bd ecaf 1fbe 37a7 88bd 3ab2 b83c
00000050: d71e 55bd 72db 6a3d ab29 a63c b1bd dc3b
00000060: a94a b9b9 c09f d2bd cafa edbb 4a24 43bd
00000070: 76e5 173e 961c 46bd 3739 adbc d5c9 9fbc
00000080: 0934 bc3c 8cad 203e e5cb 81ba d31f a0bb
00000090: 7fac 3dbd 8e5b f53d 6c56 373d f6ad 4a3d
000000a0: b631 babd 95a8 98bd 8eb3 60bd 27a2 3a3c
000000b0: c49b 0a3e 9232 81bd 0b9e 833d 1753 313b
000000c0: cc39 223e d11c 073c 4ecf 4ebd 2850 c9bc
000000d0: a2c3 8c3d 1f45 fdbd c80c 1d3e 9026 56bd
000000e0: 050d 843e 17c0 c7bc 9697 083e 373f 263e
000000f0: 4c6e 6d3c ba5a dbbb 5935 03b8 91fd 86bd

module.bn1.running_var f4 [64]
0.10653969 1.5662729 0.5490264 0.16315882 1.6546088 0.6934607 0.61091584 0.13881361
0.0011230286 2.243804 0.14313774 0.17999326 1.1996795 0.2789048 0.23308553 0.18991888
0.9037131 0.48545724 0.071204 0.190999 0.06584852 0.5225636 0.7511222 0.37806717
0.21376379 0.33478928 0.19220792 0.39358065 0.46273398 0.12508087 0.36261904 0.010327571
0.04904943 0.4622456 0.16096829 0.17595585 0.6366171 0.48776573 0.2932507 1.6419623
0.9985036 0.08877381 0.56389976 0.5095195 0.40256068 0.10586406 0.07682096 0.1717546
0.58622456 1.409194 0.14924283 0.7389091 0.81054646 0.24741772 0.49138746 0.6092088
1.3266922 0.6719551 0.56689006 0.5360428 0.23639265 0.02343726 0.2623663 0.21516614
00000000: 7b31 da3d a17b c83f ff8c 0c3f 1b13 273e
00000010: 39ca d33f a486 313f fb64 1c3f 2825 0e3e
00000020: 9632 933a 7c9a 0f40 b392 123e 2750 383e
00000030: 198f 993f 9ccc 8e3e f9ad 6e3e 187a 423e
00000040: be59 673f da8d f83e 67d3 913d 3e95 433e
00000050: 97db 863d bac6 053f 8b49 403f 0592 c13e
00000060: e5e4 5a3e 8069 ab3e 27d2 443e 6783 c93e
00000070: 78eb ec3e 3315 003e 34a9 b93e f934 293c
00000080: 0ee8 483d 75ab ec3e dfd4 243e c52d 343e
00000090: 57f9 223f 6ebc f93e f524 963e d22b d23f
000000a0: ef9d 7f3f 0bcf b53d bc5b 103f df6f 023f
000000b0: 6f1c ce3e 42cf d83d 4f54 9d3d 70e0 2f3e
000000c0: d012 163f 7860 b43f 1dd3 183e 2629 3d3f
000000d0: f97f 4f3f 125b 7d3e 2397 fb3e 1cf5 1b3f
000000e0: 0dd1 a93f 4005 2c3f b51f 113f 1a3a 093f
000000f0: ea10 723e 7fff bf3c e054 863e 8354 5c3e

module.layer1.0.conv1.weight f4 [16, 64, 3, 3]
-0.000916557 -0.0060354085 -0.0028279773 -0.021373134 -0.0025718424 0.00451383 -0.011644466 0.0100722695
0.013018877 -0.020379532 -0.044210486 -0.0063250978 0.010767215 0.008818914 0.047450945 -0.027250214
0.0011464979 0.036387123 0.009835239 0.0057128007 -0.009167517 -0.011187428 -0.012668726 -0.015865495
-0.028250806 -0.023235321 -0.018557437 0.035769854 0.02500006 -0.04892786 0.022330921 0.03993819
-0.021485139 0.0060628313 0.004162263 -0.009946988 -0.024475718 -0.041721016 -0.048029497 -0.006153515
-0.052248064 -0.07150536 -0.033166993 -0.034060426 -0.004000947 0.019015132 0.014725386 0.019937262
0.0055448744 0.002374374 -0.008198388 -0.0001125613 -0.008311303 -0.024269374 0.026186043 0.013930931
0.009076146 -0.0035391124 -0.007177815 -0.008036151 -0.058752462 -0.025462043 -0.01628273 -0.02014128
-0.024653062 0.021965431 -0.03306086 0.016215144 0.07597641 -0.013520077 0.05199038 0.04643156
0.00043221776 0.00041828613 0.0007330868 0.000492071 0.0007658504 0.00041158882 0.0004476108 -0.00051035255
-0.001945975 0.004687967 0.014458551 0.017508725 -0.012094758 0.003746458 -0.032805286 -0.027032575
-0.024033688 -0.065993324 -0.015347952 -0.014677403 0.0044026547 -0.021725096 -0.007858617 0.0018993748
-0.01583528 -0.02628065 -0.013867488 -0.19091415 -0.18805279 0.045098837 -0.22995755 0.002416521
0.2529577 -0.0035505595 0.23652674 0.14187631 0.0070033255 -0.018299578 0.024241257 0.027531499
0.007697593 0.052706737 0.026638536 0.028891187 0.06693717 -0.014996903 -0.02843273 -0.0023482468
-0.030925345 -0.012302815 0.02830555 -0.058802146 -0.03048437 0.014943104 0.03485285 0.02711787
0.033028614 0.022251787 0.02755116 0.003969991 -0.01071972 -0.0037125312 -0.07104626 0.022939272
0.007177887 -0.038398225 0.02009391 -0.029991077 -0.056603443 -0.016690765 -0.05672586 -0.024500357
-0.0027827725 0.006143509 0.020860732 0.00020992555 -0.0074846917 -0.029422302 -0.016705325 -0.024350679
-0.059266694 -0.00056482456 -0.0034327738 -0.017355708 -0.0027612431 -0.016829599 -0.032581758 -0.026503554
-0.044383537 -0.048491 0.004612369 0.0031445522 0.0020420863 0.009919937 0.008315004 0.0059956727
0.015380018 0.012816521 0.008557185 0.016255114 0.0708589 -0.032638125 0.093131155 -0.003854377
-0.07012207 0.02269518 -0.04460155 0.035931405 0.011586953 0.013204404 0.006234766 0.010571779
0.009301081 -0.0032106547 -0.0027571854 -0.0055524996 -0.014454498 -0.008310542 0.0006872855 0.028882235
-0.04366889 -0.027504886 0.058149736 -0.05755243 0.04987661 0.10838798 0.004032594 0.003995383
0.022429248 -0.021475049 -0.0059124986 -0.007053297 -0.024066808 -0.018753627 -0.03442761 0.024663495
-0.008953505 -0.0077860616 -0.02548323 -0.027913066 -0.020988045 -0.06574919 -0.052939788 -0.056843195
0.061781246 0.05138729 0.025120318 0.026248412 0.021539923 -0.009898985 0.0024369531 -0.03050222
-0.07097073 -0.0016007998 0.010821927 0.010643874 0.0068044043 0.0047825626 0.0034847485 0.012703996
0.003068816 0.015148312 -0.0118053695 0.033077277 -0.0021299394 0.04090264 0.031887967 -0.015312914
0.01858808 -0.026785146 -0.09144481 0.05075507 0.014219139 0.0006194915 0.044356465 -0.01129482
-0.007520288 -0.0013970793 -0.04705504 0.008832464 0.03372734 0.026303573 0.0045026685 0.014905056
00000000: 1945 70ba adc4 c5bb 9655 39bb b616 afbc
00000010: 5b8c 28bb c0e8 933b 6ec8 3ebc 2906 253c
00000020: 214d 553c faf2 a6bc 0e16 35bd c442 cfbb
00000030: f968 303c 357d 103c ec5b 423d d73b dfbc
00000040: 1646 963a aa0a 153d fb23 213c 7232 bb3b
00000050: 5a33 16bc 794b 37bc 7d90 4fbc 5bf8 81bc
00000060: 3c6e e7bc 0058 bebc c405 98bc 6983 123d
00000070: edcc cc3c 9468 48bd 56ef b63c 3a96 233d
00000080: 9a01 b0bc b7aa c63b 9863 883b b1f8 22bc
00000090: 4d81 c8bc a8e3 2abd 94ba 44bd 6da3 c9bb
000000a0: 1102 56bd 6771 92bd 1dda 07bd f282 0bbd
000000b0: 601a 83bb 9fc5 9b3c bf42 713c 7853 a33c
000000c0: c7b1 b53b 639b 1b3b 8852 06bc e30e ecb8
000000d0: 222c 08bc 91d0 c6bc 1d84 d63c 8f3e 643c
000000e0: 1eb4 143c 74f0 67bb e033 ebbb 0faa 03bc
000000f0: 6ca6 70bd c695 d0bc 5c63 85bc 53ff a4bc
00000100: 38f5 c9bc d9f0 b33c d36a 07bd 9fd5 843c
00000110: 8599 9b3d 5083 5dbc ddf3 543d 052f 3e3d
00000120: 499b e239 6a4d db39 9f2c 403a 53fe 003a
00000130: 5ac3 483a 84ca d739 4ead ea39 2ec9 05ba
00000140: 1610 ffba 849d 993b 8fe3 6c3c 756e 8f3c
00000150: 1829 46bc 2387 753b d65e 06bd 6b73 ddbc
00000160: 4ce2 c4bc 8227 87bd fa75 7bbc 7d79 70bc
00000170: 2544 903b d4f8 b1bc 6ec1 00bc 71f4 f83a
00000180: fdb8 81bc 854a d7bc 7634 63bc 007f 43be
00000190: e990 40be 8fb9 383d fe79 6bbe 7f5e 1e3b
000001a0: ac83 813e 81b0 68bb 1134 723e 0648 113e
000001b0: 277c e53b ffe8 95bc 9a95 c63c bd89 e13c
000001c0: 173c fc3b 05e3 573d 0f39 da3c 36ad ec3c
000001d0: 5b16 893d 92b5 75bc c2eb e8bc 0be5 19bb
000001e0: 2657 fdbc bf91 49bc 0ae1 e73c 85da 70bd
000001f0: 5cba f9bc ecd3 743c ddc1 0e3d 4c26 de3c
00000200: 0349 073d 6149 b63c f8b2 e13c b316 823b
00000210: c4a1 2fbc f04d 73bb b480 91bd 24eb bb3c
00000220: 7b34 eb3b 7547 1dbd fc9b a43c d9af f5bc
00000230: 03d9 67bd 12bb 88bc 6059 68bd f9b4 c8bc
00000240: 2d5f 36bb 7d4f c93b 20e4 aa3c 761f 5c39
00000250: 2542 f5bb 0a07 f1bc 9bd9 88bc 137b c7bc
00000260: a2c1 72bd bc10 14ba 63f8 60bb 8f2d 8ebc
00000270: f9f5 34bb 3ade 89bc 7374 05bd fb1d d9bc
00000280: 83cb 35bd 809e 46bd 5b23 973b d514 4e3b
00000290: 86d4 053b 3b87 223c a83b 083c 5977 c43b
000002a0: 79fc 7b3c 63fc 513c 6f33 0c3c 7229 853c
000002b0: 791e 913d 8eaf 05bd 8cbb be3d b799 7cbb
000002c0: 299c 8fbd 3eeb b93c 1db0 36bd cf2c 133d
000002d0: 34d7 3d3c 4957 583c 024d cc3b 4135 2d3c
000002e0: 9063 183c d969 52bb e5b1 34bb bef1 b5bb
000002f0: 8fd2 6cbc f128 08bc f32a 343a 709a ec3c
00000300: 26de 32bd ed51 e1bc 6b2e 6e3d 19bc 6bbd
00000310: 6b4b 4c3d 84fa dd3d da23 843b b4eb 823b
00000320: 8bbd b73c 71ec afbc a2bd c1bb 581f e7bb
00000330: c127 c5bc 35a1 99bc f703 0dbd 190b ca3c
00000340: b9b1 12bc 3822 ffbb 35c2 d0bc f1a9 e4bc
00000350: 1fef abbc 83a7 86bd 64d7 58bd 69d4 68bd
00000360: 550e 7d3d 7b7b 523d 20c9 cd3c e906 d73c
00000370: 7e74 b03c 5a2f 22bc 4ab5 1f3b cbdf f9bc
00000380: 1a59 91bd eed1 d1ba 744e 313c a563 2e3c
00000390: 7bf7 de3b 0bb7 9c3b 6160 643b 6c24 503c
000003a0: 301e 493b a030 783c 4f6b 41bc 0a7c 073d
000003b0: 7496 0bbb 8789 273d f59c 023d 04e3 7abc
000003c0: 0746 983c 866c dbbc 6b47 bbbd 8ce4 4f3d
000003d0: 64f7 683c 5f65 223a 20af 353d e90d 39bc
000003e0: c06c f6bb 341e b7ba c9bc 40bd 0ab6 103c
000003f0: ae25 0a3d 977a d73c 1f8b 933b 5634 743c

module.layer1.0.bn1.weight f4 [16]
0.32340372 0.27866513 0.29202467 0.54246515 0.31004912 0.39395255 0.38210025 0.25421023
0.32480434 0.3499006 0.3824545 0.35459417 0.38922516 0.48946044 0.51744914 0.7159523
00000000: 2c95 a53e 32ad 8e3e 4284 953e ffde 0a3f
00000010: c2be 9e3e 26b4 c93e a5a2 c33e d827 823e
00000020: c14c a63e 2c26 b33e 14d1 c33e 5e8d b53e
00000030: 8548 c73e 8f9a fa3e 8c77 043f a648 373f

module.layer1.0.bn1.bias f4 [16]
-0.11673944 0.12588802 0.08689438 0.17500207 0.050968044 0.18386893 -0.20130737 0.09005464
0.052089788 -0.1979171 -0.21639305 -0.07684647 -0.1887323 0.08897971 0.08725253 -0.76332235
00000000: 1615 efbd cae8 003e aef5 b13d be33 333e
00000010: dec3 503d 2348 3c3e 8523 4ebe 916e b83d
00000020: 1a5c 553d c8aa 4abe 2496 5dbe af61 9dbd
00000030: 0a43 41be ff3a b63d 74b1 b23d 1869 43bf

module.layer1.0.bn1.running_mean f4 [16]
-0.2090997 -0.42657477 -0.17146213 -0.24260914 -0.27140576 -0.2615867 -0.15813415 -0.58677745
-0.5254429 -0.3905934 -0.35964686 -0.12300069 -0.11456659 -0.2597088 -0.35666567 0.42935032
00000000: 3b1e 56be 0268 dabe c593 2fbe 886e 78be
00000010: b2f5 8abe b1ee 85be ebed 21be 0c37 16bf
00000020: 6d83 06bf dcfb c7be a223 b8be c9e7 fbbd
00000030: e3a1 eabd 8df8 84be e29c b6be ced3 db3e

module.layer1.0.bn1.running_var f4 [16]
0.06873116 0.09719126 0.088513054 0.25084594 0.08112282 0.14862545 0.091045186 0.21461335
0.1912813 0.06830156 0.06543718 0.15525615 0.076337375 0.30362666 0.22322972 0.16939496
00000000: ecc2 8c3d 360c c73d 5546 b53d e16e 803e
00000010: b923 a63d 4531 183e e675 ba3d 9ac3 5b3e
00000020: 3fdf 433e b0e1 8b3d ee03 863d 78fb 1e3e
00000030: c556 9c3d f474 9b3e 5596 643e df75 2d3e

module.layer1.0.conv2.weight f4 [16, 16, 3, 3]
0.17013162 0.06734316 -0.05030825 0.058361325 -0.012598148 -0.070489 -0.05357521 -0.14488065
-0.15132374 0.07965706 -0.0025934784 -0.09662311 0.020972738 -0.09154348 -0.20392048 0.227901
0.06660777 -0.1013386 -0.27093783 -0.06759371 0.2578002 -0.32646322 -0.10454203 0.30845174
-0.1303993 -0.012098213 0.22648127 0.088946916 0.08155427 0.03601024 0.15867202 0.06595102
-0.030671442 0.061355717 0.025700701 -0.050266165 -0.040277433 -0.07718749 -0.15990739 0.08052699
0.024388352 -0.07975245 0.13965668 0.10506468 0.04408162 0.09059798 -0.00030512759 -0.18858935
0.17913683 -0.021980828 -0.18061367 0.14976412 -0.01794757 -0.049950372 -0.026436828 0.023678547
0.02712003 0.0104655735 0.007987387 -0.07694544 0.0072692344 -0.034764517 -0.08911409 0.014922569
0.042771183 0.07381955 -0.041691758 -0.058527943 0.04610718 -0.085154764 -0.09345055 0.0435393
-0.042750645 0.011445991 0.03666967 0.011334474 -0.022852404 0.0048062885 0.058266107 -0.0109960595
0.012113699 -0.05097724 -0.04859522 -0.05080926 -0.086371385 -0.0032390868 0.03005596 -0.040319145
0.051819157 0.06256408 -0.0897197 -0.08657095 -0.08137767 -0.021436006 0.002476622 0.040512867
0.21635342 0.18854688 0.15447265 -0.02419789 -0.06834371 -0.13426436 0.01610403 0.00423517
-0.06717312 0.026067065 0.0729615 -0.008655248 0.05143681 -0.011528644 0.0039706184 0.041436873
0.011290406 -0.039565843 0.04193709 -0.0055836504 -0.088789985 0.0003242733 0.015029107 0.09399556
-0.08237377 0.00080719264 0.12482353 -0.050561253 0.011679604 0.055724386 -0.036114234 0.019562041
0.13471578 -0.081911206 0.05252694 0.19596955 -0.1020737 0.031616535 0.09120782 -0.021048652
0.047354802 0.02732815 -0.06511675 -0.02154514 -0.04921643 -0.052518167 0.021711709 -0.032300852
-0.04158601 -0.011143422 -0.01614768 -0.032139424 -0.016465526 -0.028512623 -0.04651765 -0.024334507
0.03135242 0.102306195 0.030662118 -0.036431417 0.02973762 -0.018432157 -0.0074569895 -0.102083154
-0.055953283 0.0033268637 -0.0010536436 -0.008643306 0.04885276 0.050312363 0.049174916 -0.021570304
-0.00040454828 -0.029421313 -0.049165115 -0.010217027 0.010335771 0.019605245 0.015460629 0.034759488
0.0038053878 -0.049351986 0.02432032 0.032383937 -0.036112357 -0.0060678995 0.030789984 0.005247049
0.02969469 -0.012254512 0.07206716 -0.007919006 0.00784567 -0.09481406 -0.08053894 0.048314933
0.02235146 0.09645988 -0.014997498 0.048833072 0.04780392 -0.050350823 -0.0020634267 0.01006593
0.016563913 0.05742578 0.05035797 0.07313206 0.061970852 0.067149915 0.061671022 -0.102511086
-0.051070753 0.006089559 -0.037373368 -0.009477954 -0.04980308 -0.010389911 -0.014943023 -0.0138689745
0.010565385 -0.026420292 -0.07955144 -0.056936752 0.024411956 0.05408471 0.0010421597 0.006032833
0.0051962496 0.00025149007 -0.05915551 -0.09003413 -0.0351155 -0.031011717 -0.021625409 -0.011163866
0.003391998 -0.013985351 -0.07793292 -0.042661116 -0.065991595 -0.041576948 -0.030796478 -0.041257232
0.00696804 0.02699071 0.013440513 -0.015718665 -0.010791025 -0.02487457 -0.03795142 -0.033691633
-0.022401538 -0.051446896 -0.0482263 -0.035123244 0.029469226 0.029381651 -0.043088287 0.05465342
00000000: fc36 2e3e 36eb 893d 0610 4ebd 490c 6f3d
00000010: 7668 4ebc 895c 90bd ae71 5bbd 985b 14be
00000020: 9cf4 1abe 3e23 a33d 59f7 29bb 56e2 c5bd
00000030: 05cf ab3c 267b bbbd 88d0 50be e15e 693e
00000040: a869 883d 9d8a cfbd 5db8 8abe 926e 8abd
00000050: 63fe 833e 3026 a7be 221a d6bd 63ed 9d3e
00000060: 6587 05be 9537 46bc b5ea 673e cd29 b63d
00000070: ed05 a73d 797f 133d eb7a 223e 5411 873d
00000080: ad42 fbbc 2250 7b3d 478a d23c e5e3 4dbd
00000090: f3f9 24bd 7a14 9ebd c3be 23be 56eb a43d
000000a0: 15ca c73c 4155 a3bd 2902 0f3e 272c d73d
000000b0: ee8e 343d 6f8b b93d 88f9 9fb9 911d 41be
000000c0: a56f 373e 2311 b4bc caf2 38be c45b 193e
000000d0: c806 93bc c398 4cbd 0c92 d8bc 83f9 c13c
000000e0: d32a de3c cc77 2b3c 87dd 023c 9295 9dbd
000000f0: c232 ee3b 3d65 0ebd 7381 b6bd ca7d 743c
00000100: d630 2f3d b42e 973d fac4 2abd ffba 6fbd
00000110: e2da 3c3d 9f65 aebd 0163 bfbd 4456 323d
00000120: 4d1b 2fbd f787 3b3c f032 163d 3bb4 393c
00000130: f734 bbbc 127e 9d3b 71a8 6e3d d128 34bc
00000140: 8978 463c 83cd 50bd c80b 47bd 5f1d 50bd
00000150: 7be3 b0bd dc46 54bb eb37 f63c b025 25bd
00000160: 5340 543d 9921 803d f6be b7bd 1c4c b1bd
00000170: 56a9 a6bd 909a afbc d24e 223b d2f0 253d
00000180: c08b 5d3e 6f12 413e 142e 1e3e a73a c6bc
00000190: c9f7 8bbd 997c 09be 99ec 833c 2ec7 8a3b
000001a0: 1092 89bd 998a d53c d76c 953d bece 0dbc
000001b0: 68af 523d a3e2 3cbc f61b 823b b6b9 293d
000001c0: 65fb 383c cb0f 22bd 3ac6 2b3d 0ef7 b6bb
000001d0: 86d7 b5bd 3a03 aa39 a53c 763c bf80 c03d
000001e0: 94b3 a8bd c899 533a 7ba3 ff3d 5119 4fbd
000001f0: cf5b 3f3c 413f 643d 85ec 13bd 9340 a03c
00000200: eff2 093e 10c1 a7bd 7d26 573d 3eac 483e
00000210: 040c d1bd 5780 013d 2acb ba3d 396e acbc
00000220: 1cf7 413d 49df df3c ee5b 85bd 6f7f b0bc
00000230: 2b97 49bd 4a1d 57bd c1dc b13c e64d 04bd
00000240: 1856 2abd e692 36bc 2448 84bc a1a4 03bd
00000250: b6e2 86bc 4e93 e9bc 4b89 3ebd 2959 c7bc
00000260: 656b 003d e985 d13d 1f2f fb3c 1c39 15bd
00000270: 4f9c f33c 09ff 96bc c359 f4bb f910 d1bd
00000280: 452f 65bd 8307 5a3b 6a1a 8aba a79c 0dbc
00000290: d519 483d 5614 4e3d a36b 493d 35b4 b0bc
000002a0: 8d19 d4b9 f704 f1bc 5c61 49bd 5165 27bc
000002b0: 5e57 293c 2e9b a03c 944e 7d3c f75f 0e3d
000002c0: d063 793b 4f25 4abd 683b c73c 05a5 043d
000002d0: 8dea 13bd 3bd5 c6bb 473b fc3c 70ef ab3b
000002e0: 4742 f33c 26c7 48bc f297 933d b8be 01bc
000002f0: 208b 003c e02d c2bd 9af1 a4bd e1e5 453d
00000300: 691a b73c c28c c53d 11b8 75bc 3005 483d
00000310: 0bce 433d aa3c 4ebd 8e3a 07bb 92eb 243c
00000320: 0bb1 873c 4b37 6b3d 2944 4e3d 43c6 953d
00000330: 26d5 7d3d e585 893d c19a 7c3d 55f1 d1bd
00000340: 912f 51bd ec8a c73b d114 19bd 6c49 1bbc
00000350: 50fe 4bbd 723a 2abc 95d3 74bc b23a 63bc
00000360: 701a 2d3c 5e6f d8bc deeb a2bd 8336 69bd
00000370: 95fb c73c ee87 5d3d 1499 883a 12af c53b
00000380: 4d45 aa3b 6dda 8339 0c4d 72bd d063 b8bd
00000390: 45d5 0fbd 490c febc c527 b1bc a6e8 36bc
000003a0: 484c 5e3b d022 65bc 4b9b 9fbd 6cbd 2ebd
000003b0: 9a26 87bd 974c 2abd e548 fcbc 58fd 28bd
000003c0: 2854 e43b 9f1b dd3c 9935 5c3c 6ec4 80bc
000003d0: d7cc 30bc c1c5 cbbc f372 1bbd 3d00 0abd
000003e0: 6e83 b7bc fbb9 52bd f188 45bd 64dd 0fbd
000003f0: 7269 f13c cab1 f03c 587d 30bd 44dc 5f3d

module.layer1.0.bn2.weight f4 [16]
0.50057703 0.53216434 0.6187737 0.56993234 0.40114948 0.8089719 0.78407645 0.7689489
0.6758056 0.23655705 0.3983424 0.28004912 0.6044927 0.5710205 0.6003221 0.28714982
00000000: d125 003f ec3b 083f f467 1e3f 16e7 113f
00000010: 7763 cd3e c818 4f3f 3cb9 483f d6d9 443f
00000020: 9901 2d3f 033c 723e 89f3 cb3e 9962 8f3e
00000030: 09c0 1a3f 662e 123f b6ae 193f 4d05 933e

module.layer1.0.bn2.bias f4 [16]
-0.112145536 -0.008333125 0.03532388 -0.014232037 -0.0889317 -0.11642725 -0.0041028433 -0.05188981
-0.04038495 0.03168646 -0.22452952 0.15856183 -0.001950386 -0.02126265 0.063471355 0.17471693
00000000: 8fac e5bd a987 08bc c6af 103d 7d2d 69bc
00000010: d321 b6bd 6971 eebd 2571 86bb 698a 54bd
00000020: b06a 25bd a9c9 013d 11eb 65be 085e 223e
00000030: 18a4 ffba 022f aebc 45fd 813d ffe8 323e

module.layer1.0.bn2.running_mean f4 [16]
0.13895155 0.1628252 -0.011118452 -0.16806346 -0.061724007 -0.08912605 -0.013402678 -0.012192808
-0.16671605 -0.051953394 -0.01852365 -0.34428027 0.09126754 -0.061182506 -0.21910363 -0.32647362
00000000: 5149 0e3e a6bb 263e 2b2a 36bc d418 2cbe
00000010: 50d2 7cbd b887 b6bd e896 5bbc 58c4 47bc
00000020: 9db7 2abe 15cd 54bd e9be 97bc 8145 b0be
00000030: 7aea ba3d 829a 7abd b45c 60be 8d27 a7be

module.layer1.0.bn2.running_var f4 [16]
0.041115593 0.06272487 0.23130865 0.13625872 0.033731576 0.22888692 0.35583663 0.21639052
0.17851251 0.04186257 0.02662655 0.07486071 0.18045262 0.099885665 0.121600576 0.048768945
00000000: d368 283d e675 803d 2ddc 6c3e 6887 0b3e
00000010: 1f2a 0a3d 5561 6a3e 3830 b63e 7a95 5d3e
00000020: fccb 363e 1678 2b3d ec1f da3c 9250 993d
00000030: 92c8 383e db90 cc3d b909 f93d f2c1 473d

module.layer1.0.shortcut.0.weight f4 [16, 64, 1, 1]
-0.038929854 -0.07257273 -0.05785036 0.08050123 0.033022095 -0.036394764 -0.052059233 -0.18160911
-0.0053291004 -0.046712752 0.025668466 -0.028977856 0.074950315 -0.060320344 -0.2675548 -0.03727238
-0.048523225 -0.19582231 -0.021618145 0.047370464 -0.038068533 0.14409335 0.04713509 -0.06160719
-0.16924343 -0.1307695 -0.16728513 0.017764721 0.07843957 -0.020640697 -0.08602985 0.0006560268
-0.042470545 -0.08550337 0.008448069 -0.22574367 0.10763096 -0.31078866 -0.13324997 0.09209429
0.008517807 -0.023975562 -0.01693038 0.012580068 0.09551245 -0.08365309 0.0022486702 -0.08571116
0.03881985 -0.04427002 -0.09567105 -0.0052449703 0.10995024 -0.04097299 0.027975846 -0.07222559
-0.20701736 -0.13073145 -0.12372814 -0.003301353 0.06288709 0.0046802857 0.094440475 -0.090003334
0.017807124 0.038025934 0.012474805 0.04478239 0.09642899 0.002350414 0.008661028 -0.04698315
-0.00041753196 0.03702911 0.059957817 -0.054147996 0.019135652 -0.043738913 -0.0067197164 0.011269772
0.0025170117 0.052616533 0.004593107 -0.06101357 0.018991034 0.025679972 0.07729031 -0.062847905
0.04742217 -0.036372647 -0.010717602 0.038165465 0.033802263 0.028678443 0.012083047 0.0063293385
-0.018797684 0.10636389 0.054985717 0.06492211 -0.08399284 0.0250308 -0.083020456 0.11311004
0.10114735 0.0039477805 0.00862556 -0.09505013 0.09753115 -0.0014679577 0.03106667 -0.03918962
0.04470738 0.028105855 -0.034043815 0.049942236 0.058897022 0.0125606535 0.15614235 0.000718887
0.20725954 -0.13631381 0.015435578 0.050385024 -0.037525833 -0.0051349164 -0.08178712 0.01057338
0.0054121013 0.14488967 0.0050341766 0.004015153 -0.03433159 0.013513561 0.12570044 0.028325245
0.0045099724 -0.029996317 0.07827627 0.10889913 0.21928243 0.09644023 -0.057968326 0.011585176
-0.009539544 0.02114265 0.002692671 -0.04264809 0.014605465 -0.0605853 -0.1729945 0.017461227
-0.09591356 0.004462959 -0.00040545088 0.13302949 -0.07455045 -0.0073299306 -0.02260717 -0.008785288
0.029909868 0.04265047 -0.010899918 0.007720219 -0.057670586 0.06672982 0.08912287 -0.35338655
-0.16517138 -0.0003233686 0.028783549 0.03622171 0.08013981 0.036461156 -0.0006802436 0.013730574
0.03520223 -0.0805245 -0.011712884 -0.10590395 -0.13775408 0.02819575 -0.062412553 0.097018935
-0.1355316 -0.047512405 -0.047567684 -0.045491148 -0.08430509 -0.0011763544 -0.062358756 0.040256344
-0.0483577 -0.30177084 0.09523725 -0.0085712 0.0033731987 0.102731034 0.0798697 -0.07387583
-0.0041355044 0.17789932 -0.04261597 0.025223345 0.031397212 0.012230744 -0.04266671 0.036530394
0.09773033 -0.10517037 0.0119038 -0.010916473 -0.00927095 0.041139398 0.018584313 0.022949383
-0.093253024 0.009236144 -0.0005372623 0.089350685 -0.037189007 -0.05305844 0.023036212 -0.0071626236
-0.020543259 0.04667445 0.042330235 -0.027678477 -0.0858997 -0.15378639 -0.12349921 -0.071283944
-0.03396041 0.02571608 0.029250305 -0.12985732 -0.0038486712 -0.058474574 0.011244694 -0.06321926
-0.07320475 -0.31241462 -0.01157933 -0.22960967 -0.138553 -0.02846398 -0.0033203964 0.10554017
0.06848516 -0.0609541 -0.029977579 0.02595026 -0.024092145 0.015018799 -0.028188402 -0.11218768
00000000: e974 1fbd 03a1 94bd 80f4 6cbd d4dd a43d
00000010: 2d42 073d ad12 15bd 103c 55bd bdf7 39be
00000020: bc9f aebb df55 3fbd ad46 d23c f862 edbc
00000030: 8d7f 993d 7712 77bd f1fc 88be ecaa 18bd
00000040: 4ac0 46bd a585 48be 8918 b1bc 8807 423d
00000050: c0ed 1bbd 358d 133e b910 413d d257 7cbd
00000060: 264e 2dbe 71e8 05be cb4c 2bbe 5287 913c
00000070: eda4 a03d ae16 a9bc 6b30 b0bd 37f9 2b3a
00000080: 98f5 2dbd 641c afbd c569 0a3c 5929 67be
00000090: 9f6d dc3d b11f 9fbe ae72 08be ee9b bc3d
000000a0: 468e 0b3c 6668 c4bc 95b1 8abc a11c 4e3c
000000b0: 089c c33d 5052 abbd 6d5e 133b 5589 afbd
000000c0: 9001 1f3d 7b54 35bd 2fef c3bd 00de abbb
000000d0: 972d e13d 4bd3 27bd 9a2d e53c 03eb 93bd
000000e0: 5cfc 53be 77de 05be 2e65 fdbd 835b 58bb
000000f0: f2ca 803d 155d 993b 026a c13d ab53 b8bd
00000100: 3fe0 913c 15c1 1b3d 2063 4c3c bd6d 373d
00000110: 907c c53d 6709 1a3b fce6 0d3c 6771 40bd
00000120: 31e8 dab9 d6ab 173d 5496 753d 4aca 5dbd
00000130: 5fc2 9c3c 9327 33bd 1131 dcbb daa4 383c
00000140: 73f4 243b 6f84 573d c681 963b 5de9 79bd
00000150: 1693 9b3c ce5e d23c 624a 9e3d 67b6 80bd
00000160: c03d 423d 7cfb 14bd e298 2fbc 6453 1c3d
00000170: 3e74 0a3d 0eef ea3c f9f7 453c 5766 cf3b
00000180: 9afd 99bc 50d5 d93d b438 613d e2f5 843d
00000190: 7004 acbd 640d cd3c a106 aabd 3da6 e73d
000001a0: 5826 cf3d 625c 813b 3952 0d3c a4a9 c2bd
000001b0: 69be c73d 7d68 c0ba 877f fe3c 4c85 20bd
000001c0: 161f 373d 403e e63c 8771 0bbd 3b90 4c3d
000001d0: 013e 713d 33cb 4d3c c8e3 1f3e b173 3c3a
000001e0: d83b 543e d995 0bbe 82e5 7c3c 8760 4e3d
000001f0: b0b4 19bd cd42 a8bb 0180 a7bd f83b 2d3c
00000200: ff57 b13b f55d 143e bcf5 a43b 8b91 833b
00000210: 489f 0cbd fc67 5d3c 9eb7 003e 580a e83c
00000220: 64c8 933b d6ba f5bc 4f4f a03d 8206 df3d
00000230: 938b 603e 7582 c53d 3270 6dbd c0cf 3d3c
00000240: bf4b 1cbc 5a33 ad3c 8677 303b c3af 2ebd
00000250: c34b 6f3c 4b28 78bd 7825 31be d90a 8f3c
00000260: 546e c4bd 033e 923b b292 d4b9 e238 083e
00000270: e8ad 98bd ea2f f0bb ac32 b9bc 2bf0 0fbc
00000280: 8a05 f53c 42b2 2e3d 9295 32bc e4f9 fc3b
00000290: fe37 6cbd a5a9 883d 0d86 b63d 15ef b4be
000002a0: b022 29be cc89 a9b9 7acb eb3c 375d 143d
000002b0: 5720 a43d 4b58 153d 6052 32ba 34f6 603c
000002c0: 3730 103d 07ea a4bd 65e7 3fbc 2ce4 d8bd
000002d0: 680f 0dbe c6fa e63c 4ea4 7fbd ddb1 c63d
000002e0: ccc8 0abe 5e9c 42bd 55d6 42bd ed54 3abd
000002f0: 26a8 acbd e72f 9aba e56b 7fbd d6e3 243d
00000300: b912 46bd b581 9abe bf0b c33d 386e 0cbc
00000310: e210 5d3b a664 d23d ba92 a33d 364c 97bd
00000320: 2083 87bb 3d2b 363e 158e 2ebd 30a1 ce3c
00000330: 5d9a 003d 7563 483c 4ac3 2ebd e5a0 153d
00000340: d726 c83d 9063 d7bd 2808 433c 02db 32bc
00000350: 2fe5 17bc c981 283d 213e 983c 5800 bc3c
00000360: 71fb bebd 3253 173c 10d7 0cba 7efd b63d
00000370: 8053 18bd cf53 59bd 70b6 bc3c 71b4 eabb
00000380: 564a a8bc b52d 3f3d 7862 2d3d f9bd e2bc
00000390: 2fec afbd 2e7a 1dbe 27ed fcbd 51fd 91bd
000003a0: 121a 0bbd 87aa d23c 569e ef3c 51f9 04be
000003b0: fd39 7cbb 0983 6fbd aa3b 383c 1979 81bd
000003c0: 5fec 95bd cff4 9fbe 3bb7 3dbc cc1e 6bbe
000003d0: d6e0 0dbe 4b2d e9bc 029b 59bb 7225 d83d
000003e0: f341 8c3d 02ab 79bd 8a93 f5bc a495 d43c
000003f0: e45c c5bc 6911 763c 5deb e6bc a8c2 e5bd

module.layer1.0.shortcut.1.weight f4 [16]
0.44194132 0.3374078 0.22135474 0.27041945 0.34715402 0.13586552 -0.02970931 0.03102847
0.2093452 0.37027046 0.30161238 0.34923747 0.33094466 0.4550803 0.19683738 0.38207197
00000000: 2246 e23e b7c0 ac3e d1aa 623e 6b74 8a3e
00000010: 2cbe b13e 5520 0b3e f060 f3bc 6b2f fe3c
00000020: 975e 563e 1794 bd3e f06c 9a3e 41cf b23e
00000030: 9471 a93e 4900 e93e bd8f 493e f09e c33e

module.layer1.0.shortcut.1.bias f4 [16]
-0.112145536 -0.008333125 0.03532388 -0.014232037 -0.0889317 -0.11642725 -0.0041028433 -0.05188981
-0.04038495 0.03168646 -0.22452952 0.15856183 -0.001950386 -0.02126265 0.063471355 0.17471693
00000000: 8fac e5bd a987 08bc c6af 103d 7d2d 69bc
00000010: d321 b6bd 6971 eebd 2571 86bb 698a 54bd
00000020: b06a 25bd a9c9 013d 11eb 65be 085e 223e
00000030: 18a4 ffba 022f aebc 45fd 813d ffe8 323e

module.layer1.0.shortcut.1.running_mean f4 [16]
-0.16542181 0.075147636 -0.07073028 -0.1270672 -0.058178842 -0.08713718 -0.051029768 -0.0016939136
-0.054581694 0.04856088 0.13550796 -0.3057401 -0.17600103 0.027176619 -0.13855822 -0.3199206
00000000: 5664 29be 01e7 993d 09db 90bd e71d 02be
00000010: f04c 6ebd fa74 b2bd 9704 51bd 4f06 deba
00000020: 0e91 5fbd c6e7 463d 99c2 0a3e f789 9cbe
00000030: 9d39 34be 80a1 de3c 35e2 0dbe a2cc a3be

module.layer1.0.shortcut.1.running_var f4 [16]
0.028858101 0.013999657 0.055617254 0.042789605 0.016863028 0.017545642 0.006514944 0.0061743427
0.030564217 0.027647462 0.011691361 0.056676477 0.0586392 0.046358034 0.026973508 0.037374426
00000000: d367 ec3c d15e 653c ebce 633d 2744 2f3d
00000010: 5524 8a3c e1bb 8f3c 507b d53b 2452 ca3b
00000020: cf61 fa3c ee7c e23c 1f8d 3f3c 9825 683d
00000030: a82f 703d ece1 3d3d 8cf7 dc3c ed15 193d

module.layer2.0.conv1.weight f4 [32, 16, 3, 3]
-0.082163475 0.033003133 0.14472876 -0.07599747 -0.12916756 -0.047139864 -0.002359199 -0.07397501
-0.14529362 -0.04241868 -0.03389443 -0.008392716 -0.01109389 -0.041429233 -0.05269892 -0.022135837
-0.033388194 -0.05796583 0.049877256 0.059440207 -0.07982383 -0.008753707 0.04726675 0.06702148
-0.091201596 0.004355598 0.13510752 0.047595568 0.14060731 0.08296781 -0.011510131 0.0389526
0.17523691 -0.03935344 -0.050338823 0.07346068 0.018947857 0.06850579 0.063912086 0.04148287
0.027922627 0.018908456 0.06145622 0.06711574 0.023765685 0.18235937 0.23597485 0.11446114
0.18581216 0.31196168 0.26293316 0.10937119 0.21651575 0.16968365 -0.08028484 -0.15517168
-0.0831278 -0.060348157 -0.11140278 -0.025880704 -0.02760359 0.0019052956 0.050593745 0.005601617
0.029141404 -0.0054515796 -0.03408525 0.010391373 0.02666205 -0.045364965 0.023108494 0.10460147
-0.15905525 -0.19925521 -0.09351803 -0.22535512 -0.27774316 -0.18794324 -0.08805403 -0.17603752
-0.13256642 -0.0019009764 -0.013717255 0.016230911 -0.044789802 -0.023337431 0.024618668 0.010666127
0.014057981 0.034484155 0.06480949 0.024446646 -0.008204184 0.03682153 0.054360695 -0.0029858204
-0.060403988 0.050088592 0.05886951 0.05319956 -0.03791956 -0.113740735 0.14907342 0.07689088
-0.086247124 0.04325293 0.06245157 -0.062172376 -0.15661676 -0.22240798 -0.12703575 -0.009412279
-0.14391908 -0.1520965 0.068447426 0.066516235 -0.019869974 0.19218813 0.02320622 -0.08185034
0.1674775 0.094440416 -0.00039990526 0.06648204 0.073984414 0.038181882 0.013740674 -0.009722906
-0.017921168 0.056570068 0.014741886 0.0151070375 0.030702721 0.038128816 -0.005052348 -0.071837455
-0.02664513 0.11456735 -0.11516217 -0.11294965 0.05789464 -0.0021200045 -0.1380497 -0.037091214
0.06315637 0.011667695 -0.04294969 -0.017540023 -0.04508255 -0.056212146 0.0014975106 -0.025008122
-0.04112146 0.043709073 -0.09828839 -0.032931283 0.068942614 -0.053551357 0.013914398 0.10735317
-0.032959253 0.039896987 0.06526386 0.037322566 0.056830704 0.0804148 0.07976597 0.10722792
0.06829616 0.13041395 0.11230611 -0.08402032 -0.16578688 -0.09109662 -0.0037718343 -0.124973536
-0.17525575 0.049238186 -0.027321082 -0.063699394 0.059979808 0.10189256 0.062276624 0.04686175
0.0722622 0.05529137 0.08858364 0.13034448 0.037919916 0.038383424 -0.012837672 -0.122755736
0.09720142 -0.10537411 -0.11642639 0.030649459 -0.04717245 -0.005172351 0.06848498 -0.05032723
-0.08534774 0.10424982 0.032691117 -0.105565414 0.1600261 0.20348677 0.050643604 -0.09719727
-0.20121327 -0.13562794 -0.16088483 -0.2546717 -0.2607153 -0.14121678 -0.19485644 -0.14378062
-0.08123264 -0.051990345 -0.02571597 -0.071872704 -0.011479491 0.0012415695 -0.017097384 0.012321725
0.0034218554 -0.07287833 -0.0052308477 -0.02475237 -0.06290984 0.018517645 0.033831146 -0.008199504
0.07628591 0.06787767 0.041990574 -0.02460584 -0.05619271 0.04302573 -0.02735621 -0.030605854
0.0031490736 -0.08159794 -0.081856884 -0.08799184 0.07037454 0.017290095 -0.07030558 0.05671504
0.031454846 -0.08844417 0.038585685 0.015044465 -0.14676584 -0.10466142 -0.12664118 -0.14402187
00000000: 5345 a8bd 4b2e 073d c733 143e 90a4 9bbd
00000010: 8044 04be bb15 41bd cb9c 1abb 3680 97bd
00000020: dac7 14be 36bf 2dbd e3d4 0abd 9a81 09bc
00000030: 26c3 35bc b3b1 29bd d3da 57bd 3756 b5bc
00000040: 0fc2 08bd 946d 6dbd 184c 4c3d 9377 733d
00000050: ad7a a3bd b56b 0fbc c89a 413d 8f42 893d
00000060: e7c7 babd 67b9 8e3b a059 0a3e 92f3 423d
00000070: 5dfb 0f3e 07eb a93d fd94 3cbc c38c 1f3d
00000080: 4e71 333e 1331 21bd 1530 4ebd 8e72 963d
00000090: 8938 9b3c c34c 8c3d 57e4 823d f1e9 293d
000000a0: febd e43c e8e5 9a3c 84b9 7b3d fa73 893d
000000b0: 41b0 c23c 6abc 3a3e 64a3 713e 9a6a ea3d
000000c0: 8b45 3e3e 71b9 9f3e 2d9f 863e 01fe df3d
000000d0: 4eb6 5d3e 8dc1 2d3e 616c a4bd 53e5 1ebe
000000e0: e83e aabd a12f 77bd 2427 e4bd c503 d4bc
000000f0: ed20 e2bc 1dbb f93a 633b 4f3d c58d b73b
00000100: f4b9 ee3c 2aa3 b2bb fa9c 0bbd 9440 2a3c
00000110: 5f6a da3c 9dd0 39bd 064e bd3c 4c39 d63d
00000120: 61df 22be 8f09 4cbe 6286 bfbd 7ec3 66be
00000130: 5a34 8ebe 3174 40be ac55 b4bd 2e43 34be
00000140: 7ebf 07be 2f2a f9ba 56be 60bc b0f6 843c
00000150: 8375 37bd 242e bfbc 17ad c93c fbc0 2e3c
00000160: 7253 663c 423f 0d3d d7ba 843d 5544 c83c
00000170: d76a 06bc 2cd2 163d 52a9 5e3d c1ad 43bb
00000180: 2c6a 77bd b229 4d3d 2821 713d c8e7 593d
00000190: 8a51 1bbd e7f0 e8bd b4a6 183e f778 9d3d
000001a0: 55a2 b0bd fc29 313d 38cd 7f3d 76a8 7ebd
000001b0: 2560 20be ebbe 63be a915 02be f635 1abc
000001c0: 865f 13be 2fbf 1bbe 2a2e 8c3d aa39 883d
000001d0: 5bc6 a2bc f7cc 443e f81a be3c 27a1 a7bd
000001e0: 397f 2b3e fa69 c13d 60aa d1b9 bc27 883d
000001f0: 2485 973d 9b64 1c3d 9020 613c d34c 1fbc
00000200: 6acf 92bc 04b6 673d f487 713c 8283 773c
00000210: 4684 fb3c f62c 1c3d 2b8e a5bb 841f 93bd
00000220: e346 dabc 49a2 ea3d 25da ebbd 2552 e7bd
00000230: ee22 6d3d c6ef 0abb e75c 0dbe f5ec 17bd
00000240: 2058 813d dc29 3f3c 04ec 2fbd 18b0 8fbc
00000250: 7ba8 38bd b53e 66bd 1e48 c43a d5dd ccbc
00000260: fa6e 28bd 4908 333d 6c4b c9bd f4e2 06bd
00000270: c931 8d3d ab58 5bbd 37f9 633c fbdb db3d
00000280: 4800 07bd 066b 233d 0fa9 853d 8cdf 183d
00000290: 50c7 683d 84b0 a43d 575c a33d 509a db3d
000002a0: dbde 8b3d 3c8b 053e bf00 e63d d812 acbd
000002b0: 09c4 29be dd90 babd e130 77bb 20f2 ffbd
000002c0: 3e76 33be fbad 493d 76d0 dfbc d474 82bd
000002d0: 63ad 753d 0cad d03d c615 7f3d 1bf2 3f3d
000002e0: 34fe 933d 3479 623d 576b b53d 0679 053e
000002f0: ea51 1b3d f037 1d3d 1955 52bc 5c67 fbbd
00000300: 8a11 c73d 62ce d7bd f670 eebd 9314 fb3c
00000310: e637 41bd d37c a9bb da41 8c3d ed23 4ebd
00000320: ccca aebd ee80 d53d 1fe7 053d ae32 d8bd
00000330: e2dd 233e d65e 503e ab6f 4f3d 5d0f c7bd
00000340: da0a 4ebe 0de2 0abe febe 24be 5464 82be
00000350: 7a7c 85be 229b 10be 7288 47be 3a3b 13be
00000360: 4c5d a6bd d4f3 54bd 4caa d2bc ff31 93bd
00000370: 7a14 3cbc 29bc a23a d00f 8cbc 0fe1 493c
00000380: 3541 603b 3c41 95bd 8867 abbb 7bc5 cabc
00000390: e0d6 80bd 51b2 973c 8792 0a3d 3657 06bc
000003a0: ca3b 9c3d 7303 8b3d 4ffe 2b3d 3092 c9bc
000003b0: 542a 66bd bf3b 303d 211a e0bc 21b9 fabc
000003c0: b060 4e3b d21c a7bd 95a4 a7bd 1135 b4bd
000003d0: 8720 903d f5a3 8d3c 5ffc 8fbd 084e 683d
000003e0: ccd6 003d 3822 b5bd 060c 1e3d 0f7d 763c
000003f0: c949 16be ba58 d6bd 3aae 01be 787a 13be

module.layer2.0.bn1.weight f4 [32]
0.39442304 0.5433836 0.48545572 0.48076284 0.38353962 0.38783193 0.45725602 0.399133
0.38753203 0.42372188 0.38111752 0.43847206 0.41744727 0.4533521 0.38107482 0.38299042
0.4074662 0.3097651 0.3878577 0.49400544 0.41286337 0.36167076 0.32735923 0.5145272
0.44457018 0.47481865 0.40830785 0.3973712 0.35985884 0.39209548 0.63607234 0.36141235
00000000: d1f1 c93e 301b 0b3f a78d f83e 8c26 f63e
00000010: 4e5f c43e e891 c63e 761d ea3e 295b cc3e
00000020: 996a c63e 13f2 d83e d621 c33e 697f e03e
00000030: a6bb d53e c41d e83e 3d1c c33e 5217 c43e
00000040: 699f d03e 8899 9e3e 4995 c63e 48ee fc3e
00000050: d462 d33e e92c b93e a19b a73e 0eb8 033f
00000060: b49e e33e 6e1b f33e ba0d d13e 3d74 cb3e
00000070: 6b3f b83e bdc0 c83e a3d5 223f 0a0b b93e

module.layer2.0.bn1.bias f4 [32]
-0.057941936 -0.14300779 -0.19464454 -0.17748256 0.053950332 0.044939574 -0.09553715 -0.123438574
-0.18120468 -0.1616882 -0.1599812 -0.11507448 -0.14975953 -0.044214323 0.06195653 -0.04111353
0.14213847 0.17542285 -0.12355304 -0.16695623 0.10572316 -0.10537982 0.15716285 -0.085328706
-0.122493505 -0.19552122 -0.24841696 -0.057642393 -0.045351494 0.16431916 -0.2146078 -0.0586621
00000000: 8654 6dbd a270 12be e650 47be fdbd 35be
00000010: 06fb 5c3d 8f12 383d fba8 c3bd 5dcd fcbd
00000020: b88d 39be 9791 25be 1dd2 23be 2bac ebbd
00000030: 905a 19be 141a 35bd 21c6 7d3d a966 28bd
00000040: bf8c 113e 0ca2 333e 6009 fdbd 93f6 2abe
00000050: 6285 d83d 60d1 d7bd 4cef 203e d1c0 aebd
00000060: e0dd fabd b736 48be 0461 7ebe 6e1a 6cbd
00000070: 7dc2 39bd 4843 283e 26c2 5bbe ac47 70bd

module.layer2.0.bn1.running_mean f4 [32]
-0.108386174 -0.41616076 -0.36103374 -0.0566669 -0.14332671 -0.39165768 -0.40139404 -0.04837198
1.3176637 -0.28027382 0.08376547 -0.13881707 -0.25342476 -0.47353432 -0.42752028 0.0072894064
-0.6092287 -0.17127404 -0.042085774 -0.30934554 -0.56896114 0.54066914 -0.13203537 -0.72508293
-0.21274936 -0.18914686 -0.25913778 -0.28517795 -0.46923652 -0.37791246 -0.85857385 0.29833245
00000000: 92f9 ddbd 0613 d5be 6ad9 b8be 8d1b 68bd
00000010: 3dc4 12be 5b87 c8be 8583 cdbe b321 46bd
00000020: 34a9 a83f 0d80 8fbe 3b8d ab3d 1026 0ebe
00000030: e4c0 81be 1773 f2be f0e3 dabe f9db ee3b
00000040: 69f6 1bbf 7662 2fbe 2262 2cbd 8a62 9ebe
00000050: 70a7 11bf 4b69 0a3f 4834 07be 099f 39bf
00000060: f8da 59be b7af 41be b5ad 84be d802 92be
00000070: c53f f0be be7d c1be 7fcb 5bbf 08bf 983e

module.layer2.0.bn1.running_var f4 [32]
0.30775174 0.29514554 0.42357087 0.23203063 0.3666071 0.28948924 0.36939612 0.4177232
0.536261 0.40705568 0.24333704 0.4360236 0.3170641 0.3939412 0.34312633 0.42502305
0.39224625 0.2967515 0.22523244 0.2690947 0.5438619 0.41337243 0.21642798 0.3574258
0.45696726 0.32671914 0.2730578 0.38656244 0.29040742 0.5039083 0.4477358 0.38229373
00000000: a391 9d3e 511d 973e 48de d83e 7099 6d3e
00000010: edb3 bb3e ef37 943e 7d21 bd3e d1df d53e
00000020: 6748 093f 9a69 d03e 582d 793e 7c3e df3e
00000030: 3a56 a23e a9b2 c93e 41ae af3e 9f9c d93e
00000040: 80d4 c83e d0ef 973e 55a3 663e c8c6 893e
00000050: 893a 0b3f 8da5 d33e 4c9f 5d3e 8400 b73e
00000060: 9df7 e93e bb47 a73e 3bce 8b3e 83eb c53e
00000070: 48b0 943e 2200 013f a03d e53e 01bc c33e
