results/HHfj/cifar10/nokd/resnet8_best.pth.tar (torch_old, 371448 bytes, 52 tensors)

module.conv1.weight f4 [64, 3, 3, 3]
0	0xbc242197	-0.010017774
1	0x3cd5a6cd	0.026080513
2	0x3c224262	0.009903522
3	0x3da7c2cb	0.08191451
4	0x3db979f7	0.09056466
5	0x3da01753	0.07816949
6	0xbcf2bb1e	-0.02963024
7	0xbdcf611b	-0.10125943
8	0xbd4cccc7	-0.04999998
9	0xbcb79bb1	-0.022413107
10	0xbcc2b5ef	-0.023768393
11	0xbd4a4d28	-0.04938999
12	0x3d8236f4	0.06358138
13	0x3d25c5d6	0.040471874
14	0x3b84c22d	0.004051468
15	0xbc7f0c06	-0.015566831
16	0xbdc8f862	-0.09813
17	0xbd6f3162	-0.058396704
18	0x3d275dee	0.040861063
19	0x3cc2dc75	0.023786763
20	0xbb637563	-0.003470742
21	0x3d8b61ef	0.06805789
22	0x3c281147	0.0102580255
23	0xbce505d0	-0.027956873
24	0xbbdd9026	-0.0067615686
25	0xbdf91dc4	-0.121638805
26	0xbda5932a	-0.0808471
27	0xbd4e2d8e	-0.050336413
28	0x3dca9fca	0.098937586
29	0xbc401e95	-0.011726041
30	0xbe52a568	-0.2057091
31	0x3e156ad7	0.14591537
32	0x3bfeaa87	0.0077717933
33	0xbccb10e9	-0.024788337
34	0x3e04e7cd	0.1297905
35	0xbdcf1df8	-0.10113138
36	0xbdc5e6ba	-0.09663148
37	0x3de121c4	0.109927684
38	0x3ce8f48e	0.028436925
39	0xbe874e66	-0.26427
40	0x3e2ed20b	0.17072313
41	0x3d6c2df6	0.05766102
42	0xbd8997f5	-0.06718437
43	0x3e2e05ab	0.1699435
44	0xbccc42e2	-0.024934236
45	0xbdaead1e	-0.08529113
46	0x3d6ddc33	0.058071326
47	0xbcd78028	-0.026306227
48	0xbe845d04	-0.25852215
49	0x3e1d1887	0.15341388
50	0x3da463fe	0.080268845
51	0xbe0a670e	-0.13515875
52	0x3e217176	0.15765938
53	0xbb22781a	-0.0024790824
54	0xbd016062	-0.03158606
55	0xb7a9187a	-2.0157768e-05
56	0xbc5096ed	-0.012731296
57	0xbd10c9d2	-0.03534872
58	0x3c7e3c2b	0.015517275
59	0x3c64e5ea	0.013970831
60	0xbc4798b3	-0.012182402
61	0x391fb218	0.00015229767
62	0xbc6fe065	-0.014640902
63	0xbd19729e	-0.037462823
64	0x3c8b159d	0.01697808
65	0x3b6498a9	0.0034881032
66	0xbd131752	-0.03591091
67	0x3d232351	0.039828602
68	0x3d1c9e98	0.038237184
69	0xbca9bfc6	-0.020721328
70	0x3c2ec32b	0.010666649
71	0xbb324ccb	-0.0027206417
72	0xbc4f237a	-0.012642736
73	0x3d401c71	0.046902124
74	0x3d059d74	0.032620862
75	0x3bcfaf4a	0.0063380348
76	0x3d9f88e7	0.07789784
77	0x3d914e0d	0.07094965
78	0x3c70717c	0.014675494
79	0x3d33f0e2	0.043930896
80	0x3ceedea9	0.029158907
81	0xbe0eddb0	-0.13951755
82	0xbd1464ac	-0.03622882
83	0x3e15eb54	0.14640552
84	0xbcc09968	-0.02351065
85	0x3e037f5b	0.12841551
86	0x3dfd619e	0.123721346
87	0x3b98599e	0.004649355
88	0xbe3442b2	-0.17603567
89	0xbe100782	-0.14065364
90	0xbd12aec2	-0.035811193
91	0x3bc45f51	0.005992808
92	0x3dc3a1f0	0.095523715
93	0x3dc39224	0.095493585
94	0x3e64cf66	0.22344741
95	0x3dd1ff05	0.10253719
96	0xba9d37ab	-0.001199474
97	0xbe252b98	-0.16129911
98	0xbe3c4e20	-0.18389177
99	0xbcec1b58	-0.028821632
100	0xbd97bde5	-0.074092664
101	0x3ca95008	0.020668045
102	0x3dcd911b	0.10037442
103	0x3e1116c6	0.14168844
104	0x3cdf5172	0.027260516
105	0x3d4139b3	0.047174167
106	0xbdda6f06	-0.10665707
107	0xbe2b1bd4	-0.16709834
108	0x3cf88d98	0.030340955
109	0xbda54e00	-0.08071518
110	0x3d27273f	0.040808912
111	0x3c656d3c	0.014003094
112	0xbdd31e8f	-0.10308563
113	0x3d1d1524	0.03835024
114	0x3cab49af	0.020909159
115	0x3c37f085	0.011226778
116	0x3d922a42	0.07136966
117	0x3d2b0a69	0.041757975
118	0xbd88603d	-0.06658981
119	0x3d1b1dd2	0.037870236
120	0x3b08f69c	0.0020898944
121	0xbde10a08	-0.109882414
122	0x3c01cb1e	0.007921962
123	0xbc2ccb7b	-0.01054656
124	0xbcefe43e	-0.029283639
125	0x3bf4898f	0.0074626873
126	0x3d21b1ba	0.039476134
127	0xbd54fd76	-0.05199953
128	0x3d07edd7	0.033185806
129	0x3c212ee8	0.0098378435
130	0xbdbfd779	-0.0936727
131	0x3bc273a6	0.0059341965
132	0xbbd25710	-0.00641907
133	0xbd1c84dd	-0.038212646
134	0xbc3f6ea2	-0.011684092
135	0x3cb649ef	0.022252051
136	0x3b6140ea	0.0034370967
137	0x3bc7cdcb	0.0060975305
138	0x3ca7eeb3	0.020499563
139	0x3cc3f4be	0.023920413
140	0x3ce17581	0.02752185
141	0x3ca2cfcf	0.019874481
142	0x3d2bfe94	0.04199083
143	0x3d1d8bb7	0.03846332
144	0xbc94dfd3	-0.018173134
145	0xbd197561	-0.037465457
146	0xbd224022	-0.039611943
147	0xbc2791b3	-0.0102276085
148	0xbc2df4d4	-0.010617454
149	0xbc7b4c63	-0.015338036
150	0xbc05512c	-0.008137029
151	0x3c0e26fa	0.008676285
152	0xbb8f8370	-0.0043796822
153	0xbb78a10a	-0.0037937784
154	0xbcd8d5f9	-0.026469218
155	0xbd51b101	-0.051194195
156	0x3cdae3bf	0.026719926
157	0x3ca4ff4d	0.020141268
158	0xbc618bb0	-0.013766214
159	0x3cc473e0	0.023981035
160	0x3d0a2d91	0.03373486
161	0xba8adb5a	-0.0010593936
162	0x3cdd1811	0.026989015
163	0xbc80ddf5	-0.015730837
164	0xbc4c6115	-0.012474318
165	0x3d832a20	0.06404519
166	0xbd2623d5	-0.040561516
167	0xbd4ce198	-0.05001983
168	0x3cd7b7d6	0.026332777
169	0xbd398753	-0.04529507
170	0xbd247cc4	-0.04015805
171	0x3d3e2d27	0.04642978
172	0xbcd750cb	-0.026283642
173	0xbd3973a1	-0.045276288
174	0x3de161cd	0.11004982
175	0xbcf67f46	-0.030089986
176	0xbd84fcdb	-0.06493541
177	0x3db6c6ea	0.089246586
178	0xbb692f02	-0.0035580997
179	0xbcaa46b6	-0.02078567
180	0x3d94330a	0.072362974
181	0xbc2d6222	-0.010582479
182	0xbd4aa353	-0.049472164
183	0x3dffe964	0.124956876
184	0xbd113bf8	-0.03545758
185	0xbde5bdb9	-0.11217827
186	0x3ddc564c	0.10758647
187	0xbc87bba1	-0.01656896
188	0xbda1c0bd	-0.0789809
189	0x3d16fc13	0.03686149
190	0x3d6f5ffe	0.058441155
191	0x3d265fe1	0.04061878
192	0x3cd013a5	0.025399992
193	0x3cf3b50e	0.02974942
194	0x3b5221c4	0.0032063583
195	0xbd4033fd	-0.04692458
196	0xbd2166cb	-0.03940467
197	0xbd873fe9	-0.06603987
198	0xbc350eba	-0.011050874
199	0xbd47146d	-0.048603464
200	0xbcd39e52	-0.025832329
201	0x3b2a1fd5	0.0025958915
202	0xbcdb0baa	-0.02673896
203	0xbc0dd411	-0.008656518
204	0x3d035f97	0.032073583
205	0x3ce16eed	0.027518714
206	0x3cc7e65e	0.02440184
207	0xbd8f101c	-0.069854945
208	0xbd921016	-0.071319744
209	0xbd09fad9	-0.033686493
210	0xbd1f5986	-0.038903736
211	0xbc83d7d0	-0.016094118
212	0x3cb53dd7	0.022124214
213	0x3d0a8acf	0.033823784
214	0x3d8a9dc8	0.06768376
215	0x3d8ee8eb	0.06978019
216	0xbd494aa1	-0.049143437
217	0xbd51b966	-0.0512022
218	0xbd00ad24	-0.03141512
219	0x3d31eea1	0.043440465
220	0x3d6dd7e5	0.05806722
221	0x3d669796	0.056296907
222	0x3a8d7f76	0.0010795433
223	0x3b00b4d3	0.001963903
224	0xbb774cb3	-0.0037734925
225	0xbd447e55	-0.047972042
226	0xbd7a01b1	-0.06103677
227	0xbd1ffd16	-0.03905972
228	0x3d0594d5	0.03261264
229	0x3d0d95ca	0.034566678
230	0x3d1ff941	0.039056066
231	0xbb191177	-0.0023356357
232	0xbc4aab14	-0.01236989
233	0xbc50adfb	-0.012736793
234	0xbd42175a	-0.04738555
235	0xbd522ed5	-0.051314194
236	0xbd2f9cd9	-0.04287419
237	0x3d38b59c	0.04509507
238	0x3d4bde0a	0.0497723
239	0x3d1d5508	0.03841117
240	0x3c806633	0.015673732
241	0x3c544fd9	0.01295849
242	0xbba93caf	-0.0051647048
243	0x3cfe7b97	0.031064792
244	0x3d7f9045	0.062393446
245	0x3d681ec2	0.056669958
246	0x3d126b02	0.03574658
247	0x3d955c33	0.07292976
248	0x3d8ccf38	0.06875461
249	0x3cc73dc5	0.024321446
250	0x3d58eb9c	0.05295907
251	0x3d2f41e9	0.042787466
252	0x3b66c61a	0.0035213293
253	0xbd3e136f	-0.046405252
254	0xbd27e37f	-0.04098844
255	0xbce48937	-0.02789746

module.bn1.weight f4 [64]
0	0x3e832078	0.2561071
1	0x3e660e49	0.22466387
2	0x3e2e14bd	0.17000099
3	0x3e4263b2	0.18983343
4	0x3e55bbe5	0.20872457
5	0x3dc0961d	0.09403632
6	0x3dba510a	0.09097488
7	0x3dd0db79	0.10198111
8	0x3d9fb0d4	0.07797399
9	0x3d819357	0.06326931
10	0x3e2c592b	0.1683089
11	0x3e7ae4c2	0.24501327
12	0x3df0d61d	0.11759589
13	0x3e28fa3e	0.1650171
14	0x3dfb314b	0.12265261
15	0x3e2aa929	0.16666092
16	0x3e665afa	0.22495642
17	0x3a74e9bc	0.00093426905
18	0x3e2e2f7a	0.17010298
19	0x3df31f85	0.11871246
20	0x3e0f3a52	0.13987091
21	0x3e7a5f91	0.24450518
22	0x3dbb782c	0.0915378
23	0x3e2411f5	0.16022475
24	0x3e246c49	0.16056933
25	0x3e45f830	0.19332957
26	0x3e6ada5b	0.22934859
27	0x3e9be795	0.3045012
28	0x3e62e6aa	0.22158304
29	0x3dc7872b	0.09742578
30	0x3dd5bb6e	0.1043614
31	0x3dfd6df5	0.12374488
32	0x3e347bdf	0.17625378
33	0x3cc617e7	0.02418132
34	0x3e3dc4df	0.18532132
35	0x3dd3114b	0.10306033
36	0x3e38c58b	0.18044107
37	0x3a1971e2	0.00058534567
38	0x3e126f98	0.14300382
39	0x3e02f101	0.12787248
40	0x3dee56da	0.11637659
41	0x3d52547a	0.051350094
42	0x3e7ff39d	0.24995275
43	0x3e3af913	0.18259077
44	0x3da2cdd4	0.07949415
45	0x3dd1a1f9	0.10235972
46	0x3e84099a	0.25788575
47	0x3eacd9c7	0.337599
48	0x3e79b480	0.24385262
49	0x3e5aa4a6	0.21351871
50	0x3df320bf	0.1187148
51	0x3de0e082	0.109803215
52	0x3e216ffd	0.15765376
53	0x3ddf9e78	0.109188974
54	0x3e4bde3c	0.19908994
55	0x3e4a9b3f	0.19785784
56	0x3e960c53	0.29306278
57	0x3e05ee84	0.13079268
58	0x3e49217f	0.19641684
59	0x3e290152	0.1650441
60	0x3e3324cb	0.17494504
61	0x3e62a3ce	0.22132799
62	0x3e8473b8	0.25869536
63	0x3dae2d5b	0.085047446

module.bn1.bias f4 [64]
0	0xbe0fd65d	-0.14046617
1	0x3df0c56e	0.11756407
2	0xbe3fee95	-0.18743356
3	0x3d6e2d62	0.05814875
4	0xbe1b2a37	-0.15152822
5	0xbd9082a1	-0.070561655
6	0x3cf29172	0.02961037
7	0x3bdd12b5	0.006746615
8	0x3ce1f424	0.027582236
9	0xbc2ce249	-0.010551997
10	0x3d233788	0.03984788
11	0x3e7759f5	0.2415541
12	0x3d89dbf1	0.067314036
13	0x3e084250	0.13306546
14	0x3d25bdcf	0.04046422
15	0x3d81b5c4	0.06333497
16	0x3d2964cc	0.041355893
17	0xbb756d07	-0.0037449019
18	0x3e1b00c0	0.15137005
19	0x3d3400e2	0.043946154
20	0xbd68eecf	-0.05686837
21	0xbcd3e636	-0.025866609
22	0x3d269b00	0.040675163
23	0x3e183aea	0.14866224
24	0x3cfd6154	0.030930199
25	0xbe43a524	-0.19105965
26	0x3e8e27bc	0.2776469
27	0x3d896a6b	0.06709751
28	0x3df619de	0.120166525
29	0xbd627944	-0.05529143
30	0xbd36c2f2	-0.044619508
31	0x3d9bb831	0.07603491
32	0xbdc6ad98	-0.09701079
33	0xbd28950d	-0.04115777
34	0x3e7841bc	0.24243826
35	0x3d73a694	0.059485033
36	0x3dd8ddb0	0.105891585
37	0xbb0d1a6e	-0.0021530646
38	0xbde0fcc7	-0.109857135
39	0xbc823ee6	-0.015899133
40	0x3d05674e	0.032569222
41	0xbd209d6a	-0.03921262
42	0x3d509404	0.05092241
43	0x3e847bbf	0.2587566
44	0xbc77330a	-0.015087852
45	0x3d45746d	0.048206735
46	0xbe71c24c	-0.23609275
47	0xbe5a1e5b	-0.21300642
48	0xbe50b0e7	-0.20379983
49	0x3dae57f4	0.085128695
50	0x3d8fd36d	0.07022748
51	0x3d3dd552	0.046346016
52	0xbbe124da	-0.006870848
53	0xbdb88687	-0.09010034
54	0xbe20c8dc	-0.15701622
55	0x3d8848c0	0.06654501
56	0xbe8c4aa2	-0.2740069
57	0x3cd9d981	0.026592972
58	0xbdcf6e90	-0.1012851
59	0x3c885f8e	0.016647127
60	0xbdd0ce01	-0.10195542
61	0x3d21061b	0.039312463
62	0xbe3aadd0	-0.18230367
63	0xbd5cf257	-0.05394205

module.bn1.running_mean f4 [64]
0	0x3d0f2c1b	0.03495417
1	0xbd3007fa	-0.042976357
2	0xbd95007f	-0.07275485
3	0xbcca80bf	-0.024719594
4	0x3d9d7fc8	0.07690388
5	0xbccdf113	-0.025139367
6	0x3c8709df	0.0164842
7	0x3c052ef1	0.0081288675
8	0xbbb07f0f	-0.0053862403
9	0xbcd7bbac	-0.026334606
10	0x3b8190ac	0.003954014
11	0xbd2eee72	-0.042707868
12	0x3ccaeba8	0.024770573
13	0x3c80f04b	0.01573958
14	0xbdfc73bb	-0.12326761
15	0x3d0f41a7	0.03497472
16	0xbd21dca6	-0.039517067
17	0xbb5be9bc	-0.0033556065
18	0xbb809f1a	-0.0039252164
19	0xbb348530	-0.0027545206
20	0x3d13a648	0.03604725
21	0x3d828ef3	0.06374922
22	0xbca1268e	-0.019671705
23	0xbc19169b	-0.0093437685
24	0x3cf0a1a3	0.02937395
25	0xbda29e1d	-0.07940314
26	0x3c99ee30	0.018790334
27	0xbd7912ea	-0.060809053
28	0xbd4787fd	-0.048713673
29	0x3ceecc36	0.02915011
30	0x3d2dd966	0.042443655
31	0x3c8ff5c9	0.017573254
32	0x3d24acb4	0.040203765
33	0x3c276f0d	0.010219348
34	0x39c9d5d0	0.0003849701
35	0xbb17d7cf	-0.0023169403
36	0xbcaa188f	-0.020763664
37	0xbafccc40	-0.0019286945
38	0xbd873a48	-0.06602913
39	0xbb8bcd0f	-0.0042663882
40	0xbcdd4b86	-0.027013551
41	0x3d06eaed	0.032938886
42	0xbd2530c0	-0.040329695
43	0xbc5605be	-0.0130628925
44	0x3cca84a8	0.024721459
45	0x3c961b18	0.018323466
46	0x3d80b8a4	0.062852174
47	0x3ddb7c20	0.10717034
48	0x3d5a8b32	0.053355403
49	0x3d68d6f8	0.056845635
50	0x3addc956	0.0016920965
51	0xbbe314f9	-0.0069299904
52	0xbc2272bc	-0.00991505
53	0xbd3f4f5c	-0.046706542
54	0xbd146935	-0.036233146
55	0xbc64ed23	-0.013972553
56	0x3dae5bf9	0.08513636
57	0x3d127793	0.035758566
58	0x3da904ed	0.08252893
59	0x3e104042	0.14087012
60	0x3d5c2086	0.053741954
61	0xbcd8a6bb	-0.02644669
62	0x3e21c7c8	0.15798867
63	0xbc1277fe	-0.008939741

module.bn1.running_var f4 [64]
0	0x3e019761	0.12655403
1	0x3ee44a7e	0.44588083
2	0x3dd78d2a	0.10524972
3	0x3e922f2a	0.28551608
4	0x3dd68489	0.10474498
5	0x3ce30092	0.027710233
6	0x3e4d5ad6	0.20054182
7	0x3c5dd709	0.013540038
8	0x3d609e91	0.05483872
9	0x3d334be8	0.04377356
10	0x3da8ad95	0.08236233
11	0x3e9baf2b	0.3040708
12	0x3e8dc09b	0.2768601
13	0x3e34fb0d	0.17673893
14	0x3e4bf968	0.1991936
15	0x3e1055b9	0.140952
16	0x3ed3296c	0.4124254
17	0x39539474	0.00020177831
18	0x3d9be50a	0.07612045
19	0x3e610cfc	0.2197761
20	0x3de03d76	0.10949223
21	0x3ea3cd85	0.31992736
22	0x3e176c8e	0.14787504
23	0x3f63c3d5	0.8897069
24	0x3dcbda8d	0.09953795
25	0x3e0bbfac	0.13647336
26	0x3e236943	0.15958123
27	0x3ec63a0d	0.38716164
28	0x3ec0e801	0.37677005
29	0x3c64e25a	0.013969982
30	0x3cdc4185	0.02688671
31	0x3e2d8974	0.16946965
32	0x3daaa693	0.08332553
33	0x3c241e38	0.01001697
34	0x3d5a3d95	0.053281385
35	0x3d951103	0.07278635
36	0x3e3b5190	0.18292832
37	0x387468c6	5.827171e-05
38	0x3d72ae6e	0.05924838
39	0x3dc5181a	0.09623738
40	0x3e167e71	0.14696671
41	0x3c678df9	0.01413297
42	0x3e9f8a18	0.31160045
43	0x3d84ee90	0.06490815
44	0x3ccbfb81	0.0249002
45	0x3e7c8fd3	0.2466424
46	0x3e196594	0.14980155
47	0x3e966210	0.2937169
48	0x3dc376ea	0.095441654
49	0x3f2ed81d	0.6829851
50	0x3f12c4f1	0.5733176
51	0x3ca0ed25	0.01964433
52	0x3e324e24	0.17412621
53	0x3cefa3d1	0.029252918
54	0x3dd52582	0.10407545
55	0x3f683843	0.9071085
56	0x3e37948d	0.17927761
57	0x3e8de9a5	0.2771732
58	0x3ddcc693	0.107800625
59	0x3eabeede	0.3358068
60	0x3da743ca	0.081672266
61	0x3e56f386	0.20991334
62	0x3ea89a53	0.3293024
63	0x3c493869	0.012281516

module.layer1.0.conv1.weight f4 [16, 64, 3, 3]
0	0x3b53639a	0.0032255412
1	0x3c7b4c38	0.015337996
2	0x3c15a2e1	0.009133072
3	0xbcb77883	-0.022396332
4	0xbb0129e6	-0.0019708811
5	0x384169b3	4.6113226e-05
6	0xbcaa735a	-0.020806957
7	0x3bc81c43	0.0061068847
8	0x3bd603b1	0.006531202
9	0xbaaa8a97	-0.0013011274
10	0xbcb1ad93	-0.021689212
11	0x3c8a9fee	0.016921964
12	0xbc62571c	-0.013814714
13	0x3c50677d	0.012719986
14	0x3c75f907	0.015012986
15	0xbd23a2a3	-0.039950024
16	0x3ca349f0	0.019932717
17	0xbbb05098	-0.0053807013
18	0x3bb5f4c4	0.00555286
19	0xbba9f0b2	-0.005186164
20	0x3c180b7d	0.009280083
21	0xbb922929	-0.004460473
22	0xbb518080	-0.003196746
23	0xbba4b99f	-0.0050270106
24	0xbc8ed70a	-0.017436523
25	0xbc2097c3	-0.009801808
26	0xbcbcc810	-0.023044616
27	0x3b857a2f	0.0040734033
28	0xbc37db82	-0.011221768
29	0x3bd15e8b	0.006389444
30	0xbc86c6ea	-0.016452271
31	0xbd298569	-0.041386995
32	0xbc388999	-0.011263275
33	0x3cb671a4	0.022270985
34	0x3c1e7bab	0.009673039
35	0x3c4659fe	0.012106417
36	0xbc1df9ae	-0.009642048
37	0xbbcb7859	-0.006209415
38	0x383ab2b3	4.4512282e-05
39	0x3c35af1d	0.011089114
40	0x3c4c5913	0.012472409
41	0x3b8c79b0	0.004286967
42	0xbcaeaef1	-0.021323653
43	0xbccee593	-0.025255954
44	0xbc3e9ea3	-0.011634502
45	0xbbadf030	-0.0053081736
46	0xbc004e7f	-0.007831215
47	0xb856ce13	-5.1213497e-05
48	0x3a7a17b1	0.00095402735
49	0xbc180cda	-0.009280408
50	0xba8f1485	-0.001091615
51	0x3c339054	0.0109597035
52	0xbb6799b0	-0.0035339408
53	0xbb418376	-0.002952782
54	0xbc00b2cb	-0.007855128
55	0xbc318af0	-0.010836348
56	0xbc4effa7	-0.012634194
57	0x3ae71f88	0.0017633298
58	0xbb7ce725	-0.0038589921
59	0xbca7a271	-0.0204632
60	0x3c1b1bde	0.009467093
61	0x3ab6e0e6	0.0013952523
62	0xbc35364c	-0.011060309
63	0x3c0428d7	0.008066378
64	0x3c417e17	0.011809847
65	0x3c136d27	0.008998192
66	0xbbc158a6	-0.0059004603
67	0xbc2bbe75	-0.01048242
68	0xbc4716d7	-0.012151442
69	0xbc19dbb2	-0.009390758
70	0xbc2eaa9e	-0.0106607955
71	0xbc4f0b18	-0.012636922
72	0xbb3152ad	-0.0027057335
73	0x3b9bfb53	0.004760185
74	0x3b374599	0.0027965067
75	0x3a2a897d	0.00065054727
76	0x3b91611e	0.004436626
77	0x3b074916	0.0020642928
78	0x3cbf5866	0.023357581
79	0x3c7276b5	0.01479881
80	0x3a92ecc6	0.001120948
81	0xbcb9a55a	-0.022661854
82	0xba663a7b	-0.0008782518
83	0x3c00528a	0.007832179
84	0xbb8c031d	-0.004272832
85	0x3c2f4559	0.010697686
86	0x3cba5242	0.022744302
87	0x3b808670	0.003922276
88	0x3c57a0a9	0.013160863
89	0x3cad9ccb	0.021192929
90	0x3c4ed0e7	0.012623048
91	0x3b3ec49a	0.0029108883
92	0xbcd8663a	-0.026415933
93	0x3c367bd6	0.011137923
94	0xbbff39da	-0.007788879
95	0xbca3221c	-0.019913726
96	0x3cf55be7	0.029951049
97	0x3341508b	4.5009568e-08
98	0xbd12eb6d	-0.03586905
99	0xbd905f8a	-0.07049473
100	0xbc78f24f	-0.01519449
101	0x3d49d7ab	0.049277943
102	0xbc9c061d	-0.019045884
103	0xbd066142	-0.032807596
104	0x3d3354fd	0.043782223
105	0xbce194ed	-0.027536834
106	0xbdb040a8	-0.08606082
107	0x3b1ecb5a	0.0024230094
108	0xbc4a1278	-0.012333505
109	0xbcd1d22c	-0.025612913
110	0xbcb6b3ef	-0.022302596
111	0x3c9526e7	0.018207027
112	0xbd05a792	-0.03263051
113	0xbd12c64b	-0.03583364
114	0x3cdf5138	0.027260408
115	0xbcb431bb	-0.02199637
116	0xbcc085ca	-0.023501296
117	0x3c7bef96	0.015376946
118	0xbc98be45	-0.018645415
119	0xbdad385e	-0.08458017
120	0x3d4a8248	0.049440652
121	0x3caa982c	0.020824514
122	0xbd0bc5aa	-0.034124054
123	0x3d0368ba	0.032082297
124	0x3c93c575	0.01803849
125	0xbd07f511	-0.033192698
126	0xbc345bb8	-0.011008196
127	0x3c4dc750	0.012559727
128	0x3ce8ec70	0.028433055
129	0xbbe68d93	-0.00703592
130	0x3c7d1021	0.01544574
131	0x3d010872	0.031502195
132	0xbc628229	-0.013824978
133	0x3b1bae7a	0.002375512
134	0x3c4ac62e	0.012376351
135	0x39df9d83	0.0004265123
136	0x3b919da0	0.004443839
137	0xbbf47130	-0.007459782
138	0x3d4b8895	0.0496908
139	0x3ca5b44c	0.020227574
140	0xbcc2a43d	-0.023759956
141	0x3c3ffb39	0.011717611
142	0xbc9b9e5d	-0.018996412
143	0xbd1fdf2e	-0.0390312
144	0xbcd3b8d6	-0.025844973
145	0xbba91dd5	-0.005161027
146	0x3c5b7150	0.013393715
147	0x3b3240e0	0.0027199313
148	0xbb873bca	-0.0041270005
149	0xbbca3b3e	-0.006171613
150	0x3c9b0684	0.018924005
151	0xbbb4bc9b	-0.0055156476
152	0x3c5cc37d	0.013474342
153	0x3845f48c	4.7196212e-05
154	0x3a0e3be1	0.0005425793
155	0x38a4380c	7.830569e-05
156	0x36ae565d	5.195658e-06
157	0x38b64ebd	8.6931024e-05
158	0xb8935e66	-7.027089e-05
159	0xba099aa8	-0.0005249181
160	0xba58d035	-0.00082707714
161	0xba3214d6	-0.0006793266
162	0x3d802bad	0.062583305
163	0xbc9a4604	-0.018832214
164	0xbd635527	-0.05550113
165	0xbc9b2dc3	-0.01894272
166	0xbd9c5090	-0.076325536
167	0xbd92a0f4	-0.071596056
168	0xbd86a06f	-0.06573569
169	0xbd7a4463	-0.061100375
170	0xbc2ebd7b	-0.010665293
171	0xbc8b63a0	-0.017015278
172	0xbb9558ce	-0.0045577055
173	0x3acadf27	0.0015477882
174	0x3c83dd46	0.016096722
175	0x3cc7952d	0.024363125
176	0x3c1b7f6e	0.009490831
177	0x3c3cb9b6	0.011518886
178	0x3c8b9bf9	0.017042147
179	0xbc42a275	-0.011879553
180	0xbd6c6220	-0.057710767
181	0xbd6b9124	-0.057511464
182	0xbb89ec1a	-0.0042090537
183	0xbd6c9a7c	-0.057764515
184	0xbd38d049	-0.04512051
185	0x3c22c008	0.009933479
186	0xbd06e408	-0.03293231
187	0xbc1d023c	-0.009583052
188	0x3ceb6c74	0.028738238
189	0x3d80b1db	0.06283923
190	0x3d0fe2bc	0.03512834
191	0xbb2eb057	-0.00266554
192	0x3d6604c1	0.056156877
193	0x3c093d44	0.008376423
194	0xbd42a655	-0.047521908
195	0x3c84a055	0.016189734
196	0xbd26c393	-0.040713858
197	0xbd96af7f	-0.07357692
198	0xbc5dd7e4	-0.013540242
199	0xbbefbe52	-0.007316389
200	0xbb666fd9	-0.0035161881
201	0xbc20b386	-0.009808427
202	0xbc5b5bca	-0.013388583
203	0xbbd48c49	-0.00648645
204	0xbc6e76a5	-0.014554654
205	0xbc80cf18	-0.01572375
206	0xbc1ef6c2	-0.009702386
207	0xbad60f7f	-0.0016331522
208	0xb9483637	-0.00019093683
209	0xbce7b628	-0.028285101
210	0x3cdcd0f4	0.026955105
211	0xbb967600	-0.0045917034
212	0xbd223296	-0.039599024
213	0x3d23736d	0.039905
214	0xbb06e6d9	-0.0020584373
215	0xbd25ee25	-0.040510315
216	0xbd781d5f	-0.060574885
217	0xbd688d5b	-0.056775432
218	0xbcf45b16	-0.02982859
219	0xbccaaa89	-0.02473952
220	0x3becb818	0.007224094
221	0x3d03496c	0.032052442
222	0x3c7d63c3	0.01546568
223	0x3d6d08c1	0.057869677
224	0x3d42f64b	0.047598165
225	0xbce2d8cc	-0.027691267
226	0xbcae21f1	-0.021256419
227	0xbbdbeb3c	-0.0067113917
228	0xbcf9b399	-0.030481147
229	0xbcbfe73c	-0.02342569
230	0xb9ea537b	-0.00044694156
231	0xbc85378c	-0.016261838
232	0xbc52c012	-0.012863176
233	0x3c77105e	0.015079586
234	0x3c5a4ae5	0.01332352
235	0x3db5b2b8	0.088719785
236	0x3d63721d	0.05552875
237	0xbc553123	-0.013012203
238	0x3cb96edc	0.02263587
239	0xbbc148c2	-0.005898566
240	0x3c3e373c	0.011609849
241	0x3c6f2024	0.014595065
242	0x3d4f2535	0.050572593
243	0x3ccb12c0	0.024789214
244	0x3cb2db81	0.021833183
245	0xbc24cb66	-0.01005826
246	0xbbea9076	-0.0071583344
247	0x3c328d10	0.01089789
248	0xbb812863	-0.003941582
249	0x3d0d7b4b	0.03454141
250	0x3c95e74a	0.018298764
251	0xbbb24d94	-0.005441377
252	0x3d17e052	0.037079163
253	0xba901935	-0.001099384
254	0xbc888cab	-0.016668638
255	0x3cc37eb2	0.023864124

module.layer1.0.bn1.weight f4 [16]
0	0x3e8ebc59	0.27878073
1	0x3eebd094	0.4605757
2	0x3e9ea665	0.30986324
3	0x3edd559a	0.4322937
4	0x3ec995d3	0.3937212
5	0x3eb49f8b	0.35277972
6	0x3eafaabd	0.3430995
7	0x3e7901f6	0.24317154
8	0x3eb5edf6	0.35533112
9	0x3e6b3ab2	0.22971609
10	0x3e8f16fb	0.2794722
11	0x3e46e75f	0.19424199
12	0x3eb179aa	0.34663135
13	0x3e71fab0	0.23630786
14	0x3e4a021b	0.19727366
15	0x3e990961	0.29889968

module.layer1.0.bn1.bias f4 [16]
0	0xbdfbc438	-0.12293285
1	0x3dc107e9	0.09425337
2	0xbe016b50	-0.12638593
3	0x3de2dc2f	0.11077153
4	0x3e364cc2	0.17802718
5	0x3da656ef	0.0812205
6	0xbd71a5a7	-0.05899587
7	0xbd9eebd6	-0.07759826
8	0x3e1208a7	0.14261113
9	0xbc9ffbc8	-0.019529238
10	0xbd6856fa	-0.056723572
11	0x3d0353cc	0.032062337
12	0xbe5d55c4	-0.21614748
13	0xbccffdbc	-0.025389545
14	0x3e154711	0.14577891
15	0xbdeefc56	-0.11669223

module.layer1.0.bn1.running_mean f4 [16]
0	0xbe53c1c6	-0.20679387
1	0xbe66a289	-0.2252294
2	0xbe73878b	-0.23782174
3	0xbe44fe17	-0.19237553
4	0xbe45eb2c	-0.19327992
5	0xbea8d9c2	-0.32978636
6	0xbd80db89	-0.06291873
7	0xbe24dcc8	-0.16099846
8	0xbe5e3f4c	-0.21703833
9	0xbe3fdb2c	-0.18735951
10	0xbe81b775	-0.2533528
11	0xbe166045	-0.14685161
12	0x3e0f881e	0.14016768
13	0xbe01411e	-0.12622496
14	0xbe14f696	-0.1454719
15	0xbda7a054	-0.08184877

module.layer1.0.bn1.running_var f4 [16]
0	0x3cf62767	0.030048085
1	0x3dc9670c	0.09834108
2	0x3d05e842	0.0326922
3	0x3e025297	0.12726818
4	0x3dabf130	0.08395612
5	0x3d847a74	0.064686686
6	0x3db86053	0.090027474
7	0x3ce7c7e8	0.028293565
8	0x3db38061	0.08764721
9	0x3d19c963	0.037545573
10	0x3d1328cb	0.035927575
11	0x3d0d3d42	0.034482248
12	0x3cc2b923	0.02376992
13	0x3cbf9a87	0.023389114
14	0x3caddcb2	0.0212234
15	0x3c79f379	0.015255802

module.layer1.0.conv2.weight f4 [16, 16, 3, 3]
0	0xbd22e12d	-0.039765526
1	0xbd8c0dca	-0.068385676
2	0xbcc091ab	-0.02350696
3	0x3bd598b4	0.006518448
4	0xbd3fd9ca	-0.04683856
5	0xbb96088d	-0.004578656
6	0xbc829d9b	-0.015944293
7	0xbc40af92	-0.011760609
8	0x3d8087c1	0.06275893
9	0x3dd0b9c9	0.10191686
10	0x3a62be0e	0.0008649536
11	0xbcdc281a	-0.02687459
12	0xbe047344	-0.12934595
13	0x3d001289	0.031267677
14	0xbccd0b22	-0.025029723
15	0x3da315f5	0.07963172
16	0xbd5d868e	-0.0540834
17	0xbc8cafc2	-0.017173652
18	0xbd5c99ae	-0.053857498
19	0xbc61fb8a	-0.013792882
20	0xbd626d0b	-0.055279773
21	0xbdc46c3b	-0.09590956
22	0xbd25e27b	-0.04049919
23	0xbd67db1c	-0.056605443
24	0x3dfb6dfc	0.12276837
25	0x3e18d630	0.14925456
26	0x3da45ad7	0.08025139
27	0xbcede0cc	-0.029037856
28	0x3ce12ffb	0.0274887
29	0x3cc68ded	0.024237597
30	0x3c76379a	0.015027905
31	0xbd33611d	-0.043793786
32	0xbd13ab13	-0.03605182
33	0x3d5ca1e9	0.053865347
34	0x3d12416b	0.03570692
35	0x3cd8e766	0.026477527
36	0x3beba5c7	0.007191393
37	0x3e686e17	0.22698246
38	0x3d88a3c9	0.066718645
39	0xbe8375de	-0.25675863
40	0xbeca4124	-0.39502823
41	0xbe6c9d1b	-0.23106806
42	0x3dd00af3	0.101583384
43	0x3e2a5b1c	0.16636318
44	0x3d444887	0.04792073
45	0xbdaa0144	-0.08301023
46	0xbdf36ae2	-0.11885621
47	0x3d26d420	0.040729642
48	0x3de4a81b	0.11164876
49	0x3e56e638	0.20986259
50	0x3da3de56	0.080013916
51	0xbdf4f372	-0.11960496
52	0xbe29d61e	-0.16585585
53	0x3d5853a7	0.052814152
54	0xbcc11903	-0.023571497
55	0xbd5dc48b	-0.054142516
56	0xbcad449e	-0.021150883
57	0x3cc2eacd	0.023793602
58	0xbcf55f88	-0.02995278
59	0x3d2f9ae1	0.042872313
60	0xbb208c7a	-0.0024497793
61	0x3c8aa5d2	0.016924772
62	0xbc518cc8	-0.0127899125
63	0x3c1bb5c5	0.009503786
64	0x3b265257	0.0025378668
65	0x3d30483b	0.043037634
66	0xbc2ce9e1	-0.010553808
67	0xbcb5dfbf	-0.022201417
68	0x3d275018	0.040847868
69	0xbbfdc435	-0.007744337
70	0xbc903e45	-0.017607817
71	0x3975783a	0.00023409809
72	0x3d9b9b22	0.075979486
73	0xbcda0f55	-0.026618639
74	0x3cf212ce	0.029549982
75	0x3d1b0265	0.03784408
76	0x3e08f015	0.13372834
77	0x3e0e568c	0.13900203
78	0xbdab21aa	-0.0835603
79	0xbe1c19a3	-0.15244155
80	0xbd8973ec	-0.067115635
81	0x3cf7a98d	0.030232215
82	0xbd8bd0b0	-0.06826913
83	0x3cf83bf0	0.030302018
84	0x3cd13031	0.025535675
85	0xbd096fde	-0.03355395
86	0xbcca3919	-0.02468543
87	0x3ccb5c66	0.024824332
88	0xbc601134	-0.013675977
89	0xbc6b0b03	-0.014345887
90	0xbc71e58e	-0.014764203
91	0xbb8f8500	-0.0043798685
92	0xbcbb6a07	-0.022877706
93	0xb9447179	-0.00018734288
94	0x3c8378e4	0.016048856
95	0xbd0e9f11	-0.034819666
96	0x3cbdf217	0.023186726
97	0xbb9e3169	-0.0048276675
98	0xbcbff26a	-0.023431022
99	0x3cd40ed3	0.025885975
100	0x3cb847b4	0.022495128
101	0xbd201d0c	-0.0390902
102	0x3d9cc014	0.076538235
103	0x3d9f4a29	0.07777817
104	0x3b319d63	0.0027101866
105	0xbbabf27a	-0.0052474113
106	0xba8f9272	-0.0010953678
107	0xbd49d6a7	-0.049276974
108	0xbcaf30f7	-0.021385653
109	0xbb9eb707	-0.004843596
110	0xbce550f6	-0.027992707
111	0x3dc78d84	0.09743789
112	0x3e01eed3	0.1268876
113	0x3e00db83	0.12583737
114	0xbdff764c	-0.12473735
115	0xbdd95ca6	-0.106133744
116	0xbe1fc445	-0.15602215
117	0x3d83e7ec	0.0644072
118	0xbc895660	-0.01676482
119	0xbd2084dd	-0.03918921
120	0xbdb28858	-0.08717412
121	0x3bac34b2	0.005255305
122	0xbcb78c92	-0.022405896
123	0x3c3da892	0.011575835
124	0x3d87ca0a	0.06630333
125	0x3d496791	0.049171034
126	0x3d91d8d9	0.071214385
127	0x3c6f2ab8	0.014597587
128	0xbd10c546	-0.035344385
129	0x3d285260	0.041094184
130	0x3e287023	0.16449027
131	0x3ddec131	0.10876692
132	0xbdedf94c	-0.11619815
133	0xbe309e6c	-0.17247933
134	0xbd9b6490	-0.0758754
135	0xba8bacac	-0.0010656319
136	0x3ce0b38a	0.02742936
137	0x3a93d8b3	0.0011279791
138	0xbb1e15ef	-0.002412196
139	0x3c9607af	0.01831421
140	0x3d80562e	0.062664375
141	0x3a3dc1f5	0.00072386797
142	0xbcc27e33	-0.023741817
143	0xbd162073	-0.03665204
144	0x3cee61f3	0.02909944
145	0xbbe5aae4	-0.007008897
146	0xbd658d76	-0.05604311
147	0x3b738954	0.0037160711
148	0xbd234cf0	-0.039868295
149	0xbd79f6e2	-0.06102646
150	0xbd967e5a	-0.073483184
151	0xbd2a04c9	-0.04150847
152	0xbcce540e	-0.025186565
153	0xbd638c3a	-0.055553652
154	0xbc9a5bc5	-0.018842587
155	0x3d43559a	0.047689058
156	0x3d39c0fe	0.045350067
157	0x3c5822cc	0.01319189
158	0xbd16def7	-0.03683373
159	0xbc18a3ef	-0.009316429
160	0xbcde7c48	-0.027158871
161	0x3c8a0e1c	0.016852431
162	0x3daf83ba	0.08570047
163	0x3e0b98bb	0.13632481
164	0x3e042014	0.12902862
165	0x3d97b509	0.074075766
166	0x3e06847d	0.13136478
167	0x3e1524b9	0.1456479
168	0xbddb3b58	-0.10704678
169	0xbdc5c321	-0.096563585
170	0xbd70a8ba	-0.05875466
171	0x3d2c62f6	0.042086564
172	0xbc8218b5	-0.015880922
173	0xbced9bcc	-0.029004954
174	0x3bdec837	0.00679877
175	0x3d1a7af0	0.0377149
176	0x3c9baf79	0.01900457
177	0x3db1dfd2	0.086852685
178	0x3d386173	0.04501481
179	0xbd75059d	-0.059819806
180	0xbd0cd993	-0.034387182
181	0xbd40ee20	-0.047102094
182	0xbc20414c	-0.009781193
183	0xbc97d8a5	-0.018535921
184	0x3ce3a0de	0.027786668
185	0x3d8e30fe	0.06942938
186	0x3c4a54dd	0.012349335
187	0x3d2e09c8	0.042489797
188	0x3dd1d8d9	0.102464385
189	0x3bb133e3	0.0054077967
190	0x3ced319b	0.028954318
191	0x3dd1e1f3	0.102481745
192	0xbdab8d99	-0.08376617
193	0xbd812f1a	-0.06307812
194	0x3d79cc9f	0.060986158
195	0x3bacabee	0.005269519
196	0xbb3918eb	-0.0028243612
197	0x3c4f4844	0.012651507
198	0x3b838009	0.0040130657
199	0xbd276ca5	-0.040875096
200	0xbc8026dd	-0.015643531
201	0x3beef522	0.0072924057
202	0xbc40bd27	-0.011763847
203	0x3d3bcdde	0.045850627
204	0xbca4d8af	-0.020122854
205	0xbd8345ad	-0.06409774
206	0x3d1fd80d	0.0390244
207	0xbd0f3481	-0.03496218
208	0xbd98bf0f	-0.074583165
209	0xbd008dd6	-0.031385265
210	0x3cb87bd2	0.02251998
211	0xbcbcdb14	-0.023053683
212	0xbc5057cf	-0.012716248
213	0xb9bc0fc0	-0.0003586989
214	0xbccafae3	-0.024777835
215	0xbc3e81fb	-0.011627669
216	0xbc6ad2d3	-0.014332491
217	0xbd23d70f	-0.040000018
218	0xbc15be7c	-0.009139653
219	0xbd62d435	-0.055378158
220	0xb879510f	-5.9441718e-05
221	0x3c7c0aeb	0.015383462
222	0xbd4767ee	-0.0486831
223	0x3d5742f1	0.052554075
224	0x3d10b2b2	0.035326667
225	0xbddb4fb9	-0.10708565
226	0xbddea850	-0.10871947
227	0xbd1273a3	-0.03575481
228	0xbd541e20	-0.051786542
229	0xbc6fb67f	-0.014630913
230	0x3d9d151a	0.076700404
231	0x3bd66474	0.0065427367
232	0x3cecd373	0.02890942
233	0x3dd8e2d3	0.10590138
234	0x3c12b2ba	0.008953745
235	0x3c42b1e4	0.011883233
236	0xbd7ce8f7	-0.06174561
237	0xbb1b4360	-0.0023691282
238	0x3c13ea29	0.009027996
239	0xbd63c4e6	-0.0556077
240	0xbcaf4859	-0.021396803
241	0x3d009f03	0.031401645
242	0x3bb9ffa3	0.005676226
243	0x3d0f2dda	0.034955837
244	0x3ce03402	0.02736855
245	0x3b8c71db	0.0042860336
246	0xbd3d7de3	-0.046262633
247	0xbd60cfa8	-0.054885536
248	0xbd93c680	-0.07215595
249	0xbc76560c	-0.015035164
250	0x3c9b5e24	0.018965788
251	0x3cb7b0c6	0.02242316
252	0xbbf1e3b2	-0.0073818797
253	0x3d527008	0.051376373
254	0x3ce3a966	0.027790736
255	0xbd5b3b24	-0.053523198

module.layer1.0.bn2.weight f4 [16]
0	0x3ef91d0d	0.48654976
1	0x3e67b866	0.22628936
2	0x3eba3cf1	0.3637462
3	0x3ef9fcb1	0.488256
4	0x3e1637b8	0.14669693
5	0x3ed2fed2	0.41210037
6	0x3f11c26c	0.5693729
7	0x3f129319	0.57255703
8	0x3f044e25	0.5168174
9	0x3e8b234e	0.27175373
10	0x3e6c41d1	0.23071982
11	0x3e47bde1	0.19506027
12	0x3f0a180b	0.53942937
13	0x3e8229d0	0.25422525
14	0x3e7c3629	0.24630035
15	0x3e9cc915	0.30622163

module.layer1.0.bn2.bias f4 [16]
0	0xbbbcad3d	-0.0057579563
1	0x3de93b9a	0.11388321
2	0xbc9408f5	-0.018070677
3	0xbcadbe58	-0.021208927
4	0x3e2e98fb	0.17050545
5	0xbcf7d9cc	-0.03025522
6	0xbd04c2d0	-0.03241235
7	0xbcc39fe4	-0.023879953
8	0x3cb270b5	0.021782259
9	0x3e2e5758	0.17025506
10	0x3e1eb349	0.1549808
11	0x3e4e6819	0.20156898
12	0xbd1e8b00	-0.03870678
13	0x3dfddb95	0.123953976
14	0x3b01f86a	0.0019831904
15	0x3e279bdc	0.1636805

module.layer1.0.bn2.running_mean f4 [16]
0	0xbd2ecd27	-0.042676117
1	0x3da7222a	0.08160813
2	0xbbbcfe1a	-0.005767596
3	0x3cfbc4b2	0.03073344
4	0x3e3ff66d	0.18746348
5	0xbd8d9ae4	-0.06914309
6	0xbd71ea10	-0.05906111
7	0xbd6c5b4a	-0.057704248
8	0x3d119b13	0.03554828
9	0xbde0dd94	-0.10979763
10	0xbda84a3f	-0.08217286
11	0xbe18caaa	-0.1492106
12	0xbda082b1	-0.078374274
13	0xbd9a925f	-0.07547449
14	0x3dcbf523	0.099588655
15	0xbe6be5eb	-0.23036925

module.layer1.0.bn2.running_var f4 [16]
0	0x3d875df0	0.06609714
1	0x3c83bff2	0.016082738
2	0x3d38d162	0.045121558
3	0x3d3d29bd	0.046182383
4	0x3c576ec3	0.013148966
5	0x3d330150	0.043702424
6	0x3d845354	0.06461206
7	0x3d95b0c6	0.073091075
8	0x3dbaa8b2	0.09114207
9	0x3cc78e5e	0.024359878
10	0x3caa2412	0.020769153
11	0x3cfc3a59	0.030789541
12	0x3d68da62	0.05684889
13	0x3cd43576	0.025904398
14	0x3c42ba94	0.011885304
15	0x3ccf8657	0.025332613

module.layer1.0.shortcut.0.weight f4 [16, 64, 1, 1]
0	0x3d1c50e6	0.03816309
1	0x3cb2b7d4	0.021816172
2	0x3d4083af	0.047000583
3	0x3d419691	0.047262732
4	0x3afe17dc	0.0019385773
5	0xbcd4a511	-0.025957616
6	0xbc3782db	-0.011200632
7	0xbc1c499d	-0.009539035
8	0x3b17bc43	0.0023152984
9	0xbd073590	-0.033010066
10	0xbc17ee9a	-0.009273196
11	0x3cbb6095	0.022873202
12	0xbd95284d	-0.072830774
13	0x3d218f3c	0.03944324
14	0xbdca83bf	-0.0988841
15	0xbe0c0e02	-0.13677219
16	0x3c597287	0.013271934
17	0xb8b9757b	-8.84337e-05
18	0x3db1a666	0.08674316
19	0xbd162e39	-0.036665175
20	0xbbcb34ce	-0.006201363
21	0x3d2cae42	0.042158373
22	0x3cb6f73a	0.022334684
23	0xbd6d4513	-0.057927202
24	0xbd062de3	-0.032758605
25	0xbd1ada8e	-0.037806086
26	0x3d4546aa	0.048163094
27	0x3db1552e	0.08658825
28	0x3db43169	0.08798487
29	0xbbeadfa4	-0.0071677733
30	0xbc80471f	-0.015658913
31	0xbc34543e	-0.011006413
32	0x3ba68f1a	0.005082977
33	0xbb446fbe	-0.002997383
34	0x3c8a0040	0.016845822
35	0xbd438b4a	-0.04774026
36	0x3d2dfc8f	0.042477187
37	0xba91699d	-0.0011094097
38	0xbd3afcd8	-0.045651287
39	0xbbd9cfcb	-0.0066470853
40	0x3d1364a4	0.03598465
41	0xbb40ec62	-0.002943777
42	0x3d7e5dcd	0.062101174
43	0x3cc833d4	0.024438776
44	0xbd174858	-0.036934227
45	0x3b38db50	0.0028206892
46	0xbd49f75c	-0.049308166
47	0xbc927a11	-0.017880471
48	0xbbb33ea0	-0.005470112
49	0x3d3a4511	0.045476023
50	0x3d7df45d	0.06200062
51	0x3ce7ceb9	0.028296815
52	0x3d88789d	0.0666363
53	0xbcf4fe10	-0.029906303
54	0xbc2d1e9d	-0.010566381
55	0x3c09ae44	0.008403365
56	0x353b8012	6.9849295e-07
57	0xbc99deb0	-0.018782943
58	0xbc3192b3	-0.0108381985
59	0x3cd0fbae	0.025510635
60	0x3c757d59	0.0149834985
61	0x3ca014e4	0.019541211
62	0xbc4bac71	-0.01243125
63	0xb9948386	-0.00028326752
64	0x3dc1cb4b	0.09462603
65	0xbbe1d96e	-0.0068923747
66	0x3d00605f	0.031341907
67	0x3c8a2795	0.016864577
68	0x3da20ff7	0.07913201
69	0x3c736dbd	0.014857707
70	0x3c31ad00	0.010844469
71	0x3d4453cc	0.047931477
72	0x3d2a7956	0.04161962
73	0x3d4b1727	0.049582627
74	0x3d540677	0.051763978
75	0x3d21a035	0.039459426
76	0x3d798e25	0.060926575
77	0x3df94ddb	0.12173053
78	0x3c585c06	0.013205534
79	0x3cca477a	0.024692286
80	0xbc8b9966	-0.01704092
81	0xb69a674f	-4.6015844e-06
82	0x3cf92194	0.03041152
83	0x3d4d605c	0.050140724
84	0x3d8cc606	0.068737075
85	0x3e118aa0	0.14213037
86	0xbabd484e	-0.0014441104
87	0x3dab663d	0.0836911
88	0x3de4e9de	0.11177419
89	0x3d4da5d9	0.050206993
90	0x3dbcf7bc	0.09226939
91	0x3d8ea3ff	0.069648735
92	0xbc969f3f	-0.018386481
93	0x3d1779a9	0.03698126
94	0x3d63b7d8	0.05559525
95	0x3bbdae10	0.005788572
96	0x3c9784c4	0.018495925
97	0x3c3829ff	0.011240481
98	0xbbf69832	-0.0075254673
99	0x3d966b2e	0.07344662
100	0xbd0959b7	-0.033532824
101	0x3a42aded	0.00074264297
102	0x3db3595c	0.08757278
103	0x3b3e6a72	0.0029055146
104	0xbbdec4d1	-0.0067983647
105	0x3c9c31b0	0.019066662
106	0x3c2f92c8	0.010716148
107	0x3b0a131f	0.0021068526
108	0x3d986571	0.074412234
109	0x3c593046	0.013256138
110	0x3db59885	0.088669814
111	0x3e2ddd23	0.16978888
112	0x3d338e72	0.04383702
113	0xbd6083c2	-0.054813154
114	0x3c5fd205	0.013660912
115	0xbccff589	-0.025385635
116	0xbd09b5a4	-0.03362049
117	0x3d962cfa	0.07332797
118	0x3cbe6916	0.023243468
119	0xbcfe81d8	-0.031067774
120	0x3dc59ad9	0.096486755
121	0xbcc34f2f	-0.023841469
122	0x3d79d3f6	0.060993157
123	0x3e1bbb65	0.15208204
124	0x3dd17ba1	0.102286585
125	0x3d3f55bc	0.046712622
126	0x3e090dd8	0.13384187
127	0xbbff5393	-0.0077919452
128	0xbd03f598	-0.03221664
129	0x3c7066d9	0.014672958
130	0x3d688577	0.056767907
131	0xbe3b9ede	-0.18322322
132	0xbc0c2f81	-0.008556248
133	0x3ceee5fa	0.029162396
134	0x3b48c466	0.003063464
135	0x3d17380e	0.036918692
136	0x3cfe83b2	0.031068657
137	0xbc6ddb58	-0.014517628
138	0x3c677ec8	0.014129348
139	0xbc2c7651	-0.010526256
140	0x3d77c018	0.06048593
141	0xbc9b2456	-0.018938225
142	0x3c07fb48	0.008299656
143	0x3d053991	0.032525603
144	0xbbf361f4	-0.0074274484
145	0x3aadb8e5	0.0013253955
146	0x3cccd1b8	0.025002345
147	0x3dbc74e2	0.09201981
148	0xbdfa2f5b	-0.122160636
149	0x3c6f9f3d	0.014625368
150	0xbd8b6da8	-0.06808025
151	0x3e08c079	0.13354672
152	0x3c337973	0.010954249
153	0xbc76d00f	-0.0150642535
154	0xbdb99c51	-0.09063018
155	0xbdffd12b	-0.124910675
156	0xbe6fa339	-0.23402108
157	0xbc1c5a33	-0.00954299
158	0x36dbc93c	6.5501354e-06
159	0xbc2fd24b	-0.01073129
160	0xbc109907	-0.008825547
161	0xb9db4a01	-0.00041826072
162	0xbc7f9f3c	-0.015601929
163	0x3cfa6504	0.030565746
164	0xbc46c271	-0.012131319
165	0x39966b90	0.0002869037
166	0x3c9d4f78	0.019202933
167	0xbbc4356d	-0.005987814
168	0xbdcbd924	-0.09953526
169	0x3c993b49	0.018705027
170	0xbe20da3b	-0.15708248
171	0xbd592987	-0.05301812
172	0xbc08b2a6	-0.008343374
173	0xbbf205ed	-0.0073859603
174	0xbd770fb1	-0.0603177
175	0xbcf66971	-0.030079575
176	0xbd175fb9	-0.036956523
177	0x3be11e1f	0.006870046
178	0xbe0d33e1	-0.13789321
179	0xbdb72476	-0.08942501
180	0xbd946605	-0.07246021
181	0x3ca90620	0.020632803
182	0x3d92ca99	0.07167549
183	0x3ce13829	0.0274926
184	0x3b11819b	0.0022202495
185	0xbccc703d	-0.024955863
186	0xbd43e9b5	-0.047830302
187	0x3cf4df5c	0.029891662
188	0xbcabb343	-0.020959502
189	0xbd253f6f	-0.040343698
190	0x39af0847	0.00033384768
191	0xbc77eee9	-0.015132644
192	0xbdb6e77d	-0.08930872
193	0xbddd29c0	-0.10798979
194	0x3cb216bd	0.021739358
195	0xbe007ba4	-0.12547165
196	0xbc3b9bcb	-0.011450718
197	0x3cfa740e	0.030572917
198	0x3d2bfc4a	0.04198865
199	0xbc6031af	-0.0136837205
200	0x3bbc5e02	0.0057485113
201	0xbaa84f3c	-0.0012840996
202	0x3c806c28	0.015676573
203	0x3dcb9cf7	0.09942048
204	0x3cb68559	0.022280382
205	0xba1fda4c	-0.00060978974
206	0xba81623b	-0.0009871194
207	0x3cedd0e0	0.029030263
208	0x3d7b2b42	0.06132055
209	0xba951559	-0.001137416
210	0xbd0c58d2	-0.034264393
211	0xbd367a3d	-0.04455017
212	0x3c9f1ba0	0.019422352
213	0x3bead353	0.007166305
214	0xbc63e078	-0.013908498
215	0x3d02bf39	0.031920645
216	0xbc60c0c5	-0.013717835
217	0xbab53449	-0.0013824786
218	0xbdf0512f	-0.117342345
219	0xbd0ea319	-0.03482351
220	0xbe18fcc6	-0.14940175
221	0x3d05856c	0.032597944
222	0xbad3f33e	-0.0016170514
223	0xbcfba227	-0.030716969
224	0xbd04b570	-0.032399595
225	0xbc10dd73	-0.00884186
226	0x3d00bafd	0.031428326
227	0x3d4f88b7	0.05066749
228	0x3c78e038	0.015190177
229	0x39ab3887	0.00032657778
230	0xbacb3198	-0.0015502451
231	0x3d3e4d74	0.046460584
232	0xbd9a7d63	-0.07543447
233	0x3c4b6a9c	0.012415554
234	0xbd59b286	-0.05314877
235	0x3da3efce	0.080047235
236	0x3ca20e31	0.019782158
237	0x3d4bff0f	0.04980379
238	0xbd8ba9ba	-0.06819482
239	0x3bed0c52	0.0072341347
240	0xbd7c1946	-0.06154754
241	0xbe050557	-0.12990318
242	0xbdb5eefc	-0.08883473
243	0xbbc4d01f	-0.0060062553
244	0xbd2d78c7	-0.04235151
245	0x3a542dc9	0.0008093981
246	0x3c8efc71	0.017454358
247	0x3da187c1	0.07887221
248	0xbca1d3e1	-0.019754352
249	0xbcd59da4	-0.026076145
250	0xbce7eda0	-0.02831155
251	0x3d0821db	0.033235412
252	0xbc8bfad6	-0.017087381
253	0x3d401a62	0.04690016
254	0xbcd6cc38	-0.026220426
255	0xbb6c49d2	-0.0036054743

module.layer1.0.shortcut.1.weight f4 [16]
0	0x3dc251b0	0.09488237
1	0x3e342e3c	0.17595762
2	0x3e8ffc74	0.28122294
3	0x3e24f2ca	0.16108242
4	0x3e3acce1	0.18242218
5	0x3e8a0b46	0.26961726
6	0xbbd8a61a	-0.0066115977
7	0x3d46878e	0.04846912
8	0xbd31746f	-0.04332393
9	0x3eb24c80	0.3482399
10	0x3ea69712	0.32537133
11	0x3e83242c	0.25613534
12	0x3d6a2e9b	0.057173353
13	0x3e81d8f5	0.25360838
14	0x3e9c8560	0.30570507
15	0x3e8cdc9e	0.27512068

module.layer1.0.shortcut.1.bias f4 [16]
0	0xbbbcad3d	-0.0057579563
1	0x3de93b9a	0.11388321
2	0xbc9408f5	-0.018070677
3	0xbcadbe58	-0.021208927
4	0x3e2e98fb	0.17050545
5	0xbcf7d9cc	-0.03025522
6	0xbd04c2d0	-0.03241235
7	0xbcc39fe4	-0.023879953
8	0x3cb270b5	0.021782259
9	0x3e2e5758	0.17025506
10	0x3e1eb349	0.1549808
11	0x3e4e6819	0.20156898
12	0xbd1e8b00	-0.03870678
13	0x3dfddb95	0.123953976
14	0x3b01f86a	0.0019831904
15	0x3e279bdc	0.1636805

module.layer1.0.shortcut.1.running_mean f4 [16]
0	0x3d94b669	0.072613545
1	0x3e28c965	0.16483076
2	0xbe0590bf	-0.13043498
3	0xbd4cb51d	-0.04997741
4	0x3e15befc	0.14623636
5	0xbdb53813	-0.08848586
6	0xbb1bf9dd	-0.0023800053
7	0xbd4b5733	-0.049643707
8	0xbcdc1941	-0.02686751
9	0xbdb50415	-0.08838669
10	0xbdd65750	-0.10465872
11	0xbe1d15fb	-0.15340416
12	0xbd38e40d	-0.04513936
13	0x3cc6f815	0.024288217
14	0xbd764f48	-0.060134202
15	0xbe0b6028	-0.136109

module.layer1.0.shortcut.1.running_var f4 [16]
0	0x3ba36729	0.004986663
1	0x3c1785ce	0.00924821
2	0x3c85b3bd	0.016321057
3	0x3c2bb081	0.0104790935
4	0x3c160fb6	0.009159019
5	0x3c9700ca	0.018432993
6	0x3ab06e52	0.0013460612
7	0x3b1a3d9e	0.0023535262
8	0x3ad47c64	0.0016211388
9	0x3cb06262	0.021531288
10	0x3cb298a7	0.021801306
11	0x3c56981e	0.013097791
12	0x3b0c6c88	0.0021426994
13	0x3c6972ce	0.014248563
14	0x3c6905a6	0.014222538
15	0x3c10211e	0.008796958

module.layer2.0.conv1.weight f4 [32, 16, 3, 3]
0	0xbdb0ddd6	-0.08636062
1	0xbd814c00	-0.06313324
2	0xbc7d9e24	-0.015479598
3	0xbe1c12ce	-0.15241548
4	0xbe093eba	-0.13402835
5	0xbd9e321f	-0.077244036
6	0xbdc36666	-0.09541015
7	0xbdda51f1	-0.1066016
8	0xbdea5d7e	-0.114436135
9	0xbd965abb	-0.07341524
10	0x3d18495d	0.03717934
11	0x3d3dc41d	0.046329606
12	0xbd642f75	-0.05570932
13	0xbccce9cc	-0.025013827
14	0xbc41a6b1	-0.0118195275
15	0xbd1b84fb	-0.037968617
16	0xbd240224	-0.040041104
17	0xbd480399	-0.048831556
18	0xbdbb41ab	-0.091433845
19	0xbd96d744	-0.073652774
20	0xbca3936a	-0.019967753
21	0xbe10ad7b	-0.14128678
22	0xbe185a9a	-0.14878312
23	0xbd9833b6	-0.07431738
24	0xbdaabe4e	-0.08337079
25	0xbdd7841f	-0.10523247
26	0xbd96ac69	-0.073571034
27	0x3b1673f5	0.00229573
28	0x3dd87b64	0.1057041
29	0x3e0f2b01	0.13981248
30	0xbdf96acc	-0.12178573
31	0x3d9bd25a	0.07608481
32	0x3e09a225	0.1344076
33	0xbdf15183	-0.11783125
34	0xbddda4a4	-0.10822418
35	0x3c98b6ee	0.018641915
36	0x3d20b03e	0.039230578
37	0xbc4b5d8e	-0.012412442
38	0xbd52619e	-0.051362626
39	0x3d0a8b14	0.03382404
40	0xbb835dd3	-0.0040089875
41	0xbd3302b5	-0.043703754
42	0x3d54e21d	0.05197345
43	0x3d1a6672	0.037695356
44	0xbc44730d	-0.011990321
45	0xbbdce678	-0.006741341
46	0x3d143c31	0.036190215
47	0x3d4d6018	0.05014047
48	0xbb7607c2	-0.0037541245
49	0x3da96fe6	0.08273296
50	0x3d601f65	0.05471744
51	0x3c7ff1a9	0.015621581
52	0x3d7ef41a	0.062244512
53	0x3d92ba70	0.071644664
54	0x3cc0b5c7	0.023524178
55	0xbc828c5b	-0.015936067
56	0x3cadfe0a	0.0212393
57	0xbd02df8e	-0.03195148
58	0xbd017bf9	-0.03161237
59	0xbcc30cf9	-0.023809897
60	0xbd80b636	-0.06284754
61	0xbd5ba3a0	-0.05362284
62	0xbd21bd97	-0.039487448
63	0x3d8ceb77	0.06880849
64	0x3e294c7c	0.16533083
65	0x3e44f5dc	0.19234413
66	0xbcfcb8eb	-0.030849895
67	0x3e11d387	0.14240848
68	0x3e67464c	0.2258541
69	0xbdaf6f81	-0.085661896
70	0xbb24198f	-0.0025039648
71	0x3d63cdbb	0.05561612
72	0x3d23be35	0.039976317
73	0x3d1846f1	0.03717703
74	0x3a65add1	0.00087615574
75	0xbccc66b8	-0.024951324
76	0xbce41c1f	-0.02784544
77	0x3b8c6817	0.0042848694
78	0xbd19036c	-0.03735678
79	0xbd540df8	-0.051771134
80	0xbc97be46	-0.018523347
81	0xbc38060a	-0.011231909
82	0xbdbeebed	-0.09322343
83	0xbde7f8ef	-0.11326777
84	0x3d6635c7	0.05620363
85	0x3c8202ff	0.01587057
86	0xbc9b37eb	-0.018947562
87	0x3c3342f7	0.010941259
88	0x3dac4e9d	0.08413432
89	0x3daf810b	0.08569535
90	0x3d5278e4	0.05138482
91	0xbc3fc0f4	-0.011703718
92	0xbd85493a	-0.065081075
93	0x3d126999	0.035745237
94	0x3d15fd19	0.036618326
95	0xbd2308c9	-0.0398033
96	0x3d893d27	0.06701117
97	0x3dac4ba0	0.08412862
98	0xbca8bf1a	-0.020598937
99	0x3b2d5941	0.0026450905
100	0x3c1f4369	0.009720662
101	0x3ca7ad24	0.020468302
102	0xbd2424ba	-0.040074088
103	0xbca4d87e	-0.020122763
104	0x3d15cca5	0.036572117
105	0xbd7901ad	-0.060792614
106	0xbd1b8c81	-0.03797579
107	0x3d52397c	0.051324353
108	0xbdb4f2e2	-0.08835389
109	0xbdf25a2a	-0.11833604
110	0xbd2637bf	-0.040580507
111	0xbdbfeae6	-0.09370975
112	0xbdef1666	-0.11674194
113	0xbd9d1ef0	-0.076719165
114	0xbd294acd	-0.0413311
115	0xbd899d41	-0.06719447
116	0xbcc51a6a	-0.024060447
117	0x3d28bc55	0.041195232
118	0xbb0e3f7f	-0.0021705327
119	0xbd57e7a0	-0.05271113
120	0x3c1c83ba	0.00955289
121	0xbcac1c37	-0.021009548
122	0xbd23e043	-0.040008795
123	0x3d5ba140	0.053620577
124	0x3cd5cf03	0.026099687
125	0x3ccc88f8	0.024967656
126	0x3a63b2dd	0.00086860155
127	0xbd3c5bb1	-0.04598588
128	0xbb4b8d29	-0.003105948
129	0x3d1426f6	0.03616997
130	0xbbdd1fc0	-0.0067481697
131	0xbcc74520	-0.024324954
132	0x3d257d5c	0.040402755
133	0x3cb7448c	0.022371553
134	0xbac2deb5	-0.0014867397
135	0x3cb8caeb	0.022557696
136	0x3cb2acae	0.021810856
137	0x3a0a264d	0.00052699895
138	0x3d27de59	0.04098353
139	0x3d6ef1ef	0.058336195
140	0x3cf80d0d	0.03027966
141	0x3c78f20c	0.015194427
142	0xbbebdc90	-0.007197924
143	0xbbaa5219	-0.005197775
144	0xbd665bd5	-0.05623992
145	0xbd2a1e22	-0.041532643
146	0xbcef50b9	-0.029213296
147	0xbcfe34ef	-0.0310311
148	0xbd8c6ca5	-0.0685666
149	0xbc9f7d54	-0.01946894
150	0x3cf89ff9	0.030349718
151	0xbca93fd1	-0.020660313
152	0xbcc9131f	-0.02454525
153	0x3d009f35	0.03140183
154	0xbcaebd21	-0.021330418
155	0xbc90df27	-0.017684532
156	0x3cbd7ee8	0.023131803
157	0x3bec8256	0.0072176857
158	0x3c986a50	0.018605381
159	0xbd183df2	-0.03716845
160	0xbd66fc21	-0.056392793
161	0xbcb76314	-0.022386111
162	0x3c515d88	0.012778647
163	0xbc320e30	-0.01086764
164	0xbd3326f0	-0.043738306
165	0x3b1eb0de	0.0024214308
166	0xbd2401ef	-0.040040907
167	0xbd0f5f27	-0.035002854
168	0x3d82d034	0.06387368
169	0xbdaeada1	-0.08529211
170	0xbdda2c76	-0.106530115
171	0xbcb57acd	-0.022153283
172	0xbd549f9d	-0.05191003
173	0xbd88ee26	-0.06686048
174	0x3d9355bb	0.07194086
175	0x3dfaa216	0.12237947
176	0x3dde712d	0.1086143
177	0x3cdcd932	0.026959036
178	0x3dafea34	0.085895926
179	0x3e1612a1	0.14655544
180	0x3d61f1ee	0.055162363
181	0x3d842e9c	0.064542025
182	0x3ce3cb27	0.027806832
183	0x3d00be8e	0.031431727
184	0x3cd0cc5b	0.02548807
185	0x39507544	0.0001988011
186	0xbc1702e5	-0.009216999
187	0xbcbc1bba	-0.02296244
188	0xbd85da56	-0.06535785
189	0x3d4d7c7a	0.05016754
190	0x3c933140	0.01796782
191	0x3d270081	0.040771965
192	0xbce98a5e	-0.028508361
193	0xbcfb726a	-0.030694205
194	0xbc0e23ad	-0.008675498
195	0xbd508557	-0.050908413
196	0xbdb0f0ce	-0.0863968
197	0xbd5c6516	-0.05380734
198	0xbd304745	-0.043036718
199	0xbda89d32	-0.082331076
200	0x3b8c6111	0.004284032
201	0xbd0ce396	-0.03439673
202	0xbd810993	-0.06300654
203	0xbd711b40	-0.05886388
204	0xbc978cd2	-0.018499766
205	0xbd587be0	-0.05285251
206	0xbd544a08	-0.051828414
207	0x3d5c7c1a	0.05382929
208	0x3d5cb30a	0.053881682
209	0x3d2893f2	0.041156717
210	0x3d5e555e	0.05428063
211	0x3e178096	0.14795145
212	0x3d054907	0.032540347
213	0xbd1ee91d	-0.038796533
214	0x3d79406f	0.060852464
215	0x3c9c6695	0.019091884
216	0xbca46c44	-0.020071156
217	0xbc3302b2	-0.010925936
218	0x3d7b329f	0.061327573
219	0xbd393a8a	-0.045221843
220	0xbd6ddac2	-0.05806995
221	0xbb27f7e4	-0.0025629932
222	0x3d31fd90	0.043454707
223	0x3d018306	0.031619094
224	0xbca984a1	-0.020693125
225	0x3d8af212	0.067844525
226	0x3d9456e9	0.07243139
227	0x3d8c2215	0.06842438
228	0xbd0a1a16	-0.033716284
229	0x3c023ec1	0.007949532
230	0x3da05922	0.07829501
231	0xbd69c6e6	-0.05707445
232	0xbdda9435	-0.106727995
233	0xbdd772b6	-0.10519926
234	0xbdb877a9	-0.09007198
235	0x3e153d82	0.14574245
236	0x3e4f96ff	0.20272444
237	0xbe255dbe	-0.16149041
238	0x3d0fddbf	0.035123583
239	0x3e6eaec1	0.23308851
240	0xbe1d3a34	-0.15354234
241	0xbde8ba64	-0.11363676
242	0xbcaab56c	-0.020838462
243	0x3c9b96f5	0.01899288
244	0xbc623177	-0.013805739
245	0xbc8ca4e5	-0.017168472
246	0x3cce44c7	0.02517928
247	0x3c87244f	0.016496805
248	0xbb9ace3e	-0.004724293
249	0x3c83d21c	0.016091399
250	0x3931511b	0.0001691025
251	0xbd0b288e	-0.033974223
252	0xbbd0187c	-0.006350575
253	0x3d7c3929	0.06157795
254	0x3d0b7c47	0.034054067
255	0x3d54c3c4	0.05194451

module.layer2.0.bn1.weight f4 [32]
0	0x3e9b5642	0.30339247
1	0x3e9a5fe6	0.3015129
2	0x3e7daae6	0.24772224
3	0x3e9dec68	0.30844426
4	0x3e908fd2	0.28234726
5	0x3edbc1ec	0.42921388
6	0x3eb0a6f8	0.34502387
7	0x3e871fbd	0.26391402
8	0x3e5e3e54	0.21703464
9	0x3e86d808	0.26336694
10	0x3eaa98c5	0.3331968
11	0x3e8dd2a0	0.27699757
12	0x3e7b0516	0.24513659
13	0x3ea956dc	0.3307408
14	0x3ed8810e	0.4228596
15	0x3ea1f809	0.31634548
16	0x3e78706f	0.2426164
17	0x3e7bb932	0.24582365
18	0x3e9628a4	0.2932788
19	0x3e9da32f	0.30788562
20	0x3e9bfb5b	0.30465207
21	0x3e7d640e	0.24745199
22	0x3eaccf79	0.3375204
23	0x3eb7e921	0.3592005
24	0x3e7bb745	0.2458163
25	0x3e901233	0.28138885
26	0x3e9fe91a	0.3123253
27	0x3e8c90b6	0.27454156
28	0x3ea097a4	0.31365693
29	0x3e6abb6f	0.22923063
30	0x3ea8d7d6	0.3297717
31	0x3e778321	0.24171115

module.layer2.0.bn1.bias f4 [32]
0	0xbd20c51e	-0.039250486
1	0xbd300683	-0.04297496
2	0x3dd22ae7	0.10262089
3	0xbd9e703d	-0.077362515
4	0x3d9a58b2	0.075364485
5	0xbe3ce69b	-0.18447344
6	0xbdfe5e55	-0.12420336
7	0xbd811d7d	-0.063044526
8	0x3dc59574	0.096476465
9	0xbdabef0a	-0.083952025
10	0xbdc3b300	-0.09555626
11	0x3d01b233	0.031664085
12	0x3d300b8e	0.04297977
13	0xbdce15b5	-0.10062734
14	0xbbe4fedf	-0.006988391
15	0xbc30e867	-0.010797597
16	0x3d8ccd74	0.068751246
17	0x3e0aa1fe	0.13538358
18	0x3db02291	0.08600343
19	0xbd6db240	-0.05803132
20	0xbcf6c84b	-0.030124804
21	0x3d26bd04	0.040707603
22	0x3b08f794	0.0020899521
23	0xbcc1bca9	-0.02364953
24	0x3d473f18	0.048644155
25	0xbdca2677	-0.09870618
26	0xbdeb36b4	-0.11485043
27	0x3d23c657	0.039984073
28	0xbe2eb461	-0.17060997
29	0x3df55574	0.119791895
30	0xbdcee173	-0.10101595
31	0x3d8194b1	0.06327189

module.layer2.0.bn1.running_mean f4 [32]
0	0xbe1c61f3	-0.1527174
1	0xbc7fb37b	-0.015606756
2	0xbe1b8a06	-0.1518937
3	0x3e73152a	0.23738542
4	0xbec1e36b	-0.3786882
5	0xbf5653a2	-0.83721364
6	0x3d29c3e9	0.0414466
7	0xbdd8c4bc	-0.10584399
8	0x3eb8cc7e	0.36093515
9	0x3e83871b	0.25689015
10	0xbea23483	-0.31680688
11	0x3dbf511b	0.093416415
12	0xbee6d3ab	-0.45083365
13	0xbd0b91f2	-0.03407473
14	0xbf0028fa	-0.50062525
15	0xbf3b2748	-0.73106813
16	0x3af9c4d1	0.0019055848
17	0x3ee3ce0d	0.44493142
18	0xbf0a6e60	-0.5407467
19	0xbe4ae0b4	-0.1981228
20	0xbf21e878	-0.63245344
21	0xbe598a34	-0.21244127
22	0xbe8cf333	-0.27529296
23	0xbe9522cb	-0.29128107
24	0xbe384040	-0.1799326
25	0x3efab6bd	0.48967543
26	0xbc52106e	-0.0128213
27	0xbdbaa380	-0.091132164
28	0x3eca9dbb	0.39573464
29	0xbea815ad	-0.32829037
30	0xbf12604c	-0.5717819
31	0x3dee18c6	0.11625819

module.layer2.0.bn1.running_var f4 [32]
0	0x3db8146d	0.08988271
1	0x3dc04592	0.093882695
2	0x3d818c09	0.06325538
3	0x3d7476b2	0.05968351
4	0x3d98ccfa	0.07460971
5	0x3d8e2836	0.069412634
6	0x3de0dba0	0.1097939
7	0x3d5c8eca	0.05384711
8	0x3dd79f95	0.10528485
9	0x3dc6985d	0.0969703
10	0x3d830afd	0.0639858
11	0x3df72994	0.12068477
12	0x3dd7421c	0.10510656
13	0x3d6d0a89	0.057871375
14	0x3e2bbc19	0.16770972
15	0x3dcde585	0.10053543
16	0x3d82b960	0.06383014
17	0x3df0b471	0.117531665
18	0x3dc45d47	0.09588104
19	0x3df8f091	0.121552594
20	0x3e1f68a3	0.1556726
21	0x3d90b4d2	0.07065739
22	0x3e3ea861	0.18618919
23	0x3df07a61	0.11742092
24	0x3dc40602	0.095714584
25	0x3d85f1ba	0.06540246
26	0x3daef6e0	0.085431814
27	0x3de7438d	0.11292181
28	0x3db261c3	0.08710053
29	0x3d9d81eb	0.076907955
30	0x3dba123b	0.090855084
31	0x3daa39dc	0.08311817
