results/3r9s/cifar10/nokd/resnet8_best.pth.tar (torch_old, 371450 bytes, 52 tensors)

module.conv1.weight f4 [64, 3, 3, 3]
-0.0966593 0.28593364 0.40690026 -0.17690228 0.076622605 0.19398622 -0.23214722 -0.35402018
-0.073437065 -0.082211435 0.004704292 -0.009046181 0.050469715 0.069929235 -0.043438174 0.06383378
-0.07173557 0.0053728395 -0.10714617 -0.10321016 -0.23908122 0.17392877 0.17911725 -0.13641825
0.20910153 0.15349329 0.0031179672 -0.14481057 -0.0056991004 0.09101506 -0.1661629 0.04348026
0.15060544 -0.095906675 0.013208766 0.103873655 -0.27380583 -0.05750319 0.1542394 -0.25716862
0.041054856 0.2563339 -0.086943276 0.09203665 0.24390182 -0.3182395 -0.10286879 0.088329345
-0.3017112 0.031514667 0.2662066 -0.103147686 0.11883003 0.31243956 0.058687475 -0.013828868
-0.069589466 0.048732303 -0.02964367 -0.066059634 0.07382138 -0.021151932 -0.035691176 -0.012375535
-0.048356034 -0.0976068 0.04598583 0.035701644 0.0010289913 0.09041911 0.07058918 0.059243083
0.054586194 0.059424646 -0.009250475 0.08534359 0.12923154 0.07872288 0.056584883 0.090242565
0.07367079 -0.06023977 -0.03413679 0.07522331 -0.009228508 0.018926796 0.08372418 0.037683703
0.04788576 0.007340563 -0.08089274 -0.09381087 0.0019359845 -0.029709168 -0.044707544 0.015160736
0.010530728 -0.0010173124 -0.022156706 -0.007651636 -0.02224703 0.027723508 0.053565484 0.026723009
0.040146504 0.06322574 0.034706507 -0.019270562 0.047115598 -0.047202233 -0.05143549 0.024623958
-0.10102076 -0.07406407 0.07891001 0.03936277 0.025314303 -0.0069880364 -0.08360829 -0.03548465
-0.008069299 -0.11131066 -0.045635197 0.09049755 0.0822894 0.087129824 -0.012549003 -0.11531848
-0.1144643 0.061683726 -0.09327874 -0.113722414 0.18314898 0.10496763 0.041965745 0.0629351
-0.004054175 -0.07855553 0.14579561 0.022468632 -0.14524741 0.12133135 0.011678319 -0.098692514
0.17951328 -0.02376703 -0.19635682 0.28317842 0.0075746085 -0.2712257 0.24662352 0.030196784
-0.16376925 0.1333945 -0.06082737 -0.23008876 0.32177073 0.027509607 -0.3016383 0.30248615
0.052964892 -0.23442373 -0.29117396 -0.058649436 0.15454255 -0.20588447 -0.034450293 0.27095908
-0.094903186 0.08550379 0.16467606 0.0088830525 0.018105667 0.040718343 0.0876274 -0.0952809
-0.031388324 0.046414804 -0.025690041 -0.07955919 0.05864514 0.07292041 0.0004395294 0.19699335
-0.021886474 -0.10692155 0.14353533 -0.02350671 -0.20825991 -0.0023648832 -0.053711053 0.01586239
-0.0066649867 -0.027307246 0.008322011 0.007479288 -0.050228003 -0.068317376 -0.09437042 -0.13488112
-0.075148344 -0.07900041 -0.039431192 -0.021581098 -0.034962196 -0.0029278954 -0.029220017 -0.028330559
-0.038767837 -0.06752862 0.08391187 0.16951199 0.09457149 0.124044806 0.21530819 0.12614705
-0.072491914 -0.16834937 -0.13303998 0.019803377 -0.0019954129 0.010207532 0.086140186 0.09145668
0.052376058 -0.17881286 -0.17995809 -0.12726109 -0.00915917 0.09275636 0.09881489 0.11092655
0.22082874 0.15650693 -0.18672831 -0.2162428 -0.15154374 -0.05496466 -0.0023181671 0.033977143
0.09863473 0.17198649 0.14212239 0.06662348 0.0060551376 -0.03330263 0.08884572 -0.04474989
-0.08878965 0.04797497 -0.07378121 -0.06141695 0.10314101 -0.074451044 -0.10860523 0.146301
00000000: 50f5 c5bd e565 923e 3b55 d03e df25 35be
00000010: 50ec 9c3d 53a4 463e 00b8 6dbe 2242 b5be
00000020: 2c66 96bd 785e a8bd 7626 9a3b 6f36 14bc
00000030: 55b9 4e3d 0f37 8f3d 3aec 31bd 49bb 823d
00000040: 19ea 92bd a50e b03b 746f dbbd d95f d3bd
00000050: b5d1 74be 621a 323e 836a 373e 3ab1 0bbe
00000060: b61e 563e 582d 1d3e cf56 4c3b 3949 14be
00000070: 85bf babb 1b66 ba3d 9b26 2abe 5b18 323d
00000080: 5038 1a3e b86a c4bd 9469 583c b6bb d43d
00000090: 4730 8cbe 7788 6bbd eff0 1d3e 9bab 83be
000000a0: 2329 283d 323e 833e 510f b2bd b67d bc3d
000000b0: 66c1 793e 4af0 a2be dfac d2bd 04e6 b43d
000000c0: e479 9abe 8615 013d 3b4c 883e 183f d3bd
000000d0: 295d f33d 14f8 9f3e 4762 703d 7a92 62bc
000000e0: ec84 8ebd 869b 473d 48d7 f2bc 464a 87bd
000000f0: aa2f 973d d146 adbc e930 12bd c2c2 4abc
00000100: fa10 46bd 13e6 c7bd a35b 3c3d e33b 123d
00000110: 38df 863a a82d b93d 0f91 903d e0a8 723d
00000120: c695 5f3d 4267 733d 4e8f 17bc 9fc8 ae3d
00000130: 4655 043e 7639 a13d 8dc5 673d 18d1 b83d
00000140: b6e0 963d fabd 76bd 05d3 0bbd ae0e 9a3d
00000150: 2b33 17bc 5e0c 9b3c 9577 ab3d 3a5a 1a3d
00000160: dc23 443d 1b89 f03b 18ab a5bd ea1f c0bd
00000170: dcc0 fd3a a460 f3bc 421f 37bd bc64 783c
00000180: 1389 2c3c 5757 85ba fb81 b5bc 93ba fabb
00000190: 673f b6bc 691c e33c 7b67 5b3d 36ea da3c
000001a0: a970 243d 7f7c 813d 6928 0e3d 4cdd 9dbc
000001b0: 49fc 403d 2157 41bd 05ae 52bd 2fb8 c93c
000001c0: f9e3 cebd e7ae 97bd 929b a13d db3a 213d
000001d0: f15f cf3c e6fb e4bb d33a abbd 5a58 11bd
000001e0: 1835 04bc d8f6 e3bd f9eb 3abd c856 b93d
000001f0: 5887 a83d 1f71 b23d 559a 4dbc 182c ecbd
00000200: 426c eabd 13a8 7c3d ed08 bfbd 4ce7 e8bd
00000210: 688b 3b3e 45f9 d63d 46e4 2b3d 1ee4 803d
00000220: e3d8 84bb b9e1 a0bd 724b 153e 2310 b83c
00000230: bdbb 14be 927c f83d 6c56 3f3c 4d1f cabd
00000240: 54d2 373e 13b3 c2bc c311 49be c3fc 903e
00000250: 6c34 f83b 18de 8abe e08a 7c3e 3f5f f73c
00000260: 20b3 27be 9198 083e 1f26 79bd 639c 6bbe
00000270: 22bf a43e d45b e13c 5670 9abe 77df 9a3e
00000280: b7f1 583d c60c 70be c114 95be 643a 70bd
00000290: 6740 1e3e 61d3 52be c01b 0dbd 26bb 8a3e
000002a0: 9a5c c2bd 9c1c af3d d7a0 283e 398a 113c
000002b0: 5652 943c 47c8 263d ff75 b33d a222 c3bd
000002c0: 0b91 00bd 731d 3e3d ec73 d2bc eeef a2bd
000002d0: e335 703d 4c57 953d a370 e639 a0b8 493e
000002e0: 434b b3bc b0f9 dabd edfa 123e 2591 c0bc
000002f0: 1642 55be 28fc 1abb 1f00 5cbd d8f1 813c
00000300: f665 dabb 72b3 dfbc 0b59 083c d114 f53b
00000310: e1bb 4dbd fbe9 8bbd 4745 c1bd 471e 0abe
00000320: 60e7 99bd f8ca a1bd 9a82 21bd d8ca b0bc
00000330: 8534 0fbd efe1 3fbb d15e efbc 7d15 e8bc
00000340: 06cb 1ebd 724c 8abd fdd9 ab3d 8d94 2d3e
00000350: b3ae c13d 340b fe3d c079 5c3e b12c 013e
00000360: a476 94bd c763 2cbe a23b 08be b13a a23c
00000370: 79c5 02bb 7e3d 273c 446a b03d a44d bb3d
00000380: 4788 563d b81a 37be ef46 38be bb50 02be
00000390: 5810 16bc 0cf7 bd3d 765f ca3d 762d e33d
000003a0: ee20 623e 5a43 203e b535 3fbe c16e 5dbe
000003b0: 482e 1bbe a022 61bd 64ec 17bb 9e2b 0b3d
000003c0: 0101 ca3d 3a1d 303e 8888 113e e471 883d
000003d0: 2d6a c63b 5768 08bd bff4 b53d a94b 37bd
000003e0: 59d7 b5bd 6781 443d 9a1a 97bd 5790 7bbd
000003f0: 983b d33d ca79 98bd 6b6c debd eecf 153e

module.bn1.weight f4 [64]
0.18381411 0.24784762 0.28398252 0.14972408 0.13851818 0.2414112 0.15790457 0.17075586
0.19640195 0.22937219 0.2574608 0.18819422 0.21827318 0.14532985 0.00015420881 0.56602484
0.2530204 0.21329455 0.08455646 0.23353021 0.16612011 0.37868926 0.2442365 0.24349818
0.24330966 0.29146445 0.13684295 0.35711318 0.3284374 0.1448529 0.23044433 0.16497187
0.1341233 0.10834988 0.18350336 0.42635536 0.2598607 0.17514175 0.24149428 0.19538543
0.2018796 0.33088207 0.35752338 0.26712114 0.22835387 0.27150983 0.06681783 0.26747417
0.22611311 0.44402516 0.18592727 0.23986532 0.20239623 0.129431 0.5242186 0.2188316
0.212037 0.437117 0.18667296 0.14950566 0.33579767 0.3320058 0.28326812 0.19054519
00000000: c439 3c3e c4cb 7d3e 2866 913e 4551 193e
00000010: b6d7 0d3e 7f34 773e bcb1 213e a0da 2e3e
00000020: 981d 493e 8be0 6a3e e7d1 833e fcb5 403e
00000030: 0183 5f3e 59d1 143e 1db3 2139 01e7 103f
00000040: e48b 813e e369 5a3e f02b ad3d 8b22 6f3e
00000050: 641b 2a3e 8fe3 c13e 2219 7a3e 9657 793e
00000060: 2b26 793e d43a 953e 8f20 0c3e 8ad7 b63e
00000070: f228 a83e 5254 143e 99f9 6b3e 63ee 283e
00000080: 9e57 093e 8be6 dd3d 4ee8 3b3e 404b da3e
00000090: 760c 853e 5c58 333e 474a 773e 1e13 483e
000000a0: 87b9 4e3e 6069 a93e 4e0d b73e 1ac4 883e
000000b0: 99d5 693e 5603 8b3e c9d7 883d 60f2 883e
000000c0: 328a 673e 4457 e33e b863 3e3e 419f 753e
000000d0: f540 4f3e 8f89 043e 3133 063f 6415 603e
000000e0: 3a20 593e cdcd df3e 3227 3f3e 0318 193e
000000f0: aced ab3e aafc a93e 8508 913e 471e 433e

module.bn1.bias f4 [64]
0.20415269 0.13755819 -0.20657861 -0.0870342 0.070373744 0.11268516 0.13190041 0.0078579495
0.1532284 0.06833085 -0.19365692 0.18777582 0.10128804 0.06877571 -0.0005182851 -0.43330735
-0.07337425 -0.07568333 0.059669998 0.12464443 -0.1191888 -0.3777316 -0.06149482 -0.18033192
0.112778015 -0.26609012 0.024937253 0.12535593 -0.18789984 -0.08624362 0.23438124 0.07191426
0.08390008 0.049943164 0.082202874 -0.27117565 0.11286581 -0.08594215 -0.18973827 0.1821938
-0.033335812 -0.21214397 0.11123444 0.43899974 -0.08981292 -0.18674454 0.02061196 0.0012213178
-0.15248905 0.25523192 -0.12591852 0.2830896 0.05090544 -0.085065894 -0.45845804 -0.2459786
-0.0912731 -0.2363424 0.08310053 0.11801018 0.13785732 0.116525285 -0.24811849 -0.12548551
00000000: 670d 513e 0edc 0c3e 5889 53be fd3e b2bd
00000010: 1c20 903d 7ac7 e63d e710 073e a1be 003c
00000020: e8e7 1c3e 0bf1 8b3d 004e 46be 4e48 403e
00000030: 1b70 cf3d 48da 8c3d 86dd 07ba 76da ddbe
00000040: 3d45 96bd ddff 9abd 8768 743d 9445 ff3d
00000050: 4219 f4bd 0966 c1be fee1 7bbd eea8 38be
00000060: 29f8 e63d f73c 88be 3649 cc3c 4e5d 003e
00000070: d168 40be 7fa0 b0bd a301 703e c947 933d
00000080: ced3 ab3d 3491 4c3d fb59 a83d 89d7 8abe
00000090: 3126 e73d 7002 b0bd c04a 42be 0391 3a3e
000000a0: 228b 08bd 453c 59be e2ce e33d 93c4 e03e
000000b0: d6ef b7bd f639 3fbe 6ada a83c a014 a03a
000000c0: 1726 1cbe c2ad 823e c9f0 00be 1ff1 903e
000000d0: 3982 503d 0737 aebd 03bb eabe d0e1 7bbe
000000e0: 64ed babd be03 72be 9c30 aa3d 52af f13d
000000f0: 782a 0d3e cfa4 ee3d c612 7ebe 467f 00be

module.bn1.running_mean f4 [64]
-0.061815795 -0.039195843 -0.20332539 -0.031159477 0.058944125 -0.042550504 -0.015541564 -0.002422181
0.0037458756 0.11471879 0.03570668 -0.016982911 -0.059825927 0.0062004947 0.0025118706 0.19307204
-0.01100019 0.059958708 0.023815354 0.020475294 -0.06255622 0.2253181 0.21418165 0.009698646
0.13063231 -0.14325787 -0.0053815083 -0.057874344 0.081084564 0.027416844 -0.015133687 0.021868953
-0.05708054 -0.033420246 0.025401477 0.18381241 -0.019663604 -0.10358034 0.04671277 -0.062736444
0.025205726 0.11459764 -0.04908457 -0.021697942 0.0774313 0.013018042 -0.01357234 0.0029517103
0.032480642 0.042851236 -0.048619393 0.0010860891 -0.023236284 -0.05369241 0.26608902 -0.10000616
0.01345579 0.21365443 -0.08160072 -0.026562355 0.04800929 -0.03120583 0.026270641 0.033669963
00000000: 8f32 7dbd d28b 20bd 8834 50be 2942 ffbc
00000010: 656f 713d 7049 2ebd 0ba2 7ebc 74bd 1ebb
00000020: 5d7d 753b aff1 ea3d 2b41 123d bf1f 8bbc
00000030: 080c 75bd 852d cb3b 329e 243b adb4 453e
00000040: 243a 34bc 4397 753d 6b18 c33c cebb a73c
00000050: 7a1d 80bd cab9 663e 6f52 5b3e 12e7 1e3c
00000060: 7ac4 053e 31b2 12be 5d57 b0bb a60d 6dbd
00000070: aa0f a63d 4a99 e03c 49f3 77bc 8526 b33c
00000080: 49cd 69bd abe3 08bd c216 d03c 5239 3c3e
00000090: 9115 a1bc ee21 d4bd e455 3f3d f77b 80bd
000000a0: 3d7c ce3c 2bb2 ea3d e70c 49bd e2bf b1bc
000000b0: 4d94 9e3d a049 553c 855e 5ebc 7b71 413b
000000c0: 6c0a 053d c784 2f3d 2125 47bd 1a5b 8e3a
000000d0: 055a bebc 93ec 5bbd d23c 883e 08d0 ccbd
000000e0: ac75 5c3c 3ac8 5a3e 471e a7bd 4c99 d9bc
000000f0: 64a5 443d 5ea3 ffbc 8735 d73c 84e9 093d

module.bn1.running_var f4 [64]
0.23114157 2.657139 0.8765839 0.07746589 0.51900065 2.5541492 0.07902256 0.27450186
1.5442891 0.87028027 0.25493422 0.21139413 2.0428014 0.14979915 0.00010662106 1.0877734
0.12609833 0.1449769 0.058942348 0.51007104 0.17104527 0.92624325 0.89806175 0.21191823
0.50184476 0.37655953 0.4071955 0.84099245 0.5579944 0.04323114 0.10460214 0.9824424
0.47073948 0.515397 0.2329809 0.87870806 0.6771625 0.2948167 0.2036146 2.1054592
0.54606754 0.46391758 0.46350253 0.10870171 0.1940163 0.31647408 0.09891584 0.20210686
0.13247028 0.79688585 0.11789072 0.23579335 1.3029383 0.06332486 1.2356201 0.25152236
0.16564429 0.9260655 0.4173062 0.25577423 0.65701586 0.5669479 0.24717464 0.12628539
00000000: 60b0 6c3e 910e 2a40 cd67 603f 70a6 9e3d
00000010: 3add 043f 2e77 2340 94d6 a13d 828b 8c3e
00000020: 44ab c53f b0ca 5e3f bd86 823e b477 583e
00000030: 42bd 0240 f364 193e bf99 df38 293c 8b3f
00000040: ec1f 013e d374 143e 886d 713d 0494 023f
00000050: 7e26 2f3e 471e 6d3f 60e7 653f 1801 593e
00000060: e678 003f 69cc c03e ee7b d03e 484b 573f
00000070: b9d8 0e3f 2313 313d a639 d63d 5881 7b3f
00000080: c404 f13e 0ff1 033f 8c92 6e3e 03f3 603f
00000090: 865a 2d3f 37f2 963e 5880 503e d8bf 0640
000000a0: 15cb 0b3f 9b86 ed3e 3450 ed3e 019f de3d
000000b0: 35ac 463e e408 a23e 6394 ca3d 1af5 4e3e
000000c0: 4aa6 073e b600 4c3f b170 f13d d073 713e
000000d0: afc6 a63f 77b0 813d cd28 9e3f 8ac7 803e
000000e0: a89e 293e a112 6d3f 29a9 d53e d7f4 823e
000000f0: 3132 283f 7f23 113f 591b 7d3e f550 013e

module.layer1.0.conv1.weight f4 [16, 64, 3, 3]
0.014906578 -0.006398894 -0.01185246 -0.038911585 -0.047400996 0.019053914 0.004570363 0.013884333
0.059256166 -0.012771279 -0.047668565 0.006983112 -0.0016396414 0.006373534 0.037164833 -5.0392027e-05
0.03550977 0.010528025 0.06273506 0.019842906 -0.012553067 0.04135056 0.0008749115 -0.01947444
0.031938545 -0.007780408 -0.03550044 -0.010807378 0.0030352704 0.0076937 -0.0028237305 0.020562675
0.0046569784 0.008680684 0.010555449 -0.039159793 0.03950842 0.017961936 0.005832969 0.022633245
-0.012953256 -0.03405944 0.021652086 -0.019935992 -0.018251216 0.0336448 -0.0054561174 -0.025355613
0.020955848 -0.026147624 -0.035731263 -0.0018823338 -0.037892804 -0.0039296625 -0.0049629523 0.081506595
0.047388125 0.044561785 0.05566812 -0.0071071517 0.048244625 -0.029340215 -0.075000465 0.04503356
0.0029339783 -0.009433923 0.016510097 -0.0038527604 -0.020284494 -0.018055813 -0.033076733 -0.0554731
0.014295362 -0.013182234 0.0014854325 0.0059250104 0.0060049784 0.022367716 0.0067013884 0.01984129
0.010070027 0.0366735 0.0041742455 -0.024903195 0.017245075 -0.013165967 -0.0368272 -0.0036874407
-0.035064757 -0.004546701 -0.03704059 -0.026652066 -0.035911903 -0.008447764 0.007357058 -0.0351976
-0.008522616 -0.018302266 -0.065527074 0.024250003 -0.09012428 -0.037758395 -0.07438752 -0.117503576
0.025330676 -0.10844169 -0.031004174 0.12759109 0.049539503 0.02463902 0.03143799 0.038826503
-0.008970249 0.0070109433 0.009833784 -0.042761777 -0.007684514 0.004368597 -0.024067858 -0.0116483765
-0.006523438 -0.015970206 0.010234042 -0.013494097 -0.010019551 0.016840775 -9.1290385e-06 0.00011977705
0.00023029835 -0.000117522315 -0.00013929323 0.00013799372 -4.6052122e-05 -0.000101667625 -9.075263e-05 -0.018472657
-0.014131483 -0.032458052 -0.049736433 -0.027364548 -0.057407677 -0.046611562 -0.023880217 -0.008559244
0.026513575 0.03653536 0.049546797 0.022695834 0.002355405 -0.03482017 -0.01788565 -0.047532577
-0.080561884 0.0018112353 0.0015900003 0.012797541 0.013037283 -0.008979951 -0.023178967 0.0005244797
-0.0015648002 -0.045897204 -0.02271751 -0.048598684 -0.05336662 -0.04975375 -0.04783623 -0.019639766
-0.056689475 -0.026198674 0.012313016 0.0044126604 0.089416645 0.01563772 0.06986106 0.061529953
-0.12141973 0.072005495 -0.03280344 -0.11832095 -0.021316027 -0.030637536 -0.0034421429 0.006457283
0.0069692885 0.024937669 0.032047488 0.028198555 0.020941203 0.009141071 0.01563392 -0.013296436
-0.0029714487 -0.0052624466 -0.03433106 0.0017398688 -0.01882125 -0.014049311 0.045661177 0.028829671
0.0037248996 0.034696504 0.0051208176 -0.020160066 0.022439793 -0.00929701 -0.041625872 0.006125863
-0.037470967 -0.039899852 0.00015233479 -0.023399074 -0.0300668 0.004941854 -0.016294217 -0.04448916
0.063621074 0.053816125 0.012508369 0.048364248 0.030445864 -0.038182877 0.038672987 0.011251826
-0.05676162 0.00173256 -0.0022321232 -0.003564299 0.0075634276 0.00017200528 0.007666296 0.01953371
0.014178117 0.01991638 -0.019295488 -0.019191507 -0.022058781 0.008123369 0.013847635 -0.0028932104
0.013684382 0.022377636 -0.01635351 0.03443038 0.00022904798 -0.019678764 0.004688598 -0.037032735
-0.014643554 0.020955296 0.02054461 0.04178056 0.045117505 0.035308573 0.0422351 -0.0045000804
00000000: b83a 743c d0ad d1bb d230 42bc c161 1fbd
00000010: 8c27 42bd f416 9c3c fcc2 953b 1d7b 633c
00000020: 98b6 723d a03e 51bc 1d40 43bd 97d2 e43b
00000030: 3ce9 d6ba 14d9 d03b 273a 183d 075c 53b8
00000040: b172 113d bd7d 2c3c 3d7b 803d 978d a23c
00000050: 61ab 4dbc 345f 293d 515a 653a dc88 9fbc
00000060: fed1 023d cbf2 febb e968 11bd 6e11 31bc
00000070: 63eb 463b 6f1b fc3b 560e 39bb 0e73 a83c
00000080: 9199 983b 6d39 0e3c c3f0 2c3c 0566 20bd
00000090: 95d3 213d e924 933c 7e22 bf3b 5b69 b93c
000000a0: e539 54bc e981 0bbd b75f b13c ce50 a3bc
000000b0: 9383 95bc 21cf 093d 3bc9 b2bb 93b6 cfbc
000000c0: 99ab ab3c 8b33 d6bc f25a 12bd a4b8 f6ba
000000d0: 7c35 1bbd 66c4 80bb 43a0 a2bb eeec a63d
000000e0: 0d1a 423d 6b86 363d 4104 643d 1ce3 e8bb
000000f0: 289c 453d e45a f0bc d899 99bd 1c75 383d
00000100: fd47 403b be90 1abc 2f40 873c 987e 7cbb
00000110: ab2b a6bc c9e9 93bc 787b 07bd c337 63bd
00000120: 1837 6a3c 4cfa 57bc d8b2 c23a 9726 c23b
00000130: 69c5 c43b 803c b73c 5297 db3b 338a a23c
00000140: c1fc 243c f436 163d 1cc8 883b c901 ccbc
00000150: 8b45 8d3c 11b6 57bc 1ed8 16bd fda8 71bb
00000160: 10a0 0fbd 7efc 94bb e0b7 17bd 6f55 dabc
00000170: 5c18 13bd 7e68 0abc 7a13 f13b 5c2b 10bd
00000180: 71a2 0bbc a2ee 95bc 0f33 86bd f1a7 c63c
00000190: 1493 b8bd 8ca8 1abd 7c58 98bd b7a5 f0bd
000001a0: 4782 cf3c ad16 debd 77fc fdbc 3da7 023e
000001b0: efe9 4a3d c5d7 c93c 1fc5 003d 8a08 1f3d
000001c0: f4f7 12bc 0ebc e53b e11d 213c f926 2fbd
000001d0: 60ce fbbb 7326 8f3b f529 c5bc d5d8 3ebc
000001e0: 90c2 d5bb f3d3 82bc afac 273c 5816 5dbc
000001f0: 0b29 24bc aaf5 893c ec28 19b7 d030 fb38
00000200: 3e7c 7139 5076 f6b8 3e0f 12b9 68b2 1039
00000210: 1728 41b8 6436 d5b8 7252 beb8 f853 97bc
00000220: bc87 67bc bcf2 04bd 6eb8 4bbd 9e2b e0bc
00000230: 5024 6bbd c4eb 3ebd 72a0 c3bc 123c 0cbc
00000240: ff32 d93c 1aa6 153d 95f1 4a3d 9dec b93c
00000250: 235d 1a3b 989f 0ebd ed84 92bc 85b1 42bd
00000260: a1fd a4bd f966 ed3a 8f67 d03a c7ac 513c
00000270: 549a 553c a520 13bc d1e1 bdbc 3d7d 093a
00000280: fb19 cdba b5fe 3bbd 121a babc 6a0f 47bd
00000290: f596 5abd 97ca 4bbd ecef 43bd 93e3 a0bc
000002a0: 3933 68bd 9a9e d6bc 88bc 493c 1498 903b
000002b0: 1320 b73d ad1a 803c 5113 8f3d d506 7c3d
000002c0: e8aa f8bd 9e77 933d e65c 06bd 4152 f2bd
000002d0: f39e aebc 92fb fabc 9395 61bb 9e97 d33b
000002e0: a15e e43b 154a cc3c 3a44 033d a800 e73c
000002f0: e38c ab3c 6ec4 153c b512 803c 4bd9 59bc
00000300: a3bc 42bb 9a70 acbb ba9e 0cbd 4f0c e43a
00000310: 062f 9abc 152f 66bc 3707 3b3d 342c ec3c
00000320: 721d 743b ec1d 0e3d 88cc a73b b926 a5bc
00000330: a8d3 b73c 7c52 18bc e47f 2abd 77bb c83b
00000340: 287b 19bd 076e 23bd 0fbc 1f39 6aaf bfbc
00000350: a64e f6bc 47ef a13b 737b 85bc 443a 36bd
00000360: c44b 823d 4c6e 5c3d e7ef 4c3c 9719 463d
00000370: 9b69 f93c a665 1cbd 9167 1e3d 9459 383c
00000380: df7e 68bd 1117 e33a d048 12bb 0497 69bb
00000390: a1d6 f73b 515c 3439 8d35 fb3b 2905 a03c
000003a0: 554b 683c ad27 a33c 9211 9ebc 8237 9dbc
000003b0: 9eb4 b4bc e117 053c 31e1 623c 049c 3dbb
000003c0: 7534 603c 4e51 b73c ccf7 85bc df06 0d3d
000003d0: 992c 7039 5c35 a1bc d0a2 993b a3af 17bd
000003e0: 84eb 6fbc 71aa ab3c 2c4d a83c 1822 2b3d
000003f0: 22cd 383d b99f 103d b6fe 2c3d 6975 93bb

module.layer1.0.bn1.weight f4 [16]
0.37626907 0.48650575 0.5487966 0.44154608 0.44564247 0.45164123 0.5207311 0.33505788
0.47634894 0.41610768 0.4199733 0.38788724 0.68954307 0.34908146 0.37968177 0.42338994
00000000: 57a6 c03e 4817 f93e ef7d 0c3f 5412 e23e
00000010: 402b e43e 853d e73e a24e 053f b58c ab3e
00000020: 02e4 f33e 110c d53e be06 d73e 2899 c63e
00000030: e585 303f ceba b23e a665 c23e 91c6 d83e

module.layer1.0.bn1.bias f4 [16]
-0.13736065 0.26040527 0.15536927 -0.11646759 0.08048278 0.11734324 -0.06660684 -0.1402808
0.064467505 -0.20146297 -0.24180189 -0.15163217 -0.6465002 0.11704019 0.084280975 -0.15076303
00000000: 45a8 0cbe d753 853e 1f19 1f3e 8f86 eebd
00000010: 28d4 a43d a751 f03d 2b69 88bd c5a5 0fbe
00000020: 8a07 843d 4f4c 4ebe ea9a 77be 7745 1bbe
00000030: 0981 25bf c4b2 ef3d 819b ac3d a061 1abe

module.layer1.0.bn1.running_mean f4 [16]
-0.3144924 -0.21596928 -0.49909946 -0.3247803 -0.4667743 -0.6939205 -0.1768542 -0.09555397
-0.45203784 -0.41647416 -0.47437856 -0.556213 0.31107035 -0.29630008 -0.63940054 -0.17100178
00000000: 2605 a1be 0d27 5dbe f789 ffbe 9a49 a6be
00000010: 0bfd eebe c6a4 31bf 4419 35be cdb1 c3bd
00000020: 8171 e7be 1a3c d5be bfe1 f2be fa63 0ebf
00000030: 9d44 9f3e a5b4 97be c1af 23bf 171b 2fbe

module.layer1.0.bn1.running_var f4 [16]
0.1253503 0.27441058 0.2980396 0.21437693 0.30060482 0.42160216 0.57871336 0.07136781
0.1683103 0.11793866 0.11164928 0.1536899 0.17600936 0.10302196 0.36320868 0.08780468
00000000: d45b 003e 8b7f 8c3e a598 983e a085 5b3e
00000010: e0e8 993e 3ddc d73e 8f26 143f 4929 923d
00000020: 8959 2c3e d389 f13d 61a8 e43d e360 1d3e
00000030: cc3b 343e 2dfd d23d 7df6 b93e f1d2 b33d

module.layer1.0.conv2.weight f4 [16, 16, 3, 3]
-0.05471362 -0.05009362 -0.024513438 -0.10110619 -0.014123818 0.012611339 -0.0343861 0.06702212
0.10453845 -0.08814189 0.0066016004 -0.051880877 -0.06604543 0.013346461 0.06288649 -0.0059970296
-0.031076638 -0.005075544 -0.018678516 0.005398408 -0.041217625 0.031535503 -0.049213953 -0.075415686
-0.020869227 0.0036865242 0.023015292 -0.123826854 0.053692605 0.17050768 -0.0032705707 0.041024964
0.13457532 -0.06580998 -0.08978368 -0.039520334 0.030644678 0.08950694 0.09522549 0.03914202
0.094890565 0.1485035 0.017635131 0.04721104 0.15329123 0.095304556 0.009411241 0.022692299
0.030219026 -0.016720535 -0.010680567 0.012363824 0.087749794 0.1452738 -0.09067742 -0.011784462
0.05444444 -0.048060067 -0.016015433 0.010101145 0.005106067 0.007481247 0.06204588 0.10157167
0.020331468 0.008427979 -0.012676736 -0.04140302 -0.020279367 -0.040358167 -0.039272282 -0.061364535
0.06766305 -0.09759683 -0.012352622 0.058557317 -0.0424913 -0.03987472 0.015165952 0.003107738
0.022613449 -0.09408463 -0.038221803 0.01752831 -0.08329701 -0.03897055 0.016876096 -0.06228256
0.022805238 0.07261392 0.12629923 0.08498871 0.03322848 0.061878502 0.045882136 0.011024147
-0.028631346 -0.03628622 -0.044956256 -0.0049627763 0.03185004 0.0005905191 -0.031754293 0.000112058
-0.017655198 0.013329787 0.024262836 -0.029483039 0.012937698 0.03540327 0.03723226 -0.032291528
-0.020575231 -0.034575835 -0.14622629 -0.14747098 -0.14900695 0.08046276 0.07796264 0.054392975
0.006221122 -0.060355682 -0.06345525 -0.07317829 -0.15090093 -0.10632154 0.014860818 -0.07277573
0.05080574 0.043115214 0.030410977 0.059389837 0.09663209 0.09898941 0.09908948 0.018625872
-0.015456383 0.016120164 -0.089021325 -0.04221269 -0.09562162 -0.09014543 -0.06940419 -0.0012162897
-0.0084966635 -0.057935447 -0.039435856 -0.027337529 -0.072037645 -0.043895494 0.016932625 -0.041086126
0.018428419 0.16805486 0.3568927 0.050242268 -0.39965117 -0.60572445 -0.32929772 0.1483737
0.24121957 0.07831403 -0.050597083 -0.29586643 -0.052957386 0.16815916 0.35608375 0.1337515
-0.045831606 -0.23647457 0.10672376 -0.03905391 0.07266987 -0.13885203 0.04510295 -0.1140929
-0.07280091 0.020687243 0.0080692675 -0.020201247 -0.100516036 -0.19717377 -0.10284438 0.019122802
0.03586784 0.05408998 0.07178958 0.09039515 0.1753394 -0.1278023 -0.04817705 -0.005279441
0.08034213 0.085171506 0.0051164115 -0.012825473 -0.014263592 0.10860839 -0.0013768771 -0.027834458
0.075780414 -0.04416412 -0.07179302 0.070593655 0.034793645 -0.07931577 -0.07928568 -0.055510413
-0.023890097 -0.04742255 0.052615684 0.07380494 0.044265255 -0.0024223735 0.010882928 0.0096226875
0.2102704 0.053367607 0.022367375 -0.2257883 -0.07694537 -0.20165351 0.12300117 -0.029756842
-0.003180575 0.0016121459 -0.007446292 -0.042822644 -0.025124917 -0.016217215 -0.06247619 -0.0057298723
-0.026185231 -0.0016059417 -0.043811344 -0.052685544 -0.05536731 0.013388087 0.05523197 0.04775315
0.11707566 0.14839923 0.106243774 0.029011792 0.10537573 -0.0018299028 0.020336302 0.10585445
0.028976664 -0.03151498 0.020759547 0.011307577 -0.13292308 -0.05984634 -0.025870314 0.09772601
00000000: 641b 60bd f82e 4dbd 68d0 c8bc c310 cfbd
00000010: 9667 67bc ca9f 4e3c 70d8 0cbd e542 893d
00000020: 4118 d63d bc83 b4bd 3d52 d83b 0b81 54bd
00000030: d442 87bd 1dab 5a3c a2ca 803d bb82 c4bb
00000040: 6f94 febc c050 a6bb b003 99bc 21e5 b03b
00000050: d0d3 28bd 5f2b 013d 9294 49bd 8a73 9abd
00000060: f1f5 aabc 9d99 713b 918a bc3c ef98 fdbd
00000070: c7ec 5b3d 9199 2e3e 1257 56bb cb09 283d
00000080: 1dce 093e 62c7 86bd 82e0 b7bd 13e0 21bd
00000090: 8c0a fb3c 6a4f b73d 9505 c33d 6253 203d
000000a0: fc55 c23d 4d11 183e 8d77 903c 5d60 413d
000000b0: 60f8 1c3e 092f c33d 9b31 1a3c 33e5 b93c
000000c0: e48d f73c 81f9 88bc 8bfd 2ebc a391 4a3c
000000d0: 2ab6 b33d a8c2 143e 15b5 b9bd 9e13 41bc
000000e0: 2201 5f3d a2da 44bd cc32 83bc 467f 253c
000000f0: cb50 a73b 4025 f53b d223 7e3d cf04 d03d
00000100: 2e8e a63c 8215 0a3c 16b2 4fbc 3796 29bd
00000110: ea20 a6bc 9b4e 25bd f9db 20bd 6159 7bbd
00000120: ed92 8a3d d9e0 c7bd a762 4abc ccd9 6f3d
00000130: 5b0b 2ebd ad53 23bd 9d7a 783c 31ab 4b3b
00000140: d73f b93c 71af c0bd 778e 1cbd 8897 8f3c
00000150: 9f97 aabd 959f 1fbd bd3f 8a3c ff1b 7fbd
00000160: 0dd2 ba3c 9bb6 943d 9654 013e 900e ae3d
00000170: 961a 083d 5074 7d3d e8ee 3b3d a09e 343c
00000180: 498c eabc dca0 14bd 0d24 38bd c99e a2bb
00000190: 3075 023d 11cd 1a3a ca10 02bd ae00 eb38
000001a0: a2a1 90bc 2e65 5a3c dbc2 c63c 6a86 f1bc
000001b0: a3f8 533c 0503 113d db80 183d 1f44 04bd
000001c0: 638d a8bc 649f 0dbd 58bc 15be a202 17be
000001d0: 4795 18be a9c9 a43d e0aa 9f3d 2bcb 5e3d
000001e0: 8eda cb3b 8537 77bd d3f4 81bd 80de 95bd
000001f0: c685 1abe 1cbf d9bd ca7a 733c 710b 95bd
00000200: ae19 503d 9499 303d 7120 f93c c242 733d
00000210: 0ce7 c53d f6ba ca3d 6def ca3d 4995 983c
00000220: c53c 7dbc 6f0e 843c d050 b6bd 37e7 2cbd
00000230: 45d5 c3bd 2b9e b8bd c923 8ebd e96b 9fba
00000240: 9735 0bbc b84d 6dbd 7e87 21bd f4f2 dfbc
00000250: 7988 93bd c3cb 33bd 4ab6 8a3c ed49 28bd
00000260: 32f7 963c 9316 2c3e a4ba b63e d6ca 4d3d
00000270: 149f ccbe c210 1bbf b699 a8be 46ef 173e
00000280: 4302 773e 1b63 a03d e33e 4fbd ce7b 97be
00000290: d8e9 58bd ea31 2c3e 9c50 b63e 27f6 083e
000002a0: ecb9 3bbd 6426 72be fd91 da3d fef6 1fbd
000002b0: f1d3 943d 3a2f 0ebe dfbd 383d 8aa9 e9bd
000002c0: a518 95bd 4b78 a93c f634 043c 167d a5bc
000002d0: 5adb cdbd ece7 49be 13a0 d2bd 6ca7 9c3c
000002e0: 28ea 123d 748d 5d3d 6a06 933d 1821 b93d
000002f0: 2c8c 333e 9bde 02be 4c55 45bd 29ff acbb
00000300: 6a8a a43d 666e ae3d 92a7 a73b ef21 52bc
00000310: d7b1 69bc 136e de3d 5478 b4ba 1705 e4bc
00000320: c332 9b3d 70e5 34bd 3808 93bd 6893 903d
00000330: c883 0e3d 4e70 a2bd 8860 a2bd e35e 63bd
00000340: 2ab5 c3bc 263e 42bd 8b83 573d 0b27 973d
00000350: 7c4f 353d afc0 1ebb 4f4e 323c 7aa8 1d3c
00000360: 2051 573e fe97 5a3d c93b b73c 0c35 67be
00000370: 8995 9dbd 427e 4ebe 0ae8 fb3d 9fc4 f3bc
00000380: 3271 50bb a44e d33a 0600 f4bb cc66 2fbd
00000390: c5d2 cdbc f7d9 84bc 09e7 7fbd a7c1 bbbb
000003a0: 6982 d6bc 767e d2ba 8673 33bd cccc 57bd
000003b0: d5c8 62bd b559 5b3c eb3a 623d cf98 433d
000003c0: 5dc5 ef3d f8f5 173e 5696 d93d 23aa ed3c
000003d0: 3bcf d73d 59d9 efba 5198 a63c 38ca d83d
000003e0: 7860 ed3c da15 01bd ed0f aa3c 6a43 393c
000003f0: fd1c 08be 7021 75bd fbed d3bc 9324 c83d

module.layer1.0.bn2.weight f4 [16]
0.33426127 0.82746553 0.52308303 0.6243843 0.42725345 0.5482278 0.90434086 0.667737
0.7879535 0.17730173 0.6790575 0.4536595 0.20967828 0.46856794 0.4400545 0.42560536
00000000: 4b24 ab3e c8d4 533f c5e8 053f a6d7 1f3f
00000010: f7c0 da3e a858 0c3f e282 673f d0f0 2a3f
00000020: 52b7 493f 968e 353e b6d6 2d3f 0f46 e83e
00000030: e7b5 563e 23e8 ef3e d34e e13e f2e8 d93e

module.layer1.0.bn2.bias f4 [16]
-0.02163246 -0.07833039 0.0052469047 -0.07463691 0.14953254 0.0103743225 -0.08857639 -0.086640105
-0.05805551 0.0073610432 -0.076559804 -0.21814685 0.1801778 0.124765165 0.1305433 0.27482787
00000000: 8f36 b1bc af6b a0bd 3aee ab3b 3cdb 98bd
00000010: 0f1f 193e 10f9 293c 8a67 b5bd 5e70 b1bd
00000020: 9dcb 6dbd e834 f13b 63cb 9cbd e361 5fbe
00000030: 8780 383e e184 ff3d 25ad 053e 3db6 8c3e

module.layer1.0.bn2.running_mean f4 [16]
0.07621738 -0.1643082 0.02276488 -0.19927005 -0.22903386 -0.018231545 -0.08756724 -0.028185362
-0.045857504 -0.07057168 -0.1597522 0.07411513 -0.30837205 -0.30246985 -0.12239821 -0.66647273
00000000: dc17 9c3d 6940 28be 6a7d ba3c 730d 4cbe
00000010: da87 6abe 525a 95bc 7456 b3bd fde4 e6bc
00000020: 14d5 3bbd e387 90bd 1596 23be acc9 973d
00000030: f1e2 9dbe 54dd 9abe eaab fabd f59d 2abf

module.layer1.0.bn2.running_var f4 [16]
0.05736098 0.36561427 0.13515206 0.14926305 0.11772183 0.14150989 0.44177395 0.20396629
0.24560478 0.038475085 0.19704089 0.03810671 0.06376273 0.11689835 0.0859402 0.17405896
00000000: 59f3 6a3d cb31 bb3e 4d65 0a3e 6ad8 183e
00000010: 2518 f13d f8e7 103e 3230 e23e 8adc 503e
00000020: d27f 7b3e 0d98 1d3d 16c5 493e c815 1c3d
00000030: 0996 823d 6768 ef3d 6a01 b03d 833c 323e

module.layer1.0.shortcut.0.weight f4 [16, 64, 1, 1]
0.0104964515 0.07195171 -0.23580864 -0.0745855 -0.11509051 -0.025647413 -0.050380465 -0.062310148
-0.23757903 -0.0851712 -9.565958e-05 -0.005023494 -0.31067318 -0.10948831 -0.001164262 -0.09121823
0.010002773 -0.0037297676 0.03466232 -0.05769351 0.08610946 -0.09192915 -0.18763076 -0.07137497
-0.12888944 -0.10579856 -0.08658333 -0.05427477 -0.090573296 -0.0681022 0.0111006675 0.029507557
0.017583039 -0.086767636 -0.001311581 -0.10368923 0.03892976 0.10801457 0.0317671 0.19888286
-0.029199041 -0.11189324 0.0446013 -0.0007982194 -0.019326614 0.00037022718 -0.0560234 0.017132372
0.029808689 0.11364881 -0.0038372693 0.109338954 0.07068969 0.0064176326 -0.11813371 0.031140037
-0.07014259 -0.19419898 0.10503207 0.06581443 0.03850386 -0.039955013 -0.053638455 -0.0038945707
0.13589372 0.07430892 -0.042578522 -0.009660076 -0.003368369 0.052504964 -0.026916197 -0.05474591
0.014342278 0.06558705 -0.022877412 0.09941453 -0.0135702975 0.017060516 0.0006424617 -0.12146595
0.017825462 0.009924833 0.057701983 -0.091393605 0.019172419 -0.07588374 -0.027844835 -0.057724953
0.015204676 0.042412274 0.0127036655 -0.008202939 0.11132576 -0.014628001 -0.03787189 0.03057832
-0.006599965 -0.0060511054 -0.11879751 0.024651114 -0.05095529 -0.013460565 0.05138422 0.022117909
0.060326193 0.026911052 -0.007145957 0.058687504 0.0026044212 0.019942837 0.004997527 0.104405224
0.053469215 0.014005028 0.016897386 0.19402619 0.06494416 0.013727594 -0.10898965 0.046706703
0.07599949 -0.085618466 -0.082325704 -0.014518872 -0.14910738 0.02710123 -0.051270302 -0.00758371
-0.06742117 -0.0044803 -0.024378952 0.008302347 0.12948838 0.0017249375 0.008192639 -0.006767741
0.19358294 0.044643138 0.018389542 0.08574473 0.21794495 0.048026398 0.00025808075 0.06193719
0.056519154 -0.0027068264 0.056937717 0.12389488 0.023588538 0.09486135 0.05384664 -0.060481727
0.13326177 0.056830622 0.062434714 -0.04449889 0.028859917 -0.02242965 0.029167704 -0.01490164
-0.043370638 0.07988468 0.015279189 -0.0053678453 -0.048634745 -0.023145305 0.0075437925 -0.3510539
-0.088460974 0.011239326 -0.03190549 -0.04216954 0.048756193 -0.046572093 0.048743226 -0.020593796
0.039729845 0.06415899 -0.011766498 0.06285309 -0.035265673 0.022300307 0.18136473 0.059007443
-0.0204572 0.08593605 -0.11199048 -0.088600345 -0.109124586 0.016118791 -0.0025590772 -0.0064102886
-0.009307128 -0.34160587 0.018634435 -0.0031392702 0.061212204 0.2331564 0.036815256 -0.03303313
-0.08360781 0.111849844 -0.017733864 0.06674776 0.059753895 0.0059259064 0.00039887984 0.022297246
-0.0026632044 -0.03951503 0.04138597 0.11821435 -0.028837357 0.00083021 -0.05898806 -0.05972545
-0.006559277 0.024777899 -0.057364658 0.044388704 -0.014001769 0.05968862 0.10164917 -0.020799764
0.077162206 0.09478727 0.056410242 -0.116513275 0.034197785 -0.0066067707 -0.04562132 0.024012666
-0.037343003 0.08239382 -0.063117765 -0.04435756 0.04621393 -0.014302014 -0.009674809 0.21172953
-0.044962514 -0.09412649 -0.005249666 -0.011960385 -0.20920266 -0.005709632 0.015554276 -0.025368067
0.008676276 0.08306111 -0.030272374 -0.065907024 -0.047140446 0.12356745 0.020997057 0.0028743856
00000000: 4ff9 2b3c 6b5b 933d d277 71be 48c0 98bd
00000010: 93b4 ebbd 861a d2bc bf5b 4ebd ed38 7fbd
00000020: eb47 73be 3d6e aebd d99c c8b8 1f9c a4bb
00000030: 8e10 9fbe 683b e0bd 269a 98ba a0d0 babd
00000040: ace2 233c 1e6f 74bb 14fa 0d3d 0850 6cbd
00000050: 285a b03d 5a45 bcbd 4722 40be 0a2d 92bd
00000060: 98fb 03be eaac d8bd 9a52 b1bd 394f 5ebd
00000070: 7e7e b9bd 2b79 8bbd 93df 353c d5b9 f13c
00000080: 4e0a 903c 3bb3 b1bd 5be9 abba 055b d4bd
00000090: d074 1f3d be36 dd3d 381e 023d f3a7 4b3e
000000a0: d432 efbc 4828 e5bd daaf 363d 993f 51ba
000000b0: d952 9ebc 0d1b c239 cb78 65bd 3059 8c3c
000000c0: 5a31 f43c b5c0 e83d b27a 7bbb 1aed df3d
000000d0: c2c5 903d 014b d23b 16f0 f1bd 6419 ff3c
000000e0: eba6 8fbd 19dc 46be 0e1b d73d b7c9 863d
000000f0: 39b6 1d3d dea7 23bd ffb3 5bbd 0e3c 7fbb
00000100: b927 0b3e 462f 983d d166 2ebd 4c45 1ebc
00000110: dbbf 5cbb 720f 573d 5b7f dcbc 3f3d 60bd
00000120: e0fb 6a3c 8152 863d 6969 bbbc d899 cb3d
00000130: f455 5ebc 7fc2 8b3c e06a 283a 24c3 f8bd
00000140: b406 923c c49b 223c ea58 6c3d 922c bbbd
00000150: 7a0f 9d3c ef68 9bbd da1a e4bc 0071 6cbd
00000160: 091d 793c 7eb8 2d3d 0923 503c 9f65 06bc
00000170: c3fe e33d 48aa 6fbc 8e1f 1bbd 637f fa3c
00000180: 8544 d8bb 5a48 c6bb 1c4c f3bd 22f1 c93c
00000190: 7fb6 50bd b489 5cbc 4378 523d 9e30 b53c
000001a0: 9918 773d 9174 dc3c a228 eabb 4f62 703d
000001b0: f0ae 2a3b 295f a33c 4cc2 a33b 68d2 d53d
000001c0: 8902 5b3d 5875 653c 636c 8a3c cdae 463e
000001d0: 7201 853d b4e9 603c f735 dfbd 874f 3f3d
000001e0: 9fa5 9b3d bc58 afbd 619a a8bd 90e0 6dbc
000001f0: 9baf 18be 6603 de3c cf00 52bd c580 f8bb
00000200: 1c14 8abd 7bcf 92bb 5eb6 c7bc 9106 083c
00000210: 9a98 043e 4c17 e23a 6b3a 063c edc3 ddbb
00000220: 9b3a 463e b9db 363d aaa5 963c ef9a af3d
00000230: f62c 5f3e 54b7 443d 034f 8739 dab1 7d3d
00000240: a180 673d 0365 31bb 8637 693d 99bc fd3d
00000250: c03c c13c ab46 c23d 4b8e 5c3d b0bb 77bd
00000260: c675 083e 3ac7 683d 8bbb 7f3d 7844 36bd
00000270: a26b ec3c 63be b7bc 1cf1 ee3c 0226 74bc
00000280: 69a5 31bd 949a a33d 9055 7a3c c0e4 afbb
00000290: 3a35 47bd 399b bdbc eb31 f73b 56bd b3be
000002a0: 072b b5bd 2625 383c 55af 02bd f8b9 2cbd
000002b0: 93b4 473d 61c2 3ebd faa6 473d 52b4 a8bc
000002c0: c3bb 223d ca65 833d 45c8 40bc 1fb9 803d
000002d0: bd72 10bd 22af b63c adb7 393e cab1 713d
000002e0: dc95 a7bc 3dff af3d 445b e5bd 1974 b5bd
000002f0: b67c dfbd 8e0b 843c 31b6 27bb 660d d2bb
00000300: ed7c 18bc f7e6 aebe 3ea7 983c 37bc 4dbb
00000310: a6b9 7a3d 8dc0 6e3e 98cb 163d bf4d 07bd
00000320: 923a abbd 8811 e53d 9c46 91bc 0db3 883d
00000330: 80c0 743d 1b2e c23b bf20 d139 b7a8 b63c
00000340: 2889 2ebb 83da 21bd 5684 293d 5d1a f23d
00000350: 523c ecbc 73a2 593a 779d 71bd aca2 74bd
00000360: 34ef d6bb 05fb ca3c 34f7 6abd eed0 353d
00000370: ad67 65bc 0e7c 743d 712d d03d 4464 aabc
00000380: 3807 9e3d d41f c23d 6d0e 673d 839e eebd
00000390: fa12 0c3d 9c7d d8bb 6cdd 3abd 36b6 c43c
000003a0: faf4 18bd 17be a83d e343 81bd 46b0 35bd
000003b0: d14a 3d3d ff52 6abc 1783 1ebc a0cf 583e
000003c0: 9d2a 38bd 64c5 c0bd 6405 acbb 7ef5 43bc
000003d0: 3939 56be dd17 bbbb 5dd7 7e3c b1d0 cfbc
000003e0: f026 0e3c f11b aa3d c5fd f7bc 43fa 86bd
000003f0: 5716 41bd ee10 fd3d 0502 ac3c 3060 3c3b

module.layer1.0.shortcut.1.weight f4 [16]
0.5134909 0.13023423 0.31390828 0.24063623 0.27213413 0.28387073 0.086170785 0.18752867
0.113940425 0.44057772 0.23377462 0.54385406 0.42947227 0.19129258 0.17605713 0.2635456
00000000: 2474 033f 1f5c 053e 96b8 a03e 5869 763e
00000010: 2a55 8b3e 8157 913e 4f7a b03d 8407 403e
00000020: 9959 e93d 6793 e13e 9d62 6f3e 053a 0b3f
00000030: cae3 db3e 34e2 433e 5248 343e 73ef 863e

module.layer1.0.shortcut.1.bias f4 [16]
-0.02163246 -0.07833039 0.0052469047 -0.07463691 0.14953254 0.0103743225 -0.08857639 -0.086640105
-0.05805551 0.0073610432 -0.076559804 -0.21814685 0.1801778 0.124765165 0.1305433 0.27482787
00000000: 8f36 b1bc af6b a0bd 3aee ab3b 3cdb 98bd
00000010: 0f1f 193e 10f9 293c 8a67 b5bd 5e70 b1bd
00000020: 9dcb 6dbd e834 f13b 63cb 9cbd e361 5fbe
00000030: 8780 383e e184 ff3d 25ad 053e 3db6 8c3e

module.layer1.0.shortcut.1.running_mean f4 [16]
-0.092008054 0.09834081 0.058221426 0.014318798 -0.11373773 -0.062045112 -0.09253214 -0.120408155
-0.15082383 0.048346154 -0.012140613 -0.18441503 -0.33036327 -0.09755569 -0.050627604 -0.34171164
00000000: b86e bcbd e866 c93d 9779 6e3d 6499 6a3c
00000010: 54ef e8bd 0423 7ebd 7e81 bdbd 8d98 f6bd
00000020: 9071 1abe 9e06 463d 6ce9 46bc 4bd7 3cbe
00000030: 6025 a9be 47cb c7bd e45e 4fbd d4f4 aebe

module.layer1.0.shortcut.1.running_var f4 [16]
0.041829698 0.012857551 0.044964932 0.038440477 0.025427347 0.03808453 0.013754273 0.021972578
0.01603059 0.03201893 0.022732988 0.030614352 0.049084984 0.021703826 0.018900098 0.027203584
00000000: 9e55 2b3d 7aa8 523c 262d 383d c373 1d3d
00000010: 034d d03c 86fe 1b3d 9a59 613c d6ff b33c
00000020: 9552 833c 4826 033d 883a ba3c f3ca fa3c
00000030: 560d 493d 39cc b13c 61d4 9a3c 0dda de3c

module.layer2.0.conv1.weight f4 [32, 16, 3, 3]
0.055134576 0.058861084 -0.023217563 0.1326945 0.19611546 0.10511148 0.041632816 0.16964965
0.19577123 0.0063526086 0.0026531566 -0.021899205 -0.038678586 -0.04246654 -0.1155351 -0.044795427
-0.05905519 -0.049248982 0.06371345 0.114103004 0.04607398 0.111565225 -0.0016687298 -0.075571455
-0.051737905 -0.108678594 -0.11736889 -0.025320964 0.15293238 0.18434119 0.0580928 0.028084751
0.035550945 0.005236968 -0.11001738 -0.102293395 0.063894086 0.0052215564 -0.015943104 0.05612724
-0.028390668 -0.08038509 -0.028692424 -0.06572162 -0.09112822 0.14840157 0.09126595 -0.0066545657
-0.041546285 -0.05399919 -0.058916494 -0.21821058 -0.11883684 0.029778983 0.10223519 0.23785184
0.120135695 0.0115506165 -0.077097155 -0.07737806 -0.1416839 -0.30096352 -0.13861755 0.05037052
0.021184763 -0.07400279 0.034058444 -0.1251652 -0.17973524 -0.040074427 -0.12752832 -0.13818721
0.10567974 0.14538293 0.06837005 0.031588808 0.051917814 0.039064027 -0.08353441 -0.17543085
-0.15026414 0.039471827 0.013336875 0.01991397 0.0024548399 -0.011040772 -0.0075277085 -0.036990933
-0.04113514 -0.0226506 0.032961924 0.099661924 0.10954343 0.051880553 0.050116055 0.004442763
-0.0064509204 0.009161475 -0.01784374 0.0046211444 -0.043748833 0.010179711 0.022215674 -0.023287745
0.010696708 0.008634877 0.0019201695 0.03757915 -0.019405125 -0.024606012 0.064817585 -0.13784201
-0.10266707 -0.0495188 -0.025477137 0.00076733687 0.02416844 -0.09651043 -0.031849455 0.006601276
-0.07839532 0.016714819 0.048797227 0.022802724 0.15427361 0.097262554 0.016636468 -0.03428675
-0.010746198 -0.022301063 -0.028175943 0.018000023 0.0062393383 0.036263753 0.02511534 -0.2809344
-0.22719684 -0.1392261 -0.1208545 -0.046973944 0.03164658 0.19538976 0.21940912 0.22034463
-0.02847442 -0.03147062 -0.06881312 -0.0025549198 -0.012445664 0.032396127 0.113676645 0.07091945
0.04724108 0.02959443 -0.0036494015 0.015091559 0.07057037 0.073107824 0.027695697 0.098773986
0.100263804 0.034835637 -0.021119563 -0.15315147 -0.14817801 0.00920311 -0.08222996 -0.15984532
0.033081234 0.064865924 0.04602958 -0.107484125 -0.12821604 -0.116196364 -0.036707487 -0.10648444
-0.15663545 0.019278761 0.008538778 -0.0923503 0.0044366177 -0.030132098 -0.07246804 0.11164094
0.13821681 0.08732399 0.08379504 0.120218635 0.15603632 -0.08887487 -0.152312 -0.091536835
-0.048426062 -0.10133675 -0.0762023 0.14000641 0.07036966 -0.0049682166 -0.07342684 -0.09950224
-0.08949145 0.01653196 -0.0768158 -0.07013532 0.031178415 0.05656948 0.012248773 -0.020155126
-0.109669134 -0.105993785 -0.008166439 -0.038974743 -0.10403294 0.0103004 -0.022872658 -0.053557385
-0.033509426 -0.025034342 -0.04674488 -0.008446422 0.015069774 -0.009062406 -0.02655487 0.034798514
0.06091048 0.015685873 0.016306669 -0.01737734 -0.031743314 0.014686467 0.029499969 -0.019402558
0.07078717 0.14118378 -0.045638606 -0.04470681 0.015826443 -0.049553014 -0.04910796 -0.023642872
-0.038572773 -0.05750652 -0.024828093 0.11998492 0.12423556 -0.071093455 0.0764436 0.08755168
0.024202788 0.0032830443 0.013489921 -0.008714648 0.087396115 0.101442635 0.16016455 -0.027009547
00000000: cbd4 613d 5218 713d c232 bebc 11e1 073e
00000010: 7ed2 483e b044 d73d 2c87 2a3d a3b8 2d3e
00000020: 4178 483e 8b29 d03b 95e0 2d3b f665 b3bc
00000030: 706d 1ebd 65f1 2dbd ab9d ecbd 697b 37bd
00000040: dbe3 71bd 4db9 49bd 337c 823d d6ae e93d
00000050: 12b8 3c3d 4f7c e43d 48b9 daba 35c5 9abd
00000060: 20eb 53bd e292 debd 1a5f f0bd e96d cfbc
00000070: 4e9a 1c3e f0c3 3c3e b7f2 6d3d fe11 e63c
00000080: de9d 113d df9a ab3b cb50 e1bd 337f d1bd
00000090: e7da 823d 9719 ab3b 1d9b 82bc ade5 653d
000000a0: 8c93 e8bc f0a0 a4bd 600c ebbc 0f99 86bd
000000b0: 6fa1 babd 95f6 173e a4e9 ba3d 8b0e dabb
000000c0: 702c 2abd 412e 5dbd 6c52 71bd 9872 5fbe
000000d0: bb60 f3bd 0ef3 f33c af60 d13d 6f8f 733e
000000e0: b409 f63d cc3e 3d3c 1de5 9dbd 6378 9ebd
000000f0: 9615 11be e417 9abe c2f1 0dbe 5251 4e3d
00000100: ab8b ad3c c68e 97bd de80 0b3d 4e2b 00be
00000110: 840c 38be 1525 24bd c996 02be f380 0dbe
00000120: 9f6e d83d 43df 143e 9905 8c3d 4463 013d
00000130: c6a7 543d 9a01 203d 1714 abbd 25a4 33be
00000140: d8de 19be 36ad 213d e882 5a3c 9f22 a33c
00000150: 61e1 203b 5be4 34bc ffaa f6bb ce83 17bd
00000160: 527d 28bd c08d b9bc 1503 073d 8d1b cc3d
00000170: 4e58 e03d b480 543d 7e46 4d3d 9994 913b
00000180: 3e62 d3bb 031a 163c 092d 92bc f86c 973b
00000190: fa31 33bd cdc8 263c a5fd b53c f1c5 bebc
000001a0: 3f41 2f3c 4d79 0d3c 32ae fb3a 98ec 193d
000001b0: 7ff7 9ebc 8c92 c9bc 15bf 843d 7526 0dbe
000001c0: 1d43 d2bd 3ad4 4abd 6eb5 d0bc 1b27 493a
000001d0: e4fc c53c 43a7 c5bd 9374 02bd 844f d83b
000001e0: ba8d a0bd 84ed 883c 9adf 473d c7cc ba3c
000001f0: e7f9 1d3e 9731 c73d 3449 883c 4370 0cbd
00000200: d210 30bc b8b0 b6bc 3cd1 e6bc c974 933c
00000210: 5d73 cc3b 4d89 143d afbe cd3c a2d6 8fbe
00000220: 4aa6 68be 4991 0ebe 9082 f7bd c067 40bd
00000230: d89f 013d 4114 483e c9ac 603e 06a2 613e
00000240: 3043 e9bc 56e7 00bd e5ed 8cbd 7170 27bb
00000250: e6e8 4bbc cdb1 043d 4dcf e83d 373e 913d
00000260: dd7f 413d 0570 f23c cc2a 6fbb 9642 773c
00000270: 3387 903d 8eb9 953d 16e2 e23c 044a ca3d
00000280: 1c57 cd3d d0af 0e3d ef02 adbc bdd3 1cbe
00000290: fabb 17be a4c8 163c 2e68 a8bd 7eae 23be
000002a0: 3080 073d 6dd8 843d 8389 3c3d a320 dcbd
000002b0: 114b 03be 5cf8 edbd 975a 16bd 8414 dabd
000002c0: 0b65 20be 7eee 9d3c 3be6 0b3c 2722 bdbd
000002d0: 0c61 913b 97d7 f6bc 206a 94bd 01a4 e43d
000002e0: b588 0d3e ecd6 b23d bc9c ab3d 3035 f63d
000002f0: fcc7 1f3e 0704 b6bd adf7 1bbe aa77 bbbd
00000300: 685a 46bd a489 cfbd f40f 9cbd d75d 0f3e
00000310: f81d 903d 6ccc a2bb d060 96bd d5c7 cbbd
00000320: 4b47 b7bd 086e 873c 9a51 9dbd 1ba3 8fbd
00000330: e069 ff3c 66b5 673d 14af 483c 5d1c a5bc
00000340: 369a e0bd 4513 d9bd 87cc 05bc fba3 1fbd
00000350: 390f d5bd 02c3 283c 715f bbbc fd5e 5bbd
00000360: 2e41 09bd d214 cdbc 8f77 3fbd dd62 0abc
00000370: 37e7 763c 7c7a 14bc 9989 d9bc e388 0e3d
00000380: 447d 793d a97f 803c 9095 853c ec5a 8ebc
00000390: 4705 02bd 829f 703c eba9 f13c 1df2 9ebc
000003a0: ddf8 903d 7b92 103e 8cef 3abd 7d1e 37bd
000003b0: 75a6 813c 1af8 4abd 6e25 49bd b2ae c1bc
000003c0: 7cfe 1dbd f58b 6bbd 4964 cbbc a7ba f53d
000003d0: 376f fe3d 7299 91bd 768e 9c3d 4c4e b33d
000003e0: ed44 c63c 5828 573b d404 5d3c e2c7 0ebc
000003f0: bcfc b23d 28c1 cf3d 2d02 243e 2043 ddbc

module.layer2.0.bn1.weight f4 [32]
0.49309105 0.49279127 0.47787058 0.37969318 0.26741487 0.38704824 0.3999556 0.38857177
0.3653889 0.43751204 0.35146254 0.30590385 0.42543352 0.4598158 0.63165104 0.49672282
0.43300417 0.37811163 0.33739948 0.4164039 0.41277596 0.38891125 0.4914882 0.5432616
0.4351429 0.41759118 0.35318527 0.3930666 0.41467592 0.4781346 0.5141405 0.42461833
00000000: 6e76 fc3e 234f fc3e 74ab f43e 2567 c23e
00000010: 9aea 883e 302b c63e fbc6 cc3e e1f2 c63e
00000020: 4114 bb3e 9401 e03e e6f2 b33e 6e9f 9c3e
00000030: 6cd2 d93e fa6c eb3e e2b3 213f 7452 fe3e
00000040: b9b2 dd3e d997 c13e a0bf ac3e e432 d53e
00000050: 5f57 d33e 601f c73e 57a4 fb3e 3113 0b3f
00000060: 0dcb de3e 83ce d53e b3d4 b43e 0740 c93e
00000070: 6750 d43e 0fce f43e b69e 033f 9367 d93e

module.layer2.0.bn1.bias f4 [32]
-0.1924736 -0.13007964 -0.21556152 -0.052976742 0.11791069 -0.20668003 -0.13500543 -0.021264954
-0.110966325 -0.24142243 -0.0082085915 0.13001023 -0.064254254 0.02315177 -0.23986231 -0.10273144
0.007601242 0.03934596 0.28333583 -0.18960522 0.090564564 -0.05134239 -0.06077331 -0.1543065
-0.17333452 -0.042048823 -0.055203002 -0.006114022 -0.08050162 0.0050161537 -0.07006044 -0.17740525
00000000: cd17 45be 9933 05be 29bc 5cbe 24fe 58bd
00000010: 297b f13d eea3 53be dd3e 0abe d733 aebc
00000020: 5042 e3bd 7137 77be 547d 06bc 6721 053e
00000030: bc97 83bd c8a8 bd3c 779e 75be dc64 d2bd
00000040: d713 f93b 3b29 213d 6511 913e df27 42be
00000050: ea79 b93d 664c 52bd 6fed 78bd 8602 1ebe
00000060: 9b7e 31be 633b 2cbd 8b1c 62bd 2258 c8bb
00000070: 09de a4bd 8c5e a43b d97b 8fbd b9a9 35be

module.layer2.0.bn1.running_mean f4 [32]
-0.19970174 -0.08965342 -0.13935357 0.28421727 -0.54509264 0.43031597 -0.094881006 0.4972147
0.6340538 0.05613094 0.13422044 0.9671259 0.1100838 0.43097973 -0.5173988 -0.5356568
-0.052448075 -0.7187421 -0.6140288 0.1195817 0.13406266 -0.33374813 -0.9646367 -0.3883806
0.24112836 0.043671295 -0.52336276 -0.020458443 0.27762365 -0.6096005 -0.6395035 -0.113277994
00000000: 9d7e 4cbe 369c b7bd b4b2 0ebe ed84 913e
00000010: 318b 0bbf 6052 dc3e f950 c2bd ed92 fe3e
00000020: 5a51 223f 8ee9 653d 1571 093e 9095 773f
00000030: 9e73 e13d 60a9 dc3e 3f74 04bf ce20 09bf
00000040: cbd3 56bd 7bff 37bf fe30 1dbf 40e7 f43d
00000050: b947 093e 09e1 aabe 6ef2 76bf d2d9 c6be
00000060: 5aea 763e ace0 323d 1afb 05bf 7798 a7bc
00000070: b024 8e3e c70e 1cbf 80b6 23bf 4bfe e7bd

module.layer2.0.bn1.running_var f4 [32]
0.25249657 0.31857955 0.26504746 0.26064166 0.2558843 0.2736795 0.29658258 0.32942826
0.18600118 0.3363552 0.22894995 0.45840132 0.45028156 0.53950703 0.47884655 0.51669145
0.35409874 0.22097902 0.5027077 0.24765213 0.37429655 0.30673078 0.45351 0.35814297
0.3884854 0.40555903 0.23073024 0.43103978 0.4583233 0.3320656 0.4407858 0.2695698
00000000: 3b47 813e dc1c a33e 4db4 873e d372 853e
00000010: 4403 833e b81f 8c3e acd9 973e d2aa a83e
00000020: 1877 3e3e c036 ac3e db71 6a3e 94b3 ea3e
00000030: 4e8b e63e 221d 0a3f 602b f53e e445 043f
00000040: 6e4c b53e 5348 623e 74b1 003f 8598 7d3e
00000050: cca3 bf3e d10b 9d3e 7632 e83e 845e b73e
00000060: 8fe7 c63e 6fa5 cf3e 8c44 6c3e 3fb1 dc3e
00000070: 5aa9 ea3e 8104 aa3e adae e13e 0e05 8a3e
