results/3sja/cifar10/nokd/resnet8_best.pth.tar (torch_old, 371450 bytes, 52 tensors)

module.conv1.weight f4 [64, 3, 3, 3]
0	0x3e9a9188	0.30189157
1	0x3f31ef41	0.695057
2	0x3eda7f9b	0.4267548
3	0x3c5a312a	0.013317386
4	0xbdb9f5d5	-0.09080092
5	0xbd1cb5c8	-0.038259298
6	0xbe934337	-0.28762218
7	0xbf4978da	-0.7870003
8	0xbeaaa358	-0.33327746
9	0xbe5716a9	-0.21004738
10	0xbe23cedf	-0.15996884
11	0xbe755717	-0.23959003
12	0x3dd6ff12	0.104978696
13	0x3dbd3a69	0.092396565
14	0x3d62646e	0.05527156
15	0x3e64686b	0.22305457
16	0x3dd05577	0.10172551
17	0x3e1ffe9d	0.15624471
18	0xbe95d5b9	-0.2926462
19	0xbeb63616	-0.3558814
20	0xbea0125c	-0.31264007
21	0xbd870326	-0.065923974
22	0x3d090af7	0.033457723
23	0xbcab4a2e	-0.020909395
24	0x3e7b7b71	0.24558808
25	0x3ed40929	0.4141324
26	0x3eb5e1e5	0.35523906
27	0xbe03a1c7	-0.12854682
28	0xbe43fdda	-0.19139805
29	0xbddd43b4	-0.10803929
30	0xbdc07a0b	-0.09398278
31	0xbe90faa3	-0.2831622
32	0xbe0eb1a5	-0.13934954
33	0x3a655b57	0.00087492674
34	0xbe5d3153	-0.21600847
35	0xbdbd8f71	-0.09255875
36	0x3d3472b2	0.044054694
37	0x3d9017a9	0.07035763
38	0x3e04ea84	0.12980086
39	0x3d1deed9	0.03855786
40	0xbd2c6936	-0.042092524
41	0x3da58590	0.08082116
42	0x3d97fd07	0.07421308
43	0xbd2501e4	-0.040285006
44	0x3d84cb68	0.06484109
45	0xbc90c20f	-0.01767066
46	0x3d96e3b1	0.073676474
47	0x3d9ac1fa	0.07556529
48	0x39e0a1bd	0.00042845114
49	0xbbf70bc1	-0.007539243
50	0x3d4d30c1	0.050095323
51	0xbc212522	-0.009835513
52	0xbd8e7da1	-0.069575556
53	0xbce920aa	-0.028457958
54	0x3923b7c2	0.00015613346
55	0x37bf779f	2.2824677e-05
56	0xb896eee8	-7.197057e-05
57	0x39de67d8	0.0004242051
58	0xb89307ea	-7.01098e-05
59	0xb99f2f45	-0.00030362062
60	0x3991b789	0.000277933
61	0xb9c57186	-0.0003765935
62	0xba1c8f03	-0.0005972238
63	0x39f9acff	0.00047621873
64	0x3999a072	0.00029301975
65	0x392307bd	0.00015547774
66	0x3a35daca	0.0006937204
67	0x3950c282	0.00019908886
68	0xb8a07f3a	-7.653092e-05
69	0x3a126fc7	0.0005586114
70	0xb8d8eeb6	-0.00010344146
71	0xb9cc40b3	-0.00038958117
72	0x3a30d62c	0.0006745781
73	0x3a2bae52	0.0006549108
74	0x39eaef97	0.00044810466
75	0x3a4dcd2d	0.0007850703
76	0x3a04cba3	0.00050657446
77	0x394af999	0.00019357204
78	0x3a11884e	0.0005551622
79	0x38a9922c	8.0857746e-05
80	0xb973e9e6	-0.0002326142
81	0xbe04f76d	-0.1298501
82	0x3e3e1c55	0.18565495
83	0x3da6043d	0.08106277
84	0x3e903f33	0.28173217
85	0xbc869a12	-0.016430888
86	0xbebb0686	-0.36528414
87	0x3c86d092	0.016456876
88	0xbda8f257	-0.08249348
89	0x3d77b057	0.060470905
90	0xbe61ff48	-0.22070038
91	0x3d704227	0.058656838
92	0x3d9bbf7c	0.07604882
93	0x3e4bec96	0.19914469
94	0xbde51518	-0.11185664
95	0xbe2ef22b	-0.17084567
96	0x3d974b97	0.073874645
97	0xbdfb687c	-0.12275788
98	0x3e166106	0.14685449
99	0xbea29479	-0.317539
100	0x3e21ef53	0.15813951
101	0x3e03c836	0.12869343
102	0xbce8f450	-0.02843681
103	0x3db90adb	0.09035274
104	0x3de891df	0.11355948
105	0xbdad2490	-0.08454239
106	0xbe10a68e	-0.14126036
107	0x3dd92465	0.10602645
108	0x39630745	0.00021651115
109	0xba831c5b	-0.0010002957
110	0xb7911733	-1.729615e-05
111	0x3932f25c	0.00017065689
112	0xbacd1cbc	-0.0015648822
113	0xba5224c0	-0.00080163404
114	0x3942ae38	0.00018566183
115	0xba974508	-0.0011540959
116	0xba9382b7	-0.0011254166
117	0x3ad0dc4c	0.0015934794
118	0x3a20cabd	0.0006133726
119	0x3aa5d4e7	0.0012651951
120	0x3b0dc030	0.0021629445
121	0x3a5b3d8f	0.000836336
122	0x3a923806	0.0011155612
123	0x3b129de3	0.002237194
124	0x3ab3b608	0.0013710866
125	0x3a89a72d	0.0010502093
126	0x3967a5f6	0.00022091702
127	0xb99d2d1d	-0.00029978986
128	0x3a07adc3	0.0005175734
129	0x3a38cafd	0.00070492906
130	0xb8e1d24a	-0.000107680054
131	0x39feff1b	0.00048636724
132	0x3a9822db	0.0011607067
133	0x3a1b1e5f	0.00059173064
134	0x3a1d5162	0.00060012017
135	0x3d62e2d1	0.05539209
136	0x3e30d476	0.17268547
137	0x3d1b048e	0.03784614
138	0x3c584f1f	0.013202458
139	0x3dc72866	0.09724502
140	0xbba9644d	-0.0051694275
141	0xbd420b70	-0.04737419
142	0x3dd4c7c7	0.10389667
143	0x3d8b52e8	0.068029225
144	0xbc7f0a78	-0.015566461
145	0xbe2ee652	-0.17080048
146	0xbdf51432	-0.119667426
147	0xbd981764	-0.074263364
148	0xbecc5770	-0.3991046
149	0xbe94312c	-0.28943765
150	0x3d09967b	0.033590775
151	0xbe373cd1	-0.17894293
152	0xbd22afe0	-0.03971851
153	0xbab50fc9	-0.0013813908
154	0x3e10b3f9	0.14131154
155	0x3d94e101	0.072694786
156	0x3dbab51e	0.091165766
157	0x3dab7cb5	0.08373395
158	0x3cc96bf9	0.024587618
159	0xbcf76ff8	-0.030204758
160	0xbbb6f433	-0.00558331
161	0x3ca1261f	0.019671498
162	0x3ca90b75	0.020635346
163	0x3d4296d7	0.047507133
164	0x3cbbeae7	0.022939159
165	0x3ca8b2ee	0.020593133
166	0x3d3f0162	0.046632178
167	0x3c5506ae	0.013002081
168	0xbc37bff7	-0.011215202
169	0xbb74a63d	-0.003733053
170	0xbccdbe7d	-0.025115246
171	0x3cb736d7	0.022365017
172	0x3d02302b	0.031784218
173	0x3c12a28a	0.008949885
174	0x3c2ce12b	0.010551731
175	0x3c8b7a53	0.017026102
176	0xbc47302c	-0.012157481
177	0xbcb4e973	-0.022083974
178	0xbca061d7	-0.019577904
179	0xbd1513f6	-0.03639599
180	0xbc910c3b	-0.017706027
181	0xbc7b72d8	-0.015347205
182	0xbd2bd99d	-0.04195558
183	0xbc6c90e3	-0.014438841
184	0xbc61c6cc	-0.013780307
185	0xbd285b7b	-0.041102868
186	0xbd631577	-0.055440392
187	0xbd499a48	-0.0492194
188	0xbd671bec	-0.056423113
189	0xb882e095	-6.240715e-05
190	0xb8a0b912	-7.6638666e-05
191	0xb83f4543	-4.5602454e-05
192	0xb88b5249	-6.643363e-05
193	0xb88da25a	-6.753644e-05
194	0xb8450ede	-4.6982306e-05
195	0xb86859e5	-5.539683e-05
196	0xb8679d71	-5.522132e-05
197	0xb854a1cb	-5.069542e-05
198	0xb85abe42	-5.215244e-05
199	0xb872f232	-5.7922858e-05
200	0xb8219edd	-3.8533344e-05
201	0xb85c0bdc	-5.2463132e-05
202	0xb82dad28	-4.140768e-05
203	0xb801abe7	-3.0916093e-05
204	0xb8495e60	-4.8010028e-05
205	0xb818cbb8	-3.6429352e-05
206	0xb82443ea	-3.9163897e-05
207	0xb67e8483	-3.7926081e-06
208	0x37b1b773	2.118547e-05
209	0x38026451	3.1087842e-05
210	0x3593bfd3	1.1008182e-06
211	0x38454651	4.7033947e-05
212	0x385154f5	4.9908605e-05
213	0xb7565f4f	-1.2777585e-05
214	0x37fd4366	3.0191335e-05
215	0x37c87ec1	2.3900882e-05
216	0x3a1542e6	0.00056938676
217	0x3a844af3	0.0010093137
218	0x3a824e83	0.0009941611
219	0x3acd5e24	0.0015668315
220	0x3b21eab4	0.0024706544
221	0x3b10ec17	0.0022113377
222	0x3a91dd78	0.0011128625
223	0x3ae145d4	0.0017186948
224	0x3ad4974e	0.0016219409
225	0xba3f7480	-0.00073034316
226	0xbaa531ed	-0.001260338
227	0xba36a324	-0.0006967059
228	0xba073b28	-0.0005158656
229	0xbaaa8195	-0.0013008589
230	0xba73d25d	-0.0009301061
231	0x38d0865f	9.9432415e-05
232	0xba460388	-0.0007553627
233	0xb9f07170	-0.00045860885
234	0x39c0f6bf	0.00036804934
235	0x39f34f95	0.00046407865
236	0x3a315e44	0.0006766061
237	0x39c887f1	0.00038248257
238	0x3926d98a	0.00015912033
239	0x39702177	0.0002290065
240	0x375d63d4	1.31958695e-05
241	0xb9983316	-0.0002902976
242	0xb8fe4195	-0.000121238794
243	0x3c3e57c0	0.011617601
244	0xbd8c8546	-0.068613574
245	0x3ddb551a	0.10709591
246	0xbe46c8c2	-0.1941252
247	0x3f154798	0.5831237
248	0xbeeddf7b	-0.46459565
249	0xbd89b049	-0.06723077
250	0xbd457c55	-0.048214275
251	0x3e10b2da	0.14130726
252	0xbda37186	-0.07980637
253	0x3dc6f578	0.09714788
254	0x3c9309c5	0.017948994
255	0xbe0931a8	-0.13397849

module.bn1.weight f4 [64]
0	0x3e8d403b	0.27588066
1	0x3ea93af8	0.33052802
2	0x3a05f88f	0.00051105855
3	0x3e67e992	0.22647694
4	0x3a48a3af	0.0007653785
5	0x3e35ab33	0.17741089
6	0x3e2732f4	0.16328031
7	0x388a27a6	6.587738e-05
8	0x396b837f	0.00022460333
9	0x3f1250de	0.57154644
10	0x3ecbc92d	0.39801922
11	0x3eac988a	0.33710128
12	0x3e83d854	0.25750983
13	0x3e44cc7e	0.19218633
14	0x3e9149a1	0.28376487
15	0x38bc6491	8.9832705e-05
16	0x374df09c	1.2274973e-05
17	0x3e8ba99f	0.27277848
18	0x3752c9e5	1.2563983e-05
19	0x34252968	1.5381886e-07
20	0x341afa14	1.4433346e-07
21	0x3edef136	0.43543404
22	0x3486f6ee	2.513911e-07
23	0x3e3000cf	0.17187808
24	0x3ed4c714	0.41558135
25	0x3e7e5b29	0.24839462
26	0x3eee12bd	0.4649867
27	0x3e95ff03	0.2929612
28	0x3e9fb136	0.3118989
29	0x3ddc0bad	0.107444145
30	0x3e620e14	0.22075683
31	0x3f1fceff	0.62425226
32	0x3ec351c5	0.38148323
33	0x3b4fd81a	0.00317145
34	0x3e7ba153	0.24573259
35	0x3eca0a06	0.39460772
36	0x3e8d3dc0	0.27586174
37	0x3e59aa44	0.21256357
38	0x3991723e	0.00027741672
39	0x35fe1a18	1.8932069e-06
40	0x3edf0700	0.43560028
41	0x3eb8843d	0.3603839
42	0x3e6b8306	0.229992
43	0x3f11cf2b	0.5695674
44	0x35abfa71	1.2813381e-06
45	0x36924c70	4.3600376e-06
46	0x3ebf50e0	0.3736639
47	0x3e43c84a	0.19119373
48	0x3ee16143	0.44019517
49	0x3cc85231	0.024453254
50	0x3e27b9f0	0.16379523
51	0x39b12c8b	0.00033793258
52	0x36160fff	2.2361053e-06
53	0x3e960242	0.29298598
54	0x3604819d	1.9744978e-06
55	0x3e8eb9b7	0.27876064
56	0x3e91fc2b	0.285127
57	0x3ee7aad1	0.4524751
58	0x3aba9adc	0.0014236826
59	0x3e76c612	0.24098995
60	0x394695ef	0.00018938606
61	0x3981cf43	0.0002475922
62	0x3e9a625d	0.3015317
63	0x3e88262a	0.26591617

module.bn1.bias f4 [64]
0	0x3e686cfc	0.22697824
1	0xbdf8bf03	-0.121458076
2	0xbacd1321	-0.001564596
3	0x3e376309	0.17908873
4	0xbb3051fc	-0.0026904335
5	0x3d2bf9e9	0.04198638
6	0xbd90970b	-0.07060059
7	0xb9176c26	-0.0001444077
8	0xba959d2c	-0.0011414639
9	0x3e5daf2b	0.21648853
10	0xbe48cb4f	-0.19608806
11	0x3e129ef4	0.14318448
12	0x3dc30d43	0.09524014
13	0x3de0db52	0.10979332
14	0x3e98eba3	0.29867277
15	0xb9bcf654	-0.00036041683
16	0xb80a6192	-3.2992633e-05
17	0x3e69f55d	0.22847505
18	0xb8020926	-3.1002935e-05
19	0xb4cfeaa6	-3.8727484e-07
20	0xb4e5a4c7	-4.2774465e-07
21	0xbe517538	-0.20454872
22	0xb5427e5b	-7.2454503e-07
23	0xbd85f8e0	-0.0654161
24	0x3e1a6e8b	0.15081231
25	0x3d8b8f4a	0.068144396
26	0xbeb39e12	-0.35081536
27	0xbe5ec708	-0.21755612
28	0xbe1baa26	-0.15201625
29	0x3c68f24f	0.014217927
30	0xbe0782b0	-0.13233447
31	0xbf0731cf	-0.52810377
32	0x3e22866c	0.1587159
33	0xbc1a6b94	-0.009425063
34	0x3e091503	0.13386922
35	0xbeb563f9	-0.35427836
36	0x3e9ef6ba	0.31047612
37	0xbccb327d	-0.024804348
38	0xbabe4d17	-0.0014518824
39	0xb6ccd1e0	-6.1041064e-06
40	0xbedda0c3	-0.43286714
41	0xbe8b71e9	-0.27235344
42	0xbe2cc8df	-0.16873501
43	0x3ee23189	0.44178417
44	0xb6d6edde	-6.4053884e-06
45	0xb7539de9	-1.2613346e-05
46	0xbd00bace	-0.03142815
47	0xbdcb9981	-0.09941388
48	0xbe9579f8	-0.29194617
49	0xbb1e0184	-0.002410979
50	0x3ce55eee	0.027999368
51	0xba6d6a6c	-0.00090566906
52	0xb70e9524	-8.498584e-06
53	0xbe4dfec0	-0.2011671
54	0xb775583a	-1.462368e-05
55	0x3e3e57c7	0.18588172
56	0x3e193750	0.14962506
57	0xbe5578e9	-0.20846905
58	0xbb7f9716	-0.0038999966
59	0xbe102ec3	-0.14080338
60	0xbbedd786	-0.0072583584
61	0xbaa81e14	-0.0012826347
62	0xbdcbaf03	-0.0994549
63	0xbd17abc9	-0.03702906

module.bn1.running_mean f4 [64]
0	0xbc522984	-0.012827281
1	0x3e822b4f	0.25423667
2	0xbac58099	-0.0015068232
3	0x3be709bb	0.0070507205
4	0xbb5bdefe	-0.0033549662
5	0x3e1486d6	0.14504561
6	0x3d3ebfc3	0.046569597
7	0x397393ba	0.00023229318
8	0xbb29aaab	-0.002588908
9	0xbd5b5b8b	-0.0535541
10	0x3daf5117	0.085603885
11	0x3c80a3bb	0.015703073
12	0xbc3cd9e3	-0.011526558
13	0xbccd9420	-0.025095046
14	0xbd30dfff	-0.04318237
15	0xba3c3d8f	-0.0007180804
16	0xb85fe526	-5.3380754e-05
17	0x3cb129b7	0.021626337
18	0x385449e5	5.061356e-05
19	0x3509f555	5.139348e-07
20	0xb5818f37	-9.65293e-07
21	0x3d9519bb	0.07280298
22	0x35bbf913	1.4005076e-06
23	0x3d180c20	0.03712094
24	0x3c24933e	0.010044871
25	0x3d12c370	0.035830915
26	0x3e610c5c	0.21977371
27	0x3d85522b	0.06509813
28	0x3d8a0b74	0.06740466
29	0xbbe29240	-0.006914407
30	0x3dba713d	0.0910363
31	0x3edc1a78	0.42988944
32	0xbd6db319	-0.05803213
33	0xbc91817c	-0.017761938
34	0x3d1d9480	0.0384717
35	0xbe0c848f	-0.13722442
36	0xbd1596c2	-0.036520727
37	0xbafe50e9	-0.0019402775
38	0xbb0fa348	-0.0021917392
39	0x378e56d8	1.6968159e-05
40	0x3f2b2d0a	0.668656
41	0x3d8191e0	0.063266516
42	0xbe1b72e0	-0.1518054
43	0x3cde9d22	0.027174536
44	0x372fb73f	1.0473478e-05
45	0x37292533	1.0081846e-05
46	0x3c183655	0.0092902975
47	0x3cc05079	0.023475872
48	0x3e2fecdf	0.17180203
49	0xbcd9dd72	-0.026594851
50	0xbe5885b1	-0.21144749
51	0xba843e73	-0.0010089412
52	0x363ac1a1	2.7828867e-06
53	0xbdfc178d	-0.123091795
54	0xb8a8d054	-8.0496684e-05
55	0x3cb8e9e6	0.022572469
56	0xbc3d5fb9	-0.011558467
57	0x3d26b554	0.04070027
58	0xbbd9490a	-0.0066310214
59	0x3cc52156	0.024063747
60	0xbc6c5b44	-0.014426056
61	0xbb5beb5c	-0.0033557033
62	0x3bffa1eb	0.0078012845
63	0x3e37ff15	0.179684

module.bn1.running_var f4 [64]
0	0x3e983381	0.29726794
1	0x3f902e19	1.1264068
2	0x383234fa	4.2487845e-05
3	0x3dcd6f62	0.1003101
4	0x3937194c	0.00017461664
5	0x3ec59891	0.3859296
6	0x3dc193fd	0.09452055
7	0x354b91af	7.583539e-07
8	0x38efd62b	0.000114363
9	0x3f6975d5	0.9119542
10	0x3f389b42	0.72111905
11	0x4024d8c5	2.5757306
12	0x3f1a3aed	0.60246164
13	0x3fb18dd2	1.3871405
14	0x3ec629c3	0.38703737
15	0x3700f9f3	7.68759e-06
16	0x3329c3e0	3.9526526e-08
17	0x40736edf	3.803642
18	0x331d173a	3.6575535e-08
19	0x2ca205ed	4.604975e-12
20	0x2d5ea47b	1.2655761e-11
21	0x3fb840b7	1.4394749
22	0x2deae2b5	2.6703398e-11
23	0x3d598d97	0.053113546
24	0x40781979	3.8765547
25	0x3ef5a7ff	0.47979733
26	0x3f89db6d	1.0770088
27	0x3edb45c9	0.4282668
28	0x3e567530	0.20943141
29	0x3e1820c1	0.14856245
30	0x3e9374e4	0.28800118
31	0x404ebebd	3.2303917
32	0x3f8237f5	1.0173327
33	0x3b956aaa	0.0045598345
34	0x3edbe302	0.4294663
35	0x3ee58ec3	0.4483548
36	0x3ebc8723	0.3682185
37	0x3f00ba50	0.5028429
38	0x38be9ac3	9.0887326e-05
39	0x318667d3	3.9117167e-09
40	0x40bd504a	5.916051
41	0x3e80d088	0.25159097
42	0x3ed49d99	0.41526487
43	0x3f27860d	0.6543892
44	0x31171113	2.1983098e-09
45	0x3105df5d	1.9481015e-09
46	0x3fcc82b4	1.5977387
47	0x3e332f6d	0.1749856
48	0x3f105e26	0.5639366
49	0x3c2e5f08	0.010642774
50	0x3f3a307c	0.7273023
51	0x37891e6c	1.6345839e-05
52	0x2fabe242	3.1265485e-10
53	0x3ec8c6f4	0.3921429
54	0x33bed8b2	8.886981e-08
55	0x3eb105cd	0.34574738
56	0x3ff6bbfa	1.9276116
57	0x3f8b072a	1.0861561
58	0x3a27e69d	0.00064049085
59	0x3df773dd	0.12082646
60	0x3b78b748	0.003795104
61	0x392703bb	0.00015927751
62	0x3d431f15	0.047637064
63	0x3f0182f0	0.5059042

module.layer1.0.conv1.weight f4 [16, 64, 3, 3]
0	0xbd05bdf4	-0.032651857
1	0x3c520c89	0.012820371
2	0x3e012941	0.12613393
3	0xbd2cd5c5	-0.042196054
4	0xbda5f8a6	-0.081040666
5	0x3c84bc4c	0.016203068
6	0x3dd1e7f2	0.10249318
7	0xbc84bae7	-0.016202403
8	0xbdd412a3	-0.10355117
9	0x3d576325	0.052584786
10	0x3d1ff5e8	0.039052874
11	0xbcd3ea65	-0.025868604
12	0x3d77a658	0.060461372
13	0x3ce8e6bc	0.028430335
14	0xbd9dd43f	-0.07706498
15	0x3cfc4b65	0.03079767
16	0x3d115b6a	0.03548757
17	0xbd852376	-0.06500904
18	0x390d1672	0.0001345517
19	0xb902d7b0	-0.00012478116
20	0xb9b8bcdf	-0.00035235935
21	0x39737738	0.00023218698
22	0xb7f93539	-2.9707897e-05
23	0xb98f7839	-0.00027364658
24	0x396cfe47	0.0002260144
25	0x38781024	5.914284e-05
26	0xb9448a69	-0.00018743578
27	0x3d324679	0.04352424
28	0x398bf724	0.0002669628
29	0xbd906ba1	-0.070517786
30	0x3cdff582	0.027338747
31	0xbd21da0f	-0.039514598
32	0xbd769f27	-0.060210373
33	0x3d76f96d	0.060296465
34	0x3ddf3165	0.10898093
35	0x3d18e43d	0.03732704
36	0xb99bbaea	-0.00029703166
37	0xba322020	-0.0006794948
38	0xba6bf228	-0.00090006227
39	0x3a111307	0.00055341463
40	0xb92974a8	-0.00016160554
41	0xba619150	-0.0008604722
42	0x3a749b51	0.0009331005
43	0x397d1f23	0.0002413956
44	0xba466197	-0.00075676426
45	0x3db6ba3a	0.08922239
46	0x3c767f82	0.015045049
47	0xbd681839	-0.056663726
48	0x3db97782	0.090559974
49	0xbbd87226	-0.0066054044
50	0xbdac3c16	-0.08409898
51	0x3c961e30	0.018324941
52	0xbca3ea86	-0.02000929
53	0xbd702f8c	-0.058639094
54	0x3cb3af6e	0.021934237
55	0x3c4c4ea6	0.012469923
56	0xbc9436d9	-0.01809256
57	0x3c00ce13	0.007861632
58	0x3ba6aa85	0.0050862455
59	0xbc8f331a	-0.017480422
60	0x3ba45811	0.005015381
61	0xbaacec8a	-0.0013193053
62	0xbcae04d6	-0.02124254
63	0xb78c6ba9	-1.6739434e-05
64	0xb746a3c2	-1.18398475e-05
65	0xb7856bc2	-1.5905014e-05
66	0xb6ee681a	-7.1050717e-06
67	0xb641a03e	-2.8852514e-06
68	0x342efcbf	1.6296961e-07
69	0xb6f26cd1	-7.22483e-06
70	0xb6e592d7	-6.8418262e-06
71	0xb692ae50	-4.3714317e-06
72	0x38753760	5.8464124e-05
73	0xb8842817	-6.301718e-05
74	0xb94be121	-0.00019443456
75	0x3929992e	0.0001617416
76	0xb880a4e0	-6.134226e-05
77	0xb99a45e2	-0.00029425236
78	0x391a5e50	0.00014721719
79	0xb916686c	-0.00014344015
80	0xb9f0bb69	-0.00045916
81	0xbcc33ff0	-0.023834199
82	0x3d03372d	0.03203504
83	0x3e4fff7f	0.20312308
84	0xbeab565c	-0.33464324
85	0xbe8d4474	-0.27591288
86	0x3e318ea1	0.17339565
87	0xbd530ffd	-0.05152892
88	0xbdfd20d7	-0.12359779
89	0x3ddb07d5	0.10694853
90	0x3dcfdd5a	0.10149641
91	0xbc071cda	-0.008246625
92	0xbd992ca2	-0.07479216
93	0x3e07818b	0.1323301
94	0x3c37bb53	0.011214095
95	0xbd64343e	-0.055713885
96	0xbdb11960	-0.08647418
97	0xbc966ed2	-0.01836339
98	0x3d1f2627	0.038854744
99	0x3e0ab051	0.13543822
100	0x3db1d6be	0.08683537
101	0x3d76b120	0.060227513
102	0x3e41c1a9	0.18921532
103	0x3e412729	0.18862595
104	0x3e33b54b	0.17549627
105	0x3e09267e	0.1339359
106	0x3d4c04b8	0.049809188
107	0x3da5fe57	0.08105152
108	0x3c6be71e	0.014398364
109	0xbd7fa6f7	-0.06241509
110	0x3d4886c1	0.048956636
111	0x3c0c800c	0.008575451
112	0xbda406c8	-0.08009106
113	0xbc6c3d05	-0.014418845
114	0x3c97a0a4	0.018509217
115	0xbc581fc9	-0.013191172
116	0x3ce88193	0.028382098
117	0xbb10d2dc	-0.0022098338
118	0xbdd829d4	-0.10554853
119	0xbdb521e7	-0.08844357
120	0x3ad361c5	0.001612716
121	0xbd76b322	-0.060229428
122	0xbb7666ff	-0.0037598012
123	0x3d170513	0.036870074
124	0x3c6e0f8e	0.014530076
125	0x3d9c3ba9	0.07628567
126	0xbc9ef442	-0.01940358
127	0xbc74ceaa	-0.014941851
128	0xbc62e970	-0.013849601
129	0xbdc3fa51	-0.095692284
130	0xbd7a4d06	-0.06110861
131	0x3d1a385a	0.037651397
132	0x3d29026d	0.04126208
133	0xbd36646c	-0.044529364
134	0xbca2f457	-0.019891901
135	0x376a46c4	1.3963963e-05
136	0xb7d41d71	-2.528608e-05
137	0xb8bd3ccc	-9.0235466e-05
138	0x3925caf4	0.00015811232
139	0x37ea4ad8	2.7929826e-05
140	0xb8af3698	-8.354819e-05
141	0x395720bd	0.00020516194
142	0x3833defa	4.288459e-05
143	0xb8a4c91a	-7.8575875e-05
144	0x36aa0e2a	5.0680437e-06
145	0x361daa6a	2.3494017e-06
146	0x366465b5	3.4033849e-06
147	0x36f5eca3	7.329117e-06
148	0x369df0d3	4.7070002e-06
149	0x371d7b04	9.386571e-06
150	0x359553e1	1.1125777e-06
151	0x35b462c3	1.3439789e-06
152	0x3711fa3d	8.700937e-06
153	0xbd816fe4	-0.063201696
154	0xbd9d97d3	-0.07694974
155	0x3bb6fadf	0.0055841054
156	0xbc22d560	-0.009938568
157	0xbd8534aa	-0.065041855
158	0xbc73ca67	-0.014879799
159	0x3de04abe	0.10951756
160	0xbad135a6	-0.0015961423
161	0xbd9a4628	-0.075329125
162	0x368932d0	4.0888335e-06
163	0x3598dd84	1.1389352e-06
164	0xb58c9c0b	-1.0476227e-06
165	0x352371d1	6.0887857e-07
166	0x35a746d8	1.2463088e-06
167	0x35feb5e3	1.8977411e-06
168	0xb66d15ba	-3.5328399e-06
169	0xb60e4552	-2.1199999e-06
170	0x34658d01	2.1378584e-07
171	0xb343c186	-4.5577984e-08
172	0xb3b298da	-8.3165745e-08
173	0xb380aa76	-5.991471e-08
174	0xb3c13c45	-8.998226e-08
175	0xb405cbc9	-1.2460727e-07
176	0xb3a4deff	-7.677408e-08
177	0xb39f2c54	-7.412078e-08
178	0xb41bdfc4	-1.4516905e-07
179	0xb3d51aa1	-9.923429e-08
180	0xb2a955c1	-1.9713186e-08
181	0xb3802a69	-5.968179e-08
182	0xb3319934	-4.135036e-08
183	0xb3226634	-3.7811517e-08
184	0xb2f98f05	-2.9052453e-08
185	0xb2eb08fc	-2.7361686e-08
186	0xb341fe10	-4.5167383e-08
187	0xb3aa7f7f	-7.939433e-08
188	0xb3992dcb	-7.1329474e-08
189	0x3ddc273d	0.107496716
190	0xbd7aa287	-0.061190154
191	0xbe656e5c	-0.2240538
192	0xbbfd952e	-0.007738731
193	0xbd8727f3	-0.065994166
194	0xbd0f4f15	-0.034987528
195	0xbd79f017	-0.061019983
196	0xbd35ce92	-0.044386454
197	0x3d4dfddd	0.05029093
198	0xb32b897c	-3.993908e-08
199	0xb2774a83	-1.4394234e-08
200	0x33fa0719	1.1642823e-07
201	0xb38581bd	-6.2168944e-08
202	0x31aa26d1	4.952064e-09
203	0x34287e4f	1.569217e-07
204	0xb42ac504	-1.5904158e-07
205	0xb39ef5ea	-7.40218e-08
206	0x33ff1d04	1.1879641e-07
207	0x3ba545c3	0.0050437166
208	0x3c3252a4	0.010883961
209	0x3b0421dc	0.0020161783
210	0x3c742764	0.01490197
211	0x3c834ff1	0.01602933
212	0x3ada6926	0.0016663417
213	0x3bc44075	0.005989129
214	0x3a51fa7f	0.0008010044
215	0xbc917067	-0.017753793
216	0xbe65c1b6	-0.22437176
217	0xbe9493a7	-0.290189
218	0xbe2fff7e	-0.17187306
219	0xbea507e1	-0.32232574
220	0xbecb1164	-0.39661705
221	0xbea03e27	-0.31297418
222	0xbe3765d3	-0.17909937
223	0xbe8f15e2	-0.27946383
224	0xbe1c52da	-0.1526598
225	0x3d7ecd7b	0.06220768
226	0x3cd78d0d	0.026312375
227	0xbc736bc0	-0.014857233
228	0x3d456faf	0.048202213
229	0x3c40ae8e	0.011760367
230	0xbbbb3969	-0.005713631
231	0xbd3a426f	-0.045473512
232	0x3d08ee34	0.033430293
233	0x3d6e058a	0.05811075
234	0xbc189cf0	-0.009314761
235	0x3c30270b	0.010751496
236	0xbd9d3cce	-0.07677613
237	0x3b15204c	0.0022754846
238	0x3ca432a8	0.020043686
239	0xbd7999e9	-0.060937796
240	0x3d36c37c	0.044620022
241	0x3d43fb39	0.047847006
242	0xbc1a11d4	-0.009403665
243	0xbd0d9265	-0.03456344
244	0xbc585f27	-0.01320628
245	0xbba09256	-0.004900257
246	0xbc683e82	-0.014175059
247	0x3c4f525c	0.012653913
248	0x3cb99bc0	0.022657275
249	0xbaa149ff	-0.0012305378
250	0xbb50971c	-0.003182835
251	0xbbad91c8	-0.0052969195
252	0x3cbf8945	0.023380885
253	0xbbbe965d	-0.0058162645
254	0xbd1b0b2c	-0.03785245
255	0x3c473c24	0.012160335

module.layer1.0.bn1.weight f4 [16]
0	0x3f22f556	0.636556
1	0x3ee3c282	0.44484335
2	0x3f08ac13	0.53387564
3	0x3e88677e	0.26641458
4	0x3f3775c1	0.71664053
5	0x3f013902	0.5047761
6	0x3f0a44f4	0.54011464
7	0x3ee262b8	0.4421594
8	0x3f2215b3	0.6331436
9	0x3f41e8dc	0.7574594
10	0x3f1fabfe	0.62371814
11	0x3ec2e82d	0.3806776
12	0x3f242562	0.6411954
13	0x3f03adf9	0.51437336
14	0x3edbb344	0.42910206
15	0x3f0fda17	0.56192154

module.layer1.0.bn1.bias f4 [16]
0	0xbe33911e	-0.17535827
1	0xbe157c7e	-0.14598271
2	0xbe1e89b2	-0.15482214
3	0x3ea8e207	0.32984945
4	0xbdc1ea80	-0.094685555
5	0xbe8696d9	-0.26286963
6	0xbeaf2e7e	-0.34215158
7	0xbdc85ea4	-0.09783676
8	0xbf01381a	-0.5047623
9	0xbe01a909	-0.12662138
10	0x3eb526e1	0.35381225
11	0xbd8293cd	-0.06375847
12	0x3ec013f4	0.37515223
13	0xbdfb647a	-0.12275024
14	0x3e550d42	0.20805839
15	0xbde3f824	-0.111313134

module.layer1.0.bn1.running_mean f4 [16]
0	0xbf0c4545	-0.54793197
1	0xbe8debed	-0.2771906
2	0xbeecad0c	-0.46225774
3	0xbe98f31b	-0.29872975
4	0xbe417993	-0.18894033
5	0xbe968838	-0.29400802
6	0xbe96385e	-0.2933988
7	0xbeaf0e55	-0.34190622
8	0x3eae0998	0.33991694
9	0xbe8f73b8	-0.28017974
10	0xbe896c8b	-0.26840624
11	0xbeeb7f66	-0.45995635
12	0xbf00a44c	-0.502507
13	0xbe51bcb9	-0.20482148
14	0xbecd541b	-0.4010323
15	0xbe88a261	-0.26686385

module.layer1.0.bn1.running_var f4 [16]
0	0x3f31b94d	0.6942337
1	0x3e03b50f	0.12862037
2	0x3ebaae42	0.36461073
3	0x3d73b433	0.059498023
4	0x3fb0633e	1.3780286
5	0x3dadc799	0.08485336
6	0x3dd808db	0.10548564
7	0x3e1f0308	0.155285
8	0x3df016b7	0.117230825
9	0x3feea53d	1.8644177
10	0x3ea3341c	0.31875694
11	0x3e19a047	0.15002547
12	0x3ea5ce91	0.3238416
13	0x3e95fceb	0.29294524
14	0x3e98cff3	0.29846153
15	0x3f09dea2	0.53855336

module.layer1.0.conv2.weight f4 [16, 16, 3, 3]
0	0xbde25074	-0.110505015
1	0x3dc7b688	0.09751612
2	0xbc396033	-0.01131444
3	0xbe3b2134	-0.18274385
4	0x3e082df7	0.13298784
5	0x3e800f22	0.25011545
6	0xbe1fca92	-0.15604618
7	0xbce89d6d	-0.028395379
8	0x3d9a6560	0.07538867
9	0xbcce0961	-0.025150957
10	0xbce8a055	-0.028396765
11	0xbdb3754f	-0.08762609
12	0xbdeeb3da	-0.11655398
13	0xbdcf92ff	-0.10135459
14	0xbd3d37b5	-0.046195704
15	0xbcfe0267	-0.031007005
16	0xbc0ad010	-0.0084724575
17	0xbd57409e	-0.052551858
18	0x3c6a3d2d	0.014296812
19	0xbd9f57bd	-0.077804066
20	0xbdabcfc7	-0.0838924
21	0x3e66ceb4	0.22539788
22	0x3da70e72	0.08157052
23	0xbe984261	-0.29738143
24	0x3cd8b147	0.02645172
25	0x3c54e32e	0.012993617
26	0x3d093671	0.033499185
27	0x3e2d4bce	0.16923448
28	0x3d8a980d	0.06767283
29	0xbdd069aa	-0.10176404
30	0xbe6f11ff	-0.23346709
31	0xbb64370a	-0.0034822845
32	0x3df92aee	0.12166391
33	0x3d886ec0	0.06661749
34	0xbe2d2bf6	-0.16911301
35	0xbc9c03d0	-0.019044787
36	0x3d82ef64	0.063933164
37	0xbcab0fe5	-0.020881603
38	0xbe1b0462	-0.1513839
39	0xbdbdb220	-0.0926249
40	0x3d120f71	0.035659257
41	0x3b5609d8	0.0032659676
42	0xbe0be6ad	-0.13662215
43	0xbdb91adc	-0.09038326
44	0x3d509af6	0.050929032
45	0x3bd0d9f1	0.006373637
46	0xbd5d5e2c	-0.054044887
47	0xbd7275b6	-0.05919429
48	0xbd3b5dc0	-0.045743704
49	0x3cc387c3	0.023868447
50	0x3c103ad2	0.008803086
51	0xbd5d1f33	-0.053984832
52	0xbda11cbe	-0.0786681
53	0x3c2944cf	0.010331347
54	0x3c6f0ffb	0.014591212
55	0xbd6d48e6	-0.05793085
56	0xbdcaeecd	-0.09908829
57	0x3dfbe25a	0.122990325
58	0x3daca5e8	0.084300816
59	0x3d23628c	0.039888903
60	0x3a0c20f3	0.0005345486
61	0x3c719805	0.014745717
62	0xbd63d2b7	-0.055620875
63	0x3c7d93d8	0.015477143
64	0xbdb119de	-0.08647512
65	0xbce7d7cd	-0.028301144
66	0x3e34ef41	0.17669393
67	0x3db85ea0	0.09002423
68	0x3d60fdc1	0.0549295
69	0x3c0b1678	0.008489244
70	0x3e143d6a	0.14476553
71	0x3d494a6b	0.049143236
72	0x3cf312bd	0.029672021
73	0xbc8717c4	-0.016490825
74	0x3dd69749	0.10478074
75	0xbe231819	-0.15927161
76	0xbe5141c9	-0.20435251
77	0xbdd5b657	-0.10435169
78	0xbce4fc58	-0.027952358
79	0xbd0faf9f	-0.035079595
80	0x3df90363	0.12158849
81	0xbd100659	-0.035162304
82	0x3cd053e5	0.025430629
83	0xbe12d58d	-0.14339276
84	0x3debbdb2	0.11510791
85	0xbd523e4b	-0.05132894
86	0x3e53a488	0.20668232
87	0xbd679cf1	-0.056546155
88	0x3d18e577	0.03732821
89	0xbe54b21c	-0.20771068
90	0x3e926828	0.2859509
91	0xbe4896b0	-0.19588733
92	0xbe9a712b	-0.30164465
93	0x3e223c5e	0.15843341
94	0x3e9552e9	0.29164818
95	0xbea4834a	-0.32131416
96	0xbe64b056	-0.22332892
97	0x3d8a7e1c	0.06762335
98	0x3e2feb21	0.17179538
99	0xbd803a3f	-0.062611096
100	0x3dcfab9c	0.10140154
101	0x3cd6f42d	0.026239479
102	0xbd2eb7a9	-0.04265562
103	0x3d279f80	0.040923595
104	0x3d9aa603	0.075511955
105	0xba713e52	-0.0009202707
106	0x3d6eee04	0.05833246
107	0xbc85eca3	-0.016348189
108	0xbdd88d15	-0.10573784
109	0x3e432041	0.19055273
110	0x3e467347	0.19379912
111	0xbe54d300	-0.20783615
112	0xbe93e5e0	-0.28886318
113	0x3e9adc1d	0.30246058
114	0x3e6cd048	0.23126328
115	0xbe0c7c17	-0.13719212
116	0xbe1ba356	-0.15199026
117	0xbc711532	-0.014714526
118	0x3d98af02	0.07455255
119	0x3ca8916c	0.020577155
120	0x3e7bcaa6	0.24589023
121	0x3e016af5	0.12638457
122	0x3c4b2100	0.0123980045
123	0x3d0b92f2	0.034075685
124	0x3eaa10b2	0.33215863
125	0xbdff255c	-0.124582976
126	0x3d9d8818	0.076919734
127	0x3e449387	0.19196902
128	0x3cf67a0b	0.030087491
129	0xbe9136f9	-0.28362253
130	0x3cc55ed4	0.02409307
131	0x3e779377	0.24177347
132	0xbe8c0c7a	-0.2735327
133	0xbe82d219	-0.25550917
134	0x3e861ffd	0.2619628
135	0x3d22cad9	0.03974423
136	0xbd34eaf0	-0.044169366
137	0x3d9420cb	0.07232817
138	0xbcb166e3	-0.021655506
139	0xbe5863fa	-0.21131888
140	0xbcb7aa64	-0.022420116
141	0x3da524cc	0.08063659
142	0x3d33d8d5	0.04390796
143	0x3c8a1e65	0.016860196
144	0xbdb238cb	-0.08702239
145	0xbd42f71e	-0.04759895
146	0xbe0643e1	-0.13111831
147	0xbcdcfda5	-0.026976416
148	0x3c8c18b1	0.017101618
149	0x3df6a243	0.12042668
150	0x3d825eee	0.06365763
151	0x3d6435fa	0.05571554
152	0xbd8a19f8	-0.067432344
153	0xbd936fd7	-0.07199066
154	0xbd0e8548	-0.034795076
155	0x3d11fd03	0.03564168
156	0x3d87738c	0.06613836
157	0x3e044891	0.12918307
158	0xbd4a4f1a	-0.049391843
159	0xbcb934b9	-0.022608148
160	0xbc897618	-0.016779944
161	0xbc50fc27	-0.01275543
162	0x3d280826	0.041023396
163	0x3d471abf	0.04860949
164	0xbd922780	-0.0713644
165	0x3d8bfd2f	0.068354
166	0xbd04fad2	-0.032465763
167	0x3ca4d346	0.020120274
168	0x3d61c6b0	0.055121124
169	0xbd046c06	-0.03232958
170	0xbe1c71a4	-0.15277725
171	0xbd3dab36	-0.046305858
172	0xbe8a45b5	-0.27006307
173	0x3dc73f2e	0.097288474
174	0xbe81d147	-0.25354978
175	0x3e75d961	0.24008705
176	0x3e4199ac	0.18906277
177	0x3e377c38	0.1791848
178	0x3cb056d0	0.02152577
179	0xbe038b68	-0.12846148
180	0xbe24dbda	-0.16099492
181	0x3d9ba43b	0.07599684
182	0x3da8e064	0.08245924
183	0x3d67d4e9	0.05659953
184	0x3d888df7	0.06667703
185	0x3cb6c4bc	0.022310607
186	0xbcf89ccf	-0.03034821
187	0x3df09947	0.11747985
188	0xbe302fb4	-0.17205697
189	0xbca16941	-0.01970351
190	0x3de90692	0.11378206
191	0x3a8a5bf9	0.0010555974
192	0x3c53fb89	0.012938389
193	0x3a6b5e6e	0.00089786097
194	0xbc585059	-0.01320275
195	0x3d125005	0.035720844
196	0xbe12b938	-0.14328468
197	0x3c5d3f5d	0.0135038765
198	0xbd8221d5	-0.06354109
199	0xbc6b1d7b	-0.01435029
200	0x3d3bf24d	0.045885373
201	0xbd9be91b	-0.07612821
202	0xbd1e8ea4	-0.03871025
203	0xbda112c1	-0.07864905
204	0xbdb42f00	-0.08798027
205	0x3c4e10be	0.012577234
206	0x3d178fde	0.037002437
207	0x3d8b64db	0.06806346
208	0x3dae2cf3	0.08504667
209	0x3c6f2bb1	0.014597819
210	0xbe0ee7c0	-0.13955593
211	0x3d0564e9	0.03256694
212	0xbc8f2b16	-0.0174766
213	0xbbec27b6	-0.0072068824
214	0xbda2f68d	-0.07957182
215	0x3bad2017	0.0052833664
216	0xbd425a28	-0.04744926
217	0xbda35ed3	-0.07977071
218	0xbd89e974	-0.06733981
219	0x3c2ae745	0.0104311155
220	0xbd91457a	-0.0709333
221	0xbc250068	-0.010070898
222	0x3d4159f1	0.047204915
223	0xbd56b754	-0.05242093
224	0xbd2b5b79	-0.041835282
225	0xbd802fd4	-0.062591225
226	0x3d9afcf0	0.07567775
227	0xbe279cd6	-0.16368422
228	0x3d34c24b	0.044130605
229	0xbdf5b4b9	-0.11997361
230	0x3dc73218	0.097263515
231	0xbd02710d	-0.031846095
232	0xbcb1c7eb	-0.021701774
233	0x3cbac0c2	0.022796992
234	0x3dbacca1	0.09121061
235	0xbf11c119	-0.5693527
236	0x3eec05ac	0.46098077
237	0x3da14b91	0.07875741
238	0x3e5dc4bf	0.21657084
239	0xbe769c3d	-0.24083038
240	0x3be77da1	0.0070645367
241	0xbca6b6eb	-0.020350894
242	0x3c1d52b3	0.009602237
243	0x3d9dda16	0.07707612
244	0xbcc36b95	-0.02385501
245	0xbdbf3949	-0.09337098
246	0x3d3edc29	0.04659668
247	0xbe529f38	-0.2056855
248	0x3e14a497	0.14515911
249	0xbdccdffa	-0.10003658
250	0x3d82e0d6	0.0639054
251	0x3ba40e44	0.0050065834
252	0xbc1187f7	-0.008882514
253	0x3f0e3b21	0.55558974
254	0xbf12d96a	-0.57363
255	0x3c9d906a	0.019233901

module.layer1.0.bn2.weight f4 [16]
0	0x3f456f26	0.77122724
1	0x3f4ceb75	0.8004678
2	0x3f04f659	0.51938397
3	0x3e96c97f	0.29450604
4	0x3ecf8849	0.40533665
5	0x3ed00e2f	0.4063582
6	0x3f70d124	0.94069123
7	0x3eff583c	0.49872005
8	0x3ead09c6	0.3379652
9	0x3f032a5b	0.51236504
10	0x3ea1373d	0.31487456
11	0x3f48bad6	0.7841009
12	0x3f3475b8	0.70492125
13	0x3f375e05	0.7162784
14	0x3ef977fb	0.4872435
15	0x3efd668e	0.49492306

module.layer1.0.bn2.bias f4 [16]
0	0xbd899c3b	-0.06719252
1	0xbd341edb	-0.04397474
2	0x3d2f509b	0.04280148
3	0x3dc98e6a	0.098416165
4	0x3cbebe4c	0.0232841
5	0xbd115594	-0.035482004
6	0x3c68bbc8	0.014204927
7	0xbd5ac140	-0.053406954
8	0x3dbb7fc7	0.09155231
9	0x3eaaa870	0.33331633
10	0x3e43b1a3	0.19110732
11	0xbc7ff513	-0.015622395
12	0x3e4d0226	0.20020351
13	0xbdd25703	-0.102705024
14	0xbdc5973a	-0.09647985
15	0x3e2c90de	0.16852137

module.layer1.0.bn2.running_mean f4 [16]
0	0xbd67970a	-0.056540526
1	0xbc47b7e4	-0.012189839
2	0xbf187eec	-0.5956867
3	0xbe40d76b	-0.18832175
4	0xbe6c3911	-0.23068644
5	0x3c773174	0.015087474
6	0xbf5addb2	-0.8549453
7	0x3e97e1c2	0.29664427
8	0x3b8830a0	0.004156187
9	0xbeb79c3a	-0.3586138
10	0x3eb7cc37	0.3589799
11	0xbe37b3a5	-0.17939623
12	0xbf2bea6c	-0.67154574
13	0xbe2f2b99	-0.17106475
14	0xbe0f1e98	-0.13976514
15	0xbe965298	-0.2935989

module.layer1.0.bn2.running_var f4 [16]
0	0x3ece45e8	0.4028771
1	0x3ed8b6fd	0.4232711
2	0x3e9ac4cf	0.30228278
3	0x3dc5e40e	0.096626386
4	0x3e007650	0.12545133
5	0x3da41994	0.08012691
6	0x3f15c2f3	0.58500594
7	0x3e5157b9	0.2044362
8	0x3dfb42ca	0.122685984
9	0x3e782f78	0.24236858
10	0x3e178651	0.14797331
11	0x3f0cda0f	0.5502023
12	0x3ef58eff	0.4796066
13	0x3dfed163	0.12442281
14	0x3e3bba35	0.18332751
15	0x3e33b9ed	0.17551394

module.layer1.0.shortcut.0.weight f4 [16, 64, 1, 1]
0	0x3ddeee27	0.10885268
1	0xbcbc5e3b	-0.022994151
2	0xb88d0e79	-6.7261e-05
3	0x3d7eab95	0.062175352
4	0x3a0129ad	0.00049271696
5	0x3dfd8025	0.12377957
6	0xbc8287ea	-0.01593395
7	0x36aab43c	5.087377e-06
8	0x38d8a71d	0.0001033081
9	0xbdc9b707	-0.09849363
10	0x3d53f1d5	0.0517443
11	0x3d51794e	0.051141076
12	0xbd645782	-0.055747516
13	0xbccf5ff0	-0.025314301
14	0xbde624dc	-0.11237499
15	0x3934274e	0.0001718078
16	0x37031735	7.813612e-06
17	0x3dcdb718	0.10044688
18	0xb701adbf	-7.729453e-06
19	0xb48fa584	-2.6756254e-07
20	0x33f3310a	1.13244894e-07
21	0xbc0bc8f3	-0.008531797
22	0xb490ff2d	-2.7007755e-07
23	0xbc0f3621	-0.008740933
24	0xbd64245d	-0.05569874
25	0x3d25fa87	0.040522125
26	0xbd92290b	-0.071367346
27	0xbdac26cf	-0.0840584
28	0xbca00410	-0.019533187
29	0xbd069c67	-0.032864
30	0xbceffa02	-0.029294018
31	0x3d081864	0.033226386
32	0xbbdc69a5	-0.006726461
33	0x39996d87	0.00029264038
34	0xbcb262b7	-0.021775587
35	0x3d67ad15	0.05656155
36	0x3d34b589	0.044118438
37	0xbd38e759	-0.045142505
38	0x3968218f	0.00022137746
39	0xb36bfc6e	-5.4944785e-08
40	0x3d08829d	0.033327688
41	0x3d5574a1	0.05211318
42	0xbd16d890	-0.036827624
43	0x3cfef80f	0.031124143
44	0xb55861b6	-8.060846e-07
45	0xb63cdd7f	-2.814311e-06
46	0xbdfe1140	-0.12405634
47	0x3ccff47f	0.02538514
48	0xbd183e79	-0.037168954
49	0xbc286b7b	-0.010279532
50	0xbe45c93e	-0.19315049
51	0xb7a19ff4	-1.926718e-05
52	0xb4de1e3a	-4.1372715e-07
53	0x3d8d4005	0.068969764
54	0x37879efe	1.616729e-05
55	0xbdec073a	-0.11524816
56	0xbca3129e	-0.019906338
57	0xbdbe53ab	-0.09293302
58	0x3805a727	3.1865344e-05
59	0x3cf5f10f	0.030022172
60	0xb998e311	-0.00029160877
61	0x39a53fec	0.00031518878
62	0xbd7a1fc6	-0.061065458
63	0x3d8f413d	0.06994865
64	0xbc852850	-0.016254574
65	0x3bd7c5ec	0.0065848734
66	0xb86de1a0	-5.6715333e-05
67	0x3a4cfe77	0.00078199006
68	0x39c8d6eb	0.000383071
69	0xbc0c4ae7	-0.00856278
70	0x3a69aec2	0.00089142856
71	0xb796dddf	-1.798471e-05
72	0xb8fd423a	-0.00012076316
73	0xbdbb6b40	-0.09151316
74	0xbac4f60e	-0.0015026943
75	0xbc8ef296	-0.017449658
76	0xb8c4a76c	-9.377193e-05
77	0x3c3ce645	0.01152951
78	0xbd44a37d	-0.048007477
79	0x3850ff39	4.982876e-05
80	0x36914657	4.3295254e-06
81	0x3c754673	0.01497041
82	0xb60d1f89	-2.1028993e-06
83	0x340377bf	1.2243889e-07
84	0xb3438ba7	-4.552899e-08
85	0xb93fd658	-0.00018295029
86	0x3458a809	2.0177698e-07
87	0x3af3223a	0.0018549629
88	0xbc8d850e	-0.01727536
89	0xbb9b1170	-0.0047323033
90	0x3c6574ac	0.0140048675
91	0xbcaaa5ef	-0.020831076
92	0x3c2eab8b	0.010661016
93	0x3aa3cb3d	0.0012496483
94	0x3ab52a81	0.0013821871
95	0x3d43258b	0.047643226
96	0xbd373efb	-0.044737797
97	0xb9135ddd	-0.00014053979
98	0xbc290987	-0.010317213
99	0x3c2ec793	0.010667699
100	0xbd1ba23e	-0.037996523
101	0xbc0717ec	-0.0082454495
102	0xb8ba37c8	-8.879561e-05
103	0xb62033de	-2.3872049e-06
104	0x3c23daae	0.010000868
105	0xbaff0e9e	-0.0019459312
106	0x3cc3114e	0.023811962
107	0x3d7433cf	0.05961972
108	0xb58fa469	-1.070218e-06
109	0xb5adb2e7	-1.2941572e-06
110	0xbcee5374	-0.029092528
111	0xbc3bfb71	-0.0114735225
112	0x3ba5edb4	0.005063737
113	0x3b115c8f	0.0022180413
114	0x3c8daafd	0.017293448
115	0x38f22f97	0.000115483235
116	0x3581b522	9.663966e-07
117	0x3c608a18	0.013704799
118	0xb634f30a	-2.6963558e-06
119	0xbb264aa4	-0.002537408
120	0xbc045218	-0.008076213
121	0xbc01560c	-0.00789405
122	0x3859c1d6	5.1917355e-05
123	0x3b8ce4d6	0.0042997403
124	0xb985c8aa	-0.00025517243
125	0x394bcfd7	0.00019437015
126	0xbb6ee4d4	-0.003645231
127	0x3c88bd59	0.01669185
128	0x3d88c95b	0.066790305
129	0xbdc521b4	-0.09625569
130	0xba25de6a	-0.0006327393
131	0xbb9b7ad7	-0.0047448683
132	0x39021915	0.0001240711
133	0xbcbd4d46	-0.023108136
134	0xbc988299	-0.018616961
135	0xb7beef9b	-2.276134e-05
136	0xb98214d4	-0.0002481105
137	0x3af2dfeb	0.0018529868
138	0xbc3b4666	-0.0114303585
139	0xbcd3e63e	-0.025866624
140	0x3c8705a0	0.016482174
141	0x3d4d69db	0.05014978
142	0xbd2ee5f2	-0.04269976
143	0x390bc92f	0.0001333102
144	0xb7510e4f	-1.2460702e-05
145	0x3eca0f94	0.3946501
146	0xb6df8fe6	-6.66267e-06
147	0xb3d56efa	-9.938772e-08
148	0x33c482c6	9.150749e-08
149	0x3c9d1143	0.01917327
150	0xb28ae3f1	-1.616897e-08
151	0xbce50d2b	-0.02796038
152	0xbd241788	-0.040061504
153	0xbe0a26ca	-0.1349136
154	0xbc3b13d8	-0.011418305
155	0xbdfae01c	-0.12249777
156	0x3d0c4e22	0.0342542
157	0x3d8d5443	0.06900837
158	0x3d312145	0.04324462
159	0x3d20000a	0.039062537
160	0x3e8ba133	0.27271423
161	0xb91a1942	-0.00014695994
162	0x3d98b3bb	0.07456156
163	0x3d07f149	0.03318909
164	0xbd25edda	-0.040510036
165	0x3d8d81b5	0.06909505
166	0x390b4975	0.00013283438
167	0xb40b9e19	-1.30029e-07
168	0x3da9618a	0.08270557
169	0xbdb669b9	-0.08906884
170	0xbd0fbed3	-0.035094094
171	0xbd39586a	-0.045250334
172	0xb5f88dd0	-1.8518713e-06
173	0xb550093d	-7.749948e-07
174	0x3cbeabe3	0.023275321
175	0xbd05fa9d	-0.032709707
176	0xbd866edf	-0.06564116
177	0x3c17c4c9	0.009263226
178	0x3dd55f50	0.1041857
179	0xb80d1af2	-3.3642114e-05
180	0xb53b7a1e	-6.984063e-07
181	0x3dfdbf51	0.12390006
182	0xb65e4b00	-3.3124234e-06
183	0x3d629794	0.055320337
184	0xbec62726	-0.38701743
185	0x3ca9eb24	0.020742007
186	0xba870acb	-0.0010302899
187	0x3a84edb7	0.0010141645
188	0x3b6e5db6	0.0036371774
189	0xba0923c4	-0.0005231465
190	0xbdddae21	-0.10824228
191	0xbd15ab57	-0.036540356
192	0xbe2c9ece	-0.16857454
193	0xbeca0006	-0.39453143
194	0xba93a650	-0.0011264775
195	0xbd3d6db5	-0.046247203
196	0xbb651c1d	-0.0034959384
197	0xbe2e6829	-0.17031921
198	0xbba1aa07	-0.004933599
199	0xb963a2c8	-0.00021709048
200	0xba35b1bb	-0.0006931086
201	0x3ad5d76f	0.0016314815
202	0xbda48d06	-0.080347106
203	0xbd58b96f	-0.05291122
204	0x3c1ab975	0.00944363
205	0xbeef9f98	-0.46801448
206	0x3dbc00a4	0.0917981
207	0xba0eb4cc	-0.0005443811
208	0xb800304e	-3.0562565e-05
209	0x3de3d741	0.11125041
210	0xb809592c	-3.2746393e-05
211	0x334d3490	4.7778087e-08
212	0x33e951bc	1.08647754e-07
213	0xbc8bbd9c	-0.017058186
214	0xb496df45	-2.8102127e-07
215	0xbd1319d7	-0.035913315
216	0x3b0c281f	0.0021386219
217	0x3cc27ef8	0.023742184
218	0xbb8f1125	-0.0043660575
219	0xbc3693fc	-0.011143681
220	0xbd300512	-0.042973585
221	0xbb9880e5	-0.0046540373
222	0xbddf1b69	-0.108939
223	0xbd4d0797	-0.050056066
224	0x3c2a3cbb	0.010390456
225	0xbc0b91b5	-0.008518626
226	0xbe6e3eae	-0.23266098
227	0xbe31e01c	-0.17370647
228	0xbe5dccb6	-0.21660122
229	0xbe08b8b9	-0.13351716
230	0xbac9077a	-0.0015337311
231	0xb637d752	-2.7394458e-06
232	0xbca19dce	-0.019728567
233	0xbd91ab1e	-0.07112716
234	0xbe07653d	-0.13222213
235	0xbd12edfc	-0.03587149
236	0xb794bfa3	-1.7732213e-05
237	0xb6d9743a	-6.4806345e-06
238	0x3dfdbd1b	0.12389585
239	0xbd05ccb9	-0.032665942
240	0xbe4deaca	-0.20109096
241	0xbcaba2cc	-0.020951651
242	0xbe78ff1c	-0.24316067
243	0xb9e752b7	-0.0004412138
244	0xb70535da	-7.939956e-06
245	0xbe340449	-0.1757976
246	0xb74740b8	-1.1876393e-05
247	0x3d7c718b	0.06163172
248	0xbe1cadc7	-0.15300666
249	0xbc0a91e5	-0.0084576355
250	0xbb86165b	-0.0040920204
251	0xbdeeafab	-0.116546
252	0xbbfd033a	-0.007721332
253	0xbaede4e1	-0.0018149876
254	0xbc77a8fe	-0.0151159745
255	0xbe36a4e3	-0.17836337

module.layer1.0.shortcut.1.weight f4 [16]
0	0x3e13b680	0.14425087
1	0xb8e263ec	-0.00010795132
2	0x3e95c19d	0.29249278
3	0x3ed5a3aa	0.41726428
4	0x3eb029e4	0.3440696
5	0x3e9ea08b	0.3098186
6	0xbe085893	-0.13315038
7	0x3ec85af0	0.3913188
8	0x3ea1692e	0.31525558
9	0x3c8bc88f	0.017063407
10	0x3e96a13e	0.29419893
11	0x3dcffee2	0.10156037
12	0x3ebc1b56	0.36739606
13	0x3ee15d83	0.44016656
14	0x3f02f216	0.51150644
15	0x3da46ffa	0.0802917

module.layer1.0.shortcut.1.bias f4 [16]
0	0xbd899c3b	-0.06719252
1	0xbd341edb	-0.04397474
2	0x3d2f509b	0.04280148
3	0x3dc98e6a	0.098416165
4	0x3cbebe4c	0.0232841
5	0xbd115594	-0.035482004
6	0x3c68bbc8	0.014204927
7	0xbd5ac140	-0.053406954
8	0x3dbb7fc7	0.09155231
9	0x3eaaa870	0.33331633
10	0x3e43b1a3	0.19110732
11	0xbc7ff513	-0.015622395
12	0x3e4d0226	0.20020351
13	0xbdd25703	-0.102705024
14	0xbdc5973a	-0.09647985
15	0x3e2c90de	0.16852137

module.layer1.0.shortcut.1.running_mean f4 [16]
0	0xbd22833e	-0.039675944
1	0xbd3128ca	-0.04325179
2	0x3d6ca55d	0.05777489
3	0xbeb59ebb	-0.35472664
4	0xbd5a3a87	-0.053278472
5	0x3de4d96a	0.11174281
6	0x3e36d6d0	0.17855382
7	0xbdd3d7d9	-0.10343904
8	0xbacec1e3	-0.0015774335
9	0xbc02c8df	-0.007982462
10	0xbcb6ff4b	-0.02233853
11	0xbe240fe4	-0.16021687
12	0xbe60ff5c	-0.21972412
13	0x3e07e3a5	0.13270433
14	0x3c1f78e3	0.0097334115
15	0xbdca1cec	-0.09868798

module.layer1.0.shortcut.1.running_var f4 [16]
0	0x3c1290c9	0.008945652
1	0x3ba8248b	0.0051313094
2	0x3d5e1890	0.054222643
3	0x3d3ad3d5	0.045612175
4	0x3cd61162	0.026131336
5	0x3c6238d2	0.013807492
6	0x3caf0ce7	0.021368457
7	0x3d1ee07f	0.038788315
8	0x3cf5a525	0.029985974
9	0x3babf854	0.005248109
10	0x3d263355	0.040576298
11	0x3c8ac556	0.0169398
12	0x3d69b9f6	0.05706211
13	0x3cede826	0.029041361
14	0x3d44b51d	0.048024286
15	0x3c0b34dd	0.00849649

module.layer2.0.conv1.weight f4 [32, 16, 3, 3]
0	0x3d860743	0.06544354
1	0x3e045e19	0.1292652
2	0x3d899dd3	0.06719556
3	0x3d65f6f0	0.0561437
4	0x3e27afc8	0.16375649
5	0x3dde05a4	0.108409196
6	0x3d0b7e5d	0.034056056
7	0x3d6cd93c	0.05782436
8	0x3d11a1b2	0.035554595
9	0x3c84a11b	0.016190102
10	0x3bfc1159	0.0076924977
11	0x3cd5e167	0.026108457
12	0x3d98c472	0.07459344
13	0x3d8f8ed0	0.07009661
14	0x3cbaf2c7	0.022820843
15	0x3d0b7f50	0.03405696
16	0x3d675a32	0.0564825
17	0x3cd953e0	0.026529253
18	0xbdaf8618	-0.08570498
19	0xbd3565a6	-0.044286393
20	0xbd05930e	-0.032610945
21	0xbdacc43e	-0.08435868
22	0xbd430c44	-0.04761912
23	0xbbf22402	-0.0073895464
24	0xbc9d9b04	-0.019238956
25	0xbd885809	-0.066574164
26	0xbcf54cd1	-0.029943855
27	0x3cac57b4	0.021037914
28	0xbcaae7c6	-0.020862471
29	0x3ca9354b	0.020655295
30	0x3a376f64	0.00069974945
31	0xbd7cc0e9	-0.06170741
32	0xbc1aa5f3	-0.009438979
33	0x3d9740ab	0.07385381
34	0x3c53b396	0.012921235
35	0x3bfd0159	0.007721108
36	0xbda9f372	-0.08298387
37	0xbcfb817d	-0.030701393
38	0x3d881199	0.066439815
39	0xbdfedf3f	-0.124449246
40	0xbdbf98d3	-0.09355321
41	0xbc10537b	-0.008808966
42	0x3d0aa0cb	0.03384475
43	0x3c9bb5de	0.01900762
44	0x3b8089ad	0.003922662
45	0xbda8cb8e	-0.0824195
46	0x3c4a8a90	0.012362137
47	0x3d83d3a7	0.06436854
48	0xbe1a8580	-0.15089989
49	0xbd79510f	-0.06086832
50	0x3c775982	0.015097024
51	0xbe06d976	-0.13168892
52	0xbe30a71a	-0.17251244
53	0xbdaa4df2	-0.08315648
54	0xbba989f6	-0.005173917
55	0xbd3052d1	-0.04304773
56	0x3d243a57	0.0400947
57	0xbd977c02	-0.073966995
58	0xbe05447d	-0.13014407
59	0xbd8a191a	-0.06743069
60	0xbcdab26b	-0.026696404
61	0xbdc95536	-0.09830706
62	0xbdd33bcf	-0.10314142
63	0xbdce4279	-0.100712724
64	0xbdafd623	-0.08585765
65	0xbd2e2e0a	-0.042524375
66	0x3d5bfd30	0.053708255
67	0xbd7b7b80	-0.061397076
68	0x3d0b75f7	0.034048047
69	0x3df0c948	0.11757141
70	0xbc82fe90	-0.015990525
71	0xbb71ebeb	-0.00369143
72	0x3ddeeb21	0.10884691
73	0xbda788e3	-0.08180406
74	0xbe8c2310	-0.273705
75	0x3e9221ca	0.28541404
76	0x3d89841f	0.06714653
77	0xbe7b43e6	-0.2453762
78	0x3e63578c	0.22201365
79	0x3e1c1b20	0.15244722
80	0xbe2908f7	-0.16507326
81	0xbcf280ed	-0.029602492
82	0x3ca564d3	0.020189678
83	0xbd323813	-0.043510508
84	0xbd896bce	-0.06710015
85	0xbd21c5db	-0.03949533
86	0xbd6d61ad	-0.05795448
87	0xbdbd0d10	-0.09231007
88	0xbdaac3fd	-0.08338163
89	0xbcfe45ec	-0.0310392
90	0xbe204567	-0.15651475
91	0xbd6a8a26	-0.057260655
92	0x3dd3dd31	0.10344923
93	0xbe4e2ebb	-0.20135014
94	0xbd8d9bee	-0.06914507
95	0x3c759a97	0.01499047
96	0xbe858040	-0.2607441
97	0xbe193708	-0.14962399
98	0xbdc8687a	-0.09785552
99	0xbdb2016e	-0.08691679
100	0xbd21d211	-0.039506976
101	0xbc5b2f1d	-0.013377932
102	0xbc650b79	-0.013979786
103	0xbd090124	-0.033448353
104	0x3b06b601	0.002055526
105	0x3d229ac8	0.039698392
106	0x3a3d01eb	0.00072100636
107	0xbc1607be	-0.009157119
108	0x3db2b3db	0.08725711
109	0x3ddf5fb6	0.10906927
110	0x3df3dae5	0.11906985
111	0xbcf87541	-0.030329349
112	0xbc89873e	-0.016788121
113	0xbc881d7e	-0.016615625
114	0xbe0b8bcb	-0.13627546
115	0xbd880871	-0.06642235
116	0xbddbeea9	-0.1073888
117	0x3c65cf56	0.0140264835
118	0xbdaf3609	-0.08555228
119	0xbc3d713c	-0.011562642
120	0x3bb0aae3	0.005391465
121	0xbdbaf915	-0.0912954
122	0xbc23d2e2	-0.009999009
123	0x3bc6ec00	0.006070614
124	0xbd309906	-0.043114685
125	0x3d9ebce5	0.077508725
126	0xbd5448f9	-0.051827405
127	0xbd6aa596	-0.05728682
128	0x3c485f7c	0.0122297965
129	0xbdcab9f6	-0.098987505
130	0xbdadb7ab	-0.084822975
131	0x3c2df19d	0.010616687
132	0xbc27cdd6	-0.010241946
133	0xbd874df2	-0.06606664
134	0xbcc7229c	-0.024308495
135	0x3c801124	0.015633173
136	0x3d729ddf	0.05923259
137	0x3d3698db	0.044579368
138	0x3d51b107	0.051194217
139	0x3be6111b	0.007021082
140	0x3bab31ff	0.005224466
141	0x3de782be	0.11304234
142	0x3d6f2386	0.058383487
143	0xbd9e216b	-0.07721218
144	0x3b804797	0.003914784
145	0x3e14a38c	0.14515513
146	0x3daafc95	0.083489574
147	0x3de34d47	0.11098724
148	0x3e119966	0.14218673
149	0xbbb4ee2d	-0.005521557
150	0x3d62a3af	0.055331882
151	0xbd455a5c	-0.048181877
152	0xbd941dcc	-0.07232246
153	0x3d774930	0.06037253
154	0x3d5cfea2	0.053953774
155	0x3c41b329	0.0118225
156	0x3db47290	0.088109136
157	0x3db0db3d	0.086355664
158	0xbca05816	-0.019573253
159	0x3d43d7a1	0.04781306
160	0x3d578ff6	0.052627526
161	0x3b526e0a	0.0032109045
162	0x3e2fcbb9	0.17167558
163	0x3da29b86	0.0793982
164	0xbe14ed8b	-0.1454374
165	0x3d9bb398	0.07602614
166	0xbcf7d98a	-0.030255098
167	0xbe1eeced	-0.15520068
168	0x3dda7bcf	0.10668146
169	0xbc880783	-0.016605144
170	0xbe01c842	-0.12674049
171	0xbd51d0ab	-0.051224392
172	0xbda60c93	-0.08107867
173	0x3cd854cc	0.026407622
174	0xbd3ebbf9	-0.046565983
175	0xbcbe50fe	-0.02323198
176	0x3c0a6983	0.0084480075
177	0x3e00aaf7	0.12565218
178	0x3d9b8cee	0.075952396
179	0x3b929403	0.004473211
180	0xbda779bb	-0.08177515
181	0xbd74b298	-0.059740633
182	0x3ca5389d	0.020168597
183	0xbccf0474	-0.025270678
184	0xbc8924a4	-0.016741104
185	0x3cc952dd	0.024575645
186	0x3d68830a	0.056765594
187	0x3d23bf7a	0.03997753
188	0x3dcbb4a3	0.09946563
189	0x3d9d45ab	0.07679304
190	0xbd551adc	-0.05202757
191	0xbd0f735e	-0.035022132
192	0x3daa5340	0.0831666
193	0xbc8ccc03	-0.017187124
194	0xbd12c930	-0.0358364
195	0x3d2a61fb	0.041597348
196	0xbceab5e0	-0.028651178
197	0xbde62730	-0.11237943
198	0x3cd85a8d	0.026410365
199	0xbcc93d7c	-0.02456545
200	0x3d3b8b99	0.045787428
201	0xbdbd7143	-0.092501186
202	0xbe0ef000	-0.1395874
203	0xbd167806	-0.036735557
204	0xbdcc91ff	-0.09988784
205	0xbdb1a804	-0.086746246
206	0xbd3df1cf	-0.046373185
207	0x3e2e9f69	0.17052998
208	0x3d9f783e	0.07786606
209	0xbdcbd40b	-0.09952553
210	0x3e24425c	0.16040939
211	0x3c5e9e74	0.013587583
212	0xbe142677	-0.14467798
213	0xbcac7fd1	-0.021057041
214	0xbd0832c3	-0.033251535
215	0xbdfc3cad	-0.123162605
216	0xbe36c884	-0.17849928
217	0x3cd02e12	0.025412593
218	0x3c984598	0.018587872
219	0xbe3b8330	-0.18311763
220	0x3d0c4577	0.034245934
221	0x3d9d5164	0.0768154
222	0xbe19e244	-0.1502772
223	0x3d172a24	0.036905423
224	0x3d2cb0c2	0.042160757
225	0xbd70cd9a	-0.058789827
226	0x3e4bbf50	0.19897199
227	0x3e89ac46	0.26889247
228	0xbe004387	-0.1252576
229	0x3d4ab035	0.04948445
230	0x3e6f9e50	0.23400235
231	0xbe3fbc21	-0.18724109
232	0xbdf11c2d	-0.11772952
233	0x3cb14325	0.021638462
234	0xbd71d5e2	-0.059041865
235	0xbdc577e4	-0.09642008
236	0xbda79788	-0.08183199
237	0xbdc267b1	-0.09492434
238	0xbc3d68be	-0.011560617
239	0xbcbcbc9d	-0.023039157
240	0x3a49af5b	0.00076936715
241	0xbc22cb6f	-0.009936198
242	0xbda2e632	-0.079540625
243	0x3dacc1af	0.0843538
244	0xba9cc6cf	-0.0011961105
245	0xbdd23073	-0.10263147
246	0x3d50a45b	0.05093799
247	0xbd860e81	-0.06545735
248	0xbe28fcd9	-0.16502704
249	0x3d457b56	0.048213325
250	0xbdb25b49	-0.087088175
251	0xbe1dde4f	-0.15416835
252	0x3e3c8b48	0.18412507
253	0x3e24d4b3	0.16096763
254	0x3dd91692	0.10600008
255	0xbbe906e8	-0.007111419

module.layer2.0.bn1.weight f4 [32]
0	0x3ed74115	0.4204184
1	0x3efa341d	0.48867884
2	0x3eeea3be	0.466093
3	0x3ef8c89d	0.48590556
4	0x3eb4c68b	0.35307726
5	0x3ecf113a	0.4044283
6	0x3f16643b	0.5874669
7	0x3ea05fe3	0.31323156
8	0x3eb6c415	0.35696474
9	0x3ec3fc5e	0.38278478
10	0x3f19b362	0.6003934
11	0x3ef52172	0.4787708
12	0x3ee2a26c	0.44264543
13	0x3f0095bb	0.5022847
14	0x3eac9a95	0.33711687
15	0x3edc4f43	0.43029222
16	0x3ed24d79	0.41074732
17	0x3edc76a1	0.43059257
18	0x3f0cf729	0.55064636
19	0x3f0fccbe	0.56171787
20	0x3eceb93b	0.40375695
21	0x3f156e5f	0.5837154
22	0x3ed248e1	0.41071227
23	0x3edb05b5	0.42777792
24	0x3f0fb311	0.5613261
25	0x3eda2f93	0.4261442
26	0x3eeb5971	0.45966676
27	0x3eea1005	0.45715347
28	0x3eff1890	0.49823427
29	0x3ec937f7	0.3930051
30	0x3ee5940a	0.44839507
31	0x3ee3bc72	0.4447971

module.layer2.0.bn1.bias f4 [32]
0	0xbd94cea5	-0.07265977
1	0xbe83aa55	-0.2571589
2	0xbe77e512	-0.24208477
3	0xbe552ae6	-0.20817146
4	0x3e578cf3	0.21049862
5	0xbdefc2ff	-0.117071144
6	0xbe956b56	-0.29183453
7	0x3e3bd45b	0.18342726
8	0xbcd03911	-0.025417836
9	0x3ce5a3f5	0.028032282
10	0xbe13867f	-0.14406775
11	0x3cae5669	0.021281438
12	0x3c2ea9cb	0.010660599
13	0xbe677c7d	-0.22606082
14	0x3e34769f	0.17623375
15	0xbd73008f	-0.059326705
16	0xbe31d7c4	-0.17367464
17	0xbe21824a	-0.15772358
18	0xbd4dfcf6	-0.05029007
19	0xbe94eeb3	-0.29088363
20	0xbce8e19a	-0.028427888
21	0xbe560740	-0.20901203
22	0xbdeb8913	-0.11500754
23	0xbe076899	-0.13223495
24	0x3bd8a3b5	0.0066113123
25	0xbdf078c6	-0.11741786
26	0xbe3f0f62	-0.18658212
27	0x3dcad5a4	0.0990403
28	0x3c42a6bb	0.011880572
29	0xbda7afcb	-0.08187827
30	0xbe12dd1e	-0.14342162
31	0xbddc43ce	-0.1075512

module.layer2.0.bn1.running_mean f4 [32]
0	0xbf748f09	-0.95530754
1	0xbe9f492f	-0.31110522
2	0xbe7cc207	-0.2468339
3	0x3d933d58	0.07189435
4	0xbfe374ab	-1.7769979
5	0x3e16bfd1	0.1472161
6	0xbdc4bd70	-0.09606445
7	0x3d3acdfa	0.04560659
8	0x3ebd8cf5	0.37021604
9	0xbf7b058a	-0.98055327
10	0x3ffecb8e	1.990587
11	0xbf9ec44f	-1.2403659
12	0x3f27d4fe	0.65559375
13	0x3f859872	1.0437148
14	0xbf920d29	-1.1410266
15	0xbe80cbed	-0.25155583
16	0xbefa2160	-0.48853588
17	0xbfa8cad3	-1.3186897
18	0xbf7a69c6	-0.9781765
19	0xbf3ce602	-0.73788464
20	0x3fc5e303	1.5459903
21	0xbf168e13	-0.5881054
22	0xbedeb6d7	-0.4349887
23	0xbfe25879	-1.768325
24	0xbe828162	-0.25489336
25	0x3c4174b0	0.011807606
26	0xbda2414f	-0.07922613
27	0xbfb8aeff	-1.4428405
28	0xbf20b15e	-0.6277064
29	0x3f638db1	0.8888808
30	0xbfa4b511	-1.2867757
31	0xbe5974a4	-0.21235901

module.layer2.0.bn1.running_var f4 [32]
0	0x3ea432ad	0.32069913
1	0x3e75db8d	0.24009533
2	0x3e69031a	0.2275509
3	0x3e73a20d	0.23792286
4	0x3eb19e2b	0.34690985
5	0x3ea93563	0.33048543
6	0x3eb56832	0.35431057
7	0x3e8e5003	0.2779542
8	0x3ea60efa	0.324333
9	0x3ee0969a	0.438649
10	0x3f33fd53	0.7030842
11	0x3f36f634	0.71469426
12	0x3efef94c	0.49799573
13	0x3ebca136	0.36841744
14	0x3f07366a	0.52817404
15	0x3ea2cc18	0.31796336
16	0x3ec6e095	0.38843217
17	0x3eb1baca	0.3471282
18	0x3ee39775	0.4445149
19	0x3f30edfb	0.6911313
20	0x3f0cd89a	0.5501801
21	0x3ed112d7	0.40834686
22	0x3e8e70d0	0.27820444
23	0x3efcb581	0.49357226
24	0x3f033bce	0.5126313
25	0x3e8f2f1b	0.27965626
26	0x3ea37acd	0.31929627
27	0x3f2cbf39	0.6747928
28	0x3f351ff4	0.7075188
29	0x3ebf2087	0.37329504
30	0x3eac8f17	0.3370292
31	0x3e93c06e	0.2885775
