results/kPLU/cifar10/kd/resnet8_best.pth.tar (torch_old, 371388 bytes, 52 tensors)

module.conv1.weight f4 [64, 3, 3, 3]
00000000: 413d cbbd 8327 41bd 0f36 363d b8a2 d1bd
00000010: 9ad4 803d 33ee 4e3e c8e7 f7bc 577b 1f3d
00000020: e08f 2e3e 0482 c7be 3694 10be 98d7 823e
00000030: 48f3 e7be b70b 1dbd 9da8 eb3e 93fd 93be
00000040: 9aeb 3abd c067 a23e b81b 96be c77d 95bd
00000050: 83c8 5e3e 6eb6 dabe 1e30 893d 8ebe 033f
00000060: c6ee 9ebe 4264 b23c c5f4 c63e 0306 dfbb
00000070: 9a6b 05be 8aab 57bd a683 1ebe ae2b abbe
00000080: eebc 94be c025 15be 5f12 acbe f9d4 84be
00000090: bc8c ca3d 227f 143e 32e7 8a3d d69f 943d
000000a0: de61 643e e23c b53d c222 ccbd e553 993d
000000b0: 0fc8 683d 76b2 f3bd 6dc8 c43d 4183 74bd
000000c0: 1289 c53d 1afc ff3e 14e0 843e 5b9c bdbd
000000d0: 2d68 b13e f59e 593e b05b 0cbe 3b28 15be
000000e0: 3c44 3cbe bb8b 16be e6fd 41be 0e4b 23be
000000f0: 6f42 dabd 920c 5bbe fe09 e9bd 9484 1b3d
00000100: f75a ae3d 9733 27bd 564b 9a3d 5254 6a3d
00000110: ea4a 503d b34a 2d3e 0fbb a03d c74c 2b3e
00000120: 4163 783c c2a8 f13d bf49 bd3d 727b b6bd
00000130: 569f 6ebd dd13 6b3d 9813 98bd 77d4 28be
00000140: 1f63 5f3d 085c 053d 2c3e b03d 07f2 d33d
00000150: 83d1 1d3d 2467 193f 4225 b4be 38f6 e1bb
00000160: 0f3f 013e b88c d13d 7f6c e139 082f cebe
00000170: af6f 80be 725a f93d 82ef 233e ebb0 2fbf
00000180: 6bda 083d ae71 2abe e2ef 8e3c 368e 19be
00000190: 611c c83c 6329 343e ed84 0e3e d67f 293f
000001a0: 8616 80bb 695c 80be e53b e3ba 6f40 523d
000001b0: 504d ba3c 2b3b 96bc 0024 c9bc 1a18 413c
000001c0: 781d c33c 6982 223d 28e2 13bd b64c c0bc
000001d0: 09fa e33c cae7 0bbc 40c7 0cbd 8a15 a2bc
000001e0: 2a3f bf3d 8ef6 2d3e 2cb7 4c3e e788 803d
000001f0: 9e84 133e 63ff 3c3e 4038 8fbd 811f b9bd
00000200: 6d35 fdbd 3bb6 d1bc 9771 443c a509 69bb
00000210: 9dc8 76bd efac 43bd 3fca 54bd 5e83 893d
00000220: 9d9d 59bc cebd 5cbd c4c9 3f3e fdbc 9b3d
00000230: d2b1 35be 267b 333e 4fed 9c3d 4df9 6bbe
00000240: 41a6 303e 6178 57bc 986c b2bd 9c92 923e
00000250: e228 bb3d 64ee 92be 2d08 343e e331 6a3d
00000260: 40db b5be 87ff 513e 147d 90bd 4f27 f5bd
00000270: 0cbf a73e b16d 0fba 92ef adbe c7eb 673e
00000280: 4a5f 8a3b 3b96 adbe 6279 d6be f4b5 4f3d
00000290: 42c0 f33e 03f1 52bf 928e 50be 2b36 5a3f
000002a0: 5771 16bf c36a f43d 461b ff3e 1e22 eb3d
000002b0: f62e 45bd fc0b 97bd 4335 323e 892e 7abe
000002c0: 25ee 32be 209f cf3c 84e3 4b3e 044e 41bd
000002d0: 41a2 163e 8c1c eb3d 8883 5abe 4595 303f
000002e0: 95d4 50bd 3c39 f8be 7426 c23e 8e1c e0bd
000002f0: 0f46 a8be efb4 cebe 1911 38bf 1207 debe
00000300: b232 d5bc 2746 333e 48e4 e8bb 509d ac3e
00000310: 7497 193f 90d9 9e3e 7641 f93d 3126 a73d
00000320: a294 193e 9333 3cbc 77bf 8a3d a7a6 8f3d
00000330: a72d c7bd d5a6 7abe 3706 9abd c803 af3e
00000340: e80b ad3e 52bd c93e 2ad6 d83b 730d e6bd
00000350: 1cde 43bd cd34 f4bd 5ebb 06bf fbc8 7ebe
00000360: f2a3 743e 65da 423e 9fdb 183e a666 e73c
00000370: cc61 9f3d 0609 1c3d f978 3dbe 01c2 d3bd
00000380: 91ca 21be 9955 3dbe b2a2 35be db15 38be
00000390: f24f f6bd 0b03 843c b5fb 24bd 5816 7fbd
000003a0: 8740 7c3d bc72 febc 0cdf 86be e352 39be
000003b0: 693c 37be f88f c439 7186 3f3e bf0e d93d
000003c0: 4f4b 253e e863 823e 5024 043e d2f7 34bd
000003d0: dd9b b43e e67e 10be 34e1 503e 7bb5 5ebf
000003e0: 2b03 f93e 3c5d 073e 508e b53d 007b 6bbd
000003f0: e5fb cdbd 2974 1c3e e62d 1ebe 3f8c b63e
-0.09923793 -0.047156822 0.044485148 -0.10236114 0.062905505 0.20208053 -0.03026189 0.038935985
0.17047071 -0.38966382 -0.14119038 0.2555511 -0.45302796 -0.03834125 0.4602708 -0.289044
-0.045634843 0.3171978 -0.29318023 -0.07299381 0.21756177 -0.42717308 0.06698631 0.5146264
-0.31041545 0.021776322 0.3885862 -0.0068061366 -0.13029328 -0.052653827 -0.15479907 -0.33431762
-0.29050392 -0.14565182 -0.33607766 -0.25943735 0.09890124 0.14501622 0.06782378 0.07257049
0.22302958 0.08849503 -0.09967567 0.07486705 0.056831416 -0.11899273 0.09608541 -0.059695486
0.09645285 0.49997026 0.25952208 -0.09258338 0.34649792 0.21252044 -0.13706851 -0.14566128
-0.18385404 -0.1470174 -0.18944511 -0.159466 -0.106572025 -0.21391514 -0.11378859 0.037968233
0.08513444 -0.040820684 0.075339004 0.05720932 0.050852694 0.16923027 0.078481786 0.16728507
0.015160383 0.11799766 0.092425816 -0.08910264 -0.058257423 0.05739199 -0.07425612 -0.16487299
0.05453789 0.03255847 0.08605608 0.103488974 0.038529884 0.59923005 -0.35184675 -0.0068958066
0.12621711 0.10231918 0.0004299618 -0.40270257 -0.25085208 0.12175454 0.16009334 -0.6862933
0.033411425 -0.16644928 0.01744837 -0.14995655 0.024427595 0.17593913 0.13917895 0.6621069
-0.003908935 -0.25070503 -0.0017336576 0.05133098 0.022741944 -0.01833876 -0.024553299 0.011785531
0.023817763 0.03967515 -0.03610435 -0.023474079 0.027829187 -0.00853915 -0.034369707 -0.019785661
0.093382195 0.16988584 0.1999175 0.06276112 0.14406058 0.18456797 -0.06993151 -0.09039212
-0.12363706 -0.02559959 0.011989973 -0.0035558727 -0.060249913 -0.047772344 -0.05195069 0.067145094
-0.013282207 -0.05389195 0.18729311 0.07604406 -0.17743614 0.17527446 0.076624505 -0.2304432
0.17250921 -0.013151259 -0.08712119 0.2862748 0.09138657 -0.28697503 0.17581244 0.057176482
-0.35518837 0.20507632 -0.07055107 -0.11970388 0.32762945 -0.00054713624 -0.3397184 0.22648536
0.004222785 -0.3390368 -0.41889483 0.050710633 0.4760762 -0.82399005 -0.20366886 0.85238904
-0.5876669 0.11934426 0.49825495 0.11481117 -0.04814049 -0.07375333 0.1740313 -0.24431814
-0.17473657 0.025344431 0.19911009 -0.047193542 0.14710332 0.11480054 -0.21339238 0.6897777
-0.050983984 -0.48481166 0.37919962 -0.109429464 -0.3286595 -0.40372416 -0.7190109 -0.4336477
-0.02602515 0.1750723 -0.0071072914 0.3371377 0.59996724 0.31025362 0.12170689 0.08161581
0.14998105 -0.011486906 0.067748 0.07014208 -0.09725504 -0.24477704 -0.07520717 0.34182572
0.33798146 0.39402252 0.006617327 -0.11233034 -0.047819242 -0.119241334 -0.5262965 -0.24881355
0.23890665 0.19028623 0.14927529 0.028247189 0.07782325 0.038094543 -0.18503179 -0.10339738
-0.15799929 -0.18489684 -0.17737845 -0.17977087 -0.12026967 0.016114732 -0.04027911 -0.062277168
0.061584976 -0.031060569 -0.26342046 -0.18098025 -0.17894138 0.00037491298 0.18703629 0.10598516
0.16142009 0.25466847 0.12904477 -0.044181652 0.35275164 -0.14110908 0.20398408 -0.8699567
0.4863523 0.1321916 0.088650346 -0.05749035 -0.10057811 0.15278687 -0.15447196 0.35653874

module.bn1.weight f4 [64]
00000000: 0f8a 963e b300 913e 8401 d43e 6981 af3e
00000010: 52d3 bb3e 027a 913e f5bb a33e 41b8 903e
00000020: 3da5 d23e 4a69 a43e 4546 bd3e 17f3 823e
00000030: 81af 733e a8c4 823e 0398 803e 1882 243f
00000040: ccc8 f93e 5243 d73c 87ba 7e3e 3964 7f3e
00000050: d6c5 883e 33f3 463f 2516 c23e 6f57 fe3e
00000060: e932 933e 8595 a73e b889 1c3f 1ef9 153e
00000070: d059 e43e 390a 4d3f 35c7 883e 91a4 b93d
00000080: ff77 273e 63e8 6a3e edd5 b43e 2049 5f3e
00000090: a89c da3e f21d 9f34 5b79 b13e f99a 8c3e
000000a0: 9d01 8c3e d78a b035 1d9f 7137 9150 e03e
000000b0: 65fa f83e f89a 923e b4f7 033b 13de 023a
000000c0: 7379 2839 64ee 223e 8263 8c3d 6c66 a33a
000000d0: dcbf 773e 5645 a13e 4834 053f 88ae 4b3c
000000e0: 8a40 463e 168b ed3e 6559 983e 117a a93e
000000f0: c159 f83e 96a2 873e ea08 083f acea d33e
0.29402205 0.28320846 0.41407406 0.3427842 0.36684662 0.28413397 0.31979337 0.28265575
0.41141692 0.3211158 0.36967674 0.25576088 0.23797418 0.25540662 0.25115976 0.6426101
0.48786008 0.026277218 0.24875842 0.24940576 0.26713437 0.7771484 0.3790752 0.49676082
0.2874978 0.32731262 0.6114764 0.14645812 0.44599771 0.80093724 0.26714483 0.09064592
0.16354369 0.22940211 0.35319462 0.21805239 0.42697644 2.9637846e-07 0.346629 0.27461985
0.2734498 1.315343e-06 1.4401766e-05 0.43811467 0.48628536 0.28633857 0.0020136656 0.0004992198
0.00016066972 0.15911251 0.06854917 0.0012466437 0.24194282 0.31498212 0.520329 0.012431748
0.19360557 0.46395177 0.29755703 0.33100942 0.48505977 0.2649123 0.531386 0.41389978

module.bn1.bias f4 [64]
00000000: 6be0 403e ebd3 af3d f585 1dbe 3511 2b3e
00000010: 4771 89be ef6f a53d 405f 8a3e 5b5f fc3d
00000020: 2104 98be d270 d03e 67e2 93be 3276 943d
00000030: 5f67 e63c 0bc0 793e be71 76be cd34 15bf
00000040: e73a e3be ff06 bdbc 3763 223e 7533 703e
00000050: e370 3b3d a016 2abf 1bcb 053e 1a30 58be
00000060: 648e b33e 1703 013e f527 bfbe 5895 01be
00000070: 5ea4 66be f9f7 26bf 394e 1fbe 1894 84bd
00000080: 9a63 06be 4908 283e 9fdb 1a3e e7f5 1b3e
00000090: a784 2b3e c3b1 e1b5 7d78 83be c297 ec3d
000000a0: 22f7 73be 962a 5fb6 5c1f 4eb8 bc2b 4e3e
000000b0: d367 6dbe b2d7 863c 2770 a9bb 1f9b beba
000000c0: 9c9d d3b9 7f9d fc3d 7a1d 2dbd 7690 98bb
000000d0: 97a1 33be d378 fc3d 68cb b2be 1f68 10bd
000000e0: 890b e8bd b9ec 84be ed25 85bd bc1d 1b3e
000000f0: e0c7 e5be 1f75 423e 203b a3be 9759 95be
0.18835609 0.08585342 -0.15383132 0.16705783 -0.26844236 0.0807799 0.27025795 0.12322875
-0.2969065 0.40711075 -0.2888367 0.072491065 0.028125463 0.24389665 -0.24066827 -0.5828369
-0.44380876 -0.023074625 0.1585816 0.2345713 0.045761954 -0.66440773 0.1306576 -0.211121
0.35069573 0.12598835 -0.37335172 -0.12654626 -0.22523639 -0.65222126 -0.15557183 -0.06473559
-0.13123932 0.1640941 0.15122841 0.15230523 0.16749822 -1.6815542e-06 -0.25677863 0.11552383
-0.23824742 -3.3254378e-06 -4.9143433e-05 0.20133871 -0.23184137 0.016460273 -0.0051708403 -0.0014542079
-0.00040362484 0.123347275 -0.04226444 -0.004655893 -0.1754211 0.12327733 -0.34920812 -0.035255548
-0.11330325 -0.25961855 -0.065013744 0.15148062 -0.44879055 0.1898999 -0.31881046 -0.29169914

module.bn1.running_mean f4 [64]
00000000: bbbf b7b9 19d7 ddbd 890c 573e e727 acbd
00000010: 6083 05be 58b6 d9bc c0f8 303c c339 133d
00000020: 9c0e 483d d9fa 253c b50d b0bd fd05 833c
00000030: 378d 3ebe ef2b d9bb 50ca 833b 2ce7 5d3e
00000040: c4ff 143d 2567 93bb 265d 35bd 6f31 b63c
00000050: 4a70 993e 9d64 c63e a2f1 ab3d e998 303e
00000060: 8792 afbc 76ff 6c3a 28c8 6cbb 8862 a63c
00000070: 5e35 613e acc2 b03e c237 373d f8bb 7fbc
00000080: d14c 79bd 151b 9e3c 9b03 57bd ffa9 593c
00000090: ecc1 db3d 4447 1e36 4023 59be 2ff3 943d
000000a0: cbba a5bd 1a93 f536 b929 8fb8 9292 c5bd
000000b0: c260 433e 6099 4f3d 6f0f ca3b 3500 9eba
000000c0: f912 d6b9 83fd dfbd a78f aa3c 1dbe 6cbb
000000d0: 0860 81bd bb03 2ebd a093 cbba ccec 09bd
000000e0: 4c1f 16bd ced1 1c3d 9fed a53c 1c9c d4bd
000000f0: c723 0ebe c2a6 f1bc f002 8e3d 09d4 aabd
-0.0003504733 -0.10832042 0.21000876 -0.08406048 -0.13038397 -0.026576206 0.010801494 0.035943758
0.048842058 0.0101306075 -0.085963644 0.015994066 -0.18608557 -0.0066275517 0.0040219203 0.21670216
0.03637673 -0.00449838 -0.044278286 0.022240369 0.29968482 0.38748637 0.08395697 0.1724583
-0.021432174 0.0009040752 -0.0036130045 0.020310655 0.21993014 0.34523523 0.04473091 -0.01560878
-0.060864273 0.019300023 -0.052493673 0.013285159 0.10730347 2.3585317e-06 -0.21204853 0.07272946
-0.080922686 7.318694e-06 -6.826543e-05 -0.09647097 0.19079879 0.05068338 0.0061663906 -0.0012054505
-0.00040831396 -0.109370254 0.020820452 -0.0036124059 -0.06317145 -0.042484026 -0.0015531667 -0.033673093
-0.03665094 0.038286023 0.020254908 -0.10381338 -0.13880835 -0.029498462 0.06934154 -0.08341224

module.bn1.running_var f4 [64]
00000000: e3be a840 d07e c63f c0cc 893f 1d40 543f
00000010: a3f2 cd3e c79f 4340 1428 063f 8e97 9b3e
00000020: a2f1 993e 6efc 853e e48f 123f 3efb f53f
00000030: d273 613f 2e75 5f3e 3dee 113d e96c c83f
00000040: 4f6c 053f 72b8 843a 4618 0f40 dcd1 5840
00000050: 8b5d da3f fb87 2740 e8c4 843f ed69 713f
00000060: 3c82 e23e cfc1 4540 3fbf 813f ac4a 3d3d
00000070: 716f cb3f 6fdd 2d40 897f d93d c754 683c
00000080: 2a5b a83d 7c94 9b3e ec98 663f 4676 0f3f
00000090: cdd0 c93f 9222 df2e f942 673f ceaa 1b3f
000000a0: 6df8 b73e 889a 8130 55a4 bc33 ba98 d63f
000000b0: e1c7 9c3f 8213 603f 7515 313a 0a30 f537
000000c0: 2d7a 5936 824a 283f 76b6 343c dbb5 8d39
000000d0: 2404 233e b150 023f 6786 613f 8d49 b23c
000000e0: e02d e73d d16a 553f 0ffd a03e 9b27 aa3f
000000f0: f090 4f3f 7a0e 9c3e 513f 773f d56c 1f3f
5.2733016 1.550745 1.076561 0.8291033 0.4022418 3.056627 0.52404904 0.30389065
0.30067164 0.2616915 0.5725081 1.9217298 0.8806735 0.21822044 0.035627592 1.5658237
0.5211839 0.001012577 2.2358565 3.3878088 1.7059797 2.6176746 1.0372591 0.94302255
0.44239986 3.0899541 1.0136489 0.04621379 1.5893384 2.7166402 0.106200285 0.014180369
0.08220513 0.30386722 0.9007709 0.56039846 1.5766846 1.0147007e-10 0.9033657 0.608075
0.3593172 9.429906e-10 8.784324e-08 1.6765358 1.2248498 0.87529767 0.00067552115 2.9228646e-05
3.2406635e-06 0.6573869 0.01102983 0.0002702911 0.15919548 0.50904375 0.88095707 0.021763587
0.11288047 0.83366114 0.31443068 1.3293337 0.8108053 0.30479795 0.9658099 0.6227544

module.layer1.0.conv1.weight f4 [16, 64, 3, 3]
00000000: 3437 b0bd bc7d a9bb 6ae2 99bb a520 f53d
00000010: f055 183e 8748 463e 4112 e6bb aa2a 773b
00000020: ac2d b93a 6400 4abd 626e e7bd 6f0f 0b3d
00000030: 8472 91bd 9aa9 2dbc dc8c 283e 25f8 5dbd
00000040: 0133 83bc 548f e53d e6f6 453d 1b03 f5bb
00000050: c736 91bd 0443 9d3d 3c60 2dbd 4334 09be
00000060: 7870 9b3d bd33 933b ec4e 71bd 4ef1 8f3d
00000070: b3bf 1dbe fc0f cf3d 0790 20bc 547e d4be
00000080: 90c2 453e 5b44 ee3d 9a83 5cbe e55a 203c
00000090: 9add f8bc 1344 8d3d a775 693d e64d 2dbd
000000a0: fb0e d63c 8b90 a73d 99a7 e8bc 993d af3b
000000b0: 23b3 00bd 5c6e 0fbe 4371 f0bd 84b8 6abc
000000c0: 94c9 02be 36f3 10be b4cf b4bd 2677 c5bc
000000d0: 7b8c b7bd 0d7a 9abd f948 883d bea1 38be
000000e0: 95ea b33d 177b e63d 6207 2dbe 1e17 c5bc
000000f0: b9a7 d53c 59a5 0dbe b442 d13d 52eb f13d
00000100: 0b8f 0e3c fef3 e5bd cb30 983d 95c4 28bd
00000110: f961 02be 056c a43b 9078 78bd 95c3 ccbc
00000120: 6f08 0bbd 38eb 32bd 50c9 a83d de17 ddbb
00000130: 1b4c 8bbd 901c 003d 5d14 93b9 1e72 36bd
00000140: a966 c7bc ec40 92bd 912c f6bd b333 e7bd
00000150: 0e77 cf3c d393 9f3e f5c9 bebd 64e4 85be
00000160: a251 493d 68bc 353d 4e9d 06be 1b88 88bc
00000170: 407c 343d 0ff8 92bd a26b dabc e12c 99bc
00000180: 11fb 24bd f6dd 20ba 3b3e 19bd 50ae 72bc
00000190: a54b cc3c 6a87 a03d 8b03 35bd 33af 3b3c
000001a0: eded 593c f538 63bd 5ace d23c 373b 63bd
000001b0: bc05 bebd f5eb d33b b0c5 b43d b464 b4bd
000001c0: 6175 543b 3e02 743d b977 88bd 391e a63c
000001d0: fae0 8d3d 5bab abbc 4e35 6bbd 76c7 203e
000001e0: cfe5 813c ac24 79be 794b d0bc 334c 683d
000001f0: c6c2 8cba 3b6c 423d a286 8a3b 509e 80bc
00000200: 5291 13bd a84b 0bbb b65b f1bc cdfc 863c
00000210: ac74 4fba 1dfd 68ba 3d62 393d 3281 143e
00000220: b12e 04bd 4c00 5dbc 0e0a 383e 6746 b2bd
00000230: 5f62 b7bd 9223 233e dcbf 86bd 817d cabd
00000240: 99df 043d 4239 c23c 9860 ae3d 07f3 c13c
00000250: ed32 38bb 4abe b2bc 740f 3bbd 8aa9 353d
00000260: c55e 983d e08d 3fbb 9f6a b2ba 7aa2 f23a
00000270: 7c03 52bb a8b4 8b3a bf4a 7b3b dd70 10ba
00000280: 2a3f 6c3b 272e 8f3b ce0d 533d 958b acbd
00000290: 382b d03c a7b4 a5bd 7090 eabc 9689 e53d
000002a0: 07a6 bebd f72c 18bd 1f63 fb3c c05f e5bd
000002b0: 36b5 24bd bf92 893d 8cfc 003e f2a5 19bd
000002c0: a47c 5f3c 528a d43d 0a11 01bd 6a97 e7bc
000002d0: 31c9 d83d 1cfe 363d a3da 83bd 973f b13d
000002e0: c3af 41b9 f0a4 e4bd f063 54bd 5ab3 21be
000002f0: c6c2 35be b5bf 9e3d 6bf5 c73d bfa2 c23d
00000300: b2a6 db3d d03f 2abb a3e1 37be 17aa 843d
00000310: d629 26bd bce9 abbd 1b78 4abe 9363 933d
00000320: 7dad 6ebd 3d10 52be 1426 fcbc 0042 1bbe
00000330: cc56 b0bc 9b76 a23d 0caf 5abd 4776 e9bc
00000340: f4d8 0d3e 12c1 8abb 780f 233d b8a0 d33d
00000350: 23c5 d5bd c97e a73c a3bc f23d 3868 97bd
00000360: 5cd5 4f3b 14aa b7bd 1e3e 9ebd bd8e 913d
00000370: e244 c2bc f5c0 f53c 4b3f 983d a33c 603d
00000380: 1a4a 0fbd a852 8ebd a743 4c3d e507 d63d
00000390: e2e7 da3c 610a 4cbd 2dec c93a 4bf5 fcbb
000003a0: 5286 cebd 02e9 69bd 5de5 fb3c 4247 c1bd
000003b0: 9fd1 38bd e6f3 e8bd d0b0 1fbe 671b 96bd
000003c0: ecd7 d0bd 5c3c 2cbe d0d7 f8bd 38a8 9a3b
000003d0: 9789 2f3c 7bc5 063c abf8 d93b a682 5d3c
000003e0: 8405 9439 a25b 5aba daa6 0d3c b4e1 3f3b
000003f0: 2653 3e3e 760e fb3c 8587 3cbd 177e 383d
-0.08604279 -0.0051724594 -0.00469618 0.11969117 0.14876533 0.19363604 -0.007021219 0.0037714639
0.0014127991 -0.04931678 -0.11300351 0.033950265 -0.0710192 -0.010599518 0.16459984 -0.054191727
-0.016015531 0.11208978 0.048331164 -0.007477177 -0.07090526 0.07678798 -0.042328104 -0.13398843
0.07589811 0.0044922517 -0.058913156 0.07028447 -0.15405159 0.10110471 -0.009799964 -0.4150263
0.19312501 0.116341315 -0.21534577 0.009787296 -0.030379105 0.0689775 0.056996968 -0.042310618
0.02613019 0.08181866 -0.02840023 0.005347919 -0.031420838 -0.14006943 -0.11740353 -0.0143262185
-0.12772208 -0.14155278 -0.08828679 -0.024104666 -0.089623414 -0.075428106 0.066545434 -0.1803045
0.08784977 0.11253946 -0.16897348 -0.024058875 0.026080953 -0.13832606 0.10217801 0.11812462
0.008701096 -0.112281784 0.074311815 -0.0412031 -0.12732686 0.0050177597 -0.060661852 -0.024995605
-0.03394359 -0.043681353 0.08241522 -0.00674723 -0.06801625 0.03127724 -0.00028053197 -0.044542424
-0.024340944 -0.07141289 -0.12020219 -0.11289158 0.025325324 0.31167468 -0.09315864 -0.2615081
0.049150117 0.04436913 -0.13145944 -0.016666463 0.044063807 -0.0717622 -0.026662651 -0.018698158
-0.040278498 -0.00061365904 -0.037412863 -0.014812067 0.024938414 0.07838328 -0.044192832 0.011455345
0.013301355 -0.05547424 0.025733162 -0.055476394 -0.092784375 0.0064673373 0.088267684 -0.0880827
0.0032418596 0.05957245 -0.0666346 0.020278083 0.069276765 -0.020955732 -0.057423882 0.15701088
0.015856652 -0.24330395 -0.025426613 0.056713294 -0.0010739199 0.047466498 0.0042274753 -0.01570049
-0.03602726 -0.0021254811 -0.029462676 0.016477967 -0.0007913809 -0.00088878145 0.045259703 0.14502409
-0.03227109 -0.01348884 0.17972586 -0.087048344 -0.0895431 0.15931538 -0.06579563 -0.09887219
0.0324398 0.023708943 0.085145175 0.023675455 -0.0028106526 -0.021819253 -0.045669034 0.04435114
0.07439951 -0.0029228851 -0.0013612098 0.0018511557 -0.0032045534 0.0010658698 0.0038344113 -0.0005509982
0.003604839 0.0043695155 0.051526837 -0.08425061 0.025411233 -0.08091097 -0.028633326 0.11207883
-0.09309011 -0.037152257 0.030686913 -0.111999035 -0.04021188 0.06717443 0.12596339 -0.037511773
0.0136405565 0.10377945 -0.03151039 -0.028270442 0.10585249 0.04467593 -0.06438186 0.08654707
-0.0001847139 -0.11164272 -0.05185312 -0.15791073 -0.17750081 0.07751409 0.09763607 0.095036976
0.10725154 -0.0025977977 -0.17957167 0.064777546 -0.04056724 -0.08394191 -0.19772379 0.07196727
-0.05827092 -0.20514007 -0.030779876 -0.15161896 -0.021525763 0.079327784 -0.053389594 -0.028498782
0.13852292 -0.0042344416 0.039809674 0.10333389 -0.104379915 0.020446198 0.11852386 -0.07392925
0.0031712865 -0.08967987 -0.07726692 0.07107303 -0.023714487 0.029999236 0.07433947 0.054745328
-0.034982778 -0.06949359 0.049869206 0.104507245 0.026721898 -0.049814586 0.0015405469 -0.007719671
-0.10084213 -0.05710698 0.030749017 -0.094374195 -0.045121785 -0.11374645 -0.15594792 -0.07329445
-0.10197434 -0.168199 -0.12150538 0.0047197603 0.010713956 0.008225794 0.006651958 0.013519919
0.0002823287 -0.00083296944 0.008645738 0.0029278817 0.18586406 0.030646544 -0.04602768 0.045042124

module.layer1.0.bn1.weight f4 [16]
00000000: fdea 163f 1cc9 103f 1a93 ff3e 2e4f e13e
00000010: c568 1c3f 8045 ea3e b0a2 073f e046 103f
00000020: fad2 103f 84e4 093f 65a8 fe3e 96f5 673f
00000030: 3bbc d83e ff91 343f a20d 0a3f c20b f43e
0.58952314 0.5655687 0.49916917 0.44005722 0.61097366 0.4575615 0.52982616 0.56358147
0.56571925 0.5386431 0.4973785 0.9060911 0.42331108 0.7053527 0.5392705 0.4766522

module.layer1.0.bn1.bias f4 [16]
00000000: 81da 653e af48 79be ba2d 37be 5b6a 103e
00000010: 3ed3 b43e 03e5 773e 1276 a53e 3011 303d
00000020: 3c9c 9c3e d52a 96be 91a6 29be 4f7a 27bf
00000030: 0b32 04bb b896 9c3d bd9a 84be 3f0d 50be
0.22446634 -0.24344133 -0.17888537 0.14103071 0.35317415 0.24208455 0.32316643 0.04298514
0.30587947 -0.29329553 -0.16567446 -0.65421003 -0.002017143 0.07645935 -0.25899306 -0.20317553

module.layer1.0.bn1.running_mean f4 [16]
00000000: 60a3 26bf e7d0 4bbf 337a 07bf 8410 bebe
00000010: 6187 453d a19c 86bf 5f64 74bf 5358 19bf
00000020: a075 27be b256 38bf 4505 09bf 7bd0 3b3f
00000030: ef3f 7cbe 44fb d0be 04a7 15bf 71a4 2abf
-0.6509304 -0.79615635 -0.52920836 -0.37121975 0.04822481 -1.0516549 -0.95465654 -0.599004
-0.16353464 -0.72007287 -0.53523666 0.7336499 -0.24633764 -0.408167 -0.5845797 -0.6665717

module.layer1.0.bn1.running_var f4 [16]
00000000: d3e2 1a3f 0342 173f 0a81 913e 5bf9 aa3e
00000010: b25b a73e e100 2d3f 30f4 a83e 435d b93e
00000020: de1a 6d3e 1d0e 833e cf9e 5c3e a337 b43e
00000030: 070d 1a3e d4bd 413f 3b11 973e cf66 5c3e
0.60502356 0.590851 0.28418761 0.33393368 0.32687145 0.67579466 0.329988 0.36203966
0.2315478 0.25596705 0.21544956 0.35198697 0.15044032 0.7568028 0.29505333 0.21523593

module.layer1.0.conv2.weight f4 [16, 16, 3, 3]
00000000: 04cc f83c 96f7 8c3d 9c08 46bc 102c 3d3d
00000010: 2b7b b43d 3c7b aabd 16ac ba3a a377 1dbd
00000020: 7db7 23be 88fb 153c d968 6d3c a4e2 c33d
00000030: 4dee d43c 9463 133d 632a 643c 07f0 7dbd
00000040: fe30 8e3d 7e03 933d d44d b03d 584a 103d
00000050: f8a0 5dbc eeab cf3d ce2c 2db9 31fb 7ebd
00000060: ff75 563e e23e ef3c c461 3a3b 701e dbbe
00000070: 4985 7fbe 3fc8 2c3e 16fc b0be f182 dabd
00000080: 9248 ca3e f69a 48bd 10e9 2b3e 7c5f f53e
00000090: eb2c debd b2f4 053c 7f2d 073d 5803 4dbc
000000a0: 78e1 123d 7a39 143d c706 2a3d 98d9 c53c
000000b0: e0e9 8abc 57dc 2b3d ec8c 803d aed6 de3d
000000c0: 5ebf 25bd 1fc7 203d 22cd e03d d067 26be
000000d0: 7b97 81bd d383 9c3c 26a1 39bd 57de 97bb
000000e0: 704f 44bb 1293 6a3b a655 ddbd 4f75 99bc
000000f0: ce60 0c3e 264e 823d d528 d03d e102 56bc
00000100: e4ae 43bd cc10 6ebd ca14 76bc 727a 1cbc
00000110: 099c 3ebd 8366 643d 5a9c cfb9 dd0b 41bd
00000120: ab18 67bc 8c8a ea3c 0dd2 b23d d5d2 19bd
00000130: 782b 51bd 9f28 833d a9e7 96bc 2d88 7f3d
00000140: 4df8 863d 3516 1f3c ece8 38bd 032e 03bd
00000150: b38c 133d 7fa6 93ba 3761 8cbc 737b e3bc
00000160: 2aa9 cb39 e10a 4a3d c090 1fbe a1af 76bd
00000170: a4a4 903d 77d2 55bd 6535 46bc 2fa1 0b3e
00000180: b2b2 95bb 3711 1a3d a998 463e 9eba 76bc
00000190: 446c 2c3d 7d29 97bd 10eb d93d 84eb 153e
000001a0: 1c89 b03d ea06 c6bd 52d3 68bd c782 8ebd
000001b0: 78b6 99bc 4a33 8e3d f12e 083e e952 23be
000001c0: 8b1b 91bd 1700 7b3d 60bb 89be 9603 75be
000001d0: b0e9 5ebe fe2e 2ebd 84c6 81bd 86e3 f73c
000001e0: 9162 cbbd 94bc 59bd 614a af3c f5ab 993c
000001f0: 6baa be3d ebb8 573c 06d0 bf3d b6d2 783e
00000200: 0fd8 023e 5492 44bd 513a 2a3d b60b 2b3c
00000210: 8bbe 22be 83aa 9cbd 99df 23bc 07a0 f4bb
00000220: e3fe a73c 0edb cd3d a2a8 30be 16f3 09bd
00000230: 5828 ef3d 10fc fcbd 396f bebb ae20 df3d
00000240: af52 233d b1ef 383d 8e26 d8bd 0a6d 903d
00000250: 3db9 fd3d da4e 063e bd4c 6ebe a04e 773c
00000260: 9f7a 1dbd b9c1 513e 7ffb 853e 8698 95bd
00000270: e8f7 eebc ac29 053e b9c1 443e 4268 3cbe
00000280: a7b5 73be fcd5 163d 4409 c9bc 5c8a 8e3e
00000290: 1ba5 bb3e cc7f 02be 2cf5 67bd c081 9f3e
000002a0: a0dd 17bd 6be4 a3be 2fb6 6cbd 7ff8 a03d
000002b0: 91c2 303e 68e4 93bc 2f61 49be 93b5 fbbd
000002c0: eb31 0dbe 68d6 3bbd 82c5 cd3d 6d9b 35bc
000002d0: 9ec1 603d 2407 f03a 76e4 94be 1677 ed3d
000002e0: 4ead 223e 8e41 c43d afde 1dbe 4d9c e73c
000002f0: 840a bf3d 5622 adbd aad2 713c 43d5 f6bc
00000300: b6b3 b5bd 813d 17be 0df2 82bd 1b35 063e
00000310: 893d 033b 2bed 723e 0225 dd3d 8df0 753e
00000320: 8118 3c3e 5da2 e9bd 2a66 17bd b68d 2d3d
00000330: 83f3 c1bd 759f 2ebe a717 1bbe 50ee 8c3d
00000340: 3565 193d 4e6d b03d b262 cabd 50ce 9dbe
00000350: ed9f 1bbe cb08 9a3e 095d 773c d28a 16be
00000360: d805 f9bd d159 6abe 6eb7 e7bd 5d72 983d
00000370: 2a51 c4bd 60a5 debc afea e83d 5721 003e
00000380: 9d74 073e 4327 23be b0db 00be ef28 14bd
00000390: a58b 0b3e a283 e73d 24c7 063d ba41 6a3c
000003a0: a609 d53d 3789 e43d 3429 20bb 41dc 1abe
000003b0: 7fd4 0cbe 1495 e93d 693f 88bc 0fc9 2ebe
000003c0: dfa9 acbd bc63 813d 57f9 663d b679 2a3c
000003d0: 8f87 81bc 741c 663d 87b2 09be 41ae 3cbe
000003e0: 00a5 edbd f74f edbd c8a7 48be 5cba 16bd
000003f0: c4a1 a43d e00a eebd 1dc5 c8bd 91e3 923d
0.03037072 0.06883161 -0.012087014 0.0461846 0.08812555 -0.08324286 0.001424196 -0.038444173
-0.15987964 0.009154208 0.01449033 0.09564713 0.025992537 0.035983637 0.013926121 -0.061996486
0.06942938 0.071784005 0.086085945 0.03522715 -0.0135271475 0.10140215 -0.00016515257 -0.062251274
0.2094345 0.02920479 0.002843962 -0.4279666 -0.24953188 0.16873263 -0.34567326 -0.10669506
0.39508492 -0.048975907 0.16788125 0.4792441 -0.10848411 0.008176016 0.033002373 -0.012513004
0.035859555 0.036187626 0.04151037 0.024151608 -0.016957223 0.04195818 0.06276879 0.10880791
-0.040465705 0.039252397 0.10976626 -0.16250539 -0.06327721 0.019105827 -0.0453197 -0.0046346593
-0.0029954575 0.0035793227 -0.10807352 -0.018732695 0.13708803 0.06362562 0.10164038 -0.01306221
-0.04777421 -0.058121487 -0.015019605 -0.009550678 -0.046535525 0.055761825 -0.00039598608 -0.047130454
-0.014105002 0.028630517 0.0873147 -0.03755458 -0.051066846 0.06404232 -0.018421011 0.062385727
0.06590328 0.009709884 -0.045144007 -0.032026302 0.036022853 -0.001126483 -0.0171362 -0.027768826
0.00038845214 0.04932678 -0.15582561 -0.060226087 0.07062653 -0.052202668 -0.012097691 0.13635705
-0.0045684213 0.037614074 0.19394173 -0.015059141 0.042095438 -0.0738096 0.10640538 0.14640623
0.086199015 -0.096692875 -0.056842156 -0.069585375 -0.018763766 0.06943376 0.13299157 -0.15949596
-0.070853315 0.061279383 -0.26900768 -0.23927149 -0.21768832 -0.042525284 -0.06336692 0.030259859
-0.099309094 -0.053158358 0.021397771 0.018758753 0.093098484 0.0131666465 0.09365849 0.2429913
0.12777732 -0.047991112 0.04155952 0.010439804 -0.15892999 -0.0764971 -0.01000204 -0.007465366
0.020507282 0.10051547 -0.17251828 -0.03367909 0.11677617 -0.123527646 -0.0058115986 0.10894905
0.039873775 0.045150463 -0.10554229 0.070520476 0.12388847 0.13116017 -0.23271461 0.015094429
-0.03844702 0.20484056 0.2616844 -0.07304482 -0.029170945 0.13004178 0.19214524 -0.18399146
-0.23799764 0.036825165 -0.024540551 0.27839935 0.36649403 -0.12744063 -0.0566303 0.3115368
-0.037076592 -0.32010207 -0.05779093 0.07859897 0.17261721 -0.018053249 -0.19665979 -0.12290492
-0.13788573 -0.04585877 0.10047437 -0.01108442 0.054872148 0.0018312675 -0.29080552 0.115949795
0.15886423 0.09582816 -0.15416978 0.028272772 0.093281776 -0.08453815 0.014759699 -0.030130988
-0.08872168 -0.14769556 -0.06393824 0.13106196 0.0020025691 0.23723285 0.10798074 0.24017544
0.18368722 -0.114079215 -0.036962666 0.042371474 -0.09470274 -0.17053016 -0.15145741 0.06881392
0.037450034 0.08614598 -0.09882106 -0.30821466 -0.15197726 0.30084834 0.015097865 -0.14701393
-0.12159318 -0.22885825 -0.11314283 0.07443688 -0.09585793 -0.027178466 0.11372887 0.12512718
0.13228078 -0.15932946 -0.12583804 -0.03617185 0.13627489 0.11304404 0.03290476 0.014297897
0.10402231 0.11158984 -0.0024438621 -0.15123083 -0.13752936 0.114053875 -0.016631799 -0.17068885
-0.08430838 0.06317851 0.056390133 0.010404995 -0.01581171 0.05617948 -0.13447009 -0.18425848
-0.11603737 -0.11587518 -0.19595253 -0.03679882 0.08038667 -0.11623168 -0.098032214 0.07172311

module.layer1.0.bn2.weight f4 [16]
00000000: a65c a13e 9741 513f 8aa2 363f 1f4f ea3e
00000010: d5bd 453f e74a 273f d1fa 043f fb77 f53e
00000020: fadb 803f 901b 7c3f e484 173f a81f 843f
00000030: a165 813f 2905 a53e 517e 3b3f c404 713f
0.31515998 0.8174071 0.71341765 0.4576349 0.77242786 0.65348667 0.51945215 0.479431
1.0067132 0.9847956 0.5918715 1.0322161 1.010914 0.322305 0.7323962 0.94147897

module.layer1.0.bn2.bias f4 [16]
00000000: cd34 b23e a068 9ebd 81ca 64be 7548 9c3d
00000010: bfe1 84bd 723e cfbc 0992 aa3e 7d86 96bd
00000020: 666e 38bd 9378 97bd bd0e 85bc 61ce 8a3b
00000030: cf4b 23bd b714 1c3e dfd1 82bd 1e40 9fbd
0.3480591 -0.077347994 -0.22342874 0.076310076 -0.0648837 -0.025298331 0.3331454 -0.0734987
-0.04502716 -0.073960446 -0.01624238 0.004236028 -0.03986722 0.15242277 -0.06387686 -0.07775901

module.layer1.0.bn2.running_mean f4 [16]
00000000: 6282 d43d f759 95bd ce23 903c dcf2 5e3c
00000010: 878f 31bc 8506 6e3e fe24 21bd aa96 04be
00000020: 53f0 dbbd 08ed 85bd cbaa b53c b1e3 713d
00000030: 6311 29bd bb61 93be bff2 37be 0a85 acbc
0.10376431 -0.0729255 0.017595198 0.013607707 -0.010837442 0.23244675 -0.03934192 -0.12948099
-0.107391976 -0.06539351 0.022176167 0.059055034 -0.041276347 -0.287855 -0.17963694 -0.021059532

module.layer1.0.bn2.running_var f4 [16]
00000000: 9237 213e c900 c93e c1b1 f83d 91cc 453e
00000010: cba2 ca3e b010 903e d308 8a3e 4724 243e
00000020: 96f9 623f aae6 0c3f 6109 963e 8aa9 8c3f
00000030: c81d 3c3f a470 073e 56fc e63e b4c1 063f
0.15743855 0.39258412 0.12143279 0.19316317 0.39577326 0.28137732 0.26959857 0.16029464
0.8866209 0.55039465 0.2930403 1.0989239 0.7348294 0.13226563 0.45114392 0.5263932

module.layer1.0.shortcut.0.weight f4 [16, 64, 1, 1]
00000000: 8c6c 403d 7cc8 a93e a74d a3bd 0351 623e
00000010: e22c ae3d 7d54 07bd 6924 9ebc cde8 89bd
00000020: a585 ff3d dc62 b9bc 9a1a b43d f246 f43d
00000030: 018d d43e def1 6c3d 8a39 b93d 2782 3ebe
00000040: 0905 083c 7332 133b 4fc1 2f3e 30e2 74be
00000050: cb85 3abd 44d1 963d 6de6 28be bfc4 f2bd
00000060: 1e7b 08bd 3a07 20be 5be8 a2bd 11c0 ba3d
00000070: 6b04 983d 5aae 23be 84e8 823c 597c 493c
00000080: fb6a 293d 7cbf 8d3d 42e5 fe39 c335 a73e
00000090: f372 d1bd 161e 2f35 64b2 a83e 92f7 743e
000000a0: 1445 e53d 7846 8336 1b7d 5bb6 b570 e43c
000000b0: ce46 8d3d 89ee 883c 4694 803b a569 d6b9
000000c0: 67a1 3b39 c89b 823e 0ff0 ddba dd89 3dbb
000000d0: f5f4 893d c158 26bd 1947 193d 0773 253c
000000e0: d80e c33d dbd4 a8bd 6ad2 79bd 5e25 67be
000000f0: 0d98 203e becf dd3c 989c 33be 851d 8c3d
00000100: db21 843d 5da1 f0bd 85a3 48bd e906 2bbe
00000110: a9b0 6e3d e11d ffbd 3a10 f33c 723d 923c
00000120: f20f 85bd 7248 9a3d d9dc a63c 3c59 173e
00000130: 8414 14be c945 efbd 2e92 82bd eee5 9ebd
00000140: dec8 013d d670 33bb c746 c33d 9606 38be
00000150: 6cd0 313e 1587 3bbe 835f 41bb c6f5 6cbd
00000160: 85c8 eebd 929c b8bd 3008 2bbd 73b1 75bb
00000170: 206f beb9 25c9 b2bd efdd cc3b bb5e 10ba
00000180: 820c 3fbc 0203 04be 5abb 543d 1d56 7a3d
00000190: e8f9 0d3d 4734 50b5 39f8 1abe 2671 553d
000001a0: 829d 4e3c b897 12b6 9a5a b1b6 0ebf 823c
000001b0: 104e dfbd 420c a1bd 81fa 82ba cdb3 01b9
000001c0: a9ad 13b9 7368 9abd 99ea 69bc c52d 61ba
000001d0: 6307 a13c d53d 0abe bee1 dbbd 396e 51bb
000001e0: a818 df3c 96d3 5a3c 1545 aa3d e202 e4bd
000001f0: 8ea0 243e cec5 2abc a7a1 353d a41d 2abd
00000200: d33e a8bd 0c58 863b 3dc6 923e 5f5b eb3c
00000210: 288a 9d3d 42c8 42bc bee9 5bbb 696e 0ebc
00000220: a2b2 5ebd 44b7 2cbd 5b55 1abd e837 7dbd
00000230: 410a 173e e59b ff3c 4b37 ea3c a27f d43d
00000240: 556a c3bd 14af 7b3b 20cc 84bd 2031 153d
00000250: 5db2 f83d e5c3 aa3e 4baa c3bd 4bee df3d
00000260: a38d dcbc 153d ccbb 992f d83c 9fdc b73c
00000270: 4250 da3c c915 773e d852 713c 9a17 413c
00000280: 8b0d ea3c 6d6e 5fbd a190 6ebd 490f 683d
00000290: c26a 50bb 88c8 a034 74b3 b43d 1664 34bd
000002a0: 27d0 e83c 9587 d234 0624 4237 b0de 83bc
000002b0: 7aa0 fa3c 7d33 07bd 926f 77b9 374f 2b3a
000002c0: a082 c038 2f6f 35bd cae6 223c c595 143b
000002d0: 5abd 983c 9f7e 2cbd cbd5 9cbd e001 6d3a
000002e0: 940c 9ebc 9a3a 2ebe 94e8 1abc d352 89bd
000002f0: 8288 89bd fac6 a43c 4eb6 c53b aa42 e4bd
00000300: cc47 2cbe cee7 dabd 31cd d03e dcb1 d3bc
00000310: 220c b3bd 501c 43be 2040 a83c 267e b33d
00000320: ab0c 43bd 7435 10bc e68b 183b 3a1e d5bd
00000330: b950 c1be b137 5d3d 40e7 f5bd 7996 6d3e
00000340: 03ab 113d 9a77 9137 f75e a9bd 4215 f7bd
00000350: e487 f43e b587 21bd b722 c63d ed48 d7bb
00000360: 27ed f43d c513 a8bd ec75 d93d b710 943d
00000370: 5b9b 4d3e 3adb 99bd 8e41 013c aa86 6c3b
00000380: 7e83 9abc 3296 bc3b 8c0c e5bd e523 303e
00000390: 2ac2 7f3e f286 3eb5 bf64 b8bd 58d1 363e
000003a0: de62 7bbd c08e 88b6 e9bb 7437 7530 4b3d
000003b0: 5311 cabc af81 77bd 27f2 97b8 3889 aa39
000003c0: ab6d b137 b589 82be 7de3 91bc b956 1b3b
000003d0: 9064 80b9 b690 053e 1885 c33c 9fb1 8fba
000003e0: 85d2 96bc ea25 b4bd 9e26 983d 5929 8fbe
000003f0: e70d 56bd 6d77 823d 8cf2 1dbd 4b96 08be
0.04697852 0.3316077 -0.079737954 0.22101216 0.085046545 -0.03303956 -0.019304471 -0.06733856
0.124766625 -0.022630148 0.08794136 0.11927594 0.41513827 0.05784785 0.09044178 -0.18604337
0.008301982 0.002246049 0.17163585 -0.23914409 -0.04553775 0.07364133 -0.1649415 -0.118539326
-0.03332054 -0.15627757 -0.079544745 0.09118665 0.07422718 -0.15984479 0.015980013 0.012297713
0.04136179 0.06921288 0.00048617466 0.32658204 -0.10227003 6.523636e-07 0.329486 0.23922566
0.11194816 3.912308e-06 -3.2706364e-06 0.027885774 0.068982705 0.016715305 0.0039239256 -0.00040895972
0.00017893837 0.25509477 -0.0016932505 -0.0028921284 0.06736175 -0.040611986 0.03742132 0.010098225
0.095243156 -0.08243724 -0.060991682 -0.22572848 0.15683003 0.027076598 -0.17540205 0.06841568
0.0645177 -0.117495276 -0.04898407 -0.16701855 0.058273945 -0.12456871 0.029670823 0.017851565
-0.06497182 0.07533349 0.02036898 0.14780134 -0.14460951 -0.11683232 -0.06375538 -0.07758699
0.031685703 -0.0027380488 0.09534984 -0.17971262 0.17364663 -0.18313248 -0.0029506392 -0.057851575
-0.1165934 -0.090142384 -0.041755855 -0.0037489801 -0.0003632242 -0.087297715 0.0062520425 -0.000550728
-0.011660697 -0.12891772 0.051936485 0.06111728 0.034662157 -7.756211e-07 -0.15133752 0.05210986
0.012610795 -2.1844007e-06 -5.2855585e-06 0.015960243 -0.10903561 -0.07863666 -0.0009992869 -0.0001236938
-0.00014083706 -0.07539453 -0.014277124 -0.0008589889 0.019656843 -0.1350015 -0.10736416 -0.0031956567
0.027233437 0.01335611 0.083139576 -0.11133362 0.16076872 -0.010423137 0.044343617 -0.041532174
-0.08215108 0.0040998515 0.2866687 0.028730093 0.07692367 -0.0118885655 -0.003355607 -0.008693316
-0.054369576 -0.042166963 -0.037679058 -0.061820894 0.14750005 0.031202266 0.028590819 0.103759065
-0.095417656 0.0038403915 -0.06484246 0.036423802 0.12143395 0.3335258 -0.09553965 0.10934123
-0.026923006 -0.0062328675 0.026389884 0.022444068 0.026649598 0.24129404 0.014729224 0.011785412
0.02857091 -0.05454867 -0.058243398 0.056655202 -0.0031801914 2.9948228e-07 0.088232905 -0.044040762
0.028419567 3.9214197e-07 1.1571688e-05 -0.016097397 0.0305941 -0.033008087 -0.00023597319 0.0006534936
9.179604e-05 -0.044295486 0.00994272 0.0022672277 0.018644977 -0.042112943 -0.07657965 0.0009041112
-0.019293107 -0.17014542 -0.009454865 -0.067052506 -0.0671549 0.02011441 0.0060336953 -0.11145528
-0.16824263 -0.106887445 0.4078155 -0.025841646 -0.087425485 -0.19053769 0.02053839 0.08764295
-0.047619503 -0.008801807 0.0023276745 -0.10406156 -0.377569 0.05400819 -0.12006998 0.23201932
0.03556348 1.734104e-05 -0.08270066 -0.120646015 0.47759926 -0.03943606 0.0967459 -0.0065699727
0.11959296 -0.08206896 0.10618195 0.072297506 0.20078795 -0.07512517 0.007889165 0.0036091008
-0.018861528 0.0057552094 -0.11184034 0.17201193 0.24976411 -7.0976887e-07 -0.09003591 0.17853296
-0.061373584 -4.069734e-06 1.4587285e-05 0.04960676 -0.024666464 -0.06042641 -7.2453455e-05 0.00032527163
2.1151112e-05 -0.25495687 -0.01780867 0.0023702814 -0.00024488987 0.13043484 0.023867175 -0.0010962969
-0.01841093 -0.08796294 0.07429241 -0.27961233 -0.052259352 0.06370435 -0.03856139 -0.13338582

module.layer1.0.shortcut.1.weight f4 [16]
00000000: 7e26 dd3e 2364 863e aca1 0e3f a7e1 113f
00000010: 3b50 b93e 4721 ab3e 4886 963e 053f f13e
00000020: 5549 523e f583 4f3e 228d 0d3f 2c12 083e
00000030: e49f 223e 5a4a e63e 38b5 e83e b31e 573e
0.4319343 0.26248273 0.5571544 0.56984943 0.36194023 0.33423826 0.29399323 0.47118393
0.20535786 0.20265181 0.55293477 0.13288182 0.15881306 0.449786 0.4545076 0.21007805

module.layer1.0.shortcut.1.bias f4 [16]
00000000: cd34 b23e a068 9ebd 81ca 64be 7548 9c3d
00000010: bfe1 84bd 723e cfbc 0992 aa3e 7d86 96bd
00000020: 666e 38bd 9378 97bd bd0e 85bc 61ce 8a3b
00000030: cf4b 23bd b714 1c3e dfd1 82bd 1e40 9fbd
0.3480591 -0.077347994 -0.22342874 0.076310076 -0.0648837 -0.025298331 0.3331454 -0.0734987
-0.04502716 -0.073960446 -0.01624238 0.004236028 -0.03986722 0.15242277 -0.06387686 -0.07775901

module.layer1.0.shortcut.1.running_mean f4 [16]
00000000: cfb3 0e3e 6da3 52be bab5 e1ba bdd9 4e3d
00000010: 59f9 b7be 21c0 9d3d 89ef 993d 578d 2ebe
00000020: 897a a9bd 94e9 b7be 628f 4c3d 3003 b73d
00000030: d37e b5bd 3897 b8bd a4b9 263d 2658 d13c
0.13935779 -0.20570154 -0.0017220296 0.05050062 -0.35932425 0.07702661 0.07516391 -0.17046104
-0.08275325 -0.35920393 0.049941428 0.08936155 -0.088620804 -0.09013218 0.040704384 0.025554728

module.layer1.0.shortcut.1.running_var f4 [16]
00000000: a659 0a3e d3f1 093d e834 023d d746 c93d
00000010: 6e0b 9a3d e805 983d bb9c a13d 2b59 8a3d
00000020: 736d 7d3d 30e2 113d 2682 f93d 197a 653d
00000030: 8bf7 263d 8bb8 863d 2b4a e73d 5084 203d
0.1351076 0.033677887 0.031788737 0.09827965 0.07521711 0.074230015 0.07891222 0.06755289
0.061871957 0.0356161 0.12183027 0.056024645 0.04076342 0.065781675 0.11293443 0.039188683

module.layer2.0.conv1.weight f4 [32, 16, 3, 3]
00000000: a5f7 1c3e 559e 113e 0231 b23c f8ef 57bd
00000010: 745d 5cbd e70c dcbd 90c1 a3bb 014c 1cbd
00000020: 6d85 41bd 5434 10be 1300 2cbe c900 5cbe
00000030: b59d c2bd 2af8 0fbe 5ad5 35be 4e5a 2d3d
00000040: 9f4e e33d 6e52 033d 99e1 03be 0e54 9fbd
00000050: 9e5d 87bd ee15 0cbe 43e4 9dbd b9fc 94bd
00000060: c1e4 c8bd 70bf c0bc 5152 14bc 898e 5dbb
00000070: f19a 24bc 9860 b9bc 320a d8bd 42aa d1bd
00000080: a9bf 2ebd 99de d93d cdc8 a33d 78f8 ba3d
00000090: 129a 1ebe ed1d 6fbe 55b7 43bd a0b7 2abd
000000a0: b010 d5bc 8385 8e3d fc33 1ebd bcc0 6abb
000000b0: ace0 aabc 6caa 2e3c a4c5 c43c cdaa d03d
000000c0: 092a 4dbd 9738 7ebd 905d d8bb 1d2d a8bc
000000d0: 381c 88bd 22ff 46bd f1b5 df3b 4fb7 6dbc
000000e0: 0686 9bbd cd91 8a3a 5027 1fbc fa91 87bc
000000f0: 81c7 893d d36a 033d 58cd 99bc a14d 1ebe
00000100: 74a0 6abe 27d8 82be 0037 403d da5f 1bbe
00000110: 4182 8abe 57eb 963e 4c85 203e 1fb5 f9bc
00000120: c939 80bd 4fdb 40be 62b4 60be 5c5c 8d3e
00000130: 1b8c ce3d 4730 04be 9938 d53e a2b5 913e
00000140: 65f1 f93c 30a4 b1bd 80aa 56be e0ef 1bbe
00000150: 50a2 5e3d 3e72 afbd 817e 01be 1a62 183e
00000160: 9ae2 8c3d db45 21bd 6568 1dbe ee71 80be
00000170: cf57 98be 0712 12bd 2171 66be 52b1 9ebe
00000180: b913 3f3e 3d47 983d a03e a1bd 1ef1 113e
00000190: 0915 ab3e 9727 aa3e a3a7 38bc 613d 053d
000001a0: 2fbb 663d a1b2 18be 06ad debd 4a0f 123c
000001b0: af86 3dbe 5f4b 34be f9e2 acbd 8cf5 33be
000001c0: 5a3a 52be ccf7 00be eb1d 05bd 20eb 493d
000001d0: f583 ac3d 2454 993c 97a8 89bc e199 c53d
000001e0: 5e6f d3bd b438 06be 79b7 52bd d71c 4b3d
000001f0: ef3e c2bc 7d51 983c c2e7 b33c 4f33 153e
00000200: 7b09 4d3e 415c 76bd a1ee d6bc 9628 33bc
00000210: 81d2 28bd 3ca3 d2bd d2c6 c3bd 270f 9ebd
00000220: dab3 0ebc 8aa5 423e 092d 8ebd 367f 43bd
00000230: 4441 393d 843e 643d d62d 6c3c a225 383d
00000240: 64a5 5e3e 04d0 823e dc59 583c 18af b93c
00000250: aef4 403c e385 16be 88b6 26bd f985 e0bd
00000260: 119b 20be f1b2 283e 1146 543e 3a46 913d
00000270: d50c 543e 41c2 983d 0311 a3bd 28a2 853d
00000280: 427d c5bd 7f08 37be 5a8d 653c 3f70 74bc
00000290: ab5e 5abd b720 4f3d 9842 323d 67e4 dfbb
000002a0: 0c57 14bd cafb 27bd 6cf9 b4bd 0395 853d
000002b0: 8991 903d c164 b2bc acc0 883b 6681 093d
000002c0: f508 f6bd cdcd 18be 8b5a 1ebe ec32 90be
000002d0: 2dc7 2c3e 3945 653e e06a ea3d 77f6 3a3e
000002e0: 12cb ce3d f2de 62bd 5645 70bd 6888 d8bd
000002f0: c76f 43be 8eff 9a3d daad bf3d d104 973d
00000300: d313 253e 1671 463c b4a8 e1bd e6ab af3d
00000310: 33a6 18be 571f 66be 9d9e 04bd b70d a9bc
00000320: 3384 1a3d d5b1 a53c ec0e e1bb 039f 673d
00000330: 662c 693d 5a30 a3bd 2945 f3bc 588f d43d
00000340: ba5b a63d 6bbd 28bd 3131 903d a74c 873d
00000350: 0dbd 573d 2fd5 083d 3dd4 613d 7e1d cbbd
00000360: 84c0 2d3e 0428 de3d 7594 0cbd 7abf 193e
00000370: 1a41 bf3d 6ad2 f73b 958c 8d3d e914 bb3c
00000380: 47ea 52bd 8cac f73d dbac e93d 6a05 02bd
00000390: b2db ad3d 335c 49be 25d7 7bbe 778f babd
000003a0: f9d8 91be aff9 5abe 4eb1 af3d 90d6 2c3d
000003b0: 1254 3bbd da45 973d 698b bf3c 2890 98bd
000003c0: 1587 c63d 9b32 60bd 7657 0bbe fff1 8f3e
000003d0: 6271 6f3e 92e1 4b3d 8cd4 0fbd 6258 40be
000003e0: acc3 29be b4d0 c2be 94b0 f6be 7a83 7fbe
000003f0: 7c61 f23d f1e4 4a3e ce82 a63d 2eb2 12bd
0.15328844 0.14220555 0.021751884 -0.052719086 -0.05380006 -0.107446484 -0.0049974397 -0.03815842
-0.047246385 -0.14082462 -0.16796903 -0.21484675 -0.095027365 -0.14059511 -0.17757168 0.04232245
0.1109898 0.032061033 -0.12879027 -0.07779704 -0.06609653 -0.1368024 -0.07709553 -0.072747655
-0.09809256 -0.023528785 -0.009052829 -0.0033806881 -0.010046707 -0.022629067 -0.105488196 -0.10237552
-0.04266325 0.1063816 0.07997284 0.09129423 -0.1548846 -0.2335126 -0.04778226 -0.041679025
-0.026008934 0.06959059 -0.038623795 -0.0035820445 -0.020859085 0.010660749 0.024020024 0.10188828
-0.050088916 -0.062065687 -0.0066029504 -0.020529324 -0.06646007 -0.048583157 0.006827109 -0.014509036
-0.07593922 0.0010572016 -0.009713963 -0.0165491 0.067275055 0.032084297 -0.018774673 -0.154593
-0.2291277 -0.25555536 0.046927452 -0.15173283 -0.270525 0.29476425 0.15675849 -0.030481873
-0.06261022 -0.1883366 -0.2194381 0.27609527 0.10085317 -0.12909041 0.41644743 0.28458887
0.030510614 -0.086738944 -0.20963478 -0.15228224 0.054354012 -0.08566712 -0.12645914 0.14881173
0.06879158 -0.03937326 -0.15371855 -0.2508692 -0.29754493 -0.035661723 -0.22504093 -0.3099466
0.18659867 0.074354626 -0.07873273 0.14252135 0.33414486 0.3323333 -0.011270436 0.03252924
0.056330856 -0.14911892 -0.10872845 0.008914778 -0.18508409 -0.17606877 -0.08441729 -0.17574137
-0.20530072 -0.12594527 -0.032499235 0.0492965 0.08423606 0.01871688 -0.016804023 0.09648491
-0.10323976 -0.13107568 -0.051444504 0.04958805 -0.02371165 0.018593544 0.021961097 0.14570354
0.20023148 -0.060146574 -0.026236834 -0.010934969 -0.041216377 -0.10285041 -0.09559406 -0.07717734
-0.008709872 0.1900846 -0.069421835 -0.04772874 0.045228258 0.055723682 0.014415225 0.044957764
0.21742779 0.25549328 0.013205018 0.022666499 0.011777086 -0.14699511 -0.04070142 -0.10963053
-0.15684153 0.1647451 0.20729853 0.07093473 0.2070802 0.07458926 -0.07962229 0.065250695
-0.09643032 -0.17874335 0.014010752 -0.01491934 -0.05331294 0.05056831 0.04352054 -0.0068326476
-0.036215827 -0.04101161 -0.08836636 0.06522562 0.07059009 -0.021776559 0.004173359 0.03357067
-0.12013427 -0.14922257 -0.15464227 -0.2816385 0.16872855 0.22389688 0.11446166 0.18258081
0.10097326 -0.0553884 -0.058659874 -0.105728924 -0.19085608 0.075682744 0.093593314 0.073739655
0.16120844 0.012111923 -0.11018506 0.08577709 -0.1490715 -0.22472893 -0.032377828 -0.020636423
0.03772373 0.020226398 -0.006868234 0.05654813 0.056927107 -0.07968207 -0.029696064 0.10378903
0.08122964 -0.041196268 0.070406325 0.06606417 0.052670527 0.033406433 0.055134047 -0.099177346
0.1696797 0.10847476 -0.034321267 0.15014449 0.09338589 0.007562925 0.069115795 0.02283712
-0.051492956 0.120934576 0.11409923 -0.031743445 0.08489169 -0.19664077 -0.2459379 -0.09109395
-0.2848585 -0.21384309 0.0857874 0.04219681 -0.045734473 0.0738637 0.023381906 -0.074493706
0.096937336 -0.05473576 -0.13607582 0.28114316 0.23383096 0.049775667 -0.03511481 -0.18783715
-0.16578549 -0.38049853 -0.48181593 -0.24952498 0.11835 0.19813897 0.08130418 -0.035814457

module.layer2.0.bn1.weight f4 [32]
00000000: 8e4f 323f 9dac 163f a10f 173f eee5 f93e
00000010: cc4c 0b3f 87ba 223f 0aae ff3e af39 0d3f
00000020: ab41 3a3f 4298 1b3f 5ef1 203f 5df9 fd3e
00000030: 1fca 303f 33a7 fb3e 5f02 163f d851 283f
00000040: 52f9 d63e d0e1 0a3f 0937 183f bd97 303f
00000050: b2f5 103f 8e88 0c3f bb06 723f 74f6 143f
00000060: 83c3 0b3f 812b 053f 0496 173f 35bd b03e
00000070: 2ae6 033f f5a5 f43e bb41 133f 4e51 ef3e
0.6965264 0.58857137 0.5900822 0.48808235 0.5441406 0.6356587 0.4993747 0.55166143
0.7275645 0.607792 0.628683 0.49604312 0.6905841 0.49151 0.5859737 0.65749884
0.4198709 0.5425081 0.59458977 0.68981534 0.566249 0.54895866 0.9454152 0.5818856
0.545952 0.52019507 0.5921328 0.34519354 0.5152308 0.47782865 0.5752217 0.46741718

module.layer2.0.bn1.bias f4 [32]
00000000: 4c77 90be e82a 2bbe ab6d c4bd 4693 dd3c
00000010: 3609 e7bd bdeb cf3c 7d1b 05be 9ba1 61be
00000020: 82af d1be 46bc 0dbd 334b c23d 3b35 1bbe
00000030: 4b59 c5be 98b3 ccbd 12e2 a2be 274e acbe
00000040: a7e0 643d d45e d5be 286c c3be 52ae ba3b
00000050: 2f34 01be d4c0 06be fc1e b8be 216b 6abe
00000060: d1e6 e3bd 198f 31be 7c98 c0bd 5ea9 433e
00000070: 7b6e 48bb 5f66 8d3e 4221 773c 48f6 5a3e
-0.28216016 -0.16715586 -0.0959123 0.027047765 -0.11281054 0.025380963 -0.12998767 -0.22034304
-0.40954214 -0.03460338 0.09486999 -0.15157025 -0.38544688 -0.09995192 -0.31813103 -0.33653376
0.055878308 -0.4167391 -0.38168454 0.00569705 -0.12617563 -0.13159496 -0.3596114 -0.22892429
-0.11128009 -0.17339744 -0.09404084 0.19107577 -0.003058343 0.27617165 0.015083613 0.21383011

module.layer2.0.bn1.running_mean f4 [32]
00000000: a80b 83bf 0ca9 a5be d86d 08bf 4757 1b3e
00000010: 7c26 3a3d de22 95bf 92ad 1a40 fb31 28bf
00000020: 9020 b6be d68b 8cbf bbf1 7ebf d309 a4bd
00000030: df6b 7bbf 6e13 dfbe 5fc4 e7bf 337c 00c0
00000040: 6c2b 273e 3572 763f fc17 7ebf 01a5 54be
00000050: 3127 77bd 9165 7b3e 68fa c8bf 1d2d 45bf
00000060: 9759 223f 2ee9 05bf 5134 11c0 ee9b 91bf
00000070: 8c72 15c0 2e4d 18c0 42c5 32bf 6fa0 8cbf
-1.0237932 -0.32355535 -0.5329261 0.15170012 0.045446858 -1.1651266 2.416844 -0.65701264
-0.35571718 -1.0980175 -0.995876 -0.08009686 -0.98211473 -0.4356951 -1.8106803 -2.0075805
0.16325158 0.96268016 -0.9925535 -0.20766069 -0.06034011 0.24550463 -1.5701418 -0.7702196
0.63417953 -0.5230893 -2.2688181 -1.1375711 -2.3351164 -2.3797107 -0.6983224 -1.098646

module.layer2.0.bn1.running_var f4 [32]
00000000: 0591 4a3f 6623 633f 6f5d c83f f712 b63f
00000010: 4d17 af3f ca21 cc3f 68c6 bc3f a4ea 613f
00000020: b93a 373f 5ab6 833f c991 ec3f 9b26 4b3f
00000030: ac8b 503f 77da 633f 42c7 533f 0685 eb3f
00000040: 613d 403f c3b7 503f bccc 213f a26e 813f
00000050: 7a94 bb3f dff5 913f a216 e23f 75a0 4d3f
00000060: 3db4 223f e471 533f 0513 933f b2cd 373f
00000070: 67ca 703f cd11 b93f fdd0 c43f d3d5 c73f
0.7912753 0.8872589 1.5653514 1.4224538 1.3678986 1.5947812 1.4748049 0.8824866
0.7157398 1.0290024 1.848199 0.7935578 0.8146312 0.89005226 0.8272592 1.839997
0.75093657 0.815304 0.63203025 1.0111887 1.4654686 1.1403159 1.7663157 0.80322963
0.6355627 0.8259566 1.1490179 0.7179824 0.9405884 1.4458557 1.5376278 1.5612129
