results/NQ99/cifar10/ikd/resnet8_best.pth.tar (torch_old, 371438 bytes, 52 tensors)

module.conv1.weight f4 [64, 3, 3, 3]
00000000: 5fbd 65bd 8133 b83d faa8 ffba 210f 36be
00000010: cac3 e83d fb7a 5e3e 28ac 30bd 21fd 26bc
00000020: 848f dd3d cb9a 16be f50e be3c c024 af3d
00000030: 4497 a6be 340f 42bd f044 523e 92bd 0dbe
00000040: 1350 ddbd 7659 ee3d e770 9cbd 40b1 a53d
00000050: 3b43 093e f801 63be 93bc bf3c 2f63 853e
00000060: 6ce3 68bd 299a 15bc bfb0 183e 94dc a0bd
00000070: 4a8a 4abc 614b 3bbd c66d b4bd e21a 96bd
00000080: 3196 bbbd d470 77bd 73dd 64bd a375 f5bc
00000090: cbef 16bd 00f5 863b 1af7 49bd 3351 1dbc
000000a0: 0142 423d 5036 5abd a8d8 2bbd 48a2 b4bc
000000b0: 9f5d 1dbd 3f60 5b3d 4d75 0e3e 5e6f d23b
000000c0: 0ceb dc3d 59e5 5b3e 3862 8f3d 887d e8bb
000000d0: 4bbb d73d 4b8a 81ba d6ad c83c aeec b2bd
000000e0: ae3b 893d e35e a2bd 20f5 40be 992f 60bd
000000f0: 2b90 0fbd 541e 92bd 9fb4 4b3d 66e0 56bc
00000100: 6d23 dbbd d581 afbc 0656 dabd 3878 6cbe
00000110: 8aff d8bd cff7 93bd 1924 aabd ed0c de3c
00000120: 6d07 623d 57c1 003c 8712 953d 4862 22bd
00000130: a441 a5bd c609 abbc e536 283d d86b f13c
00000140: 5efd 153e 0e0e fb3d a74b f73d 307a 813d
00000150: 187c 273e c06b e63e 5657 01bf 87ef 90be
00000160: 395f 2bbc e50c 98be ed92 483c ec4b 6cbc
00000170: 2e02 f2bc 3ad4 263e a453 f63e acae e7be
00000180: ff14 1bbe 055d 943e f64b cfbd 4437 efbd
00000190: 39bc 01be 512d 98bd 5cbb 183e 9912 eb3e
000001a0: 9d59 c0be faa0 fcbd 5c02 b23e 5c6d d83c
000001b0: 85dd 073d 42dd 67bd 920c ebbd fd00 ecbc
000001c0: ca28 84bd a6b8 73be b907 0a3e d913 8c3e
000001d0: 487a 303b dbdb 143e 5f39 fabc cfb6 5ebd
000001e0: d61c 0cbd da2d 8abd 06d2 49be 2db5 5e3e
000001f0: 9dfd 9f3e 00a1 c43c feed 223e 036d 8cbd
00000200: 1dd3 c5bc 57bd 36bd a41d 41be 7dc9 66be
00000210: cf90 093e df92 df3d 95a4 96bd 0167 40be
00000220: 1c77 433c aa40 05be f093 3e3e 2875 b33e
00000230: b5e4 dc3d 0900 bbbc 4dd1 f73c 6cd4 e33d
00000240: 4bae 933d ae29 5e3d bc83 e7bd b6d9 5b3e
00000250: 429a e03d 838f 11be 24d7 b5bd b145 a2be
00000260: 3c8f 45be 5e61 703e c444 a73d 4a42 bbbd
00000270: 851d be3e d83c 183e a650 2cbe 62b1 a73d
00000280: 7c90 88be 1817 9cbe 0232 c3bc f454 ae3d
00000290: bf1d 403e 3023 0ebe efec b0bc f56c 283e
000002a0: 01d0 f6bd ce89 99bc 0b42 ee3d 27f4 ed3c
000002b0: 1dd6 113d 0542 5d3c 76db 0dbd 841a 293c
000002c0: 8627 0f3c c6df 2a3c e6b9 93bc 0b94 153d
000002d0: ead6 923d aa5d 343b c656 21be 08c3 d73d
000002e0: 1689 2a3d 5e6f f1bd 5796 253e f9a9 393d
000002f0: 5db5 81bd 3e0c f8bd 83f6 9ebd 2f09 0ebe
00000300: cbc1 8b3d 4f0d 9e3e 3194 c43d 2382 063e
00000310: bc18 903e 34d9 3f3e 99c7 1fbb f04c 51bc
00000320: 52f7 40bd 4a7f a4bd cef3 293c ca56 e3bd
00000330: 024a c0bd 3018 e9bd d9d7 fabd 6b01 1b3e
00000340: 734e d93d f023 593d d4d0 91bd 7c14 013d
00000350: 6d09 c8bd c9ec aabd 76b6 2fbe 3dfb bfbd
00000360: 06b1 9ebd 2395 9fbd fbd3 f8bc 4b74 dabc
00000370: 09fc d73c 9975 223d f422 f33c 2c57 b63c
00000380: a0a4 bb3a 9001 afbd ac3b 8cbd df28 7fbd
00000390: cb48 7abd 9820 b93c 012d 9c3c 8045 ac3b
000003a0: e199 7f3d 87fa 883c b1ea ccbd 0aa6 3cbc
000003b0: fb9f 483c 5db9 813c 2ac9 b13d 8ba4 aa3d
000003c0: 0d5b ab3c 4729 c23d bb82 fe3c 217e cabc
000003d0: 48e0 afbd 7d59 ae3d 4140 d3bd 77af f0bd
000003e0: 1d8c 293e f060 903d c135 4a3c e08f d23d
000003f0: 8aee 8dbd 4e39 e1bd 6b74 a6bc ee60 a9bd
-0.0560888 0.089941986 -0.0019505315 -0.17779209 0.11365469 0.21726601 -0.04313293 -0.010192187
0.10818389 -0.14707486 0.023200491 0.085519314 -0.32537282 -0.04737778 0.2053411 -0.13841847
-0.108062886 0.11638157 -0.07638722 0.080904484 0.13404553 -0.2216872 0.023405349 0.26052234
-0.05685751 -0.009130993 0.14911173 -0.07854572 -0.012362072 -0.045726184 -0.0881 -0.07329346
-0.09159506 -0.060410336 -0.055875253 -0.02996332 -0.03684978 0.0041185617 -0.04930792 -0.009601879
0.047426227 -0.053274453 -0.041954666 -0.022050038 -0.038419362 0.053558584 0.13911934 0.0064219674
0.10787019 0.21474208 0.070011556 -0.0070950426 0.1053377 -0.0009883133 0.024496954 -0.08736549
0.06700836 -0.079282545 -0.18843508 -0.054732893 -0.0350496 -0.07134691 0.0497328 -0.013115024
-0.10700116 -0.021424213 -0.10660939 -0.23092735 -0.10595615 -0.07225 -0.08307666 0.027105773
0.055182863 0.007858596 0.072789244 -0.03964451 -0.080691606 -0.020878684 0.041067977 0.02947037
0.14647433 0.1225854 0.120749764 0.063221335 0.16355932 0.45004082 -0.5052389 -0.28307745
-0.010459715 -0.29697338 0.012242061 -0.014422398 -0.029542055 0.16291896 0.48110688 -0.45250452
-0.15144728 0.28977218 -0.1012191 -0.11680463 -0.12669457 -0.074305184 0.14915222 0.45912626
-0.3756837 -0.12335391 0.34767425 0.026419334 0.03317024 -0.056607492 -0.11477007 -0.028809065
-0.064530924 -0.23800907 0.13479508 0.27358893 0.0026928354 0.14536993 -0.030544935 -0.05437356
-0.034207188 -0.06747027 -0.19709024 0.217488 0.3124818 0.024002552 0.159111 -0.0685673
-0.024148518 -0.044614162 -0.18858963 -0.22537799 0.13434146 0.10916685 -0.0735561 -0.18789293
0.011930253 -0.13012949 0.18611121 0.3505032 0.1078581 -0.022827165 0.03025117 0.11124501
0.07210978 0.054238968 -0.11304423 0.21469769 0.10966922 -0.14214902 -0.088789254 -0.31693795
-0.19292921 0.23474643 0.08167413 -0.09143503 0.37131897 0.1486696 -0.1682764 0.0818813
-0.26672733 -0.3048637 -0.023827557 0.08512297 0.18761347 -0.1388061 -0.021597354 0.16447814
-0.12051392 -0.018742468 0.116336904 0.029047085 0.035604585 0.01350451 -0.034633122 0.010321263
0.00873745 0.010429328 -0.01803298 0.036518138 0.07169898 0.0027521648 -0.15755758 0.10535246
0.04163464 -0.1178882 0.16170631 0.045328114 -0.063334204 -0.1211171 -0.07761862 -0.13870691
0.068240725 0.3086953 0.09598578 0.1313558 0.2814387 0.187352 -0.0024380444 -0.012774691
-0.047110863 -0.08032091 0.010373069 -0.11100538 -0.09389116 -0.113815665 -0.12248201 0.1513726
0.10610666 0.05301279 -0.07119909 0.031513676 -0.09767423 -0.083459444 -0.17159447 -0.09374092
-0.07748608 -0.077921174 -0.030374518 -0.026666781 0.026365297 0.03966293 0.029679753 0.022258364
0.001431603 -0.0854522 -0.06847319 -0.062294837 -0.061104577 0.02259855 0.019064428 0.0052573085
0.06240261 0.016721023 -0.10005701 -0.011514196 0.012245174 0.015835458 0.08680947 0.08332165
0.02091744 0.09480529 0.031068197 -0.024718346 -0.085877 0.08513162 -0.1031499 -0.11752217
0.16557355 0.07049739 0.0123419175 0.10281348 -0.06930263 -0.10997258 -0.020319184 -0.08270441

module.bn1.weight f4 [64]
00000000: 3946 703e b5fd 903e d71c 0a3f 7ffb da3e
00000010: d402 903e 2876 833e 8008 1d3e 06b3 0b3e
00000020: 2416 423e beb8 8a3e a207 103f c47f 673e
00000030: 1631 ef3d 94af c33e cf5f 053e 5582 eb3e
00000040: 2a9f 813e 6e11 163e ed9a 4f3e 0a36 c93e
00000050: b6e2 a93e 6347 ac3e 4ea1 993e 70d9 a63e
00000060: 123f 9a3e 5be6 8c3e cf91 a73e c6bb e23e
00000070: e937 7b3e cee5 e83e 8713 9f3e 8061 4b3e
00000080: 57a4 4d3e 5fd1 8e3e 99dc a73e 2f4a 133e
00000090: 4835 093f 0609 133e fe78 693e ef3e 943e
000000a0: a016 9e3e be3b 193e 027e 253e c2b9 4e3e
000000b0: a22c cc3e 46bb 823e b6db 4d3e f070 ca3e
000000c0: 1973 983e bae0 4b3e 06d6 ca3e 8504 8f3e
000000d0: f25b 243e 6b81 ed3e 0a1a 553e d9c9 183e
000000e0: c55b 643e 497b 493e 08c2 d33e eea7 813e
000000f0: 0148 5d3e f2a1 ab3e dbd0 b33e b48f 5d3e
0.23464288 0.28318563 0.53950256 0.4277 0.28127158 0.25676084 0.15335274 0.13642511
0.18953758 0.27094072 0.56261647 0.22607332 0.11679284 0.38219893 0.1302483 0.45997873
0.25316745 0.14655086 0.20273943 0.3929904 0.3318078 0.33648214 0.30005878 0.32587767
0.30126244 0.27519497 0.3272843 0.44283885 0.24533047 0.45487827 0.31069586 0.19861412
0.20082222 0.27894112 0.3278549 0.14383768 0.53596926 0.14358911 0.22800061 0.28954265
0.30876637 0.14964196 0.1616135 0.20188048 0.39877802 0.25533503 0.20103344 0.3953929
0.29775313 0.19909945 0.39616412 0.27933136 0.160507 0.463878 0.20810714 0.14920749
0.22300632 0.19675936 0.41358972 0.25323433 0.21609499 0.33521992 0.35120282 0.2163685

module.bn1.bias f4 [64]
00000000: 7c4c fc3d dd7b 0fbe d2ab bebe f31b cb3e
00000010: ea32 453e 75ba 613e d953 00be 9ece e53d
00000020: 1e9a 8ebd 8c77 e33b b6e7 f9be c1b0 2a3e
00000030: 94b6 d43d 793e b43e 70fb 6a3d da3d 22be
00000040: b609 4e3e 9a46 e5bd baae 783d 4467 6f3e
00000050: fc1d d33d 4299 8fbd da81 9a3d c5ef ce3e
00000060: a53b 73be a9a3 953d 29e4 01be 12a3 c83e
00000070: a28c 2e3e 1630 bfbe c6d1 fbbd b9de cfbd
00000080: c172 d2bc 5eac 48be 79fd 173e 2a96 3ebd
00000090: f438 c2bd 555a 323e 6ebc 7abd a409 353d
000000a0: 99e6 4d3d c642 913d 8a70 033e eee4 d53d
000000b0: 745f 073d 5a1b 203e d346 4fbd 4f28 afbd
000000c0: 3e05 13bd 78cf a23d 6480 ebbd c0ac 48be
000000d0: 0cd3 123e 0c7e a1be d364 abbd f52a 5e3e
000000e0: 19c2 cfbd 65d3 f73d 2b10 613e eb5f 2ebe
000000f0: 11cb f63e 4d7a 863e 81fc 10be e2d7 5abd
0.12319276 -0.14012094 -0.37240463 0.3966976 0.19257703 0.22043784 -0.12531985 0.1122105
-0.06962989 0.0069417413 -0.48809594 0.16668989 0.103863865 0.35203913 0.057368696 -0.15843907
0.20120892 -0.11195107 0.060713507 0.23379236 0.103084534 -0.070116535 0.075442985 0.40417305
-0.23753221 0.07306606 -0.12684692 0.39186913 0.17045835 -0.37341374 -0.122958705 -0.10149903
-0.025689485 -0.19597003 0.14842786 -0.046529926 -0.09483519 0.17417271 -0.061214857 0.044198647
0.050268743 0.07092814 0.12835899 0.104440555 0.033050016 0.15635434 -0.050604653 -0.0855261
-0.03589367 0.07949728 -0.11499098 -0.19597149 0.1433832 -0.3154148 -0.0836884 0.21696074
-0.10144443 0.12100867 0.21978824 -0.17028777 0.48201802 0.26265183 -0.14158823 -0.05342854

module.bn1.running_mean f4 [64]
00000000: 5b4c 2ebd 2d7e 843c 97fe 8f3e ceb8 04be
00000010: eeb1 003c 7741 94bd 602e d5bd 9d64 77bc
00000020: 6cbe 9abb c419 8f3d c8bd 4c3e 7d2b abbd
00000030: 0415 25be dd4d 903c 16bf 04bd 4c43 aebc
00000040: 1ccc 6abd f920 98bd f757 463d 6127 89bd
00000050: ee81 bbbc da76 ee3d 6fab 1db9 f4fa 00bd
00000060: 8b8a 0c3e 5460 bb3d 1c01 c63d d951 cfbd
00000070: 7aaf 033d 0dba 373e bc91 303c 1139 d3bd
00000080: 95f3 13bd fd90 30be 094b 5fbd 107f 4d3d
00000090: c064 163d 44a2 d8bc e5b2 5abe c429 793e
000000a0: fef0 aa3d d8a6 70bd 2e8d 16bd a1ae 5d3d
000000b0: 3874 a2bc 0166 94bd 0e69 24be 1008 853e
000000c0: 058f 8a3e 5afb 90bd ccc2 49bc 4a70 2a3e
000000d0: 6a43 67bc 1942 e13d 902f 183d 3a68 a0bd
000000e0: 6c98 763d 9c9d 883c 0852 793d 27f5 05be
000000f0: 9fd2 1d3d b346 74bd bcf6 8c3c f3d0 59bd
-0.042553287 0.016173447 0.28123924 -0.12961122 0.007854922 -0.07239049 -0.10409236 -0.015099672
-0.004722407 0.06987336 0.19994271 -0.08357904 -0.16121298 0.017615253 -0.032408796 -0.021272324
-0.05732356 -0.07428164 0.048423734 -0.06696964 -0.022889104 0.11643763 -0.00015036551 -0.031489328
0.13724725 0.091492325 0.0966818 -0.10123033 0.03214977 0.17942066 0.010776933 -0.10313619
-0.03612097 -0.17242809 -0.05451492 0.050170004 0.036717176 -0.026444562 -0.21357305 0.24332339
0.08346747 -0.058752865 -0.036755733 0.054121617 -0.019830808 -0.07246018 -0.160557 0.25982714
0.2706224 -0.070791915 -0.01231451 0.16644397 -0.014115194 0.10998935 0.037154734 -0.0783238
0.060203955 0.016676717 0.060869247 -0.130818 0.038530942 -0.059637737 0.017207496 -0.053177785

module.bn1.running_var f4 [64]
00000000: 83f5 b33f 6ad4 783e d928 c13f d67e e73f
00000010: 39db 923f 60b3 a63f 8379 803e e825 5c3e
00000020: 351b 583e a921 523f aa11 993f 99cf 7e3f
00000030: 9a59 843f 6126 843f 15e9 ff3d ed3d 163e
00000040: b670 033f 449c 2c3e 10fc 363f 3be6 1140
00000050: db57 943f 3312 4f3f 05a9 673f 5ad4 ba3e
00000060: 9d2e cb3e 173e 0c3f 034d 093f 28df 5f3f
00000070: 34d6 373f aba7 463f 4321 903e 93f2 6a3e
00000080: 47b6 b93e 125d 193f f784 0240 a097 043e
00000090: 74e5 a33f 16c6 1b3e 3c55 823f 397b c33f
000000a0: 9fc6 be3e a4fb b23e 7315 813e 9044 933f
000000b0: cdb7 8d3f df5d d23f 8f5d 2c3f 213b b13f
000000c0: 73e7 bd3f 8336 1b3f 632d 1b3e f7f9 793f
000000d0: 307c f13e f6eb 283f ede0 8b3e be53 a23e
000000e0: 809b 893e fc1d 9a3f f870 1340 a788 b23e
000000f0: adb6 a43e e524 1940 3629 013f 7ffe bd3d
1.4059299 0.2429978 1.5090591 1.8085582 1.1473151 1.3023491 0.25092706 0.21498835
0.21104129 0.8208261 1.1958516 0.9953552 1.0339844 1.0324212 0.12495629 0.1467206
0.5134386 0.16856486 0.71478367 2.2796772 1.1589311 0.80887145 0.9049228 0.36490136
0.39684 0.5478224 0.53633136 0.87449884 0.71811223 0.7759959 0.28150377 0.22944097
0.3627188 0.5990764 2.0393655 0.12948465 1.2804399 0.15212283 1.0182261 1.527198
0.3726091 0.34957612 0.25211677 1.1505299 1.1071717 1.6434897 0.6733026 1.384617
1.4836258 0.60630053 0.15154032 0.9764704 0.4716506 0.6598505 0.27320042 0.31704515
0.2687645 1.20404 2.30377 0.34869882 0.3217062 2.3928769 0.5045351 0.09277057

module.layer1.0.conv1.weight f4 [16, 64, 3, 3]
00000000: 4cc7 a73a c5c1 6dbd d3f2 46bd 0f95 2b3d
00000010: 9de2 173d b882 393d 06b7 bdbb d516 6abc
00000020: 5151 0e3d 83c1 e33b 619f 6e3c b866 5b3c
00000030: 9d62 60bc e191 5c3b ae93 153d 20b8 fabc
00000040: eae7 3bbc 23bb 1a3d 7156 933b 21ec 0aba
00000050: 4219 083d c2a1 873d 3597 293c 0288 433c
00000060: 2117 753d 6e98 733c 0961 283c 1f5f 86bd
00000070: 27b6 06ba 2ba2 253e a98c 11be f5cc 2ebe
00000080: 4640 513d b0bb 00be a519 fdbd 16a3 6fbd
00000090: 99b4 1abd 7415 48bd 1d6d 103d d817 7d3b
000000a0: 55d2 83bd e0f6 15bd 6e75 ad3c 9856 2cbd
000000b0: bbfa 71bd d25a 4fbc 5822 26bd b827 cebc
000000c0: fb2f abbd a2df acbd 419e 53bd 9454 85bd
000000d0: 9f46 8cbd 7600 70bd 1906 f4bc 5b26 45ba
000000e0: 286a a03c 2744 53bc 997a a53b 344d a23c
000000f0: c5c9 10bd c6ce 9dbc ac7d 8d3c b81e 533d
00000100: 8b18 a0bc f113 5bbd c069 613d 4534 85bc
00000110: 7b79 e2bc 5f7d 1e3d c24d 93bc d650 2dbd
00000120: 7b1a 2abd 9ad7 cdbc abc3 6d3c 4bc8 1fbd
00000130: 8790 14bd c66c 28bc 64cd fbbc 4760 a8bc
00000140: bf8e b0bc 3117 4cbd 63d6 e0bc 163e 063b
00000150: 8d4c c9bc d96c 66bc 0cd8 0ebd b32e bb3a
00000160: 6c1d 93bc cb4f 19bd 4172 1fbd b2a9 86bd
00000170: 704d 76bc c8e0 863d 4f36 b7bc 7a8c 4ebc
00000180: d661 d83c 2460 e0bc dc36 59bc 6666 653c
00000190: 9ad9 efbc e858 babd a153 a53c 9228 363d
000001a0: 960b 513d bf77 5bbc e79f 19bd 6131 0f3d
000001b0: 64dd b4bc 26ba 5ebc 7003 08bd 86b5 c6bc
000001c0: 3516 5d3c 5437 e93c 9010 b2bc e485 6b3c
000001d0: f6a8 303d 2d5f 78bd 9481 bbbd 976e 443d
000001e0: f88d 913d 11b5 3dbd 512a 75bc 9473 c3bc
000001f0: 00c8 2a3d 5fc5 e23c 929f 933a 11eb 0dbc
00000200: 2db3 c0bc 62b6 2cbc da76 7dbc e95a 9d3c
00000210: d30c 2dbc 8568 c6bc 7618 ab3b 0ae1 24bc
00000220: 7b4d bb3d 1683 c53d 114b 30bd eac6 463d
00000230: 3aee 0f3e 5827 efbd cda6 85bd 9c02 d43d
00000240: 3bdf 1c3c 3702 963b 1188 bfbc e777 873b
00000250: 0446 e23c 3992 ca3b 1fa4 cd3c aba3 f73c
00000260: df8d 2ebc ba90 19bd 3c4f 97bc 7c6d 9bba
00000270: 0daf 06bd b513 05bd 0e2a aa3b 0424 2bbd
00000280: ef7b 17bd aa3b 4ebc a6e4 123d 26ac 63bc
00000290: 2530 abbd 606a bf3c 2855 003d affa 513b
000002a0: 03c6 a8bd 1586 69bd 21b6 133d 9bdb 3bbd
000002b0: fd62 18bd e9ac e03d f245 583b 0fc5 88bd
000002c0: 85a2 61bc 9eeb 753d 2367 9fbc f5d6 86bd
000002d0: 2aab edbd 2a72 92bd 4c48 473c 9dc9 1dbe
000002e0: b8f2 f6bd 5f7e 6dbd b081 26be 1839 ffbd
000002f0: f222 a2bd 2ed0 f33c ba96 5cbd f954 4dbd
00000300: 284a 043b 638e 92bc a896 bf3a 4858 d9bd
00000310: 5294 98bd 4350 9a3c 23ab b1bd 586f a9bd
00000320: 8328 a8bd 9172 e7bd a178 93bd 77a2 99bd
00000330: 838f b9bd 6476 e23b ec49 a8bc 3964 7bbd
00000340: a39e 90bd 8f4a cf3b c567 193d e0c0 933b
00000350: e75d 1fbd 26f5 683b 0fba 18bd 3bd3 ed3c
00000360: 2f30 d8bc 3432 b1bc 1c2e edba 79c8 9e3c
00000370: 6dd5 8dba f1d7 91bc f564 153d 4e47 3b3c
00000380: 6e96 7fbc d2ad 803b 2e4d 08bd 2e79 42bd
00000390: 46d8 843d 4799 adbc dfbd a2bd 69e3 e03d
000003a0: 79e4 fe3c 7857 7dbd 76e5 1e3d 45ae 5abd
000003b0: 52aa 5ebd da35 443d a3b9 febc dae9 35bd
000003c0: bd2e 5cbd 4a85 ddbc 8ffe ba3b db9c 24bc
000003d0: df99 3a3c f436 ae3c bb7d 83ba 4862 b7bd
000003e0: d3e9 4d3c 7104 f23b 5dae ecbb 15e2 d63c
000003f0: a72d ae3c cd7e 85bc e3ab 54bc 8ca1 273d
0.0012800484 -0.05804612 -0.04857142 0.0418902 0.03708135 0.04529068 -0.0057896404 -0.01428767
0.034745518 0.0069505586 0.014564366 0.013391189 -0.013695386 0.0033656287 0.03651779 -0.030605376
-0.011468867 0.037776124 0.0044963886 -0.0005299468 0.033227213 0.0662265 0.010350992 0.011934282
0.05983651 0.014867885 0.010277041 -0.06561112 -0.0005138837 0.16175143 -0.14213814 -0.17070372
0.051086687 -0.12571597 -0.12358407 -0.05850514 -0.037769888 -0.048848584 0.03526031 0.0038618948
-0.06436602 -0.03661239 0.021174159 -0.04207477 -0.059077006 -0.012655931 -0.040560097 -0.025165424
-0.08358761 -0.08441092 -0.051664595 -0.065102726 -0.068494074 -0.05859419 -0.029788064 -0.0007520669
0.01958187 -0.012894667 0.005050015 0.019812204 -0.035348672 -0.019263636 0.01727184 0.051542968
-0.019542953 -0.053485814 0.05503249 -0.016260276 -0.027645817 0.038693782 -0.017981414 -0.04231342
-0.04152916 -0.02512722 0.014511983 -0.039009374 -0.036270645 -0.01027984 -0.030737586 -0.020553721
-0.021552442 -0.049826805 -0.027445978 0.0020483783 -0.024572635 -0.014064037 -0.034874007 0.0014280885
-0.017958365 -0.037429612 -0.03892732 -0.065753356 -0.015033111 0.06585842 -0.022364764 -0.012606734
0.02641384 -0.027389593 -0.013257708 0.0140014645 -0.029278565 -0.09098989 0.020181479 0.044472285
0.05103644 -0.013395249 -0.03750601 0.0349592 -0.022078224 -0.013594186 -0.033206403 -0.024256479
0.013494064 0.028468765 -0.021736413 0.014375184 0.043129884 -0.06063764 -0.091555744 0.04795703
0.071071565 -0.046315257 -0.014963702 -0.023858823 0.04169464 0.027682004 0.0011262766 -0.008662001
-0.023522938 -0.01054153 -0.015470231 0.019208388 -0.01056214 -0.02421976 0.005221422 -0.010063419
0.091456376 0.09644143 -0.04304034 0.048529543 0.1405572 -0.11677426 -0.06525955 0.1035206
0.009574707 0.0045779007 -0.023380311 0.0041341665 0.027621277 0.006181982 0.025102673 0.03022941
-0.010653942 -0.037491538 -0.0184704 -0.001185819 -0.032881785 -0.032489497 0.0051930016 -0.041782394
-0.036983427 -0.012587467 0.035862587 -0.013896024 -0.08358792 0.023366153 0.03133121 0.0032040288
-0.08240893 -0.057012636 0.036062364 -0.04586373 -0.037203778 0.1097048 0.0033000675 -0.06678211
-0.013771658 0.060039155 -0.01945836 -0.065839685 -0.116049126 -0.07150681 0.012163233 -0.1540894
-0.12058014 -0.057981845 -0.1626041 -0.12462062 -0.079168215 0.029762354 -0.05385468 -0.050129864
0.0020185802 -0.01789016 0.0014617043 -0.106125414 -0.07450165 0.0188371 -0.0867522 -0.0827319
-0.08210852 -0.11301149 -0.072007425 -0.07501691 -0.09060576 0.006911086 -0.020543061 -0.061374877
-0.070615076 0.0063260267 0.037452478 0.0045090765 -0.03890791 0.003554651 -0.037286814 0.029031387
-0.026390163 -0.021630384 -0.0018095407 0.019382702 -0.0010821052 -0.017803164 0.036473233 0.011430575
-0.01559983 0.003926971 -0.03327673 -0.047478847 0.064865634 -0.021191252 -0.07946371 0.10980875
0.031114804 -0.061850995 0.03879305 -0.053388853 -0.05436165 0.04790292 -0.031094378 -0.04441247
-0.05375551 -0.027041096 0.0057066153 -0.010047163 0.011389225 0.021266438 -0.0010031977 -0.089542925
0.012567955 0.0073857834 -0.007222934 0.026230851 0.021262003 -0.016295815 -0.012980434 0.040925547

module.layer1.0.bn1.weight f4 [16]
00000000: 8eaf ed3e 4e03 073f 9158 933e 75b8 773e
00000010: 0f65 ed3e 1815 d63e 14ec e63e 5417 d63e
00000020: 09b3 f63e 6f2f f93e 80fb ea3e 0435 043f
00000030: 7612 de3e 4c88 d13e 6886 063f b2eb 033f
0.46423 0.5273942 0.28778508 0.24191459 0.46366164 0.41812968 0.45101988 0.41814673
0.48183468 0.48669 0.45895004 0.51643395 0.4337346 0.409243 0.5254884 0.5153152

module.layer1.0.bn1.bias f4 [16]
00000000: 6560 32be 13b9 aebe cf54 d9bd ea99 03be
00000010: 89fc e7bb f388 b33e 8140 7d3e ce5b 67be
00000020: c257 343e 11b8 44be 85df 30be 3537 5dbe
00000030: 4361 be3d b13d c83d 2b08 153f 55c8 2cbd
-0.17419584 -0.34125575 -0.10611879 -0.12851682 -0.007079665 0.3506542 0.24731638 -0.22593614
0.17611602 -0.19210841 -0.17272766 -0.21603091 0.09295895 0.09777392 0.5821559 -0.04218324

module.layer1.0.bn1.running_mean f4 [16]
00000000: 73d8 50bf bdd7 88be 3358 3fbe 1479 8fbe
00000010: 5fd6 b4bf a7e7 efbe a722 98bf 7ef2 26bf
00000020: 6426 48bf cd85 d5be cd85 7cbf 4708 f3be
00000030: 2b19 39bf e832 8cbf f8e7 ebbe b597 6dbf
-0.81580275 -0.26727095 -0.18685989 -0.28022063 -1.4127921 -0.46856424 -1.1885575 -0.65213764
-0.7818358 -0.41703644 -0.98641664 -0.47467253 -0.7230403 -1.0953035 -0.46075416 -0.9280961

module.layer1.0.bn1.running_var f4 [16]
00000000: dbb2 c13e 62b5 713e c608 a73d 7257 2b3d
00000010: 5097 643f f63a 213f f4bc 433f d33d e03d
00000020: a76c 1a3f 4a72 863e a24e 053f 99cf aa3e
00000030: 2d57 073f 6c89 1a3f 5071 363f e8f6 163f
0.37831768 0.23604348 0.0815597 0.04183144 0.89293385 0.6298059 0.76460195 0.10949292
0.6032204 0.2625907 0.5207311 0.3336151 0.52867395 0.6036594 0.7126665 0.589705

module.layer1.0.conv2.weight f4 [16, 16, 3, 3]
00000000: 83b4 06bd 7f03 49bd 2df9 41bd 39b5 7dbd
00000010: f380 63bd a22d 57bd 0e41 70bd 2cf4 33bd
00000020: 729f d9bc 6864 dc3c 110d 933d f35e 843d
00000030: 1b11 a33d 63f9 c53d b18c 883d a498 6b3d
00000040: 0c0b 783d 4230 013c abcd 0bbd ba55 14bd
00000050: 72ce 60bd 4a2b 04bc 42ce 13bd b518 d7bc
00000060: c197 b9bb df2a e0bb fa79 17bc 085e 343d
00000070: 5ec5 b83b 8ad3 bbbc 99da f83c 52a1 7d3c
00000080: 568a 69bc 5d75 e0bb 1dc3 42bb 53a5 c9bc
00000090: fc35 d33d 5250 ad3d 80d3 3d3d b2ec 343e
000000a0: 0512 333e 4f6d 0f3e a3d1 023e f688 b43d
000000b0: eed0 ab3c 4296 393e 57ae 6c3d d7cb dcbd
000000c0: 972d 2b3e 86a6 a4bd e4c4 2abe ec41 793d
000000d0: 1c93 c0bd 80a2 21be d2e9 d93d 1f7f 1c3e
000000e0: 429a 97bc 8433 3f3d 27c9 0a3c 4c7b 76be
000000f0: 86d2 05bd 0c5c 08bd 9ef2 2ebe 0225 e33d
00000100: 866a 143e 0410 ed3d 68aa b03d 3866 6e3d
00000110: 26fd a0ba 4571 0a3d 8c6c 5cbc b31f c4bd
00000120: 34ce 30be ea1e 83bd 5856 54bd 95c1 c53d
00000130: 0655 933d e189 3b3e 6cd9 0f3d c3b3 663d
00000140: 8420 1c3e caa8 cebb 8614 43bc f4a2 cb3b
00000150: be9a 44bc 9984 093b 269d 753c 9acd 5f3d
00000160: 0c7f 03bd 7d1c bebd 8c00 083e e05c 2a3d
00000170: 74ce 943d 10bb 3e3e dcae d03d 2da1 633d
00000180: abec 193e cfae 4b3d fb8c 65bd d973 a23c
00000190: 9d62 93bc 7cb3 2ebe 199c 253d a818 41bc
000001a0: 2313 15be fe15 623d cff1 803a 580d 22be
000001b0: cd3f 44bd 739a 8cbd 50f1 4dbd 8b15 68bc
000001c0: 4df8 afbd 1ab3 82bb c6b4 0b3d 0867 13bd
000001d0: 00e4 7c3d b7c3 88bd 1ea6 f3bd 5eb7 82bd
000001e0: edc3 5fbe 32b0 1fbe dd84 d3bc 3b7f aebd
000001f0: e18e 15bc 82e0 8eb9 1989 04b9 2b5c 863d
00000200: ad48 88bd 52ef 0ebc 39cf 683d 059b 38bd
00000210: 8878 d93d 2cbd cabd 264a bcbd 8e2a 0a3e
00000220: c658 6fbc 6140 2dbe c74c 1a3e 64c1 2abc
00000230: 7b73 81be f46a fd3d 1645 4cbd a7e9 1ebe
00000240: c6cb 91bc 056b 8ebd e153 03be 1f07 8bbc
00000250: 3583 c93c 2bd8 163d 10bd 23bd 62a3 23bc
00000260: 5b1f 3cbd 0996 f4bb 086e 14bd 1fd9 de3d
00000270: 19ea 7c3a c5e7 e03d bb86 fa3c 1a73 173d
00000280: 7eb2 c1bb 34d3 b03c 2086 8abd 2344 8ebc
00000290: 8a29 a3bb 9150 f739 6266 43bc 3a7d 1f3c
000002a0: b827 de3d 0376 a43c 2952 803d e9a8 30bd
000002b0: aeff 9cbc 3a73 01bd 6bee 8d3a f896 3b3c
000002c0: 8f3b 0bbb dc80 83bb f13e bc3b 4570 2c3c
000002d0: 50f4 b2bd fef2 dd3d be3b 4e3d 108a 82bd
000002e0: b074 33bd 54a8 01bd 2bb5 dcbd f8c6 22bd
000002f0: f5b8 afbc 3da6 4bbe b60c 303e 5ece 2cbd
00000300: 728d 313e 292f 973d b8fe 43be 0d7d cb3d
00000310: 8eca acbe 648a 893e 1a83 5a3c 795c a73e
00000320: 3341 57be 3a88 ea3d 330a 35be fc9d 5fbe
00000330: 4c84 54bd 9285 9abd 6f78 a73e 3d8b 413c
00000340: 417b 1b3e cbdd bf3d 3d2f 00bd a211 ec3d
00000350: d477 ea3c 1064 9bbc deab 813c d400 92bd
00000360: 4d57 8dbe a3da 08be b36b 053e 317a a9bd
00000370: cc9b c23e 0afd 1f3d ac29 5e3e 0f77 1d3d
00000380: 9033 69be 9ee9 5ebd c768 a2bc 2201 29bd
00000390: 7896 c0bd 6e17 42bd e237 c5bd a323 b3bd
000003a0: 8929 93bd 739d aebd 4884 403d bfec 293e
000003b0: 1ba8 11bd 57a1 423d d15d 8b3d cabd ad3c
000003c0: 6884 f23c d956 0e3d 8060 c7bc 1991 80bd
000003d0: 7cd3 f9bd d470 d9bd 067f e2bc a0d5 f1bc
000003e0: 30a1 18bc a4d0 50bc 2609 833c b870 e4bc
000003f0: 7062 70bd 1c79 8cbd 5756 85bd 80a7 15bd
-0.032886993 -0.0490756 -0.047356773 -0.061940406 -0.055542897 -0.052533753 -0.05865579 -0.043934032
-0.026565287 0.026903346 0.071802266 0.064634226 0.07962247 0.09666707 0.0666746 0.057518616
0.06055741 0.007885041 -0.034131687 -0.036214568 -0.05488438 -0.008066962 -0.036085375 -0.026256898
-0.0056638424 -0.006841048 -0.00924539 0.044034988 0.0056387624 -0.022928018 0.030377673 0.015480356
-0.014254173 -0.0068499283 -0.0029718347 -0.024614966 0.10313031 0.084625855 0.04634428 0.17668417
0.17487343 0.14006542 0.12775283 0.08815186 0.020973649 0.18123725 0.05778345 -0.10781067
0.1671661 -0.08039574 -0.1667667 0.060853884 -0.09403059 -0.15784645 0.10640301 0.15282868
-0.018506173 0.04667999 0.00847081 -0.24070472 -0.032671474 -0.033290908 -0.17084739 0.11091043
0.1449376 0.1157532 0.086262524 0.058202952 -0.0012282475 0.03379943 -0.013453614 -0.09576359
-0.1726616 -0.06402381 -0.051840156 0.096560635 0.07193951 0.18314315 0.03511946 0.056323778
0.15246779 -0.0063067423 -0.011906749 0.006214494 -0.011999784 0.0020983575 0.01499108 0.054639436
-0.032103583 -0.092827775 0.13281459 0.04159248 0.0726594 0.18626046 0.10189602 0.05557363
0.15031688 0.049727257 -0.056042653 0.019830631 -0.017991358 -0.17060655 0.04043207 -0.011785664
-0.14558081 0.055196755 0.000983769 -0.15825403 -0.047912408 -0.06865396 -0.05027896 -0.0141652925
-0.085922815 -0.0039886357 0.034107946 -0.03598693 0.061740875 -0.06677955 -0.11896919 -0.06382631
-0.21852084 -0.15594557 -0.02582019 -0.08520361 -0.009128303 -0.00027251622 -0.00012639574 0.065605484
-0.06654487 -0.008724051 0.056838248 -0.045069713 0.10618693 -0.09899363 -0.0919383 0.13492796
-0.014608568 -0.1691909 0.1506835 -0.0104220845 -0.25283417 0.12373915 -0.049870573 -0.15518819
-0.017797362 -0.06954006 -0.12824966 -0.016971169 0.024598697 0.036827248 -0.039975226 -0.009987684
-0.04592834 -0.0074641746 -0.036237746 0.10881256 0.00096479204 0.109817065 0.030581823 0.036975004
-0.0059111705 0.021585084 -0.067638636 -0.017366474 -0.004979317 0.00047171538 -0.011926265 0.009734446
0.108474195 0.020075804 0.06265671 -0.043129835 -0.019164886 -0.03160403 0.00108285 0.011449568
-0.0021245216 -0.004013164 0.005744808 0.010524814 -0.08738005 0.10837363 0.050349943 -0.063739896
-0.043812454 -0.03165467 -0.107767425 -0.039740533 -0.0214505 -0.19887634 0.17192349 -0.042188995
0.17339113 0.07382042 -0.19140136 0.09935961 -0.33748287 0.26863396 0.013336921 0.3268774
-0.21020965 0.114517644 -0.17679672 -0.2183761 -0.05188398 -0.07545008 0.3270907 0.011812982
0.15183736 0.093684755 -0.03129505 0.11526801 0.028621592 -0.018968612 0.015829023 -0.07129064
-0.27605668 -0.13364653 0.13029365 -0.08275259 0.3800949 0.039059676 0.21695584 0.03844362
-0.22773576 -0.054422013 -0.019825352 -0.041260846 -0.094037 -0.047385626 -0.096297994 -0.087470315
-0.071856566 -0.08526125 0.047001153 0.16594218 -0.03556071 0.047517147 0.068050034 0.021208663
0.029604152 0.034750793 -0.024338007 -0.06277675 -0.121985406 -0.106172234 -0.02764846 -0.02952081
-0.009315774 -0.012745056 0.015995573 -0.02788578 -0.058687627 -0.06859037 -0.06510609 -0.036536694

module.layer1.0.bn2.weight f4 [16]
00000000: 8a93 0d3f 2eeb 863f 94e2 6a3f 6e8e d63e
00000010: a4b2 5b3e 03c4 dc3e 2d80 a13e 56cc 6f3f
00000020: 791c 103f 65a8 0f3f 07ed 943e 646a 753f
00000030: 577a 463e d56a 323f 91a4 303f 0821 883f
0.5530325 1.0540521 0.9175198 0.4190554 0.21454865 0.43118295 0.31543103 0.93671167
0.56293446 0.56116325 0.29087088 0.95865464 0.19382606 0.6969426 0.6900111 1.063508

module.layer1.0.bn2.bias f4 [16]
00000000: bafe bebc 1341 abbd bffb aabd 44ef 973c
00000010: 3df8 453d 4923 16be a358 d43d cf41 f5bd
00000020: 1ac4 a83a 332a 0b3c 2547 da3d d88f debd
00000030: ab6c 833e 21ee 92bd 058c 1e3d 902f cbbd
-0.023314822 -0.08362021 -0.08348798 0.018546708 0.04833244 -0.14661898 0.103684686 -0.119754426
0.0012875826 0.008493948 0.10658101 -0.1086728 0.25668845 -0.07174326 0.03870775 -0.09921181

module.layer1.0.bn2.running_mean f4 [16]
00000000: e5ec 02be ca18 493d ea95 073e be4a f6bd
00000010: f973 4f3e 6cfe 13bd f07e 203f 7310 8a3e
00000020: 64cd c93d caf5 9cbe c239 963e 8bae 9dbe
00000030: 0af0 4fbe 3787 0dbe b02c 3fbe cde8 d53d
-0.1278568 0.049095906 0.13240781 -0.12025975 0.20259084 -0.036131307 0.6269369 0.26965675
0.09853628 -0.30656272 0.2934094 -0.30797228 -0.20306411 -0.13821112 -0.1866939 0.10444794

module.layer1.0.bn2.running_var f4 [16]
00000000: a7f5 3d3e af94 043f 20cf e13e 4c1d d93d
00000010: 0151 803d cbf6 be3d e4dd 053e c9f8 e43e
00000020: 27a1 6c3d 934c 623e 4425 a53d e6a3 223f
00000030: d983 333d 4deb a93e 4993 ab3e 1860 103f
0.1855074 0.51789373 0.44103336 0.10601291 0.0626545 0.09324416 0.13072926 0.44721058
0.057770874 0.22099523 0.080637485 0.6353134 0.04382691 0.33187333 0.33510807 0.5639663

module.layer1.0.shortcut.0.weight f4 [16, 64, 1, 1]
00000000: 5cbb 32be a232 3dbd e26b bf3c fd31 f03d
00000010: 76da 3abd 636f 673e 29bf 6c3d 6c40 95bc
00000020: 0565 cbbc 2936 a3bd 488c 33bd c865 f7bd
00000030: 85e4 0dbc 45b1 f93d 5ec9 103c 103f 6e3d
00000040: dcec 80bd 5453 033d a0c9 14bd 9da6 97be
00000050: d9be 143e a280 b6bd 8b83 563e ff04 123c
00000060: 35b4 34bc 5709 d7bd 5ae6 22bd 8897 8c3d
00000070: cbfe 41bd dc19 a0bd f770 6c3a 8987 01bc
00000080: 299a 053c e767 4e3d 251d 81be 4db2 0abd
00000090: f4c9 4c3d 6a30 963d c923 edbc 0897 af3c
000000a0: 1ca3 8ebd ab13 b53c f9ea 90bc 3feb 893c
000000b0: f412 13bd 4c52 97be 14ea fcbc 99ce 55bc
000000c0: 087b cc3c ba83 52bd a8ad 113d e216 44bb
000000d0: acd5 b6bd 180e a8bd 1538 6dbd 5f50 c13b
000000e0: 6662 dcbb cb2e fbbc 4aa8 8dbe 2d44 c0ba
000000f0: ec50 fcbd 7046 cf3d 9b04 96bd b9af 14bd
00000100: a7bd 3d3d 814d c73c 8f3e bd3b 077f 1d3d
00000110: 8347 1ebe f08c e13c 38a0 90ba 693a c8bd
00000120: 3e03 34bd 0b36 55bd c00a 13bd 42b5 133e
00000130: c4d0 9a3c ec44 37bd 6d3a 803c b794 47bc
00000140: 3d67 08bd 56e3 cb3c b339 003e 79f1 8abe
00000150: fd1b 6cbc 9278 1e3e 105d 033d 702c 6cbd
00000160: 233f 8a3c 87df 48bd c12f 253b 8b32 be3d
00000170: a41a 36bd 86cb 1ebc 6d87 71bd 30bb e93c
00000180: 38bd c83c a613 ccbc dd5b 643c 3991 d9bc
00000190: c371 c63c 225e 59bd 5550 4a3d 3ab9 853d
000001a0: d623 0a3c c7bf 35bd 96cb 803d 7fa8 f03d
000001b0: 490b cf3d b57c 9ebd 508e 843d c405 81bc
000001c0: acd7 6c3d a29c 3fba be82 b9bd 10de b83d
000001d0: 6c3e 91bd 50fe 3fbc 263d e4bd 1c91 d0bd
000001e0: d976 f4bc 3c54 6f3d f92d 043d f20d 9f3b
000001f0: 25ee efbd 8cf8 443e 0cf0 783c 4a7b f6bc
00000200: 0a8d 1d3d 1216 04bd d4fc 613b e4bf 10be
00000210: 40c4 44bd 39cc cbbd 576d 18bb 4e8f 5fbd
00000220: 9e17 af3c b5e4 cd3c 7692 0abb 5877 373d
00000230: e73d 2cbd 52c2 9fbd d662 78bd 32cb b83d
00000240: e228 743c cbac 663c 34dc 873d 8005 fe3c
00000250: 96ca 55be d442 813d 2da5 f7bd c1ec 2cbd
00000260: 6bc2 8cbd 7007 d0bd cdd7 93bc ad29 28be
00000270: e27f 32bd d3de 8cbd 577b 6e3c 10fd 7b3c
00000280: 2155 9d3c 586c 2abd 08a2 773c 45f0 e7bc
00000290: 1a80 913d f9e3 8ebc c7fb 09bc 85a8 173c
000002a0: 7b3e d2bd 2214 583c 4c1c fabc 2746 9c3d
000002b0: d644 fbbd 61fe aa3d debd 653d 6531 953c
000002c0: 99be 3cbc db3e bc3b 85d9 0dbd a56b 78bc
000002d0: bdd1 763c a97f 5abd 377a 863c 5eb8 87bd
000002e0: f07e a9bc 180f ac3d 22ab ad3d 8e38 0ebd
000002f0: 0fd9 2f3d cf67 7a3d 6003 08bc aa0e 49bc
00000300: 8417 443d e7de 533d 273c dbbd 2b3b 50be
00000310: 92f4 fabd 1859 f13d 5416 5f3d 6c14 003e
00000320: 6242 ecbc 83d1 cbbd 5e19 d3bd a6c4 ae3c
00000330: f187 473c a6bd 21bc 5770 763d cc11 973d
00000340: ff8c 16be 6680 6bbd 805c b43d 0f7a 89be
00000350: 7707 ff3d ec90 803d 51fa 93bd 5b03 073e
00000360: 07a5 bcbd 3acd f8bd f702 f6bd 9454 81bd
00000370: 7319 853e b98d f4bd e2e4 cebc 2a11 0abd
00000380: d4a4 103e 3dfa cabd eb19 b5bd 2837 0bbc
00000390: 2aad f5bd 9c68 023d bf02 34bd 2a9d 7c3e
000003a0: 1023 c13e 05bf 9abb c95c 883d 3be3 ea3d
000003b0: 266d 453d 9395 14be 3668 9cbc d8f9 57be
000003c0: c32a ad3d fc7e f0bd 27c9 c6bc 9f42 5bba
000003d0: 9995 ebbd c6cf babc 3c77 9dbd 7178 ac3c
000003e0: a91b 0cbd 63e9 10bc 9d6c e9bd a83e 873b
000003f0: 143e 5cbd 5f0d 16bd 1daa 8dbd f46a 43bd
-0.17454284 -0.046190865 0.023366872 0.117282845 -0.045618497 0.22601084 0.057799492 -0.018219195
-0.024828443 -0.079693146 -0.043834955 -0.1207996 -0.00866044 0.121920146 0.008837072 0.05816561
-0.06295177 0.03206189 -0.036325097 -0.29619303 0.14525928 -0.089112535 0.20948617 0.008912324
-0.011029293 -0.10499828 -0.03977046 0.0686484 -0.04736213 -0.07817432 0.00090195186 -0.007905849
0.00815443 0.050392058 -0.25217548 -0.033861447 0.049997285 0.07333453 -0.028947728 0.021434322
-0.069647044 0.022104105 -0.017690169 0.016835807 -0.035906747 -0.29554975 -0.030873336 -0.013049745
0.02496101 -0.051395155 0.035566002 -0.0029920866 -0.089274734 -0.08205813 -0.057914812 0.0058994736
-0.006725597 -0.030661961 -0.27667457 -0.0014668755 -0.12320122 0.10120857 -0.07325097 -0.036300395
0.046323445 0.024328949 0.00577528 0.03845122 -0.15456967 0.027533025 -0.0011034077 -0.09776766
-0.043948404 -0.052053493 -0.035898924 0.14424613 0.018898375 -0.044743463 0.01565286 -0.0121814525
-0.03330158 0.024888676 0.1252201 -0.27137354 -0.01441097 0.15475681 0.032071173 -0.057659566
0.016875809 -0.049041297 0.0025205465 0.09286984 -0.044459 -0.009692078 -0.058967043 0.02853164
0.024504289 -0.024911713 0.013937918 -0.026558505 0.024224168 -0.053068288 0.049393017 0.0652947
0.0084313955 -0.044372346 0.06288831 0.11750888 0.10109574 -0.0773863 0.064724565 -0.01574982
0.05782287 -0.0007309412 -0.0905814 0.0902673 -0.07091984 -0.011718348 -0.11144476 -0.101839274
-0.029841827 0.05842994 0.032270405 0.0048539573 -0.11715344 0.19235438 0.01519395 -0.030088086
0.038464583 -0.03224761 0.0034482973 -0.141357 -0.04803872 -0.09951062 -0.002325853 -0.054580025
0.021373566 0.02513347 -0.0021144426 0.04479155 -0.042051222 -0.078007355 -0.060641132 0.090231314
0.014902325 0.014079283 0.06633797 0.031008482 -0.20878062 0.063115746 -0.12092052 -0.042217974
-0.0687302 -0.101576686 -0.018047238 -0.16422148 -0.04357899 -0.06878438 0.014555774 0.015380159
0.019205632 -0.04160723 0.015114315 -0.028312812 0.071045116 -0.01744269 -0.008421845 0.009256487
-0.102658235 0.013188394 -0.030531071 0.07630568 -0.12268989 0.083493 0.056089275 0.01821203
-0.011520051 0.0057447976 -0.03463127 -0.015162383 0.015064654 -0.053344402 0.016415698 -0.06626962
-0.020690411 0.084013164 0.084799066 -0.034721904 0.042931613 0.061134156 -0.008301586 -0.012271563
0.04787399 0.051726248 -0.107048325 -0.20335071 -0.12253679 0.117845714 0.054464653 0.1250779
-0.028840248 -0.099520706 -0.10307573 0.021334004 0.012178407 -0.009871876 0.06016573 0.07376441
-0.14702223 -0.057495497 0.088067055 -0.26850936 0.12452596 0.06277642 -0.072254784 0.13184874
-0.09211164 -0.12148519 -0.12012284 -0.0631496 0.2599598 -0.11941094 -0.025255624 -0.033707775
0.14125377 -0.099110104 -0.08842834 -0.008497037 -0.11995919 0.031838045 -0.04394793 0.24669328
0.37722063 -0.0047224783 0.06658322 0.11469122 0.048199795 -0.14510183 -0.01909266 -0.21091402
0.08455422 -0.1174297 -0.024265839 -0.00083641143 -0.11503143 -0.022804152 -0.07688758 0.021053525
-0.034206066 -0.008844706 -0.113976695 0.0041273423 -0.05377014 -0.036633845 -0.06917212 -0.04770942

module.layer1.0.shortcut.1.weight f4 [16]
00000000: e260 f73e e710 653e 59d3 1a3e 73b9 c83e
00000010: 125b 093f 91d4 673f 292d f43e fdd4 8d3e
00000020: 6d5a af3e 2ca4 053f 055b f23e 46de aa3d
00000030: 0c33 d23e 4101 183f 87b1 ab3e 6e69 693e
0.48316103 0.22369729 0.15119685 0.39203987 0.5365459 0.90558726 0.47690704 0.2770156
0.34248677 0.5220363 0.47335067 0.083431765 0.4105457 0.59376913 0.3353388 0.22794124

module.layer1.0.shortcut.1.bias f4 [16]
00000000: bafe bebc 1341 abbd bffb aabd 44ef 973c
00000010: 3df8 453d 4923 16be a358 d43d cf41 f5bd
00000020: 1ac4 a83a 332a 0b3c 2547 da3d d88f debd
00000030: ab6c 833e 21ee 92bd 058c 1e3d 902f cbbd
-0.023314822 -0.08362021 -0.08348798 0.018546708 0.04833244 -0.14661898 0.103684686 -0.119754426
0.0012875826 0.008493948 0.10658101 -0.1086728 0.25668845 -0.07174326 0.03870775 -0.09921181

module.layer1.0.shortcut.1.running_mean f4 [16]
00000000: bbaf 5bbe ee09 6abd ee73 57be 9bb7 3dbe
00000010: 32bb 03be 76b5 293f e734 6dbe d5ad 32be
00000020: f184 533e b919 d83c 723f 01be 0428 b0be
00000030: b5f8 a53e 79b8 c9be b1b3 bcbe 3884 debd
-0.21453755 -0.057138376 -0.21040317 -0.18527071 -0.12864378 0.6629251 -0.23164712 -0.17449124
0.20656182 0.026379453 -0.12621859 -0.3440553 0.3241631 -0.39398554 -0.36855844 -0.108650625

module.layer1.0.shortcut.1.running_var f4 [16]
00000000: 4edf 223e ac2b 973d 54fe 203d 1bcd 903d
00000010: b26f 973d f641 f93d dccd de3d 9cde ac3d
00000020: 97cd 4e3d 6bea 1b3e 4e03 053e d9f2 0a3d
00000030: 0e7e c63d 12f9 6c3e d428 153e 6680 c13d
0.15905496 0.073813766 0.039305046 0.07070371 0.07394351 0.12170784 0.10879108 0.08440897
0.050489035 0.15226142 0.12989542 0.033923004 0.09692012 0.23141888 0.14566356 0.09448318

module.layer2.0.conv1.weight f4 [32, 16, 3, 3]
00000000: ddbd a3bd 0cf2 afbd fdf8 d7bc 3824 d4bd
00000010: ec0b 03bd e8bf 7bbd 8f76 dc3b 28a0 f13c
00000020: be9c 0fbd 73b2 f83d dcd6 eabd a05f a3bc
00000030: 3ff2 9f3d b538 e7bd 1246 d2bd b01d 7c3d
00000040: 0841 a4bc db99 dabc a19f 393d 0076 1b3d
00000050: e535 823c 6354 393d e428 553a e2e1 143d
00000060: db20 123e 8c60 383e 73e2 ba3d e190 9a3d
00000070: 8e81 78bc b1ea 8dbd 5369 e03d 2dd4 0e3d
00000080: 6ca6 1d3c 9d6e 163e 28a6 023e 9aaf bb3d
00000090: 4299 8abd b926 78bd 5743 12bd 658e 93bd
000000a0: 201d 32bd de51 2abd e4d7 c8bd bc2e 76bd
000000b0: d3bb 48bd 3e49 88bd 2356 fcbd fde4 08be
000000c0: 29d0 93bd 08d4 d7bd 0703 00be 5d71 a2bc
000000d0: fa46 18bd e2c9 6cbd 70d6 70bc 398d 043b
000000e0: 9eee 7c3d a5c1 31bd da87 5bbc ebda f2bb
000000f0: 52f6 3fbc cba9 19bc 92f2 cdbc 6fb0 3fbe
00000100: 69d0 32be e749 88bc 3ddb 87be 47c9 b6be
00000110: 42dd 81be ef11 5dbe 59fb 93be 153d 8ebe
00000120: 333f 1ebc b20a 39bd a254 12bd 9545 02bb
00000130: c95c f7bc c841 e6bc 9bf0 47bc 4a45 babc
00000140: dca6 91bd 5b62 60bd f3d0 b4bd 1497 86bc
00000150: f79e 9c3c de54 d8bd a2e5 33bd 3dd6 a93d
00000160: a9f9 8e3c d7e3 30bd 58a7 5dbc a997 c4bc
00000170: f49a 3cbd 950c 9bbc 37a4 d2bc 506d 2fbd
00000180: 6355 07bd 618e c6bc 0fcf 02bd 374c 413d
00000190: 36b5 ca3c bd58 43bc 81d0 323c 6065 513d
000001a0: 57a1 993c 6d74 b83d d04d 223e ec65 643d
000001b0: c48c 4c3d 79f7 f33c 9646 10bc dcc6 813b
000001c0: 2abc e8bc bd4b a6bd 8043 a3bd 836a f5bd
000001d0: a6ef 36be 9351 59be 40de 9dbe 71af 42be
000001e0: 1cf9 33be 8bad aabe 0f03 b0be 44ba acbd
000001f0: f8ec 9dbe 3150 bcbe 044b 12bd 3108 8ebb
00000200: df2d 1d3d a8ee 733c 6b28 b73c 810d dabc
00000210: 5215 fa3d 3d68 783c d5f5 bfbd 9c52 213d
00000220: 946f 5a3b 0fd4 e93d ab21 543d 0729 e43d
00000230: 4b53 e43c d618 303d fb08 b73d 0056 3fbd
00000240: 1cef 28bd 2219 a6bd 3843 95bd 43ca 883d
00000250: 35ac df3b b03d 91bc cecf e43d ae75 6f3d
00000260: e69b e23d 40a7 5e3c aca4 1bbd e9dd 2cbd
00000270: 2ba3 46bc 36a4 c93b a534 11bd 0d06 a0bb
00000280: 3dc6 b0bc 4e0b 3938 31a3 643e 5689 193e
00000290: 5141 0d3d 2092 b13b 4fc6 173e 95d1 203e
000002a0: 1cc1 d9bd 07cc d4bc 937a 833d 96f6 88bd
000002b0: 0fec 003e 18fb f73d 1648 03be 9224 e63b
000002c0: d65f d83d 6228 f4bd bcfe 23be 8c31 503c
000002d0: 7823 2f3d 757f 4d3d 6d93 5e3d a5ba 913c
000002e0: 6ad5 4e3c a10e 583c abce bebb c72f 89bc
000002f0: 2bc1 98bd 9820 19bc c2eb 8dbd b733 0ebe
00000300: 2ba2 89bd cda4 98bd 6c59 18be 3bfd 2a3b
00000310: 64dd 72bd d3f1 72bd 9fc8 b33d 47f6 0f3c
00000320: f301 d8bd 2e50 943b 8964 2d3d db21 f3bc
00000330: dd97 a63b 0e43 ab3d 0a6b f13b 495a 87bc
00000340: 1841 fc3b bc33 8abd de40 0dbe dcd9 46bc
00000350: fd04 0ebc 3a6b cbbd 70c2 26bd 29dd ed3c
00000360: 2350 5cbc 20a6 16bd ff84 533d baff 87bd
00000370: 482d 69bd a7fa 23bd 456b dd3c 7817 36bd
00000380: 80d9 40bd 0606 57bc 2d61 6f3e 2f70 223e
00000390: 522b 57be 7026 093e 3ec6 5e3e d3ae 48be
000003a0: 6794 62bd 0a41 313e 79b2 a13d b88a d43b
000003b0: 4ea6 18be 9d7d f7bc 84e2 8b3d 2cbe 623c
000003c0: 6804 b2bd 385b e43d 7db8 463e d14a 48bb
000003d0: e012 c8bd 5b05 0ebe 4ba6 f1bd 2034 d3bd
000003e0: dfb0 9cbd daab 35be 2663 05be cd7c a23d
000003f0: 7add 6bbd 485b 2dbd 5138 99bb 990d 0dbc
-0.07995198 -0.08591089 -0.026363844 -0.10358471 -0.03199379 -0.061462313 0.0067280005 0.029495314
-0.03506159 0.121434115 -0.114667624 -0.019943058 0.07809877 -0.11290113 -0.10267271 0.06155175
-0.02005054 -0.026684692 0.04531825 0.03795433 0.01589484 0.045246493 0.00081313984 0.03634823
0.14270346 0.1800558 0.09125223 0.07547165 -0.015167607 -0.069295295 0.10957589 0.034870315
0.009622198 0.14690633 0.12758696 0.09164353 -0.06767513 -0.060583804 -0.03570875 -0.07204894
-0.043484807 -0.04158198 -0.09806803 -0.060103163 -0.049007248 -0.06654595 -0.12321117 -0.13368602
-0.07217438 -0.105384886 -0.12501155 -0.019829446 -0.037177064 -0.057809718 -0.014699563 0.0020225777
0.061751 -0.043397564 -0.013399089 -0.007411351 -0.011716442 -0.009378861 -0.02514008 -0.18719648
-0.17462315 -0.016636802 -0.26534453 -0.35700437 -0.2536412 -0.21588872 -0.289027 -0.27780977
-0.009658623 -0.045176215 -0.035725243 -0.00198779 -0.03019561 -0.028107539 -0.012203361 -0.022738118
-0.07111904 -0.0547813 -0.088289164 -0.016429462 0.01911877 -0.10563062 -0.043920167 0.08292816
0.017453032 -0.043186035 -0.013528667 -0.023998098 -0.046046212 -0.018926898 -0.02571307 -0.042828858
-0.033040415 -0.024237813 -0.031935748 0.047191825 0.024744611 -0.011923012 0.010913969 0.05112207
0.01875369 0.090065815 0.15849996 0.055761263 0.049938932 0.02978109 -0.0088058915 0.0039604735
-0.028410036 -0.08119915 -0.07971859 -0.11983206 -0.17864856 -0.21222524 -0.30833626 -0.19012238
-0.17575496 -0.33335528 -0.34377334 -0.08433965 -0.30844855 -0.3677993 -0.03571607 -0.0043344726
0.038373824 0.014888443 0.02235814 -0.026617767 0.12211098 0.015161571 -0.093730606 0.039385423
0.0033330666 0.114174 0.05178992 0.11140638 0.027871748 0.042992435 0.0893726 -0.046712875
-0.041243657 -0.081102625 -0.072882116 0.06679203 0.0068259486 -0.01772961 0.11172448 0.058461837
0.110648915 0.01358968 -0.03799884 -0.042203818 -0.012123863 0.0061536087 -0.035450596 -0.004883534
-0.021578902 4.4117965e-05 0.22327878 0.14993796 0.03448612 0.005419031 0.14821742 0.15704949
-0.10632536 -0.025976194 0.064198636 -0.066876575 0.12590049 0.12108439 -0.12820467 0.0070234025
0.10565154 -0.11921765 -0.16015142 0.012707125 0.042758435 0.05017038 0.054339815 0.017789194
0.012624124 0.013187082 -0.0058229766 -0.016746415 -0.07458719 -0.00934615 -0.06929733 -0.13886915
-0.06720384 -0.07453308 -0.14877862 0.0026090879 -0.059293166 -0.059312653 0.087785 0.008786744
-0.10547247 0.0045261597 0.042332206 -0.02967923 0.0050840215 0.08362399 0.0073674964 -0.016522544
0.0076981895 -0.06748149 -0.13794276 -0.012136903 -0.0086681815 -0.09932561 -0.040712774 0.029036121
-0.01344684 -0.036779523 0.051640507 -0.06640573 -0.05692795 -0.040033963 0.02702869 -0.044455975
-0.047082424 -0.013123995 0.23376913 0.15863107 -0.21012619 0.13393569 0.21755311 -0.1959794
-0.05531731 0.17309967 0.07895369 0.006486263 -0.1490719 -0.030211264 0.06830314 0.013839286
-0.08692247 0.11150211 0.19406314 -0.0030562172 -0.09769225 -0.1386923 -0.11799296 -0.103126764
-0.07650923 -0.17741337 -0.13026103 0.0793396 -0.057584263 -0.04232338 -0.004675903 -0.008609199

module.layer2.0.bn1.weight f4 [32]
00000000: 2486 0f3f a84d e03e f2e8 223f a92a c93e
00000010: 1f53 193f 5e4e 0b3f 1f91 353f b3a5 023f
00000020: a69e f23e b285 093f b1c4 063f 2464 d63e
00000030: 8c2c fd3e 5e80 063f 5580 ed3e e905 2c3f
00000040: 58ff a43e 3316 b43e e5d0 083f 1399 013f
00000050: 4f71 063f abde f53e cd40 0f3f 1248 dc3e
00000060: 1fe3 f13e f1a7 b33e 2e7f ff3e 71d8 e03e
00000070: 1680 003f f334 073f 2914 1e3f 3cd2 f63e
0.5606406 0.43809247 0.63636696 0.3929036 0.5989246 0.54416454 0.7092456 0.51034087
0.47386664 0.5371963 0.5264388 0.41873276 0.4944805 0.5253962 0.46386972 0.6719652
0.32226062 0.35173187 0.5344375 0.506242 0.52516645 0.48021445 0.55958253 0.43023735
0.47243592 0.35089067 0.49901718 0.43915132 0.50195444 0.5281517 0.6174951 0.4820727

module.layer2.0.bn1.bias f4 [32]
00000000: a081 783d 448c 05be 53d3 a6bd 7d67 59bd
00000010: 9ce8 78be dc4e babc cea7 5cbe 2423 46be
00000020: f82a 13be 6fca 443d de2b 253e c4f3 94bd
00000030: 15dd e2bc a716 98be dfcc 4abd 32d9 02be
00000040: f552 8e3e 5c8b 193d d30a 32be c8e8 3bbd
00000050: 4334 0bbe a39e 4fbe fda8 8dbe 02a5 cf3b
00000060: 2a22 16be f942 793d 14d2 9dbd 35cf 723d
00000070: 88ee 8ebd b56d a1bd a896 43be ef26 37be
0.060670495 -0.13041788 -0.08145776 -0.05307721 -0.24307483 -0.022742681 -0.21548387 -0.19349343
-0.1437186 0.04804462 0.16130015 -0.07273057 -0.02769331 -0.29704782 -0.049511787 -0.12778166
0.27797666 0.03748642 -0.17386942 -0.045876294 -0.13594155 -0.20275359 -0.2766799 0.006336809
-0.1466147 0.060854886 -0.07706085 0.05927964 -0.0697909 -0.07882253 -0.1910044 -0.17885946

module.layer2.0.bn1.running_mean f4 [32]
00000000: bcf0 e5bf a976 863e 8c43 a8bf 1c87 c13e
00000010: 9207 693d fbe6 3fbf 7fe3 e1bf d374 033d
00000020: c8ec a73e 2f41 10c0 e39c bfbf bbef 273f
00000030: 180b 15bf 7558 09bf eefa 973e cae2 a1be
00000040: 7c97 803e af25 6a3f e58c 123f 2039 a33c
00000050: c8db 8e3e 25dd da3e e494 94bf b0de 4bbd
00000060: bf1d 573e 6039 1cbc adf7 8abf 4c81 6dbf
00000070: 6135 7cbf 81a5 f3be bfd8 a1bf cbf7 5d3f
-1.7964091 0.26262406 -1.3145614 0.37798393 0.056891985 -0.74961823 -1.7647551 0.032093834
0.32797837 -2.2539785 -1.4969753 0.65600175 -0.5822005 -0.536506 0.29683632 -0.3161834
0.25115573 0.9146375 0.5724624 0.0199247 0.27902055 0.42746845 -1.1607938 -0.04977292
0.21007441 -0.009535164 -1.0856835 -0.92775416 -0.9851895 -0.47587207 -1.2644271 0.8670623

module.layer2.0.bn1.running_var f4 [32]
00000000: 0d18 b93f 507f 7d3f 0604 983f f3b1 273f
00000010: 98e5 793f 4b69 773f 0e3b bf3f d0e6 723f
00000020: 425a 2e3f b70d 9f3f 57ce e73f 5f62 d43e
00000030: 709c 4e3f 55b2 743f 5ded 9c3f b903 763f
00000040: d3c3 613f eeba 463f e6da a23f 448d 5f3f
00000050: 8674 203f 210a 753f ded3 523f bede 933f
00000060: 47ce 453f d5fb 4e3f 41c4 5c3f 4871 473f
00000070: 11ab 3a3f ec7b 883f a516 7a3f cf1c 133f
1.4460465 0.9902239 1.1876228 0.65505904 0.9761596 0.9664504 1.4939897 0.9488344
0.6810647 1.242606 1.8109845 0.414813 0.80707455 0.95584613 1.2259938 0.9609943
0.8818943 0.7762898 1.2723053 0.8732493 0.626778 0.9571858 0.82354534 1.155235
0.7726788 0.80853015 0.8623696 0.7790723 0.72917277 1.0662818 0.976908 0.57465833
