results/9E92/cifar10/kd/resnet8_best.pth.tar (torch_old, 371450 bytes, 52 tensors)

module.conv1.weight f4 [64, 3, 3, 3]
0.0041569504 0.0080072945 0.0054880953 0.005290332 0.003482371 0.0012291691 -0.00029369685 -0.002666315
-0.0029816295 0.00061100605 0.0013528047 -0.00019991853 0.0021624328 -0.0013862592 -0.0020221476 0.0027110144
0.0007316954 0.001070233 -0.002902507 -0.0021324104 -0.0023965486 0.0008204252 -0.00086717546 -0.0015925879
0.004037458 0.0041599944 0.004864854 0.0051445467 0.004307979 0.04097889 0.008666355 -0.04839695
-0.0072499383 0.057223026 -0.037434038 -0.01218206 -0.033527028 -0.06186219 -0.04965135 -0.019498123
-0.09603195 -0.07690845 0.03488304 -0.071973905 -0.06703373 0.040039767 0.055650763 0.07539361
0.020284005 -0.00426867 0.018740948 0.04704905 -0.020792566 -0.0215167 -0.028455 -0.11131761
-0.014895136 -0.08941601 -0.2226362 -0.12632665 -0.05624253 -0.18640976 -0.104186386 0.017294433
-0.0019404372 0.026409678 0.055205636 0.04203472 0.05049351 0.037870873 0.022823188 0.047517866
0.00537523 0.07592696 0.08100017 0.073553115 0.17651261 0.1596974 -0.004095206 0.0831667
0.09425944 -0.0028991364 -0.0153613975 0.007682298 -0.035258308 -0.075096786 -0.0051081823 0.028469415
0.024222044 0.055621568 0.03444704 -0.015574241 -0.014084205 -0.00043877805 -0.059947044 -0.0050171036
0.03591218 0.0166455 0.041516356 -0.0031181057 -0.022194277 -0.009139844 -0.044024415 -0.075810224
-0.028897941 -0.045740165 -0.055406906 -0.028771061 0.00044487708 0.00019661748 0.00010248984 -0.0003068061
0.0005175206 -0.0005339412 0.00042716772 -0.00035450823 -0.0010970182 -0.00059469044 -0.00063469104 -0.00020919315
-0.0006125593 0.00010538256 -0.00022490101 -0.0008209594 -0.0010071497 -0.00080354593 -0.0005088583 0.00052355713
0.0004622894 -0.00022615201 0.0005638594 0.00016884897 -0.00036232517 0.00055831746 0.0006643635 0.05214123
-0.048013713 0.06389176 -0.088280566 -0.16385671 -0.06324137 0.039459355 -0.032273713 0.055681515
0.08284142 -0.05357908 0.05688366 -0.037682995 -0.14185321 -0.045239434 0.03319889 -0.06349409
0.022974161 0.021407645 -0.08091198 0.02294164 -0.031795807 -0.09655598 -0.017781757 0.018996516
-0.04060265 0.023069391 0.06961257 0.12792559 0.059626624 0.090280205 0.06832724 0.05767737
0.0036872472 -0.10126941 0.015150284 0.02990046 -0.018989477 -0.036946554 -0.004644719 -0.1321747
-0.07948974 0.036988895 -0.13462843 -0.0014189966 0.005018595 -0.04759001 -0.047028136 -0.011608408
-0.10060946 -0.055543914 0.028615855 -0.09753432 0.0012607517 0.044414174 -0.06160773 0.060896162
-0.02667201 -0.14807995 -0.05567757 0.06595939 0.06458744 0.06476285 0.048973832 -0.036912017
0.09255871 -0.05128314 -0.15397727 -0.039837677 0.012873547 -0.002262575 0.02030333 0.015866367
-0.045849454 0.06083851 -0.011387403 -0.08909891 -0.013031619 0.049197797 0.050624162 0.04180186
-0.072529905 -0.10644151 -0.09847535 -0.060627278 -0.071672946 -0.07206774 -0.011529588 -0.020599622
-0.028804448 0.055508133 0.06078694 0.06764711 0.05103326 0.073086165 0.06423769 0.04989313
0.045545526 0.03209681 0.029330168 0.011449385 0.03930294 0.008038255 -0.006984299 0.0029314067
0.015798837 -0.0289451 -0.026301313 0.120867044 0.04669789 -0.09743263 0.060838927 -0.007361522
-0.28003198 0.13110839 0.059500735 -0.09703539 0.0056569353 0.029730164 0.028060837 -0.14417224
00000000: 0737 883b 0731 033c 7bd5 b33b 855a ad3b
00000010: 7e38 643b 121c a13a 53fb 99b9 58bd 2ebb
00000020: 7167 43bb ec2b 203a 9850 b13a 39a1 51b9
00000030: 9ab7 0d3b 24b3 b5ba 0286 04bb 46ab 313b
00000040: 3fcf 3f3a 0f47 8c3a fd37 3ebb e9bf 0bbb
00000050: 6a0f 1dbb ce11 573a 2953 63ba 62be d0ba
00000060: a74c 843b 9050 883b 5a69 9f3b 9693 a83b
00000070: f229 8d3b 7bd9 273d 54fd 0d3c e13b 46bd
00000080: e490 edbb b162 6a3d 6f54 19bd 4397 47bc
00000090: a353 09bd 3563 7dbd 375f 4bbd 87ba 9fbc
000000a0: 66ac c4bd 2d82 9dbd 85e1 0e3d 0e67 93bd
000000b0: fb48 89bd bd00 243d 0ef2 633d f767 9a3d
000000c0: a42a a63c 33e0 8bbb 9e86 993c 81b6 403d
000000d0: 2c55 aabc ca43 b0bc 761a e9bc 7dfa e3bd
000000e0: ba0a 74bc be1f b7bd befa 63be c65b 01be
000000f0: 915e 66bd 33e2 3ebe ac5f d5bd 0ead 8d3c
00000100: 4556 feba 1c59 d83c 4e1f 623d 992c 2c3d
00000110: 48d2 4e3d 7d1e 1b3d b2f7 ba3c 18a2 423d
00000120: b322 b03b 987f 9b3d 6be3 a53d 04a3 963d
00000130: b9bf 343e b787 233e 1431 86bb 4e53 aa3d
00000140: 180b c13d 70ff 3dbb 5fae 7bbc c9bb fb3b
00000150: 046b 10bd 58cc 99bd 8a62 a7bb b138 e93c
00000160: 4f6d c63c 71d3 633d 5718 0d3d 1a2b 7fbc
00000170: 70c1 66bc cb0b e6b9 088b 75bd 8466 a4bb
00000180: a618 133d 255c 883c 0e0d 2a3d 2259 4cbb
00000190: c6d0 b5bc 49bf 15bc f252 34bd 6442 9bbd
000001a0: 60bb ecbc 0a5a 3bbd 5af2 62bd 4ab1 ebbc
000001b0: 643e e939 1a2b 4e39 d0ef d638 d1da a0b9
000001c0: 38aa 073a 30f8 0bba 7bf5 df39 4add b9b9
000001d0: d3c9 8fba 00e5 1bba 6561 26ba dc5a 5bb9
000001e0: 2994 20ba d500 dd38 68d3 6bb9 a735 57ba
000001f0: 5602 84ba 0ea5 52ba e764 05ba 533f 093a
00000200: 6f5f f239 3823 6db9 f7cf 133a 0d0d 3139
00000210: 76f6 bdb9 0d5c 123a ae28 2e3a 0b92 553d
00000220: 07aa 44bd afd9 823d 71cc b4bd 0eca 27be
00000230: b184 81bd 22a0 213d 7131 04bd 4d12 643d
00000240: c3a8 a93d bd75 5bbd d7fe 683d 7c59 1abd
00000250: f841 11be fc4c 39bd 8ffb 073d 3109 82bd
00000260: 4f34 bc3c 165f af3c 2eb5 a5bd 1bf0 bb3c
00000270: 523c 02bd 24bf c5bd 0cab 91bc 959e 9b3c
00000280: f74e 26bd 05fc bc3c 0991 8e3d edfe 023e
00000290: 0c3b 743d d4e4 b83d 27ef 8b3d 1b3f 6c3d
000002a0: bea5 713b 5666 cfbd e638 783c cff1 f43c
000002b0: d28f 9bbc 4555 17bd ba32 98bb ce58 07be
000002c0: 84cb a2bd ab81 173d 09dc 09be a0fd b9ba
000002d0: 0773 a43b beed 42bd 93a0 40bd 3131 3ebc
000002e0: 550c cebd 0482 63bd cc6b ea3c 13c0 c7bd
000002f0: cf3f a53a a3eb 353d 6358 7cbd 416e 793d
00000300: 427f dabc 45a2 17be 2a0e 64bd b715 873d
00000310: 6b46 843d 63a2 843d c998 483d 0e31 17bd
00000320: 6c8f bd3d 450e 52bd 38ac 1dbe d52c 23bd
00000330: 92eb 523c b647 14bb 2b53 a63c 2ffa 813c
00000340: a3cc 3bbd cd31 793d 3b92 3abc 7d79 b6bd
00000350: 9282 55bc a183 493d 485b 4f3d 6d38 2b3d
00000360: 8f8a 94bd 02fe d9bd 72ad c9bd 4f54 78bd
00000370: 44c9 92bd 4098 93bd 99e6 3cbc 8ac0 a8bc
00000380: 4ef7 ebbc 7f5c 633d bafb 783d 918a 8a3d
00000390: 4008 513d 33ae 953d 0d8f 833d bd5c 4c3d
000003a0: f28d 3a3d f277 033d d245 f03c 3496 3b3c
000003b0: 1ffc 203d e3b2 033c 8cdc e4bb d81c 403b
000003c0: 906c 813c 461e edbc da75 d7bc 2489 f73d
000003d0: 4946 3f3d c28a c7bd 3d32 793d ec38 f1bb
000003e0: 5a60 8fbe 4741 063e 0bb7 733d 7eba c6bd
000003f0: d05d b93b ac8c f33c d7df e53c e3a1 13be

module.bn1.weight f4 [64]
0.0025483968 0.19018584 0.11878941 0.2101516 0.00030175436 0.36431772 0.23194458 0.25762388
0.18138693 0.15606798 0.1384549 0.12463228 0.19585125 0.14750662 0.10938175 0.12444519
0.09511591 0.09227162 0.18310809 0.104991384 0.10578204 0.13762057 0.10167924 0.071975425
0.13697882 0.10560783 0.17869134 0.10988943 0.11385774 0.14325282 0.04640624 0.1029335
0.17975502 0.12613879 0.14914204 0.11786694 0.053856704 0.13965322 0.14257456 0.13226661
0.14710103 0.08634251 0.075209126 0.11580199 0.24668474 0.2034575 0.17810813 0.0980166
0.12949213 0.15311866 0.1642448 0.06963201 0.10797656 0.07803055 0.09480337 0.14644541
0.14050743 0.1698416 0.18124051 0.13957135 0.16318157 0.13961963 0.112847775 0.20843671
00000000: 0103 273b 14c0 423e dd47 f33d fb31 573e
00000010: c934 9e39 da87 ba3e e182 6d3e 47e7 833e
00000020: 7fbd 393e 49d0 1f3e 1fc7 0d3e 353f ff3d
00000030: 3b8d 483e fa0b 173e 8a03 e03d 1fdd fe3d
00000040: 21cc c23d e7f8 bc3d b080 3b3e b905 d73d
00000050: 41a4 d83d 68ec 0c3e 353d d03d da67 933d
00000060: 2d44 0c3e eb48 d83d ddfa 363e b60d e13d
00000070: 3f2e e93d deb0 123e 7814 3e3d cdce d23d
00000080: b311 383e 872a 013e b1b8 183e 3964 f13d
00000090: d998 5c3d 4101 0f3e 11ff 113e e670 073e
000000a0: a7a1 163e 58d4 b03d 3e07 9a3d 9829 ed3d
000000b0: ed9a 7c3e 2a57 503e fa61 363e edbc c83d
000000c0: 9699 043e 23cb 1c3e ca2f 283e 3a9b 8e3d
000000d0: d122 dd3d 7bce 9f3d 4528 c23d c9f5 153e
000000e0: 2ee1 0f3e f5ea 2d3e 1d97 393e cbeb 0e3e
000000f0: 1219 273e 73f8 0e3e bc1c e73d 6f70 553e

module.bn1.bias f4 [64]
-0.007018921 -0.114343695 0.06357963 -0.16400833 -0.00094657537 -0.3979424 -0.13381812 -0.14915548
-0.15600479 0.10143592 0.1976461 0.05881158 -0.0638521 0.07093865 -0.07900876 0.08451457
0.031621676 -0.025174715 -0.19920768 0.118856594 0.086235985 -0.08761588 0.058783043 0.091021195
0.025568532 -0.063760184 -0.08890124 0.043439016 -0.04264933 -0.081098564 0.005535022 -0.05502499
-0.076283574 -0.085890934 -0.10047911 0.0037861157 -0.062225416 -0.02056499 -0.01512565 -0.08416927
-0.08765996 0.03412313 0.021268876 0.042191997 -0.15217075 -0.122764945 0.035249446 0.07531773
0.04491884 0.04246538 0.090643585 -0.013618771 0.017886803 0.058294103 0.022377932 -0.172012
-0.03734159 -0.0517903 -0.088432685 -0.03132379 -0.06031321 0.06354516 -0.05681774 0.068566725
00000000: fafe e5bb 072d eabd 0936 823d cdf1 27be
00000010: 9923 78ba 1bbf cbbe 9e07 09be 37bc 18be
00000020: b8bf 1fbe a3bd cf3d bd63 4a3e 69e4 703d
00000030: e4c4 82bd 4848 913d 58cf a1bd fa15 ad3d
00000040: bb85 013d 343b cebc 19fd 4bbe 166b f33d
00000050: 7e9c b03d f46f b3bd 7dc6 703d 5269 ba3d
00000060: 1975 d13c b394 82bd da11 b6bd 1ced 313d
00000070: 10b1 2ebd 0117 a6bd 215f b53b e261 61bd
00000080: 903a 9cbd 96e7 afbd fec7 cdbd 7b20 783b
00000090: 14e0 7ebd e977 a8bc 93d1 77bc f060 acbd
000000a0: 1187 b3bd b2c4 0b3d 113c ae3c 84d1 2c3d
000000b0: a6d2 1bbe 306c fbbd b961 103d 2f40 9a3d
000000c0: d1fc 373d 2ef0 2d3d 58a3 b93d 4421 5fbc
000000d0: 5887 923c ccc5 6e3d ed51 b73c ea23 30be
000000e0: 7ff3 18bd 1122 54bd 321c b5bd 604d 00bd
000000f0: fc0a 77bd f723 823d b8b9 68bd b66c 8c3d

module.bn1.running_mean f4 [64]
-0.008640171 0.081888765 -0.01772289 0.094359435 0.0010031188 0.18128945 0.0925404 0.047599517
-0.0033386736 0.012608374 0.00056883064 0.00805599 0.04583135 0.03964102 0.002499304 -0.025084035
0.0044941297 -0.029761028 -0.0827588 0.014493435 -0.026596839 -0.06449565 -0.016273154 0.010803974
0.013723402 -0.008443394 0.046884716 -0.016648762 -0.04377047 0.048084714 0.009407247 0.004884896
-0.0017801063 -0.042467944 -0.012666455 -0.006050811 -0.019182155 -0.0010640955 -0.007910177 0.0033668661
-0.050373275 -0.010745124 -0.09163841 -0.011477556 0.022923004 0.06255352 -0.015077307 0.016984163
-0.0143295145 -0.008647045 -0.03888285 0.024168676 0.07120192 0.02262716 0.019959848 0.00044039154
0.04645513 0.0016761429 0.051157672 0.083626956 0.06591649 -0.046314783 0.003560346 -0.023038859
00000000: 818f 0dbc 4cb5 a73d 982f 91bc 853f c13d
00000010: 157b 833a f1a3 393e d285 bd3d b6f7 423d
00000020: a6cd 5abb 5a93 4e3c 941d 153a 45fd 033c
00000030: a7b9 3b3d 9f5e 223d 5dcb 233b 097d cdbc
00000040: 7e43 933b 66cd f3bc 727d a9bd df75 6d3c
00000050: 9de1 d9bc 4c16 84bd 474f 85bc 2703 313c
00000060: 1fd8 603c 2956 0abc 300a 403d fc62 88bc
00000070: aa48 33bd 7af4 443d db20 1a3c 7a11 a03b
00000080: 7552 e9ba def2 2dbd f686 4fbc e245 c6bb
00000090: e523 9dbc 1f79 8bba b099 01bc a4a6 5c3b
000000a0: 3554 4ebd 510c 30bc ebac bbbd 5c0c 3cbc
000000b0: 06c9 bb3c 0f1c 803d cf06 77bc 5f22 8b3c
000000c0: 57c6 6abc 56ac 0dbc a043 1fbd 63fd c53c
000000d0: 50d2 913d 985c b93c d682 a33c 5ae4 e639
000000e0: bc47 3e3d 06b2 db3a b58a 513d 9c44 ab3d
000000f0: 3aff 863d 92b4 3dbd b254 693b fdbb bcbc

module.bn1.running_var f4 [64]
0.0012980492 0.13760503 0.41845226 0.18318298 1.9831428e-05 0.6007862 0.3037818 0.1407159
0.065356694 0.1531231 0.038625572 0.07379154 0.22438957 0.41786712 0.022574838 0.5462855
0.039801706 0.06621087 0.11611244 0.5520848 0.10169981 0.100166515 0.04166385 0.03171979
0.05601962 0.010110539 0.18067507 0.14949389 0.058784887 0.06816118 0.01376612 0.008482591
0.049235426 0.08122185 0.06230674 0.37396848 0.012791116 0.15152578 0.037696246 0.020296449
0.12610216 0.28038657 0.14583254 0.21362115 0.15984763 0.14980038 0.21590056 0.43870777
0.07471392 0.22384118 0.180868 0.025639422 0.10746019 0.2682875 0.2013349 0.09037528
0.058804624 0.0684239 0.17688571 0.15632127 0.12675598 0.33561027 0.011061212 0.1999774
00000000: 4e23 aa3a 55e8 0c3e 603f d63e 5294 3b3e
00000010: ab5b a637 20cd 193f 4a89 9b3e d417 103e
00000020: bbd9 853d 4dcc 1c3e d935 1e3d 0520 973d
00000030: 61c6 653e aef2 d53e deee b83c 5ed9 0b3f
00000040: 1d07 233d 9199 873d 5ccc ed3d 6e55 0d3f
00000050: fd47 d03d 1a24 cd3d b7a7 2a3d 9cec 013d
00000060: d474 653d ada6 253c e302 393e ed14 193e
00000070: 6cc8 703d 1798 8b3d 4b8b 613c 91fa 0a3c
00000080: 16ab 493d a457 a63d 5a35 7f3d cc78 bf3e
00000090: d491 513c 9329 1b3e 6167 1a3d bd44 a63c
000000a0: ed20 013e d48e 8f3e 2055 153e 81bf 5a3e
000000b0: 19af 233e 4565 193e 0915 5d3e 4e9e e03e
000000c0: 9d03 993d 9f36 653e 7635 393e c409 d23c
000000d0: 1714 dc3d fb5c 893e bc2a 4e3e ad16 b93d
000000e0: 1edd 703d d421 8c3d 8721 353e af12 203e
000000f0: 52cc 013e 1cd5 ab3e 163a 353c e0c6 4c3e

module.layer1.0.conv1.weight f4 [16, 64, 3, 3]
0.00051930314 0.0016035413 0.0014381827 0.0003900306 0.0009348595 0.00068555545 -0.00046914426 -0.0013254115
4.0876057e-05 -0.009355047 0.005671275 -0.010939957 0.030930359 0.02598411 0.036278907 0.019046111
-0.018785715 0.012511681 -0.018027702 -0.013715993 0.013275044 -0.039009336 -0.035967324 -0.007253151
-0.007613219 0.002261355 0.02689378 -0.004492951 -0.005335819 0.008858909 -0.022794096 -0.00538325
0.019593298 -0.024658155 -0.008466022 -7.825017e-05 0.00021334243 3.961926e-05 0.00014382105 0.00025855287
6.8405217e-07 -0.00017918424 0.000112812966 -6.934927e-06 -0.00019458972 -0.01175363 -0.010929213 -0.030847784
-0.04698022 -0.032495014 -0.031620726 -0.013499089 -0.041528746 -0.046287023 -0.06736961 0.0031799336
0.038880635 -0.022403717 0.0020760226 0.023210602 0.016936297 0.017266901 0.014655931 -0.007008315
0.0044768113 0.01747182 -0.031042222 -0.025715005 0.002676454 -0.016032793 -0.006098553 0.0072759134
0.008136602 -0.0086960895 -0.02929354 -0.0017855187 -0.017795619 -0.028190726 0.00196182 -0.0057928376
-0.004335706 -0.066165425 -0.021128057 0.009439371 0.036754236 0.04076215 0.025379369 -0.0060954727
-0.040926572 -0.09494483 0.03169283 0.07713401 -0.00025084446 0.028628733 -0.11247719 -0.03974356
-0.076590575 0.10000327 -0.025848513 0.07535621 0.0006034179 0.0034593209 0.009722124 -0.019506847
-0.014371644 -0.08789439 -0.030532746 -0.002904885 -0.014987225 -0.024804426 -0.028685758 -0.000606513
-0.022893999 0.02009313 0.028247422 -0.04774109 0.009759305 -0.03280967 0.032590915 -0.02895604
-0.02974473 -8.0762e-06 -0.028595036 0.017171983 0.05029268 2.4082638e-05 0.007969237 -0.0070717
0.013125033 0.002973361 0.02354857 0.0036343713 -0.02652206 0.0015756022 0.011096681 -0.02308681
0.008886931 -0.015271092 -0.008375158 0.0050312597 -0.046266735 0.031641405 0.023678113 0.00560053
-0.021527803 0.012690567 0.070856184 -0.014993456 0.0055079674 0.0045472975 -0.016706012 -0.052802127
-0.04649478 0.009879043 -0.010468788 -0.023406304 -0.013519307 -0.003581497 -0.010979049 -0.014679737
0.017771784 0.008615105 -0.033756196 -0.027996063 -0.01021324 -0.015198896 -0.016048597 -0.0087410025
-0.017489074 0.021336721 0.02401253 0.018738123 -0.0142266145 -0.032382946 0.0077313716 0.025494946
0.012240374 0.019084701 0.002110579 -0.008487266 0.097324334 0.0032400785 -0.06432395 0.085329026
-0.019868411 -0.09224083 0.044963866 0.0052606957 -0.07105577 -0.024502449 0.00068324833 0.027012432
-0.018719263 0.0031465068 0.03689716 -0.004336029 0.025094403 0.04736232 -0.082174234 -0.007487436
-0.0059382 0.023204422 -0.029484037 0.039852157 -0.0097141 0.059220817 0.017690958 -0.043990854
0.0028542657 0.033343676 -0.02434994 0.04348899 0.026614565 0.02899569 -0.0144005045 0.008660951
0.0045508267 -0.010993781 0.015778752 0.013283644 -0.0046995287 0.012116091 -0.06625628 -0.057798486
-0.028014766 -0.017647492 0.022652615 0.03139789 -0.02867869 -0.0029325518 -0.005675697 -0.033936314
-0.012139275 0.020223184 -0.017068397 0.007171307 0.0011787564 -0.058345534 -0.018726919 -0.0009463557
-0.01338666 -0.0050987587 0.00831596 -0.004122014 0.001897467 -0.0033785347 -0.0002456355 0.0061191325
-0.0007799366 -0.012380642 0.0077014877 -0.0422616 0.0044799633 0.0050625466 0.0078313 -0.009293082
00000000: d821 083a eb2d d23a 6781 bc3a 057d cc39
00000010: 5c11 753a d9b6 333a 7af7 f5b9 6eb9 adba
00000020: 5572 2b38 e945 19bc 1ad6 b93b 813d 33bc
00000030: aa61 fd3c a1dc d43c 3199 143d 9706 9c3c
00000040: 80e4 99bc cbfd 4c3c d5ae 93bc 0bb9 60bc
00000050: 927f 593c 41c8 1fbd 7952 13bd d7ab edbb
00000060: 4f78 f9bb 3e33 143b 5850 dc3c 9b39 93bb
00000070: 18d8 aebb f524 113c afba babc f965 b0bb
00000080: 2082 a03c e6ff c9bc 12b5 0abc 3d1a a4b8
00000090: acb4 5f39 db2c 2638 abce 1639 618e 8739
000000a0: b59f 3735 67e3 3bb9 0096 ec38 92b2 e8b6
000000b0: c80a 4cb9 4c92 40bc 7110 33bc 7eb4 fcbc
000000c0: 556e 40bd 7e19 05bd bc84 01bd 482b 5dbc
000000d0: 0c1a 2abd 7697 3dbd 14f9 89bd 6f66 503b
000000e0: 4d41 1f3d 0088 b7bc e10d 083b 2924 be3c
000000f0: fdbd 8a3c 5173 8d3c 6e1f 703c 02a6 e5bb
00000100: 37b2 923b 1021 8f3c 424c febc 46a8 d2bc
00000110: 7267 2f3b 3457 83bc 5fd6 c7bb c96a ee3b
00000120: 624f 053c 0b7a 0ebc 02f9 efbc 1108 eaba
00000130: 1ec8 91bc 3df0 e6bc e191 003b d8d1 bdbb
00000140: 8a12 8ebb bd81 87bd bf14 adbc 97a7 1a3c
00000150: 9c8b 163d 36f6 263d 65e8 cf3c 88bc c7bb
00000160: 9fa2 27bd 6f72 c2bd 57d0 013d 70f8 9d3d
00000170: c683 83b9 ce86 ea3c 715a e6bd 25ca 22bd
00000180: 85db 9cbd 84ce cc3d 43c0 d3bc 5b54 9a3d
00000190: b12e 1e3a c6b5 623b 8b49 1f3c d3cc 9fbc
000001a0: 0b77 6bbc f901 b4bd cf1f fabc e25f 3ebb
000001b0: fa8c 75bc a732 cbbc 65fe eabc 66fe 1eba
000001c0: 328c bbbc 599a a43c 2367 e73c 298c 43bd
000001d0: 7ee5 1f3c 6f63 06bd 0d7e 053d 3835 edbc
000001e0: 38ab f3bc 047f 07b7 2340 eabc 42ac 8c3c
000001f0: b2ff 4d3d 1205 ca37 6791 023c b8b9 e7bb
00000200: 610a 573c b8dc 423b eee8 c03c a22e 6e3b
00000210: cb44 d9bc 7084 ce3a dace 353c 8d20 bdbc
00000220: 7e9a 113c 9a33 7abc f537 09bc 44dd a43b
00000230: 3082 3dbd 6b9a 013d 9af8 c13c a784 b73b
00000240: 135b b0bc 19ec 4f3c 0c1d 913d 1da7 75bc
00000250: 2e7c b43b 7f01 953b 0cdb 88bc 0b47 58bd
00000260: 4f71 3ebd b6db 213c 4885 2bbc 94be bfbc
00000270: 1580 5dbc 8cb7 6abb 78e1 33bc 4883 70bc
00000280: 2296 913c 5f26 0d3c f043 0abd 0058 e5bc
00000290: 6f55 27bc ca04 79bc 5978 83bc 6c36 0fbc
000002a0: 3f45 8fbc 59ca ae3c edb5 c43c b180 993c
000002b0: bf16 69bc fba3 04bd 7257 fd3b c7da d03c
000002c0: da8b 483c 8557 9c3c a451 0a3b 2c0e 0bbc
000002d0: fb51 c73d 7f57 543b 46bc 83bd fcc0 ae3d
000002e0: 14c3 a2bc c3e8 bcbd 082c 383d ea61 ac3b
000002f0: b085 91bd 5cb9 c8bc 051c 333a 2d49 dd3c
00000300: 2459 99bc a035 4e3b 7a21 173d 3f15 8ebb
00000310: c792 cd3c fefe 413d f74a a8bd 2a59 f5bb
00000320: 3b95 c2bb 3317 be3c 8288 f1bc 043c 233d
00000330: e327 1fbc 8791 723d a1ec 903c c12f 34bd
00000340: a20e 3b3b 6193 083d 8679 c7bc 8321 323d
00000350: ca06 da3c 5f88 ed3c 18f0 6bbc a9e6 0d3c
00000360: 1a1f 953b 421f 34bc 7142 813c a4a3 593c
00000370: 81fe 99bb 9282 463c 5fb1 87bd 1bbe 6cbd
00000380: 397f e5bc 7991 90bc fa91 b93c 139b 003d
00000390: 92ef eabc 0e30 40bb 32fb b9bb ce00 0bbd
000003a0: cfe3 46bc 17ab a53c 06d3 8bbc 49fd ea3b
000003b0: 8080 9a3a bafb 6ebd 3269 99bc db14 78ba
000003c0: b953 5bbc 7d13 a7bb aa3f 083c f611 87bb
000003d0: 6db4 f83a 686a 5dbb a4c8 80b9 0183 c83b
000003e0: a974 4cba 2dd8 4abc c35c fc3b 801a 2dbd
000003f0: a8cc 923b b8e3 a53b da4e 003c 0342 18bc

module.layer1.0.bn1.weight f4 [16]
0.2089039 0.24747607 0.22198682 0.21608031 0.27377763 0.29851985 0.19528562 0.21328634
0.20820497 0.31251237 0.19281039 0.23380879 0.24206673 0.25992233 0.2594208 0.23275638
00000000: e7ea 553e 5e6a 7d3e 8350 633e 2844 5d3e
00000010: 952c 8c3e 98d7 983e f4f8 473e bc67 5a3e
00000020: af33 553e 9f01 a03e 1670 453e 926b 6f3e
00000030: 57e0 773e 8a14 853e ced2 843e b057 6e3e

module.layer1.0.bn1.bias f4 [16]
0.0938505 0.08196972 0.051470075 -0.1094902 -0.08515432 -0.19490415 -0.0057953433 -0.07919822
0.051085304 0.15875351 -0.07434152 0.104702644 -0.12778518 -0.082836024 -0.104856946 0.0776119
00000000: b134 c03d bedf a73d 49d2 523d 663c e0bd
00000010: 6365 aebd f494 47be dde6 bdbb ad32 a2bd
00000020: d33e 513d 4890 223e 5e40 98bd 576e d63d
00000030: 1eda 02be efa5 a9bd 3dbf d6bd fdf2 9e3d

module.layer1.0.bn1.running_mean f4 [16]
-0.06352837 -0.07333805 -0.18572758 -0.07077079 -0.014217768 0.021070872 -0.073749885 -0.040212434
-0.1731041 -0.086712696 -0.114637785 -0.13009168 -0.115114644 -0.0992448 -0.15646967 -0.08009096
00000000: 291b 82bd 4232 96bd 5f2f 3ebe 47f0 90bd
00000010: a4f1 68bc d29c ac3c 2e0a 97bd cbb5 24bd
00000020: 3442 31be 6d96 b1bd 37c7 eabd c136 05be
00000030: 3ac1 ebbd dc40 cbbd 9639 20be bb06 a4bd

module.layer1.0.bn1.running_var f4 [16]
0.01039125 0.009404676 0.02235158 0.007910732 0.010040934 0.0064044716 0.010404004 0.0077913613
0.019866662 0.02208445 0.010718819 0.021155715 0.012379521 0.011551459 0.014501209 0.014872382
00000000: 1040 2a3c 1216 1a3c a91a b73c 049c 013c
00000010: bb82 243c 9adc d13b 8e75 2a3c ad4e ff3b
00000020: 69bf a23c 73ea b43c fc9d 2f3c c04e ad3c
00000030: 79d3 4a3c 5542 3d3c 7b96 6d3c 4bab 733c

module.layer1.0.conv2.weight f4 [16, 16, 3, 3]
-0.0949242 0.1004072 -0.012820255 0.039271638 -0.060046583 0.06267827 -0.049161132 0.02609619
0.028474133 0.041110866 -0.16363554 0.12889649 -0.17913459 0.14146839 0.05626609 0.059535976
0.067932874 -0.07248831 -0.019767035 0.043408595 0.030636484 0.10539821 -0.037012007 -0.04009298
-0.019662566 -0.06299613 -0.018613083 0.07025997 0.005524206 0.004998547 0.022636112 0.008681524
0.0043844557 -0.03916697 -0.022575518 0.04976941 0.002439098 -0.034243144 0.024780722 0.013655652
0.08304954 0.020010933 0.034366373 0.028238563 -0.032674704 -0.06828547 -0.061489798 -0.10729043
0.022844283 -0.013731638 -0.051485505 -0.036624018 -0.05184493 -0.013062654 0.03764522 0.08674287
0.05698237 0.012343916 -0.059252635 -0.03675488 0.010980905 -0.093168415 -0.0162215 0.047129195
-0.002958557 -0.023740435 0.009587709 -0.08950382 -0.041271523 -0.039629027 -0.060040526 -0.004374481
0.10635958 0.007466567 -0.06817622 -0.13385749 -0.11074913 -0.008786402 -0.043768715 0.03322838
0.086041905 -0.1007013 0.17294979 -0.07630951 0.13366432 -0.16951028 -0.013997681 -0.0322163
0.01001628 0.06602529 0.010607833 0.027475948 0.00043732428 0.009435948 0.009035234 0.01877188
0.031025168 -0.011474335 -0.045561656 0.05581743 -0.20716943 -0.046919726 -0.07780931 0.079705246
0.05554605 0.008870695 0.009002822 0.040566735 -0.019713366 0.03919712 -0.024670836 -0.04230502
0.005085612 0.0073928833 -0.046609756 -0.01797502 0.0037363954 0.039011333 0.049893167 0.021495176
0.013161866 0.043241315 -0.0061501134 0.043142207 0.008849401 -0.053219073 0.04106121 0.056811713
0.027580023 -0.004648343 0.04304888 0.005081761 0.06967513 -0.02396468 0.012091109 -0.04050612
-0.19252293 -0.035085835 0.0113053145 0.0067848773 0.080550544 0.05917022 -0.0066224933 -0.015181541
-0.0052239527 -0.0079212105 0.057038333 -0.021074345 -0.024722146 0.0460292 -0.024269488 -0.052632082
0.007457357 0.02252566 0.026108894 0.046384357 0.013828856 -0.005714701 0.020194335 -0.04631704
-0.048223577 -0.015110651 0.04613444 0.021557871 -0.013010974 0.024909304 0.034989778 0.016573936
0.013462327 0.025571072 0.033722017 0.0010563824 0.025484305 0.022760436 0.011428373 0.02821868
-0.007947543 -0.004085473 -0.0007414602 -0.046980623 -0.06020188 -0.032408886 -0.008205905 -0.00802079
-0.028337188 -0.04021175 -0.05779652 -0.086511314 -0.04693952 -0.03062405 0.0039460156 0.044977613
0.009933456 0.044819254 0.0981945 -0.03929584 0.0024269563 0.05779975 -0.045331914 0.013847249
0.013641895 0.021992294 0.053451333 0.0013612744 -0.0073164916 0.013928846 -0.031893894 0.014875884
0.013501263 -0.007960706 -0.012124772 0.027145922 0.015946858 -0.0103539 0.032886866 0.048295274
-0.04100473 -0.026100647 -0.012986261 -0.030653613 0.006659769 0.061591703 -0.050145704 -0.039626457
0.042409953 -0.057365257 -0.016866853 0.0002691561 -0.028653402 0.0048108287 -0.007764619 -0.00031278178
-0.017473606 -0.009915516 -0.04500497 -0.026171338 0.0005967315 -0.047500364 -0.011965761 0.0015901413
-0.030002141 -0.023900865 -0.003723209 0.016009541 0.0072577335 0.043871626 -0.007400299 -0.031988375
0.028081853 0.041880935 0.045388434 0.034427755 0.046197455 0.027997462 0.036901332 -0.008449619
00000000: 9e67 c2bd 4aa2 cd3d 0c0c 52bc 4cdb 203d
00000010: 68f3 75bd 775d 803d 2f5d 49bd adc7 d53c
00000020: 9642 e93c de63 283d 1390 27be 71fd 033e
00000030: 0f6f 37be 17dd 103e 4677 663d ffdb 733d
00000040: 6420 8b3d c074 94bd 7aee a1bc 36cd 313d
00000050: 5df9 fa3c 04db d73d e799 17bd 8938 24bd
00000060: 6413 a1bc 1d04 81bd 777a 98bc 76e4 8f3d
00000070: 6604 b53b daca a33b 5e6f b93c f33c 0e3c
00000080: 7bab 8f3b 8b6d 20bd 4bf0 b8bc 02db 4b3d
00000090: 46d9 1f3b 8a42 0cbd f100 cb3c f5bb 5f3c
000000a0: e115 aa3d f8ed a33c c1c3 0c3d 8f54 e73c
000000b0: e9d5 05bd 41d9 8bbd badc 7bbd 16bb dbbd
000000c0: ef23 bb3c aafa 60bc 77e2 52bd 1103 16bd
000000d0: 595b 54bd be04 56bc e031 1a3d 3fa6 b13d
000000e0: 5866 693d 233e 4a3c e4b2 72bd 498c 16bd
000000f0: 41e9 333c 15cf bebd f3e2 84bc 8b0a 413d
00000100: 5ae4 41bb 4d7b c2bc c415 1d3c c74d b7bd
00000110: 540c 29bd 0c52 22bd 0eed 75bd ce57 8fbb
00000120: 0dd3 d93d 1baa f43b f99f 8bbd f011 09be
00000130: 71d0 e2bd d7f4 0fbc d346 33bd 7b1a 083d
00000140: bd36 b03d 7c3c cebd c019 313e 2948 9cbd
00000150: 4ddf 083e 1a94 2dbe 8856 65bc 3df5 03bd
00000160: 531b 243c 4438 873d 7acc 2d3c 3d15 e13c
00000170: ac48 e539 3c99 1a3c 8508 143c 7cc7 993c
00000180: 7e28 fe3c d9fe 3bbc dc9e 3abd d1a0 643d
00000190: 3924 54be e62e 40bd 7d5a 9fbd 813c a33d
000001a0: 4184 633d 6456 113c 9380 133c 4e29 263d
000001b0: ed7d a1bc 298d 203d 7e1a cabc 0748 2dbd
000001c0: 35a5 a63b 0040 f23b dfe9 3ebd 5940 93bc
000001d0: 50de 743b 59ca 1f3d c75c 4c3d a716 b03c
000001e0: dea4 573c ce1d 313d e486 c9bb e2b5 303d
000001f0: 14fd 103c 3efc 59bd cd2f 283d 66b3 683d
00000200: 80ef e13c 2151 98bb 0654 303d e784 a63b
00000210: d6b1 8e3d 9451 c4bc c919 463c bfe9 25bd
00000220: bb24 45be 2ab6 0fbd ed39 393c ad53 de3b
00000230: aff7 a43d 795c 723d 8001 d9bb 00bc 78bc
00000240: b12d abbb f7c7 01bc 07a1 693d 1ba4 acbc
00000250: 1986 cabc 1d89 3c3d ced0 c6bc bd94 57bd
00000260: d85c f43b bc87 b83c 52e2 d53c 86fd 3d3d
00000270: 6d92 623c 6342 bbbb 976e a53c f0b6 3dbd
00000280: 1686 45bd aa92 77bc 77f7 3c3d 229a b03c
00000290: fb2b 55bc 990e cc3c 7151 0f3d 10c6 873c
000002a0: 1891 5c3c 6d7a d13c 1920 0a3d 5076 8a3a
000002b0: 76c4 d03c 1874 ba3c 123e 3b3c dc2a e73c
000002c0: 6936 02bc 6edf 85bb 8d5e 42ba c16e 40bd
000002d0: 3f96 76bd 2ebf 04bd 0f72 06bc a269 03bc
000002e0: 6423 e8bc 13b5 24bd 0bbc 6cbd d82c b1bd
000002f0: a743 40bd 4adf fabc 944d 813b 723a 383d
00000300: efbf 223c 6594 373d 331a c93d adf4 20bd
00000310: 920d 1f3b 6ebf 6c3d f5ad 39bd 92df 623c
00000320: 4182 5f3c 2f29 b43c c9ef 5a3d ca6c b23a
00000330: 2ebf efbb d135 643c 2ca3 02bd fbb9 733c
00000340: 6734 5d3c 9f6d 02bc fba6 46bc 2061 de3c
00000350: fca2 823c 67a3 29bc 61b4 063d 44d1 453d
00000360: 93f4 27bd 06d1 d5bc 54c4 54bc 491d fbbc
00000370: 313a da3b 9547 7c3d 9565 4dbd 5a4f 22bd
00000380: 0fb6 2d3d d5f7 6abd 5b2c 8abc 851d 8d39
00000390: 8aba eabc 28a4 9d3b 586e febb dcfc a3b9
000003a0: cf24 8fbc b074 22bc 2257 38bd 4665 d6bc
000003b0: f96d 1c3a be8f 42bd 0a0c 44bc 4a6c d03a
000003c0: 0dc7 f5bc bfcb c3bc 1501 74bb 7126 833c
000003d0: 48d2 ed3b bcb2 333d 357e f2bb 3e06 03bd
000003e0: ea0b e63c 588b 2b3d 39e9 393d 1e04 0d3d
000003f0: 8b39 3d3d ef5a e53c da25 173d 4570 0abc

module.layer1.0.bn2.weight f4 [16]
0.37665823 0.11712153 0.27620393 0.24969007 0.18310307 0.28040382 0.4569948 0.1629049
0.3196256 0.40736327 0.38813347 0.34894234 0.23927628 0.23550585 0.29704815 0.4318291
00000000: 59d9 c03e 6add ef3d 9a6a 8d3e c1ae 7f3e
00000010: 5f7f 3b3e 1791 8f3e 39fb e93e 8bd0 263e
00000020: f7a5 a33e eb91 d03e 6eb9 c63e 92a8 b23e
00000030: d704 753e 7228 713e b216 983e b418 dd3e

module.layer1.0.bn2.bias f4 [16]
-0.037707895 0.12754086 -0.029479528 -0.03190216 0.08563458 -0.031488765 -0.008168127 0.049475744
-0.0076957494 -0.022179263 -0.01243698 -0.027355952 0.0096236905 0.0746762 -0.055806156 -0.03799534
00000000: 9873 1abd 129a 023e 0d7f f1bc d7ab 02bd
00000010: 2f61 af3d 5dfa 00bd 9cd3 05bc 14a7 4a3d
00000020: a02c fcbb 49b1 b5bc 7ac4 4bbc 9719 e0bc
00000030: afac 1d3c d6ef 983d ff94 64bd 00a1 1bbd

module.layer1.0.bn2.running_mean f4 [16]
-0.031635243 0.047077246 -0.020038282 0.08809555 -0.12035138 -0.05252894 -0.02917677 -0.05405052
0.05899406 -0.019599486 -0.037264906 -0.042725466 -0.0056089154 0.05269028 0.012718494 -0.04826738
00000000: f593 01bd 12d4 403d 5327 a4bc 716b b43d
00000010: c97a f6bd 9628 57bd 1f04 efbc 1464 5dbd
00000020: c1a3 713d 1a8f a0bc 16a3 18bd e600 2fbd
00000030: feca b7bb c3d1 573d 3b61 503c 04b4 45bd

module.layer1.0.bn2.running_var f4 [16]
0.015961824 0.0046500405 0.008342156 0.0052478304 0.009070408 0.0061519267 0.040072095 0.0040620286
0.011802158 0.019790057 0.025794543 0.016261213 0.0053735734 0.005720166 0.0068835467 0.023178361
00000000: 5fc2 823c 5e5f 983b 8aad 083c fef5 ab3b
00000010: 0c9c 143c 1a96 c93b a322 243d c41a 853b
00000020: d75d 413c c21e a23c 144f d33c 3c36 853c
00000030: cd14 b03b 3b70 bb3b 608f e13b 8ce0 bd3c

module.layer1.0.shortcut.0.weight f4 [16, 64, 1, 1]
-0.00223505 -0.0455253 -0.027186576 0.002279306 -5.6535777e-05 0.0001695949 -0.058613054 -0.042799983
-0.011505896 -0.04071527 0.01784954 0.054632727 -0.051329847 -0.013935775 0.020493852 -0.022422
-0.019353133 0.012773252 0.03596103 0.06060993 0.01694804 0.02895216 -0.014866746 -0.059072148
-0.015896473 -0.024741733 -0.039666604 -0.0674895 -0.042110577 -0.022873769 0.023372682 -0.011097218
0.055368245 0.0220798 -0.017635105 -0.13832346 -0.007021205 0.020658636 -0.061219756 -0.028164618
-0.016278554 0.037202314 -0.010957866 0.054519117 -0.01827483 -0.05598685 -0.034200393 -0.013852072
0.010596132 -0.04779068 -0.029893268 -0.00091814465 -0.0024426687 -0.014785974 -0.041135848 0.01087265
-0.02380738 -0.02043056 -0.05493175 -0.013373976 -0.03400846 -0.0109023545 -0.021033764 -0.0325826
0.0015585471 -0.009814054 0.24237262 -0.070371784 0.0010835518 -0.03631918 -0.0029988124 -0.05897915
-0.1470714 0.0140296975 -0.018918604 0.04162851 -0.022003079 0.0062156413 -0.019266907 -0.020450955
0.02056241 0.0035831118 0.011937442 -0.112135254 0.05628144 0.12557496 -0.016014036 -0.031676125
0.017206572 0.040861633 -0.07692812 0.050051033 0.04758386 0.033439644 0.019871652 0.023515893
0.03397733 -0.007252794 0.080713816 0.08958898 -0.008858652 0.035870623 0.016750097 -0.011951312
-0.0003631732 -0.053414192 0.13602957 0.029861888 -0.020276798 -0.012386432 0.025328178 -0.044209134
0.00281291 -0.031230545 -0.0041434253 0.028565452 -0.038908556 -0.049616598 0.06261646 0.039327383
-0.030488485 -0.00656698 -0.004415954 -0.042579453 -0.059887078 -0.0019931465 0.024463866 -0.013700112
0.0002694867 -0.0044669197 -0.007761405 0.011083505 -0.0002683571 0.0028291994 -0.0396063 -0.03164278
-0.056476373 0.06057598 0.03043927 -0.04542152 -0.029253319 0.14592114 0.0042258836 0.11641286
0.023133906 0.00038213315 0.0052759955 -0.0016759982 -0.042251736 0.054800484 0.040039565 0.019554123
0.055002734 0.01486381 0.021156413 -0.06900886 0.039988015 -0.00848717 -0.0117717795 -0.0043449015
0.038571313 -0.023973778 -0.02176813 0.010939175 0.0073687225 -0.06926539 0.05293376 0.044292867
-0.065450445 -0.009039835 -0.07591535 0.08486738 -0.017656213 -0.035172895 -0.06256496 -0.13937938
0.056829065 -0.030066906 0.034837887 -0.01747305 -0.008457346 -0.09358435 -0.0641766 0.023626644
-0.047022913 0.012907943 0.013158928 -0.01196629 -0.049124382 -0.10552998 0.03649439 -0.023480777
0.0039425516 0.13231194 -0.027354058 0.09532347 0.00020489149 0.22504523 0.0036256295 0.039432094
-0.03263544 -0.05517987 -0.012195601 -0.0028164417 0.020129425 -0.009126463 -0.025089312 0.0086430805
-0.02405333 -0.054108292 0.008142083 0.0362507 -0.040725645 0.052455194 0.04208862 0.02860052
0.045045286 0.023553485 0.055034745 0.007911127 0.02639019 0.006106612 0.0077932356 0.017963521
-0.0072765965 -0.017525388 0.010422296 0.035046373 -0.009832577 -0.023205554 0.08029589 0.027158039
-0.044152785 0.032789793 0.056930896 0.021258937 0.043451354 0.04588866 0.033583418 0.015588038
0.031473525 0.0040151915 0.029609438 0.00315257 0.0777123 0.016010076 0.017615825 -0.011517695
0.016412167 -0.01812543 0.07235222 0.08897159 0.06245544 0.027204152 0.051154 0.053721316
00000000: eb79 12bb bd78 3abd 62b6 debc 6960 153b
00000010: d420 6db8 49d5 3139 3e14 70bd 094f 2fbd
00000020: 3a83 3cbc 0ec5 26bd 3339 923c 91c6 5f3d
00000030: 3f3f 52bd e052 64bc b9e2 a73c 58ae b7bc
00000040: 768a 9ebc e746 513c df4b 133d 1e42 783d
00000050: 9ed6 8a3c 152d ed3c a793 73bc a3f5 71bd
00000060: 5239 82bc 2daf cabc 7379 22bd ef37 8abd
00000070: 247c 2cbd c561 bbbc 1178 bf3c 1bd1 35bc
00000080: d0c9 623d b2e0 b43c 7f77 90bc aaa4 0dbe
00000090: 2312 e6bb 4d3c a93c 91c1 7abd 7cb9 e6bc
000000a0: 9a5a 85bc 7461 183d 9f88 33bc 704f 5f3d
000000b0: 19b5 95bc 7852 65bd b615 0cbd cdf3 62bc
000000c0: 669b 2d3c 29c0 43bd bae2 f4bc a5af 70ba
000000d0: 2e15 20bb df40 72bc 107e 28bd 3323 323c
000000e0: b207 c3bc fd5d a7bc 1d00 61bd 851e 5bbc
000000f0: 744c 0bbd ca9f 32bc 004f acbc 5575 05bd
00000100: 2a48 cc3a 20cb 20bc 8730 783e 151f 90bd
00000110: f705 8e3a 6cc3 14bd b987 44bb 1f94 71bd
00000120: e399 16be d1dc 653c 30fb 9abc a882 2a3d
00000130: cd3f b4bc 94ac cb3b a2d5 9dbc c388 a7bc
00000140: 8072 a83c a4d2 6a3b 4395 433c 2ba7 e5bd
00000150: 5e87 663d b996 003e de2f 83bc d3be 01bd
00000160: ccf4 8c3c 875e 273d 7d8c 9dbd 5002 4d3d
00000170: 4be7 423d 02f8 083d e0c9 a23c 67a4 c03c
00000180: d02b 0b3d d9a8 edbb 494d a53d 6d7a b73d
00000190: e123 11bc 13ed 123d 8037 893c 70cf 43bc
000001a0: 4868 beb9 d7c8 5abd 564b 0b3e eba0 f43c
000001b0: 871b a6bc 76f0 4abc 0a7d cf3c a314 35bd
000001c0: cc58 383b 33d7 ffbc 92c5 87bb 1802 ea3c
000001d0: 945e 1fbd c63a 4bbd 0f3d 803d c015 213d
000001e0: fdc2 f9bc d22f d7bb b5b3 90bb cb67 2ebd
000001f0: 274c 75bd 739f 02bb 7268 c83c 6f76 60bc
00000200: e549 8d39 3d5f 92bb 6253 febb 9797 353c
00000210: 48b2 8cb9 176a 393b 373a 22bd dc9b 01bd
00000220: c553 67bd 851e 783d c75b f93c ea0b 3abd
00000230: a8a4 efbc 5a6c 153e 4879 8a3b de69 ee3d
00000240: 5183 bd3c 0b59 c839 42e2 ac3b 2bad dbba
00000250: 2810 2dbd 7976 603d 8700 243d f82f a03c
00000260: 8c4a 613d 5687 733c 3750 ad3c 8454 8dbd
00000270: 79ca 233d c50d 0bbc 6cde 40bc ad5f 8ebb
00000280: f4fc 1d3d a864 c4bc 1453 b2bc 3a3a 333c
00000290: 5375 f13b 03db 8dbd 12d1 583d 706c 353d
000002a0: e20a 86bd d11b 14bc 8279 9bbd f3ce ad3d
000002b0: c3a3 90bc 7411 10bd 0f22 80bd 78b9 0ebe
000002c0: 98c5 683d df4e f6bc 2cb2 0e3d a423 8fbc
000002d0: ae90 0abc 27a9 bfbd 056f 83bd aa8c c13c
000002e0: 199b 40bd d67b 533c 8b98 573c 420e 44bc
000002f0: a636 49bd 1a20 d8bd 247b 153d c25a c0bc
00000300: 8530 813b c87c 073e 9e15 e0bc f438 c33d
00000310: 24d8 5639 4272 663e f89b 6d3b 8c83 213d
00000320: bdac 05bd 4a04 62bd 0fd0 47bc 0d94 38bb
00000330: 77e6 a43c 2987 15bc 1a88 cdbc b59b 0d3c
00000340: 7d0b c5bc a8a0 5dbd 5f66 053c 9d7b 143d
00000350: efcf 26bd 42db 563d 1e65 2c3d a34b ea3c
00000360: 6881 383d 3df3 c03c 1d6c 613d ac9d 013c
00000370: 3d30 d83c f919 c83b 665e ff3b 3c28 933c
00000380: 8470 eebb 6791 8fbc 47c2 2a3c c98c 0f3d
00000390: d118 21bc 9319 bebc 2c72 a43d 897a de3c
000003a0: 8dd9 34bd 974e 063d 5f30 693d 3927 ae3c
000003b0: 0cfa 313d bff5 3b3d c48e 093d f864 7f3c
000003c0: 62ea 003d de91 833b 7e8f f23c 599b 4e3b
000003d0: a027 9f3d 9027 833c 104f 903c b7b4 3cbc
000003e0: cf72 863c c87b 94bc 672d 943d bd36 b63d
000003f0: 47d1 7f3d 3edb de3c db86 513d e20a 5c3d

module.layer1.0.shortcut.1.weight f4 [16]
0.097721964 0.15650518 0.19194143 0.2720815 0.2548169 0.1542359 0.048977997 0.20136565
0.114146575 0.06554978 0.07762342 0.106140085 0.1645087 0.18083994 0.22228006 0.071986265
00000000: 7422 c83d e542 203e 4b8c 443e 444e 8b3e
00000010: 5c77 823e 04f0 1d3e 279d 483d cc32 4e3e
00000020: aec5 e93d f73e 863d 07f9 9e3d f95f d93d
00000030: f874 283e 1b2e 393e 629d 633e 896d 933d

module.layer1.0.shortcut.1.bias f4 [16]
-0.037707895 0.12754086 -0.029479528 -0.03190216 0.08563458 -0.031488765 -0.008168127 0.049475744
-0.0076957494 -0.022179263 -0.01243698 -0.027355952 0.0096236905 0.0746762 -0.055806156 -0.03799534
00000000: 9873 1abd 129a 023e 0d7f f1bc d7ab 02bd
00000010: 2f61 af3d 5dfa 00bd 9cd3 05bc 14a7 4a3d
00000020: a02c fcbb 49b1 b5bc 7ac4 4bbc 9719 e0bc
00000030: afac 1d3c d6ef 983d ff94 64bd 00a1 1bbd

module.layer1.0.shortcut.1.running_mean f4 [16]
-0.0423562 0.0062276674 -0.0030091216 0.05908001 -0.13472728 -0.03818724 -0.0438815 -0.0056615337
-0.012315314 -0.02745454 -0.03492565 -0.039390184 -0.069491066 -2.0127285e-05 -0.049933337 -0.046857465
00000000: b27d 2dbd 7611 cc3b af34 45bb e1fd 713d
00000010: f3f5 09be 396a 1cbd 16bd 33bd 6384 b9bb
00000020: 2cc6 49bc 58e8 e0bc 330e 0fbd 9a57 21bd
00000030: 5551 8ebd 04d7 a8b7 e686 4cbd 9ded 3fbd

module.layer1.0.shortcut.1.running_var f4 [16]
0.0015830467 0.0030279537 0.0028700514 0.0025071902 0.0045228056 0.0023772987 0.0011211942 0.0031348746
0.0016462231 0.0010805981 0.001427591 0.001545468 0.0017064433 0.0030508903 0.0027090898 0.00096198125
00000000: 3c7e cf3a a270 463b 7917 3c3b ac4f 243b
00000010: 0b34 943b 74cc 1b3b 09f5 923a 7872 4d3b
00000020: 15c6 d73a dba2 8d3a 011e bb3a 4d91 ca3a
00000030: bcaa df3a 72f1 473b fc8a 313b 782d 7c3a

module.layer2.0.conv1.weight f4 [32, 16, 3, 3]
-0.017267995 0.0079415925 0.03731243 -0.05605001 -0.061239872 -0.0039254534 -0.031695705 -0.045337513
-0.033496447 0.012794876 -0.022273306 0.0065923827 0.017000575 0.01419223 0.04966743 -0.06845308
-0.060351 -0.030472232 -0.0683723 0.029301627 -0.0057370127 -0.055646308 0.05737494 0.011462158
-0.047578856 0.039013844 0.025757642 -0.013992241 -0.0099880295 0.035020724 0.013210345 0.0028415082
0.051414613 -0.049122483 -0.054763876 -0.035316035 0.033315487 -0.01564055 -0.090194575 0.017527584
-0.004515859 -0.060563177 0.039663374 0.010271538 -0.03493327 0.11780178 0.03940673 -0.07342972
0.1014337 0.013704445 -0.10311741 0.056586877 -0.03354425 -0.1348401 0.07196023 0.0639712
0.017391074 0.06334163 0.11892715 0.048865058 0.08941374 0.13014884 0.07832059 0.041592818
0.0026433521 -0.0039376505 0.009039924 -0.045616355 -0.041520365 -0.006124814 -0.048066333 -0.053935423
-0.019803626 -0.08757887 -0.06608873 -0.01682524 -0.07834472 -0.050194982 -0.037493 -0.04083647
0.031124905 0.023042828 0.058604244 0.03193889 0.023958154 0.030062253 0.031039141 0.054292955
0.07386668 0.008509013 -0.038687397 -0.044793975 0.006827765 -0.06612081 -0.05239567 0.020439507
-0.0315335 -0.047046646 0.025005156 0.034736663 0.028409634 -0.03325057 0.019605527 -0.022848181
-0.044884406 -0.006565278 -0.03951224 -0.049576063 0.04728151 -0.07024834 -0.08014659 0.08440993
-0.038945876 -0.052889876 0.07601635 0.0042300536 -0.02208287 -0.051146995 -0.046435166 -0.04706742
0.025793971 0.075749315 0.06972462 -0.02416095 0.020391889 0.007693482 -0.040974613 -0.034670096
-0.02492433 -0.03587669 -0.05632394 -0.035061434 -0.028980374 -0.045681965 -0.025319101 -0.02926315
-0.04509461 -0.0005711134 -0.044957027 -0.02369893 0.0443166 0.015588068 0.021945156 0.0221516
0.02725709 0.10578669 0.0971163 0.051968187 0.10668829 0.06744575 0.011535335 0.035689097
-0.009100786 -0.05547225 -0.02795137 0.01802902 -0.059159815 -0.029586615 0.0272504 -0.08711928
-0.019186549 0.036446027 -0.018210318 0.02874933 0.07281952 0.049176533 0.038408127 0.021514317
0.059746187 0.0075080814 -0.02956409 -0.034959797 -0.037621506 -0.024942234 -0.019399606 -0.016782906
-0.0027152835 0.021671101 0.022829384 0.028886242 0.0072961217 0.009104947 -0.005626288 0.0278505
0.0333715 -0.0030044813 0.04561231 0.027536364 -0.033364955 0.0064071612 -0.043124344 -0.014780144
-0.043959677 -0.04533097 0.054094788 -0.048020393 -0.031176059 0.06867331 0.0074482 0.025937088
0.041103035 0.043748096 0.036902934 -0.0066097137 0.009348167 -0.03265722 -0.06765803 -0.07501326
-0.07772257 -0.012853773 -0.07131216 -0.03478376 0.02901683 0.01225356 0.032924276 0.034815736
-0.034400433 -0.046328086 -0.010376327 -0.087986514 -0.06029071 -0.014200292 -0.0589858 0.00012972442
0.05076701 -0.0009523311 0.071537934 0.07350663 0.028936908 0.08044853 0.03744567 0.026890205
0.033736687 -0.025614996 -0.0011411335 0.040330734 0.05640214 0.061932664 0.064163424 0.065334655
0.04295468 0.07761846 0.02202102 -0.0074917907 0.006784648 0.023633042 0.0073561515 0.00052661484
-0.0053008683 0.0054518604 0.01257144 -0.014349511 0.0037913055 0.07706851 0.08924521 0.064834364
00000000: 9c75 8dbc 741d 023c ebd4 183d b294 65bd
00000010: a9d6 7abd 17a1 80bb 5bd3 01bd d4b3 39bd
00000020: 9233 09bd 99a1 513c 8276 b6bc ea04 d83b
00000030: ca44 8b3c 8786 683c 1370 4b3d 2131 8cbd
00000040: 9c32 77bd e7a0 f9bc c706 8cbd f709 f03c
00000050: 8dfd bbbb 62ed 63bd fc01 6b3d c6cb 3b3c
00000060: 0ce2 42bd fbcc 1f3d b101 d33c b63f 65bc
00000070: d5a4 23bc e471 0f3d 3470 583c 9938 3a3b
00000080: 2198 523d a834 49bd 1650 60bd 8ca7 10bd
00000090: d275 083d 9c20 80bc efb7 b8bd 0296 8f3c
000000a0: c5f9 93bb 1811 78bd 1076 223d f449 283c
000000b0: 3016 0fbd 0f42 f13d f468 213d 5262 96bd
000000c0: 79bc cf3d 9c88 603c 382f d3bd a4c7 673d
000000d0: b265 09bd 8613 0abe e35f 933d 5503 833d
000000e0: ba77 8e3c 42b9 813d 1490 f33d ba26 483d
000000f0: 8d1e b73d bd45 053e 8c66 a03d 3b5d 2a3d
00000100: 173c 2d3b 6807 81bb 301c 143c 37d8 3abd
00000110: 4211 2abd aab2 c8bb 34e1 44bd 64eb 5cbd
00000120: 373b a2bc 8d5c b3bd 8759 87bd 16d5 89bc
00000130: 3273 a0bd 4199 4dbd 4392 19bd 2444 27bd
00000140: a8f9 fe3c 50c4 bc3c 010b 703d 5bd2 023d
00000150: e443 c43c 1d45 f63c cc45 fe3c 4a62 5e3d
00000160: 6a47 973d 6369 0b3c ad76 1ebd e379 37bd
00000170: 72bb df3b 596a 87bd d89c 56bd c170 a73c
00000180: 4529 01bd fcb3 40bd 9dd7 cc3c 0848 0e3d
00000190: 52bb e83c c031 08bd c59b a03c 1c2c bbbc
000001a0: b6d8 37bd 8b21 d7bb 96d7 21bd 4510 4bbd
000001b0: 42aa 413d 5dde 8fbd e523 a4bd 1ddf ac3d
000001c0: b685 1fbd 0ea3 58bd 76ae 9b3d 439c 8a3b
000001d0: 23e7 b4bc 837f 51bd cd32 3ebd c4c9 40bd
000001e0: e14d d33c 7522 9b3d c8cb 8e3d 2fed c5bc
000001f0: e40c a73c 9b19 fc3b ffd4 27bd 3b02 0ebd
00000200: 1c2e ccbc 70f3 12bd efb3 66bd 949c 0fbd
00000210: 4068 edbc 031d 3bbd 016a cfbc 46b9 efbc
00000220: 20b5 38bd c6b6 15ba dc24 38bd 4224 c2bc
00000230: 5385 353d 1965 7f3c 54c6 b33c 4677 b53c
00000240: 434a df3c b1a6 d83d e9e4 c63d 98dc 543d
00000250: 647f da3d ff20 8a3d b4fe 3c3c bb2e 123d
00000260: 771b 15bc df36 63bd 46fa e4bc 98b1 933c
00000270: 9051 72bd a15f f2bc 3b3c df3c 986b b2bd
00000280: 1c2d 9dbc 6e48 153d ce2d 95bc b783 eb3c
00000290: 6722 953d 556d 493d d751 1d3d cb3e b03c
000002a0: 6bb8 743d 5a06 f63b 6430 f2bc 0132 0fbd
000002b0: 0219 1abd a853 ccbc eceb 9ebc 4e7c 89bc
000002c0: e6f2 31bb 9887 b13c b004 bb3c d7a2 ec3c
000002d0: 4e14 ef3b ea2c 153c b95c b8bb bb26 e43c
000002e0: 8eb0 083d d5e6 44bb f9d3 3a3d f193 e13c
000002f0: b1a9 08bd 2af3 d13b 27a3 30bd 6b28 72bc
00000300: 100f 34bd f8ac 39bd 7f92 5d3d 08b1 44bd
00000310: ef64 ffbc 98a4 8c3d 0810 f43b 047a d43c
00000320: a85b 283d 3431 333d 8827 173d 4c96 d8bb
00000330: 0e29 193c 94c3 05bd 4b90 8abd 8da0 99bd
00000340: 032d 9fbd a298 52bc 1c0c 92bd 6a79 0ebd
00000350: b4b4 ed3c 28c3 483c 9bdb 063d f29a 0e3d
00000360: 78e7 0cbd 85c2 3dbd 7801 2abc 4632 b4bd
00000370: 64f3 76bd 57a8 68bc 189b 71bd a206 0839
00000380: 11f1 4f3d dca5 79ba 7b82 923d a58a 963d
00000390: 180d ed3c 33c2 a43d a260 193d d948 dc3c
000003a0: 7b2f 0a3d 8ad6 d1bc 1692 95ba d731 253d
000003b0: ee05 673d 1bad 7d3d 1d68 833d 2dce 853d
000003c0: 3ff1 2f3d 6df6 9e3d 6d65 b43c b27d f5bb
000003d0: c151 de3b 159a c13c df0b f13b 860c 0a3a
000003e0: e8b2 adbb 85a5 b23b 71f8 4d3c 361a 6bbc
000003f0: 8d77 783b 18d6 9d3d 31c6 b63d e1c7 843d

module.layer2.0.bn1.weight f4 [32]
0.22689049 0.19954732 0.23653518 0.2687197 0.22029081 0.2029635 0.23976062 0.26162833
0.25241706 0.21645306 0.33561268 0.25240493 0.19979656 0.2758731 0.26585853 0.22383885
0.25122032 0.23042896 0.2084735 0.3283042 0.20941913 0.15062848 0.2529155 0.22139834
0.17386311 0.2867033 0.20595331 0.3162286 0.25780216 0.2262431 0.23201282 0.29445595
00000000: fb55 683e 2256 4c3e 4736 723e a195 893e
00000010: ea93 613e aad5 4f3e cf83 753e 26f4 853e
00000020: cf3c 813e dfa5 5d3e 6dd5 ab3e 383b 813e
00000030: 7897 4c3e 3d3f 8d3e 9c1e 883e 0336 653e
00000040: f39f 803e 92f5 6b3e 147a 553e 7d17 a83e
00000050: f871 563e 5a3e 1a3e 247e 813e 3fb6 623e
00000060: 2c09 323e c6ca 923e 6de5 523e b7e8 a13e
00000070: a5fe 833e 45ac 673e c594 6d3e eec2 963e

module.layer2.0.bn1.bias f4 [32]
-0.0050991224 -0.042570222 0.0943813 -0.05040252 -0.064737424 -0.0374153 -0.15960503 -0.09717436
-0.12274211 -0.111987285 -0.09571531 -0.07585481 -0.04973103 -0.060477037 -0.08771671 -0.08847967
-0.11527913 -0.1124957 0.109930575 0.040543627 0.06457871 0.051922802 0.02945092 -0.06369507
0.034407303 -0.16240482 0.03157741 -0.13371028 -0.05599881 -0.09317903 -0.11280367 -0.038023856
00000000: 8a16 a7bb 1d5e 2ebd fc4a c13d df72 4ebd
00000010: 0e95 84bd c940 19bd 806f 23be 5a03 c7bd
00000020: 3760 fbbd 9759 e5bd 6306 c4bd c459 9bbd
00000030: c4b2 4bbd c5b6 77bd d2a4 b3bd d434 b5bd
00000040: 7717 ecbd 2564 e6bd 4823 e13d 1311 263d
00000050: d841 843d 01ad 543d 0e43 f13c 9072 82bd
00000060: acee 0c3d 734d 26be 5057 013d 59eb 08be
00000070: 025f 65bd a6d4 bebd 9c05 e7bd e7be 1bbd

module.layer2.0.bn1.running_mean f4 [32]
-0.08672787 0.07789101 -0.09304604 -0.21385244 -0.16271082 -0.14037646 0.12369365 -0.048832193
-0.06970317 -0.043455064 -0.14359261 -0.21499223 0.09268442 0.24870639 0.07875538 -0.011276066
-0.03522407 0.2169403 -0.21173146 -0.35699975 0.00776856 -0.12933496 -0.1314073 -0.22449017
-0.08702255 -0.39151236 -0.044018384 -0.077152066 -0.11586585 -0.03209994 0.14610927 -0.25056386
00000000: 629e b1bd 5285 9f3d ec8e bebd 22fc 5abe
00000010: aa9d 26be d9be 0fbe 1953 fd3d 4404 48bd
00000020: 89c0 8ebd f0fd 31bd f109 13be ec26 5cbe
00000030: 54d1 bd3d e3ac 7e3e 804a a13d 40bf 38bc
00000040: 1d47 10bd 9925 5e3e 22d0 58be acc8 b6be
00000050: 688f fe3b 6270 04be a38f 06be c0e0 65be
00000060: e138 b2bd 4f74 c8be 9f4c 34bd e701 9ebd
00000070: 134b edbd 3a7b 03bd ab9d 153e e849 80be

module.layer2.0.bn1.running_var f4 [32]
0.029079828 0.0318558 0.028639829 0.040845554 0.024204364 0.025812462 0.018993815 0.021623682
0.028334955 0.025335945 0.03506241 0.022373695 0.026355995 0.09034605 0.03343319 0.024793241
0.031484816 0.027656084 0.039062463 0.09778172 0.05533816 0.029205143 0.041047152 0.03176443
0.04205558 0.029417915 0.022525465 0.045788355 0.04074548 0.021535376 0.032391887 0.03199646
00000000: d238 ee3c 3a7b 023d 139e ea3c ab4d 273d
00000010: 3b48 c63c a874 d33c eb98 9b3c 2624 b13c
00000020: b51e e83c 548d cf3c 9a9d 0f3d 0a49 b73c
00000030: 87e8 d73c 5a07 b93d 3ef1 083d 321b cb3c
00000040: 39f6 003d 038f e23c f6ff 1f3d c841 c83d
00000050: 44aa 623d a03f ef3c 0f21 283d 6b1b 023d
00000060: 7942 2c3d d7fd f03c 5387 b83c 928c 3b3d
00000070: bce4 263d f56a b03c 5bad 043d b80e 033d
