results/OVy1/cifar10/nokd/resnet8_best.pth.tar (torch_old, 371448 bytes, 52 tensors)

module.conv1.weight f4 [64, 3, 3, 3]
00000000: 427b e7bc f184 523d 789d 413d 07c8 eb3d
00000010: 8a4d 0d3e 001a 073e 9897 7dbd a2a0 30be
00000020: 9d4d 19be d642 8cbd 96e4 ab3c 0387 3d3d
00000030: e3db fb3d 7549 353e 859e 1a3e e4be bdbd
00000040: 32e8 ddbd 7bcc e7bd 2686 92bd 99de 9cbd
00000050: 5680 87bd 8a99 123e 5559 e43d 8fe5 a53d
00000060: e530 06bd 0638 83bd 090f dbbd 1913 153d
00000070: c4b4 953d 1676 f3bb 79e2 41be 2340 d23d
00000080: 3f2b f63c 675a c0bd 22bb ce3d 8571 6fbd
00000090: f404 09be 6e38 463d 7505 803d 4125 9bbe
000000a0: e6ed 1e3e 7aa8 153e 4d6d 08be d4fc 2b3e
000000b0: 6a71 e23c 3eda 4ebe c444 3a3d 7972 e83d
000000c0: 4d48 c2be c2cd 0e3e e123 653e 9b34 65be
000000d0: 8338 293e 239a f63d de1c 71bc de0c 81bd
000000e0: 902b 85bd 5e9c 02be a6a9 55be 39b5 53be
000000f0: bf0a 86bd 61c3 68be ba8f 1ebe 6efc 653d
00000100: c510 c43d b7e1 813d 7cd7 6a3c a675 c03d
00000110: f4a7 8d3d 97d1 033d f504 d43c 5fc3 a23d
00000120: 08cc 43bd 2216 cc3c 85d2 5dbd d065 443d
00000130: 5f99 4d3e 8d97 df3d c906 503d 1928 043e
00000140: 282f f13d 6eb3 4fb7 59ff c8bc 364c 553c
00000150: cef3 8cbb a258 81bc 7e4c 3e3c a49e 923c
00000160: 1bbf 383c c4f2 e33b 8eef 5d3b ad33 babc
00000170: b30a 6b3c 7f91 a53b fb75 1ebc 0c1e 893c
00000180: 1d27 f33c 9416 953c 5687 4b3c ee9d 003b
00000190: b8d9 a6bc ca5a ee3b a40e ecba 73c3 7abc
000001a0: e8ac aa3b ebb5 213c 9340 33bb c643 03bc
000001b0: 837e 0d3d 0726 23bd 07ab 9c3d d12d 7ebc
000001c0: 3f1b 2abe 3f40 6e3c cafe c93c 8e41 7dbb
000001d0: 3d11 cc3d bf54 8b3c 6b76 69bd 350b 1a3d
000001e0: dd6a e7bc 1f05 24be e165 a4bc 3e19 c53c
000001f0: d8d0 113c 7725 813d a915 9e3c 13bf 54bd
00000200: 7c39 8d3b 1029 f1bc 39df 2cbe ed39 74bd
00000210: 6892 853b 9acd 09bd 075a 003b 0a39 013d
00000220: 46b6 823d 6bb2 2f3d 96f4 193d e61d b33c
00000230: 05bf 13bd 0bed 62bc e39d 91bd d285 c3bd
00000240: 7cd8 793d cbc1 8a3d 24f4 af3b f6eb 823d
00000250: a70c 123d 59bf 5fbd 35ed fcbb 5768 54bd
00000260: 6596 c4bd bec0 b03d ac08 1f3d 3243 50bd
00000270: 722d bf3d d8bd e73c febb c0bd 1474 023d
00000280: ad99 e1bc e002 f1bd e88f 173d fd24 8ebc
00000290: 7672 cebd ddaf 8a3d fde5 3639 03ef 89bd
000002a0: c682 553d 83d5 123d 41d4 db3c 7962 693c
000002b0: 0647 24bd f1d4 07be 474b a53d 7547 393c
000002c0: 44d4 8bbd 1984 883d e69c 4b3d bd09 f03c
000002d0: e409 693d 59e8 11bd f949 15be 36ff 063e
000002e0: 6d34 ca3b 2968 06be 9a06 ec3d 0671 193d
000002f0: d2bb 19bd d45d 3a3d 62e3 1bbc 0c8d 65bd
00000300: 02cb 5fbc 87e6 9ebc d6d4 babc cfbb 8bbd
00000310: 1a3b 67bd bb9c 10bd e19f 753c 8a3b 0dbd
00000320: 9b3c 49bd fe31 be3b 2b15 f03c e801 2b3d
00000330: 17db 803a 0efb 513d 33db 8b3d a541 c6bc
00000340: 009e 8bbd 69c1 d5bd db98 82bb 06f5 063d
00000350: db26 9f3c 33c7 ba3b 34a1 953d 9512 853d
00000360: feb0 223d a7da 2b3c e53b 463c 5dbe 273d
00000370: 2acf 073c 5285 063b b3ab 273d b117 ca3c
00000380: 4d2a 883c 61ca 2ebc 971c 21bd 8c68 b2bc
00000390: 8304 2e3a 013a f0bc 4f61 7abc 1b85 783c
000003a0: 6167 38bc d21a 2dbc b069 803c b4bd c53c
000003b0: 175d 1c3d e567 b53c cc19 0a3d f183 553d
000003c0: 3837 6ebc 1383 a5bc b749 baba 58f7 0e3d
000003d0: 6e98 b63d 6193 053d 9310 dabc c83d c93d
000003e0: 7e81 e33c 688d e53c ec91 7d3d 0293 083d
000003f0: f331 85bd ae41 1fbe 4f0b 8fbd e50e 40be
-0.028257016 0.051396314 0.047269315 0.115127616 0.1379911 0.13193512 -0.06191215 -0.17248777
-0.14971013 -0.068486854 0.020983022 0.046271335 0.122977994 0.17703803 0.15099533 -0.09264925
-0.10835303 -0.113182984 -0.07154493 -0.07659645 -0.06616275 0.14316383 0.11149851 0.081004255
-0.032761473 -0.0640717 -0.10696227 0.036395166 0.07309869 -0.0074298484 -0.18934049 0.10266139
0.030049918 -0.09392243 0.100942865 -0.05845787 -0.13380796 0.04839366 0.06251041 -0.3030186
0.15520439 0.1461505 -0.13322945 0.16795665 0.02764197 -0.2020044 0.045475736 0.11349959
-0.37945786 0.13945678 0.22376968 -0.22383349 0.16525464 0.12041118 -0.014716355 -0.06301282
-0.065024495 -0.12754962 -0.20865497 -0.206746 -0.065450184 -0.22730781 -0.15484515 0.05614894
0.09573511 0.0634188 0.014333602 0.0939744 0.069168 0.032182302 0.02588127 0.0794742
-0.047802 0.024912897 -0.054155845 0.04794866 0.20078038 0.10917578 0.05078772 0.12905921
0.117765725 -1.2379938e-05 -0.024535822 0.013018658 -0.0043015247 -0.015789334 0.011614917 0.017897911
0.011276032 0.00695643 0.003386471 -0.022729719 0.014345813 0.005052745 -0.009671683 0.01673796
0.029681737 0.018199243 0.012422403 0.0019625383 -0.020367488 0.0072740065 -0.0018009734 -0.015305388
0.0052086003 0.009870033 -0.0027351722 -0.008011764 0.03454448 -0.039831188 0.076498084 -0.015513853
-0.16611956 0.014541685 0.024657626 -0.003864381 0.099642254 0.017008184 -0.056997698 0.037608344
-0.028249199 -0.16017579 -0.02006811 0.024059888 0.00889989 0.06305974 0.019297438 -0.051940035
0.004309831 -0.029438525 -0.16882028 -0.059625555 0.004076291 -0.033643343 0.001958491 0.031548537
0.06382422 0.042894762 0.03758677 0.021864843 -0.036070842 -0.013850461 -0.071101926 -0.095470086
0.06099747 0.06775244 0.00536968 0.06392662 0.035656597 -0.054625843 -0.007718707 -0.05185732
-0.09598998 0.08630513 0.03882663 -0.050845332 0.0933484 0.028288767 -0.09410857 0.031848982
-0.027539099 -0.117681265 0.037002474 -0.017351622 -0.100804254 0.067718245 0.0001744255 -0.06735041
0.05212667 0.035848152 0.026834609 0.014244669 -0.040106796 -0.13264824 0.08070999 0.011308541
-0.06827596 0.06665821 0.049710177 0.029301519 0.056894198 -0.035621975 -0.14579 0.13183293
0.0061708004 -0.13125671 0.11524697 0.037461303 -0.037532635 0.045499638 -0.0095146615 -0.056042716
-0.013659241 -0.019397033 -0.022806566 -0.06822931 -0.056452848 -0.03530572 0.014991731 -0.03448061
-0.049130064 0.0058042994 0.029306969 0.041749865 0.0009830919 0.051264815 0.06828918 -0.024201224
-0.068172455 -0.10437281 -0.003985507 0.032948516 0.019427707 0.005700016 0.07306138 0.06497685
0.039719574 0.0104891425 0.012099241 0.04095303 0.008289138 0.0020526242 0.04093523 0.0246695
0.016621733 -0.010668368 -0.039333906 -0.021778367 0.00066382455 -0.029324533 -0.015281989 0.015168454
-0.011255116 -0.0105654765 0.015675396 0.024138309 0.038174715 0.022144267 0.033716008 0.052127782
-0.014539532 -0.020204103 -0.0014212643 0.034903854 0.089157924 0.032611255 -0.026619231 0.09826237
0.027771708 0.02802153 0.06190674 0.033343323 -0.06503668 -0.15552399 -0.06984579 -0.18755682

module.bn1.weight f4 [64]
00000000: c34c 343e fc02 733e e723 223e 16a6 703d
00000010: 1d48 be3e 177e de3d 5099 de3d 29c6 ea3d
00000020: 2d10 9d3d 3a54 0b3e ba85 683e ab0e 783e
00000030: 9695 9b3d 51aa a33e 54cd 0d3e 76ec f03d
00000040: d0e6 653e efe2 293e 9bab b23d b13c 263e
00000050: edb2 003e 7de7 423e ba2d 363e 66e4 3b3e
00000060: 07f7 0b3e 1218 003e f167 4d3e d2d9 503e
00000070: 278d 973e 4b86 223e 9568 003e c0b4 b43d
00000080: 0300 203e 8059 373e e472 3a3e 67d6 0f3e
00000090: 0deb 263e ee8b 703e f211 2b3e 1326 e43d
000000a0: 05c7 353e cc11 0d3e 726d a83e a5b3 1f3e
000000b0: e5b3 193e 7f58 e13d 33f8 f03d f0db 193e
000000c0: 2fa5 363e 793a 323e 4a16 093e ff91 033e
000000d0: 1016 1a3e 51ab 093e 37de d03d f2b8 d43d
000000e0: 62bf 4f3e d4bb bf3d 4b8c bd3d 9d0d 053e
000000f0: 25e7 483e 0cd2 263e 3b3b 7d3e 5aa6 303e
0.17607407 0.23731607 0.15834008 0.058752142 0.37164393 0.108638935 0.10869086 0.11463577
0.07669101 0.13606349 0.22707263 0.24224345 0.07596891 0.3196588 0.13847858 0.11763851
0.22451329 0.16590475 0.087241374 0.1623409 0.12568255 0.19033618 0.17790881 0.18348846
0.13668452 0.12509182 0.20059182 0.20395592 0.29599878 0.15871541 0.12539895 0.08823538
0.15625004 0.17905235 0.1820789 0.14046632 0.16300602 0.23490879 0.16706064 0.111400746
0.17751701 0.1377632 0.32896 0.15595873 0.1501003 0.110032074 0.1176609 0.15025306
0.1783645 0.17405118 0.13387409 0.12848662 0.15047479 0.13444258 0.10198634 0.10386838
0.2028785 0.09361997 0.092552744 0.12993474 0.19619425 0.16291064 0.24729626 0.17250958

module.bn1.bias f4 [64]
00000000: bea6 173e f5e4 ab3d 6838 5d3d d0b6 62bd
00000010: 6e4a bdbe 08e2 b73c ef13 9a3c cae1 203c
00000020: 694a 163d b834 803d ca8b f8bd f00b a23c
00000030: ad8d ee3d 1d6e a4be 42d4 d2bd c7c7 3b3d
00000040: 0aa0 613e 07c9 223e 55d9 6a3d 14b6 573d
00000050: bc6b 833c 70b8 44bc 94d2 7f3d f8b2 29be
00000060: 7049 c63d 82b3 9e3d 403c 8b3e a34a 403c
00000070: 2f5e 3bbe 25c7 d6bd 4686 383e 3381 023d
00000080: 1b60 17be 72da 743d ba97 4f3e 131d c6bd
00000090: db23 f3bd c564 27be a9bf aabd 2fc5 5b3d
000000a0: 18de dcbd 2045 d1bd 9d92 98be 7c1d 2a3e
000000b0: 09ec a2bd 3d6c c73c 199b 103d ad95 723d
000000c0: bb83 9fbd e09f 2a3d a7d7 413d 72d0 a43d
000000d0: bf09 a23b ee09 8cbd d98f 373d 76b2 2f3d
000000e0: e79c e23d 2422 56bd 2fe6 c8bc 6242 1fbd
000000f0: 084d 9c3d d017 903d 558d 19be 1be0 673d
0.14809701 0.083932795 0.05400887 -0.055350125 -0.36970848 0.022446647 0.018808333 0.009819457
0.036692057 0.06260055 -0.12136038 0.019781083 0.11648116 -0.3211526 -0.10294391 0.04584482
0.22033706 0.15896998 0.05733617 0.052663878 0.016042583 -0.012006864 0.062456682 -0.16572177
0.09681976 0.07749082 0.27194405 0.011736545 -0.18297647 -0.104872026 0.18019971 0.031861495
-0.14782755 0.05977864 0.20272723 -0.09673514 -0.11872073 -0.16347034 -0.083373375 0.053654846
-0.107845485 -0.10218263 -0.29799357 0.1661281 -0.079551764 0.024343604 0.035304163 0.059224773
-0.077887975 0.041656375 0.047324803 0.0804757 0.0049450095 -0.068378314 0.04481492 0.042894803
0.11065083 -0.052278653 -0.024523823 -0.038881667 0.0763188 0.07035792 -0.1499532 0.056610208

module.bn1.running_mean f4 [64]
00000000: 21a0 9cbd 719e 23bd 0e50 6e3c 1965 72bc
00000010: ecb1 173e ff01 6bbb 0627 91bc 91f5 d83c
00000020: 8305 79bd de39 a63c b980 04bb 8c5a 11bd
00000030: 8a32 b93c d3ea 143e 17a5 143c 006a ac3c
00000040: 76d7 17bd 3de5 b43c 81b1 59bb 655f 0f3d
00000050: 8d31 253d 130a 03ba 8b7f 96bc eacc 043c
00000060: 57f1 03bc 2762 36bc 6819 2d3c 2571 35bd
00000070: b228 133e b53a 123d 7ace 86bb e9a7 123d
00000080: 71fb 81bd 33a4 07bd 14b9 97bc 1e7b 1f3d
00000090: d392 83bd 8f9b 823d eda6 b8bd 5de5 0b3b
000000a0: c427 92bc 21f2 48bc 1af2 933c cc6b 8739
000000b0: 6ae7 143d 2ea0 b93c 3f16 34bc 8440 2b3e
000000c0: 905a 353d 3ef3 063d b6cd 3cbc 24ff 3ebc
000000d0: 02e4 b8ba 5aef 7abd 383d 67bc 6c80 893c
000000e0: b5f2 16bd 39a3 e03c 24dc 093d beca bebb
000000f0: 3891 143d ae38 1838 906f d93d 27fc 233c
-0.0764773 -0.039946023 0.014545454 -0.014794611 0.14813966 -0.0035859344 -0.017718803 0.026484283
-0.060796272 0.020291265 -0.0020218326 -0.035486743 0.022607107 0.14542703 0.009072564 0.021046638
-0.037070714 0.022081966 -0.0033217373 0.035003085 0.04033046 -0.00049987546 -0.018371364 0.008105496
-0.008053145 -0.0111318 0.010565139 -0.044297356 0.14370993 0.03570052 -0.0041139694 0.035804663
-0.06346787 -0.033115577 -0.01852087 0.038935773 -0.06424489 0.06377327 -0.090162136 0.0021346428
-0.017841227 -0.012264759 0.018059779 0.00025829521 0.036353506 0.022659387 -0.010991632 0.1672383
0.04427582 0.032946818 -0.011523655 -0.01165751 -0.0014106038 -0.06126342 -0.014113717 0.01678487
-0.036852557 0.02742158 0.033657208 -0.0058225086 0.036271304 3.629241e-05 0.10616982 0.010008848

module.bn1.running_var f4 [64]
00000000: fc1a b33e 1faa 693f 37b5 923e 3754 e93b
00000010: d112 a53e ad0c 613e 93ab a13e deb5 433d
00000020: 8b4c 463d 0a3e e93d e922 c43d 3818 f43e
00000030: 3a3c 263d 30ef 7d3e 5a40 773d 637c a13d
00000040: b98a f83e 12cd 313f aed8 873d 8c79 173e
00000050: 8781 8e3d cf61 133d 7465 3e3e 2c7b 863d
00000060: 7749 023e 87b4 303f fb31 d23d 927e 913e
00000070: fd61 c63e ca3e 0e3d 5d18 a63d 4395 fa3d
00000080: fbd1 9b3d 54e2 203e a353 6a3d ef40 5e3d
00000090: edf3 5d3d 8ba8 a93d 4f79 093e a4b3 1c3e
000000a0: 5377 d23d 65c8 a93c f9e8 523e c69d 313d
000000b0: 49de c83c 6f33 b13d 96ae 8f3e c7f3 b63e
000000c0: abc9 883d d20c 033e 95e0 953c 728d 1c3d
000000d0: 1037 7f3e 9529 523d 3560 143d d9f3 783d
000000e0: 685a ab3e 15c2 523c 306e a03c 86c8 063c
000000f0: 9397 923e 85ec 183e 3ea7 923e 978a 003f
0.34981525 0.9127521 0.2865388 0.007120635 0.32240918 0.21977492 0.31576213 0.047780864
0.04841284 0.11388786 0.09576971 0.47674727 0.04058478 0.24798274 0.060364105 0.07885053
0.48543337 0.6945354 0.06633125 0.1479246 0.06958299 0.03598195 0.18593389 0.06566462
0.12723337 0.6902546 0.10263439 0.28416878 0.38746634 0.03472785 0.08110116 0.12235501
0.0760841 0.15711337 0.05720867 0.054261144 0.054187704 0.082841 0.13425182 0.15302902
0.102766655 0.020725438 0.20596685 0.043363355 0.024520056 0.08652388 0.28062886 0.35732862
0.0667909 0.1279786 0.018295566 0.03822083 0.24923348 0.051309187 0.036224563 0.060779426
0.33467412 0.012863656 0.019583791 0.008226519 0.28631267 0.14933975 0.2864322 0.5021147

module.layer1.0.conv1.weight f4 [16, 64, 3, 3]
00000000: e82b 373d 9199 ac3d f5ec 543d 97b6 b1bd
00000010: c3eb 9dbd bca8 4dbd fba3 fdba d30b c43c
00000020: 98db c33c a57e 91ba ebc4 943a dc1d eebc
00000030: 9354 923c 5e4d 833d c383 413b d296 9dbc
00000040: d4d4 8c3d 5a96 893c 9d4c 883c a209 82bc
00000050: 94ed a4bd 6e44 fa3b 90ff 90bb 56e8 4bbd
00000060: 0851 5a3c d249 413c 019f 7cbc fd28 03bc
00000070: 7989 5cbc 8d1c a3ba d06c 26b8 c83d dd37
00000080: 9b24 4ebb 2f85 543b 1d23 013b 0fa0 8dbb
00000090: 62c4 5fbd 10fa 9ebd bef0 c439 ec0f 2b3c
000000a0: 52fb 9bbb 307c 00bd 8761 563c 2b38 7bbd
000000b0: 2ed9 84bb 6ae0 0a3d 23a5 663c e5f2 4fbc
000000c0: 170a c13b dd82 cebc d08d fcbc 516b ecbb
000000d0: 2f2f a53a 53b9 743a 6a75 debc f8b4 57bc
000000e0: 3302 f1bc 3278 c7b5 c796 56bb f38b aabc
000000f0: d6b2 153d 9c90 90bb a0b7 01bd f225 a0bc
00000100: a583 153c 510a 36bc 61c7 d73a 7557 34bc
00000110: 7009 bd3a 63af 733c 9d9e 563c 67dc 2abc
00000120: 4dba c7bc 1280 07bc 09d1 cabb 60b3 0abb
00000130: b418 1e3c 8dd3 04b9 c6ee d9bb 5590 0d3c
00000140: 98d3 f93a f8cb 21bc d3b3 acbc c3e5 2cbd
00000150: 612e 1e3c fb22 413c 7169 5a3c 284d 0e3d
00000160: 5466 e33c 8cb1 893c 454b 10bd 4a18 96bb
00000170: bac2 c2bc 66c3 d2bb 29b2 1fbd 7f3f b8bc
00000180: 122a 21bd b899 ecbc 076f 6ebd 0858 843c
00000190: cd5a c3bc fefe 493b b851 503d 0d35 5fbd
000001a0: bdfc 673c 8124 673d 1528 62bc 9974 c33c
000001b0: a66d 71bc f6b1 f9bc 1624 dd3c a905 d3ba
000001c0: 7957 91bc b01c 5cba 1206 993c 7aac 843b
000001d0: 2515 3cbd c5ab e3bc 3521 ffbc fb65 2dbc
000001e0: 8211 573d 51b5 f53c dca0 12bd 2710 7e3d
000001f0: 5656 8c3c 3adf 5ebc 1b2a 9bbc 5633 2ebc
00000200: 689b d1b9 b4ee d13b f1f3 eabb 8cff 0dbc
00000210: 0c77 703c c4fc 7b3a c5b2 96bb 93be 40bd
00000220: a87b 9abd 3285 86bd 770b 433a 1978 f6ba
00000230: 2671 9abd ad73 b13b 4ee3 f9bb 8bcb f4bc
00000240: ad75 f9bc adc1 43bd a097 293d 22ba 49b9
00000250: 6d19 8cbd 3b63 963d 1401 833c 20b7 f2bc
00000260: 4d65 a13b de2e c4bd 2976 90bd 3bba 75bd
00000270: 07ec 0ebd 3dde f5bc c859 04bd 6630 2cbc
00000280: 5ad5 eabb 0558 acbc a356 a73b bebf 063b
00000290: 52ea 9dbd ab90 eb3c e33b 8e3c b868 55bd
000002a0: 7d1f 5f3c fe10 583a 3de2 98bc a028 6ebd
000002b0: 2425 c3bd 1ec4 b4bd fa90 d03c c585 3d3c
000002c0: 9f4a c2bd 139a e03c dfa1 bf3b 71a5 7bbd
000002d0: 02d5 d8bc 52f9 0bbd 5128 50bc 55ef 09bc
000002e0: 954d 52bc 963a 893c 94ce 64bc 6b83 3abc
000002f0: 9f69 833c 14fe bcbb ca89 973c 4b32 f3bc
00000300: 5fe8 413d 3492 f1bc 5cbc 13be 3bee 22bc
00000310: dedd e1bc f6d7 4cbd 5d40 8bbd 740e 67bd
00000320: 347e 1e3b ad49 26bd f955 22bd 5bd0 ae3c
00000330: af7b 853d 7419 613d 8a5c 603d fc84 25bb
00000340: 50d2 3e3b 6e7f 4d3c 8a6d bebb c370 d0bb
00000350: 28f8 8e3b fc85 e33b e8fb b43a ddff 053c
00000360: 888d 0cbd ccc2 18bd a90f c43b 7287 12bc
00000370: cee1 bc3c fd72 8a3d 6cf8 9cbc 354d ed39
00000380: cabd 073d 3396 9e3c f446 253d ebc1 d93c
00000390: ca2a d7bc 54ac f7bc 7932 0fbd cbc9 36bd
000003a0: 1839 eebc cb4c adbc 3d03 96bc 796a f4bc
000003b0: e841 a23d 8b78 083d 2990 063e 46bb 24bd
000003c0: 490b 18bd a03f b9bd aba7 9a3d 1557 9dbc
000003d0: 2f24 d63b 6110 723d 19e2 38bd 1242 b9bc
000003e0: 4603 3dbd d95c bfbc 2dbf 483d 5c79 aa3a
000003f0: 3497 103c a024 1f3a 17f2 cb3b 7a02 8a3c
0.044719607 0.08427728 0.051983792 -0.086774044 -0.077109836 -0.050209746 -0.0019351238 0.02393142
0.023908421 -0.0011100365 0.001135019 -0.029066972 0.017862594 0.06411241 0.0029528 -0.019236956
0.06876531 0.016795326 0.016638095 -0.015873734 -0.08053127 0.007637552 -0.0044249967 -0.04978212
0.013324983 0.011797385 -0.015418769 -0.008005378 -0.01346051 -0.0012444422 -3.9678824e-05 2.6374022e-05
-0.0031454924 0.0032428016 0.0019704767 -0.004322059 -0.054630645 -0.077625394 0.000375634 0.010440808
-0.0047601843 -0.031368434 0.013084776 -0.061332863 -0.00405421 0.033905424 0.014077458 -0.012692188
0.0058910954 -0.025208885 -0.03082934 -0.0072149416 0.0012602563 0.0009335477 -0.027155597 -0.013165705
-0.029419994 -1.4861637e-06 -0.003274368 -0.020818686 0.036547504 -0.00441177 -0.03166926 -0.019549344
0.009125625 -0.011110858 0.0016462618 -0.0110071795 0.0014422368 0.014873358 0.01309934 -0.010428525
-0.024380827 -0.00827028 -0.0061894697 -0.0021164045 0.009649444 -0.0001266731 -0.0066507785 0.0086403685
0.0019060252 -0.00987529 -0.02108184 -0.042211305 0.009654612 0.011788125 0.013330803 0.03474155
0.027758755 0.016808294 -0.035228033 -0.004580532 -0.023774493 -0.0064319847 -0.038988266 -0.022491215
-0.039346762 -0.028881893 -0.058211353 0.016155258 -0.023847008 0.0030822153 0.050859183 -0.054493953
0.014159379 0.056431297 -0.013803502 0.023859309 -0.014735615 -0.030480366 0.026994746 -0.0016099709
-0.017741906 -0.0008396609 0.018679652 0.004048881 -0.045918602 -0.027791867 -0.031143764 -0.010583396
0.05250693 0.029993685 -0.03579794 0.062027123 0.017131012 -0.013603026 -0.018940976 -0.010632357
-0.00039979373 0.0064066295 -0.0071701934 -0.008666884 0.0146768205 0.0009612555 -0.0045989477 -0.047056746
-0.07543117 -0.06568374 0.0007440368 -0.0018804102 -0.075411126 0.005415401 -0.007625974 -0.029882213
-0.03045162 -0.047792125 0.041404366 -0.00019238194 -0.06840787 0.073431455 0.015991725 -0.029628336
0.004925406 -0.09579252 -0.07053787 -0.059992056 -0.034893062 -0.030013198 -0.032312185 -0.010509586
-0.007166547 -0.021038065 0.0051067634 0.0020561065 -0.07710709 0.028755507 0.01736254 -0.05210182
0.013618347 0.0008242278 -0.018662566 -0.05814421 -0.095285684 -0.08826469 0.025459755 0.011567538
-0.09486889 0.027417218 0.005848154 -0.061437074 -0.026468758 -0.034173317 -0.012704925 -0.008418878
-0.01283588 0.016751569 -0.013965268 -0.011383872 0.016041575 -0.005767593 0.01849832 -0.029687067
0.047340747 -0.02948866 -0.14427322 -0.009944494 -0.027571615 -0.050010644 -0.06799386 -0.056410268
0.002418411 -0.040597606 -0.03963277 0.021339586 0.065177314 0.054955915 0.054775752 -0.0025256267
0.0029117055 0.012542589 -0.005811398 -0.0063610985 0.0043630786 0.0069434624 0.0013807984 0.008178678
-0.034314662 -0.037295148 0.005983312 -0.0089434255 0.02305689 0.067602135 -0.019161426 0.00045261686
0.03313998 0.01935873 0.04035087 0.026581725 -0.02626552 -0.03023354 -0.034960244 -0.04462604
-0.029079959 -0.021154782 -0.018312091 -0.029835926 0.07922727 0.033318084 0.1314093 -0.04021766
-0.037120137 -0.09045339 0.075515114 -0.019206563 0.006535075 0.05909765 -0.0451375 -0.022614513
-0.0461457 -0.023359703 0.049010444 0.0013006139 0.008825112 0.0006070826 0.0062239277 0.016846884

module.layer1.0.bn1.weight f4 [16]
00000000: a254 943e 62ce 983e 6f74 853e 04af b83e
00000010: ab94 3c3e 36ad 943e f62d 713e f844 883e
00000020: 7443 9d3e b13d 823e c9fb 493e f670 573e
00000030: 9536 c03e 7449 8d3e 05a1 843e 3263 9a3e
0.2897082 0.29844958 0.26065394 0.36071026 0.18416087 0.290384 0.23552689 0.2661512
0.30715525 0.25437692 0.19724955 0.21039185 0.37541643 0.27595103 0.25904098 0.30153805

module.layer1.0.bn1.bias f4 [16]
00000000: f6a1 af3d 7e3b dc3c ea60 403e ed7f cd3d
00000010: 36fe 0d3e 2999 003e 672d b9bd 3e51 003e
00000020: 4bb0 c33d f0d6 f5bd 1a2e 2a3c f546 553c
00000030: d25d 56be 6f6b e63b 0f2b bcbd 996c 93be
0.085758135 0.026883837 0.1878697 0.100341655 0.13866505 0.12558426 -0.09041863 0.12530991
0.095551096 -0.12003887 0.010386968 0.013017406 -0.20934227 0.00703185 -0.091879 -0.2879379

module.layer1.0.bn1.running_mean f4 [16]
00000000: 766e 59be 3caf 30be bcab 37be d874 76bd
00000010: ec9e 43be ab4c 9cbe c71c b6bd 1268 23be
00000020: ac7b 85be 1de8 5dbe 2215 33be 8092 60be
00000030: 3c57 f5ba 615f 7abe e4ea 75be b300 a7ba
-0.21233544 -0.17254347 -0.17936605 -0.060170025 -0.19103593 -0.30527243 -0.088922076 -0.15957668
-0.26070917 -0.21670575 -0.1748853 -0.21930885 -0.0018718014 -0.24450447 -0.24015385 -0.0012741297

module.layer1.0.bn1.running_var f4 [16]
00000000: c0f3 4b3d 2c19 263d ec1b de3c fc98 8f3d
00000010: 0091 ca3c 5c1a 193d aed8 cd3c 1a8c 423d
00000020: 8800 483d 3580 b03c 4eb8 293c f036 833c
00000030: f6b4 e83c 2105 693d e660 fb3c 21e4 813c
0.049793005 0.04055135 0.027112924 0.07011601 0.024727345 0.037378654 0.025127735 0.047496893
0.04882863 0.021545509 0.010358883 0.016017407 0.028406601 0.056889657 0.030685853 0.01585585

module.layer1.0.conv2.weight f4 [16, 16, 3, 3]
00000000: ee9c 393d a2bd e7bc c7f9 cb3c 93ca 063d
00000010: 6549 cabb b2ed 0b3d 96c4 ea3c f26e c8bc
00000020: e603 2e3d b519 48bd 19db f0bc 50e7 863c
00000030: c9fe f9bc 65fb 8cbc 5ec2 203d dca4 103c
00000040: 0a61 343d f1ee 293d 88b8 913c 6e23 c23c
00000050: 9119 dfbc 93c8 27bc 4419 cf3c bffe ba3b
00000060: b064 00bd 53f2 5c3d dcb8 183d 2506 39bd
00000070: 653f 35bd 997e 9bbd b671 523d a00a 753d
00000080: 1faa 113d 481f 5c3d 6a71 ee3d 3e88 d93d
00000090: b971 be3d 91f9 873d 4fff 0d3d 7074 803d
000000a0: 0ce9 7a3d 42ea c83c 5a31 163d 64b4 ec3c
000000b0: 82a9 943c d149 e23c 8dce 953a 1064 c8bb
000000c0: 02d8 873c c75f 1a3d 9950 b73c 99ab 893c
000000d0: 0793 7e3d 6c31 8c3d 9839 f6bb 9562 4fbd
000000e0: 7c85 05bc 588f c03c c6d4 0abd e1a5 92ba
000000f0: 8a87 853d f644 bb3c b4ea a73c 9d3b 30bd
00000100: 2e2f 0bbd aa87 45bd 8ba1 183d a4d0 0abc
00000110: e13a dabc 89c5 173d 25d7 7dbc 69c7 85bc
00000120: 12ed 50bc 053e 96bd a4f0 cabc 3e71 07bd
00000130: 88a5 6dbd 4d30 84bd 6b47 c33c 8d1a ad3b
00000140: f61b d23b 98d7 043c 133d b23c 5c4b 433d
00000150: b477 453c 0ce0 2e3b 42df 583c f936 fd3c
00000160: 4672 7b3c 78fc c3bb 50e9 ca3a 0ced fcbb
00000170: 8504 d33c a92c 33bb d58c 57bc 43f2 8bba
00000180: 6385 e1bc 186e eebc dd2f bbbc f3ba 2b3d
00000190: 5030 863c 38e0 073d bf5b fc3b e878 503b
000001a0: cdd0 d73c 77ce dd3a 1497 e53b 4526 ba3c
000001b0: e3c5 72bd 6cef 67bd edb0 b9bc 3bd2 e4bc
000001c0: 3c20 fcbc 10bc 613b ebee eb3a f7f0 9f3c
000001d0: 5298 4b3d 6dd1 923c 5ced abbc 950f cd3b
000001e0: 12a9 09bd 0680 52bd bd09 8bbd 0e0e 95bc
000001f0: 0b22 4bbd 1e12 95bd 27ff 9d3b 0bad 1d3d
00000200: bf49 663d e284 a3ba 437b 693c a6dd 0b3d
00000210: f989 83bb 2b13 f23a c972 093c d57e 253d
00000220: 774d 343d f05c 293d ecc6 c7bb 3b7e da3b
00000230: 643c 62bc aceb af3c 26b9 793c dd07 c33a
00000240: 9da2 e13c ca99 9a3b aaa8 35bc 129e b1bc
00000250: cf6d c33c 96eb 393c 5a7f d8bc 1f7d 293c
00000260: 92c8 f03c 0d70 10be 0c7f 13bd e5ae 383d
00000270: d105 afbb 8453 fe3c 3d3b 503d 39b2 303d
00000280: 5832 83bc 4eee 5a3c 1ca5 b4bd 273e f2bd
00000290: b4ab 9fbd 9302 343d ab2e 6fbb 7158 443d
000002a0: 090c f03c 06e8 733c 4b68 2a3d 0556 80bd
000002b0: 7da9 34bd 95d4 ee3b 1957 69bb 5cc5 82bc
000002c0: f72a 633d 78c8 35bc 2a22 f33c 5a48 843d
000002d0: b16e 973d c160 b4bb 551c 5f3c 7865 0b3d
000002e0: 467e d9ba 41b8 5e3d 34f4 303d d8ab f2bc
000002f0: 077a 2ebd d416 033c 3747 fdbb b831 5a3d
00000300: eea8 79bd bb6a 1cbe 2456 97bd c7b7 8e3b
00000310: cc38 4ebd 9890 333b 5c58 363d 0440 1dbc
00000320: 6421 5ebc a032 e83c da37 e1bc 2195 c6bc
00000330: 4c7b 57bd dfb1 8bbd 994f 59bd b7a5 b23b
00000340: 7318 c6bc 5755 073d e09b 4c3c b16e 8dbd
00000350: f85c eabd 4360 26bc 4ea5 51bd f65a 00be
00000360: 4072 843d bc38 6938 1982 623c b1e9 063e
00000370: 0996 393c 6de5 513d 3659 e8ba c958 09be
00000380: 3eb6 4c3c b60e 203d 97f0 5fbd 060a 14bd
00000390: b990 803d 3060 753c 2aa1 423b c6a1 1f3c
000003a0: a5d1 893b 59c7 e3ba 45d4 2b3c a94f 443d
000003b0: cd0a 973d 548c 42bd 4b18 c63c 1826 8a3d
000003c0: 38fa 54bd 899f 13bd 660e f1ba eedc 973d
000003d0: 65fc 7e3d fc9a 8d3b 709b dc3d 4ac0 4f3d
000003e0: a48c a2bc 9f87 783d 126e 8ebc ef6d c5bd
000003f0: d187 833a cad5 e4bd e498 eabd 34ea b53c
0.045315675 -0.028288666 0.024899377 0.032908034 -0.0061733 0.03416223 0.028658193 -0.024466965
0.042484187 -0.04885264 -0.029401349 0.01646772 -0.030516999 -0.017209718 0.039247863 0.008828368
0.044037856 0.041487638 0.017788187 0.023698535 -0.02723387 -0.010240692 0.025280602 0.0057066376
-0.031346023 0.053942036 0.03728567 -0.045171876 -0.04424991 -0.07592506 0.051377974 0.059824586
0.03556263 0.05374077 0.11642726 0.10621689 0.092990346 0.06639398 0.03466731 0.06272209
0.061257407 0.024525765 0.03666816 0.02889461 0.018147234 0.027623089 0.0011429355 -0.006115444
0.016582493 0.037688997 0.0223773 0.016805457 0.062151935 0.06845364 -0.00751419 -0.050631125
-0.008149501 0.023505852 -0.033894323 -0.0011188352 0.06519993 0.022860032 0.020497657 -0.0430256
-0.03398054 -0.048225082 0.037263434 -0.008472595 -0.026639404 0.03705362 -0.015493189 -0.016330438
-0.0127518345 -0.07336048 -0.02477295 -0.03306698 -0.05801919 -0.06454525 0.023837766 0.005282706
0.0064120246 0.008108042 0.021757638 0.04767929 0.012052465 0.0026683835 0.013236823 0.030910002
0.015347069 -0.0059810244 0.001548091 -0.007718688 0.025758991 -0.0027339852 -0.013156136 -0.0010677058
-0.027529424 -0.029105231 -0.022849971 0.041926336 0.01638046 0.033172816 0.0077013667 0.0031810347
0.026344681 0.0016922493 0.0070065353 0.022723326 -0.05927075 -0.056624815 -0.022667373 -0.027932277
-0.03077709 0.003444437 0.001800028 0.01952408 0.04970581 0.017922128 -0.020987205 0.006257961
-0.033608504 -0.051391624 -0.06788967 -0.018195178 -0.049593013 -0.07278846 0.0048216763 0.038495105
0.056222674 -0.0012475515 0.014250579 0.034146927 -0.0040142504 0.0018468847 0.008389183 0.04040416
0.04401919 0.041348398 -0.0060967114 0.00666788 -0.013808344 0.021474682 0.015241897 0.0014879663
0.02754336 0.00471804 -0.011087576 -0.02168182 0.023856072 0.011347672 -0.026427913 0.010344773
0.029392514 -0.14105244 -0.036009833 0.045088667 -0.0053412695 0.031045683 0.050837744 0.043138716
-0.016015217 0.01336248 -0.088205546 -0.11828261 -0.07796422 0.043947767 -0.0036496322 0.047935907
0.029302614 0.014886862 0.041603368 -0.06266407 -0.04410695 0.0072885253 -0.0035604893 -0.015963249
0.055460896 -0.011095159 0.029679377 0.064591125 0.073941596 -0.005504698 0.013617595 0.034032315
-0.0016593419 0.054374937 0.04320164 -0.029622957 -0.042596843 0.008001048 -0.0077294367 0.05327007
-0.06095212 -0.1527509 -0.07389477 0.004355404 -0.050347134 0.0027399417 0.04451786 -0.009597782
-0.013557766 0.028344452 -0.027492452 -0.024241032 -0.05260782 -0.068210356 -0.053054426 0.0054518837
-0.02418158 0.03304037 0.012488335 -0.06905878 -0.11443514 -0.0101547865 -0.051183037 -0.12534699
0.06467104 5.5604367e-05 0.013824963 0.13175084 0.011327275 0.051244188 -0.0017726782 -0.13412775
0.012494622 0.03907653 -0.054672804 -0.03614237 0.06277604 0.014976546 0.0029698112 0.00974316
0.0042059 -0.0017378136 0.010487621 0.047927532 0.07375107 -0.04749711 0.024181506 0.06745547
-0.05199644 -0.036040816 -0.0018391132 0.07415186 0.06225242 0.004321454 0.10771835 0.05072049
-0.019842453 0.060676213 -0.01738647 -0.09640109 0.0010034983 -0.111735895 -0.11454943 0.022206403

module.layer1.0.bn2.weight f4 [16]
00000000: 947c d93d 2a85 873e 9b0c 883e d41c 8c3e
00000010: f728 f23e 6d34 073f defd ef3e 0a42 0d3f
00000020: 5378 0c3f 0341 573e a9ea 8c3e cc40 993e
00000030: 16e7 4f3e 001c 6c3e 76eb cb3e 27a2 a03e
0.106194645 0.26468784 0.26572117 0.27365744 0.4729688 0.5281437 0.46873373 0.5517889
0.548711 0.21020894 0.27522781 0.2993225 0.20302996 0.23057556 0.3982808 0.31373712

module.layer1.0.bn2.bias f4 [16]
00000000: 720c ed3d 3a8e fb3d 0d71 82bc 7973 a73d
00000010: aba4 d73b 064a 67bb 3c87 f1bc fd88 4cbc
00000020: d467 b7bc 36a1 163e 63c9 d53c 1ba9 2e3d
00000030: 73a0 143e a9cd 5d3e 6938 01bd 570a 823e
0.115746394 0.12282987 -0.015923047 0.081763215 0.0065809092 -0.0035291924 -0.02948343 -0.012483832
-0.022388376 0.14709935 0.026097005 0.04264174 0.14514332 0.21660484 -0.031547938 0.25398514

module.layer1.0.bn2.running_mean f4 [16]
00000000: 1225 063e eb66 dfbd 862a 04be e0eb 0fbc
00000010: 539d 4ebd b9c1 34bc f325 63bc 0ec9 e83c
00000020: d803 6ebd 3232 8fbd 5b8d 8fbc 49e2 91bd
00000030: e0db 80bc 4528 99bd eb00 f4bc 8a5c 70bd
0.13100079 -0.10908302 -0.12906846 -0.008784264 -0.050443005 -0.011032515 -0.013864028 0.028416183
-0.058109134 -0.06991996 -0.017523458 -0.071232386 -0.015729845 -0.07478384 -0.029785594 -0.058682002

module.layer1.0.bn2.running_var f4 [16]
00000000: 86dc e53b e06b d13c 479c b73c b5ff 833c
00000010: 2977 1c3d 7b35 e23d 8b3f 323d 59e2 8e3d
00000020: 10ef 803d 9575 983c 2a96 723c b388 a03c
00000030: a926 893c 0548 cc3c 1503 c03c 2b2c c23c
0.007014814 0.025564134 0.022413386 0.016113142 0.038199577 0.11045357 0.04351763 0.06976766
0.062955976 0.018610755 0.01480631 0.019596433 0.016742067 0.024936685 0.02343897 0.023702702

module.layer1.0.shortcut.0.weight f4 [16, 64, 1, 1]
00000000: 1fa8 9a3c 05c3 ccba 957f 383d 9a7b b33c
00000010: f22e 2d3e 98ee 4e3c 47cb 12bd c9ff 203c
00000020: f551 b2bd 1746 863d 4e6a dbbb 0b6e 99bc
00000030: 0489 a3bc 0b80 223e 25ca 3cbd 5513 0e3c
00000040: f9cc ea3b 3342 a1bd c600 853d 36f2 b43c
00000050: 80e2 b83d 2eb9 433d 7f93 e9bc 585f d2bc
00000060: 6f07 a53d 8cbc 713d 8111 093d cbca bb3c
00000070: 105c 1f3e b38a 223d b645 30bc dc06 973c
00000080: 802a 88bd abbd 00bc c358 c93c c7b9 b03c
00000090: a07a ac3d 3934 293d 1396 4a3b c0e0 023d
000000a0: 73f9 763c 3f18 6abc 18d3 903d a2d1 803a
000000b0: b260 4a3d 1362 2a3b 5c37 19bd 3b33 b13e
000000c0: 2c15 323d c4ea ac3c 2bda 433d 12bf c63d
000000d0: b818 153c f1d8 17bd 84ec 4c3b 847b 1cbd
000000e0: 2dd3 213d d9cb 3f3d c640 f43c cb0d c23c
000000f0: 6da9 b93d f53e 413d 709d 973e bf59 27bd
00000100: cd3c 52bc cfa4 c0be 59b3 803d ba68 c33b
00000110: e381 dbbc 041f c93c 3113 1e3e 11d0 f53b
00000120: 8e21 4a3d e883 213c 35d5 9cbc 470d 6d3d
00000130: 7e98 0abb 1cb9 ef3b 68ea 50bc 0f48 fbba
00000140: 78db 473d ac6f 26bd 8881 253d 50fa 043d
00000150: 8bb2 483b 731b f9bc bae9 af3c 61d2 e13b
00000160: dc3f e03c 3e9a a6bd e863 713d be96 c4bd
00000170: 9c48 a53d 19a3 3f3d 2d19 51ba ec9c 933c
00000180: 1aef 86bc a1b7 a83d cbda 133c c260 5a3d
00000190: a962 373c 3d9d f6bb 350a 423c a40a 14bc
000001a0: 567a a1bc ee0c fb3b dea9 31be 2010 98bd
000001b0: d3c9 883c 906d d23c 9a9f de3d a81c b2bd
000001c0: 5f71 4a3d 4b7a edbd 0e1d 463c a1fc c7bc
000001d0: f11b 03be 2552 593d 0e53 df3a 551c 4dbc
000001e0: 5fb1 9dbc bc57 36bb 9a7f df3c 981c 6fbc
000001f0: a5dc 5bbc b8b8 3d3d 2b60 f03b d82a 9cbe
00000200: be2d 4cbe 17eb 0d3d f31f c2bd daf9 ab3b
00000210: 97cb b93b 455a 72bd 0d4f ad3d e74e 373b
00000220: dd2e 693d 6062 a23b fb3c 663d fb80 763d
00000230: 7add 813d 115a b63d 2500 b4bc 4497 733d
00000240: 99f7 a73c 69d4 0a3d e11e fdbc 180b a33d
00000250: 10c4 99bc e8eb a4bd 0282 3abc 33df 3e3d
00000260: d20f 25bd 38e9 29be 6c6c 02bd 9cf9 90bd
00000270: f333 383d ea4c 1dbd 1e4b 293e 2849 adbc
00000280: 0360 bdbc 000c 963d d869 c6bc 3230 55bd
00000290: e4ad 843c a9c8 48bc f58c 8e3d d983 ffbd
000002a0: ae5f 86bc 7eb8 8d3b d7f3 743c 3fe0 0a3d
000002b0: 2953 923c 10f8 bebc 0b15 5f3d 02c9 d5bb
000002c0: 0e93 85bb ed85 823c b639 41bd aa20 32be
000002d0: baa7 ebbc 8650 b3bb 358e a13d 2a25 b83d
000002e0: 72b5 1ebe 95a8 153b 0312 043c ede4 b93c
000002f0: 1f16 23be feba d53b 7687 74bd 1131 9b3d
00000300: 46ed 9e3d c82c 5a3b 8f62 20bd 9c18 953c
00000310: 42ce 273e 3b39 263d 3998 c63a e436 173d
00000320: aa27 073e b655 60bc 7b11 7a3d dfae 2b3d
00000330: bb91 d13c 5a4d 3c3e 6cef 4f3d 476f 17bd
00000340: 73e8 e13c e87a cc3b a882 843c 2363 21bd
00000350: 3a49 7fbc fd3a 003c 1443 f1ba 9ffd 2fbd
00000360: 5d72 1dbd 9889 193c d086 963c 4d71 503c
00000370: a39d 223e 92f8 63bc bc60 dd3c e5e7 91bc
00000380: 6a44 083e 5cdf 1c3d 2424 193c 05b7 8abb
00000390: 0766 8f3d 0066 dd3c dd2d 543e a136 a63c
000003a0: 4e6f 7d3c ca92 753d 2e9c 7cbd eacd f6bc
000003b0: 24f0 f93c 04c5 793c cfb0 a13c cfad eb3c
000003c0: 7081 bb3b 4bf1 6fbc b728 423d cf8e 613c
000003d0: a1b3 48bd 387a 2a3e c77f c0bc e71f 0c3c
000003e0: 0fe8 563d dee4 013d 5cc6 0d3d 8595 8bbc
000003f0: fc71 b13c 01dd 6c3c 0660 b73c 1ff8 42bc
0.018878995 -0.0015622085 0.045043547 0.021909524 0.1691244 0.012630127 -0.03583839 0.009826609
-0.08707038 0.06556337 -0.006696022 -0.01872923 -0.019962795 0.15869157 -0.046091218 0.008671601
0.007165548 -0.078739546 0.06494288 0.022088151 0.090275764 0.047784023 -0.028512714 -0.025680229
0.080580585 0.059017703 0.03346396 0.022923848 0.15562463 0.039683055 -0.010758808 0.018435888
-0.06648731 -0.00785772 0.024578458 0.02157296 0.08421826 0.04130957 0.0030912205 0.03195262
0.015074122 -0.014288007 0.07071513 0.00098281 0.049408622 0.0025998398 -0.03740631 0.34609398
0.043477222 0.021108039 0.047815483 0.097044125 0.009100132 -0.037072126 0.0031268904 -0.03820373
0.039508034 0.046825264 0.029816043 0.023688218 0.090655185 0.04717918 0.29612303 -0.040857073
-0.012831879 -0.3762574 0.06284208 0.005963412 -0.026795333 0.024550922 0.15437008 0.00750161
0.049348406 0.009858109 -0.019144634 0.05787399 -0.0021148021 0.007315768 -0.012751199 -0.0019171255
0.048793286 -0.040633842 0.040406734 0.03246528 0.0030623998 -0.030408597 0.021473754 0.006891534
0.0273742 -0.08134888 0.05893317 -0.09599064 0.0807049 0.0467864 -0.0007976469 0.018019162
-0.016471434 0.082381494 0.009024332 0.05331493 0.011192956 -0.0075260685 0.011843254 -0.00903574
-0.019711655 0.0076614534 -0.17349955 -0.074249506 0.0166978 0.02568701 0.10870285 -0.08696872
0.049424525 -0.11595591 0.012091888 -0.024412455 -0.12803628 0.053056855 0.0017038302 -0.012518962
-0.019249616 -0.002782329 0.027282525 -0.01459422 -0.013419305 0.04631874 0.007335683 -0.30501437
-0.19939324 0.034648027 -0.0947875 0.0052482905 0.0056700218 -0.05916812 0.08462343 0.0027970613
0.056929458 0.004955575 0.0562105 0.0601816 0.063410714 0.089038976 -0.021972725 0.05947043
0.020503806 0.033893976 -0.030898513 0.079611 -0.018770248 -0.08052808 -0.011383535 0.046599578
-0.04029829 -0.16592872 -0.03184168 -0.07078859 0.044971418 -0.03840343 0.16532561 -0.021153048
-0.023117071 0.073265076 -0.024220392 -0.052047916 0.016196199 -0.012254872 0.06960479 -0.1247632
-0.016403046 0.0043249717 0.014950714 0.033905264 0.01786192 -0.023311645 0.054463428 -0.006524206
-0.004076368 0.015933001 -0.047174178 -0.17395273 -0.028766502 -0.0054722456 0.07888452 0.089914635
-0.15498903 0.0022836078 0.008060935 0.022692168 -0.15926407 0.0065225353 -0.059699498 0.07577718
0.077601 0.0033290852 -0.039156493 0.018200211 0.16387275 0.040581923 0.0015151567 0.036917582
0.13198724 -0.01369231 0.061051827 0.041914817 0.025582185 0.18388882 0.05076544 -0.036971357
0.02757666 0.0062402375 0.016175583 -0.039401185 -0.015581423 0.007826564 -0.0018406832 -0.04296648
-0.038439143 0.009371184 0.01837483 0.0127223255 0.15880446 -0.013914244 0.027023666 -0.017810771
0.13307348 0.03829895 0.0093469955 -0.0042332434 0.07001882 0.027026176 0.2072062 0.020289721
0.015468432 0.059954442 -0.061672382 -0.030127484 0.030510016 0.015244726 0.01973763 0.028769402
0.0057222173 -0.014644931 0.04740211 0.013766958 -0.048999432 0.16648185 -0.023498429 0.008552528
0.052467402 0.031712405 0.034613 -0.01703907 0.021660797 0.014456988 0.022384655 -0.011899977

module.layer1.0.shortcut.1.weight f4 [16]
00000000: f6ce 923e 3bfb e13e a3e0 8e3e fa29 0f3e
00000010: 4d6e d13d e74b 71bc f71d 0b3e 6611 043d
00000020: b9f6 1a3d c873 5e3e bd71 823e 2c70 9f3e
00000030: 0933 2c3e 961f 993e bd52 3f3e 04af 0e3e
0.28673524 0.44136986 0.2790576 0.13980857 0.10226116 -0.014727569 0.1358565 0.032243155
0.03783295 0.21723855 0.254774 0.31140268 0.16816343 0.2990691 0.18683906 0.1393395

module.layer1.0.shortcut.1.bias f4 [16]
00000000: 720c ed3d 3a8e fb3d 0d71 82bc 7973 a73d
00000010: aba4 d73b 064a 67bb 3c87 f1bc fd88 4cbc
00000020: d467 b7bc 36a1 163e 63c9 d53c 1ba9 2e3d
00000030: 73a0 143e a9cd 5d3e 6938 01bd 570a 823e
0.115746394 0.12282987 -0.015923047 0.081763215 0.0065809092 -0.0035291924 -0.02948343 -0.012483832
-0.022388376 0.14709935 0.026097005 0.04264174 0.14514332 0.21660484 -0.031547938 0.25398514

module.layer1.0.shortcut.1.running_mean f4 [16]
00000000: 5834 093e 56f3 68bd c887 46bd 3928 b73d
00000010: 336a d6bc f012 4cbd 85bd 93bd 6ca2 c4bd
00000020: 3381 54bc db75 cbbd 8872 14be 65bc 81bd
00000030: ad9b d0bd 4692 413a 396d 37be a650 203d
0.13398874 -0.05687269 -0.048469335 0.08943219 -0.026173687 -0.049822748 -0.07213882 -0.09601292
-0.012970257 -0.099345885 -0.14496815 -0.063347615 -0.10185943 0.0007384162 -0.17912759 0.039139412

module.layer1.0.shortcut.1.running_var f4 [16]
00000000: e97a 653c f6da a03c 3be6 4b3c 3a9b 673b
00000010: ac55 533b 1be3 e23a b362 fd3b 2939 2d3b
00000020: b81e d83a ae46 0a3c 5512 bd3b f9cf 943c
00000030: 8468 143c f900 8f3c e328 863b 7b80 6a3b
0.014006355 0.019635659 0.012445028 0.0035340325 0.003224711 0.0017310114 0.007732713 0.0026431775
0.0016488647 0.008439703 0.0057700076 0.018165575 0.009058122 0.017456518 0.0040942295 0.0035782147

module.layer2.0.conv1.weight f4 [32, 16, 3, 3]
00000000: 4fcf 2bbd 79f3 20bd a396 34bb 9d93 13bd
00000010: 1c05 44bc 03b2 aa3c 8774 86bc f5c5 7b3c
00000020: cbd9 663d ab74 0ebd 3df5 853c 36ef 0cbc
00000030: 2240 02bd 6cb2 a2b8 eb2e 033c a617 90bc
00000040: 373d d0bc 10e8 1b3d 73f8 803c e18b 71bc
00000050: 871e 70bb 5aec 2a3a 33aa 5f3b bca6 b43c
00000060: 2129 97bb 8af5 b43b 209e 263d 98f9 99bc
00000070: 39ff 5abd 092b 0d3c c6b3 7dbd cc80 e1bc
00000080: 841a 19bb a682 95bd 171b cbba c19d 7f3c
00000090: d742 503c 475d f6bc e1a9 7cbc 7978 12bb
000000a0: 65a8 0bbd b351 54b8 d0fb 493b d90d e3bc
000000b0: 83d1 c4bb 53e1 c4bc b3fc 943d 2394 8f3b
000000c0: 466d 9a3d 331d 303e 5bff bb3c 5084 f73d
000000d0: f42a 673b 07bb 8a3d fa31 463c 5796 e03b
000000e0: 1563 333b 76aa 4fbb 42b5 a93c 438c 91bd
000000f0: 6b07 51ba 4a69 b7bc 9845 cbbc 75ec b4bc
00000100: 4a22 4b3d efbb 8a3a 6d6a b9bc 995e c93d
00000110: 44c0 72bd 3e81 4b3d 2998 403d 8ebb 8bbd
00000120: 5b80 573d 3b88 35bd 0c10 6a3c 15c4 033e
00000130: dc7c 18bd aa38 0cbd 1846 cc3d 4401 303d
00000140: 4bb0 72bd 6005 8cbc 3032 f3b5 af0b a0bc
00000150: fdeb 12bd d084 ee3b ca8f 2b3c 2e35 b3bc
00000160: 732d a63c fff0 003d 11bd 053e 7b8f 98bb
00000170: a93a b2bd 753d d53d a0f7 7dbc 47fa d7bd
00000180: 3952 863d fb46 87bc 033b e2bd d45d 643c
00000190: 8449 63bd 4fe5 903c 4bbb e8bb 1e67 72bc
000001a0: 6bf8 52bc 6c84 b5bc 79b1 31bc 8d85 c93c
000001b0: 8605 2dbd d4f1 afbd 4057 823d 2831 a4bc
000001c0: 70b9 ffbc 32ff d43d bd85 05bd 8fbe b1bc
000001d0: d0eb 623d 0245 c23c 6727 1fbd 12e7 f7bb
000001e0: 2cba e73c 98fd 1dbd 0497 c0bc a9b9 2d3d
000001f0: 47ca dfbc b098 403c 2370 133b 5261 6abd
00000200: 3cdd 8ebd 3d05 953c 180c 5bbd bedf 55bc
00000210: 74de 65bc c99e 9bbc 2ef7 243c 2c39 0ebc
00000220: 05fc 8ebc 6cfd b23d 3ac5 a5bc db7c 053d
00000230: 7a5f 733d b938 a13b 8918 e13c ab20 3f3d
00000240: 80c3 2b3d 041b 5f3d e0a8 aa3d dce7 7bbd
00000250: 8b50 d1bc 8376 1d3d c32b 77bd 369b 5abd
00000260: c7c6 f63b 87b2 24bc 16b4 03be 20eb 31be
00000270: 979d 303e 1b6d 8d3d 7f59 32bd 11f1 793d
00000280: 81b6 163e 1d95 5a3e 253f c13c 80ac 0b3d
00000290: 9438 2cbc b60a 123d bfc7 b5bc 0c6b 743b
000002a0: 1035 ad3c 4d11 92bb a2e9 07bc ad6b cabc
000002b0: 39fd 7bbd b5c3 0cbd 74c3 a9bc 024e 9dbd
000002c0: d6fc c1bd c754 393d 77ad 9ebc db73 3bbd
000002d0: d1bf 193d 1e5b 543c cabc a2bd 7ecf f6bc
000002e0: e3b2 333d 726b 1bbc a34b ddbd e7af 933c
000002f0: 2619 b83d 3c83 9fbd 8cf5 b7bd b356 20bd
00000300: cc69 13bb abeb c7bc 0199 0ebd 4eac 253c
00000310: f0d8 c93c 98b7 a63c be25 0cbc 7fce a1bc
00000320: 1a8f 6e3a ffbd f33c d352 5ebd d898 6fbd
00000330: 4cf8 0a3d 9fc1 7aba 9b54 99bd 7ae0 b03c
00000340: 0aa2 8b3d 0491 3c3d b71f 7b3d ae8b 373e
00000350: 8c65 d83d d8af 8dbb 0399 4e3d 9c0f ab3c
00000360: eea4 b7bc b8aa 6fbd 9d8a cdbb d605 b93c
00000370: 62ac 9dbd 8f40 a4bd cb6a 033d 0d34 00bd
00000380: 49c4 6cbd 98d2 d5bd 96b5 e2bc 2bbd 743d
00000390: 2dad 0cbc e36f 34bd f9e8 3abd 9c4c ac3d
000003a0: 0e90 593d 1146 1fbd 8932 513c 72a8 053c
000003b0: 26b7 333b 8a63 133b 2444 cfbc 163a 01bd
000003c0: c624 423c 1282 a03c b890 0dbd 2b22 7fbd
000003d0: cb82 cabd b972 88bd b5e2 49bd 0c72 ddbd
000003e0: a383 97bd 5616 81bd 3c54 79bd 99b7 14bd
000003f0: a90e 703c fb8f 5b3d b38a 3f3c a31a 81bd
-0.04194575 -0.039294694 -0.0027555607 -0.036029447 -0.011964109 0.020836836 -0.016412986 0.015367021
0.056360047 -0.034779232 0.01635229 -0.008601954 -0.031799443 -7.7579956e-05 0.008006792 -0.017589401
-0.025419815 0.03806311 0.01574347 -0.014742822 -0.003663929 0.00065202045 0.0034128546 0.022052161
-0.0046130572 0.0055224346 0.040678144 -0.018795773 -0.053466056 0.008616217 -0.061939023 -0.027527235
-0.0023361752 -0.0730031 -0.0015495744 0.015601576 0.012711248 -0.030073775 -0.015421362 -0.002234964
-0.03409614 -5.0620827e-05 0.0030820258 -0.027716564 -0.006006421 -0.024033224 0.07274761 0.004381673
0.075403735 0.17198639 0.022948911 0.120857835 0.0035273405 0.06773954 0.012096876 0.0068538594
0.002737229 -0.0031687296 0.020716313 -0.07106831 -0.00079738226 -0.022389073 -0.024813458 -0.022085408
0.049593247 0.0010584573 -0.022633756 0.09832496 -0.05926539 0.0496838 0.04702011 -0.068228826
0.052612644 -0.044319373 0.014286052 0.12867768 -0.03722845 -0.034233727 0.09974307 0.042969957
-0.059250157 -0.017092407 -1.8119517e-06 -0.019536821 -0.035869587 0.007279016 0.010471294 -0.021875944
0.020285344 0.03147983 0.13060404 -0.004655776 -0.08702595 0.104121126 -0.015500933 -0.105457835
0.065586515 -0.016513338 -0.11046412 0.013938386 -0.05549003 0.017687468 -0.007102405 -0.014795093
-0.01287661 -0.02215787 -0.010845535 0.024599815 -0.042241596 -0.08591047 0.06364298 -0.02004297
-0.031216353 0.10400237 -0.032598246 -0.02169731 0.05540067 0.023714546 -0.038855936 -0.0075653875
0.028287016 -0.038571924 -0.02350951 0.042413387 -0.027318133 0.011755154 0.0022497259 -0.057221718
-0.06975791 0.018190974 -0.05347833 -0.013053833 -0.014030088 -0.018996613 0.010068698 -0.008680623
-0.017454157 0.08739743 -0.020235647 0.032589775 0.059417225 0.004920092 0.02747752 0.046662014
0.04193449 0.054469123 0.083329916 -0.061500415 -0.025551101 0.0384431 -0.06034447 -0.053370677
0.0075310203 -0.01005233 -0.12861666 -0.1737485 0.17247616 0.06905576 -0.04354238 0.061020914
0.14718057 0.21345945 0.02358968 0.034100056 -0.010511536 0.035654746 -0.022189973 0.003729525
0.021143466 -0.004457629 -0.0082954485 -0.024709547 -0.06152079 -0.03436633 -0.020723082 -0.076808944
-0.09472053 0.045246866 -0.019369824 -0.045764785 0.037536446 0.012961177 -0.07946165 -0.030128237
0.04387177 -0.009486066 -0.10805442 0.018028213 0.08989172 -0.07788703 -0.08982381 -0.039145183
-0.002249348 -0.024404367 -0.034813885 0.010111881 0.024639577 0.020351216 -0.00855392 -0.019751785
0.0009100303 0.029753683 -0.054278206 -0.058495373 0.0339282 -0.0009565595 -0.0748684 0.021591414
0.06818016 0.046036735 0.061309543 0.17924377 0.105662435 -0.0043239407 0.050438892 0.020881467
-0.022417512 -0.05851242 -0.0062726275 0.02258579 -0.07698895 -0.08020126 0.032084268 -0.03129964
-0.05780438 -0.10440558 -0.027674478 0.059750717 -0.00858621 -0.044052016 -0.045632336 0.084130496
0.053115897 -0.03888518 0.012768396 0.008157836 0.0027422397 0.002248975 -0.025301047 -0.031549536
0.011849588 0.019593272 -0.034561843 -0.062288444 -0.09888228 -0.066625066 -0.04928847 -0.10812768
-0.073981546 -0.06303088 -0.060871348 -0.036307905 0.014651933 0.053604107 0.011690783 -0.06303909

module.layer2.0.bn1.weight f4 [32]
00000000: 6768 693e b3f8 c23e 14d4 a43e 91bb 9a3e
00000010: f14a 8b3e 84c9 9c3e 784c 873e 861e 5e3e
00000020: e4b2 9d3e 9f58 aa3e 5137 7d3e e793 a93e
00000030: 4051 b83e 60d1 663e 0711 b33e 3ab6 af3e
00000040: 46e4 a43e 338d 9b3e 119a e73e 8913 943e
00000050: 84b6 a13e 9996 9b3e 5d27 993e b748 643e
00000060: 67a3 983e 8a8f b03e 0721 8e3e 15ad 923e
00000070: 2f54 963e 5fd1 993e fdbc 9a3e 9965 6c3e
0.22793733 0.38080367 0.32193053 0.30221227 0.27205613 0.30622494 0.2642553 0.21691331
0.30800545 0.33270738 0.24728133 0.33120653 0.3599949 0.22540808 0.34973928 0.34318715
0.3220541 0.30381164 0.4523473 0.28921154 0.3158456 0.30388334 0.29912844 0.22293364
0.29812166 0.34484512 0.27759573 0.28647676 0.29361102 0.3004255 0.30222312 0.23085631

module.layer2.0.bn1.bias f4 [32]
00000000: 5c7e 0fbd b66b 13be f8e9 1bbe 2112 d3bc
00000010: 1b65 56bb 1549 a8ba 34ef dd3c 6c89 1b3e
00000020: fc65 4fbd a8ca 9bbd fdf2 cebc 23b0 27bd
00000030: a0d0 65bd 7ff4 10bc 8181 11be 882b 85bd
00000040: fa58 a2bd 57ae febd 997b bdbd 85d4 ce3d
00000050: d5ed 3a3d 5493 d5bc 5a1b 95bd 4089 213e
00000060: ff24 e4bd 4a2c ccbd 601d bd3c dd81 9a3d
00000070: 4154 91bd 167f 79bd dcfe b23d b15e 703d
-0.035032615 -0.14396557 -0.15225971 -0.02576548 -0.0032714072 -0.0012839163 0.0270916 0.15189141
-0.05063437 -0.07607013 -0.02526235 -0.04093946 -0.056107163 -0.008847355 -0.14209558 -0.065024436
-0.07927127 -0.124355964 -0.0925209 0.10099129 0.04563697 -0.026071228 -0.072806075 0.15775013
-0.11139869 -0.09969385 0.023085296 0.07544301 -0.07096148 -0.060912214 0.08740017 0.058684055

module.layer2.0.bn1.running_mean f4 [32]
00000000: 4478 863d 27b2 87be 1f2a 0c3f da7a 59be
00000010: cdc2 21bd fed1 3a3e 8926 73be 11b4 a33c
00000020: 7643 753d b11d f7be 4222 cf3d b3e4 e23c
00000030: 7fcb b13d f5a8 28bf d71a 49be 47aa b9bd
00000040: f3e9 12bf ed55 06be 3a8f 13bf af51 2abf
00000050: 41f8 39be 6600 08bd b01c f1bd f584 a3bd
00000060: 4334 b7be e237 01be 405f cdbc 75b5 473e
00000070: 2efb 1c3e 53b9 f2be 6a68 643d 58e0 0abe
0.065659076 -0.26503107 0.5475177 -0.2123827 -0.039492417 0.18244168 -0.23745169 0.019983323
0.05987879 -0.4826484 0.10113956 0.027696943 0.08681392 -0.6588281 -0.19639145 -0.09065681
-0.5738823 -0.13118716 -0.5764042 -0.6653089 -0.18161108 -0.033203505 -0.1177305 -0.07984344
-0.3578206 -0.12618974 -0.025069833 0.19502814 0.15330192 -0.47407016 0.05576364 -0.13562143

module.layer2.0.bn1.running_var f4 [32]
00000000: adb8 fa3c e24a ae3d 61af b53d e755 d13d
00000010: 692b 9c3d 69ce e93d 4f57 af3d 7f47 963d
00000020: 273e e93d 86fe b03d 4386 823d 4ebb 3a3e
00000030: 4d4c 543e 2e77 343d 1e82 613d 24fb bb3d
00000040: ab7c d33d 9fbe 673d b411 e63d da41 fe3d
00000050: d52e d83d ce8c d03d 1c08 973d dba2 a73d
00000060: 6cb3 8a3d ec4b b53d 984f c53d 9029 fe3d
00000070: 6c57 b33d d63f c93d 57de e73d 28fb ac3d
0.030605638 0.085103765 0.088713415 0.10221463 0.07625467 0.11416323 0.08561575 0.073378555
0.11388808 0.086422965 0.06373265 0.18235514 0.20732231 0.04405897 0.05505573 0.09178761
0.10326513 0.056578275 0.11233845 0.12414904 0.105558075 0.10183106 0.073745936 0.08185359
0.06772503 0.088523716 0.09634322 0.12410271 0.08756909 0.09826629 0.11321705 0.08446342
