results/IGGo/cifar10/nokd/resnet8_best.pth.tar (torch_old, 371450 bytes, 52 tensors)

module.conv1.weight f4 [64, 3, 3, 3]
-0.06143868 0.07551645 0.041513905 0.02211501 0.008508481 0.011980852 0.01817196 -0.101476975
-0.089192405 -0.11187915 0.10952421 0.13420063 -0.04839972 0.042348437 0.10019482 -0.06858468
-0.11811266 -0.061370723 -0.10511657 0.12358081 0.12795562 -0.030690338 0.07365622 0.086801335
-0.103161074 -0.105211616 -0.1061778 0.034821987 0.04287775 0.17046203 -0.29618192 0.14630733
0.041772295 0.010565983 -0.008102746 -0.13556497 -0.07677911 -0.023863226 0.06271953 -0.30355954
0.2789989 0.015251567 -0.049187522 0.10930134 -0.13886917 0.047966555 -0.15801379 -0.09407566
-0.01500761 0.17801301 -0.0695044 0.14461826 0.1594042 -0.1043776 -0.05684833 -0.011634353
0.014065239 -0.032774933 -0.002099385 0.029412603 -0.03203357 -0.0256054 0.01462325 -0.054853395
0.0055034743 0.009129132 -0.019713549 0.022859693 0.030683093 -0.04264834 -0.022250276 -0.003971763
-0.023728155 0.09485592 0.09876596 0.03789533 0.12400699 0.122097485 -0.0011199513 0.038247507
0.043435812 0.02514927 0.024016455 0.0068870215 0.037001744 0.034656066 0.0075127175 0.02364567
0.010939677 -0.005112964 0.010500136 -0.001676218 -0.020078551 0.018591661 0.0017338434 -0.020112395
0.012213294 -0.012427868 -0.02415144 0.0064728577 -0.0037626557 -0.022565916 0.015442248 0.0028385816
-0.016676953 0.013872587 -0.008058355 -0.016173506 -0.038249746 -0.04455639 -0.038792998 -0.027123136
-0.021395488 -0.015107501 -0.012537222 -0.00024975455 0.0020898115 0.019087154 0.012872513 0.01150893
0.022142658 0.034130782 0.03523083 0.012949237 0.030388566 0.03029051 0.0031029922 0.0024996265
0.0037230712 -0.0012236829 0.011359407 0.008417247 -0.015693223 -0.0019028934 -0.0055370154 0.02388562
0.0054522566 -0.0040648244 0.032719813 0.026496364 0.016604075 -0.02594449 -0.013196449 -0.011535723
0.024343915 0.0047499887 0.0016746252 0.03751815 0.026389206 0.022827564 -0.026970735 -0.020612909
-0.011707002 0.012481296 -0.0022832793 -0.00095236953 0.029892793 0.024650382 0.026253683 -0.019280793
-0.012330092 0.0030578682 -0.025666261 0.060971826 0.06826398 -0.020645555 0.07108401 0.10442454
-0.013661937 0.05230059 0.04618186 -0.018887574 -0.021571534 -0.009962289 -0.01832731 -0.072955824
-0.057991505 0.01643336 -0.03595067 -0.055378728 -0.0031661869 0.03298981 0.003508652 0.020154921
0.0059362333 -0.034622848 0.013743051 -0.010381633 -0.050825406 -0.058842577 -0.09374395 -0.07985899
-0.102500826 -0.13890706 -0.097666495 -0.03693026 -0.025996355 0.005755758 -0.03829324 -0.068815716
-0.05875347 -0.039269283 -0.062463906 -0.033599325 0.0032577792 0.023814922 0.047043666 0.06859307
0.030577704 0.04049224 0.11833286 0.077973194 0.10646517 0.12027051 0.103749074 0.12154292
-0.093694605 -0.20637125 0.06630672 0.103379965 0.22427769 0.16463827 -0.118621886 -0.034316942
-0.03953881 -0.018868152 -0.19691133 -0.01470838 0.25073838 0.32903856 0.09034257 -0.10856441
-0.061517723 -0.21418953 -0.16912074 -0.3074643 -0.097754836 0.18082657 0.25498575 0.10027092
-0.07470132 0.06615925 0.01206798 0.021009743 0.0085192025 -0.03586873 0.038119778 0.00042317613
-0.07011736 0.045810033 0.018708836 0.026668422 0.014071302 -0.019399509 -0.0647464 0.028717155
00000000: 20a7 7bbd 5ea8 9a3d 7c0a 2a3d 8a2a b53c
00000010: 2867 0b3c 564b 443c 5ddd 943c 29d3 cfbd
00000020: 82aa b6bd e520 e5bd 3b4e e03d e46b 093e
00000030: c93e 46bd 8e75 2d3d f132 cd3d 2076 8cbd
00000040: 0de5 f1bd de5f 7bbd 5b47 d7bd f017 fd3d
00000050: cc06 033e 4e6a fbbc 13d9 963d e6c4 b13d
00000060: 1d46 d3bd 3079 d7bd bf73 d9bd 80a1 0e3d
00000070: 94a0 2f3d 998d 2e3e 28a5 97be 97d1 153e
00000080: 6d19 2b3d f21c 2d3c 61c1 04bc 8bd1 0abe
00000090: 5e3e 9dbd d07c c3bc 1973 803d 286c 9bbe
000000a0: f2d8 8e3e b5e1 793c db78 49bd 62d9 df3d
000000b0: b833 0ebe 9478 443d 5ece 21be bdaa c0bd
000000c0: 7be2 75bc 0b49 363e 5358 8ebd cf16 143e
000000d0: db3a 233e ecc3 d5bd cbd9 68bd 039e 3ebc
000000e0: e371 663c 023f 06bd d695 09bb b3f2 f03c
000000f0: a235 03bd 6ac2 d1bc 5b96 6f3c f4ad 60bd
00000100: 7d56 b43b 5b92 153c 4f7e a1bc 4044 bb3c
00000110: 1c5b fb3c 07b0 2ebd 3646 b6bc 9025 82bb
00000120: 8c61 c2bc d243 c23d cf45 ca3d 2238 1b3d
00000130: 60f7 fd3d 3f0e fa3d 54cb 92ba 6ba9 1c3d
00000140: c0e9 313d d805 ce3c 28be c43c 86ac e13b
00000150: 248f 173d 85f3 0d3d 3e2d f63b 90b4 c13c
00000160: 553c 333c a78a a7bb c308 2c3c 8bb4 dbba
00000170: c67b a4bc 8a4d 983c 2142 e33a c0c2 a4bc
00000180: 451a 483c 429e 4bbc 3ed9 c5bc 441a d43b
00000190: e396 76bb 28dc b8bc 7c01 7d3c 7f07 3a3b
000001a0: 1b9e 88bc d949 633c 3107 04bc 4d7e 84bc
000001b0: c4ab 1cbd c380 36bd 68e5 1ebd 5731 debc
000001c0: 9745 afbc 7485 77bc ec68 4dbc 7df1 82b9
000001d0: 38f5 083b aa5c 9c3c 3ce7 523c f38f 3c3c
000001e0: 8564 b53c b8cc 0b3d 344e 103d 0929 543c
000001f0: 71f1 f83c ce23 f83c 925b 4b3b c6d0 233b
00000200: c5fe 733b fc63 a0ba ce1c 3a3c 7ee8 093c
00000210: 138f 80bc 826a f9ba da6f b5bb c7ab c33c
00000220: d8a8 b23b 3832 85bb 3605 063d e70e d93c
00000230: 4505 883c 8a89 d4bc eb35 58bc 5400 3dbc
00000240: e46c c73c cba5 9b3b 197f db3a a2ac 193d
00000250: 2d2e d83c df00 bb3c bbf1 dcbc 67dc a8bc
00000260: bace 3fbc 5a7e 4c3c 12a3 15bb 70a8 79ba
00000270: bbe1 f43c 99ef c93c f711 d73c c1f2 9dbc
00000280: 2704 4abc 8466 483b 0d42 d2bc 98bd 793d
00000290: fccd 8b3d de20 a9bc 7e94 913d 89dc d53d
000002a0: 51d6 5fbc 2539 563d 3129 3d3d 1dba 9abc
000002b0: c9b6 b0bc de38 23bc 2823 96bc dd69 95bd
000002c0: 8088 6dbd 419f 863c 0241 13bd ced4 62bd
000002d0: cd7f 4fbb 5320 073d 6af1 653b ef1b a53c
000002e0: bc84 c23b b0d0 0dbd 892a 613c ba17 2abc
000002f0: 4d2e 50bd ea04 71bd d4fc bfbd 1c8d a3bd
00000300: f4eb d1bd a73d 0ebe 5f05 c8bd 2f44 17bd
00000310: 4ff6 d4bc cc9a bc3b 5fd9 1cbd 41ef 8cbd
00000320: 7ba7 70bd d4d8 20bd 27da 7fbd 729f 09bd
00000330: 7780 553b 8317 c33c dcb0 403d 867a 8c3d
00000340: 187e fa3c 31db 253d 8058 f23d 69b0 9f3d
00000350: 690a da3d 6350 f63d 657a d43d 7feb f83d
00000360: f5e2 bfbd fc52 53be d1cb 873d e0b8 d33d
00000370: 0da9 653e ef96 283e 08f0 f2bd ec8f 0cbd
00000380: 72f3 21bd 6291 9abc 20a3 49be 6bfb 70bc
00000390: c860 803e be77 a83e 8605 b93d 0457 debd
000003a0: 02fa 7bbd 8054 5bbe fd2d 2dbe f66b 9dbe
000003b0: b033 c8bd 9a2a 393e 7e8d 823e d75a cd3d
000003c0: 01fd 98bd 807e 873d c7b8 453c a01c ac3c
000003d0: 2094 0b3c 17eb 12bd 7c23 1c3d bddd dd39
000003e0: b199 8fbd 4da3 3b3d 4643 993c bc77 da3c
000003f0: 518b 663c b8eb 9ebc c399 84bd 3d40 eb3c

module.bn1.weight f4 [64]
0.33064622 0.20941387 0.21089959 0.08980612 0.09125239 0.12999883 0.05829633 0.26263428
0.28799662 0.17723401 0.20401308 0.2647288 0.21403754 0.002487625 0.2575869 0.3647863
0.26539576 0.091172576 0.12129369 0.07816139 0.19843687 0.45031467 0.156611 0.1387435
0.13411981 0.36561212 0.32206413 0.00021423279 0.18521506 0.2576985 0.20543973 0.112406045
0.00036799224 0.075782076 0.194237 0.1706248 0.2454223 0.19360997 0.21724822 0.10855794
0.1629457 0.36775836 0.22985555 0.22418055 0.15957588 0.28287762 0.5793956 0.121365
0.18581863 0.2451607 0.11751809 0.20509279 0.29694602 0.14167237 0.2890549 0.20347257
0.32040402 0.18943562 0.24863288 0.13012937 0.10735133 0.19899881 0.14320216 0.50010145
00000000: 764a a93e 9770 563e 10f6 573e 45ec b73d
00000010: 88e2 ba3d 6a1e 053e 22c8 6e3d 0078 863e
00000020: 4b74 933e d57c 353e cee8 503e 898a 873e
00000030: a82c 5b3e 6c07 233b 6ee2 833e 45c5 ba3e
00000040: f4e1 873e b0b8 ba3d d368 f83d 1413 a03d
00000050: 0933 4b3e a58f e63e a25e 203e c712 0e3e
00000060: b456 093e 8331 bb3e 97e5 a43e ada3 6039
00000070: 04a9 3d3e 0ff1 833e cb5e 523e 2435 e63d
00000080: 15ef c039 a233 9b3d 10e6 463e 44b8 2e3e
00000090: fc4f 7b3e b141 463e 5176 5e3e a053 de3d
000000a0: 3ddb 263e d34a bc3e 415f 6b3e 968f 653e
000000b0: dc67 233e 56d5 903e 4553 143f 378e f83d
000000c0: 3d47 3e3e 680b 7b3e 53ad f03d d803 523e
000000d0: 4f09 983e 9012 113e 01ff 933e 1d5b 503e
000000e0: ff0b a43e 69fb 413e 9e99 7e3e a240 053e
000000f0: 04db db3d 58c6 4b3e 96a3 123e a606 003f

module.bn1.bias f4 [64]
-0.18816432 0.12791696 -0.110952854 -0.06468508 -0.07063979 -0.1158066 0.025177598 -0.124884486
0.0661974 -0.012326003 -0.17220654 0.20816992 0.19171906 -0.008933932 -0.25448003 -0.22675854
0.12844692 -0.10832291 -0.1006512 0.03968426 0.14462258 -0.20637928 0.013947413 -0.09875342
0.11037432 -0.2882617 0.3119324 -0.0011060699 0.17317994 0.021302221 0.08561673 0.03384756
-0.0026733403 -0.075930275 0.21522138 -0.04852082 0.11115263 0.1453972 -0.27906206 0.035926662
0.12624684 -0.23364396 -0.12290322 0.20613512 -0.13081777 -0.1402489 -0.38405484 -0.12619857
-0.14778012 0.13335499 -0.13054726 0.2788193 0.1239371 -0.10803571 -0.11137614 0.10067652
-0.21385232 0.06495281 -0.045871727 -0.1412384 -0.09638796 0.13432197 -0.14349267 -0.4311394
00000000: 26ae 40be aafc 023e 403b e3bd 9c79 84bd
00000010: 98ab 90bd 032c edbd 4041 ce3c 70c3 ffbd
00000020: 8192 873d 01f3 49bc e956 30be 7f2a 553e
00000030: 0052 443e a05f 12bc 354b 82be 6433 68be
00000040: 9787 033e 67d8 ddbd 3722 cebd f68b 223d
00000050: f117 143e 1755 53be b183 643c 3c3f cabd
00000060: ee0b e23d 0a97 93be 9bb5 9f3e 8cf9 90ba
00000070: 1556 313e ff81 ae3c d357 af3d bda3 0a3d
00000080: 3533 2fbb 5581 9bbd fe62 5c3e c4bd 46bd
00000090: fda3 e33d 01e3 143e 39e1 8ebe d627 133d
000000a0: da46 013e 5d40 6fbe afb4 fbbd 1615 533e
000000b0: 18f5 05be 689d 0fbe d6a2 c4be 333a 01be
000000c0: ac53 17be 368e 083e 2eae 05be 67c1 8e3e
000000d0: bcd2 fd3d d441 ddbd 2c19 e4bd 7e2f ce3d
000000e0: 1afc 5abe fb05 853d fee3 3bbd cda0 10be
000000f0: 0d67 c5bd b38b 093e beef 12be 4ebe dcbe

module.bn1.running_mean f4 [64]
0.027621929 -0.014729437 -0.09948494 -0.030034587 -0.008579221 -0.05187304 -0.013103852 0.04313602
-0.08344337 0.09148121 -0.04927467 -0.029988391 0.008028088 -0.017300932 0.018789886 0.1102797
0.040079407 0.006686981 -0.048720755 -0.012658211 0.0012620544 0.10453794 0.0016850309 0.04939662
-0.061821412 -0.13201666 -0.01285621 -0.0008082499 -0.012459962 0.2094094 -0.055984624 -0.103612885
0.0027764884 -0.02240275 -0.0032901189 -0.11246886 -0.043991413 -0.012136054 -0.002557097 0.056160513
-0.06703341 -0.017322978 0.060352873 -0.02513582 -0.041352976 0.09302735 0.26148123 -0.06662425
-0.05670054 0.02375063 -0.0431641 0.010421687 0.001201738 -0.051061 0.16188115 -0.027484333
0.01935146 0.02406714 0.013088826 0.045362554 -0.020834567 -0.004514879 -0.044680852 0.27006605
00000000: 6247 e23c bd53 71bc c3be cbbd 180b f6bc
00000010: dc8f 0cbc d378 54bd 8ab1 56bc 65af 303d
00000020: 5ce4 aabd 805a bb3d 3dd4 49bd 37aa f5bc
00000030: 3e88 033c afba 8dbc 3fed 993c 53da e13d
00000040: 4e2a 243d 761e db3b 6a8f 47bd 6364 4fbc
00000050: 856b a53a fd17 d63d 41dc dc3a 1c54 4a3d
00000060: 7338 7dbd 602f 07be daa2 52bc bce0 53ba
00000070: de24 4cbc 6b6f 563e 2250 65bd fe32 d4bd
00000080: bff5 353b f985 b7bc 099f 57bb 1356 e6bd
00000090: 5730 34bd 4dd6 46bc f894 27bb 9108 663d
000000a0: d048 89bd ebe8 8dbc 9334 773d a3e9 cdbc
000000b0: bd61 29bd 2085 be3d dee0 853e 4b72 88bd
000000c0: d33e 68bd ae90 c23c d7cc 30bd b9bf 2a3c
000000d0: a383 9d3a 5725 51bd 2cc4 253e d326 e1bc
000000e0: f486 9e3c 7328 c53c 8472 563c 16ce 393d
000000f0: 41ad aabc 8df1 93bb 4503 37bd 1946 8a3e

module.bn1.running_var f4 [64]
0.4350237 0.18141593 0.33573416 0.033924703 0.013584705 0.06293397 0.03338511 0.38206306
0.76170284 0.28211346 0.1211773 0.5017808 2.4861822 0.0052628256 0.23084758 0.35773736
0.5554631 0.01723244 0.0514441 0.1736506 0.40254748 0.5858836 0.57732 0.07630453
0.34104726 0.5096689 0.31623286 1.7463837e-05 0.15049113 0.8439949 1.2391776 0.32129622
0.00015746916 0.020361409 0.09734364 0.2889301 0.6168401 0.31614488 0.13738304 0.18795215
1.3849436 0.4384566 0.14933701 0.15819523 0.06370758 0.43604943 1.47075 0.0794241
0.099639766 0.8578682 0.07763716 0.18864977 2.0785248 0.092539705 0.57452095 1.299212
0.24836405 0.5660436 0.47753087 0.07701298 0.022915822 1.2912818 0.058240213 1.2665869
00000000: 6dbb de3e 19c5 393e 59e5 ab3e a1f4 0a3d
00000010: 6292 5e3c 86e3 803d d3be 083d c59d c33e
00000020: f5fe 423f 2d71 903e ce2b f83d b574 003f
00000030: 9c1d 1f40 c873 ac3b 4f63 6c3e 5a29 b73e
00000040: d432 0e3f 0c2b 8d3c 0cb7 523d 76d1 313e
00000050: b41a ce3e 78fc 153f 3ecb 133f 8d45 9c3d
00000060: bf9d ae3e a979 023f 46e9 a13e 4e7f 9237
00000070: 591a 1a3e 0d10 583f 5f9d 9e3f f080 a43e
00000080: 4e1e 2539 f8cc a63c 1a5c c73d a5ee 933e
00000090: 3ce9 1d3f bedd a13e 24ae 0c3e 8776 403e
000000a0: d545 b13f 627d e03e cdeb 183e eefd 213e
000000b0: 1f79 823d df41 df3e 8941 bc3f 1aa9 a23d
000000c0: ef0f cc3d 409d 5b3f 3b00 9f3d 682d 413e
000000d0: 8d06 0540 7585 bd3d ce13 133f 944c a63f
000000e0: 2553 7e3e 3ce8 103f ed7e f43e fbb8 9d3d
000000f0: f6b9 bb3c b948 a53f 4a8d 6e3d 851f a23f

module.layer1.0.conv1.weight f4 [16, 64, 3, 3]
0.0062845447 -0.014309877 -0.082661755 -0.052290086 -0.017763516 0.028329441 -0.059827078 -0.049484584
-0.0063754492 0.031486645 -0.003837874 0.0017076939 -0.002868805 -0.003858161 0.003858998 -0.05402373
-0.034129925 0.024516389 0.044577856 -0.0075198603 -0.03153926 0.04500164 -0.00044368277 -0.022948563
0.019961106 -0.014175339 -0.038306624 -0.011987068 -0.0028590683 -0.009459289 0.004702844 0.008823979
0.0013512756 0.013167914 0.007720539 0.008853278 -0.0013532798 -0.0072340933 -0.007703941 -2.7710341e-06
-0.0043820604 -0.0070296167 -0.003673426 -0.010419315 -0.01409138 -0.0008766171 -0.0049046776 -0.0124936495
0.002212325 0.00014094128 -0.007798525 0.0065546622 0.0064725527 0.00014703497 0.022992063 0.018665621
-0.02130732 0.021697098 0.0043663974 -0.028849514 0.012558734 -0.018668111 -0.03028814 0.016640918
0.0187885 -0.032694433 0.019157736 -0.0005746602 -0.05492871 -0.078892395 -0.07364009 -0.10408933
-0.05307276 -0.06944583 -0.041256007 -0.008633114 -0.026032025 -0.03288593 -0.014451123 -0.021244073
0.0028556262 0.058969382 0.035620157 0.019863017 0.04267205 0.029115554 0.024477622 0.01250365
-0.0065810494 -0.0011828088 0.016994549 0.011055379 -0.0055678906 0.032509547 0.039709806 0.018469615
0.017883344 0.017842446 0.015366698 0.09847249 0.02018758 0.041525684 0.006478385 -0.012631054
-0.02451459 -0.028284363 0.039697167 -6.58646e-05 -0.038523167 -0.03519448 0.020802356 0.046567854
0.036125984 0.052098375 -0.024044057 0.008103282 0.03434444 -0.0029807605 -0.0030368355 -0.00076057424
-0.002441453 -0.0001464755 0.0020839146 -0.0006750689 0.0016599253 0.0016907789 -0.0062539214 -0.024111336
-0.033510707 0.011462631 -4.025524e-05 -7.8043246e-05 0.021909297 0.0011955977 0.014199793 0.03211119
-0.020032402 -0.035852835 -0.045558635 -0.009283866 0.02369753 -0.11804954 -0.04875818 -0.013908739
-0.001666608 -0.06954662 -0.03158844 -0.060525376 -0.015023835 0.025538445 -0.018558836 0.08370283
0.07836587 -0.038911518 -0.034427475 -0.027080406 -0.038190458 -0.029514141 -0.013486367 -0.021531204
-0.0150036635 -0.0039072656 0.002882944 -0.006095172 -0.01656255 0.0035571451 -0.0027472929 -0.011721283
0.008629059 0.0018690607 -0.0055575557 -0.0041901856 -0.010246373 0.0077317827 0.015370542 0.014433337
0.017105024 0.002986087 0.007575614 0.0051721614 0.11149704 0.16336547 0.040497668 0.12607299
0.028943196 -0.1433499 -0.0059497682 -0.16933191 -0.27039152 0.10504846 -0.007129804 -0.06968009
-0.008811571 -0.046161518 -0.05594973 -0.04970027 -0.038158376 0.002088901 0.018572973 0.04198749
0.031194296 0.002523975 0.04814376 0.042546213 -0.0088927755 -0.008877289 -0.008384279 0.012372034
0.0064279353 -0.0036492313 -0.0013620808 -0.01012582 -0.014463626 -0.02815651 -0.022805149 -0.021976693
0.03790649 0.02595976 -0.026131086 0.02420221 -0.0048044883 -0.0333514 -0.010048085 -0.048942942
-0.062397894 0.036727306 -0.030922988 -0.0034947968 0.022818673 -0.018351054 0.009703797 0.0038867076
-0.027354205 -0.033520326 0.034822635 -0.018200887 -0.054775856 -0.035638 -0.013690018 0.0075728237
-0.0013176121 0.0853767 0.0468399 -9.6393465e-05 -0.000106758605 -0.00014118917 -3.0531322e-05 -3.4461107e-05
-8.13443e-05 -8.135996e-05 -0.000113587696 -0.00014353044 0.11633511 0.13838638 -0.031298876 0.06263812
00000000: 95ee cd3b f973 6abc 914a a9bd 212e 56bd
00000010: cb84 91bc 2513 e83c 3d0d 75bd 59b0 4abd
00000020: 25e9 d0bb 24f8 003d d784 7bbb b3d4 df3a
00000030: 9002 3cbb 33d9 7cbb 3ee7 7c3b fd47 5dbd
00000040: d2cb 0bbd 98d6 c83c 4597 363d 2969 f6bb
00000050: 502f 01bd a453 383d 189e e8b9 a0fe bbbc
00000060: 7985 a33c ae3f 68bc 68e7 1cbd 6865 44bc
00000070: 355f 3bbb 22fb 1abc 511a 9a3b 7392 103c
00000080: 491d b13a 3cbe 573c 93fc fc3b 570d 113c
00000090: 8960 b1ba f90b edbb 5771 fcbb 01f6 39b6
000000a0: 6397 8fbb b358 e6bb ddbd 70bb c6b5 2abc
000000b0: 88df 66bc c7cc 65ba 6bb7 a0bb 2ab2 4cbc
000000c0: a8fc 103b a3c9 1339 c58a ffbb 7ec8 d63b
000000d0: b517 d43b 662d 1a39 da59 bc3c a5e8 983c
000000e0: b08c aebc 1dbe b13c ff13 8f3b d155 ecbc
000000f0: 26c3 4d3c deed 98bc d51e f8bc 8952 883c
00000100: 57ea 993c 99ea 05bd aff0 9c3c cba4 16ba
00000110: edfc 60bd 5692 a1bd 9ed0 96bd c92c d5bd
00000120: d362 59bd 9e39 8ebd 0ffc 28bd e871 0dbc
00000130: 1d41 d5bc 66b3 06bd 67c4 6cbc 0d08 aebc
00000140: 7525 3b3b e189 713d 71e6 113d c4b7 a23c
00000150: e3c8 2e3d be83 ee3c 4b85 c83c 1cdc 4c3c
00000160: d8a5 d7bb 7a08 9bba 2738 8b3c 9f21 353c
00000170: da72 b6bb bb28 053d c0a6 223d 974d 973c
00000180: 1780 923c 522a 923c 9ac4 7b3c f2ab c93d
00000190: 6c60 a53c d616 2a3d a248 d43b 7bf2 4ebc
000001a0: d2d2 c8bc 9cb4 e7bc 7f99 223d ca20 8ab8
000001b0: 78ca 1dbd 1628 10bd b469 aa3c efbd 3e3d
000001c0: d7f8 133d 1b65 553d 0bf8 c4bc a1c3 043c
000001d0: c1ac 0c3d dd58 43bb a505 47bb 4661 47ba
000001e0: c900 20bb 3897 19b9 4992 083b 1bf7 30ba
000001f0: da91 d93a 209d dd3a b2ed ccbb 2385 c5bc
00000200: 8642 09bd c2cd 3b3c bcd7 28b8 26ab a3b8
00000210: 207b b33c 9ab5 9c3a 40a6 683c 0687 033d
00000220: fe1a a4bc 6cda 12bd b19b 3abd 5b1b 18bc
00000230: 5321 c23c f5c3 f1bd a8b6 47bd 7be1 63bc
00000240: 1672 daba 756e 8ebd e162 01bd 75e9 77bd
00000250: 8826 76bc 0036 d13c b308 98bc 646c ab3d
00000260: 497e a03d af61 1fbd d303 0dbd bad7 ddbc
00000270: 996d 1cbd a4c7 f1bc ecf5 5cbc 3562 b0bc
00000280: edd1 75bc 8508 80bb c6ef 3c3b 02ba c7bb
00000290: 2fae 87bc fe1e 693b ed0b 34bb a00a 40bc
000002a0: e660 0d3c 45fb f43a 281c b6bb d34d 89bb
000002b0: 67e0 27bc e55a fd3b bad4 7b3c ce79 6c3c
000002c0: d61f 8c3c 3ab2 433b db3c f83b 3c7b a93b
000002d0: 8f58 e43d 4749 273e e2e0 253d 4719 013e
000002e0: 481a ed3c 51ca 12be 46f6 c2bb 5865 2dbe
000002f0: c270 8abe a623 d73d 22a1 e9bb 6fb4 8ebd
00000300: 685e 10bc dc13 3dbd 8b2b 65bd 8392 4bbd
00000310: f54b 1cbd f1e5 083b 5926 983c 13fb 2b3d
00000320: 2e8b ff3c 4669 253b 6432 453d f044 2e3d
00000330: 01b3 11bc 0c72 11bc 375e 09bc 12b4 4a3c
00000340: 6ea1 d23b f127 6fbb d987 b2ba c4e6 25bc
00000350: d8f8 6cbc 7ba8 e6bc ddd1 babc 7708 b4bc
00000360: d643 1b3d 90a9 d43c dc10 d6bc b743 c63c
00000370: f86e 9dbb 7a9b 08bd b9a0 24bc 6578 48bd
00000380: ef94 7fbd 5f6f 163d 3552 fdbc f608 65bb
00000390: 3aee ba3c f354 96bc adfc 1e3c 22b8 7e3b
000003a0: ed15 e0bc 9c4c 09bd 2ea2 0e3d 071a 95bc
000003b0: a65c 60bd 27f9 11bd 194c 60bc 7325 f83b
000003c0: bab3 acba fbd9 ae3d 32db 3f3d d926 cab8
000003d0: 97e3 dfb8 2e0c 14b9 c20e 00b8 558a 10b8
000003e0: 6397 aab8 cc9f aab8 ee35 eeb8 a980 16b9
000003f0: 1a41 ee3d 29b5 0d3e 4033 00bd 6a48 803d

module.layer1.0.bn1.weight f4 [16]
0.32341504 0.3240893 0.48137674 0.4900756 0.32276854 0.4029746 0.38843143 0.31768072
0.25725138 0.36413315 0.34989613 0.35223275 0.66762483 0.40579253 0.41127434 0.35879552
00000000: a896 a53e 08ef a53e 0377 f63e 30eb fa3e
00000010: eb41 a53e b052 ce3e 7ce0 c63e 0ca7 a23e
00000020: 74b6 833e a96f ba3e 9625 b33e da57 b43e
00000030: 76e9 2a3f 0ac4 cf3e 8d92 d23e 0cb4 b73e

module.layer1.0.bn1.bias f4 [16]
-0.20519422 0.08725481 0.061354697 0.23932277 -0.18293445 0.2125349 -0.25030285 0.06496092
0.10875987 -0.26057765 0.1287637 -0.21698736 -0.6326034 -0.002166229 -0.2568352 -0.17566039
00000000: 6f1e 52be a6b2 b23d 104f 7b3d 0711 753e
00000010: 2b53 3bbe c0a2 593e b227 80be 3b0a 853d
00000020: 7fbd de3d 6f6a 85be a2da 033e ef31 5ebe
00000030: 4cf2 21bf 4bf7 0dbb e77f 83be 51e0 33be

module.layer1.0.bn1.running_mean f4 [16]
-0.20585851 -0.32438245 -0.47624168 -0.115216784 -0.306241 -0.12250151 -0.1858393 -0.3059755
-0.2955834 -0.36011237 -0.21486402 -0.30728668 0.5001038 -0.3367691 -0.25016084 -0.12841047
00000000: 93cc 52be 7515 a6be f3d5 f3be c7f6 ebbd
00000010: 9fcb 9cbe 12e2 fabd a84c 3ebe d2a8 9cbe
00000020: b556 97be a660 b8be 5005 5cbe ae54 9dbe
00000030: cd06 003f 006d acbe 1515 80be 097e 03be

module.layer1.0.bn1.running_var f4 [16]
0.048266843 0.11916516 0.14381956 0.21107009 0.069965154 0.1499802 0.096132986 0.08653503
0.04891473 0.0397985 0.13670167 0.05182879 0.13573962 0.141245 0.09172054 0.09237844
00000000: 74b3 453d dd0c f43d 6f45 133e c222 583e
00000010: e449 8f3d 6994 193e 5fe1 c43d 4739 b13d
00000020: d05a 483d c003 233d 86fb 0b3e 6d4a 543d
00000030: 54ff 0a3e 87a2 103e fad7 bb3d e830 bd3d

module.layer1.0.conv2.weight f4 [16, 16, 3, 3]
0.042276904 0.033881903 -0.06203479 0.046205193 0.06614812 0.025158724 0.017147606 -0.027228862
-0.002475472 0.0448824 -0.08728664 0.032811332 0.012181289 -0.025697665 0.07886807 -0.15095201
-0.018606 0.06576923 0.044730954 0.06759219 -0.034131892 -0.16073865 0.277214 -0.3304232
-0.10379623 0.2950689 -0.15898612 0.013543925 -0.22368313 0.10772347 0.15179084 -0.5050648
0.29214746 0.19490618 -0.2881819 0.21350011 -0.039945275 0.044226095 -0.07061085 -0.013641564
0.04517848 0.001961442 0.029824965 -0.08674089 0.022669125 -0.020670952 -0.00721445 -0.099982314
0.0517148 -0.08202881 0.042809322 0.024351569 -0.008997789 0.080638885 -0.14170174 0.032091174
-0.0042834384 -0.012821395 0.1323354 -0.026174255 0.014974912 0.08045278 -0.06997804 0.041645527
-0.09849533 0.06134926 0.010502451 0.07867889 0.064811885 -0.08942038 -0.026187494 -0.0028479644
0.06636608 -0.13212536 0.09432242 0.21720037 -0.32382962 0.14535391 0.08522437 -0.13112223
0.014908699 0.00040742892 0.033333052 -0.1281174 -0.006094108 0.049466237 -0.06987927 0.012727579
0.023857804 -0.02046271 -0.013131855 -0.021901326 -0.055305306 0.10708163 -0.14178987 0.16079913
0.033656087 -0.15249586 0.05957303 0.0011188578 -0.023847641 -0.015141774 0.041357037 -0.026747983
-0.02713116 0.052707836 0.014689766 -0.012297273 -0.028912963 0.15906239 -0.088675775 -0.08948731
0.19928952 -0.13336723 -0.08790518 0.1830446 -0.14958514 -4.374836e-05 0.013695948 -0.0030035297
-0.039508868 0.16399653 -0.14687392 -0.04645304 0.17176749 -0.14340357 0.08069846 -0.07084696
-0.10345957 -0.053116348 0.03641846 0.0151666235 -0.0040350705 -0.028335776 0.05147962 0.036050428
-0.1350881 0.07286443 -0.018519208 -0.12154152 0.09573218 -0.0003708065 -0.07720925 0.033403985
0.055927623 -0.034760647 -0.052622497 0.053731523 0.030764256 0.018446174 0.03218399 0.058461532
0.049962003 -0.02193241 -0.03371748 -0.002537188 -0.09845369 -0.04154573 0.040725056 -0.10974741
0.004527177 0.052508928 0.007283811 0.050142534 0.0047011133 -0.045824688 -0.01174896 0.01397682
-0.053349666 -0.014093222 -0.016412193 -0.06901615 -0.103630215 0.065915875 -0.047298983 -0.084198095
0.046113677 0.058050063 0.0016599928 -0.034728386 -0.037954986 -0.048128914 -0.1241006 0.009588386
-0.0073967804 -0.067284495 0.032716684 -0.011459136 -0.013005049 -0.002979483 0.06663988 0.017075187
-0.016109101 0.074146554 -0.046919897 -0.015300741 0.015455246 -0.020653795 -0.15761183 -0.0004802624
0.012550164 -0.17051068 -0.07953044 0.013698986 -0.06755732 -0.088327676 -0.024488326 -0.08863848
-0.05937414 -0.03301519 -0.03420743 -0.036747668 -0.0006508461 0.14125828 0.027011333 0.0872824
-0.110897094 -0.020628067 0.03448595 -0.091649964 0.013532166 0.0570578 -0.067333095 0.050783414
0.07688908 -0.05322989 -0.02840302 0.009939727 -0.019590747 0.016141258 0.05816725 0.021667276
0.03618553 0.06477248 -0.079440005 -0.039204825 0.0156591 -0.022689914 -0.025365507 0.1017434
0.04388293 -0.07492812 0.10595717 0.09402842 0.015588945 0.007267409 0.049493838 -0.003934228
-0.019152675 0.06192037 0.025384355 -0.017575338 -0.15897597 -0.17825651 -0.05257446 -0.12153198
00000000: 8c2a 2d3d c0c7 0a3d 3118 7ebd a841 3d3d
00000010: aa78 873d ab19 ce3c 2379 8c3c 100f dfbc
00000020: 873b 22bb 9cd6 373d 57c3 b2bd 2d65 063d
00000030: 0794 473c e983 d2bc 9585 a13d 2a93 1abe
00000040: 9c6b 98bc 05b2 863d ce37 373d c66d 8a3d
00000050: e2cd 0bbd ac98 24be feee 8d3e 3b2d a9be
00000060: 1e93 d4bd 4513 973e 42cd 22be 57e7 5d3c
00000070: 310d 65be 1f9e dc3d 0f6f 1b3e ed4b 01bf
00000080: 5a94 953e 7c95 473e 948c 93be c69f 5a3e
00000090: a89d 23bd 6c26 353d 6c9c 90bd de80 5fbc
000000a0: 120d 393d 898b 003b 7c53 f43c 35a5 b1bd
000000b0: 9ab4 b93c 2156 a9bc 3167 ecbb 87c3 ccbd
000000c0: e6d2 533d b9fe a7bd d458 2f3d f17c c73c
000000d0: 766b 13bc 0026 a53d 431a 11be 0972 033d
000000e0: 165c 8cbb d410 52bc ee82 073e 646b d6bc
000000f0: 5559 753c 6dc4 a43d a650 8fbd 8094 2a3d
00000100: ebb7 c9bd 5d49 7b3d 7912 2c3c 6622 a13d
00000110: 18bc 843d 0822 b7bd 2887 d6bc eaa4 3abb
00000120: f0ea 873d df4b 07be 1d2c c13d c669 5e3e
00000130: ffcc a5be a8d7 143e 1d8a ae3d e844 06be
00000140: 9e43 743c 2f9c d539 3d88 083d 3531 03be
00000150: 15b1 c7bb 1c9d 4a3d dd1c 8fbd 5687 503c
00000160: 7171 c33c 6aa1 a7bc fe26 57bc 696a b3bc
00000170: d187 62bd 9d4d db3d 5d31 11be 87a8 243e
00000180: f7da 093d e027 1cbe d902 743d a3a6 923a
00000190: 215c c3bc 3415 78bc ff65 293d 961e dbbc
000001a0: 2b42 debc 2ce4 573d 58ad 703c 807a 49bc
000001b0: e1da ecbc 40e1 223e a59b b5bd 1f45 b7bd
000001c0: 8d12 4c3e 6b91 08be a207 b4bd 0b70 3b3e
000001d0: d92c 19be 727e 37b8 f864 603c ded6 44bb
000001e0: 0dd4 21bd b5ee 273e 1e66 16be 8b45 3ebd
000001f0: d1e3 2f3e 63d8 12be 3c45 a53d 3618 91bd
00000200: 9ce2 d3bd 8790 59bd 862b 153d 6e7d 783c
00000210: a038 84bb 6e20 e8bc 4bdc 523d 9da9 133d
00000220: 8954 0abe f239 953d 98b5 97bc c3ea f8bd
00000230: 3c0f c43d ce68 c2b9 e21f 9ebd 9ed2 083d
00000240: 5d14 653d 2e61 0ebd b08a 57bd 9615 5c3d
00000250: 5205 fc3c 6e1c 973c 5cd3 033d 5c75 6f3d
00000260: f5a4 4c3d 99ab b3bc 571b 0abd f346 26bb
00000270: 17a2 c9bd db2b 2abd 51cf 263d 40c3 e0bd
00000280: b758 943b 9a13 573d 09ad ee3b 4262 4d3d
00000290: cc0b 9a3b abb2 3bbd b67e 40bc 08ff 643c
000002a0: 2e85 5abd 42e7 66bc dd72 86bc 5758 8dbd
000002b0: 143c d4bd e7fe 863d 94bc 41bd 0d70 acbd
000002c0: b2e1 3c3d e7c5 6d3d 1e94 d93a 5a3f 0ebd
000002d0: b076 1bbd d322 45bd 7528 febd 9b18 1d3c
000002e0: b160 f2bb 74cc 89bd ee01 063d 1abf 3bbc
000002f0: 2113 55bc 6e43 43bb 7d7a 883d 43e1 8b3c
00000300: 3cf7 83bc 26da 973d 142f 40bd f6af 7abc
00000310: 0038 7d3c 2632 a9bc ff64 21be bacb fbb9
00000320: 349f 4d3c 5a9a 2ebe dbe0 a2bd b671 603c
00000330: 7e5b 8abd 24e5 b4bd be9b c8bc 1788 b5bd
00000340: 4c32 73bd f03a 07bd 171d 0cbd b984 16bd
00000350: 8b9d 2aba 03a6 103e df46 dd3c 1dc1 b23d
00000360: 041e e3bd 31fc a8bc 2441 0d3d fab2 bbbd
00000370: 05b6 5d3c 71b5 693d efe5 89bd 4502 503d
00000380: 0678 9d3d 9607 5abd 73ad e8bc 3dda 223c
00000390: c67c a0bc ac3a 843c c840 6e3d 927f b13c
000003a0: 4737 143d 6fa7 843d 71b1 a2bd 3d95 20bd
000003b0: 8347 803c 33e0 b9bc 53cb cfbc d85e d03d
000003c0: 96be 333d ea73 99bd 1300 d93d f991 c03d
000003d0: c668 7f3c 7223 ee3b 0dba 4a3d b2ea 80bb
000003e0: 12e6 9cbc 37a0 7d3d daf2 cf3c 28fa 8fbc
000003f0: 99ca 22be e088 36be 5158 57bd c2e5 f8bd

module.layer1.0.bn2.weight f4 [16]
0.67877233 0.33290467 0.5997667 0.6956589 0.31168655 0.47918904 0.5566946 0.6807248
0.17871416 0.21022856 0.69285876 0.49208456 0.58838034 0.33330616 0.3380381 0.29259166
00000000: 06c4 2d3f 7b72 aa3e 4f8a 193f b416 323f
00000010: 6195 9f3e 4458 f53e 8a83 0e3f fb43 2e3f
00000020: d800 373e 2846 573e 315f 313f 82f2 fb3e
00000030: 18a0 163f 1ba7 aa3e 5413 ad3e 93ce 953e

module.layer1.0.bn2.bias f4 [16]
-0.023299 0.16643845 -0.062850915 -0.065647945 0.19253722 -0.06085723 -0.030953767 -0.012559449
0.05453629 0.010702414 -0.06659991 -0.17362297 -0.086285226 0.049388684 0.00246841 0.20945661
00000000: 8bdd bebc d76e 2a3e fbb7 80bd 6e72 86bd
00000010: 7a28 453e 6e45 79bd c192 fdbc 26c6 4dbc
00000020: 7261 5f3d 2e59 2f3c 8965 88bd 38ca 31be
00000030: 4fb6 b0bd ca4b 4a3d 0cc5 213b cb7b 563e

module.layer1.0.bn2.running_mean f4 [16]
-0.061695457 -0.20739605 -0.1254854 -0.021995472 -0.18186869 -0.035406474 -0.07010241 -0.05556933
0.0858442 -0.055868495 -0.046622746 0.18657741 -0.15625216 0.07647168 0.14575177 -0.3405843
00000000: 60b4 7cbd a15f 54be 3f7f 00be d92f b4bc
00000010: c93b 3abe 6106 11bd da91 8fbd aa9c 63bd
00000020: 15cf af3d 5dd6 64bd 7ef7 3ebd 260e 3f3e
00000030: 9100 20be 2f9d 9c3d f43f 153e 1161 aebe

module.layer1.0.bn2.running_var f4 [16]
0.19315235 0.051750913 0.11381024 0.1650809 0.06269331 0.07548705 0.11272887 0.22434056
0.024769872 0.030576985 0.13530844 0.03760605 0.112229526 0.06394878 0.053905297 0.055207785
00000000: bbc9 453e c4f8 533d 5815 e93d f80a 293e
00000010: 5a65 803d f498 9a3d 65de e63d 88b9 653e
00000020: 30ea ca3c 967c fa3c 4c8e 0a3e cd08 1a3d
00000030: 98d8 e53d 94f7 823d cdcb 5c3d 8f21 623d

module.layer1.0.shortcut.0.weight f4 [16, 64, 1, 1]
-0.00056500424 0.017292421 -0.005832949 0.008513089 -0.001372182 -0.0012924897 0.008842792 0.023466796
0.03024876 -0.017760552 -0.0032418463 0.01627932 0.019477956 0.0016270826 0.04851591 0.0064604585
0.0141114695 0.0033968235 0.00040533007 -0.005339475 0.02919152 -0.13540405 -0.014767073 0.010995208
-0.021243194 0.010205858 -0.078230515 0.00015645876 0.01644049 -0.043970574 0.014454194 -0.0005739783
-0.00052580197 0.014098867 0.02583941 0.010237357 -0.052317534 -0.023406327 0.018397495 -0.0037305276
0.0062378747 0.020332968 0.004696591 0.021050002 0.0067935092 -0.00395876 -0.058445327 0.018188216
0.005554772 -0.007490145 0.008866867 -0.003936036 -0.02196121 -0.002777051 0.026045054 0.01537799
0.00045423023 0.022960456 -0.023817543 0.00015903008 -0.00050043804 0.016278407 -0.008172985 -0.02333852
-0.04799468 -0.004212044 0.05282801 -0.016442234 0.026789049 -0.063021086 0.036267392 0.16849057
0.014262216 -0.10112008 0.066563435 -0.026565189 0.009068693 0.0026595204 -0.050079983 -0.010511434
-0.08364205 0.032763053 -0.048576735 0.05916104 0.14776354 -0.13102509 -0.12461622 0.0391594
0.13575035 0.14669302 -0.05334732 0.0005564849 0.037240203 0.12832446 -0.2880345 0.087079346
0.003911948 0.0021983767 -0.0386807 0.055211868 0.11770418 0.049467023 0.046553425 -0.10545958
-0.062216464 0.019223923 0.088541545 0.026494913 -0.03441285 0.0929734 0.07654075 0.010104113
0.04051034 0.07076813 -0.014312697 -0.08513701 0.07301031 -0.035919722 0.09775227 -0.1737128
-0.00879311 0.10788118 -0.11887731 0.052415486 -0.0017597942 -0.27988648 0.016931184 -0.059481956
-0.0020341394 0.0013724032 -0.061789073 0.012867662 0.007820237 0.016289132 0.00478621 0.027865408
0.07697458 0.01299848 0.0059508737 0.07238289 0.11869418 -0.00034114378 0.040628105 -0.0442214
-0.11352382 0.02618386 0.013959055 0.014455138 0.0352773 -0.1007595 -0.011674341 -0.0134869
-0.0787431 0.046624158 -0.054917797 -1.7297538e-05 -0.016222259 -0.0051809065 -0.005797435 -0.054732792
0.00018402978 0.015044781 0.011918524 0.03135626 0.021398803 -0.008162827 0.052669667 -0.023335556
-0.06884788 0.02492071 0.0069613294 -0.01124049 0.0044504805 0.016591378 -0.16759685 0.0293811
0.018434148 -0.04056087 0.019284382 0.11512125 -0.09908561 0.03476275 -0.013390295 0.041943453
0.09099883 0.08870378 0.012343765 -0.010728603 0.002478494 0.018818982 0.0024890117 -0.1528824
-0.010315228 -0.01555139 0.040279567 0.0020883987 0.0060035647 0.008497915 -0.026367655 -0.023173494
0.024632394 0.025765242 0.0107846605 0.037247796 -0.0044978927 0.0010749788 0.0067281206 -0.04847479
-0.0490438 -2.7281829e-05 0.0141737815 0.00078065344 -0.033457406 -0.12575474 0.008994378 0.0021233666
-0.059904445 0.04942219 -0.01211872 4.901307e-05 0.0041061295 0.04531331 0.0047266455 -0.0151027655
0.00015052159 -0.0020122726 0.0037350778 -0.036669414 -0.008803762 -0.033025518 -0.001788138 0.00908255
-0.014371241 -0.009296188 0.008386984 -0.036326796 0.02941291 0.0035656004 -0.03757435 0.004526621
0.027901806 -0.0364776 0.0012611011 0.022606175 0.034452938 0.0020128547 -0.060899206 -0.025975296
0.015492142 -0.011742493 -0.012265626 0.004362564 -0.009236523 0.0046105143 0.018550988 -0.02701597
00000000: cb1c 14ba d6a8 8d3c 5322 bfbb 7c7a 0b3c
00000010: cada b3ba c268 a9ba 5ce1 103c 703d c03c
00000020: 3fcc f73c 947e 91bc 2875 54bb 355c 853c
00000030: 3c90 9f3c d543 d53a 9eb8 463d 41b2 d33b
00000040: cb33 673c 3e9d 5e3b 7b82 d439 c3f6 aebb
00000050: 0e23 ef3c 5ca7 0abe 98f1 71bc 3f25 343c
00000060: 3506 aebc 7936 273c 5237 a0bd 140f 2439
00000070: 35ae 863c 7d1a 34bd 49d1 6c3c 0877 16ba
00000080: f9d5 09ba effe 663c 2cad d33c 96ba 273c
00000090: e94a 56bd a0be bfbc 58b6 963c de7b 74bb
000000a0: 1667 cc3b 5391 a63c dce5 993b 0e71 ac3c
000000b0: 169c de3b 7cb8 81bb 5e64 6fbd 74ff 943c
000000c0: ce04 b63b e46f f5bb 5646 113c ddf9 80bb
000000d0: ffe7 b3bc 2fff 35bb 705c d53c f7f3 7b3c
000000e0: c025 ee39 9117 bc3c 021d c3bc 50c1 2639
000000f0: d42f 03ba 4b5a 853c fce7 05bc 6d30 bfbc
00000100: 1296 44bd 3005 8abb 2f62 583d ddb1 86bc
00000110: b574 db3c 3311 81bd 1e8d 143d cb88 2c3e
00000120: 12ac 693c 0b18 cfbd 6952 883d 3d9f d9bc
00000130: db94 143c 594b 2e3b ab20 4dbd 2638 2cbc
00000140: 864c abbd 8d32 063d 66f8 46bd d952 723d
00000150: 534f 173e 712b 06be ca36 ffbd 9b65 203d
00000160: 2402 0b3e b236 163e b882 5abd 12e1 113a
00000170: 2f89 183d 7d67 033e 4279 93be a856 b23d
00000180: cc2f 803b a412 103b a76f 1ebd d725 623d
00000190: e40e f13d ef9d 4a3d ceae 3e3d 31fb d7bd
000001a0: b1d6 7ebd 7d7b 9d3c 4555 b53d dc0b d93c
000001b0: 7df4 0cbd d768 be3d 66c1 9c3d b98b 253c
000001c0: 2cee 253d e2ee 903d cd7f 6abc 505c aebd
000001d0: 6e86 953d 8f20 13bd 5832 c83d c5e1 31be
000001e0: fa10 10bc cff0 dc3d f275 f3bd 9fb1 563d
000001f0: e5a8 e6ba 484d 8fbe 44b3 8a3c 5aa3 73bd
00000200: 324f 05bb 36e2 b33a 8a16 7dbd e3d2 523c
00000210: 7420 003c c970 853c a4d5 9c3b ff45 e43c
00000220: d9a4 9d3d 94f7 543c 8cff c23b 7b3d 943d
00000230: ef15 f33d 8bdb b2b9 a869 263d 8021 35bd
00000240: 2d7f e8bd 897f d63c 85b4 643c 3ed5 6c3c
00000250: ee7e 103d ff5a cebd bc45 3fbc 29f8 5cbc
00000260: 1044 a1bd f9f8 3e3d 7cf1 60bd 2e1a 91b7
00000270: 8be4 84bc 98c4 a9bb 69f8 bdbb 7e2f 60bd
00000280: 1ef8 4039 637e 763c ea45 433c 6c6f 003d
00000290: 8b4c af3c 61bd 05bc 26bc 573d 352a bfbc
000002a0: 1e00 8dbd 8426 cc3c dd1b e43b 082a 38bc
000002b0: 56d5 913b a4ea 873c 829e 2bbe a2b0 f03c
000002c0: 3603 973c 2823 26bd 48fa 9d3c b1c4 eb3d
000002d0: 65ed cabd 6363 0e3d f862 5bbc e6cc 2b3d
000002e0: 985d ba3d 54aa b53d 813d 4a3c 06c7 2fbc
000002f0: 3b6e 223b 442a 9a3c b01e 233b 348d 1cbe
00000300: 3401 29bc 42cb 7ebc 30fc 243d 84dd 083b
00000310: 8db9 c43b d73a 0b3c fb00 d8bc 57d6 bdbc
00000320: e0c9 c93c a111 d33c 25b2 303c 2591 183d
00000330: 0f63 93bb 4ee6 8c3a 9177 dc3b 808d 46bd
00000340: 27e2 48bd 48db e4b7 2639 683c c4a4 4c3a
00000350: a20a 09bd dac5 00be 285d 133c 2e28 0b3b
00000360: 5d5e 75bd ec6e 4a3d 998d 46bc 6293 4d38
00000370: b68c 863b 739a 393d fae1 9a3b 9771 77bc
00000380: 55d5 1d39 55e0 03bb 35c8 743b ab32 16bd
00000390: a73d 10bc c445 07bd f45f eaba face 143c
000003a0: 5b75 6bbc 0a4f 18bc 8f69 093c 68cb 14bd
000003b0: 58f3 f03c d9ac 693b 90e7 19bd 0d54 943b
000003c0: 5492 e43c 8969 15bd 884b a53a 9630 b93c
000003d0: 861e 0d3d 19ea 033b 7271 79bd 25ca d4bc
000003e0: c1d2 7d3c 9663 40bc c4f5 48bc d7f3 8e3b
000003f0: c954 17bc cc13 973b 3ef8 973c 9850 ddbc

module.layer1.0.shortcut.1.weight f4 [16]
0.04090462 0.3479099 0.15652752 0.06308715 0.1788046 0.3174068 0.16701916 -0.035016775
0.40916657 0.37149903 0.045738805 0.3959078 0.2303443 0.3971139 0.4414985 0.28555268
00000000: 9a8b 273d 3f21 b23e c048 203e d633 813d
00000010: 8e18 373e 2583 a23e 1207 2b3e c06d 0fbd
00000020: 487e d13e 1f35 be3e 9d58 3b3d 6db4 ca3e
00000030: 60df 6b3e 8352 cb3e 170c e23e f633 923e

module.layer1.0.shortcut.1.bias f4 [16]
-0.023299 0.16643845 -0.062850915 -0.065647945 0.19253722 -0.06085723 -0.030953767 -0.012559449
0.05453629 0.010702414 -0.06659991 -0.17362297 -0.086285226 0.049388684 0.00246841 0.20945661
00000000: 8bdd bebc d76e 2a3e fbb7 80bd 6e72 86bd
00000010: 7a28 453e 6e45 79bd c192 fdbc 26c6 4dbc
00000020: 7261 5f3d 2e59 2f3c 8965 88bd 38ca 31be
00000030: 4fb6 b0bd ca4b 4a3d 0cc5 213b cb7b 563e

module.layer1.0.shortcut.1.running_mean f4 [16]
-0.02041481 -0.041356247 0.00031531428 -0.04277997 -0.15581097 -0.14521423 -0.14849024 0.0043280134
0.025875889 0.046050005 -0.053358253 -0.16801172 -0.018622218 -0.013574066 -0.26142243 -0.30755472
00000000: f63c a7bc 2b65 29bd c450 a539 0d3a 2fbd
00000010: e98c 1fbe 0ab3 14be d30d 18be 02d2 8d3b
00000020: acf9 d33c ee9e 3c3d 2f8e 5abd 440b 2cbe
00000030: 9f8d 98bc c265 5ebc 29d9 85be d077 9dbe

module.layer1.0.shortcut.1.running_var f4 [16]
0.0044832067 0.028406234 0.013577945 0.0029205466 0.015937192 0.030607862 0.018741786 0.0029889983
0.035530634 0.02175554 0.0026523254 0.016662978 0.021278633 0.0438309 0.044817835 0.027743137
00000000: dde7 923b 31b4 e83c 0776 5e3c a466 3f3b
00000010: b78e 823c 57bd fa3c 6088 993c 12e3 433b
00000020: 9288 113d ad38 b23c a3d2 2d3b cc80 883c
00000030: 8750 ae3c 0888 333d e892 373d 9345 e33c

module.layer2.0.conv1.weight f4 [32, 16, 3, 3]
-0.017243184 -0.06675393 -0.067137584 0.037767738 0.08477044 0.051235467 0.08497641 0.14484014
0.08617845 0.12003995 0.10064712 -0.06351183 0.018396234 -0.0395519 -0.12872085 -0.0704059
-0.123833574 -0.06120801 -0.06341613 -0.033433452 0.09604284 -0.09177233 -0.02690329 0.1201025
-0.1027449 0.0024804096 0.13029909 -0.0016499312 0.07894299 -0.008554014 0.070554875 0.096734
0.06812618 0.089387774 0.08703822 0.04735812 -0.07687407 -0.0982386 -0.051152617 -0.08457074
-0.022575006 0.05206871 -0.056779567 0.09500839 0.0648974 -0.005795418 0.019438997 -0.0112575535
0.06829977 0.1029434 -0.01899653 0.098759115 -0.046860855 0.005838148 -0.05408385 -0.045443207
-0.039640564 -0.012254575 0.036954824 0.06108579 0.048903756 0.11840342 0.08312956 -0.021445155
0.000646287 0.0578607 -0.07685499 -0.088645875 0.03730374 -0.065058775 -0.09177062 0.010230318
-0.10804108 -0.1277518 -0.06002969 -0.058618437 0.049685355 0.13510655 -0.07194538 0.057948228
0.08534044 -0.035429817 0.013678105 -0.0037797184 -0.059052356 0.015772702 0.008436089 -0.092198364
-0.014197751 -0.0092877885 -0.106376655 -0.12631059 0.009915072 -0.13712007 -0.08242861 0.058510378
-0.06929032 0.04736552 0.069207616 0.061090365 0.051694043 -0.047452662 0.019345233 -0.027041009
-0.10594933 -0.065230146 -0.11944146 -0.046800025 -0.030145762 -0.13233928 -0.06926823 -0.044743236
-0.023939203 0.13606028 0.068403795 0.1477535 0.17933449 -0.07175398 0.028125823 0.114640966
0.08442754 0.11474133 0.15418912 0.11177752 0.07826812 0.014548145 -0.02419993 0.013650015
0.12479906 0.042834118 0.101554796 0.14493668 0.05635397 0.19495067 0.14104986 0.017416133
0.07188221 0.089977965 0.12057692 0.10461669 0.033254355 0.035049014 -0.08029891 -0.12994374
-0.1105365 -0.12721668 0.04457717 -0.1015148 -0.21718882 -0.14288746 -0.021877548 -0.15481493
-0.20698549 -0.031413686 0.014380338 -0.046411853 0.0073724217 0.07227331 0.086391866 0.01576631
0.027927656 0.08218726 0.076797955 0.021408262 0.096054174 0.16340926 0.17373656 0.14787132
0.17574146 0.13433027 0.10411438 -0.041765273 -0.02878709 -0.009482738 -0.17545879 -0.1995515
-0.15122451 -0.116785616 -0.18917349 -0.15797661 -0.06546647 -0.1558114 -0.091382 0.039906234
-0.078935765 -0.015789228 0.07343563 -0.030470759 0.036630157 -0.16609693 -0.123422615 -0.06195777
-0.16249554 -0.14557359 -0.13994302 -0.06029558 -0.043769203 -0.11373783 -0.020227646 0.03055537
0.07179116 -0.03910617 -0.12726802 -0.052987307 0.036756903 -0.12661359 -0.21979818 -0.061396487
-0.11061665 -0.05968027 -0.1070231 -0.12803155 -0.09814352 -0.022916874 -0.06303244 0.005104621
0.087070756 -0.048332952 -0.023310674 0.0833729 -0.051331412 -0.036765322 0.0053767394 -0.060074974
-0.029759156 -0.02273639 0.026181316 -0.019314246 -0.04161071 -0.012850861 -0.027660025 -0.02304772
0.012567213 0.028123945 -0.046488423 0.006366701 0.016299492 0.015991239 -0.011762714 -0.057200864
0.049735915 0.025154652 -0.034002587 0.08560928 0.034223236 -0.042728487 0.0029921401 0.0068407296
0.041862786 -0.08881907 -0.03857242 0.08299491 -0.060218506 -0.017673844 0.046317115 0.028456913
00000000: 9441 8dbc 49b6 88bd 6e7f 89bd 58b2 1a3d
00000010: 209c ad3d 48dc 513d 1d08 ae3d f950 143e
00000020: 547e b03d 81d7 f53d 1420 ce3d 7e12 82bd
00000030: b3b3 963c 2c01 22bd 66cf 03be f830 90bd
00000040: 759c fdbd 40b5 7abd 51e0 81bd 84f1 08bd
00000050: 1cb2 c43d 22f3 bbbd 4a64 dcbc 4df8 f53d
00000060: eb6b d2bd 5e8e 223b 206d 053e 8142 d8ba
00000070: ddac a13d 2326 0cbc 137f 903d 7a1c c63d
00000080: bd85 8b3d f010 b73d 1841 b23d 97fa 413d
00000090: 2770 9dbd 5231 c9bd 6885 51bd 6d33 adbd
000000a0: 38ef b8bc 0046 553d b191 68bd c293 c23d
000000b0: eee8 843d 7de7 bdbb 883e 9f3c 9a71 38bc
000000c0: c0e0 8b3d fdd3 d23d 9c9e 9bbc 3842 ca3d
000000d0: 2bf1 3fbd ef4d bf3b 0787 5dbd a822 3abd
000000e0: 255e 22bd 6ac7 48bc f15d 173d 1835 7a3d
000000f0: 4e4f 483d 7e7d f23d d53f aa3d c0ad afbc
00000100: 966b 293a 57ff 6c3d 2666 9dbd f88b b5bd
00000110: cecb 183d 893d 85bd 3cf2 bbbd 109d 273c
00000120: a444 ddbd 5ed1 02be b1e1 75bd e319 70bd
00000130: df82 4b3d 5f59 0a3e 1958 93bd 1f5b 6d3d
00000140: f8c6 ae3d db1e 11bd 211a 603c 27b5 77bb
00000150: e2e0 71bd c135 813c 8637 0a3c 7fd2 bcbd
00000160: af9d 68bc cf2b 18bc 01dc d9bd 9057 01be
00000170: d372 223c 3469 0cbe 55d0 a8bd 94a8 6f3d
00000180: 15e8 8dbd 5902 423d b9bc 8d3d e439 7a3d
00000190: 22bd 533d b95d 42bd e579 9e3c 1b85 ddbc
000001a0: f6fb d8bd 6297 85bd b99d f4bd 62b1 3fbd
000001b0: 3ff4 f6bc f383 07be 80dc 8dbd af44 37bd
000001c0: 261c c4bc 6353 0b3e 4a17 8c3d b24c 173e
000001d0: 76a3 373e c0f3 92bd 2068 e63c e2c8 ea3d
000001e0: 59e8 ac3d 81fd ea3d c1e3 1d3e 9deb e43d
000001f0: 094b a03d 585b 6e3c ee3e c6bc 50a4 5f3c
00000200: a696 ff3d d472 2f3d f6fb cf3d 486a 143e
00000210: 6cd3 663d 26a1 473e 606f 103e 47ac 8e3c
00000220: fb36 933d 5e46 b83d 08f1 f63d 4641 d63d
00000230: b835 083d 8e8f 0f3d c173 a4bd f90f 05be
00000240: f660 e2bd 1745 02be 8d96 363d fee6 cfbd
00000250: bf66 5ebe 1751 12be 8b38 b3bc ce87 1ebe
00000260: 01f4 53be a3ab 00bd 829b 6b3c 5b1a 3ebd
00000270: 5b94 f13b 0704 943d 38ee b03d 5928 813c
00000280: 8ac8 e43c cb51 a83d 3f48 9d3d 6160 af3c
00000290: 0db8 c43d c254 273e ffe7 313e 946b 173e
000002a0: 92f5 333e e08d 093e ec39 d53d 1012 2bbd
000002b0: e7d2 ebbc 7c5d 1bbc 78ab 33be 3a57 4cbe
000002c0: 99da 1abe 4c2d efbd b2b6 41be 9fc4 21be
000002d0: 4913 86bd 068d 1fbe 7c26 bbbd b874 233d
000002e0: 13a9 a1bd 6958 81bc 6b65 963d d09d f9bc
000002f0: 8109 163d 5015 2abe ffc4 fcbd 6ec7 7dbd
00000300: 3b65 26be 3e11 15be 394d 0fbe 80f8 76bd
00000310: 5647 33bd 61ef e8bd 73b4 a5bc 414f fa3c
00000320: 3e07 933d cb2d 20bd 8c52 02be 3809 59bd
00000330: 688e 163d fea6 01be c612 61be e27a 7bbd
00000340: fb8a e2bd 4c73 74bd ed2e dbbd b41a 03be
00000350: 78ff c8bd 2bbc bbbc 2717 81bd aa44 a73b
00000360: 2752 b23d c6f8 45bd 07f6 bebc 69bf aa3d
00000370: e340 52bd 3c97 16bd 5c2f b03b 2d11 76bd
00000380: 79c9 f3bc aa41 babc 337a d63c e938 9ebc
00000390: fe6f 2abd 6b8c 52bc 4797 e2bc 92ce bcbc
000003a0: b6e6 4d3c 3064 e63c a56a 3ebd c29f d03b
000003b0: 8386 853c 0f00 833c 66b8 40bc 744b 6abd
000003c0: e3b7 4b3d 2111 ce3c 4c46 0bbd eb53 af3d
000003d0: aa2d 0c3d 1104 2fbd c817 443b 3328 e03b
000003e0: 5078 2b3d c6e6 b5bd 1dfe 1dbd 3cf9 a93d
000003f0: aea7 76bd bdc8 90bc 04b7 3d3d 791e e93c

module.layer2.0.bn1.weight f4 [32]
0.45003128 0.5028253 0.3839675 0.3471285 0.2671679 0.34931573 0.41367 0.39119416
0.39285687 0.3805164 0.33838052 0.41495717 0.43607518 0.42479813 0.54252666 0.36316323
0.43216977 0.42091712 0.36523426 0.33245325 0.36697945 0.49257943 0.38666186 0.47014531
0.36733362 0.62639266 0.31696984 0.38996956 0.32665306 0.34136885 0.3618881 0.41582915
00000000: 806a e63e 29b9 003f 6397 c43e d4ba b13e
00000010: 3bca 883e 83d9 b23e 8ecc d33e 9a4a c83e
00000020: 8924 c93e 0cd3 c23e 3640 ad3e 4475 d43e
00000030: 3f45 df3e 247f d93e 07e3 0a3f 88f0 b93e
00000040: 5b45 dd3e 7382 d73e fcff ba3e 5037 aa3e
00000050: bbe4 bb3e 5f33 fc3e 8bf8 c53e e3b6 f03e
00000060: 2713 bc3e 455b 203f df49 a23e 17aa c73e
00000070: 123f a73e e6c7 ae3e 6649 b93e 8fe7 d43e

module.layer2.0.bn1.bias f4 [32]
-0.2974567 -0.016845603 -0.1521626 -0.09080989 0.08221777 -0.079546615 -0.14025645 -0.083457366
-0.103199154 -0.031794153 0.0729992 -0.08980318 -0.14030504 0.11159355 -0.026583452 -0.033674333
0.056061592 -0.11077064 0.15889138 -0.07155126 -0.008837007 -0.06552725 0.016462224 0.10509433
-0.16057985 -0.18283378 -0.010616084 0.020946922 0.02787524 -0.018760674 -0.06059239 -0.07100347
00000000: 3f4c 98be caff 89bc 83d0 1bbe 89fa b9bd
00000010: ca61 a83d 56e9 a2bd 639f 0fbe b2eb aabd
00000020: 145a d3bd 963a 02bd 9b80 953d bbea b7bd
00000030: 20ac 0fbe 298b e43d 8ac5 d9bc 19ee 09bd
00000040: d7a0 653d b8db e2bd 6cb4 223e 7889 92bd
00000050: 18c9 10bc 2733 86bd c9db 863c b23b d73d
00000060: 0b6f 24be c738 3bbe 15ef 2dbc e198 ab3c
00000070: 9e5a e43c fcaf 99bc ba2f 78bd 446a 91bd

module.layer2.0.bn1.running_mean f4 [32]
0.43712813 -0.670842 -0.37950444 0.13858792 0.26274514 0.3116053 -0.22231784 0.062395692
-0.21381482 -0.3959065 -0.2735908 0.023235336 -0.12362414 -0.027831128 -0.7211586 -0.5309683
-0.41720137 0.3556566 -0.26420996 -0.004437017 -0.062362835 -0.31941566 -0.26194757 -0.6269072
0.56102544 -0.7415335 0.95853287 0.02134082 0.48077437 -0.031103889 -0.19557774 -0.1280208
00000000: 42cf df3e 4dbc 2bbf 684e c2be fee9 0d3e
00000010: 8886 863e bb8a 9f3e 4aa7 63be a092 7f3d
00000020: 46f2 5abe 42b4 cabe 1814 8cbe 0858 be3c
00000030: a72e fdbd 1bfe e3bc da9d 38bf 8aed 07bf
00000040: 6b9b d5be 9f18 b63e 8746 87be 6564 91bb
00000050: 2c70 7fbd 738a a3be fe1d 86be fe7c 20bf
00000060: 5d9f 0f3f 24d5 3dbf 6962 753f f1d2 ae3c
00000070: 0f28 f63e 95cd febc 8845 48be e217 03be

module.layer2.0.bn1.running_var f4 [32]
0.25164613 0.31569463 0.2118747 0.110973336 0.15537046 0.20245264 0.18531261 0.30864525
0.18022971 0.2927366 0.31323102 0.14070016 0.14884873 0.41488504 0.29445362 0.22950797
0.29494092 0.20663767 0.2897706 0.15281059 0.1265961 0.29082504 0.16862148 0.37223506
0.13924663 0.21193552 0.21674009 0.252051 0.23467652 0.20522776 0.14457285 0.22708762
00000000: c3d7 803e baa2 a13e aef5 583e fd45 e33d
00000010: 6f19 1f3e bf4f 4f3e 97c2 3d3e c006 9e3e
00000020: 238e 383e 92e1 953e d15f a03e b413 103e
00000030: cd6b 183e d06b d43e a0c2 963e 2304 6b3e
00000040: 7f02 973e d398 533e d05c 943e 617a 1c3e
00000050: 68a2 013e 05e7 943e 1cab 2c3e 9895 be3e
00000060: ab96 0e3e a005 593e 1df1 5d3e d40c 813e
00000070: 0b4f 703e 3a27 523e e80a 143e a889 683e
