results/0YFP/cifar10/kd/resnet8_best.pth.tar (torch_old, 371450 bytes, 52 tensors)

module.conv1.weight f4 [64, 3, 3, 3]
0	0x3ea92981	0.33039477
1	0x3f25a384	0.6470263
2	0x3f29ab25	0.6627677
3	0x3f02da1c	0.5111406
4	0xbfa93c8d	-1.3221604
5	0x3ef2907d	0.4737586
6	0xbe08ae5b	-0.13347761
7	0xbfd8d2d9	-1.6939346
8	0x3e995864	0.2995025
9	0xbf134468	-0.57526255
10	0xbf00557a	-0.50130427
11	0xbee9d0a2	-0.45666987
12	0x3f2d4c99	0.67695004
13	0xbf7261a8	-0.9468026
14	0x3eb7e577	0.35917255
15	0x3ebab69d	0.36467448
16	0xbe3fc3df	-0.18727063
17	0x3f9c2399	1.2198364
18	0x3e33d57b	0.17561905
19	0xbcc98aae	-0.02460226
20	0xbf21fa57	-0.63272613
21	0x3f241d21	0.6410695
22	0xbf2be94b	-0.6715285
23	0xbe36212c	-0.17786092
24	0xbd85e4a5	-0.06537751
25	0xbec19efc	-0.37816608
26	0x3f3ab331	0.72929674
27	0x3dcc90ac	0.099885315
28	0x3dd4048f	0.10352432
29	0x3d4fb4a9	0.0507094
30	0x3e2f71f4	0.17133313
31	0x3e0760a5	0.1322046
32	0x3e403331	0.18769528
33	0xbe847589	-0.25870922
34	0xbf0c7c05	-0.5487674
35	0xbea09c44	-0.3136922
36	0x3e3393d2	0.17536858
37	0x3ed2005b	0.41015896
38	0x3eac969e	0.33708662
39	0x3e5095e7	0.20369683
40	0x3ee93b77	0.4555318
41	0x3eecc9d6	0.4624774
42	0xbec457d1	-0.3834825
43	0xbee02df4	-0.4378506
44	0xbe8cc307	-0.27492544
45	0xbd6d7c7b	-0.057980042
46	0x3dd14fa2	0.10220267
47	0x3e2d6d4b	0.16936223
48	0x3b0a6ef0	0.0021123253
49	0x3e323583	0.17403226
50	0x3e9ada41	0.3024464
51	0xbed91a26	-0.42402762
52	0xbee999a6	-0.45625037
53	0xbe54a432	-0.2076576
54	0x3b4766c6	0.0030426248
55	0x3b7bf94e	0.0038448158
56	0x3aebc13a	0.0017986663
57	0xbb977f4e	-0.00462333
58	0xba78cc7a	-0.00094909186
59	0x3a988a93	0.0011637978
60	0xbae8fcb0	-0.0017775502
61	0xbb54329a	-0.0032378794
62	0xbadf7e94	-0.0017051273
63	0x3b9176d0	0.0044392124
64	0x3bb843c7	0.005623314
65	0x3bcaee4f	0.0061929594
66	0x3b51f064	0.0032034153
67	0x3b258ddd	0.002526156
68	0xb963a4e3	-0.00021709832
69	0xbb2f1d0e	-0.0026720199
70	0xba3e7039	-0.0007264647
71	0xbb1ecea6	-0.0024232059
72	0x3c0bf003	0.00854111
73	0x3c17c227	0.009262598
74	0x3be5a73e	0.007008462
75	0x3b943f3a	0.0045241388
76	0x3b92008e	0.0044556325
77	0x3baff075	0.005369241
78	0x3ba7ba34	0.0051186327
79	0xb9bf246d	-0.00036457498
80	0x3b01fe53	0.0019835427
81	0x3ebf5a47	0.37373564
82	0x3ed15504	0.40885174
83	0x3e9ea0a7	0.30981943
84	0x3df89170	0.12137115
85	0x3d3f9054	0.0467685
86	0x3d8edeaa	0.069760635
87	0xbe85864f	-0.26079032
88	0xbf315c98	-0.6928191
89	0xbed8ae52	-0.42320496
90	0x3ece2ac0	0.4026699
91	0x3f2eeec4	0.6833308
92	0x3f1c72b6	0.61112535
93	0x3c2dcf9d	0.010608581
94	0x3e6a6265	0.22889097
95	0x3e98106c	0.2970003
96	0xbef0591f	-0.46942994
97	0xbf2a6450	-0.66559315
98	0xbed83b48	-0.42232728
99	0x3e5d6e41	0.2162409
100	0x3ece2d14	0.40268767
101	0x3edf8caa	0.43662006
102	0xbe0e7327	-0.13911115
103	0x3d38168e	0.044943385
104	0x3e4945ca	0.19655529
105	0xbf04b3c5	-0.51836807
106	0xbf267cd2	-0.6503421
107	0xbeaecc5a	-0.34140283
108	0xbd90efae	-0.07076965
109	0xbe9afde3	-0.30271825
110	0xbda62c1d	-0.08113883
111	0xbdf01886	-0.117234275
112	0xbe84f9a6	-0.25971717
113	0xbe6b2e79	-0.22966947
114	0xbde5a5d3	-0.11213269
115	0xbdf7593e	-0.120775685
116	0xbdbd14ee	-0.09232508
117	0xbc080722	-0.008302482
118	0xbe7f7f34	-0.24950868
119	0xbdb005c4	-0.0859485
120	0x3d65bdc5	0.05608918
121	0xbd840e24	-0.064480096
122	0xbddf3d2b	-0.10900339
123	0x3e6c77b5	0.2309254
124	0x3e7c8c0c	0.24662799
125	0x3e450d91	0.19243456
126	0xbe29f618	-0.16597784
127	0xbe9efca8	-0.31052136
128	0xbe072ccc	-0.13200682
129	0xbd35871c	-0.044318303
130	0xbda12b40	-0.078695774
131	0xbdaf8da2	-0.08571936
132	0x3e4fdc9d	0.20299001
133	0x3e976712	0.29570824
134	0x3e90086a	0.2813142
135	0x3e22459b	0.15846865
136	0x3f1431dd	0.57888585
137	0x3f10c1fd	0.56546
138	0x3e45c37d	0.19312854
139	0x3f4ddf3b	0.8041875
140	0x3f512da5	0.81710273
141	0xbe6700bd	-0.22558875
142	0x3cf72f16	0.03017382
143	0x3e2e542a	0.17024294
144	0xbc8bd386	-0.017068636
145	0xbf02869c	-0.5098665
146	0xbeb3e2ca	-0.35133964
147	0xbe5d41fe	-0.21607205
148	0xbf3f3933	-0.74696654
149	0xbf01953e	-0.5061835
150	0xbedb8568	-0.42875218
151	0xbf90f144	-1.1323628
152	0xbf3c4708	-0.73545885
153	0xbe2df707	-0.16988765
154	0x3db6b85e	0.08921884
155	0xbecfd09f	-0.40588853
156	0x3f243d06	0.64155614
157	0x3f90c042	1.1308672
158	0x3f00d0e9	0.5031877
159	0x3e3a5e69	0.18200077
160	0x3f08a5a4	0.5337775
161	0x3e2ecc06	0.17070016
162	0x3cafb7b8	0.021449909
163	0xbcd4acea	-0.025961358
164	0xbd7cbd8b	-0.0617042
165	0x3da8de8a	0.08245571
166	0x3d60fb81	0.054927353
167	0x3cb7abaf	0.022420732
168	0x3dd6349e	0.10459255
169	0x3d99429e	0.07483409
170	0x3d7cb35a	0.06169448
171	0x3c6af419	0.014340424
172	0xbd03c062	-0.032165892
173	0xbd8c61f1	-0.06854618
174	0x3d97a17e	0.07403849
175	0x3d1191f1	0.03553957
176	0xbbe3717b	-0.006941018
177	0x3d826e3f	0.06368684
178	0x3cda42e6	0.026643228
179	0xbac617b1	-0.0015113262
180	0x3c903c02	0.017606739
181	0xbce1362f	-0.027491657
182	0xbd8f082e	-0.06983982
183	0x3ccb0385	0.024781952
184	0xbc952e9d	-0.018210704
185	0xbd90dc39	-0.07073254
186	0xbca8e762	-0.020618144
187	0xbd8f7b0a	-0.0700589
188	0xbdbd5015	-0.0924379
189	0x3ebb32a1	0.36562064
190	0xbdfca1f8	-0.123355806
191	0xba94af2b	-0.0011343708
192	0xbd9b13d4	-0.07572141
193	0xbf261d7a	-0.6488873
194	0xbf0c630f	-0.5483865
195	0xbe4477ce	-0.19186327
196	0xbf689282	-0.90848553
197	0xbf2d6709	-0.67735344
198	0x3d868d8c	0.06569967
199	0xbe26d410	-0.16291833
200	0xbe46c0ab	-0.19409434
201	0x3ac8f750	0.0015332494
202	0xbd72bb7c	-0.05926083
203	0xbe85b436	-0.26114053
204	0xbcb75ba7	-0.02238257
205	0xbe1a38fb	-0.15060799
206	0xbe75e95e	-0.24014804
207	0xbddc75fe	-0.10764693
208	0x3e6e5d3b	0.23277752
209	0x3d88e6f8	0.06684679
210	0x3e96849d	0.2939805
211	0x3f741efd	0.95359784
212	0x3f1e1714	0.61753964
213	0x3ebed89a	0.3727463
214	0x3f6ab80a	0.9168707
215	0x3f3bc182	0.73342144
216	0x3f3fcea9	0.74924713
217	0x3f97a418	1.1846952
218	0x3f232e88	0.63742876
219	0x3f13458a	0.57527983
220	0x3c9730a0	0.018455803
221	0xbf04cd7d	-0.5187605
222	0xbe083a37	-0.13303457
223	0xbfaa4469	-1.3302127
224	0xbfac6091	-1.346697
225	0xbd12548b	-0.035725158
226	0x3d35f507	0.04442313
227	0xbe3f0c5c	-0.18657058
228	0x3b56213f	0.0032673625
229	0x3db8a8ab	0.09016546
230	0xbe094396	-0.13404688
231	0x3e5caf52	0.21551254
232	0x3e10fdb9	0.14159288
233	0xbc2e3618	-0.010633014
234	0xbfb7e3ac	-1.4366355
235	0xbf712ede	-0.9421214
236	0xbf431452	-0.7620288
237	0xbf3e2466	-0.7427429
238	0x3ec30c87	0.38095495
239	0x3f04dc3a	0.5189854
240	0x3eb71512	0.35758263
241	0x3faa0514	1.32828
242	0x3f9070ad	1.1284386
243	0xbeb080ab	-0.34473166
244	0xbf02d7ae	-0.5111035
245	0x3f81b076	1.0131977
246	0xbea6cd48	-0.32578492
247	0x3fe72d50	1.8060703
248	0xbfc05cdf	-1.5028342
249	0xbed40994	-0.41413558
250	0x3ed01eb6	0.4064843
251	0x3e4e4e3e	0.20147035
252	0x3f1bed34	0.6090882
253	0xbeb8ff85	-0.36132446
254	0x3e5d0291	0.2158301
255	0x3ec3214e	0.38111347

module.bn1.weight f4 [64]
0	0x3fa587f5	1.2932116
1	0x3f1cf2d2	0.61308014
2	0x3bfb7cc8	0.007674787
3	0x3f471dfd	0.77780133
4	0x3f13597c	0.5755842
5	0x3f1f63f4	0.6226189
6	0x3df4031f	0.11914658
7	0x3f1ca4a9	0.6118875
8	0x3f8d3e0f	1.1034564
9	0x4005e51a	2.0921082
10	0x3e6919bb	0.22763722
11	0x3fabc4f8	1.3419485
12	0x3f1b0647	0.60556453
13	0x3f9cd68f	1.2252978
14	0x3f7c0d26	0.9845756
15	0x3f20c532	0.62800896
16	0x3efabb6e	0.48971123
17	0x3f45284d	0.7701462
18	0x3f934a7b	1.1507105
19	0x3ece4ee8	0.40294576
20	0x3ed9b7da	0.4252308
21	0x3ee9dc3a	0.45675832
22	0x3e932dd4	0.28745902
23	0x3f737c00	0.95111084
24	0x3f67ccbc	0.90546775
25	0x3f665dd9	0.8998695
26	0x3f0ef301	0.55839545
27	0x3ebee63e	0.37285036
28	0x3ef0a668	0.47001958
29	0x3e27f095	0.16400369
30	0x3fdae6b6	1.7101657
31	0x3f0b80ee	0.54493606
32	0x3f7fde7e	0.9994887
33	0x3e33354c	0.175008
34	0x3f48d74d	0.7845352
35	0x3eaaff42	0.3339787
36	0x3f00219e	0.50051296
37	0x3f2b32bf	0.6687431
38	0x3eb4a366	0.35280913
39	0x3ec2017e	0.37891763
40	0x3fa97d60	1.3241386
41	0x3f25965a	0.64682543
42	0x3ebd0354	0.36916602
43	0x3d88317e	0.06650065
44	0x3e9904e7	0.29886553
45	0x3e573f4c	0.2102024
46	0x3f76baa7	0.9637856
47	0x3ef2da34	0.474321
48	0x3f95d0bb	1.1704324
49	0x3f8a0837	1.0783757
50	0x3ec28f13	0.37999782
51	0x3ef930eb	0.48670134
52	0x3f785c46	0.970158
53	0x3ea8918a	0.32923537
54	0x3cbe0b94	0.02319888
55	0x3ef415c3	0.47672853
56	0x3ee5cd85	0.4488336
57	0x3f6fc646	0.93661916
58	0x3f4b9470	0.7952337
59	0x3f443864	0.76648545
60	0x3fb04fe0	1.3774376
61	0x3f0d250d	0.5513466
62	0x3f9e1afb	1.2351984
63	0x3f391031	0.7229033

module.bn1.bias f4 [64]
0	0x3f97ca65	1.1858641
1	0x3eb5a966	0.35480803
2	0xbcb0dae6	-0.021588754
3	0x3f01f09f	0.50757784
4	0xbe33b7f5	-0.17550643
5	0x3f191d3b	0.5981023
6	0xbe6d8cc6	-0.23198232
7	0x3e588e23	0.21147971
8	0xbed6fc83	-0.41989526
9	0x3fc9d9a7	1.5769547
10	0xbd4fd2ca	-0.050738133
11	0x3d5842a6	0.052797936
12	0xbe0dc60f	-0.13845085
13	0xbf80c728	-1.0060778
14	0x3ebbc8ea	0.36676723
15	0xbea60a49	-0.32429722
16	0x3f28693f	0.6578559
17	0x3f225539	0.6341129
18	0xbec4a247	-0.38405058
19	0xbe83f2fd	-0.25771323
20	0x3e4e2d41	0.2013445
21	0x3ede0edf	0.4337072
22	0xbe161cc6	-0.14659414
23	0x3f053541	0.52034384
24	0x3ebfb3ab	0.37441763
25	0xbec4b06f	-0.38415858
26	0xbeab4a18	-0.33454967
27	0xbecfc270	-0.40578032
28	0xbef88dc0	-0.48545647
29	0xbe040a30	-0.12894511
30	0x3fd41808	1.6569834
31	0xbeae6abf	-0.34065816
32	0xbf20ea50	-0.6285753
33	0xbe9359ef	-0.2877955
34	0xbe9af4eb	-0.30264983
35	0xbe71b5eb	-0.23604552
36	0x3f2d8c9b	0.6779267
37	0x3e602fb6	0.218932
38	0x3e1f221c	0.15540355
39	0xbe492bc2	-0.19645599
40	0x3f78ed6b	0.9723727
41	0xbf219377	-0.6311564
42	0xbe8e32ac	-0.27773035
43	0xbe0188e8	-0.12649882
44	0xbda69a14	-0.08134857
45	0xbe3524f8	-0.17689884
46	0x3df4311d	0.1192343
47	0x3e2abf6d	0.16674586
48	0xbef518a0	-0.4787035
49	0xbe2eb5be	-0.17061517
50	0x3c221e7e	0.009894965
51	0xbe5ef1b2	-0.21771887
52	0xbf2ef1af	-0.6833753
53	0xbec38b1d	-0.38192073
54	0xbd82b7b6	-0.06382696
55	0x3ecbb4ba	0.3978632
56	0xbdc3ade4	-0.095546514
57	0x3f3ecf36	0.7453493
58	0x3efa151e	0.48844236
59	0xbf36fd0f	-0.71479887
60	0xbe9ffca2	-0.3124743
61	0xbee8ee51	-0.4549432
62	0xbdcc45fd	-0.09974287
63	0xbed339e0	-0.41255093

module.bn1.running_mean f4 [64]
0	0x3ec9a630	0.39384604
1	0xbda06a0c	-0.07832727
2	0xbc83b295	-0.016076365
3	0xbd43f02e	-0.047836475
4	0x3ed0a1f5	0.40748563
5	0xbdea9e87	-0.11456018
6	0xbd1e79fb	-0.03869055
7	0x3d8fb05c	0.0701606
8	0x3dd48241	0.103764065
9	0xbdd83eff	-0.105588906
10	0xbe2c36ff	-0.16817854
11	0x3e4092f3	0.18806057
12	0x3e0e0dc4	0.13872439
13	0x3e91227b	0.2834662
14	0xbe6ebfa1	-0.23315288
15	0x3d22b59c	0.039723977
16	0xbeb40711	-0.3516164
17	0xbd9d4a9f	-0.076802485
18	0x3dbb8863	0.09156873
19	0xbe9f2946	-0.31086177
20	0xbe99c1fa	-0.30030805
21	0x3df66ae0	0.120321035
22	0xbe5e18b5	-0.21689112
23	0xbe2663ee	-0.16249058
24	0x3d1725f9	0.036901448
25	0x3f109bd6	0.56487787
26	0x3ed39cdf	0.4133062
27	0xbec7a79d	-0.38995066
28	0x3e89ab3d	0.26888457
29	0xbe01a089	-0.12658896
30	0xbe74f82d	-0.23922797
31	0x3e14bed8	0.14525926
32	0x3d881062	0.0664375
33	0xbe8e4b04	-0.27791607
34	0x3ecbd456	0.39810437
35	0x3ce606bc	0.028079383
36	0xbd0a4ecb	-0.03376655
37	0x3c93b890	0.018032342
38	0xbf01f79c	-0.50768447
39	0xbee3ab48	-0.44466615
40	0x3e93be26	0.2885601
41	0x3eb15b8a	0.3464015
42	0xbecc4d17	-0.39902565
43	0x3df4262c	0.11921343
44	0xbee63299	-0.44960478
45	0xbe233981	-0.15939905
46	0x3f59deb6	0.85105455
47	0xbe1532ee	-0.1457021
48	0x3f0025c8	0.5005765
49	0xbd851b00	-0.064992905
50	0x3e0114ed	0.12605639
51	0xbec14ad1	-0.37752393
52	0x3f1d5fbb	0.614742
53	0xbcd10b30	-0.02551803
54	0xbd5a2be7	-0.053264525
55	0x3e279e22	0.16368917
56	0xbe59febe	-0.21288583
57	0x3da8f66d	0.08250127
58	0xbe0d3033	-0.13787918
59	0x3eb62ee9	0.35582665
60	0x3dd0a6b4	0.10188046
61	0xbea169ee	-0.3152613
62	0x3d7cc3c7	0.061710145
63	0x3f13fede	0.5781077

module.bn1.running_var f4 [64]
0	0x410095e1	8.036592
1	0x40d0ff67	6.531177
2	0x3bbec7ec	0.0058221724
3	0x4184f628	16.620193
4	0x40937178	4.607601
5	0x40899ca4	4.300371
6	0x3e4f24f8	0.20228946
7	0x40dfe45a	6.996625
8	0x402885ea	2.6331735
9	0x412fe38d	10.993054
10	0x3f74b50d	0.9558876
11	0x41eca544	29.580696
12	0x400b8781	2.1801455
13	0x409cf34d	4.9047
14	0x4102b94f	8.170241
15	0x408e0c90	4.4390335
16	0x40b693c2	5.705537
17	0x41af3817	21.902388
18	0x418aa1ac	17.328941
19	0x401d53b9	2.458235
20	0x40182b34	2.377637
21	0x402de964	2.71737
22	0x3f976ce4	1.1830106
23	0x4142e344	12.180485
24	0x410c9822	8.787142
25	0x40e25ce5	7.0738397
26	0x4085c210	4.1799393
27	0x4026b913	2.605046
28	0x3fe020d8	1.7510023
29	0x3ea7814f	0.32715842
30	0x40c2acbe	6.0835867
31	0x3fb9d521	1.4518167
32	0x40e270a0	7.076248
33	0x3fb1b295	1.3882624
34	0x405d49d8	3.457632
35	0x3f198711	0.5997172
36	0x40044268	2.066553
37	0x40a42eec	5.130728
38	0x40b3a86b	5.614309
39	0x407fdab6	3.997724
40	0x40fe8127	7.9532657
41	0x40095166	2.1455932
42	0x40415532	3.020825
43	0x3e8d93cc	0.27651823
44	0x40a04a4c	5.0090694
45	0x3efad495	0.48990312
46	0x414cd8dd	12.802945
47	0x40855bd0	4.1674576
48	0x40faf24f	7.8420787
49	0x40b24fe2	5.5722513
50	0x3f5d16b3	0.8636276
51	0x40503320	3.2531204
52	0x40d24e2f	6.572044
53	0x3e916ff0	0.28405714
54	0x3d484122	0.04889024
55	0x3fd3b339	1.653907
56	0x402c91ce	2.6963992
57	0x40a47e61	5.140427
58	0x41436da6	12.21427
59	0x4045ecfd	3.0925896
60	0x405e1f52	3.4706616
61	0x400f18ba	2.2358842
62	0x41b9fa93	23.24735
63	0x40dedb27	6.964252

module.layer1.0.conv1.weight f4 [16, 64, 3, 3]
0	0xbe3dea04	-0.18546301
1	0xbe4f2eb3	-0.20232658
2	0x3d7abe15	0.061216433
3	0xbe7a709b	-0.24457018
4	0x3cacf1bb	0.02111136
5	0xbd1922a7	-0.037386563
6	0x3d87d77f	0.066328995
7	0x3e0fc3a8	0.1403948
8	0xbe364740	-0.17800617
9	0xbd537e8d	-0.05163436
10	0xbd1ef056	-0.03880342
11	0x3c99388b	0.01870372
12	0xbd810402	-0.062995926
13	0xbd491eb6	-0.049101554
14	0xbdc59097	-0.09646719
15	0xbe267b46	-0.16257963
16	0x3c8e515e	0.017372783
17	0x3dad3ac3	0.084584735
18	0x3a385040	0.0007031001
19	0x38792fcf	5.941075e-05
20	0x392f41f8	0.00016713876
21	0x3a09aff3	0.0005252354
22	0xb967c51f	-0.0002210331
23	0x39b80ee7	0.00035106318
24	0xba1b30da	-0.000592006
25	0xba31e126	-0.0006785564
26	0x39465433	0.00018914118
27	0xbd8577b2	-0.06516971
28	0xbc8ffd31	-0.017576786
29	0x3d227724	0.039664403
30	0xbddb01d1	-0.10693706
31	0xbdee8ea2	-0.11648299
32	0xbe48a797	-0.1959518
33	0xbe163437	-0.14668356
34	0x3d3bc18d	0.04583888
35	0x3d57d086	0.052689098
36	0xbe24cf41	-0.16094686
37	0xbe09ae0f	-0.13445304
38	0xbdddca0a	-0.108295515
39	0xbdf8f40f	-0.121559255
40	0xbdd526da	-0.10407801
41	0xbd54224e	-0.051790528
42	0x3d0a2a0c	0.033731505
43	0x3c22d0b6	0.009937456
44	0x3d770c08	0.06031421
45	0x3e668bd7	0.22514282
46	0xbded02e0	-0.11572814
47	0xbeb55277	-0.35414478
48	0x3eb2e406	0.34939593
49	0x3cbc0b36	0.022954565
50	0xbe9194be	-0.28433794
51	0x3e7014fe	0.23445508
52	0x3dca37e8	0.098739445
53	0xbdbea66c	-0.09309086
54	0xbcac5853	-0.02103821
55	0xbb82611a	-0.0039788606
56	0xbb035a67	-0.0020042898
57	0xbccabfc0	-0.024749637
58	0x3a2d70a3	0.00066162104
59	0x3b201c3d	0.0024430894
60	0xbca011b5	-0.019539693
61	0xbc0b8a6e	-0.008516891
62	0xbc026b8e	-0.007960213
63	0x3d5d1b97	0.05398139
64	0xbb55dc09	-0.0032632372
65	0x3d91b1a9	0.07113964
66	0xbdaa4578	-0.08314031
67	0xbda6906c	-0.08133015
68	0x3d891e96	0.06695287
69	0xbe224b68	-0.15849078
70	0xbdb1c56f	-0.086802356
71	0x3db743e0	0.08948493
72	0x3c130bf8	0.008975022
73	0x3af3afc0	0.0018591806
74	0xbb52e146	-0.003217773
75	0xbd8d9356	-0.06912868
76	0x3dacb393	0.084326886
77	0x3e10fa73	0.14158039
78	0x3da5cb85	0.08095459
79	0x3e8ccc7a	0.27499753
80	0x3e9d3cf3	0.30710563
81	0x3d33e85d	0.04392277
82	0xbe4a0d76	-0.19731697
83	0x3f26ab20	0.65104866
84	0x3d5cbd51	0.053891484
85	0xbe92725b	-0.2860287
86	0x3e228d8f	0.15874313
87	0xbd0d8984	-0.034554973
88	0xbf31ae3d	-0.6940649
89	0x3e4cb73c	0.19991773
90	0x3d09a69b	0.033606153
91	0x3c673fbd	0.0141143175
92	0x3c5832a7	0.01319567
93	0x3c025614	0.007955093
94	0x3be351aa	0.0069372253
95	0x3cc613e7	0.024179412
96	0xbc813c27	-0.015775753
97	0xbc0ecd67	-0.008715964
98	0x3c67301a	0.014110589
99	0x3d8405e9	0.0644644
100	0xbec455bf	-0.3834667
101	0xbe7c0485	-0.24611099
102	0x3c1f87ef	0.009736999
103	0xbedc8caa	-0.43076068
104	0xbef49e20	-0.4777689
105	0x3d10e16f	0.03537124
106	0xbe8b6c96	-0.27231282
107	0xbf044f82	-0.5168382
108	0xbd03f830	-0.032219112
109	0x3e37803e	0.17920014
110	0x3e76d8e7	0.24106179
111	0xbe1c5fc3	-0.15270905
112	0x3dcf0ae9	0.10109503
113	0x3e79c836	0.2439278
114	0xbea00da0	-0.31260395
115	0xbd869815	-0.06571976
116	0x3e108b64	0.14115673
117	0xbe63b7f9	-0.22238149
118	0xbe4e0126	-0.20117626
119	0xbe3791e8	-0.17926753
120	0xbdf2b962	-0.11851765
121	0xbe0ea147	-0.1392871
122	0xbe3b6a3d	-0.18302245
123	0x3c86a8e2	0.016437951
124	0xbc8f1570	-0.017466277
125	0x3ba0f07c	0.0049114805
126	0xbe1ed5da	-0.15511265
127	0xbdd87ed7	-0.10571068
128	0x3c816cf6	0.015799027
129	0xbe9ea372	-0.30984074
130	0xbe37ebb3	-0.17961006
131	0xbc6e6ea5	-0.014552747
132	0xbe94f4c2	-0.29092985
133	0xbe1649c8	-0.14676583
134	0x3e47d36b	0.19514243
135	0xbd78d10d	-0.06074624
136	0xbd1e58fc	-0.03865908
137	0xbd80ddc2	-0.06292297
138	0xbdf1cf83	-0.11807158
139	0xbda6544d	-0.08121548
140	0xbd6111de	-0.05494868
141	0x3d9864c0	0.074410915
142	0x3d8d9a8a	0.069142416
143	0x3d831c89	0.06401927
144	0x3e40ed61	0.18840553
145	0xbdde89d9	-0.10866136
146	0xbeadc39c	-0.339383
147	0x3e99a09d	0.3000535
148	0x3c59a0cc	0.013282966
149	0xbe851b14	-0.2599722
150	0x3e7893bf	0.2427511
151	0x3c884d9e	0.016638573
152	0xbe6748c2	-0.22586349
153	0xbe7e67e7	-0.24844323
154	0xbdf73261	-0.12070156
155	0xbbc377ec	-0.0059652235
156	0xbeacc6c3	-0.33745393
157	0xbdff8b59	-0.1247775
158	0x3e00f23e	0.12592408
159	0xbd82774a	-0.06370409
160	0x3d8b995e	0.06816362
161	0x3e40996f	0.1880853
162	0x3e7672ae	0.24067184
163	0x3e0c0f51	0.13677718
164	0x3e474f07	0.1946374
165	0xbb6085e0	-0.0034259483
166	0xbdc6cec0	-0.09707403
167	0xbdfa4e38	-0.1222195
168	0xbdc5d3f8	-0.096595705
169	0x3d2f7816	0.042839132
170	0x3c344a06	0.011003977
171	0x3d423161	0.047410373
172	0x3d482530	0.04886359
173	0x3c9c92e9	0.019113021
174	0x3c7a80e6	0.015289521
175	0x3c53a48c	0.012917649
176	0x3c8f46fe	0.017489906
177	0xbc876001	-0.01652527
178	0xbce058b5	-0.027386049
179	0x3b9aaa2a	0.004719992
180	0x3d85f534	0.065409094
181	0xbdd6d0ed	-0.10489068
182	0xbe858037	-0.26074383
183	0x3e5f4af8	0.21805942
184	0x3cf36378	0.029710516
185	0xbe32556c	-0.17415398
186	0x3e6bafa2	0.23016217
187	0x3db7e55f	0.08979296
188	0xbdcafe2a	-0.09911759
189	0x3d5ef91b	0.054436784
190	0x3d8522bc	0.06500766
191	0xbd1988f4	-0.037484124
192	0x3e694037	0.22778402
193	0x3e2277c1	0.15865995
194	0xbd1a338a	-0.037646808
195	0x3e0a9a9c	0.13535541
196	0x3b26cbb5	0.0025451009
197	0xbe4b137d	-0.19831653
198	0x3d77b365	0.06047382
199	0x3cdd9b12	0.027051482
200	0xbcf776f6	-0.030208092
201	0x3d603d61	0.054746035
202	0x3c72bdbe	0.014815746
203	0xbcd25823	-0.025676792
204	0x3cbfaf1c	0.023398928
205	0x3b43ab3b	0.00298567
206	0xbcd0ea69	-0.0255024
207	0x3d8138f7	0.06309693
208	0xbe6f5c48	-0.23375046
209	0xbe140e74	-0.14458638
210	0x3df0796e	0.11741911
211	0xbd5c20c6	-0.053742193
212	0xbd6bae44	-0.05753924
213	0x3dcaa49f	0.0989468
214	0x3c9b9af0	0.018994778
215	0xbd02d557	-0.031941738
216	0xbe10d7c6	-0.14144811
217	0x3cdfe395	0.0273302
218	0x3e184365	0.14869459
219	0xbe436429	-0.19081177
220	0xbe1736df	-0.14767025
221	0xbcd1872b	-0.025577148
222	0xbd892a1b	-0.06697484
223	0xbdd73ac2	-0.10509254
224	0xbdcdc0b6	-0.10046522
225	0xbc93578d	-0.017986083
226	0xbce97a72	-0.02850077
227	0x3d05c2df	0.032656547
228	0x3d5f6e3b	0.054548483
229	0xbd56d49f	-0.052448865
230	0xbdae1ee2	-0.08501984
231	0x3cc54d4b	0.024084708
232	0xbd30f1a5	-0.0431992
233	0xbdd99705	-0.10624508
234	0xbde28938	-0.11061329
235	0xbc837b49	-0.016049998
236	0x3c4d3d96	0.01252689
237	0xbde9ed3d	-0.11422203
238	0xbba9dda9	-0.0051838947
239	0x3d110f03	0.035414707
240	0xbb9334dc	-0.0044923853
241	0x3c2726c5	0.0102021145
242	0x3c919698	0.017772004
243	0x3d233128	0.0398418
244	0x3cfd0591	0.030886443
245	0xbca43d27	-0.020048691
246	0x3d9406e2	0.07227875
247	0x3d63eb05	0.055644054
248	0x3c504671	0.012712107
249	0x3d5c3c51	0.05376846
250	0x3cdfc073	0.027313447
251	0x3c826588	0.015917554
252	0xbcc7c88d	-0.024387622
253	0xbc188470	-0.009308919
254	0xbc4acf29	-0.012378492
255	0x3c82d48d	0.015970493

module.layer1.0.bn1.weight f4 [16]
0	0x3f6720a7	0.902842
1	0x3fb3ad4d	1.4037262
2	0x3f976c55	1.1829935
3	0x3f8c1bf9	1.0946037
4	0x3ff7b4b5	1.9352022
5	0x3fcfbdd5	1.6229807
6	0x401d81dc	2.461051
7	0x3fb8c4e3	1.4435085
8	0x3f6dac55	0.9284108
9	0x3fb220f5	1.3916308
10	0x3f7c813e	0.9863471
11	0x3fd2734d	1.6441437
12	0x3fa1e0cf	1.2646731
13	0x3fae80c4	1.3633046
14	0x3ff44a51	1.908518
15	0x3f7e54a1	0.99347883

module.layer1.0.bn1.bias f4 [16]
0	0x3ef9ba78	0.48775077
1	0xbeacc07a	-0.33740598
2	0xbeec19e8	-0.46113515
3	0xbf328c70	-0.6974554
4	0x3f405969	0.7513643
5	0xbfed259a	-1.85271
6	0xbe845d3e	-0.25852388
7	0xbdfb53ef	-0.122718684
8	0xbe63c90f	-0.22244667
9	0xbf025a04	-0.509186
10	0xbf135bf0	-0.5756216
11	0xbe9120cf	-0.28345343
12	0xbef7d954	-0.48407996
13	0xbf3a29a7	-0.72719806
14	0x3f7710ee	0.9651021
15	0x3ee5b16f	0.44861934

module.layer1.0.bn1.running_mean f4 [16]
0	0xc0b9c095	-5.8047585
1	0xc04938b5	-3.1440861
2	0xc09ac75f	-4.8368373
3	0xc00efa56	-2.2340293
4	0xc02b74c4	-2.6790018
5	0x40435c0d	3.0524933
6	0xc00a6215	-2.1622365
7	0xbfe770b9	-1.8081275
8	0xc03bd4fe	-2.934875
9	0xc08cef5f	-4.40422
10	0xc002011f	-2.0313184
11	0xc00c30aa	-2.1904702
12	0xc074fff1	-3.8281214
13	0xc0eee15b	-7.465009
14	0xc0c0716e	-6.0138464
15	0xc00f401c	-2.238288

module.layer1.0.bn1.running_var f4 [16]
0	0x418cb350	17.587555
1	0x4219aea7	38.42056
2	0x416740cf	14.453322
3	0x4151006d	13.062604
4	0x42167d21	37.622196
5	0x4129bc70	10.608505
6	0x43804351	256.5259
7	0x429a16d4	77.044586
8	0x4107821b	8.469264
9	0x42185904	38.08693
10	0x4112802a	9.15629
11	0x4298bcee	76.369
12	0x42031f0e	32.780327
13	0x424041fb	48.064434
14	0x421ea36e	39.6596
15	0x42067535	33.61446

module.layer1.0.conv2.weight f4 [16, 16, 3, 3]
0	0xbcb2a697	-0.021807952
1	0xbb949bf4	-0.0045351926
2	0xbd9e252a	-0.07721932
3	0x3e71af16	0.23601946
4	0x3dfaa612	0.12238707
5	0xbe182677	-0.14858423
6	0x3e8dec8f	0.27719542
7	0x3e76e34f	0.24110149
8	0xbc25379c	-0.010084059
9	0x3b9258bf	0.0044661458
10	0x3df82072	0.121155635
11	0xbe49031b	-0.19630091
12	0xbe058028	-0.13037169
13	0xbe4870ad	-0.19574232
14	0xbef6dec6	-0.48216838
15	0x3d8a5e2f	0.06756245
16	0x3e9c4758	0.3052318
17	0xbe494201	-0.19654085
18	0xbe05c453	-0.13063173
19	0xbce0869f	-0.027407942
20	0x3e17c127	0.14819776
21	0x3e28d972	0.16489199
22	0x3e43fabf	0.19138621
23	0x3e61ee6c	0.22063607
24	0x3e91b86f	0.28461024
25	0x3e2fadd4	0.17156154
26	0x3e28e0d1	0.1649201
27	0xbbd66df3	-0.0065438687
28	0x3da5a597	0.080882244
29	0xbc3cb4d7	-0.011517725
30	0xbdfd7cd7	-0.12377327
31	0xbbb89bf0	-0.0056338236
32	0xbe090583	-0.13381009
33	0xbe6d7647	-0.2318965
34	0xbe85c875	-0.261295
35	0xbe2c1106	-0.16803369
36	0x3b93a87f	0.0045061703
37	0x3df17da4	0.11791542
38	0x3de882f3	0.113531016
39	0x3e284cf4	0.16435605
40	0x3f36d54d	0.7141922
41	0x3eca788c	0.39545095
42	0xbf097eef	-0.5370931
43	0xbf8202e6	-1.0157135
44	0xbf55a47c	-0.8345411
45	0xbe1b5430	-0.15168834
46	0xbdff8e07	-0.124782614
47	0xbe2872e9	-0.16450085
48	0xbf27be56	-0.65524805
49	0xbf1b8343	-0.60747164
50	0xbf279d29	-0.6547418
51	0x3e9709c1	0.2949963
52	0x3e8acbe2	0.27108675
53	0x3e675ff7	0.22595201
54	0x3d2fe691	0.042944495
55	0xbe143ebf	-0.1447706
56	0xbe32c771	-0.17458893
57	0xbe618862	-0.22024682
58	0xbebeada1	-0.37241843
59	0xbe9c1765	-0.304866
60	0xbe2a381c	-0.16622967
61	0xbea9f4f1	-0.33194688
62	0xbe0b3ede	-0.135982
63	0x3e35852e	0.17726585
64	0x3e22ed90	0.15910935
65	0x3dfa5fae	0.12225281
66	0xbb07427b	-0.002063899
67	0xbdcb9b37	-0.09941714
68	0xbc35eab6	-0.011103323
69	0xbdc4c9d0	-0.09608805
70	0xbe505d2c	-0.20348042
71	0xbce574ff	-0.02800989
72	0x3db1bed0	0.08678973
73	0x3e7f55d2	0.24935082
74	0xbcd56953	-0.026051199
75	0xbcbef2dd	-0.023309166
76	0x3dc7635a	0.09735747
77	0xbe365286	-0.17804918
78	0xbe5edd1e	-0.21764037
79	0x3d78a7e2	0.06070698
80	0xbe074d12	-0.13212994
81	0xbd9d1bdc	-0.076713294
82	0xbdc9b8ee	-0.09849726
83	0xbe360b1e	-0.17777678
84	0x3c2f2ea7	0.010692275
85	0x3e14fba7	0.14549123
86	0x3de184c7	0.110116534
87	0x3e8777ee	0.26458687
88	0x3e8fbef7	0.28075382
89	0x3ed60653	0.418017
90	0x3d4b82fa	0.049685456
91	0x3e31bf5f	0.17358159
92	0xbd0e6817	-0.034767237
93	0xbe0dd800	-0.13851929
94	0xbce41d76	-0.02784608
95	0xbe026115	-0.12732346
96	0xbdd04c12	-0.10170759
97	0xbdf704e2	-0.12061478
98	0xbe211846	-0.15731916
99	0x3e03b8a7	0.12863408
100	0x3e898f1b	0.26866993
101	0x3e7312ba	0.23737612
102	0xbd7d6f65	-0.061873812
103	0x3e4f9889	0.20273031
104	0x3e0dcee9	0.13848461
105	0x3de2b3f7	0.11069482
106	0x3ed3adf0	0.4134364
107	0x3e987ce6	0.2978279
108	0xbdda82cc	-0.10669479
109	0x3db718ca	0.08940275
110	0x3e83e473	0.2576023
111	0xbd864e97	-0.065579586
112	0x3db14214	0.086551815
113	0xbdcce647	-0.100048594
114	0xbe975dd5	-0.29563776
115	0xbefbe52f	-0.4919829
116	0xbf01794c	-0.5057571
117	0xbced9d60	-0.029005706
118	0x3e708c25	0.23490961
119	0x3db7c0fc	0.08972356
120	0x3d897bd0	0.067130685
121	0x3d9786fa	0.073987916
122	0x3e398771	0.18118073
123	0x3db92fb2	0.090423
124	0xbd228f8e	-0.039687686
125	0x3e8bebce	0.27328342
126	0xbee0a757	-0.4387767
127	0x3e1cada2	0.1530061
128	0xbe8b4963	-0.27204427
129	0xbeef9235	-0.46791235
130	0xbf9874b0	-1.191061
131	0xbf1fb349	-0.6238294
132	0x3d793a14	0.060846403
133	0x3fa2eb81	1.272812
134	0x3f0afb67	0.5428986
135	0xbded6a16	-0.115925
136	0x3d3a869e	0.045538537
137	0xbe659ea0	-0.22423792
138	0x3e6be982	0.23038295
139	0x3eb3b8fb	0.35102066
140	0x3e69fffc	0.22851557
141	0x3eddb955	0.4330546
142	0x3f158105	0.58399993
143	0x3f10462c	0.56357074
144	0x3e2b3efb	0.16723244
145	0x3e7ddbf6	0.2479094
146	0x3db5ba7e	0.08873461
147	0xbe934665	-0.28764644
148	0xbccd5b59	-0.025067972
149	0x3ed9b944	0.4252416
150	0xbe68766c	-0.22701424
151	0xbef40a43	-0.4766408
152	0xbea3610c	-0.31909978
153	0xbe7e7cac	-0.24852246
154	0xbc454b0a	-0.0120418165
155	0x3d2fc552	0.04291279
156	0x3d5a6d13	0.053326678
157	0x3e942e9e	0.28941816
158	0x3e5750fd	0.21026988
159	0x3ebe5676	0.3717534
160	0xbe3cb08a	-0.1842672
161	0x3e3c55ac	0.18392056
162	0x3d61f8f9	0.05516908
163	0x3efd8380	0.4951439
164	0x3e087027	0.13324033
165	0xbe06d689	-0.13167776
166	0x3df81546	0.121134326
167	0x3e905e46	0.28196925
168	0xbd7af198	-0.061265558
169	0x3dbb51ca	0.091464594
170	0x3d8868ce	0.06660615
171	0xbe654dbf	-0.22392939
172	0xbe0105d1	-0.12599875
173	0xbea99f86	-0.3312952
174	0xbe503d56	-0.20335898
175	0x3d9fb5da	0.07798357
176	0xbe27a6f5	-0.16372283
177	0x3e413c45	0.18870647
178	0x3ea1cf6d	0.31603566
179	0xbe3656da	-0.17806569
180	0x3ea1f91d	0.3163537
181	0xbfb4e7a1	-1.4133188
182	0x3f33d981	0.7025376
183	0x3f3ef691	0.7459498
184	0x3d18a8c1	0.03727031
185	0xbf6ae25f	-0.91751665
186	0xbf1212bd	-0.5705984
187	0x3f56ce59	0.8390861
188	0x3c46fea0	0.012145668
189	0xbd4f7c53	-0.050655674
190	0xbd243183	-0.04008628
191	0x3c233dcb	0.009963463
192	0xbd4a19c0	-0.049340963
193	0xbce9c4ee	-0.028536286
194	0xbd2e4195	-0.042543013
195	0xbe41b126	-0.18915233
196	0xbe3d6fc5	-0.18499668
197	0xbe366517	-0.17812
198	0x3e6eb69f	0.23311852
199	0xbf12b3af	-0.57305425
200	0xbe3d346c	-0.18477029
201	0xbe119a04	-0.14218909
202	0xbc3da015	-0.011573811
203	0xbe8d6530	-0.27616262
204	0xbe56283f	-0.2091379
205	0x3e31e181	0.17371179
206	0x3e1c080c	0.15237445
207	0x3dec6e1d	0.1154444
208	0x3f0685b6	0.52547777
209	0x3ea413f0	0.3204646
210	0xbd943a3f	-0.07237672
211	0xbe699eec	-0.2281453
212	0xbda56166	-0.08075218
213	0xbde3ad7a	-0.111170724
214	0xbf2113f8	-0.62921095
215	0xbe979c1a	-0.29611284
216	0x3db6c1cc	0.089236826
217	0x3e4dfc0d	0.20115681
218	0xbc44bdf5	-0.01200818
219	0xbe465a7c	-0.19370455
220	0x3d522969	0.051309023
221	0x3e20d6f0	0.15706992
222	0xbe357106	-0.17718896
223	0xbe2c9cad	-0.16856642
224	0x3d89d5a1	0.067301996
225	0x3d360e9a	0.04444752
226	0xbe2cb5bc	-0.16866201
227	0xbe324347	-0.17408477
228	0xbdec492e	-0.115373954
229	0xbd744e29	-0.05964485
230	0xbed9e186	-0.42554873
231	0x3c846ee8	0.016166165
232	0xbdc24019	-0.09484882
233	0x3dd8400d	0.10559092
234	0x3cd8d858	0.026470348
235	0x3e1c4b0b	0.15263002
236	0x3eace4f7	0.33768436
237	0x3c9f5ece	0.019454386
238	0x3d4674d8	0.048451275
239	0x3ea166b6	0.31523675
240	0xbd4a89de	-0.049447887
241	0x3dd8d29d	0.10587046
242	0x3e25fdbd	0.16210075
243	0x3e0c5036	0.13702473
244	0xbe17b883	-0.1481648
245	0xbe15f8d1	-0.14645697
246	0x3df78560	0.12085986
247	0xbdbd7238	-0.09250301
248	0xbe8d8aef	-0.2764506
249	0xbe90e1dd	-0.2829732
250	0xbeb32b1b	-0.34993824
251	0xbe052756	-0.13003287
252	0x3e183b37	0.14866339
253	0xbe4e61cd	-0.20154496
254	0xbd80c6c1	-0.06287909
255	0xbec3e73b	-0.38262352

module.layer1.0.bn2.weight f4 [16]
0	0x3fd6b85e	1.6775014
1	0x4010c233	2.261853
2	0x3ff4a88f	1.911394
3	0x40239f32	2.5565915
4	0x3fbf3528	1.4938097
5	0x3e6bc9e6	0.23026237
6	0x3fec7992	1.84746
7	0x3f1cee31	0.6130095
8	0x40283779	2.6283858
9	0x401315f8	2.2982159
10	0x3f46e735	0.77696544
11	0x3f8d46d1	1.1037236
12	0x3f60b607	0.8777775
13	0x3f81bff7	1.0136708
14	0x3f77931e	0.9670886
15	0x4003bd29	2.0584204

module.layer1.0.bn2.bias f4 [16]
0	0x3db628d5	0.08894507
1	0xbe9f96af	-0.3116965
2	0xbe87b2d1	-0.26503614
3	0xbe79acce	-0.24382326
4	0x3ec7bd09	0.3901141
5	0x3ebcd5ca	0.36881858
6	0x3f41740f	0.75567716
7	0x3ed383ce	0.41311496
8	0xbe6228d8	-0.22085893
9	0xbe551f2f	-0.20812677
10	0x3ee7b149	0.45252445
11	0x3e3a6699	0.182032
12	0xbea76fb9	-0.32702425
13	0x3e8b5c8a	0.2721904
14	0x3e8f24cf	0.2795777
15	0xbec34c93	-0.3814436

module.layer1.0.bn2.running_mean f4 [16]
0	0xbfc11122	-1.5083354
1	0xbfe82528	-1.8136339
2	0xbfada124	-1.3564801
3	0xbf7fb331	-0.998828
4	0xc0329038	-2.7900524
5	0x40092e74	2.1434603
6	0xc0ae00a7	-5.4375796
7	0x3f125838	0.5716586
8	0xc0bdba50	-5.928993
9	0xc0371e6a	-2.8612313
10	0xbd320c85	-0.04346897
11	0xbefb9f42	-0.49144942
12	0x404dd877	3.216337
13	0x3fd74116	1.6816738
14	0x3f968d2d	1.1761833
15	0xbf8eadf5	-1.1146837

module.layer1.0.bn2.running_var f4 [16]
0	0x41dae66f	27.362516
1	0x41b61dbd	22.76452
2	0x41a9026b	21.12618
3	0x41eb7217	29.430708
4	0x41622a0a	14.135263
5	0x404a5b57	3.161825
6	0x4221334d	40.3001
7	0x40d0f1c3	6.529512
8	0x42129f95	36.65584
9	0x41dc4977	27.535872
10	0x41064724	8.392368
11	0x40e799dd	7.237532
12	0x409b7410	4.857918
13	0x410a61bd	8.648862
14	0x410032c8	8.012398
15	0x41d6ebad	26.865076

module.layer1.0.shortcut.0.weight f4 [16, 64, 1, 1]
0	0x3e00f32a	0.1259276
1	0xbf21b821	-0.63171583
2	0xba4601df	-0.00075533794
3	0xbf4e741a	-0.80645907
4	0x3e127893	0.14303808
5	0xbf1e1a0b	-0.6175849
6	0x3dad79ac	0.08470473
7	0xbdc355e1	-0.095378645
8	0x3ebd7c5e	0.37008947
9	0x3d4bf9ca	0.049798764
10	0xbe1f41d1	-0.1555245
11	0xbd204827	-0.03913131
12	0xbd2e2430	-0.04251498
13	0xbe70d4d0	-0.23518682
14	0xbe3c9997	-0.18417965
15	0x3cc3fe63	0.023925012
16	0xbec4dc1f	-0.3844919
17	0x3f52714b	0.8220412
18	0x3dc13e37	0.09435695
19	0xbe6560cd	-0.22400208
20	0xbe198223	-0.1499105
21	0x3cb2dedd	0.021834785
22	0xbe20256e	-0.15639278
23	0xbcefe02a	-0.029281694
24	0x3e8c1380	0.27358627
25	0x3da2d73f	0.07951211
26	0x3e0dc8da	0.1384615
27	0xbd8e7eb6	-0.06957762
28	0x3dec0a20	0.11525369
29	0xbbb1ecbf	-0.0054298337
30	0xbda4d561	-0.08048511
31	0xbd9b2114	-0.075746685
32	0x3f1f85d4	0.6231358
33	0xbcc1efbd	-0.023673886
34	0xbde8875e	-0.11353944
35	0xbe2ec0fc	-0.17065805
36	0x3dfc3c34	0.1231617
37	0x3e39e42b	0.18153445
38	0xbe982a08	-0.29719567
39	0xbdadf2bd	-0.08493564
40	0x3e8e7724	0.27825272
41	0x3e0b4945	0.13602169
42	0xbcdb3327	-0.02675779
43	0x3c83ebe0	0.016103685
44	0xbea93aa5	-0.33052555
45	0x3c964540	0.018343568
46	0xbc0b55c1	-0.008504332
47	0xbe86ad1f	-0.26303956
48	0xbe3e31e5	-0.18573721
49	0x3e04f639	0.12984551
50	0xbc939b25	-0.018018315
51	0xbdb2201e	-0.08697532
52	0x3e38d032	0.1804817
53	0x3e287841	0.16452123
54	0xb9c0d259	-0.00036777815
55	0x3dd6b975	0.10484592
56	0xbe8e6cd2	-0.27817398
57	0x3e21b1a8	0.15790427
58	0xbf6d8f5b	-0.9279687
59	0x3e0340a9	0.12817635
60	0xbec0ed8e	-0.3768124
61	0xb9f8e98e	-0.00047476258
62	0x3e90bdc7	0.2826979
63	0x3dc08e12	0.09402098
64	0xbe253018	-0.16131628
65	0x3e0775bf	0.1322851
66	0x3c0d7599	0.0086339945
67	0x3e4a5cac	0.19761914
68	0xbd5b80b3	-0.053589534
69	0x3e190635	0.14943774
70	0x3bd82bd5	0.006597022
71	0x3e1b1ca3	0.15147643
72	0xbee1bc97	-0.44089195
73	0xbf271e86	-0.6528095
74	0xbd81026c	-0.0629929
75	0x3da4aba7	0.080405526
76	0xbe66731c	-0.22504848
77	0xbd89d0b0	-0.06729257
78	0xbd87ab7e	-0.066245064
79	0xbe6523c4	-0.22376925
80	0x3dcbdd50	0.099543214
81	0xbdff5d8a	-0.12469013
82	0x3e93bdea	0.2885583
83	0xbc89f172	-0.016838763
84	0xbe1abdd4	-0.15111476
85	0x3df49725	0.11942891
86	0x3cfed815	0.031108895
87	0x3d0f4954	0.03498204
88	0xbe9f1bcc	-0.31075895
89	0x3e6520de	0.22375819
90	0xbd9ec0b5	-0.077516
91	0x3dc16029	0.09442169
92	0xbc316fe0	-0.010829896
93	0x3d088e46	0.033338808
94	0xbce84d72	-0.028357241
95	0xbd8b9f55	-0.068174995
96	0xbd4ad700	-0.049521446
97	0x3d0d1b1e	0.03444969
98	0xbe0cd3f9	-0.13752736
99	0x3bfca8f7	0.007710572
100	0xbb982dbb	-0.0046441234
101	0xbe8913f4	-0.26773036
102	0xbe0c0164	-0.13672405
103	0xbd86bd7c	-0.0657911
104	0xbebf43a7	-0.37356302
105	0xbc6829fe	-0.014170168
106	0x3caafcd6	0.020872515
107	0x3c973746	0.018458974
108	0xbd93b569	-0.072123356
109	0xbc7c5f7d	-0.015403626
110	0x3e323b3f	0.17405413
111	0x3c5fd046	0.013660496
112	0xbe304704	-0.1721459
113	0xbe68cb41	-0.22733785
114	0xbd81e150	-0.06341803
115	0x3d7c93a6	0.061664246
116	0x3d1ccac5	0.038279314
117	0xbbf33997	-0.0074226367
118	0x3c87d959	0.016583132
119	0x3dd4b7a3	0.103865884
120	0xbda90c4b	-0.08254298
121	0x3ea0976e	0.31365532
122	0x3e0cdcec	0.1375615
123	0x3c00f583	0.007871035
124	0x3f0644ad	0.5244854
125	0x3ddd1634	0.107952505
126	0xbeb33431	-0.35000756
127	0xbc9d3b90	-0.01919344
128	0xbd6b6723	-0.057471406
129	0xbe818fca	-0.25305015
130	0x3aae9c53	0.0013321735
131	0xbead7740	-0.33880043
132	0x3dabca35	0.08388177
133	0xbeb80fdd	-0.35949603
134	0xbcad0ab9	-0.021123277
135	0x3d8df6c6	0.06931834
136	0xbe07a3b9	-0.13246049
137	0x3e0ef452	0.13960388
138	0x3d446010	0.047943175
139	0xbed71519	-0.42008284
140	0xbe3c518e	-0.18390486
141	0xbe0e0b46	-0.13871488
142	0x3cfbc4b4	0.030733444
143	0xbd6dcc95	-0.058056433
144	0xbdee933b	-0.11649176
145	0x3dbf7179	0.09347815
146	0xbe705020	-0.23468065
147	0x3e22a790	0.15884233
148	0xbe5907fc	-0.21194452
149	0x3d327a44	0.043573633
150	0x3e0ef5d4	0.13960963
151	0xbeb8ff9d	-0.36132517
152	0x3db46f19	0.08810253
153	0x3e424f90	0.18975663
154	0x3df6615b	0.12030288
155	0x3e2d9c81	0.16954233
156	0x3c850753	0.016238844
157	0xbc33b6cc	-0.010968875
158	0xbf0ed017	-0.5578627
159	0x3ca9eb03	0.020741945
160	0xbd542043	-0.05178858
161	0x3d8a82bc	0.06763217
162	0xbc3f9905	-0.011694198
163	0xbd88bc62	-0.06676556
164	0xbdf07feb	-0.117431484
165	0x3d00c6f1	0.031439725
166	0xbe3400f5	-0.1757849
167	0x3d14d795	0.036338408
168	0x3ed29aae	0.41133636
169	0x3df8933d	0.121374585
170	0x3d9c2c22	0.07625605
171	0x3c78dac1	0.015188874
172	0x3c57c6a5	0.013169919
173	0x3b4d93be	0.0031368579
174	0x3e618f7c	0.22027391
175	0xbca51c79	-0.020155178
176	0xbe018ef2	-0.12652186
177	0xbc3a44f7	-0.011368982
178	0xbd8f45e3	-0.06995752
179	0x3df488ec	0.11940178
180	0x3e2f872c	0.17141408
181	0xbbb2f889	-0.0054617566
182	0x3b132f14	0.002245848
183	0xbe07e9d2	-0.13272789
184	0xbd207132	-0.03917045
185	0xbe2249ff	-0.1584854
186	0xbec8d3b7	-0.39224026
187	0x3cb3b980	0.02193904
188	0xbdce0c0d	-0.10060892
189	0xbdac4e1b	-0.08413335
190	0x3c8b346b	0.016992768
191	0x3e5d456a	0.2160851
192	0x3dcfaf09	0.10140807
193	0xbcca18e9	-0.024670081
194	0xbb10f439	-0.0022118224
195	0x3bcb8c80	0.0062118173
196	0xbd2acf97	-0.04170188
197	0x3d7bc101	0.06146336
198	0x3c51b830	0.012800261
199	0x3e09de66	0.13463745
200	0xbcfe4965	-0.031040857
201	0xbe704e29	-0.23467316
202	0xbc8c3c78	-0.017118677
203	0xbdff8bc5	-0.12477831
204	0xbd00f224	-0.031480923
205	0x3c652313	0.013985413
206	0xbdb6988d	-0.089158155
207	0xbd9dac23	-0.07698848
208	0x3609cd99	2.0534264e-06
209	0xbc2bf2d4	-0.010494906
210	0x3d70aa26	0.058756016
211	0xbb486ff4	-0.0030584307
212	0xbb9dc6fc	-0.0048149806
213	0xbd372dcd	-0.044721413
214	0x3c3bc657	0.011460862
215	0x3d2ca57e	0.042150013
216	0xbdbfe32c	-0.093695015
217	0x3d5b7f42	0.05358816
218	0xbd7efacc	-0.062250897
219	0xba61b3f7	-0.00086098857
220	0x3d119e43	0.03555132
221	0x3c6da64d	0.014504981
222	0xbeded759	-0.43523672
223	0xbcbfa199	-0.023392485
224	0xbdbd0062	-0.09228589
225	0x3b3701d5	0.0027924676
226	0xbc008902	-0.007845165
227	0xbc80e449	-0.015733855
228	0xbdcee5b1	-0.10102404
229	0xbd451e1f	-0.04812443
230	0xbd03942c	-0.03212373
231	0xbce9d83f	-0.028545497
232	0x3e89a598	0.2688415
233	0x3c4635bf	0.012097775
234	0xbc7075ef	-0.014676555
235	0x3bbb61b4	0.005718434
236	0xbc21bb0c	-0.009871256
237	0x3b968ea4	0.004594641
238	0x3d8cc37b	0.068732224
239	0xbc0c0334	-0.008545686
240	0xbd7f563f	-0.06233811
241	0x3c785d98	0.015159033
242	0xbd6126c9	-0.05496863
243	0xbcdc959d	-0.02692681
244	0x3ca66a6b	0.020314416
245	0x3cfe2946	0.03102554
246	0xbbe163eb	-0.006878366
247	0x3d3acc6a	0.0456051
248	0x3ba52cf2	0.0050407583
249	0xba10eba7	-0.0005528279
250	0xbb883c07	-0.0041575464
251	0x3c307e10	0.010772243
252	0xbd962309	-0.07330901
253	0x3dc57e5e	0.09643243
254	0xbdf7b819	-0.12095661
255	0x3c59abd3	0.013285595

module.layer1.0.shortcut.1.weight f4 [16]
0	0x3f7a7abf	0.97843546
1	0x3f089951	0.5335894
2	0x3f116d20	0.56807137
3	0x3e04a6fd	0.12954326
4	0x3f88fc0e	1.0701921
5	0x3f90d99c	1.1316409
6	0x3d16811d	0.036744226
7	0x3f4bc71b	0.79600686
8	0x3e9d8b17	0.3077018
9	0x3f5572a6	0.83378065
10	0x3f9148d5	1.1350352
11	0x3f504bac	0.81365466
12	0x3fedc0ab	1.8574423
13	0x3fa6de0b	1.3036512
14	0x3f9a706c	1.2065558
15	0x3f13e26b	0.5776736

module.layer1.0.shortcut.1.bias f4 [16]
0	0x3db628d5	0.08894507
1	0xbe9f96af	-0.3116965
2	0xbe87b2d1	-0.26503614
3	0xbe79acce	-0.24382326
4	0x3ec7bd09	0.3901141
5	0x3ebcd5ca	0.36881858
6	0x3f41740f	0.75567716
7	0x3ed383ce	0.41311496
8	0xbe6228d8	-0.22085893
9	0xbe551f2f	-0.20812677
10	0x3ee7b149	0.45252445
11	0x3e3a6699	0.182032
12	0xbea76fb9	-0.32702425
13	0x3e8b5c8a	0.2721904
14	0x3e8f24cf	0.2795777
15	0xbec34c93	-0.3814436

module.layer1.0.shortcut.1.running_mean f4 [16]
0	0xbf3bd026	-0.73364484
1	0xbfce5695	-1.6120173
2	0xbfe4f54f	-1.7887362
3	0xbf850191	-1.0391103
4	0xbf36cfeb	-0.7141101
5	0x408d9481	4.424378
6	0x3f1c40d7	0.6103644
7	0x3f551cf5	0.8324731
8	0xbfcda5e6	-1.6066253
9	0xbe86948a	-0.262852
10	0x3e9b044a	0.3027671
11	0xc00390e7	-2.0557191
12	0xc0815c45	-4.0425134
13	0x3ee3599f	0.44404313
14	0xc007f3f9	-2.124266
15	0xbe2da8aa	-0.16958871

module.layer1.0.shortcut.1.running_var f4 [16]
0	0x40c0bf10	6.023323
1	0x40556898	3.334509
2	0x40457e9b	3.0858524
3	0x3f828f5f	1.0200003
4	0x40c468fb	6.137815
5	0x405f42e4	3.4884577
6	0x3f8a6c7c	1.0814357
7	0x4059e693	3.4046981
8	0x4034701b	2.8193424
9	0x40b834ee	5.756461
10	0x409df1a4	4.935747
11	0x404d1501	3.204407
12	0x408e9a66	4.4563475
13	0x41045d39	8.272759
14	0x40a27c13	5.077646
15	0x409c50c6	4.88486

module.layer2.0.conv1.weight f4 [32, 16, 3, 3]
0	0xbed4144e	-0.4142174
1	0xbebedced	-0.37277928
2	0xbeab555b	-0.3346356
3	0x3bfaeca1	0.007657603
4	0x3b69ee15	0.0035694886
5	0x3da8b3a6	0.0823739
6	0x3e814ad4	0.25252402
7	0x3e9c6fb9	0.30553988
8	0x3e8890a1	0.26672843
9	0xbed48e62	-0.4151488
10	0xbeb24bc7	-0.3482344
11	0xbeb0b527	-0.34513208
12	0xbe503d27	-0.20335828
13	0xbe8aaabe	-0.2708339
14	0x3d80b345	0.06284193
15	0x3e5eedc5	0.2177039
16	0x3e2bb24c	0.16767234
17	0x3e934c76	0.28769273
18	0xbea539a0	-0.32270527
19	0xbe9b29a6	-0.30305213
20	0xbe69d30c	-0.22834414
21	0xbe25cc80	-0.16191292
22	0xbe0ec49b	-0.13942187
23	0x3d916155	0.07098643
24	0x3d212a3c	0.03934692
25	0x3dadfda4	0.08495644
26	0x3dfc3d45	0.12316374
27	0xbeb2e880	-0.34943008
28	0xbf032eff	-0.51243585
29	0xbe3e6c59	-0.18596019
30	0xbe653e17	-0.22386967
31	0xbe64a229	-0.22327484
32	0x3d301510	0.042988837
33	0xbd266ed0	-0.040633023
34	0x3dcc5586	0.0997725
35	0x3eb0cfd2	0.34533554
36	0x3e3129da	0.17301121
37	0xbb89789b	-0.0041952855
38	0xbe727c96	-0.23680338
39	0x3d323a1a	0.04351244
40	0xbc7b0cca	-0.015322873
41	0xbe2fbdb3	-0.17162208
42	0x3ea84da6	0.3287174
43	0x3e8ae9f3	0.27131614
44	0xbdefa15d	-0.117006995
45	0xbc8024b8	-0.015642509
46	0xbe2b2bdd	-0.16715951
47	0xbe98f20f	-0.29872176
48	0x3b230626	0.002487549
49	0xbd2b4d01	-0.041821484
50	0xbc5aae5b	-0.013347234
51	0xbd4dee53	-0.05027611
52	0x3d7131ab	0.058885258
53	0x3d81038d	0.062995054
54	0x3d263a5a	0.040582992
55	0xbe494511	-0.19655253
56	0xbe9dda98	-0.30830836
57	0xbd781c82	-0.060574062
58	0xbe686e8d	-0.22698422
59	0xbeaacb33	-0.33358154
60	0x3e2dbbca	0.16966167
61	0x3d16deb6	0.036833487
62	0x3db91c88	0.09038645
63	0xbd4ee148	-0.050507814
64	0xbd7bf341	-0.061511282
65	0x3e38ed5f	0.180593
66	0x3cc0a498	0.023515984
67	0xbcb65b95	-0.022260467
68	0x3e48207a	0.19543639
69	0xbdabe92e	-0.08394085
70	0xbd92e06a	-0.0717171
71	0xbcb9bdd2	-0.022673521
72	0x3e0082e9	0.12549938
73	0x3d9f54f0	0.077798724
74	0xbdca4f89	-0.098784514
75	0x3d4db031	0.050216857
76	0x3d08db31	0.033412162
77	0xbe4cda97	-0.2000526
78	0x3de68c46	0.11257224
79	0x3d93d594	0.07218471
80	0xbe693032	-0.22772291
81	0xbf04efac	-0.5192821
82	0xbf1dfb23	-0.6171133
83	0xbefc2c18	-0.4925239
84	0x3dd58c04	0.104270965
85	0x3d8e911b	0.069612704
86	0x3eb19db2	0.34690624
87	0x3eaba1bb	0.33521828
88	0x3f0bb047	0.5456585
89	0x3eee6f32	0.4656921
90	0xbd92df01	-0.07171441
91	0x3d13834b	0.036013883
92	0xbda8277b	-0.08210655
93	0xbe7013eb	-0.23445098
94	0xbe21d9c7	-0.15805732
95	0xbe22dd63	-0.15904765
96	0x3d9a65c1	0.07538939
97	0x3e1d2a37	0.15348135
98	0x3d4d194e	0.05007296
99	0x3d953c5d	0.07286904
100	0x3e120e65	0.14263304
101	0x3e9580bd	0.29199782
102	0xbdffb0a2	-0.12484862
103	0xbde84a91	-0.113423474
104	0x3e25d87f	0.16195868
105	0xbe61b810	-0.2204287
106	0xbe7d666a	-0.24746099
107	0x3c7e4966	0.015520429
108	0x3e83e889	0.25763348
109	0x3dcdfb5b	0.10057708
110	0x3d41a734	0.047278598
111	0xbce59803	-0.028026586
112	0xbe276900	-0.16348648
113	0xbe4b7112	-0.19867352
114	0xbe49cd89	-0.19707312
115	0xbeb8b322	-0.36074167
116	0xbeb52121	-0.35376838
117	0x3d004499	0.03131542
118	0x3cddbcf2	0.027067635
119	0x3d55cad3	0.05219538
120	0xbe8c1d83	-0.27366266
121	0xbe9a5629	-0.3014386
122	0xbe7223cc	-0.23646468
123	0x3d3321d6	0.04373344
124	0x3b3c5337	0.0028736123
125	0x3d02cf74	0.031936124
126	0x3eef4eeb	0.46739897
127	0x3eb2467c	0.348194
128	0x3e391c37	0.1807717
129	0x3e5cdf0a	0.21569458
130	0x3d160f04	0.036635414
131	0xbe57f9a6	-0.21091327
132	0x3c3dc489	0.011582502
133	0xbdb48939	-0.08815236
134	0xbebce623	-0.3689433
135	0xbeac2e34	-0.33629
136	0xbeb0bd50	-0.34519434
137	0xbe705469	-0.234697
138	0xbe0b5277	-0.13605677
139	0x3c9d63fc	0.019212715
140	0x3e354a31	0.17704083
141	0xbe19bb21	-0.1501279
142	0x3e739444	0.23787028
143	0x3e65eb36	0.22453007
144	0xbf2bccb4	-0.6710923
145	0xbf019fa9	-0.5063425
146	0xbf22d107	-0.636002
147	0x3ed6f55c	0.4198407
148	0x3edd3093	0.43201122
149	0x3f2406e7	0.6407303
150	0x3f267dc7	0.6503567
151	0x3f15265f	0.58261675
152	0x3f24602b	0.6420924
153	0xbebb6123	-0.36597547
154	0xbe7e8b21	-0.24857761
155	0x3d8f879d	0.07008288
156	0x3ce46cae	0.027883854
157	0x3dc1248b	0.09430798
158	0xbe52ecb2	-0.20598105
159	0xbd0b2f9f	-0.033980962
160	0x3dbc9d2b	0.09209665
161	0x3e38a6cd	0.1803238
162	0xbe8f6a1e	-0.28010648
163	0xbe1a8942	-0.15091422
164	0x3d21efda	0.03953538
165	0xbe51a397	-0.20472561
166	0xbbc25592	-0.005930611
167	0x3dde92a4	0.10867813
168	0x3e8cf8f1	0.27533677
169	0x3dfd190f	0.12358295
170	0x3dff79a7	0.12474375
171	0x3d8ab266	0.06772308
172	0xbee05ea1	-0.43822196
173	0xbe86eca7	-0.26352426
174	0xbdde6720	-0.10859513
175	0xbe8538ec	-0.2601999
176	0xbd439c28	-0.047756344
177	0x3d3623b2	0.044467635
178	0x3ddf113a	0.108919576
179	0x3e2fdd27	0.17174207
180	0x3ebc32c8	0.36757493
181	0x3dd918d6	0.1060044
182	0x3c9471f1	0.018120738
183	0xbd52c9a8	-0.051461846
184	0xbeab8e50	-0.33507013
185	0xbeb7890f	-0.35846755
186	0xbe9c1afa	-0.3048933
187	0xbe8802f1	-0.26564744
188	0xbe9bd628	-0.30436826
189	0xbe5ea796	-0.21743616
190	0xbe198378	-0.14991558
191	0xbe53a598	-0.20668638
192	0xbe345f42	-0.17614463
193	0xbd9135ae	-0.07090317
194	0xbd08f85f	-0.03343999
195	0x3e988b22	0.2979365
196	0x3eb33b70	0.35006285
197	0x3e9da65b	0.30790982
198	0x3d29195e	0.041283958
199	0x3c314f19	0.010822081
200	0x3d54e2a4	0.051973954
201	0xbe92378c	-0.28558004
202	0xbe817e38	-0.2529161
203	0xbe4c6657	-0.19960915
204	0x3d572c95	0.05253275
205	0xbd7968a7	-0.06089082
206	0xbcbbf4e5	-0.022943923
207	0x3e26909b	0.162661
208	0x3e60ad68	0.21941149
209	0x3e68a03b	0.22717373
210	0xbe46c323	-0.19410376
211	0xbe30fcff	-0.1728401
212	0xbd6883e6	-0.056766413
213	0xbe8272eb	-0.254783
214	0xbe3d0e32	-0.18462446
215	0xbdee931b	-0.11649152
216	0x3e6b63ba	0.22987261
217	0x3e4dd8ee	0.20102283
218	0x3e58465d	0.21120591
219	0xbd7b40b0	-0.061340988
220	0xbd709faf	-0.058746036
221	0xbdac9aa1	-0.084279306
222	0xbe01ed94	-0.12688285
223	0xbe17b3ad	-0.14814635
224	0xbd835895	-0.0641338
225	0x3e6f2a5e	0.23356006
226	0x3ef4645a	0.47732812
227	0x3effce4a	0.49962074
228	0xbd5e44d4	-0.05426486
229	0x3d2a8e7e	0.041639797
230	0xbe7b0069	-0.24511875
231	0xbda0892a	-0.07838662
232	0x3cdd6226	0.02702434
233	0x3ba660b3	0.0050774454
234	0xbcf2ba55	-0.029629866
235	0xbc055398	-0.008137606
236	0xbcff9ce5	-0.031202743
237	0xbe0e8234	-0.13916856
238	0xbe532ada	-0.20621815
239	0xbe432716	-0.19057879
240	0x3d99d25d	0.07510827
241	0x3ca176cd	0.019709969
242	0x3c44c797	0.012010477
243	0x3e2a20de	0.166141
244	0x3d862e60	0.06551814
245	0xbd0e5842	-0.034752138
246	0x3caf234b	0.021379134
247	0xbd81779c	-0.06321642
248	0xbc75707c	-0.014980432
249	0xbe4f2710	-0.20229745
250	0xbe977e5a	-0.29588586
251	0xbe9602f9	-0.29299143
252	0x3cf121e1	0.0294351
253	0xbd3628cd	-0.044472504
254	0xbd20816e	-0.039185934
255	0xbde4cfcf	-0.11172449

module.layer2.0.bn1.weight f4 [32]
0	0x3f8c35e4	1.0953946
1	0x3f899be8	1.0750704
2	0x3f98d0c5	1.1938711
3	0x3f8c0feb	1.0942358
4	0x3f9a2202	1.2041628
5	0x3f76d7d5	0.96423084
6	0x3fa44977	1.283492
7	0x3fadf1db	1.3589433
8	0x3fbcf1a0	1.4761238
9	0x3fb14dc0	1.3851852
10	0x3fb32624	1.3996015
11	0x3f7beb35	0.9840577
12	0x3fa2fcb3	1.2733368
13	0x3fb22830	1.3918514
14	0x3fbec66e	1.4904306
15	0x3f9ef89e	1.2419622
16	0x3fb3829c	1.4024234
17	0x3fa42ab9	1.2825538
18	0x3fbd04ee	1.476713
19	0x3fcc6fa7	1.5971574
20	0x3f968c92	1.1761649
21	0x3fa63fd1	1.2988225
22	0x3fa15db2	1.2606719
23	0x3fa372fa	1.2769463
24	0x3fac6a40	1.3469925
25	0x3fa7606e	1.3076303
26	0x3fce22a3	1.610432
27	0x3f9d9721	1.2311746
28	0x3ff94c7f	1.947647
29	0x3f79c840	0.9757118
30	0x3f7cf62d	0.98813134
31	0x3fc51ab8	1.5398779

module.layer2.0.bn1.bias f4 [32]
0	0xbf13fe19	-0.578096
1	0xbdffcae2	-0.12489869
2	0x3efb824c	0.49122846
3	0xbee22107	-0.44165823
4	0x3d9be671	0.076123126
5	0x3f21d8dc	0.63221526
6	0xbf361e28	-0.71139765
7	0xbf1ab6da	-0.6043526
8	0x3e667976	0.22507271
9	0xbe7eba2c	-0.24875706
10	0xbdd6420f	-0.104618184
11	0x3f7ab488	0.9793172
12	0xbf19786e	-0.59949386
13	0xbe083c77	-0.13304316
14	0xbf44f110	-0.7693033
15	0xbd816f98	-0.06320113
16	0xbeacc7bd	-0.33746138
17	0xbf23271b	-0.63731545
18	0xbeb961b2	-0.36207348
19	0xbe74f1b0	-0.23920321
20	0x3e823bc8	0.25436234
21	0xbe8ef552	-0.2792154
22	0xbe1bf1c1	-0.1522894
23	0xbcbf473f	-0.023349402
24	0xbe1260f4	-0.14294797
25	0xbea3551d	-0.31900874
26	0xbee265e5	-0.44218364
27	0xbed6c500	-0.41947174
28	0xbf179619	-0.59213406
29	0xbeb70179	-0.3574331
30	0xbcdbedc8	-0.026846781
31	0xbe0c19cd	-0.13681717

module.layer2.0.bn1.running_mean f4 [32]
0	0xc071f93c	-3.780837
1	0xbf43d8e5	-0.7650283
2	0xc0e6b8ec	-7.2100735
3	0x40840a75	4.1262765
4	0xc0d4272b	-6.6297812
5	0x417233e8	15.137672
6	0xbfe6e580	-1.8038788
7	0xc0e330b6	-7.099696
8	0xc0f7a99e	-7.739455
9	0xc1441eeb	-12.257548
10	0xc09fa72c	-4.9891567
11	0xc15c9cac	-13.78825
12	0xc13a0935	-11.627248
13	0x3f89535a	1.0728562
14	0x40fe2841	7.942414
15	0xbf9db2c5	-1.2320181
16	0xbe27bbdb	-0.16380255
17	0x40127499	2.2883666
18	0xc06b159a	-3.6731935
19	0xc03e18a2	-2.9702535
20	0xc10f702e	-8.964888
21	0xc092f6ce	-4.5926275
22	0xc00b4648	-2.1761646
23	0x3ffd0771	1.9767896
24	0xc005886b	-2.0864513
25	0xc1768014	-15.406269
26	0xbd828e0e	-0.06374751
27	0xc1399121	-11.597932
28	0xbff52d7e	-1.9154508
29	0x40e274f0	7.0767746
30	0xc0342146	-2.8145308
31	0xc0da7a7e	-6.8274527

module.layer2.0.bn1.running_var f4 [32]
0	0x41b02b6d	22.021204
1	0x4212ea45	36.72878
2	0x42896b91	68.71009
3	0x41bfbdfd	23.967768
4	0x41beb8fe	23.840328
5	0x4266755d	57.614613
6	0x41fe2814	31.76957
7	0x41b27144	22.305305
8	0x42361576	45.520958
9	0x42097ef3	34.373974
10	0x41f1b53a	30.21349
11	0x421f1a46	39.775658
12	0x420f8ad4	35.885574
13	0x420d5867	35.33633
14	0x42080415	34.003986
15	0x41bd6b53	23.677404
16	0x42095894	34.336502
17	0x418e3d34	17.779884
18	0x42470ed8	49.764496
19	0x42824975	65.14347
20	0x42775188	61.82962
21	0x42257b44	41.370377
22	0x425c5778	55.08542
23	0x42551728	53.272614
24	0x41b36a4d	22.426905
25	0x420e3f8e	35.562065
26	0x4248bb94	50.18318
27	0x4241ebef	48.480404
28	0x421504a8	37.254547
29	0x41a5c70d	20.722193
30	0x41e7d417	28.97856
31	0x420df267	35.48672
