results/w0s5/cifar10/kd/resnet8_best.pth.tar (torch_old, 371450 bytes, 52 tensors)

module.conv1.weight f4 [64, 3, 3, 3]
000000 92 e6 30 3f ae ee ae 3f df 0c 17 3f ce 1e 89 3f
       0.6910182 1.3666589 0.59004015 1.0712526
000010 6b 46 19 c0 cc e7 63 3f 49 1d bc be 43 83 a3 bf
       -2.394923 0.8902557 -0.36741093 -1.2774433
000020 b1 18 15 bf 59 61 7f be 11 0b 56 be 19 7f c9 be
       -0.582408 -0.24939479 -0.20902659 -0.3935478
000030 99 de 9d 3f a3 49 12 c0 b9 43 9a 3f 15 7c 1e 3f
       1.2333556 -2.2857444 1.2051917 0.61908084
000040 ff 87 c6 bd a5 3e 06 3f 3e f4 81 bf d4 0d 6c be
       -0.09693908 0.5243934 -1.0152662 -0.2305215
000050 c0 18 5d bf d5 16 81 3f d1 46 b0 bf b6 07 a0 3f
       -0.8636589 1.0085093 -1.3771611 1.2502353
000060 37 a3 a5 3e eb 01 79 3e e1 e5 1a 3f 08 01 93 3d
       0.32351086 0.24317138 0.6050702 0.07177931
000070 27 51 a6 bd 84 e9 63 3d b5 4e 06 3d 73 6b 8e be
       -0.08120947 0.05564262 0.032789905 -0.27816352
000080 d0 70 ac bc 8b cc 01 be 92 45 3a bf 09 ec e9 be
       -0.021049887 -0.12675683 -0.72762406 -0.45687893
000090 a4 01 e1 3e 91 b1 54 3e 49 f8 4f 3e 85 2f bd 3e
       0.43946564 0.20770861 0.20309557 0.36950317
0000a0 b7 67 79 3e 4b b7 d0 3d 6b 93 a0 3d 25 73 d1 be
       0.2435597 0.1019121 0.07840618 -0.4090816
0000b0 0d 40 8a be a5 fe 6f bd 36 2a 8a 3d 51 1d 24 3d
       -0.27001992 -0.058592457 0.06746332 0.04006702
0000c0 d1 a8 1b 3e a2 41 d5 3c a2 76 26 3e 9a 99 b2 bd
       0.15201117 0.026032273 0.16256192 -0.087207034
0000d0 e6 d4 b5 be 63 be 4f be 10 1d f2 3d ee fb 8b bc
       -0.3551399 -0.2028747 0.118219495 -0.017087903
0000e0 aa c0 0e be dc 52 e3 bd 79 e5 71 be d5 95 39 be
       -0.13940683 -0.110997885 -0.23622693 -0.18123563
0000f0 06 d1 4a be 52 bd d7 be 37 28 b3 be 11 79 ac 3e
       -0.19806299 -0.42136627 -0.3499162 0.33686116
000100 20 75 87 3e b1 b3 0c 3e 8b 56 91 3e 80 3c c2 3d
       0.26456547 0.13740422 0.2838634 0.09484196
000110 46 8f a1 bc 49 a1 f9 bc 25 72 20 be f1 7c 63 be
       -0.019721638 -0.030472415 -0.15668543 -0.2221563
000120 d7 34 3f 3e 61 61 20 3e 81 4e 99 3c 43 3d d0 3d
       0.186725 0.15662147 0.018714191 0.10167935
000130 21 00 a9 bc f3 99 4a bb ea ad 42 bc 96 f9 84 be
       -0.020629944 -0.0030914515 -0.011882285 -0.2597167
000140 ad de 46 be 71 ef 30 3f 6f 01 88 3f d2 2d f2 3e
       -0.19420882 0.6911536 1.0625437 0.47300583
000150 74 1e 92 3d d5 e1 44 be ee 9b 27 be 3d 7b ef bd
       0.07134715 -0.19226773 -0.16368076 -0.11693428
000160 63 ff 5d bf 15 a6 20 bf 44 07 32 3f 35 d7 82 3f
       -0.86717814 -0.6275342 0.69542336 1.0221926
000170 93 4d 9c 3e d1 3f b4 bd 8a d2 6a be a0 5e f5 bd
       0.30527934 -0.088012345 -0.22931877 -0.11980939
000180 99 39 7c 3d 74 43 24 bf 50 d1 a8 be 17 51 ad 3e
       0.061578367 -0.64165425 -0.32972193 0.3385093
000190 1c e4 22 3f b4 d4 8f 3e 6e 6f 74 be 39 e2 a3 be
       0.6362932 0.28091967 -0.23870632 -0.32008532
0001a0 55 cc a3 bd f0 89 c5 bd 16 e1 05 bf 06 5e 18 be
       -0.079979576 -0.0964545 -0.5229658 -0.14879617
0001b0 be d0 cb be 8d a2 11 bf 03 bc e6 be 6e 10 1d be
       -0.39807695 -0.5688866 -0.45065317 -0.15338299
0001c0 f2 cc 73 3e 22 85 e4 bd 60 fc 77 3e 7b 12 80 3f
       0.23808649 -0.111582056 0.24217367 1.000564
0001d0 04 91 c4 3e be c3 be be 18 b5 12 bf e7 22 00 bf
       0.38391888 -0.37258714 -0.5730758 -0.50053257
0001e0 cd d9 d3 bd fa 91 9b 3e 51 b6 85 be 17 fc 71 3e
       -0.103442766 0.3038481 -0.2611566 0.23631321
0001f0 80 16 61 3f 39 74 48 3e 5d da c3 be 98 ad e6 be
       0.8792496 0.19575585 -0.38252535 -0.45054317
000200 71 49 a5 be 5f 9f 42 be 4c 04 53 3e 98 fb da bd
       -0.32282594 -0.19006108 0.20607108 -0.10692519
000210 95 13 3d 3e 9c c6 64 3f 55 78 b8 3e 0b 28 43 3f
       0.18464501 0.89365554 0.36029306 0.76232976
000220 d2 78 a7 3f 6b ce 11 3f b5 dd f4 3e 03 bc 68 3f
       1.3083746 0.56955594 0.478254 0.90911883
000230 ed 09 07 3f d5 d6 10 3d 4e 9d 96 bd 4b b5 0a bd
       0.5274952 0.03536113 -0.07354222 -0.0338643
000240 6a 16 28 bf 41 71 00 bf eb 3d 19 bf 5c a2 59 bf
       -0.656592 -0.5017281 -0.59860104 -0.85013366
000250 5d c0 83 bf 7e 53 2a bf 48 6a 4e bf 5a 72 9e bf
       -1.029308 -0.6653365 -0.8063092 -1.2378647
000260 bb 35 fb be ed 1d 52 3e c6 4b 3b 3f e9 13 0b 3e
       -0.4906443 0.20519228 0.73162496 0.13581814
000270 ec 2f 03 3f 77 e5 1d 3f ef b1 02 3f 79 c0 be 3e
       0.51245 0.6167826 0.51052755 0.3725622
000280 c7 2c 97 3e 5a 6d ff 3e 0d f6 e6 be 1b 60 a6 be
       0.2952635 0.49888116 -0.45109597 -0.32495198
000290 9c 49 c2 be 82 2e 67 3d c9 1b ae 3e 99 0d 0d 3e
       -0.37946784 0.056440838 0.34005573 0.13774718
0002a0 f1 28 8b 3e 2a 25 ab 3e 21 39 b3 3e 43 a1 35 bd
       0.27179673 0.3342679 0.35004523 -0.044343244
0002b0 ab 83 19 3e 37 4b c4 3d e9 f9 93 3e 30 a1 0a 3f
       0.14991634 0.095846586 0.28901604 0.541522
0002c0 f5 3a 84 3e d8 84 33 3e 2a ee ae 3e 72 c2 18 3e
       0.2582623 0.17531145 0.3416608 0.14917925
0002d0 77 ac 49 3d ac 87 c7 bc 6c 71 c1 bc 78 fe 8f bd
       0.04923674 -0.024356686 -0.023613654 -0.07030958
0002e0 5b 51 05 bc ad b9 4d be 61 5a 7c be 4a 98 d3 be
       -0.008137072 -0.20090361 -0.24643852 -0.41327125
0002f0 0e 23 7b be 59 48 14 3f ec d1 83 3e dc 15 b5 3e
       -0.24525091 0.57922894 0.25746095 0.3536824
000300 87 9f 16 be 02 ef ba be 70 53 92 be dc 16 04 bf
       -0.14709292 -0.36510473 -0.28579283 -0.5159738
000310 e5 ce 4c bf 42 ef 21 bf 22 1a 69 be 7f 31 fb be
       -0.80003196 -0.63255703 -0.22763875 -0.490612
000320 28 f4 f7 be a4 61 82 be e1 cc 64 be aa 01 b5 be
       -0.48428464 -0.2546512 -0.2234378 -0.35352832
000330 b5 b1 6e be 17 5a 62 be 58 51 a3 be 71 90 7a be
       -0.23309977 -0.22104679 -0.31897998 -0.24469163
000340 04 d8 8b bd 61 b9 e3 bd 54 ce d3 3e 13 ff 89 3f
       -0.06828311 -0.111193426 0.41368353 1.0780967
000350 19 37 24 3f 48 78 1f 3f d3 35 a1 3f 1e 0f 5c 3f
       0.6414657 0.6229291 1.2594551 0.85960567
000360 c4 83 86 3f 25 28 1e bf 88 c8 6a be bb 5a c0 be
       1.0508962 -0.61780006 -0.22928059 -0.37569222
000370 38 3b 3d 40 ac d9 0e bf c2 ee 28 3e 73 38 b1 bf
       2.9567394 -0.5580089 0.16497329 -1.3845352
000380 61 35 6f bf 05 9b f4 bd 42 88 86 bf a3 70 2f be
       -0.93440825 -0.1194363 -1.0510333 -0.17132811
000390 5c bb 89 bf 8f 39 54 40 d0 34 c2 3d 3a e3 12 be
       -1.0760303 3.316013 0.094827294 -0.14344493
0003a0 75 8a 07 bf ac 2d 6d 3d dc d1 5c be 06 47 c1 bf
       -0.52945644 0.057904884 -0.2156443 -1.50998
0003b0 10 be 59 be ed 1f 94 bf b3 aa 23 40 21 21 28 3d
       -0.2126391 -1.1572243 2.5572937 0.04104722
0003c0 ae 44 46 bc b1 b8 e1 bb 0b 01 01 3f 08 bf 5c bf
       -0.012101335 -0.006888472 0.50392216 -0.8622899
0003d0 7d ba 80 bf 9a 2f 37 3f ac 2c ec bd 36 2e db 3f
       -1.0056912 0.7155701 -0.11531958 1.7123477
0003e0 bc ac 5d bf ee 6b 10 bf ef 0d a6 3f 30 a6 af be
       -0.86591697 -0.5641469 1.2973002 -0.34306479
0003f0 ad 0f 61 3d b1 61 eb be 1b e8 be 3e 21 47 71 3e
       0.05494659 -0.4597297 0.37286457 0.2356229

module.bn1.weight f4 [64]
000000 8f 0c 0b 40 46 60 24 3f 28 f1 2a 3f d4 4f 6b 3f
       2.1726415 0.642094 0.66774225 0.91918683
000010 e9 4e 45 3f 2a 6f 0e 3f db 0d 2c 3f 8e 8f 29 3f
       0.7707353 0.5563837 0.6720864 0.6623467
000020 37 96 35 40 5c ec 1f 40 76 77 a0 3e e9 2b f5 3f
       2.8372934 2.4988012 0.3134114 1.9154025
000030 c4 a1 c4 3e 5a 91 6f 3f 19 6f 43 3e f8 35 51 3f
       0.38404667 0.93581164 0.19085349 0.81722975
000040 08 df 34 3f ff f8 2f 3f 69 ce ad 3f 4f 72 04 3f
       0.7065282 0.6873931 1.3578616 0.5173692
000050 b8 0c 51 3e f0 54 d6 3d 42 d4 a1 3e 1a 12 52 3f
       0.20415008 0.10465419 0.31607252 0.8205887
000060 d4 d9 6f 3f cf ba 57 3f 15 f4 23 3f b0 ac f7 3d
       0.93691754 0.8426942 0.64044315 0.120934844
000070 8b a0 55 3f 93 0d 99 3d 24 b8 2d 3f fd 89 e2 3e
       0.83448094 0.07473292 0.678591 0.44245902
000080 bd 64 0f 3f 37 15 57 3f 12 19 6a 3f d5 92 97 3e
       0.5601309 0.84016746 0.91444504 0.2960421
000090 be 43 af 3e cf b1 5c 3f 56 e9 f6 3e 55 29 62 3e
       0.3423137 0.86208814 0.48224896 0.2208608
0000a0 fd 79 57 3f 5e 44 42 3f 94 a3 95 3e fb 4e 6b 3f
       0.84170514 0.7588557 0.29226363 0.9191739
0000b0 ba 38 88 3e 8f b9 0b 3f 9b ec 1a 3e 8a a9 f1 3e
       0.2660578 0.54580015 0.1512932 0.4719966
0000c0 a5 3b 49 3f d7 ec 01 40 b1 67 94 3e 7a 85 d2 3e
       0.78606635 2.0300806 0.2898536 0.4111746
0000d0 04 bd 29 3f 44 8e 05 3f 02 7a 13 3f 71 bd fd 3e
       0.6630404 0.52170205 0.57608044 0.49558595
0000e0 fd 06 ee 3e 60 33 ef 3e 0f 49 48 3f 83 07 c2 3d
       0.46489707 0.46718884 0.7823648 0.09474089
0000f0 2d f7 ea 3f e4 12 74 3f 3e af d9 3f 91 a1 23 3f
       1.8356682 0.95341325 1.7006605 0.63918406

module.bn1.bias f4 [64]
000000 77 4a 07 40 45 87 de 3c ce 76 7c be 2a 05 fb 3e
       2.11392 0.02716411 -0.24654695 0.49027377
000010 4c 5b 17 3f 9a 40 41 3f 67 c4 96 be 60 5a 57 3e
       0.5912368 0.754892 -0.29446718 0.21030569
000020 86 51 ee 3f 28 da 9b 3f b4 3e e5 3d f5 e4 33 be
       1.8618629 1.2175951 0.111936 -0.17567809
000030 c1 49 b2 be f1 29 16 bf 21 41 8e be 40 44 53 bf
       -0.34821895 -0.5865775 -0.27784064 -0.82526016
000040 92 d6 ba 3e 71 08 3f 3e 93 63 6f be 5a 8b b9 be
       0.3649183 0.18655564 -0.23377828 -0.3623913
000050 e8 36 0c bf bd 04 97 be 3c c2 31 3e 12 e1 c4 be
       -0.5477128 -0.29495803 0.17359251 -0.38452965
000060 78 e2 e4 be e7 cd 8e be fa 32 cb 3e ac ac b9 be
       -0.44704032 -0.27891466 0.3968733 -0.3626455
000070 0b f1 9d 3d bd fd 6b be 33 ba 02 3f 41 da f9 be
       0.07711991 -0.23046012 0.5106537 -0.48799327
000080 c3 5a aa 3e da 8f 06 bf 36 9b 49 bf cc 99 93 be
       0.3327237 -0.5256325 -0.7875246 -0.28828275
000090 eb 81 08 3f 96 42 c6 be 6a 9a 48 bd 50 be 54 3e
       0.5332324 -0.38722676 -0.048975386 0.20775723
0000a0 da 1c bc be ba 7b 32 bf 8f 0a 85 be d6 46 ef 3d
       -0.36740762 -0.6972004 -0.25984618 0.11683433
0000b0 ce 5a 7d 3d 74 6a f5 be 5f cf c3 be df 09 64 3e
       0.061854176 -0.4793278 -0.3824415 0.2226939
0000c0 d0 b1 b6 be cf 9a c9 bd ec c4 80 bb d5 9e 9d be
       -0.35682535 -0.098439805 -0.003929725 -0.30785242
0000d0 3f d4 72 be 9c 82 98 be 7c 25 db be 04 0d 07 bf
       -0.23713778 -0.29787147 -0.42802036 -0.52754235
0000e0 40 59 0e be 48 c3 e5 3e 6e 44 0d bf 0d 3c 6c be
       -0.13901234 0.4487555 -0.5518254 -0.23069783
0000f0 3b a9 58 be 8b 60 d6 be 0a fc aa bd ca 39 10 bf
       -0.21158306 -0.4187053 -0.08348854 -0.5633818

module.bn1.running_mean f4 [64]
000000 47 8e 3c 3e 5a 20 83 3e 78 79 44 3e 46 69 a3 bd
       0.1841365 0.2561062 0.19186962 -0.07979064
000010 f9 e8 b1 bd 48 eb 5f be 2a d1 b1 be 5d 8d 24 3e
       -0.08687014 -0.21867096 -0.34729892 0.16069551
000020 86 5b ee be 16 68 4f be e0 51 bc be c1 49 2e 3e
       -0.46554202 -0.2025455 -0.36781216 0.17020322
000030 a6 37 da 3e b9 a4 17 3e d3 46 af 3e b1 d0 02 3f
       0.4262058 0.1480893 0.34233722 0.5109969
000040 f0 1b 95 3e 54 c9 e5 bc 2c d8 c6 3e 9e 11 e8 be
       0.29122877 -0.028050102 0.388368 -0.4532594
000050 15 d1 0f bf 2f 9d 93 be 74 8d bf be b6 94 e5 3e
       -0.5617841 -0.2883086 -0.37412608 0.4484002
000060 d4 b6 88 3e 8c bd fc 3e de ad 19 bd 81 2b 4b bf
       0.26701987 0.49363363 -0.03751933 -0.79363257
000070 dc 76 88 3e cb 9d 00 be 7f e7 69 be 3b bb 98 3e
       0.26653183 -0.12560193 -0.22842215 0.29830346
000080 42 0c 0f bf 94 93 18 3f 32 ca 08 3f c0 55 87 be
       -0.5587808 0.59600186 0.53433526 -0.2643261
000090 3c d1 62 be 78 50 45 3e 2f ff 01 3f 27 2b 0c be
       -0.22150129 0.19268978 0.50780004 -0.13688336
0000a0 7a f1 59 3e 21 28 08 3f 48 29 a9 be 3a b0 cf 3e
       0.21283522 0.5318623 -0.33039308 0.40564138
0000b0 c0 9f bf be 83 c3 e3 be 02 ba c2 be 15 0c c3 bd
       -0.37426567 -0.444851 -0.38032538 -0.09523789
0000c0 c6 86 15 3f 1d 82 97 bd 86 13 b9 3d 18 be 7b be
       0.5840877 -0.07397864 0.09036927 -0.24584234
0000d0 55 31 16 3f 60 39 c7 3e df 4c c7 be 52 44 a4 3e
       0.58669025 0.3891096 -0.38925835 0.32083374
0000e0 16 33 74 be e6 6f 51 be 08 9c c0 3e 7f 49 9a be
       -0.23847613 -0.20452842 0.37619042 -0.30134198
0000f0 46 52 ad 3d a4 95 6c 3e d5 b2 dc 3d 6b 7a eb 3e
       0.08462958 0.23103958 0.10776297 0.45991835

module.bn1.running_var f4 [64]
000000 2f 61 27 41 a4 49 9e 40 74 00 5b 40 50 1b a1 41
       10.461226 4.9464893 3.4219027 20.138336
000010 6f f4 8a 41 67 9c 0e 41 98 b3 47 40 6a c7 c3 40
       17.369352 8.913184 3.1203365 6.1180925
000020 34 cd 70 41 98 3b 2e 41 7f 5c 89 40 b1 e0 3a 42
       15.050098 10.889549 4.292541 46.719425
000030 6f 05 5f 40 19 d1 04 40 51 3e 0a 40 4e 23 0a 41
       3.4847066 2.0752623 2.1600535 8.633619
000040 ae 70 08 41 e4 52 d5 40 27 d2 aa 41 1f 87 89 40
       8.52751 6.6663685 21.352613 4.2977443
000050 9f 92 a8 40 d1 da d5 3f 51 3b 4c 40 e7 2b dd 40
       5.267898 1.6707402 3.1911204 6.911609
000060 8f 1b b7 40 8f 14 d5 40 76 cd d7 40 69 a7 2f 41
       5.722114 6.6587596 6.7438307 10.978372
000070 21 50 1a 41 33 63 d7 3e 46 1d ee 40 27 87 4a 40
       9.644563 0.4206787 7.4410734 3.164499
000080 35 a6 e5 40 10 14 d9 40 60 c4 b2 40 a1 41 a0 3f
       7.176539 6.783699 5.5864716 1.2520028
000090 76 75 2a 40 a1 e0 cb 40 f4 d7 b0 40 6e cf cc 3f
       2.6634192 6.3711705 5.5263615 1.6000803
0000a0 c8 3a 20 40 56 1d 9b 40 41 ac f5 3f e9 b5 15 41
       2.5035877 4.847331 1.9193193 9.356912
0000b0 28 7e 62 40 de b9 6a 40 9b 99 36 40 44 b8 03 41
       3.53895 3.6675944 2.8531253 8.232487
0000c0 4d 2a e2 40 93 85 58 42 76 45 ec 3f f9 81 0b 40
       7.0676637 54.130444 1.8458698 2.179808
0000d0 5d 3d b7 40 c8 95 69 40 ae a0 1c 40 15 72 2e 40
       5.7262406 3.649767 2.447307 2.725713
0000e0 0d 39 10 40 03 c2 2a 40 ea 23 c0 40 b9 e5 e6 3f
       2.253482 2.6680915 6.004384 1.8038856
0000f0 71 91 1f 42 02 b2 30 40 8c 14 09 42 1f 14 96 40
       39.892033 2.7608647 34.270065 4.689956

module.layer1.0.conv1.weight f4 [16, 64, 3, 3]
000000 c3 29 2a 3e 35 b5 38 be 50 f0 86 be 5f 2f 18 3f
       0.16617493 -0.18037875 -0.2635522 0.5944728
000010 57 2b 97 3e f4 70 e9 be 56 da c8 3e 1f 1d c9 3e
       0.29525253 -0.4559399 0.39229077 0.3928003
000020 4e 72 15 be d6 66 81 3d a4 64 ce bb 44 c6 ea bd
       -0.14594385 0.063184425 -0.0062986184 -0.114635974
000030 5c b7 b7 bb e2 57 4e bd c9 f4 d1 bd 30 eb f5 bd
       -0.005606575 -0.05037678 -0.10251767 -0.12007749
000040 8e 1d ea bd a1 1d b2 bd f5 ce 0c 3d 4a 70 97 bc
       -0.11431418 -0.086970575 0.034377057 -0.01848616
000050 0a b2 4c bd 95 41 38 3d 78 86 f8 bb f9 73 01 bd
       -0.04997448 0.04498442 -0.0075843893 -0.03160474
000060 35 ed 3c bd fd fa be bd 99 c4 a3 bd 91 f2 86 b9
       -0.046124656 -0.09325216 -0.079964824 -0.00025739198
000070 47 22 d2 bd 66 23 51 be ed bd 8b 3a 4f 0d 97 3d
       -0.10260444 -0.2042366 0.0010661461 0.07375585
000080 99 29 94 3d 47 67 80 be 09 84 16 be 3a 34 c6 3d
       0.072344966 -0.25078794 -0.14698805 0.0967793
000090 b1 ee 11 bc 35 fc 2c bd 9c e2 ae 3c 10 94 20 3e
       -0.008907006 -0.04223271 0.02134829 0.15681481
0000a0 d6 a2 ff 3c e2 24 23 3d 6c cf d3 3b 65 76 2a be
       0.031205576 0.039830096 0.0064639356 -0.16646726
0000b0 05 78 8f be 44 3d c9 3c 9a 1e 80 3d b2 2f 95 bc
       -0.28021255 0.024565347 0.06255837 -0.01821122
0000c0 4b 9c 56 bd 8c 89 9a 3d 24 e1 8b 3d aa 6c 2c be
       -0.052395146 0.07545766 0.068300515 -0.16838327
0000d0 dc 42 2f bd 29 7d 72 3d e1 a6 d2 3c 0b c8 15 bd
       -0.04278837 0.059201393 0.02571434 -0.03656773
0000e0 67 cf 27 bd e4 58 60 3d 5e 60 6c 3d c0 0d c5 3c
       -0.04096928 0.054772273 0.05770909 0.024054408
0000f0 7d e9 46 bd a4 25 19 bd 6a 58 25 bd 4f fc 70 3d
       -0.048562516 -0.037389413 -0.04036752 0.05883437
000100 6b 78 65 bc f8 48 95 bc d4 aa 81 3d a9 ef c8 bc
       -0.014005761 -0.01822327 0.06331411 -0.024528341
000110 4a 55 b1 3b c7 7d ef 3d 0a 5e 82 3c 88 5a 16 3b
       0.0054117786 0.11693912 0.015913982 0.0022942144
000120 5f 69 4e be 15 3c 4c 3d 80 5f ed 3d 14 4a 38 bf
       -0.20157383 0.049861986 0.11590481 -0.71988034
000130 a8 5e 59 be 1c dd 3c 3f c2 0e 2c bd bf 25 03 3e
       -0.21227515 0.73774886 -0.04200626 0.12807368
000140 fa 79 8e 3e bb f9 26 be bf b2 8a be 8c fc 4b be
       0.27827436 -0.16306202 -0.27089497 -0.19920558
000150 d7 c9 3c 3d 79 1d d5 be f2 5e 13 bc 2a 3b d2 bd
       0.046090927 -0.41624048 -0.008994805 -0.10265191
000160 ad f3 91 bd 87 82 23 3d 15 1a 86 bd 31 51 85 bd
       -0.071265556 0.039919402 -0.065479435 -0.06509627
000170 92 db 52 bd 48 e7 e7 bc 5d 60 80 bd d1 12 50 bd
       -0.05147893 -0.028308526 -0.0626838 -0.050799195
000180 0f 9e 36 bc 6c 47 7a bd d6 a5 0d bd 32 21 a8 3d
       -0.011146083 -0.06110327 -0.03458198 0.082094565
000190 99 f4 e9 3d 65 a9 1f bd ab 98 49 3d 75 57 6c 3e
       0.114236064 -0.038979907 0.04921786 0.23080237
0001a0 d6 54 e6 3d ab 30 5d 3e c1 92 7a 3e 2f cf 0d bd
       0.1124665 0.21600597 0.24470045 -0.034621414
0001b0 a9 18 3e 3d 56 e5 90 3c fe 3e 97 3c fb 1d 29 3d
       0.046410237 0.01768748 0.018462654 0.041288357
0001c0 13 c7 aa 3c 12 f0 72 3d 8b 54 5d 3d 7e d5 2d 3d
       0.02084688 0.05931098 0.054035705 0.04243993
0001d0 69 a6 30 3d 6b f5 d5 3d ce 72 82 3d 9e 2d 19 3d
       0.04312745 0.104472004 0.063695535 0.03739702
0001e0 29 06 c2 3d 82 fe 73 3b cb ee 12 bd 97 f2 c4 bb
       0.09473831 0.0037230556 -0.035872262 -0.0060103643
0001f0 54 80 19 bd 6f f6 6f bd 91 7b 21 3c 64 3a 9f bc
       -0.0374759 -0.058584627 0.009856121 -0.019437023
000200 57 e6 b8 bc 31 45 7c 3c 07 33 07 ba 1e ac ff bb
       -0.022570772 0.015397356 -0.0005157445 -0.0078025004
000210 ee f5 91 bc 4e e7 a9 bb 39 20 a9 bb 42 6c fa 3c
       -0.017817464 -0.0051850444 -0.005161312 0.0305692
000220 5a 43 e1 3c a4 1c 1d 3d fd 4a c6 3d bc f9 83 3d
       0.027497936 0.038357392 0.09682272 0.064441174
000230 9f 05 23 3d c8 69 a9 bd ef 49 96 bd 97 49 cc bd
       0.039800283 -0.08272129 -0.073383205 -0.09974974
000240 cb 73 5a 3e c5 a3 99 3e ff 88 c9 3c 94 05 94 3d
       0.21333234 0.3000776 0.024601458 0.072276264
000250 5d 30 28 3e 91 ed 33 bd 5b bb 64 be d2 f7 48 be
       0.16424699 -0.043927733 -0.22337095 -0.19625786
000260 ed 3f 9d be 18 0a 81 3d a1 ad 9a bc ab a9 13 3c
       -0.30712834 0.06300753 -0.01888162 0.00901262
000270 fa 1f 3e 3e 05 9b 94 3d 04 d8 e2 3d c9 76 84 3d
       0.18566886 0.0725613 0.11076358 0.06467969
000280 18 e5 76 bc 4d 5b 91 bd db d9 ec bc 0e d9 bd bb
       -0.015069269 -0.07097492 -0.028912475 -0.005793697
000290 14 69 2d be 8c 49 75 bc 26 13 ba 3c e8 00 21 37
       -0.16934615 -0.014971148 0.022714209 9.596559e-06
0002a0 cd d2 6b be 6a fb 61 be 2d 39 a3 bd 99 5b 41 bc
       -0.23029633 -0.22068563 -0.0796989 -0.011801624
0002b0 3d 2d 49 bd 2a 75 43 bd 88 d0 c4 bc be 82 88 bd
       -0.04911541 -0.04771916 -0.024025217 -0.06665562
0002c0 aa 96 e5 bc 9a 12 7d 3b e9 9b 77 bd 91 56 52 bc
       -0.028025944 0.0038615824 -0.060451422 -0.012838022
0002d0 da be f6 bc 0b 56 91 bd ca fa 65 bd 27 64 05 bd
       -0.030120302 -0.070964895 -0.056147374 -0.032566216
0002e0 fd c1 08 bd 46 5c 15 bd 0b 0b d4 bc 84 12 5b bd
       -0.033388127 -0.036464952 -0.025884172 -0.053484455
0002f0 ce 56 20 bd 5f c6 aa 3c 1f 3f 0d 3c 10 29 3e ba
       -0.039145283 0.020846544 0.008621006 -0.00072540436
000300 98 a4 84 3c d8 6c 40 bb de 71 42 3b 61 50 a6 39
       0.016191766 -0.002936175 0.002966992 0.00031721874
000310 09 d7 35 3c 25 cc b1 ba b5 19 74 bc 39 d0 34 bc
       0.011098632 -0.0013564868 -0.014898707 -0.011035972
000320 35 16 b3 3c 87 d0 1d bd a1 6d dc bc 8c 05 23 3c
       0.021861175 -0.038528945 -0.026907744 0.009950053
000330 fa 41 98 bd 8e d1 66 bd bd e2 b2 3a ab e8 88 3c
       -0.07434459 -0.05635219 0.0013647896 0.016712507
000340 91 3d 8d bc a0 d1 8a 3c ed 57 e5 3d 3e a4 f0 3d
       -0.017241271 0.01694566 0.11198411 0.11750077
000350 a2 a6 a0 3d 31 27 61 3c 51 b4 80 3d 59 94 dc bc
       0.07844283 0.013742254 0.062843926 -0.026926206
000360 42 0f 9f bb 8b c8 db bd ed 29 19 be 3d 15 f3 3d
       -0.004854114 -0.1073161 -0.149574 0.11869285
000370 af 40 d0 bc 31 25 9d bd 6f ac 50 3d 54 ea c6 bd
       -0.025421469 -0.07673109 0.050945695 -0.09712663
000380 7b f0 e7 bd 7f 5e ac 3d d6 1e 54 3d c9 1a f5 bc
       -0.11325165 0.08416461 0.05178722 -0.029919999
000390 22 ba 85 3d d4 b9 1c 3d 96 5a 64 bd 58 26 85 bc
       0.06529643 0.038263157 -0.055750452 -0.016253635
0003a0 c1 32 88 bd ca c6 de bd 4a 6d 47 bd 9b 52 25 be
       -0.066503055 -0.1087776 -0.04868821 -0.16144793
0003b0 87 b6 16 be 0c 05 91 3d 37 b4 fd bd 20 ee 0d be
       -0.14718066 0.07081041 -0.12387889 -0.13860369
0003c0 42 c8 90 bd 0f ee 5b be 86 23 7e be a1 e3 b4 bc
       -0.07069446 -0.21477531 -0.24818239 -0.022081198
0003d0 3d 36 55 bd 5f 93 47 bc be 56 48 bd 45 08 1b bd
       -0.05205368 -0.012181132 -0.04891085 -0.037849683
0003e0 12 5e ee bc 5d 1d 88 bd 26 e9 21 bd 94 b5 61 bd
       -0.02909759 -0.066462256 -0.03952899 -0.055104807
0003f0 45 14 85 bd ab aa 3b be dc c9 67 be 3a 8d 1a 3d
       -0.06498007 -0.18326823 -0.22635597 0.03773234

module.layer1.0.bn1.weight f4 [16]
000000 c5 e6 ae 3f ed 4a 82 3f b2 50 cb 3f 65 e0 d0 3f
       1.3664175 1.0179116 1.5884001 1.631848
000010 5d 3f 0e 40 39 09 93 3f d2 80 36 40 da dc 28 3f
       2.2226174 1.148719 2.8516126 0.6596199
000020 7b e5 82 3f 25 b1 e1 3e 64 c1 45 3f f1 9c b3 3f
       1.0226282 0.44080463 0.77248216 1.403227
000030 8d b6 1e 40 f2 59 8b 3f d3 23 a2 3f 95 17 77 3f
       2.479892 1.0886824 1.2667183 0.9652036

module.layer1.0.bn1.bias f4 [16]
000000 70 37 ee 3d 0e fb 04 3e 46 27 2a 3e da 6d 4d be
       0.116316676 0.12986395 0.16616544 -0.20061436
000010 17 48 76 be 81 00 b8 be bf 27 06 bf ea bf f0 be
       -0.24050938 -0.35937884 -0.524044 -0.4702142
000020 4b bf 9c bd ae 3a a0 3e 3d ef c3 be 3f 97 f2 be
       -0.07653674 0.3129477 -0.38268462 -0.47381017
000030 4b c1 0e bf bc 3e 13 bf 8c 7a 1d 3f 4a 2a b3 3e
       -0.5576369 -0.575176 0.61515117 0.34993201

module.layer1.0.bn1.running_mean f4 [16]
000000 f4 95 9e bf 8c 34 a6 c0 1a 57 af c0 d0 5f 8e c0
       -1.2389512 -5.1939144 -5.4793825 -4.449196
000010 d9 b2 a5 c0 8c 3b 85 c0 75 2a 22 c0 78 6f 35 c0
       -5.178082 -4.163519 -2.5338414 -2.8349285
000020 53 68 01 c0 69 bc a6 bf 3f 64 7b 3e b6 1a 88 c0
       -2.0219924 -1.3026248 0.2454996 -4.2532606
000030 cf 3f 5c c0 a4 01 9f c0 02 2f b8 c0 70 29 8a c0
       -3.4413946 -4.9689503 -5.7557383 -4.3175583

module.layer1.0.bn1.running_var f4 [16]
000000 ea ae 5e 42 0d ea 06 42 07 ae 5a 42 c6 bd 8c 42
       55.670815 33.728565 54.66995 70.37065
000010 fa 83 e1 42 02 b9 60 42 ef cf f1 43 a0 8b 44 41
       112.75777 56.18067 483.62448 12.284088
000020 d7 c0 cc 41 69 89 5d 41 3f ec 87 41 ab 60 38 42
       25.59416 13.846047 16.990355 46.094402
000030 a7 47 62 43 36 2b cc 41 92 c2 38 42 94 9d 21 42
       226.27989 25.5211 46.19001 40.403885

module.layer1.0.conv2.weight f4 [16, 16, 3, 3]
000000 e6 53 54 3e ea 56 23 3d ab ff 1e 3d cd 09 57 3e
       0.2073513 0.03987781 0.038818043 0.20999832
000010 9b 76 bc 3d 27 23 c6 3d b7 f9 0e 3e 02 d7 98 3d
       0.0920231 0.096746735 0.13962446 0.074628845
000020 eb dc 28 3d 57 fb ec bb 8f b2 0f 3b 30 78 d0 bd
       0.04122631 -0.0072321105 0.0021926498 -0.10179174
000030 8b 49 bb 3d ad e5 80 3d 01 4c 3a bd 20 f1 ed 3c
       0.091448866 0.06293807 -0.04548264 0.029045641
000040 c0 66 50 bd 1c 4c 26 be be 5f 05 3e 2c ea db 3c
       -0.05087924 -0.16239971 0.13024804 0.02684506
000050 14 2c 78 3c 1e 82 13 3e 8c 36 20 3b 23 b1 45 3d
       0.015147228 0.14405105 0.0024446575 0.048264634
000060 f2 9c 88 3e 84 90 c9 3d bf 5d 47 3e 8d 44 57 be
       0.2668224 0.09842017 0.19469355 -0.21022244
000070 c5 0b 00 be e3 14 72 be f4 ce 49 be 10 9b 16 be
       -0.1250449 -0.2364078 -0.19707853 -0.14707589
000080 99 01 25 be fc 1f 12 be 5a 8c cf bd 7a 5f 21 be
       -0.1611389 -0.14270014 -0.10134192 -0.15759078
000090 3c 4d 98 3d be ff 07 bc e5 ef d4 3d ad 90 be 3d
       0.07436606 -0.00830072 0.10397319 0.093049385
0000a0 1b 32 d8 3d c8 7e 98 3d c1 dd a8 3d e5 da 1d 39
       0.10556432 0.074460566 0.08245421 0.00015054231
0000b0 97 d7 ca 3d a3 56 99 bc d5 ef 11 3b 29 f3 23 3d
       0.09904402 -0.01871807 0.0022268195 0.040026817
0000c0 d2 d2 cb 3c ae 58 5e 3d 37 8a 45 bc 54 0f 4b 3a
       0.0248808 0.05428379 -0.012056879 0.00077461195
0000d0 0f 03 88 3c b6 35 ff 3c 58 16 4b 3e bf cc 9c 3d
       0.016603021 0.031153541 0.19832742 0.0765624
0000e0 d9 d6 17 3e 65 dc 89 3e 6e fd d3 3d 05 ce 31 3e
       0.14828052 0.2692596 0.10351072 0.17363746
0000f0 b3 a2 95 3e c2 e2 62 3d e2 a2 7f 3d 75 9b 64 bd
       0.29225692 0.055392034 0.062411197 -0.055812318
000100 cc e7 9d bd e1 fe 40 bc 92 d6 b6 bd 1f f6 a0 bd
       -0.07710227 -0.011779518 -0.08927645 -0.07859444
000110 0b ce 17 bd 77 4e 75 bd 3b a8 22 bd 2d 9a 4a bd
       -0.037061732 -0.059889283 -0.03971122 -0.04946344
000120 ce 7d 7a be 4b 70 d5 bd 9e b6 0e be 41 ee 56 be
       -0.24462053 -0.10421809 -0.1393685 -0.20989324
000130 c9 d4 a0 bd df 7c 05 be 17 4e d1 bd 69 47 8c bd
       -0.078530855 -0.13035916 -0.102199726 -0.06849558
000140 22 65 da bd 6e f9 95 bd 9f a0 bc bd b2 03 39 bd
       -0.10663821 -0.073229656 -0.092103235 -0.04516954
000150 7a 3e 16 bd 8d 23 34 bd 13 03 46 3c 5d d7 c0 bd
       -0.036680676 -0.043979216 0.012085694 -0.09416077
000160 87 7b 7a bd 8a 14 15 bd 9c 16 0a be c1 08 0d be
       -0.06115296 -0.03639654 -0.13485187 -0.1377287
000170 60 b5 30 be 67 d9 01 be 57 cb c4 bd f0 53 00 be
       -0.17256689 -0.12680589 -0.096090965 -0.1253202
000180 49 b5 f6 bd a8 b7 e1 bd c5 91 05 be 8e 7d aa 3d
       -0.12046296 -0.11021358 -0.13043888 0.08324729
000190 23 b4 f7 3d aa 23 d1 3d c4 bb 68 3e fe 1f 88 3e
       0.12094905 0.102118805 0.22727877 0.26586908
0001a0 d5 84 4b 3e 36 ef b5 3d 46 83 a5 3d 78 c7 93 3d
       0.1987489 0.088835165 0.08081679 0.0721578
0001b0 94 b0 79 ba 8d 14 d1 bd 0c 74 11 be 97 77 2d 3d
       -0.00095249084 -0.10208998 -0.14204425 0.042350378
0001c0 66 bd 35 bd 02 6f ca bd 09 8d e1 3d b2 fd 30 bd
       -0.044370078 -0.09884454 0.110132284 -0.043210693
0001d0 02 03 1d be 45 00 f5 3d 38 f9 bd 3d b4 88 44 3e
       -0.15333179 0.11962942 0.0927605 0.19192773
0001e0 a4 64 29 3e a5 e1 16 3d ee bc 9a 3d 8e 84 7a 3e
       0.16542298 0.036836285 0.07555567 0.24464628
0001f0 6d bd ed 3d 12 f3 7b bc 3e df 89 bd b7 ae 15 bd
       0.11608396 -0.015377777 -0.06732033 -0.036543574
000200 96 65 02 3b f3 32 f5 3d b0 10 c5 3c 3f 29 28 3e
       0.0019896976 0.119726084 0.024055809 0.16421984
000210 49 c2 f1 3d c0 2b 93 3d 44 b0 4b 3e de f8 7a 3d
       0.11804635 0.07186079 0.19891459 0.061272494
000220 de 6a 01 3e 58 82 2a 3d 2c e3 3e 3e 29 63 33 3e
       0.12638423 0.04162821 0.18641347 0.17518295
000230 78 c8 86 3d 78 8f 2e 3e eb 1b 3a 3d ae 46 51 3d
       0.06581205 0.17046916 0.04543678 0.051092796
000240 af 3a c0 3e 2f 0b cf be e6 30 ec be d1 dd 00 be
       0.37544772 -0.4043822 -0.46131057 -0.12584616
000250 3a 15 8c be 95 a7 61 be 73 9b a3 be c6 d7 00 bd
       -0.27359945 -0.22036584 -0.31954536 -0.031455778
000260 34 44 f2 3b b4 f9 20 3e ff e3 2b 3d 55 27 a8 3e
       0.0073933844 0.15720254 0.04196548 0.32842508
000270 87 ce 9f be 1d 79 b0 be 45 3a b6 be 47 cc 86 3e
       -0.31212255 -0.34467402 -0.3559133 0.26327726
000280 b5 13 7c 3e d8 43 1f be 8b 43 16 be 4c 3f ba 3e
       0.24616893 -0.15553224 -0.14674203 0.36376417
000290 24 a5 02 3f 18 17 c8 3e b5 fd 1f 3f 1a a2 8a be
       0.51033235 0.3908012 0.624965 -0.270768
0002a0 14 e6 52 be 46 96 8f bf 09 4f 54 be 0b c0 2e bf
       -0.2059558 -1.1217735 -0.20733275 -0.68261784
0002b0 6c 50 8b bf 45 2c 43 bf 98 7d 1f 3e cb 75 4c 3f
       -1.0883918 -0.76239425 0.15575254 0.7986724
0002c0 a3 6b 00 3f b5 b0 8b 3e fa 7e fd 3d 6a e4 f4 bd
       0.5016424 0.27283254 0.123777345 -0.11957629
0002d0 d5 8c ac 3e 83 28 09 bf 7b e3 a7 be 93 bd d0 be
       0.33701196 -0.5357744 -0.3279074 -0.40769634
0002e0 89 c9 23 3f e5 84 79 3e fe bb 23 3e ee b7 08 bf
       0.63979393 0.24367101 0.15989682 -0.53405654
0002f0 0a b6 eb be 85 cf a7 be 81 ec 8d be 7a 25 5d be
       -0.46037322 -0.32775512 -0.277195 -0.21596327
000300 21 3f 31 be a5 1e f7 bd 56 e2 55 bc 5c f1 2b 3e
       -0.17309238 -0.12066392 -0.013054451 0.1679129
000310 0a 22 b5 3e 8f 71 24 3e cd bf c4 3e 52 9f dd be
       0.35377532 0.16058944 0.38427582 -0.43285614
000320 07 19 85 bc 5d e4 b1 be 39 89 4a bc 50 e0 4a be
       -0.016247286 -0.3474454 -0.012361818 -0.19812131
000330 e4 62 8c be 86 d7 ac be f9 4d 07 bf 48 a9 8e 3d
       -0.27419198 -0.3375818 -0.5285335 0.069658816
000340 44 9d 43 3e 97 8f dc bc 8d aa 42 be 63 9e 97 3d
       0.19102961 -0.026923938 -0.19010372 0.07403257
000350 2a 59 df 3d b7 1f 84 be 9d a3 6f be 01 60 3e be
       0.109056786 -0.25805447 -0.23402257 -0.1859131
000360 34 5c 1d be 7f f9 5f 3e fa f9 b1 3e ae a6 19 3e
       -0.15367204 0.21872519 0.3476103 0.1500499
000370 24 58 f7 3e 31 a3 4c bd 68 d5 bd bd 42 0a 31 be
       0.48309433 -0.04996032 -0.0926922 -0.1728907
000380 5e 23 2d be e5 78 b4 3e bf 00 16 3f a3 a7 8c 3e
       -0.16908023 0.35248485 0.5859489 0.27471647
000390 86 3e 2c 3e 1e b9 c3 3d 30 c3 74 be 21 35 1c be
       0.16820726 0.09556793 -0.23902583 -0.15254642
0003a0 b0 9d 28 be 1c 45 54 be f4 d3 bc 3d 89 39 f9 3d
       -0.16466403 -0.20729488 0.09220114 0.12169177
0003b0 5c d1 43 3b 89 ce bc 3e a1 e7 e3 3e fd db fc 3d
       0.0029879427 0.36876324 0.44512656 0.12346647
0003c0 7c 33 50 3d 1e 24 00 3d 7d cd e5 bd 91 db 8d be
       0.05083035 0.031284444 -0.112208344 -0.27706578
0003d0 bf ed c2 3a d0 7c 59 be 2e 5c 6c be 6f a6 b4 be
       0.0014871879 -0.21239018 -0.23082039 -0.3528323
0003e0 84 13 2f be 52 10 38 bd 17 b9 58 3e 4d 63 67 3e
       -0.17097288 -0.04493744 0.21164356 0.22596474
0003f0 57 57 0b 3e a6 cb 5c bd 69 f7 26 3f 74 fe 51 be
       0.13607536 -0.05390515 0.6522127 -0.20507222

module.layer1.0.bn2.weight f4 [16]
000000 78 c6 97 3e 55 43 32 40 82 d0 b1 3f 31 e2 7a 3f
       0.29643607 2.7853596 1.3891757 0.9800139
000010 b2 82 80 3f d3 6e 00 3f ab 4a 21 40 90 d1 44 3f
       1.0039885 0.50169104 2.5201824 0.76882267
000020 1f 81 cf 3f 85 e5 a2 3f 97 41 e1 3e 6e 06 00 3f
       1.621128 1.2726294 0.43995354 0.5000981
000030 14 46 2b 40 76 fe 84 3f 2b 49 21 40 32 76 19 40
       2.6761522 1.0390155 2.5200908 2.397839

module.layer1.0.bn2.bias f4 [16]
000000 cb b1 89 be c5 82 a6 be d4 8b 53 3f 04 92 d0 bd
       -0.26893458 -0.32521644 0.82635236 -0.101841
000010 b6 19 08 3e 85 cb 1c be 7e 3e 5e be f1 5f ea bd
       0.13291058 -0.15312012 -0.21703526 -0.114440806
000020 2c 89 a2 3e 6f a2 38 3f 82 5c b7 3e b0 16 84 bd
       0.3174528 0.72122854 0.35812765 -0.0644964
000030 d5 c6 a0 3e 35 aa 8e 3e c1 b0 5c bd 42 71 b7 bc
       0.31401697 0.27864233 -0.053879503 -0.022392873

module.layer1.0.bn2.running_mean f4 [16]
000000 f8 e2 da 3f 45 3f d3 bf 6e 37 aa bf 97 73 21 c0
       1.7100515 -1.6503683 -1.3298166 -2.52268
000010 5a f5 4d c0 4c c0 da be 10 1c 81 c0 ce b2 53 40
       -3.2181 -0.42724836 -4.0346756 3.3077884
000020 a9 f9 b9 c0 e4 14 2a c0 03 8f 56 3e 0a e0 d7 bf
       -5.811726 -2.657525 0.20952992 -1.6865246
000030 85 05 1f c0 d7 82 7e 3f 4d ae d5 c0 db c1 9e c0
       -2.484712 0.99418396 -6.677527 -4.961164

module.layer1.0.bn2.running_var f4 [16]
000000 4a c9 55 40 b8 94 19 42 9c b7 8e 41 76 87 9a 40
       3.3404107 38.395233 17.839653 4.8290358
000010 21 a8 09 41 47 47 7b 40 8e e1 c8 41 31 c5 f3 40
       8.603547 3.9262254 25.110134 7.617821
000020 aa 34 b2 41 01 0e 58 41 25 01 b1 40 60 40 cb 40
       22.275715 13.503419 5.5313897 6.3516083
000030 39 c1 58 42 09 46 0d 41 02 63 26 42 73 71 a3 41
       54.188694 8.829598 41.596687 20.430395

module.layer1.0.shortcut.0.weight f4 [16, 64, 1, 1]
000000 fc e8 ea 3d b8 97 02 3f a1 5d df 3e 5b 02 87 3d
       0.114702195 0.51012754 0.4362612 0.06592246
000010 f0 9d 31 be 61 36 08 c0 49 de c1 3e e6 7a 5f bf
       -0.17345405 -2.128319 0.37864903 -0.87296903
000020 82 af a5 3d c8 3c 85 3c 23 59 dc bd c9 79 1c 3d
       0.08090116 0.016264334 -0.10759189 0.03820208
000030 08 ca 48 3e c6 e2 ad be 97 b7 c9 bb f5 b2 b8 be
       0.19608319 -0.33962077 -0.006155919 -0.36074033
000040 a4 91 a6 bf 1d 90 47 bf 85 8c 03 3f e4 75 23 3d
       -1.3013196 -0.77954274 0.5138629 0.03990735
000050 b4 b7 19 bd 0d ec db bd 5e c1 dd be 3e 6b 3e bd
       -0.03752871 -0.107383825 -0.4331159 -0.046488993
000060 ae 86 48 be a0 ea 1e bc ae a0 11 be 44 06 89 3d
       -0.19582626 -0.009699494 -0.1422145 0.06690648
000070 3f 8f 03 bf 2a 2e 12 bc 45 9a b5 3c f9 a5 36 3d
       -0.5139045 -0.008922139 0.022168288 0.044591878
000080 1a 67 ea be 98 38 ed 3e 5f 8e ba bd b2 f4 3c bd
       -0.45781785 0.4633224 -0.091091864 -0.046131797
000090 d1 df bc 3e e8 15 f3 be 43 4d da be 73 b6 5e be
       0.36889508 -0.4747765 -0.4263707 -0.21749286
0000a0 e9 6e bd 3d 6a 35 e1 bd 37 77 d4 3d 61 f1 89 bd
       0.0924967 -0.10996516 0.10374301 -0.067354925
0000b0 6d 8e f3 bd f4 e0 c5 3e 00 24 4a bd e0 26 e6 be
       -0.118924 0.38648188 -0.04935074 -0.44951534
0000c0 9b 9c e6 3d 00 ee 29 3d fd 9b 7f be 34 e1 91 3c
       0.11260339 0.04148674 -0.24961849 0.01780758
0000d0 d4 09 d2 bc 32 46 64 3e 4d 0c 2f 3e c6 16 a4 3d
       -0.025639452 0.22292402 0.17094536 0.08012156
0000e0 fb 45 dc bc 14 c9 a1 3e 22 53 ea bd f3 43 8a 3e
       -0.026888838 0.31598723 -0.114416376 0.27004966
0000f0 5c 00 07 3d ad 48 72 be 42 8b 07 3e ee c9 29 bd
       0.032959327 -0.23660536 0.13236716 -0.04145234
000100 39 8a 5c 3e f4 44 ac 3e 46 d4 1d 3e 18 2d 62 3f
       0.21537103 0.33646357 0.15413007 0.8835006
000110 02 f3 00 bf 01 09 89 3e 6e be ea bd 95 b9 3d be
       -0.503708 0.26764682 -0.11462103 -0.18527825
000120 7a 27 30 bf fb f7 d6 be 6f ae 3d 3e 69 7b 6e be
       -0.68810236 -0.4198607 0.18523572 -0.23289265
000130 78 67 a9 bd ba 21 8a be fa f1 81 bc b3 93 e9 bd
       -0.08271688 -0.26978856 -0.015862454 -0.114051245
000140 62 26 b7 bd 0d 13 19 bf d8 ef 3a 3f a5 a7 3a be
       -0.08942868 -0.59794694 0.7302222 -0.18228014
000150 93 b0 ff bd c5 52 4f bc 74 d2 b4 bd ac ff b9 bd
       -0.12484851 -0.012654011 -0.08829203 -0.09081969
000160 f0 b0 ac bc 8d 76 a7 bc 26 ee d8 be 0d 16 44 bd
       -0.021080464 -0.020442272 -0.42369193 -0.04787259
000170 f2 b0 9b bd 02 6e ea ba 8f 25 cc 3e 51 1b 88 be
       -0.07602109 -0.0017885568 0.39872405 -0.2658334
000180 6b 20 0e bf 97 d2 b4 3c c7 0d 2d be 21 82 38 bc
       -0.55518216 0.022073073 -0.16899787 -0.011261494
000190 da ff a9 be 4e cb 3e be 27 a3 60 be ed a4 a8 be
       -0.33203012 -0.18632242 -0.21937238 -0.32938328
0001a0 8f 73 81 3d af 02 1c 3d f5 62 53 bd 16 bb 1b 3e
       0.06320869 0.038088497 -0.051608045 0.15208086
0001b0 23 fa c4 3d a8 d7 8c bd 1a fb 0e 3d 71 25 ec bd
       0.09618022 -0.06877071 0.034907438 -0.11530579
0001c0 1e 85 14 3e 08 45 5c be 18 f2 8a 3b 5a 86 a4 3d
       0.14503905 -0.21510708 0.0042402856 0.08033438
0001d0 d9 1c 99 3d b0 88 a7 3d d7 c7 c6 3d 8f 49 08 bd
       0.074762054 0.08180368 0.09706085 -0.033273276
0001e0 bd c6 6e bd 35 1e 0f be ab 84 05 3e 9a 1c 09 3e
       -0.058295 -0.13976367 0.1303889 0.13389817
0001f0 13 4b 68 be b9 74 92 bd 13 e3 91 be db 1c d9 bc
       -0.22684889 -0.07151169 -0.28493556 -0.026503017
000200 e8 12 26 be ea bc de be 47 40 88 be 14 bd a9 bf
       -0.1621815 -0.43503505 -0.2661154 -1.3260827
000210 a3 d1 e6 bd e4 96 95 be 90 aa bc bd 8d 5f 35 3e
       -0.11270454 -0.29216683 -0.0921222 0.17712231
000220 29 71 9b be 95 d4 c8 bb 67 55 09 be 55 35 2e 3f
       -0.30359772 -0.0061288574 -0.13411485 0.6805013
000230 14 0e aa 3c c8 4b 88 be 15 c3 4e ba 70 ad 48 be
       0.020758666 -0.26620317 -0.0007887346 -0.19597411
000240 9c 01 07 3d 9c 7f ac 3d 09 17 de bf f4 47 90 3d
       0.03296052 0.08422777 -1.735078 0.07044974
000250 99 a7 99 bd 38 fa 1c bc 58 af 41 be 2d b4 b7 bd
       -0.0750267 -0.009581141 -0.18914545 -0.08969913
000260 d0 9e 95 be 41 ee 70 be a8 40 6a be b3 ca f1 3d
       -0.29222727 -0.23528387 -0.22876227 0.1180624
000270 da df 4c be db 55 14 3d 9b 61 07 bf 1e 28 61 3d
       -0.20007268 0.03621469 -0.5288331 0.0549699
000280 c6 29 60 3d 53 80 29 be 1d 24 c2 be 80 6f 91 3d
       0.05472734 -0.16552858 -0.37918177 0.07101345
000290 7b db 42 bd 97 2a 9a be fc 5e bf 3d 89 74 14 bd
       -0.047572594 -0.30110618 0.09344289 -0.03624395
0002a0 91 18 99 be 50 9e 68 3d a0 fb 8f 3d 25 7f f1 be
       -0.29901555 0.056791604 0.070304155 -0.47167316
0002b0 29 af c5 3c 34 1b 81 3d 8a 74 ef 3c 0e 70 b3 bd
       0.024131374 0.06304017 0.029230375 -0.08761607
0002c0 40 81 ea bd 28 07 d1 3e 0d 42 7d be 47 42 d1 3d
       -0.11450434 0.40825772 -0.24732228 0.102177195
0002d0 a6 c7 a7 bd 0c ae 19 be 28 94 6d 3d 9a fb 10 be
       -0.08192377 -0.150078 0.05800262 -0.14158478
0002e0 04 f5 a2 bc e7 87 4e be 5b 3e f2 be 3d b8 0a bd
       -0.019892223 -0.2016903 -0.47313198 -0.03386711
0002f0 91 2d 67 3f 4a 9e 56 be c5 af cb 3e e2 52 90 be
       0.90303904 -0.2095882 0.3978254 -0.28188235
000300 2b 9f 1f 3f 93 e2 a1 be 86 4c b2 be 74 fd 66 3e
       0.62352246 -0.31618175 -0.34824008 0.22557622
000310 12 9f 5e be 80 74 96 3e 6a e3 0c bf 0e 32 09 3f
       -0.21740368 0.29385757 -0.55034506 0.53592
000320 ec 40 83 3f 24 b7 e5 bd 42 53 bc bd 0a 04 a0 3e
       1.0254188 -0.11216572 -0.09195568 0.31253082
000330 80 28 ff bd 85 e6 0d 3e 4b 3a 03 bd 5a 1a 29 3e
       -0.12458897 0.13857467 -0.032038014 0.16513959
000340 ca 3b e2 be 9f c6 f0 3e e5 98 7a bd 67 d9 84 be
       -0.4418624 0.47026536 -0.061180968 -0.25947115
000350 4e 01 e1 3d 66 1b 3d bd ba a6 59 be c9 b6 92 3d
       0.10986577 -0.046168707 -0.21255007 0.0716377
000360 2c 2c 7a be 37 50 ed be 4a 61 8c be 1e fe d0 bc
       -0.24430913 -0.46350262 -0.27417976 -0.025511798
000370 54 5e 97 be 77 88 82 bd 6b 9d 40 be d1 be e1 be
       -0.29564154 -0.06373685 -0.1881005 -0.44090894
000380 b5 df ef be 90 e7 87 be 2e f3 b9 bc 73 6b 35 bd
       -0.46850362 -0.26543856 -0.022698965 -0.044291925
000390 af 5e 2f bf af fe bd 3e aa fb 5b 3e f6 ff ae be
       -0.6850385 0.3710837 0.21482721 -0.34179658
0003a0 49 6b 78 be 09 cc 8b bd 51 78 9f bd e7 03 11 bf
       -0.24259676 -0.06826026 -0.077866204 -0.5664658
0003b0 fe 72 3f be c2 da 37 be 85 77 0b be 06 36 a6 be
       -0.1869621 -0.17954543 -0.13619812 -0.32463092
0003c0 68 e8 0c bf 83 12 4e 3c 17 db 88 be a9 a0 f8 bd
       -0.55042124 0.012577656 -0.26729652 -0.121400185
0003d0 5c 1b 85 be 4b 90 4e be d5 fe fd ba b7 f8 14 bd
       -0.25997436 -0.20172231 -0.0019378314 -0.036370005
0003e0 18 ce 61 be 6d 52 45 bf fa 0d 6b be 92 01 09 be
       -0.22051275 -0.77078897 -0.2295455 -0.13379505
0003f0 a9 e0 3e bd b2 cc 09 be 13 d3 47 3e 23 74 21 be
       -0.04660097 -0.13456991 0.19514112 -0.15766959

module.layer1.0.shortcut.1.weight f4 [16]
000000 ad d9 d1 3f 11 0e 77 3f 8f 84 95 3f 0a fd bc 3f
       1.6394554 0.9650584 1.1681079 1.4764721
000010 41 7c a8 3f 41 fd b0 3f 88 5d 94 3f 08 3b dd 3f
       1.3162919 1.3827287 1.1591043 1.728364
000020 de ca 50 3f 85 2e 90 3f ef 0d 8e 3f 5f 09 b9 3f
       0.8155955 1.1264197 1.1098002 1.4455985
000030 8e 60 43 3f c8 14 9c 3f bc 21 48 3f 6f f8 5e 3f
       0.76319206 1.2193842 0.78176475 0.8709783

module.layer1.0.shortcut.1.bias f4 [16]
000000 cb b1 89 be c5 82 a6 be d4 8b 53 3f 04 92 d0 bd
       -0.26893458 -0.32521644 0.82635236 -0.101841
000010 b6 19 08 3e 85 cb 1c be 7e 3e 5e be f1 5f ea bd
       0.13291058 -0.15312012 -0.21703526 -0.114440806
000020 2c 89 a2 3e 6f a2 38 3f 82 5c b7 3e b0 16 84 bd
       0.3174528 0.72122854 0.35812765 -0.0644964
000030 d5 c6 a0 3e 35 aa 8e 3e c1 b0 5c bd 42 71 b7 bc
       0.31401697 0.27864233 -0.053879503 -0.022392873

module.layer1.0.shortcut.1.running_mean f4 [16]
000000 de 92 34 c0 d0 e0 12 c0 72 ee 36 c0 06 34 f1 3f
       -2.821464 -2.2949715 -2.8583035 1.8844001
000010 c0 ec 45 bf 83 06 08 3f 1c 9a 8d be 4f 49 5d 40
       -0.77314377 0.53134936 -0.2765664 3.4575994
000020 7f af ee bf 86 07 18 bf a4 0b 27 40 8e 00 8c c0
       -1.8647307 -0.5938648 2.6100855 -4.3750677
000030 70 e8 e9 bf d2 e6 04 3f f1 0b 49 c0 1c 63 45 40
       -1.8274059 0.51914704 -3.1413538 3.0841742

module.layer1.0.shortcut.1.running_var f4 [16]
000000 b2 a0 7d 40 9c f1 42 41 69 f6 45 41 c5 68 9a 40
       3.962933 12.183987 12.372659 4.8252892
000010 19 8d a4 40 29 43 5e 40 c5 39 25 41 7d e8 bf 40
       5.142224 3.4728491 10.326604 5.99713
000020 02 8c fc 40 7c 62 e4 40 85 98 bb 40 20 3d e2 40
       7.892091 7.137022 5.862368 7.0699615
000030 13 9c 09 41 53 52 c1 40 83 cf 30 41 10 2e 49 41
       8.600604 6.0412993 11.050662 12.573746

module.layer2.0.conv1.weight f4 [32, 16, 3, 3]
000000 67 e1 94 3e 0e 2c 6a be 69 30 50 be b0 97 9d 3e
       0.29078218 -0.22868368 -0.20330967 0.3077979
000010 5a 5b 18 be ca c9 20 be 36 83 b6 3e cc 11 54 bd
       -0.14878598 -0.15701976 0.3564698 -0.051774785
000020 ee 81 dd bc 03 61 80 3e 91 7b 30 be 9e 01 53 3c
       -0.027039494 0.25074014 -0.17234637 0.012878804
000030 e4 2f 04 bd d9 5d fa be e9 5c 22 bf 5e a7 4f 3e
       -0.032272235 -0.48899725 -0.6342302 0.2027869
000040 25 ba 96 be 8a 5d b5 be 08 8d d4 3d b4 29 0b 3f
       -0.29438892 -0.35422927 0.10378462 0.5436051
000050 2e ab 48 3f f2 05 77 bc b6 1f 23 3c 6b 54 b1 3e
       0.783862 -0.015077101 0.009956291 0.34634718
000060 94 7c 9c be dc 1d 16 be 63 5c c4 3d b7 0b 95 3e
       -0.30563796 -0.14659828 0.09587934 0.291105
000070 c4 4f 00 3e 07 04 fb bc 40 f1 41 3e 83 39 9f b9
       0.12530428 -0.030641569 0.18939686 -0.00030369693
000080 6e ec 43 3d a2 b4 89 3e f5 d8 62 3d 3a 6d 8d bc
       0.0478329 0.26895624 0.055382688 -0.017263997
000090 0b 50 02 3f 31 96 36 3d 9b a0 86 be 02 c9 d5 3e
       0.50903386 0.044576827 -0.26294407 0.4175492
0000a0 d9 dc 00 3d c1 d6 a4 be 53 6f 09 3f 67 94 09 3e
       0.031460617 -0.32195094 0.5368549 0.13435517
0000b0 e7 70 34 be 6d e9 58 3e 43 0c 01 3e 0e f8 cc bc
       -0.17621194 0.21182795 0.12602334 -0.025020625
0000c0 0d 24 a4 3e 62 7a 7c 3c 21 8c ca bd 8e 70 13 3e
       0.32058755 0.015410038 -0.09890009 0.14398405
0000d0 21 71 86 3b d9 44 bb bd 56 04 4e be 70 0d e8 be
       0.0041028415 -0.09143991 -0.20118842 -0.45322752
0000e0 95 ed d3 be 8d a7 5b be b9 59 2c bf a1 d3 14 bf
       -0.41392198 -0.21450634 -0.67324406 -0.5813542
0000f0 40 36 09 be d2 08 12 bd cf 2e ff 3c 1e aa 92 be
       -0.13399601 -0.035652943 0.03115025 -0.28645414
000100 13 2a b2 bc 63 db f2 bd 8b d4 cd bd 46 ae 2a 3d
       -0.021748578 -0.11858251 -0.10050305 0.041670106
000110 68 9b f7 3c 02 2a c1 bd 15 81 52 bd 25 b5 0a bd
       0.03022547 -0.094318405 -0.051392633 -0.03386416
000120 d0 09 4c 3e 4a 0f 5e be b0 86 8f 3b 8f f8 ae 3e
       0.19925618 -0.2168552 0.0043800697 0.3417401
000130 7d 94 e7 bd d2 5e 78 3e a8 b5 48 3e 4f bf b1 be
       -0.11307619 0.24254921 0.19600546 -0.3471627
000140 4c e8 b2 bb f8 ac ff bc f6 49 5b 3e d5 d9 63 3e
       -0.005459821 -0.031210408 0.21414933 0.22251065
000150 62 8c ca bd d6 7a 36 3e f6 8c b2 3d a0 e2 d4 bd
       -0.09890057 0.17820296 0.087182924 -0.10394788
000160 5b ea 01 bd 2e d8 19 be 3a 1a 81 3e 5e 10 e9 3d
       -0.03171764 -0.15023872 0.25215322 0.11380075
000170 cd 20 7e bd 40 a0 5b 3d e9 c2 e3 bd 2e 9a 8f be
       -0.062043 0.053619623 -0.111211605 -0.28047317
000180 79 ba f1 bc 4f 49 96 bd f1 f5 6b be 20 a0 8a 3e
       -0.029507862 -0.07338201 -0.23043038 0.2707529
000190 79 ab a1 be 08 d7 03 bf 1a 29 8c 3e 9e 7f a4 bd
       -0.31576136 -0.51499987 0.27375108 -0.080321535
0001a0 4c 1c 9a be d0 95 bd 3e c5 d0 54 3e 9f 22 1d 3d
       -0.30099714 0.3702836 0.20782764 0.038363095
0001b0 57 b6 22 3f 93 04 a3 be 86 ea 74 bf 6c af f4 3e
       0.6355948 -0.31839427 -0.95670354 0.47790086
0001c0 04 79 59 be bd 14 4a bf 37 95 43 3f 34 7b 8f bd
       -0.2123757 -0.78937894 0.7639956 -0.07005921
0001d0 9c 44 09 bf 19 e2 a2 bd 92 70 bf bc e9 32 eb bb
       -0.53620315 -0.07953281 -0.023369107 -0.0071777
0001e0 c4 25 5d 3e ed 78 b8 3b d8 1b b0 bd 77 8a 1c 3e
       0.21596438 0.00562965 -0.08599061 0.15287195
0001f0 ea d0 3a bd d4 de 99 be 56 e8 a3 3e 7a 94 31 be
       -0.045609392 -0.30052817 0.32013196 -0.17341796
000200 49 95 29 bf f5 78 ad 3e 75 7c 94 bd f9 8b 02 bf
       -0.66243416 0.33881345 -0.07250301 -0.5099483
000210 af 9c ff 3e b9 45 14 bd 58 ad cb be 8f 6c 12 3d
       0.49924228 -0.036199305 -0.39780688 0.03574806
000220 90 d7 5a be 1e 7d 8d bd 63 49 91 be a3 39 70 be
       -0.21371293 -0.0690863 -0.28376302 -0.23459487
000230 12 08 c2 3c 9e 6f 8a be 41 0b c6 be c7 67 62 be
       0.023685489 -0.27038282 -0.3868046 -0.221099
000240 69 18 13 bd d5 9c f7 bd 47 b9 6f be cd 01 91 3d
       -0.03591195 -0.1209046 -0.23410521 0.070804216
000250 0b 3f ea 3d 4d 09 e9 bd fd 4c 51 3c bc f1 c5 3d
       0.11437806 -0.11378727 0.012774703 0.09665248
000260 06 60 a3 bd a3 02 a6 3e 4e ef 2a 3f 57 34 36 3f
       -0.079772994 0.32423887 0.667714 0.71173614
000270 64 df 6f be 63 23 ca 3d d5 23 e9 3e 88 61 f4 be
       -0.2342506 0.09870031 0.4553515 -0.4773066
000280 d9 31 17 bf 0d f9 d1 be 17 8e 17 be 89 62 57 be
       -0.59060436 -0.41010323 -0.14800297 -0.21033682
000290 4b 31 09 bf 44 e6 f4 3d 36 95 f3 3d f7 55 2b be
       -0.5359084 0.11957982 0.11893694 -0.16732012
0002a0 ac 42 ac bd 3e b2 96 bd 8e 2e c4 3e 59 0a 00 be
       -0.08411154 -0.07358216 0.38316768 -0.12503947
0002b0 5b 06 2c bd 4f e8 a1 bd ae 2b 03 3e 83 c1 8e 3d
       -0.04199825 -0.079056375 0.12809631 0.06970503
0002c0 a7 53 16 be 04 e1 91 3e c4 a1 9b 3e 38 ea 57 3e
       -0.14680348 0.28491986 0.30396855 0.21085441
0002d0 54 79 23 3d 39 bd 9b 3e dc fb bd 3e 00 98 0b be
       0.03991063 0.30417803 0.37106216 -0.13632202
0002e0 74 1d 2b 3c ff 36 a8 bc e7 13 f9 3d d4 46 54 bd
       0.010444034 -0.020534037 0.12161999 -0.05182536
0002f0 e2 64 74 be 06 d9 87 3d d8 70 5e bd 88 3a af 3d
       -0.23866609 0.06633191 -0.054306835 0.08556086
000300 70 56 b3 bc 21 ef 64 bd 59 f8 ae 3d 20 8d 85 3d
       -0.021891803 -0.055892114 0.08543462 0.06521058
000310 37 8f c7 ba 92 a3 1c 3e e8 ae 0a bd e1 fc 18 be
       -0.0015225176 0.15296772 -0.03385821 -0.14940216
000320 35 45 0f bf 92 90 15 3e fd 67 20 3f 7d 1b 53 3e
       -0.55964977 0.1460593 0.62658674 0.20615955
000330 e5 89 f0 be 80 96 90 be 8c c8 c3 3d cc 78 4b be
       -0.46980205 -0.28239822 0.09559736 -0.19870299
000340 53 48 4a be c5 fc 36 be ef fc d9 bd 3a 60 f7 bd
       -0.19754152 -0.17869861 -0.106439464 -0.12078901
000350 68 fa 96 3c d4 8d 98 3b c3 c2 45 bd 71 ed 80 bd
       0.01842995 0.004655579 -0.048281442 -0.06295288
000360 6e 1d 9f be db b6 b1 be 4a de 73 be 7f 1f 97 3d
       -0.3107714 -0.3470982 -0.23815265 0.07379054
000370 02 36 2d bc 23 73 5a be 5c d9 cf 3e ca 98 ab 3e
       -0.0105719585 -0.21332984 0.4059552 0.33515006
000380 7f 46 06 3e 8e 06 1d 3e a5 11 58 3e 08 09 7d 3e
       0.1311283 0.15334532 0.21100481 0.24710476
000390 57 9a f8 be a5 44 01 bf 1a aa 05 bf 54 c5 49 3e
       -0.48555252 -0.5049537 -0.5221268 0.19704181
0003a0 18 81 fd 3d 9e ee bc bd 9b dd 72 3d ba a9 b7 3d
       0.12378138 -0.092252 0.05929337 0.0896792
0003b0 c1 b9 80 3d 4a 38 8c bd a8 55 48 bd b3 7a 15 be
       0.0628543 -0.06846674 -0.048909813 -0.14597587
0003c0 f3 7c c5 3d ac e7 64 3c 9d 2c 66 bc 0d aa 4d 3e
       0.09642973 0.0139712505 -0.014048723 0.200844
0003d0 10 44 62 3e 46 50 8a 3d 7b f3 d5 3d b2 6e 08 3e
       0.22096276 0.06753592 0.10446831 0.13323477
0003e0 c5 f9 34 3e 20 cc 85 be 9e 26 a1 be 3f ff 56 be
       0.17673405 -0.26132298 -0.31474775 -0.20995806
0003f0 ab 47 2d be d1 02 49 be 3c 37 6b be 3d 33 80 be
       -0.1692187 -0.1962998 -0.22970289 -0.25039092

module.layer2.0.bn1.weight f4 [32]
000000 54 f5 e5 3f 6b 2d bf 3f 18 85 96 3f 0a d7 98 3f
       1.7965493 1.4935735 1.1759367 1.1940625
000010 02 75 61 3f 6e 21 97 3f 07 d0 a1 3f f1 0a 8b 3f
       0.88069165 1.1807077 1.264161 1.0862714
000020 3b 55 65 3f d1 6b bf 3f 0c bf 76 3f 62 b2 74 3f
       0.89583176 1.4954778 0.96385264 0.9558469
000030 af 9d 71 3f ea 5f 7e 3f 1a ff 80 3f 13 09 9f 3f
       0.9438123 0.99365103 1.0077851 1.2424644
000040 d5 1f df 3f 58 24 e4 3f aa 7d 4f 3f 2a 04 bb 3f
       1.7431589 1.7823591 0.81051123 1.4610646
000050 bb ab 30 3f 87 53 67 3f e1 7e 95 3f 91 b6 93 3f
       0.6901204 0.9036183 1.1679345 1.154009
000060 f9 25 bf 3f 75 40 b4 3f 3f d1 a7 3f db 3e 9e 3f
       1.4933463 1.4082171 1.3110732 1.2362932
000070 f4 d9 70 3f bc 18 68 3f 50 cf a5 3f 28 82 d0 3f
       0.9408257 0.9066274 1.2953892 1.628972

module.layer2.0.bn1.bias f4 [32]
000000 7a 2f 27 bf 85 4e b3 be f4 08 6d be 5d 9a 0c bf
       -0.6530682 -0.35020843 -0.23147947 -0.5492304
000010 eb 50 02 3f e8 ee dd bd 69 81 eb be dd cd 3a be
       0.5090472 -0.108365834 -0.4599717 -0.18242593
000020 76 b5 e8 3e 43 72 03 bf 59 e4 53 be e8 7c 33 bd
       0.45450944 -0.51346225 -0.20692576 -0.04382029
000030 7f 64 09 bf 28 16 09 3f ec 4e 2d be 8a 5f 04 bf
       -0.5366897 0.5354943 -0.16924638 -0.5170828
000040 ac 75 de be f0 a1 2e bf af a5 9e be 44 fa 27 bf
       -0.43449152 -0.68215847 -0.30985782 -0.6561625
000050 5b 8d f3 3e 1f 87 3e 3e 1b a7 0c bf 2d 9a ec be
       0.47568783 0.18606232 -0.5494248 -0.46211377
000060 73 be 87 3e 7b a2 33 bf 9e f4 12 bf a5 cd c4 be
       0.2651249 -0.701698 -0.57404506 -0.38438144
000070 90 2c ef bd 3c a6 90 be 29 33 b2 be ee ea 53 bf
       -0.116784215 -0.28251827 -0.34804657 -0.8278035

module.layer2.0.bn1.running_mean f4 [32]
000000 34 1c 2e c0 f3 26 c5 c0 63 e7 28 c0 19 42 f1 40
       -2.7204714 -6.1610045 -2.6391227 7.5393186
000010 1d 78 bf c0 1a 9a 3c 41 af a0 30 c0 6a a5 52 c0
       -5.9834123 11.787622 -2.7598073 -3.291346
000020 10 4b 01 c0 33 5d 71 c0 50 de 7b 40 90 c9 90 c0
       -2.0202065 -3.7713134 3.9354439 -4.524605
000030 27 99 11 c1 ab db c2 c0 8c 1a ea c0 15 fd ef bf
       -9.099891 -6.089315 -7.3157406 -1.874911
000040 27 af 94 c0 6e 5c 4a 3f 07 05 74 c0 2b 5c 69 40
       -4.646381 0.79047287 -3.8128068 3.6462505
000050 51 f9 3f c1 51 54 93 3e e3 2b 11 3f 81 09 b2 c0
       -11.998368 0.28775266 0.5670759 -5.56366
000060 34 1c 46 c1 ca 72 38 bf 40 7a d6 3f e0 11 12 41
       -12.381886 -0.72050154 1.6756058 9.129364
000070 55 37 70 3f 79 7e 0a 41 34 5e 05 c0 e3 89 37 c0
       0.9383443 8.655877 -2.0838747 -2.867791

module.layer2.0.bn1.running_var f4 [32]
000000 78 7e 1c 42 d4 db 5f 42 50 56 a7 41 9f 65 f3 41
       39.123505 55.964676 20.917145 30.42462
000010 00 a4 0d 42 49 8b 2e 42 9b d5 08 42 ea 29 df 41
       35.410156 43.63602 34.2086 27.895466
000020 7c 3b 17 42 fa a2 1c 42 8d 2b af 41 c1 c2 22 42
       37.80809 39.159157 21.896265 40.69019
000030 10 45 e6 41 7a 2d 34 42 11 76 d9 41 64 5f cb 41
       28.783722 45.04441 27.18265 25.421577
000040 2c 0c 6f 42 81 a7 76 42 d8 9f 8a 41 8d e2 78 42
       59.761887 61.663578 17.328049 62.22124
000050 e9 d6 2d 42 af 3d 04 42 c2 09 11 42 2c 50 c7 41
       43.459873 33.060238 36.25953 24.914146
000060 23 3c b2 42 bb 77 3e 42 3c 65 e9 41 90 81 56 42
       89.117455 47.616924 29.17443 53.626526
000070 5f 0c a9 41 a1 a3 bf 41 db b9 5e 42 13 a7 52 42
       21.13104 23.954897 55.6815 52.66316
