results/nlKN/cifar10/kd/resnet8_best.pth.tar (torch_old, 371438 bytes, 52 tensors)

module.conv1.weight f4 [64, 3, 3, 3]
000000 be b3 05 be d6 c8 ca bd 7b 7b 85 3e b0 ee b5 be
       -0.13056847 -0.09901588 0.2607077 -0.35533667
000010 81 a5 bc 3e f1 7d af 3e 30 e9 de bd 32 b5 b1 be
       0.3684502 0.34275773 -0.10884321 -0.34708554
000020 7e 8c 56 3e 40 c4 df 3d 10 c8 8b be 12 fe b3 be
       0.20952031 0.109261036 -0.27301073 -0.35154778
000030 50 0b a2 3e 10 72 04 3f d2 01 46 be 57 98 57 3e
       0.31649256 0.51736546 -0.19336632 0.21054207
000040 9a 49 8f be 6b 41 0c be d3 d2 ad bc 1b 58 01 bd
       -0.2798584 -0.1369683 -0.021218693 -0.031578165
000050 72 a9 e9 bd 93 ec 6b 3d 91 ef e3 3e ed e0 9c bd
       -0.11409272 0.05759866 0.44518712 -0.07660089
000060 2e 9c 32 be b8 36 13 be a3 c1 43 3d ca f3 05 3c
       -0.1744239 -0.14376342 0.04779209 0.0081758
000070 fc 94 07 3d c4 ef 50 bd 88 9b 36 be 87 e4 d9 3d
       0.033101067 -0.05100991 -0.17832768 0.10639291
000080 2a 5d ef 3d 53 36 0e be 14 0d 71 3c 2f 6f 29 3d
       0.116876915 -0.1388791 0.014712591 0.0413658
000090 e8 f7 1d be 14 6a 63 3d 45 57 ae 3d d0 e9 bd be
       -0.154266 0.055521086 0.08512739 -0.37092447
0000a0 6b 10 28 3e 1f b3 90 3e b9 74 88 be 90 a3 8a 3d
       0.16412513 0.2826166 -0.26651552 0.06769478
0000b0 4f f5 1f 3e cb 51 68 be 9d 1b e3 3c eb 94 10 3d
       0.15620922 -0.22687452 0.027723128 0.03529827
0000c0 a5 d0 d7 be fa a6 34 3e d9 fe a5 3e 43 c1 91 be
       -0.4215137 0.17641822 0.32420996 -0.2846776
0000d0 f7 dc 2f 3e 9c 7d 8c 3e f3 62 83 bb 2d 31 f6 bb
       0.17174135 0.27439582 -0.0040095984 -0.0075131864
0000e0 e3 9f 6f bb 5f 2e 8d bb b6 57 86 bb 4a 77 0d 3b
       -0.0036563806 -0.0043085064 -0.0040998114 0.0021585994
0000f0 8d d3 d3 bb a0 00 e4 bb eb b1 98 bb 7d c2 3d 3b
       -0.006464428 -0.0069580823 -0.0046598813 0.0028955035
000100 23 75 31 bb 0c f0 ae 3a 40 85 f8 ba 8c 99 9d bb
       -0.0027077876 0.0013346686 -0.001896061 -0.004809564
000110 23 c6 b2 3a 61 69 c4 bb da ea 11 bc c3 e9 c8 bb
       0.0013639372 -0.0059940075 -0.008906091 -0.006131382
000120 6d 7f f0 3b 87 91 22 3b 1b ab 99 3b 1f 48 b6 3a
       0.007339409 0.002480598 0.004689587 0.0013906992
000130 41 cb 63 bb b1 ba c8 3a 30 22 bb bb 72 a6 33 bc
       -0.00347586 0.0015314427 -0.0057108626 -0.010964977
000140 bd 69 12 bc 25 95 58 be bf ab 53 be 9c 51 8d be
       -0.008936343 -0.21150644 -0.20670985 -0.27601326
000150 f8 b2 e2 3d bd 2f 72 3e 6b e8 a0 bc d8 5f 97 3e
       0.11069292 0.23651023 -0.019642076 0.2956531
000160 ef 8d 0f 3f 9d d1 24 3d f1 18 ab ba 4e b5 6f 3d
       0.5607595 0.040238965 -0.0013053698 0.058522515
000170 db 1b e8 3d 33 21 12 be 15 84 2e be eb da d0 3c
       0.11333438 -0.14270477 -0.17042573 0.025495013
000180 15 be 48 be f6 35 74 be a0 6c 8b bd ec 9f 4c 3e
       -0.1960376 -0.2384871 -0.06807828 0.1998288
000190 78 bf 4b 3e ea 98 d8 3d ab cb 69 bc 34 b5 37 be
       0.19897258 0.10576041 -0.01426975 -0.17940217
0001a0 fd 2d 02 3d c9 44 ff bd 0f 6b 9c be ba a6 1a 3d
       0.03178214 -0.124642916 -0.3055043 0.03775666
0001b0 3c 13 23 3e c5 7f b1 bd f3 0a 09 3e b3 dc e7 bd
       0.15925306 -0.08666948 0.13383083 -0.11321392
0001c0 22 48 10 bf b1 88 a2 bd 2d ef 27 3e aa 4c 82 3d
       -0.56360066 -0.07936228 0.16399832 0.06362279
0001d0 57 6d 50 3e b1 ce dc 3d c8 46 07 be 60 82 9e 3d
       0.2035421 0.10781611 -0.13210595 0.07739711
0001e0 21 11 9f bd c6 6e ff be 15 74 28 bd df 18 50 3d
       -0.07766939 -0.498892 -0.04112633 0.05080497
0001f0 9d 98 53 bd f2 00 82 3d d7 84 a4 3d da f2 99 bd
       -0.051659215 0.063478366 0.0803315 -0.075170234
000200 26 e9 92 3c 61 53 e8 bd 22 30 bc be e5 bf be bd
       0.01793344 -0.11344028 -0.36755472 -0.09313945
000210 ce bc 02 bc 0c c7 c3 3b ba e4 1a bc 8b f1 6c bc
       -0.007979585 0.005974656 -0.009453947 -0.014461885
000220 b9 5b f0 3d a0 a4 07 3e ca 42 68 3e 5c 8f 93 3e
       0.11736245 0.13246393 0.22681728 0.28820312
000230 d4 5f 73 3e 60 76 a0 3d 7f ab c5 bd 4e d3 d0 bd
       0.23767024 0.07835078 -0.09651851 -0.10196553
000240 81 19 61 bc 46 cd 18 be 6f 81 da bb ee 33 61 bc
       -0.013738991 -0.14922056 -0.0066682617 -0.013745291
000250 d3 0d 7f be e7 30 02 bd dc 98 aa 3c bc 3b 93 be
       -0.24907617 -0.03178492 0.020824842 -0.2875651
000260 02 38 87 bd 75 4c 3e 3d 71 7c 99 bd e1 11 7c 3c
       -0.066024795 0.046459634 -0.074944384 0.015385122
000270 11 f4 82 bd 8c 30 7a be 3a 6a 5b bd 87 09 ce bb
       -0.06394208 -0.24432582 -0.053568102 -0.006287757
000280 2d b2 2d be 97 47 31 3d 7b c1 b6 be ec 04 14 bf
       -0.169625 0.043281164 -0.3569449 -0.5782001
000290 17 c0 b8 be 1a ab 20 3e f3 10 b3 3e 3f 65 08 3e
       -0.36084053 0.1569027 0.3497387 0.13319872
0002a0 92 4b 2d 3d 73 51 21 3f 48 ec d4 3d 9e d5 21 3e
       0.042308398 0.63014907 0.103966296 0.15804145
0002b0 97 0e d7 bc 66 db 2b 3e c9 2d 17 3e 27 8b 26 3d
       -0.026252074 0.16782913 0.1476356 0.04066005
0002c0 35 38 00 3e a9 c6 80 be 11 f6 5f be 10 56 28 be
       0.12521441 -0.25151566 -0.2187121 -0.1643908
0002d0 69 37 2b 3e 0d 09 27 3e f1 bb 43 3e a4 2b b4 3d
       0.16720356 0.16312046 0.19114663 0.08797386
0002e0 63 56 6a bd 93 6b 30 3d ec d3 e4 bd e2 29 95 be
       -0.05721129 0.04307134 -0.111732334 -0.29133517
0002f0 2f bc 21 be 35 1a 78 3b ff b8 bd 3d 2e b2 19 3d
       -0.15794443 0.0037857417 0.09263801 0.03752344
000300 86 a1 df bd 44 0b 49 be 11 13 bc 3d de 92 65 3c
       -0.1091948 -0.19633204 0.09183324 0.014012067
000310 ee 54 1c be ed e9 08 3e 8a f8 d2 bd 42 a8 a4 bd
       -0.15266773 0.13370486 -0.10301311 -0.08039905
000320 9d 8a d7 bd b9 4f 1f be 0e af a3 be 2d 79 26 bc
       -0.10524485 -0.15557756 -0.31969494 -0.0101607265
000330 71 59 13 bd 8b 80 86 be e6 31 ac 3c d7 cf e5 3d
       -0.03597397 -0.26269946 0.021019887 0.11221283
000340 6d e0 38 3e b8 af 80 3d 9b ff 9a 3a c2 4a df bd
       0.18054362 0.06283516 0.0011825444 -0.10902931
000350 81 51 c1 3d c4 08 ed 3d 31 2e 4d bd eb 4a 19 3e
       0.09439374 0.115739375 -0.05009288 0.14969985
000360 75 68 2d 3b 2d 2e 65 be e1 40 e2 bd aa 64 dd 3d
       0.0026459966 -0.22380896 -0.11047531 0.10810216
000370 7a b4 e7 bc 0c 4b 36 be 52 c0 d4 3c 19 77 54 3e
       -0.0282843 -0.17802066 0.025970612 0.20748557
000380 df 33 3b 3d 59 97 5f 3d a5 f8 1c be 47 9e 92 bd
       0.045703765 0.054587696 -0.15329225 -0.07159095
000390 8a 77 31 3e 3b 71 53 3d 6a 18 c7 bd 0d fc 11 3d
       0.17330757 0.051621657 -0.097214535 0.035640765
0003a0 2b 32 2b 3e c6 8a 11 3d cd 18 87 3d 41 1d 2e be
       0.16718356 0.035532735 0.06596527 -0.17003347
0003b0 3f 32 f2 bd 9a 6d 10 3e 36 c4 fd 3c 53 ac cf bd
       -0.1182599 0.1410431 0.03097735 -0.1014029
0003c0 09 d5 c0 bd 57 72 ee 3c 95 c8 45 bd 03 d1 5c bc
       -0.09415633 0.029107256 -0.048286993 -0.013477567
0003d0 1b 93 52 3e 8e 83 86 3d 32 6d 5d 3c c3 15 2d 3f
       0.20563929 0.06568061 0.013514804 0.6761133
0003e0 3e a7 2a 3d d7 37 b8 bc 30 65 71 3e 39 7c 1f be
       0.0416634 -0.022487564 0.23573756 -0.15574731
0003f0 38 76 3d bc 2e b7 b9 bd 8b f0 3e bd f3 cf b1 be
       -0.01156383 -0.09068142 -0.04661612 -0.34728965

module.bn1.weight f4 [64]
000000 ed c3 b8 3e 62 1a 89 3e 4d 16 48 3d f0 58 4c 3e
       0.3608698 0.2677794 0.048849393 0.19955802
000010 9d 73 66 3f e9 f3 cb 3e f2 a9 86 3e fe a2 0c 3f
       0.9002016 0.39834526 0.26301533 0.54936206
000020 c2 5d 03 3f cb ae 78 3e 3a 27 56 3e a4 89 4c 3e
       0.5131494 0.24285428 0.20913401 0.1997438
000030 28 28 0a 33 1d 91 ca 3e cc 6f 2f 3e ca ac 9f 3e
       3.216715e-08 0.39563838 0.17132491 0.31186515
000040 6c 8e f0 3e 64 84 ce 3e 51 26 d8 3c c8 eb 2b 3e
       0.4698366 0.4033538 0.026385458 0.16789162
000050 81 22 9e 3e 35 94 93 3e 11 c4 04 3f d8 71 b8 3e
       0.308857 0.2882401 0.51861674 0.36024356
000060 5b ab dc 3e 18 e9 ec 3e 7d f4 85 3e c8 14 0b 3f
       0.43099484 0.46271586 0.26163092 0.54328585
000070 03 de 43 3e 91 45 a6 3e 39 99 d1 3e 51 e6 2c 3e
       0.1912766 0.3247495 0.40937212 0.16884734
000080 be b1 b1 3e d1 64 83 3e 36 33 6f 3e c4 39 94 3e
       0.3470592 0.25662854 0.23359379 0.28950322
000090 4b e9 56 3e a6 36 c7 3e 4a dd 4b 3e 1f 00 0e 3e
       0.20987432 0.3890888 0.19908634 0.13867234
0000a0 bf 9b b1 3e 56 6e 0b 3f c1 32 5f 3e 71 e2 b7 3c
       0.34689137 0.54465234 0.21796705 0.022446843
0000b0 8c 6e ad 3e 18 ed 7e 3e 1c d9 dc 3e f8 75 98 3e
       0.33873403 0.24895132 0.4313439 0.29777503
0000c0 5f 08 ef 3b 6a 18 b9 3e 1a 31 63 3e c8 fe 67 3e
       0.007294699 0.3615144 0.221867 0.22655785
0000d0 1c 6d bc 3e ee ab ac 3e 67 77 93 3a d5 9e 57 3e
       0.36801994 0.33724922 0.0011250795 0.21056683
0000e0 19 60 9e 3e 6c 50 7f 3e 76 c4 f3 3e 5c bc 46 3e
       0.30932692 0.24933022 0.47610825 0.19407791
0000f0 25 28 7a 3e 7a 69 47 3e 45 6d 68 3e db 0c 8e 3e
       0.24429376 0.1947383 0.22697933 0.27744183

module.bn1.bias f4 [64]
000000 34 df 79 3e 04 e9 ee 3d 5c cf 4d bd 17 af 2b 3d
       0.24401551 0.11665538 -0.05024658 0.041915026
000010 82 e5 58 bf 72 b7 5b be e2 3e 59 3e 07 36 a5 be
       -0.847252 -0.21456698 0.21215394 -0.32267782
000020 c7 e0 a1 be 8d 00 24 3e 9b 73 d5 3d 69 43 52 be
       -0.31616804 0.16015835 0.104224406 -0.20533527
000030 6b 61 06 b4 70 c6 df bc f6 2f 37 bd 51 ce 3a 3e
       -1.2515163e-07 -0.027316302 -0.044723473 0.18242766
000040 69 7b 1a 3e 8a e1 86 be cf de 98 bc 79 ea 53 bd
       0.1508614 -0.26343948 -0.01866093 -0.051737282
000050 ba aa 4a 3e ef 38 05 3e 4a 31 86 be 48 2e 7b be
       0.1979169 0.1301 -0.2620948 -0.24529374
000060 4e 82 cd 3e fc 32 89 be 2f 38 77 3e 83 d4 8b be
       0.40138477 -0.2679671 0.24142526 -0.2731057
000070 62 10 37 3d 2a c1 e4 bc a4 f1 ff bc 0d 3b 1b 3d
       0.04469336 -0.027924139 -0.031243153 0.037898112
000080 0b fb 0a 3e f5 9d cd be e4 55 8a 3d 94 71 b5 bd
       0.13572328 -0.40159574 0.067546636 -0.08859554
000090 a7 5a 20 3e db 24 b0 be f3 3d bb bc 66 0d c2 3d
       0.15659581 -0.34403118 -0.022856688 0.09475212
0000a0 f0 d4 10 3e 11 15 bc be bf 0d fb 3d d4 31 0a bd
       0.14143729 -0.36734822 0.12258481 -0.033738926
0000b0 4c 24 94 be b2 c8 d6 bb 73 86 95 be 17 f7 a2 be
       -0.28933942 -0.0065546865 -0.2920414 -0.3182914
0000c0 f5 13 07 bc 85 cc 2a 3e 28 86 80 3e 27 e0 1d 3e
       -0.008244504 0.1667958 0.25102353 0.15417539
0000d0 b0 72 9e bd 4f d8 2d be da 34 5c bb 61 9d 6c 3e
       -0.07736719 -0.16977046 -0.0033600838 0.2310691
0000e0 ff 5f b2 3e 13 a6 3a 3e 26 8e f4 be 50 03 88 3d
       0.34838864 0.18227415 -0.477647 0.06641257
0000f0 85 46 2b 3e 2b 91 f5 3d fb e3 42 bd 77 f4 3d be
       0.1672612 0.11990579 -0.0475807 -0.18550287

module.bn1.running_mean f4 [64]
000000 59 a8 7b bd 8f 71 14 bd ed 50 ad 3c 5b f1 32 3d
       -0.061439846 -0.03624111 0.021156752 0.043687206
000010 3a 88 d1 3e d0 37 04 3e c9 b7 80 bd 5e 81 67 3e
       0.40924245 0.12911916 -0.06285054 0.22607943
000020 00 78 2e 3d 6d 42 89 bd 61 0f 14 3d 39 3a 99 3d
       0.04259491 -0.06702123 0.03614748 0.07481808
000030 ff d7 1f 35 24 99 7c 3b dc 3f 1b be 5d 60 f3 3c
       5.954643e-07 0.0038543427 -0.15161079 0.029709036
000040 9e 96 90 bd 76 bf a6 3d d8 f4 b3 3b 2d 52 5c 3c
       -0.07059978 0.08141987 0.005491834 0.013447327
000050 53 20 4d 3d ed 52 99 3c 4c e2 ef 3d 01 55 5e 3d
       0.050079655 0.0187163 0.117130846 0.054280285
000060 cc 74 65 3d 1a 37 55 3e 51 29 8c 38 1b 59 2a bd
       0.05601959 0.20821801 6.683416e-05 -0.041588884
000070 5f ef 96 3c 45 2e 48 bc d4 40 f0 b5 7e 3d b0 bd
       0.018424688 -0.012218063 -1.7900261e-06 -0.08605479
000080 41 b4 26 bd 8f c9 51 bc 72 d3 c9 3e 0d 0f 4f 3d
       -0.040699247 -0.012804403 0.39419132 0.050551463
000090 4d cb ef bd 69 d8 11 be e8 65 0d be e4 e9 04 3b
       -0.117086984 -0.1424271 -0.13808405 0.0020281011
0000a0 70 c6 21 bd 50 bf 47 3e 78 d2 93 3c fe 2b 0f 3d
       -0.039495885 0.19506574 0.018044695 0.034954064
0000b0 6d 5b f1 3d b7 3c 2d 3c 0f 68 05 3e d0 bc 0c be
       0.11785016 0.010573558 0.13027976 -0.13743901
0000c0 39 d6 8d 3b ed c9 29 3d 02 40 06 bd f9 28 94 ba
       0.004328516 0.041452337 -0.032775886 -0.0011303715
0000d0 2a 6b 21 bc d0 ce 86 bd 93 76 fa 3a 64 ce 8f bc
       -0.00985221 -0.06582415 0.0019108824 -0.01755447
0000e0 17 3d 55 bd 0d 50 d8 3b b5 01 5d be c8 e6 14 bd
       -0.052060213 0.0066013397 -0.21582682 -0.036352903
0000f0 1f 40 30 3d b4 90 06 3d 18 7a c2 3d 8e d3 74 3c
       0.0430299 0.032852843 0.09495944 0.014943017

module.bn1.running_var f4 [64]
000000 50 b8 2b 3f e3 ac 29 40 62 3f 10 3c cb 67 51 3e
       0.67078114 2.6511772 0.008804174 0.2044975
000010 a8 dc 74 40 5f c1 60 3f c0 d6 f4 3e fb 21 87 3f
       3.8259678 0.8779506 0.4782009 1.0557245
000020 87 b4 40 3f 10 1e 44 3f 1a fa d5 3e 69 a5 fe 3d
       0.7527546 0.7660837 0.41792375 0.12433893
000030 c9 08 07 2d 7c 83 0c 3f 69 1e dc 3e 98 33 14 3f
       7.675812e-12 0.5488813 0.4299195 0.57891226
000040 d9 88 e6 3f 7b ae e4 3e 35 65 e6 3a af c4 f2 3d
       1.8010513 0.44664368 0.001757777 0.11853921
000050 56 7e 15 40 8f 28 05 40 14 e2 ad 3f 12 49 c0 3e
       2.335836 2.0806005 1.3584619 0.37555748
000060 21 2f 1d 3f b9 b8 a0 3f 72 0e 24 40 98 cf 68 3f
       0.6140004 1.2556373 2.5633817 0.9094176
000070 57 56 f6 3d eb c9 7b 3e 2c f4 ca 3f bf a4 2a 3f
       0.12028187 0.24588744 1.5855765 0.6665763
000080 6b 26 3c 40 bc 48 f4 3d 57 e5 3d 40 f9 03 4d 3e
       2.9398448 0.119279355 2.9671228 0.20021047
000090 87 f7 25 3f f7 63 22 3f 93 df 00 3f ac d4 92 3f
       0.6483082 0.63433784 0.5034115 1.1471152
0000a0 ce fc c7 3f ef 83 aa 3f 09 ce 89 3d d3 57 dd 3c
       1.5624025 1.3321513 0.06728751 0.027019417
0000b0 b4 fa 99 3e cf 98 09 3f c9 45 00 3f 12 b8 14 3f
       0.30074084 0.5374879 0.50106484 0.5809337
0000c0 83 63 05 3a 8b 56 0e 3f 54 db 57 3e 4f 3b 52 3e
       0.0005088376 0.55600804 0.21079761 0.20530437
0000d0 ab 1a b6 3e 00 ba b3 3e ea 50 c2 38 34 91 10 3e
       0.3556722 0.35102844 9.265712e-05 0.1411789
0000e0 e4 7a ce 3e ca c8 70 3f 69 58 8e 3f 78 c5 9c 3e
       0.40328133 0.9405638 1.1120731 0.30619407
0000f0 3d 0b 4d 40 f9 8d 03 3f 35 1d 5c 3e 1c 2b fa 3d
       3.203811 0.5138851 0.21495517 0.12215254

module.layer1.0.conv1.weight f4 [16, 64, 3, 3]
000000 6f 28 ac 3c cd 4f 2b bb 77 16 ff 3c e9 7a d1 bd
       0.021015374 -0.0026140094 0.031138642 -0.102285214
000010 83 75 5f bd 76 b2 69 3c a3 90 29 bd b5 fb 17 be
       -0.054555427 0.01426374 -0.041397702 -0.14842112
000020 d6 a2 8a 3d 2b 94 7d 3d cb f0 e2 3c 1d 67 0e 3d
       0.0676934 0.061908882 0.02770271 0.034766305
000030 e3 44 21 3e 3d e2 5e 3e b0 92 7f 3d 80 d9 b9 3d
       0.15748934 0.2176599 0.06239575 0.09074688
000040 e9 2e a8 3d 99 60 75 ba 3c 74 c5 3b bc fb 9e 3b
       0.082120724 -0.00093604025 0.006025819 0.0048517864
000050 47 b5 7d ba df 59 da 3b a9 92 7f 3b 8d b3 84 b9
       -0.00096781965 0.0066635455 0.0038997328 -0.00025310778
000060 23 d5 f1 3b 52 07 ce 3b 41 3f 3c 3b 56 cd 3e 3e
       0.007380144 0.0062874937 0.0028724226 0.18633017
000070 24 94 f0 bb 33 52 11 be c3 da fa 3d a3 1b 46 bc
       -0.0073418785 -0.14191513 0.12248757 -0.01209155
000080 d8 88 9e bd 3c 18 e7 bc 71 d4 23 bd d2 00 91 3d
       -0.077409446 -0.028209798 -0.03999752 0.070802346
000090 3f 30 cb bd 07 94 c8 3d 68 e8 93 3d 61 cf d1 bb
       -0.099213116 0.09793859 0.07222062 -0.0064028953
0000a0 cb f3 4b bd 81 dd ab bd c5 65 cc 3b 98 65 aa bc
       -0.049793046 -0.08391858 0.006237718 -0.020800397
0000b0 48 5e 92 3b c3 6e d6 3d 9b 42 97 3c f4 84 3c bd
       0.0044668056 0.10470345 0.018464377 -0.04602523
0000c0 97 ce eb 3c 09 5f 33 3b fc 0e 7b bc 7f ce 06 3d
       0.028785033 0.0027369878 -0.015323397 0.032911774
0000d0 9d 98 c8 bc f3 55 5c bd 92 e1 1b 3d 59 63 7c bd
       -0.024486834 -0.053792905 0.038056917 -0.061618183
0000e0 52 fd 8d bd ee 03 b9 3c 4d cd 4d bd 71 99 66 3b
       -0.06933083 0.022584882 -0.05024462 0.0035186673
0000f0 1f 27 50 ba 27 c8 13 bd 4f f2 e3 3d 52 ad 96 3d
       -0.00079404 -0.036079552 0.11130201 0.07357277
000100 72 16 9f 3d 02 fc 8b 3d fe 6f 62 3d 87 2c e3 bc
       0.07767953 0.06835176 0.055282585 -0.027731193
000110 75 26 3e bd 19 41 2c bc fe f2 4f bd 7c 62 61 ba
       -0.046423394 -0.010513567 -0.050768845 -0.0008597744
000120 aa 06 69 bd 97 1f 8b bc 5b 11 83 3d f8 b1 8a 3c
       -0.05689112 -0.016982837 0.06399795 0.016930565
000130 ec 5c 19 3d e4 6d 9e 3d 2b 15 96 3d 30 d2 01 bd
       0.037442133 0.07735804 0.07328256 -0.03169459
000140 bf ad a7 bd 89 4e 17 bd f6 b4 7a bd f6 28 17 3c
       -0.08187436 -0.03694013 -0.061207734 0.009226074
000150 64 81 42 be 58 58 6d 3d 93 24 09 3e f8 0f d6 bd
       -0.18994671 0.05794558 0.13392858 -0.104522645
000160 29 f3 85 3d b9 af 7f 3d c6 20 34 be 39 6d 14 bd
       0.0654052 0.06242344 -0.17590627 -0.036236975
000170 d8 9e 03 3e 55 b1 d3 bd 9f a8 0c bd fc 22 81 3d
       0.12853563 -0.10336558 -0.034340497 0.06305501
000180 79 4d e4 3c 22 6b 8d 3c 9d a2 1b 3d 3d 14 bf bc
       0.027868973 0.017262999 0.037996877 -0.02332508
000190 19 57 0b bc f1 80 97 bc b4 40 8e 3c 3f 00 86 3c
       -0.008504652 -0.018494101 0.017364837 0.01635754
0001a0 fd bb 4a b9 fe c3 99 3c bd 1b a5 3b b3 b6 47 bc
       -0.00019334252 0.018770214 0.005038707 -0.012189555
0001b0 e5 86 02 33 f1 ff b3 32 4a c3 0a 33 ff c5 68 b2
       3.039067e-08 2.0954731e-08 3.2308243e-08 -1.3549196e-08
0001c0 f5 33 a4 b0 2f f6 6f 31 97 45 2e b3 f8 ca d6 32
       -1.1947338e-09 3.4919017e-09 -4.0575824e-08 2.5005178e-08
0001d0 16 19 6d 33 f4 68 9c 3d 81 35 f2 bc 49 14 90 3c
       5.5203678e-08 0.07637206 -0.029566528 0.017587798
0001e0 65 9a 94 3d ff 80 91 bd 4b 37 cf bd 15 7e 4f 3e
       0.07256011 -0.07104682 -0.10117968 0.2026294
0001f0 4e 11 17 bb 0a d5 17 be 8e f0 de bb 6d a6 56 3c
       -0.0023051086 -0.14827362 -0.0068035787 0.013101202
000200 c4 bf 9c 3c eb 1c 58 bc 27 a8 59 3a 80 15 4c ba
       0.01913441 -0.013190488 0.000830295 -0.0007785186
000210 91 a9 c0 bc ec 95 ce bc 08 ff 06 bd 40 bf 9f 3d
       -0.023518356 -0.025217973 -0.03295806 0.0780015
000220 f2 22 d8 3d 33 68 6e 3a 51 67 8d 3d 7e 54 56 3d
       0.1055354 0.00090945064 0.06904472 0.05232667
000230 b9 b0 be bd 3e a0 05 bd ef 2c 0e 3d 41 79 b6 bb
       -0.09311051 -0.032623522 0.03471082 -0.005568654
000240 d2 4f 89 bd 32 82 76 3d 7f d9 98 3d 49 ab 2e bf
       -0.06704678 0.060182758 0.07463359 -0.6823011
000250 75 83 71 be 0e 04 da 3d 4d 00 a4 be 17 dc c2 bd
       -0.23585303 0.106453046 -0.3203148 -0.09514635
000260 fa 91 41 3d e3 e9 76 bb d4 b8 3f bc c6 67 d9 bb
       0.047258355 -0.0037676028 -0.011701781 -0.006634685
000270 a9 16 03 bc 0d 9b dd bc 30 8d cf bc 35 64 2b bd
       -0.008001008 -0.027051473 -0.025335878 -0.04184361
000280 f2 64 34 bd 81 e9 99 bd c2 f2 d7 3a df 2f 31 b9
       -0.04404158 -0.075152405 0.0016475546 -0.00016897869
000290 c8 f2 a2 ba 7d 95 b5 3a b3 9b 3d 39 11 8c 08 b9
       -0.0012431974 0.0013853755 0.00018082447 -0.0001302215
0002a0 2b b5 8d 3a b4 40 44 3a 57 08 b9 b8 1e 96 8d 3c
       0.0010811439 0.0007486448 -8.823041e-05 0.017283496
0002b0 b3 25 6c bc 3a 12 6f bc 7d 13 3d 3c 7b 2e 83 bc
       -0.014413285 -0.014591748 0.011540291 -0.016013375
0002c0 62 f9 1f bc 03 6b fb bb 67 19 f8 bc 21 09 20 bd
       -0.009764047 -0.007672669 -0.03028555 -0.039071206
0002d0 11 41 2c 3d 9f 0b cb 3d c8 c5 83 bd d8 e3 4f 3e
       0.04205424 0.09914326 -0.06434208 0.20301759
0002e0 8c 42 56 3e 9e 9d 83 bd 20 3f c4 3d 6d f7 67 3d
       0.20923823 -0.064265475 0.09582353 0.056632448
0002f0 ec 96 32 bd 43 48 47 bd 46 a7 7b bd ba 1f 64 bd
       -0.04360096 -0.0486529 -0.06143882 -0.05569432
000300 99 c7 68 be b3 33 3c be 44 61 4b bd 2f e1 7a be
       -0.2273239 -0.18379097 -0.049653307 -0.24499963
000310 bc 4f 5a be e8 32 b4 bd 37 16 a1 3d 81 c8 6e bd
       -0.21319479 -0.08798772 0.07865565 -0.058296684
000320 c3 80 53 bd 8f d2 13 be 9b 7f 6a be 39 01 c3 bd
       -0.05163647 -0.1443579 -0.2290024 -0.095217176
000330 4f 8a 5c be 9f 16 cc bc 7d 08 ef 3d be 21 5b 3d
       -0.21537136 -0.02491313 0.11671541 0.053498976
000340 07 1a 96 bc 82 e6 06 3d aa 0e 91 bc 81 1e 75 bd
       -0.018322958 0.032934673 -0.017707188 -0.059843544
000350 ab d7 dd 3b e0 42 c2 bb 65 31 dd bc e4 bb c5 3c
       0.0067700944 -0.0059283823 -0.027001092 0.024137445
000360 f0 22 ed bd 3e 1a cf bb cc 1e b5 3d 09 f2 0d 3e
       -0.115789294 -0.006320267 0.08843765 0.1386186
000370 32 b3 e4 bd 67 de da bd 51 b4 01 3d 1e 6e 6d bd
       -0.11166991 -0.10686951 0.031666104 -0.057966344
000380 48 52 73 3d f5 c1 2e 3e 81 84 cc 3c 1b 8f a9 bd
       0.05940464 0.17066176 0.024965527 -0.08279248
000390 f3 ad 86 3d 7b e0 93 bd 97 f2 ed bd 9d f0 31 3d
       0.06576147 -0.072205506 -0.11618536 0.043442357
0003a0 11 2b 30 bd a7 5f 33 bd 80 72 03 be d7 65 d4 3c
       -0.04300982 -0.043792393 -0.12836647 0.025927467
0003b0 3a 62 da 3d d1 e3 4a bd e5 a9 4d bd bb 18 25 bc
       0.106632665 -0.04953367 -0.050210852 -0.010076697
0003c0 e0 23 ab 3d 58 aa 29 3c ae fc 88 bc dd e1 8b 3c
       0.08356452 0.0103555545 -0.01672205 0.017075473
0003d0 c8 9d 51 3d a4 9e f5 3d 29 6d d7 bd fb f6 1a bd
       0.051175863 0.11993149 -0.105188675 -0.037833195
0003e0 50 af b9 3d 21 4a a3 bd a3 6e b1 bd 29 7a 62 3d
       0.09066641 -0.07973123 -0.086636804 0.055292282
0003f0 1c 4e d7 3d 86 c4 23 3b 6b 0c a1 bd 5b 13 30 3d
       0.10512945 0.0024988963 -0.07863697 0.04298721

module.layer1.0.bn1.weight f4 [16]
000000 68 d1 1a 3f 72 50 36 3f dd 0c da 3e 76 c6 20 3f
       0.6047578 0.712165 0.4258794 0.6280283
000010 25 a1 11 3f 10 9c 02 3f db fe 02 3f 2a c2 49 3f
       0.5688651 0.5101938 0.5117013 0.78811896
000020 06 97 ef 3e d3 ff c4 3e d9 ba 3d 3f 37 51 01 3f
       0.4679491 0.38476428 0.7411323 0.5051455
000030 89 75 02 3f 93 8a f4 3e 60 3f 2f 3f f0 e4 3d 3f
       0.50960594 0.47761974 0.6845608 0.74177456

module.layer1.0.bn1.bias f4 [16]
000000 e8 38 ee bd 7e 87 ab 3e e3 e2 a8 bd 9f cf a0 bd
       -0.11631948 0.3350181 -0.082464 -0.078521006
000010 9f 38 9b 3e 96 d5 3b be a9 3b a4 bd 07 7d 12 3e
       0.30316636 -0.18343195 -0.08019192 0.14305507
000020 84 f3 36 be 9f 1d 1a 3e a5 53 43 bf 86 c2 08 be
       -0.17866331 0.15050362 -0.76299506 -0.13355455
000030 65 94 a0 be 43 2d 46 be be 99 5f 3e a6 e1 e3 be
       -0.31363216 -0.19353203 0.21835992 -0.44508094

module.layer1.0.bn1.running_mean f4 [16]
000000 86 70 10 bf 9c 38 27 be 22 ce e1 be 09 5b 59 be
       -0.564217 -0.16330189 -0.4410258 -0.21226133
000010 07 59 ee be 59 74 b4 be 5c 38 39 bf b6 a1 4a bf
       -0.46552297 -0.35245016 -0.7235162 -0.79153
000020 c2 ed db be 07 76 18 bf 0a f2 5d 3e 52 ab a1 3d
       -0.42954832 -0.59555095 0.21674362 0.07894005
000030 58 60 d6 be f2 53 00 bf 98 ae 9d be 09 27 ba bd
       -0.4187038 -0.5012809 -0.30797267 -0.090894766

module.layer1.0.bn1.running_var f4 [16]
000000 de d2 73 3f db ae c6 3e b5 31 2c 3e 59 e9 39 3f
       0.9524363 0.3880528 0.16815837 0.72621685
000010 1b 54 3d 3f d0 be 8b 3e ab db f8 3e d3 3e 0d 3f
       0.7395646 0.27294016 0.48605093 0.5517399
000020 5b 18 61 3e e1 b4 1b 3e 7f 12 40 3e 65 2f 3a 3e
       0.21981947 0.15205719 0.18757056 0.18182142
000030 79 6c 18 3e dc 4e 52 3e f6 32 bc 3e b2 58 68 3e
       0.14885129 0.20537895 0.3675763 0.22690085

module.layer1.0.conv2.weight f4 [16, 16, 3, 3]
000000 20 e0 95 3d 5b 8e 0b 3d ad 6d b3 3c 4d 59 83 3d
       0.07318139 0.034071308 0.021902883 0.06413517
000010 8c cb 51 bc 14 fa f9 bc 62 f1 76 3d b3 6b 03 3d
       -0.012804877 -0.030514754 0.060288794 0.03208513
000020 69 01 05 3e 45 fc df bd 3f 58 b1 3d 19 97 01 3e
       0.12988819 -0.109367885 0.0865941 0.12655295
000030 e2 22 f9 bd ec 05 c5 bd 0f 4a 13 3d 94 d7 0c bc
       -0.121648565 -0.0962027 0.0359593 -0.00859632
000040 8c 1e de bc 6f e6 ae 3d 18 56 f4 3d 59 a0 ae 3d
       -0.027114175 0.085400455 0.119304836 0.08526678
000050 9d 08 20 be 9d 5e a5 3d b2 4c 21 bc 72 9d 2f be
       -0.15628286 0.08074687 -0.009844946 -0.17149904
000060 e6 71 87 bd b5 4b 27 be fc 99 47 be 3c 1f fe ba
       -0.06613521 -0.16337474 -0.19492334 -0.0019387971
000070 8a 1d f4 3d b7 d9 0b 3e 21 da 42 3d 80 6b d2 3d
       0.11919697 0.1365727 0.047571305 0.1027441
000080 80 d9 1e 3e 95 b8 a7 3d 5c c3 08 3e ad c1 08 3e
       0.15512657 0.08189503 0.13355774 0.13355131
000090 38 03 49 bd 62 82 82 bd 60 4c 18 bd c4 f0 1f 3c
       -0.049075335 -0.06372525 -0.037182212 0.009761993
0000a0 3a 39 60 3c fe 7a 77 3d 69 e6 a4 bd 12 e8 93 3c
       0.013685519 0.06042003 -0.0805176 0.018054996
0000b0 9a e4 52 3e cb 0c a8 bd 5a 02 93 bc b2 8a 57 3d
       0.20595017 -0.08205565 -0.017945457 0.052622505
0000c0 0e 25 f6 bd ce 48 87 bd f8 e6 a9 3d 84 82 cf bd
       -0.12018786 -0.06605683 0.08296007 -0.10132316
0000d0 99 01 b2 bd cd 1f 05 3e d8 75 ab bb 4e d6 3e 3d
       -0.08691711 0.13000412 -0.005232554 0.046591096
0000e0 14 b0 ea 3d 46 35 17 3e 18 76 d0 3d 18 b8 d2 bc
       0.114593655 0.14766416 0.101787746 -0.025722548
0000f0 1f 52 48 3e a4 17 62 3d 5a 73 a6 bd a0 23 56 bd
       0.19562577 0.055198327 -0.0812747 -0.05228007
000100 7f 87 06 bd 0d 44 4d 3c ca 8c d6 3b 07 84 cf bc
       -0.032844063 0.012528432 0.006547545 -0.02533151
000110 57 9b 8c bd ab de 3d 3d fb 4e 13 be a3 8c 2d be
       -0.06865566 0.04635493 -0.14385597 -0.1694818
000120 09 5e 4d 3c fc 9c f9 3c 3a 78 04 3d f1 b2 36 bd
       0.012534627 0.030470364 0.03234122 -0.044604246
000130 7a a9 d7 3c dd 73 ab 3d 84 d5 29 bd 43 e8 bf 3d
       0.02632593 0.083717085 -0.04146339 0.09370472
000140 90 f7 27 3e ad 5b d8 bd cd 15 48 3d 79 0b 8e 3e
       0.16403031 -0.10564361 0.048848916 0.27743128
000150 fa 9b 13 be 00 f8 b6 3d ba 5a 7b 3e a7 95 65 be
       -0.14414969 0.08934021 0.24546328 -0.22420369
000160 80 bc 4e bc 14 ba 71 3e fa e6 07 be dc c8 82 be
       -0.012618184 0.2360614 -0.13271704 -0.2554387
000170 05 76 07 be 2a 66 60 bb 2c 5a 01 be b6 e3 54 bc
       -0.13228615 -0.0034240582 -0.12632054 -0.012993744
000180 0f 11 3a 3b 59 b3 fb bd 33 2e 4e bc 6f e1 a4 bc
       0.0028391515 -0.12290067 -0.012584257 -0.020127026
000190 41 bf 07 be a2 a3 d5 3b d1 66 53 bd 82 d1 2b be
       -0.13256551 0.0065197507 -0.051611725 -0.1677914
0001a0 b7 ee e3 bd 2d bb b7 3d a3 ee 0e bd c9 0b 9b bd
       -0.111295156 0.08971248 -0.03489555 -0.07570607
0001b0 e5 50 35 3e 8d 21 cd 3d 1b 0d cf bd 9d 54 0c 3c
       0.1770664 0.10016165 -0.101099215 0.008565095
0001c0 97 9a 2a bd 0a 15 2e be 5f b5 f9 3c d5 79 8b bc
       -0.041651335 -0.17000213 0.030481992 -0.017025867
0001d0 09 13 b8 bd f1 1a 90 bd 60 96 7b 3e 16 0c c0 3e
       -0.08988006 -0.07036389 0.24569082 0.3750922
0001e0 29 b0 68 be 06 91 2d bd 9e cc fc 3d 5c c5 8f be
       -0.2272345 -0.042374633 0.12343715 -0.2808026
0001f0 ec a8 3b be e4 91 ca bd a3 a2 0a 3e ea 63 95 3d
       -0.18326157 -0.09891108 0.13538603 0.07294448
000200 a2 d7 f0 bb 4a da 37 3c f4 c3 28 bc 4b ac ff 3c
       -0.007349924 0.011221478 -0.010300625 0.031210085
000210 22 a5 1d bd e4 bf 4f 3d 9e f7 e0 3c 9b e5 1f bc
       -0.03848756 0.05072011 0.027461823 -0.009759332
000220 bc 4e 43 be 29 39 4d be 7f 26 81 bc b1 35 e9 bd
       -0.19073004 -0.20041336 -0.015765427 -0.11387194
000230 55 4a 94 bd 33 95 61 3b ea ba 16 be ae bb 5a bd
       -0.0724074 0.0034421205 -0.1471974 -0.05340164
000240 37 35 45 bc 90 b8 e6 3a 3d 1f 18 bd c8 5f 61 bd
       -0.012036613 0.0017602611 -0.037139166 -0.055022985
000250 e7 34 6e 3d 48 c2 28 3c 24 2e 29 bd 22 93 79 bd
       0.05815592 0.0103002265 -0.04130377 -0.060931332
000260 95 0f 3a 3e 4c 1f 37 bd f6 83 cf 3a 28 09 cf 3d
       0.18170007 -0.04470758 0.0015832174 0.10109168
000270 ab 15 db 3d c1 60 64 bc 98 a3 8c 3d ee b9 99 bc
       0.10697492 -0.013939084 0.068671405 -0.018765416
000280 6b 18 11 be 48 48 33 3d 28 5f d1 bd e7 7d 16 be
       -0.14169471 0.043770105 -0.10223228 -0.14696465
000290 ab 93 a7 be b0 12 62 bd 54 df 84 bd c0 be d7 bd
       -0.3272985 -0.055193603 -0.06487909 -0.105344296
0002a0 7c b9 c3 3d 27 cd 0e 3d cc 9a 59 3e d0 b1 93 3d
       0.09556863 0.034863617 0.21250457 0.072116494
0002b0 c3 7a fa 3d 96 76 e1 3c 5e e1 8c 3a 0b df 8e 3d
       0.12230446 0.027522366 0.0010748317 0.06976136
0002c0 a6 82 fd 3c 54 7d 0f be 50 69 64 be 34 be 31 bd
       0.030946087 -0.14012653 -0.22305799 -0.043394282
0002d0 46 58 98 3d 4f e2 62 3d 0e 30 1e bd 58 8a 4e 3d
       0.07438712 0.055391606 -0.038620047 0.050424904
0002e0 08 c9 a9 3d b5 46 a3 3d 94 44 36 bd 95 71 bc 3c
       0.08290297 0.07972471 -0.044498995 0.023003379
0002f0 11 e4 46 bc 7e 48 a4 3b 44 ba 4f bd 47 23 bc 3c
       -0.012139336 0.0050135246 -0.050714746 0.02296604
000300 18 98 0f 3e d3 67 54 3d 35 1b de 3c 84 f0 b5 3d
       0.14022863 0.051856827 0.027112583 0.08883765
000310 e0 df 50 bd e3 a9 f5 bd aa a7 f0 bc dc 43 1c bc
       -0.050994754 -0.11995294 -0.029376823 -0.009537663
000320 6f c4 9a bd 84 55 de 3d dd f6 35 3b 90 9e ae bd
       -0.07556998 0.108561546 0.002776555 -0.08526337
000330 c6 68 ab 3d 5b e5 ed bc 1f 58 95 bd 9e fb 4b bd
       0.08369593 -0.02904003 -0.072921984 -0.049800508
000340 55 24 8a bd b9 b2 27 3d 2f ee fb 3d 3b 72 b2 3d
       -0.06745211 0.040941928 0.12301289 0.08713194
000350 b2 2c c1 3d 14 8e 56 3c 6a d1 6d 3c 77 21 2e 3d
       0.09432353 0.0130953975 0.01451526 0.042512383
000360 62 f7 1f bd 48 77 09 3e 83 08 0c bd d5 e5 61 3d
       -0.039054282 0.13424408 -0.034187805 0.055150826
000370 f9 3e 8f 3e 42 05 29 3e 30 b2 c5 bd 5f 14 cf bb
       0.27977732 0.16505912 -0.09653127 -0.006319567
000380 b9 82 7b 3d 3d fe 02 3e 78 f4 b4 3e 21 0b 79 3e
       0.061403964 0.12792297 0.35342765 0.24320652
000390 c1 7a 5e be 1f c4 01 bd d0 8a 65 3e 2d 0a 41 bd
       -0.21726514 -0.031681176 0.22416234 -0.047128845
0003a0 6b 78 a5 be 1e 52 bf bd 6e d6 0c bd 66 13 ab bd
       -0.32318434 -0.093418345 -0.034384184 -0.08353309
0003b0 e3 30 f9 bc 91 f9 95 bc 8b da c7 bd 8e b2 8d bd
       -0.030418819 -0.01830748 -0.09758481 -0.06918822
0003c0 d8 5f e6 3c ec 18 58 bd 87 81 1e bd 5d f4 fa bb
       0.028121874 -0.052758142 -0.038697746 -0.007658525
0003d0 c9 12 b0 bd e6 00 5a bd 0e e4 d6 bd 19 2d 9e bd
       -0.08597333 -0.053223513 -0.10492717 -0.077234454
0003e0 1e 93 e2 bc fb 62 8c bd dd 44 af bd 59 55 ad 3d
       -0.027658042 -0.068548165 -0.085580565 0.084635444
0003f0 96 f2 fa 3d a8 f8 0a 3e 0d 5b dd 3d e1 7b 87 bd
       0.12253301 0.13571417 0.10808382 -0.06615425

module.layer1.0.bn2.weight f4 [16]
000000 16 9b d3 3e 02 83 e3 3e 33 ba 2c 3f 64 7f 69 3f
       0.4132926 0.4443589 0.6747162 0.9121001
000010 57 1f c2 3e 71 7d 81 3f 67 2a 23 3f 24 5b 6a 3f
       0.37914535 1.0116407 0.63736576 0.9154532
000020 be 43 67 3f d8 d2 31 3f ea 6e 89 3e a7 9c a4 3e
       0.9033774 0.6946235 0.26842433 0.32150766
000030 3d 25 96 3e 83 a0 74 3f 3e 05 16 3f 62 6b 27 3f
       0.29325286 0.9555742 0.5860175 0.6539823

module.layer1.0.bn2.bias f4 [16]
000000 ac da 64 3e 7f 09 f6 bc a1 18 5d bd de 7a ad bc
       0.22349042 -0.030033825 -0.053978566 -0.021176752
000010 cf 29 31 3e 65 97 cd bd 79 91 8c 3c ea ca 43 bc
       0.17301105 -0.10038642 0.01715921 -0.011950234
000020 a4 00 b7 bd be 56 1b 3e fb 9a b2 3e 78 28 03 3e
       -0.08935669 0.15169808 0.34883866 0.12808406
000030 de 79 45 3e d8 90 c4 bd f7 50 b6 bd 81 86 87 3e
       0.1928477 -0.09597939 -0.089021616 0.26469806

module.layer1.0.bn2.running_mean f4 [16]
000000 07 d1 6d 3d a1 a1 33 3e c4 1c 25 3e ab 7d 9a 3d
       0.058060672 0.17542125 0.16124254 0.075435005
000010 73 90 d8 bd 32 7f a3 be ee 70 a7 3e 15 51 49 be
       -0.105744265 -0.3193298 0.32703346 -0.19659837
000020 4e b0 79 be 78 91 15 bf 2b 9f e8 bc 88 6b 44 3f
       -0.24383661 -0.5842509 -0.02839621 0.7672658
000030 2d 69 04 3e 98 60 6f be b1 30 23 bf 33 07 5a bf
       0.12930746 -0.23376691 -0.6374617 -0.85167235

module.layer1.0.bn2.running_var f4 [16]
000000 1f 3c 58 3e 01 e3 05 3e 5f 60 b6 3e 88 8a 14 3f
       0.21116684 0.13074876 0.356204 0.5802388
000010 4a df 46 3e e3 91 51 3f e7 8d e6 3e 67 23 67 3f
       0.19421116 0.8186323 0.45030138 0.90288395
000020 b0 fb 1b 3f 28 79 04 3f 40 9e 33 3e e2 25 ea 3d
       0.6093092 0.5174737 0.17540836 0.11433007
000030 92 1e 26 3e 90 30 1d 3f 09 72 94 3e 9a 04 10 3f
       0.16222599 0.61402225 0.28993252 0.5625702

module.layer1.0.shortcut.0.weight f4 [16, 64, 1, 1]
000000 50 97 16 3c 90 99 a5 3d de 4f 49 3c 70 bd 11 be
       0.009191349 0.0808593 0.012287108 -0.14232421
000010 2c 6c b3 bd 7a b2 94 be 0f 98 74 be 2b 2e 22 3e
       -0.087608665 -0.29042417 -0.23886131 0.15837924
000020 d2 06 fa bd ad b2 80 be dd ab 46 3e 76 af 91 bc
       -0.12208332 -0.2513632 0.19401498 -0.017783862
000030 1a a9 d4 b3 bd 1e 71 bd b0 26 76 be 98 0d 93 3d
       -9.902779e-08 -0.058867205 -0.24038196 0.07180327
000040 11 ab dd bc 56 cc b5 bd f3 c4 41 3b 7e 8b c9 bb
       -0.02705911 -0.088768646 0.0029566854 -0.006150662
000050 78 df b0 3d 24 a1 76 bd 7e 41 37 3e ee f7 56 be
       0.08636373 -0.06021227 0.17896077 -0.20993015
000060 83 d6 89 3b 4e fd 06 3e 5f f2 2b 3a 59 b6 2a 3b
       0.00420648 0.13182566 0.00065592484 0.002604863
000070 92 5d 8c bd 25 6e 96 3e a3 94 e2 3d 09 1a 5a be
       -0.068537846 0.2938091 0.110635065 -0.21298994
000080 74 c9 19 3a 51 c8 27 3d bc e7 c6 3d e9 ab d5 bd
       0.00058665057 0.04096252 0.097121686 -0.1043318
000090 87 74 3b be fa 82 25 be eb 3d b6 be 25 47 74 3c
       -0.1830617 -0.16163245 -0.35594115 0.01490954
0000a0 b7 1c b6 3c d1 35 c9 bd e0 17 18 3c 04 20 11 bd
       0.02223049 -0.09824718 0.009283036 -0.035430923
0000b0 cc e3 d3 3d 8b bc 33 3d c9 51 0c bd 84 05 62 bd
       0.10346183 0.04388098 -0.034257684 -0.05518104
0000c0 0c 0f 07 ba 92 cc 1b 3d fe 67 73 bd e7 d2 ac 3d
       -0.00051520835 0.03803689 -0.059425347 0.08438664
0000d0 bb 54 8b 3e 73 e9 0c be da 6c e3 ba 01 90 94 bd
       0.27213082 -0.13760929 -0.0017351166 -0.07254029
0000e0 27 a2 8b 3d a2 b5 8a 3e 14 d5 e4 bd db 4e 88 be
       0.068180375 0.270917 -0.11173454 -0.26622662
0000f0 b2 2e 7f 3d 86 71 19 3d b8 72 d4 3d 9d 67 ec bd
       0.06230039 0.03746178 0.10373443 -0.115432
000100 6a 04 db bd 38 92 ce bc 1c 4a ae bb f9 6e b0 3d
       -0.10694201 -0.025216207 -0.005318893 0.08614916
000110 7b 07 51 bd f6 29 dc bd aa eb 45 3e 2a 51 11 be
       -0.051032525 -0.10750191 0.1932818 -0.14191118
000120 e1 43 58 3e 17 06 3a bd 88 ea 04 be 89 bf c8 3c
       0.21119644 -0.045415964 -0.12980092 0.024505394
000130 82 38 1d 34 14 b0 41 3e 55 92 bc bd 62 fd 7c 3e
       1.4642322e-07 0.18914825 -0.09207598 0.24706033
000140 dc fc 97 3d 7a 93 12 3d fb 45 49 bb 6c 11 02 bd
       0.07421276 0.035785176 -0.0030711878 -0.031754896
000150 88 c0 0c be ca a3 99 3c 64 51 62 3e 18 9f 0f be
       -0.1374532 0.018754859 0.2210136 -0.14025533
000160 a7 a9 f8 3b ae ab 2e be 57 4d d8 3d 3c e9 d8 bc
       0.0075885835 -0.17057678 0.105616264 -0.026478402
000170 fa 0c 1b 3e 6d bb 08 3e c2 f3 29 be c9 a4 08 be
       0.15141669 0.13352747 -0.16596892 -0.1334411
000180 4b 3b 93 3d fe 76 d6 3d 3f 2c 07 bd 78 ec 63 3d
       0.071890436 0.10471915 -0.03300118 0.055645436
000190 1f 52 bd bd ed a4 b3 bd 6f 15 4a bd 58 55 31 3d
       -0.09244179 -0.087716915 -0.049336847 0.04329428
0001a0 7d 4c a1 3d 87 7d 96 bd 6c a6 02 bd d0 5c 24 3c
       0.07875917 -0.07348161 -0.031896994 0.010031894
0001b0 6e 94 90 3b 6f d1 3f 3e 53 24 1a be 90 bc b8 bd
       0.0044122254 0.18732236 -0.15052919 -0.090203404
0001c0 05 2b 1c ba 2c ad 51 bd 16 a6 b0 be f2 14 68 be
       -0.0005957338 -0.05119054 -0.34501714 -0.2266424
0001d0 3b eb 8e bd 49 1f 25 3d 13 01 33 39 37 a6 36 be
       -0.069784604 0.04031304 0.0001707117 -0.17836843
0001e0 e9 2a c6 3d c9 c3 2f be 60 9e ee bb c3 e8 21 bd
       0.09676153 -0.1716453 -0.0072820634 -0.03952862
0001f0 f8 81 08 3e e5 02 82 3d ee b9 52 bd 8b d2 c3 bd
       0.13330829 0.06348208 -0.051446848 -0.09561642
000200 35 b4 6d 3d a0 e9 50 be 82 f0 12 3b 3a 85 e8 bc
       0.058033187 -0.20401621 0.0022421186 -0.02838384
000210 ed 20 45 bd 92 80 aa bd 00 3c 7e 3d 1d 96 d9 bd
       -0.048127104 -0.08325304 0.06206894 -0.10624335
000220 19 5d 21 3d f0 82 c4 3c 14 1b e6 3c 9e d6 fe 3c
       0.039395425 0.023988217 0.028089084 0.031108197
000230 ac 8e 45 32 6a 5c 8c bd 9a f9 f0 bc af 6a fb 3c
       1.1499349e-08 -0.06853564 -0.029415894 0.03069052
000240 87 78 82 3e 74 90 ed bc 85 d0 5f ba 38 0b 4a bd
       0.2548258 -0.028999545 -0.0008537847 -0.049327105
000250 41 61 c5 be c3 c9 f0 3d ed 84 21 3d 23 93 84 bd
       -0.3855076 0.11757233 0.03943341 -0.064733766
000260 2c 5b bc bd 11 40 a1 3d 25 bf 45 bd 9b 6a 3b bd
       -0.09197077 0.07873548 -0.048277993 -0.045755964
000270 c4 1b 16 3d 1c 39 0f 3d 30 50 10 be f3 09 12 3c
       0.036647573 0.034966573 -0.14093089 0.008913505
000280 ed 4e 39 3e 06 30 83 bd 64 e7 94 3d bd 05 a9 bc
       0.18096514 -0.06405644 0.07270697 -0.020632619
000290 5a 6c 49 bd 7a 76 b6 3d 59 f3 36 bd 8b 1c 0d bd
       -0.049175598 0.08909316 -0.04466567 -0.03445105
0002a0 3c bd 81 bd b1 ba fe bd ea e4 45 3d ed c3 22 ba
       -0.06334922 -0.12437952 0.048314013 -0.0006209005
0002b0 40 7a 7c 3c 1f 0a b3 bc ea 24 63 3d 52 bf 4b 3b
       0.015410006 -0.021855412 0.055455126 0.0031089378
0002c0 35 23 a0 ba 70 47 d3 bd 84 4b 6e 3d e3 b5 4b bd
       -0.0012217524 -0.1031636 0.058177486 -0.049734008
0002d0 80 ed cc 3d 1f 8d 94 3b 58 2c 43 3a 79 e0 0b 3e
       0.10006237 0.0045334245 0.00074452674 0.13659848
0002e0 e7 59 88 3c 25 cb 13 3d f9 42 16 bd 75 63 75 bc
       0.016644431 0.036082406 -0.036684964 -0.014977326
0002f0 82 17 8f bd 69 5c ee bd 48 d1 f7 3c 50 91 13 3b
       -0.06986906 -0.116387196 0.03025116 0.0022517033
000300 dd aa af bd ce d7 c5 bd 0c 9c 09 3c fe 56 57 3d
       -0.085775115 -0.09660302 0.008399021 0.052573197
000310 03 93 0f 3e 13 81 4b bd 7e 6b ae bc 9c e6 f0 bd
       0.14020924 -0.04968364 -0.02129149 -0.11762735
000320 a8 f3 8c bc 12 33 9e bd d9 a0 8f 3d 59 ed f5 3b
       -0.017206028 -0.07724585 0.07013101 0.0075051007
000330 3d e2 ee 33 57 a7 87 bd 78 57 3d 3c ee 19 60 bc
       1.1123891e-07 -0.066237144 0.011556499 -0.013678057
000340 76 b6 f9 3c 81 f7 cc bc 9a ba e4 3a 75 85 4b bc
       0.030482512 -0.025020363 0.0017450631 -0.012421955
000350 f8 c4 81 bc d4 41 64 3c fc 95 ba bd bc d9 d0 bc
       -0.015840992 0.01393171 -0.091106385 -0.025494449
000360 8e 48 eb 3c af e4 fe bb 78 ad 96 bc a8 3f 71 be
       0.02872112 -0.007778726 -0.018393263 -0.23559439
000370 d1 59 cc bc 98 88 7c 3d 74 94 fd bd 50 dd 1e 3d
       -0.024945172 0.061653703 -0.12381831 0.03878528
000380 57 f4 30 bc e2 f1 3e 3c bc 53 36 bc fb 3f 8c 3b
       -0.010800443 0.011654349 -0.011128362 0.004280088
000390 30 ea 09 bd fc ca a3 3d 92 7e 49 3d 5f f2 bf bc
       -0.033670604 0.079977006 0.049192972 -0.023431001
0003a0 d2 97 de bd 4a 6c 4b 3c 44 93 95 bd 53 45 92 3a
       -0.10868801 0.012415955 -0.07303479 0.0011159576
0003b0 60 ec 7c 3c 98 02 cc 3b 86 d9 40 3d 11 30 81 bc
       0.015437216 0.006225895 0.047082447 -0.01576999
0003c0 e1 08 50 3a 31 71 13 3d 80 0e bf bd 39 8b aa bd
       0.00079358934 0.03599662 -0.093289375 -0.08327336
0003d0 58 01 da bd fd b5 a6 bd 32 68 f1 39 eb a4 9a bb
       -0.106447875 -0.0814018 0.00046044734 -0.004719367
0003e0 be bd 2b bd a0 cf 3a bd a4 c1 99 3c dd c0 c3 3c
       -0.041929 -0.045608163 0.018769093 0.023895675
0003f0 5f b3 17 bd 91 f1 93 3d 51 fa 7d bc eb 01 6c 39
       -0.037036296 0.072238095 -0.015501575 0.00022507428

module.layer1.0.shortcut.1.weight f4 [16]
000000 87 fc bd 3e b2 f1 d7 3e eb f5 c1 3e 90 b6 11 3e
       0.37106726 0.42176586 0.37882933 0.14229798
000010 f9 d8 c8 3e 35 3a 2c 3e 67 b5 d2 3e 3b 40 18 3e
       0.39228037 0.16819079 0.41154024 0.14868252
000020 2f bc 9f 3e 0d 6f d8 3d dc 01 a9 3e 78 db e0 3e
       0.3119826 0.10568056 0.3300923 0.4391744
000030 69 33 f4 3e 7c 21 06 3e 0e 84 0d 3f ee 84 12 3f
       0.47695473 0.13098711 0.55279624 0.57234085

module.layer1.0.shortcut.1.bias f4 [16]
000000 ac da 64 3e 7f 09 f6 bc a1 18 5d bd de 7a ad bc
       0.22349042 -0.030033825 -0.053978566 -0.021176752
000010 cf 29 31 3e 65 97 cd bd 79 91 8c 3c ea ca 43 bc
       0.17301105 -0.10038642 0.01715921 -0.011950234
000020 a4 00 b7 bd be 56 1b 3e fb 9a b2 3e 78 28 03 3e
       -0.08935669 0.15169808 0.34883866 0.12808406
000030 de 79 45 3e d8 90 c4 bd f7 50 b6 bd 81 86 87 3e
       0.1928477 -0.09597939 -0.089021616 0.26469806

module.layer1.0.shortcut.1.running_mean f4 [16]
000000 e3 d6 4c bd 17 2d c8 bd 49 73 68 bd b5 13 3b be
       -0.05000962 -0.09774225 -0.05675057 -0.18269236
000010 33 ee da be 9b 7f 8b 3d 95 07 b0 bd 02 8d 00 3e
       -0.42759857 0.06811448 -0.08595196 0.1255379
000020 fa e3 f1 3a 78 a8 4f bc 05 95 fa 3d d5 1c 23 3f
       0.0018454783 -0.012674443 0.122354545 0.6371587
000030 ac 89 64 3c 94 70 2c 3d c3 eb 61 bc 10 f0 c7 be
       0.013948839 0.04209955 -0.01378912 -0.3905034

module.layer1.0.shortcut.1.running_var f4 [16]
000000 27 d9 81 3d d2 3e 38 3d 1b 41 91 3d 58 34 e6 3c
       0.06340247 0.044981785 0.07092496 0.028101131
000010 e6 cf 84 3d c8 c5 43 3d ed 50 b4 3d 30 c9 45 3d
       0.06484966 0.04779604 0.08804498 0.04828757
000020 10 2f c1 3d 61 5d 69 3c 92 b3 81 3d b2 13 48 3d
       0.094328046 0.014243455 0.063330784 0.048846908
000030 e6 ec a2 3d c7 6a 69 3c 78 ce ca 3d c1 5a f4 3d
       0.07955341 0.014246649 0.09902662 0.119313724

module.layer2.0.conv1.weight f4 [32, 16, 3, 3]
000000 8f c5 fe bd 96 56 14 be 78 48 02 be d8 9a 11 bd
       -0.12440025 -0.14486155 -0.12722957 -0.03554806
000010 90 2e 36 bc ea 51 9f bd 8b cf 4c bd 86 26 d5 bc
       -0.0111195 -0.07779296 -0.050002616 -0.026019346
000020 ed 5a 00 be 10 29 39 bd 06 44 0e bc e9 6a 8b bd
       -0.12534685 -0.045205176 -0.00868321 -0.06807501
000030 c6 90 08 bd 6f 98 ab 3d 81 2f c2 3c f0 2e 06 be
       -0.03334119 0.08378684 0.023704292 -0.13103843
000040 93 cc 34 bd 99 67 2a bd 95 46 aa 3d 97 61 13 3e
       -0.04414041 -0.041602705 0.08314244 0.14392696
000050 f1 2a 0d 3e 27 2d 53 3e 15 5f 9b 3e c4 b9 76 3e
       0.13785912 0.20622693 0.3034598 0.24094301
000060 2e 8f 15 3e 11 6e b3 3e f2 d5 33 3e 69 d4 15 bd
       0.146054 0.35044912 0.17562082 -0.036579523
000070 9c 86 ae bc 46 12 39 3d 8b bf ce bd 2f 9e e1 bd
       -0.021304421 0.045183443 -0.10095128 -0.11016499
000080 0b b3 8a bb a1 4c 15 be 1f 53 4e be d2 0d b0 bd
       -0.0042327694 -0.14580013 -0.20148896 -0.08596386
000090 fd c0 94 3c 19 4a 3b 3c f7 fd b0 bd a9 3b 27 3b
       0.01815843 0.0114312405 -0.0864219 0.0025517738
0000a0 ef 53 99 3d 38 dc a9 3d 29 6c 89 bc d6 c8 8f 3d
       0.07486712 0.082939565 -0.016775208 0.07020728
0000b0 c9 22 84 3d 5f d3 59 3d dc 95 fc 3c 34 ff b2 bc
       0.06451947 0.053180095 0.030833177 -0.021850206
0000c0 79 8b 08 3d 72 55 67 3d 22 7d 88 3d d5 ca c3 bd
       0.033336136 0.05647797 0.06664492 -0.095601715
0000d0 9e 4a 59 bd c2 3b 0b bc 27 dc 8c 3c 44 f8 c3 3c
       -0.053049676 -0.008498134 0.01719482 0.023922093
0000e0 96 d1 61 bd 7b 14 6e bd 39 b1 8f 3d 42 37 63 3d
       -0.055131517 -0.058125 0.070162244 0.05547262
0000f0 ea e1 41 bd 1f 5b 3e 3c 99 7c b0 3b c9 a1 7d bd
       -0.04733459 0.011618405 0.005385947 -0.06192187
000100 6e d9 08 3c 84 c0 93 3c d1 81 1c bd e2 1c c1 3d
       0.0083526205 0.018036135 -0.03820974 0.09429337
000110 9b c5 6f 3d bc 9a a1 bd 71 ea 95 3d d4 1f d0 3d
       0.05853806 -0.07890841 0.07320107 0.10162321
000120 11 c9 a1 3d 8b 2a 2a 3e f7 a4 15 3e ef ba e6 3d
       0.078996785 0.16617791 0.1461371 0.112661235
000130 e2 7d 0c 3e c5 5d 2d 3e 8e 93 23 3d e5 96 35 3d
       0.13719895 0.16930301 0.03993564 0.044333357
000140 78 d8 c4 3d e4 e1 8e 3d 08 67 85 3d 2d 69 8c 3d
       0.09611601 0.06976679 0.06513792 0.06855998
000150 66 89 a0 3d 24 6c 07 3e 67 42 25 3e e6 be ec bc
       0.07838707 0.13224846 0.16138612 -0.028899621
000160 16 d7 95 3b 2c a5 27 3d 4a 43 7c 3d 39 84 4a 3c
       0.0045727594 0.040929005 0.06158761 0.012360626
000170 b7 03 23 bd d3 ac b8 3d 82 ec 1f 3d c4 d7 d6 3b
       -0.039798465 0.090173386 0.03904391 0.006556483
000180 b6 13 c6 3c d7 e0 00 3d bf 19 91 3d a8 c3 00 bd
       0.02417932 0.031464424 0.07084989 -0.031436592
000190 88 45 60 3c 93 fa 84 bc 4d 76 5c 3d 5d 15 31 3d
       0.013688453 -0.016232764 0.053823758 0.043233264
0001a0 8e c2 1b bd 6a 96 19 bd 57 28 09 be bf 2a 55 be
       -0.03802734 -0.03749696 -0.13394295 -0.20817088
0001b0 e9 88 07 3c 5a 6f ca bc fa 7a 66 bd c0 5b e6 bc
       0.008272388 -0.0247113 -0.056269623 -0.028119922
0001c0 05 48 76 bd e8 cb 7a bc 19 ae c3 bd 5f a6 f4 bd
       -0.060127277 -0.015307404 -0.09554691 -0.11945795
0001d0 cf 98 e4 bd 34 cb b2 3d af f4 e1 3d 91 a4 ed bb
       -0.111619584 0.08730164 0.11032998 -0.007252284
0001e0 f1 0c 8f 3d 34 87 1a 3e f5 76 40 3d 38 c9 10 bd
       0.0698489 0.15090638 0.046988446 -0.035348147
0001f0 d4 ed ba 3c 2b 08 ce 3c c7 01 06 3d 61 ba 11 3e
       0.022818483 0.02515038 0.03271654 0.14231254
000200 90 90 c4 3c a2 f9 d1 3d 9c 82 52 3e 0b 8d ed 3d
       0.023994714 0.10252692 0.20557636 0.115991674
000210 c8 c5 59 3d 48 3c 54 3e 92 2c 0c 3e 00 6e 84 bd
       0.053167135 0.2072612 0.13688877 -0.06466293
000220 07 51 b7 bd 33 cd 6c bd 16 78 91 bb 34 a3 05 be
       -0.089510016 -0.05781288 -0.004439364 -0.13050538
000230 f1 4d 9c bd 90 1f 01 3c d8 5f f0 bd 3c d9 df bc
       -0.07632054 0.00788106 -0.11737031 -0.027325265
000240 b6 a6 56 3e 26 9a 90 3e 1e e0 47 3e f0 b0 99 3c
       0.20962033 0.28242606 0.19519088 0.018761128
000250 44 2e 73 3d 4d 41 e1 bc 98 54 df bd e3 0b a8 bd
       0.059370294 -0.027496958 -0.10904807 -0.08205392
000260 1d 8a 3f be d7 ed 0d bb cc bd 3d 3d d7 54 46 3d
       -0.1870503 -0.0021656656 0.046323583 0.048420753
000270 32 74 9d 3d e9 3c ab 3d 7c 0f a8 3d 46 6e 31 3e
       0.07688178 0.08361227 0.082060784 0.17327222
000280 d6 e4 54 3d 05 b8 4b bc 04 de 94 3d 14 a6 81 3d
       0.051976047 -0.01243401 0.072689086 0.06330505
000290 55 30 98 3c f5 27 08 3e 8e a3 29 3e 51 4f 1c bd
       0.018577734 0.13296492 0.16566297 -0.03816158
0002a0 03 e3 02 3e dc 66 02 bd bb dc 07 be 9a 01 70 bb
       0.1278191 -0.031836376 -0.13267796 -0.0036622048
0002b0 ba da 58 bc e7 4d 18 3d 1c 32 a2 bd 90 e6 72 bc
       -0.013235742 0.03718367 -0.07919714 -0.014825478
0002c0 bb 8c 03 bc d0 cc bc bd 44 96 d0 bd 59 bb bb bd
       -0.008029158 -0.092187524 -0.10184911 -0.09166593
0002d0 91 43 dc 3c 15 29 1e 3e 3f 3f 02 3e 3e 05 a1 bd
       0.026887687 0.15445359 0.12719439 -0.07862328
0002e0 05 7e 9c bc 6c c7 3c bd bb 44 fa bd 6f c1 df bd
       -0.01910306 -0.04608862 -0.122201405 -0.109255664
0002f0 bd 01 34 be f1 29 90 3d b3 13 bf 3d 08 62 1f 3d
       -0.17578788 0.0703925 0.09329929 0.03891185
000300 b3 3e 9b bd 3b e9 8d bd d8 39 8e bb 68 ad 83 be
       -0.07580318 -0.06929251 -0.0043403916 -0.25718236
000310 6b fb b8 be 94 79 62 be 34 52 99 3d 23 d3 35 3e
       -0.36129317 -0.22116691 0.07486382 0.17756324
000320 1d 4a 1b 3e 6e 88 61 3c a9 fe 25 3e a5 9e 6e 3e
       0.1516499 0.0137654375 0.16210426 0.23302706
000330 2b 8a 1e bc c6 70 e8 3d 30 c1 44 3e b2 78 c1 3b
       -0.0096764965 0.11349635 0.1921432 0.0059042806
000340 1b 47 ed 3b ad e7 49 bc a4 d3 3a 3d bd 8d 4b 3d
       0.0072411424 -0.012323302 0.045611992 0.04969572
000350 ee 37 84 3d 83 7a 1b 3d 2f 79 42 3d 9c 04 a3 3c
       0.0645598 0.037958633 0.04747885 0.019899659
000360 78 aa b8 3c 28 5d b2 3d cf f6 bf 3d 4c 12 5e bd
       0.022542223 0.087091744 0.09373247 -0.054216668
000370 80 ca 93 3d 55 c2 7a 3e 46 ff a9 bd 21 41 63 bd
       0.07216358 0.24488194 -0.08300643 -0.055482034
000380 21 27 66 3d 7b 9c c5 bc 25 33 6c 3d 5f 80 af bb
       0.05618966 -0.024122467 0.057665963 -0.005355879
000390 0d ed 4d bc 95 2f c1 3d 9a d1 c3 3d 53 c7 3f bd
       -0.012568724 0.09432904 0.09561463 -0.04682095
0003a0 91 3f 91 3c 82 0a c2 3d ee 28 f7 bd e1 e7 7f bd
       0.017730506 0.094746605 -0.120683536 -0.062476996
0003b0 1f d0 41 bd 11 a4 e4 bd 04 08 c1 bd 93 db 21 bd
       -0.04731762 -0.11164106 -0.09425357 -0.039516043
0003c0 ab 71 8c bd c7 74 0b bd 86 c3 fa 3c 0f fa ce bd
       -0.06857618 -0.034046914 0.030610811 -0.10106289
0003d0 9e 5f 94 bd 4b 91 7f 3b a2 53 ca bd a9 66 c9 bd
       -0.072448 0.0038996513 -0.09879233 -0.09834034
0003e0 42 c7 41 bc 90 2e 41 3d 0c 59 35 bd f4 95 8a 3c
       -0.011827292 0.047163546 -0.044274375 0.016917206
0003f0 78 70 75 3d 78 be 6b 3d 88 09 c0 3c 9f a6 12 3d
       0.05992171 0.057554692 0.023442045 0.035803434

module.layer2.0.bn1.weight f4 [32]
000000 26 b2 d3 3e 86 98 1f 3f 6d 6f 0b 3f 00 19 32 3f
       0.41346854 0.6234211 0.544669 0.69569397
000010 85 36 f4 3e cc b5 eb 3e 96 9e 16 3f 06 5d 4f 3f
       0.47697845 0.46037138 0.5883573 0.8100132
000020 b1 2f 01 3f 17 97 d9 3e 6d 94 eb 3e 5d 37 25 3f
       0.50463396 0.42498085 0.46011677 0.645376
000030 99 ca bb 3e 5c 43 16 3f b9 8e 33 3f a7 fc 0b 3f
       0.36678007 0.5869653 0.7013965 0.5468239
000040 bd 4d 03 3f 12 e2 22 3f ed 11 c6 3e 93 f7 14 3f
       0.51290494 0.63626206 0.3868555 0.5819027
000050 3d 96 18 3f c8 e8 1b 3f 63 bc 24 3f 20 6b e4 3e
       0.59604245 0.6090207 0.64349955 0.4461298
000060 53 b2 e3 3e 8a 73 ef 3e c7 5e b2 3e 5b b4 f2 3e
       0.44471988 0.46767837 0.34837934 0.47403225
000070 dc 4a 15 3f 22 75 09 3f 89 93 03 3f f8 ad 23 3f
       0.5831735 0.53694355 0.51396996 0.6393733

module.layer2.0.bn1.bias f4 [32]
000000 6c a0 95 3c 57 5d cd be 28 a8 81 be 2c cd b7 bd
       0.018264972 -0.40110275 -0.25323606 -0.0897468
000010 38 ae bb 3d b2 08 3b bc 04 c3 c3 bd 26 e6 83 be
       0.09164089 -0.011415647 -0.09558681 -0.25761527
000020 24 f2 86 3d 81 ff 63 3e 04 ab ab 3d 3e d4 a4 bd
       0.065891534 0.22265436 0.08382228 -0.080482945
000030 fa f1 7b 3e b0 6f 85 be 70 e2 f8 bd 43 17 50 be
       0.24604025 -0.26061773 -0.121525645 -0.20321374
000040 68 89 e2 bd 9f 3e d6 bd a5 33 62 3e 61 05 b0 bd
       -0.110613644 -0.10461163 0.22090013 -0.08594776
000050 91 4d 4e bd cf b7 e8 be 22 d1 29 bd 50 4f 01 ba
       -0.05036694 -0.45452735 -0.04145921 -0.0004932778
000060 76 5d 13 bd 0d 65 8c 3d 39 fb 76 3e 88 7b 0b be
       -0.035977803 0.068552114 0.24119271 -0.13621342
000070 3d 9a d6 bd ce 2e 00 be bc 8c 7e bd 87 54 01 be
       -0.10478637 -0.12517855 -0.062145934 -0.12629901

module.layer2.0.bn1.running_mean f4 [32]
000000 bf e0 f6 3e 7c ed fa 3e 60 87 7a be 34 52 21 bf
       0.48218343 0.4900931 -0.24465704 -0.63016057
000010 b1 17 25 bf 8f 2a cf bb c3 cf 96 bc f1 1b 8c bf
       -0.64489275 -0.006322212 -0.018409615 -1.0946027
000020 56 d3 93 be 5f 0b 09 3e d2 0b 98 3e 0f 23 52 bf
       -0.28872174 0.13383244 0.29696518 -0.82084745
000030 b1 d4 cf bf 07 0c 29 bf dd d4 75 bf ea 94 d1 bf
       -1.6236783 -0.6603398 -0.9602793 -1.637357
000040 ad 7e a6 3e d8 a1 d2 bf 3a 4f be 3f a1 05 37 bf
       0.3251852 -1.6455641 1.4867928 -0.71492964
000050 0c a7 50 bf 1f 4d eb 3e fe 78 63 bf 0e cc 1b 3f
       -0.81504893 0.45957276 -0.88856494 0.6085824
000060 e7 93 2a be 74 de 7b be d6 d1 86 3f e9 2d 5f bf
       -0.16657983 -0.24596578 1.0532787 -0.8717943
000070 4f 5d 97 3f 3b 8d 72 bf b3 1c dd be 39 b2 95 bf
       1.182535 -0.9474675 -0.43185958 -1.1695014
