results/o7X9/cifar10/kd/resnet8_best.pth.tar (torch_old, 371442 bytes, 52 tensors)

module.conv1.weight f4 [64, 3, 3, 3]
0	0xbdaac012	-0.08337416
1	0xbdb48096	-0.08813588
2	0xbda9e657	-0.08295887
3	0x3e170d0b	0.14751069
4	0x3e179b53	0.14805345
5	0x3e2f5f48	0.1712619
6	0xbdf53fc8	-0.11975056
7	0xbda95db6	-0.08269827
8	0xbdcc921b	-0.09988805
9	0xbd8bae42	-0.068203464
10	0xbd9d0f2e	-0.07668911
11	0xbd9b0f3b	-0.07571264
12	0x3defbbdb	0.117057525
13	0x3df654f5	0.12027923
14	0x3e0b67cb	0.13613813
15	0xbdb25fbe	-0.087096676
16	0xbd287385	-0.041125793
17	0xbd9a03ab	-0.07520231
18	0xbd8c0515	-0.06836907
19	0xbd9f9644	-0.07792333
20	0xbd7dcac2	-0.061960943
21	0x3d7a9750	0.06117946
22	0x3d390e80	0.045179844
23	0x3d8d6e79	0.069058366
24	0xbd969ab8	-0.07353729
25	0xbd42bcb0	-0.047543228
26	0xbd8f2697	-0.06989782
27	0xbd174ff1	-0.036941472
28	0x3b8e60f4	0.004345054
29	0xbcfc9439	-0.030832397
30	0xbb51ab90	-0.0031993128
31	0x3ce3bfa8	0.02780135
32	0xbc820bfb	-0.015874853
33	0xbc896257	-0.016770525
34	0x3cbc50b3	0.0229877
35	0xbbaf6719	-0.0053528664
36	0xbcffdce2	-0.031233255
37	0x3c3ac53d	0.011399564
38	0xbcc909b3	-0.024540758
39	0xbc510bb3	-0.012759137
40	0x3d2cbcea	0.04217235
41	0x3c0cf65b	0.008603658
42	0xbd259bd2	-0.040431805
43	0x3c935446	0.01798452
44	0x3c3631d2	0.0111202765
45	0xbc963a1f	-0.018338261
46	0x3d5227c5	0.05130746
47	0x3cb10b8d	0.021611953
48	0x3c853da2	0.01626474
49	0x3dc3f4e6	0.09568195
50	0x3d9b9909	0.075975485
51	0xbd243bab	-0.040095966
52	0x3d2904e1	0.04126442
53	0x3d5a9e6e	0.053373747
54	0xbd85ea6a	-0.065388516
55	0x3c88b685	0.016688595
56	0xbd1c95af	-0.038228687
57	0xbd02b13c	-0.031907305
58	0x3d3ea449	0.046543393
59	0xbc6a8dcb	-0.014316033
60	0xbd6e46a4	-0.058172837
61	0x3ce8d244	0.028420575
62	0xbc99cc42	-0.018774156
63	0xbd6371e9	-0.055528555
64	0x3d1b133e	0.037860148
65	0xbccc735e	-0.024957355
66	0xbd23e4ba	-0.040013053
67	0x3da33ef2	0.0797099
68	0x3d0cbe9c	0.034361467
69	0xbdb12239	-0.086491056
70	0x3cb981df	0.022644935
71	0x3c70d9ee	0.014700396
72	0xbc76883a	-0.015047127
73	0x3dea0746	0.114271685
74	0x3d629317	0.055316057
75	0x3bf983b1	0.007614576
76	0x3e244b90	0.1604445
77	0x3e01badf	0.12668942
78	0xbda1a68e	-0.07893096
79	0x3d83db17	0.064382724
80	0x3da168f4	0.07881346
81	0xbe1b99a0	-0.15195322
82	0x3b33aa9f	0.002741493
83	0x3e4cb0d8	0.19989336
84	0xbe588a6c	-0.21146554
85	0xbd546ecc	-0.051863477
86	0x3e3eff35	0.18652041
87	0x3ca93806	0.020656597
88	0x3c908e6c	0.017646037
89	0x3da9a341	0.08283091
90	0xbdf60d96	-0.1201431
91	0xbd044744	-0.032294527
92	0x3d58e64d	0.052954007
93	0xbdec9d19	-0.115534015
94	0xbd6a67a3	-0.057227742
95	0x3d1c213e	0.03811764
96	0x3dbdbf1e	0.09264968
97	0x3cee63e6	0.02910037
98	0xbb0d2db1	-0.0021542127
99	0xbd115ce3	-0.035488974
100	0xbd3abf03	-0.04559232
101	0xbd1274b5	-0.03575583
102	0xbdbdb572	-0.092631236
103	0xbdd17f75	-0.102293886
104	0xbd28f1d2	-0.041246243
105	0x3bcc6edb	0.006238801
106	0xbd8991d2	-0.06717266
107	0xbd8265da	-0.06367083
108	0xbe7f4216	-0.24927554
109	0xbd175981	-0.036950592
110	0x3e4e081c	0.20120281
111	0x3bafe1ed	0.0053675086
112	0xbc2b874f	-0.010469272
113	0x3c6f874d	0.014619661
114	0x3e16719a	0.14691773
115	0xbcb1f971	-0.021725388
116	0xbe01e1e4	-0.12683827
117	0xbe3fcfa7	-0.18731557
118	0xbd0118d6	-0.031517826
119	0x3e1e3d18	0.15452993
120	0x3df835a0	0.12119603
121	0x3d049e2d	0.03237741
122	0xbc643aaf	-0.013930007
123	0x3e408a1a	0.18802682
124	0x3c71f6a2	0.0147682745
125	0xbdef2b1f	-0.116781466
126	0xbe406c14	-0.18791229
127	0x39ad9dd2	0.00033114717
128	0x3e1b8cea	0.15190473
129	0x3d56311b	0.052292924
130	0xbce75cc9	-0.028242486
131	0xbd9448b0	-0.072404265
132	0x3deb30be	0.11483906
133	0xbd2482de	-0.040163867
134	0xbe110f2b	-0.14165942
135	0x3dbd9d48	0.09258515
136	0x3d8b9a59	0.06816549
137	0x3deec960	0.11659503
138	0x3e41dfa3	0.18932967
139	0x3e3ff1fb	0.18744652
140	0x3e19a974	0.15006047
141	0x3da2bf53	0.079466484
142	0x3c7b418e	0.015335454
143	0xbd26824b	-0.0406516
144	0x3c474eeb	0.012164812
145	0xbdad6751	-0.08466972
146	0x3b17aafa	0.0023142681
147	0x3d786a53	0.060648274
148	0xbd625e9d	-0.05526601
149	0xbcd064ba	-0.025438655
150	0x3cdb68a0	0.026783288
151	0xbdbc52d3	-0.09195485
152	0xbda62440	-0.08112383
153	0x3bd8af8b	0.006612723
154	0xbdb97f39	-0.09057469
155	0xbc315e1b	-0.010825659
156	0x3b9d675d	0.0048035816
157	0xbded0176	-0.11572544
158	0xbd95a931	-0.07307661
159	0xbd5bcccc	-0.053662106
160	0xbe15f703	-0.14645009
161	0xbdd847ee	-0.105605945
162	0xbd07c2e4	-0.033144847
163	0xbe4fde77	-0.20299707
164	0xbe162116	-0.14661059
165	0x3e4a2b55	0.19743092
166	0x3d905cfd	0.07048986
167	0xbdec6056	-0.11541812
168	0x3e8a2c91	0.26987126
169	0x3e1f060e	0.15529653
170	0xbbea8e67	-0.007158089
171	0xbe01a16c	-0.12659234
172	0xbe381a71	-0.17978837
173	0xbdfe44b4	-0.12415448
174	0x3d5a95d9	0.053365562
175	0x3cc1c16c	0.023651801
176	0xbe1022b7	-0.14075743
177	0x3e064f13	0.13116102
178	0x3d718e46	0.058973573
179	0xbd62cc8a	-0.055370845
180	0xbd89777d	-0.06712244
181	0xbc845cbd	-0.016157502
182	0x3d7f811f	0.062379
183	0xbd9be837	-0.07612651
184	0xbc1fb414	-0.009747524
185	0xbdd09b73	-0.101858996
186	0xbd5683fb	-0.05237196
187	0xbd1e3501	-0.038624767
188	0xbda596c4	-0.08085397
189	0x3e844de3	0.25840673
190	0xbe8397a6	-0.25701636
191	0xbd692d4f	-0.056927975
192	0x3e90652e	0.28202194
193	0xbe912b1d	-0.28353205
194	0xbf1a96af	-0.60386175
195	0x3e05dae5	0.13071783
196	0xbebf67be	-0.37383837
197	0xbebb9f40	-0.36644936
198	0xbe46e2b6	-0.19422421
199	0xbdcd1479	-0.100136705
200	0xbdb9cd9f	-0.09072422
201	0x3e92b723	0.28655347
202	0x3f5c1f20	0.85984993
203	0x3ea0d024	0.314088
204	0x3cba5bda	0.022748876
205	0x3ed9f37e	0.42568582
206	0x3e6c0835	0.23050006
207	0xbe4d81a5	-0.20068987
208	0xbe881386	-0.26577395
209	0xbd93fe52	-0.07226242
210	0xbe944549	-0.2895911
211	0x3e6c1cdd	0.23057885
212	0x3e982469	0.2971528
213	0xbeaaa6b4	-0.3333031
214	0xbc83711f	-0.016045151
215	0x3e53f676	0.20699486
216	0xbe8f6cf7	-0.2801282
217	0xbf2bd48b	-0.6712119
218	0xbebbdd43	-0.36692247
219	0x3db3200c	0.08746347
220	0x3dc8b239	0.09799618
221	0x3de9dbca	0.114188746
222	0x3f057a59	0.5213981
223	0x3f29b09a	0.662851
224	0x3ea119eb	0.31465086
225	0x3e196a85	0.1498204
226	0xbded9a66	-0.11601715
227	0x3d341a33	0.043970298
228	0xbd8b8256	-0.06811969
229	0xbe078887	-0.13235675
230	0x3d9878e7	0.07444935
231	0xbdd469df	-0.10371756
232	0xbe711568	-0.23543322
233	0xbdeb5c06	-0.114921615
234	0x3ec0425c	0.37550628
235	0x3ebd2781	0.36944202
236	0x3ed3b338	0.4134767
237	0xbc5818d9	-0.013189518
238	0xbcba980b	-0.022777578
239	0x3e38785f	0.18014668
240	0xbebc2887	-0.3674967
241	0xbf1661ab	-0.5874278
242	0xbebcd689	-0.36882427
243	0xbbacb9a4	-0.0052711535
244	0x3cbb2a96	0.022847455
245	0x3d367926	0.04454913
246	0x3e0635e7	0.131065
247	0x3e3ed70d	0.18636723
248	0x3de510e3	0.111848615
249	0x3d20ed51	0.039288823
250	0xbd220821	-0.039558534
251	0xbdc0b8a0	-0.094102144
252	0xbd9fc983	-0.07802107
253	0xbe87394d	-0.26410905
254	0xbd84780d	-0.0646821
255	0xbe2c6ddd	-0.16838785

module.bn1.weight f4 [64]
0	0x3ed639f7	0.418411
1	0x3e31b732	0.1735504
2	0x3ea71a4c	0.3263725
3	0x3f047616	0.51742685
4	0x3edd3ff4	0.43212855
5	0x3e4b6f2b	0.19866626
6	0x3f12191b	0.5706956
7	0x3eb75558	0.358073
8	0x3e8bef77	0.27331135
9	0x3e6c300a	0.230652
10	0x3ece7a02	0.4032746
11	0x3f289b48	0.6586194
12	0x3e9f91c4	0.31165898
13	0x3d482a82	0.048868664
14	0x3ef268ab	0.4734548
15	0x3f046092	0.51709855
16	0x3e56ba05	0.20969398
17	0x3e35e45a	0.1776289
18	0x3d219e2f	0.039457496
19	0x3e7bdc87	0.24595843
20	0x3ea2ac7a	0.31772214
21	0x3f9a8d41	1.2074357
22	0x3ed14b09	0.4087756
23	0x3e9551aa	0.29163867
24	0x3ef7a400	0.4836731
25	0x3ece8929	0.4033902
26	0x3eb55f50	0.3542428
27	0x3e67bfc7	0.22631751
28	0x3e47a5a1	0.19496776
29	0x3f1386b8	0.5762744
30	0x3f0a6b4e	0.54069984
31	0x3e53df75	0.20690711
32	0x39b3475e	0.00034194713
33	0x3f035ff6	0.513183
34	0x3ed0942d	0.4073805
35	0x3f2b989a	0.67029727
36	0x3ebaea7f	0.3650703
37	0x3f219fb1	0.63134295
38	0x3e1418d2	0.14462593
39	0x3eb1e3d7	0.3474414
40	0x3e8b1dd9	0.2717121
41	0x3ed69269	0.41908577
42	0x3e96cda4	0.29453766
43	0x3f039b68	0.51409006
44	0x3e9913fc	0.2989806
45	0x3ec8d105	0.3922197
46	0x3eed96a7	0.46404
47	0x3f3105bf	0.6914939
48	0x3a6fce1b	0.00091478386
49	0x3efef083	0.4979287
50	0x3de747da	0.112930015
51	0x3f2bef88	0.6716237
52	0x3f0045bb	0.501064
53	0x3ebaa9ea	0.3645776
54	0x3c04279c	0.008066084
55	0x3ea786b7	0.32719967
56	0x3e89bc75	0.26901594
57	0x3e83e537	0.25760815
58	0x3e96f8fd	0.29486838
59	0x3e3c23e8	0.18373072
60	0x3f0f28bc	0.5592153
61	0x3eaa5c81	0.332737
62	0x3e9a3d68	0.30124974
63	0x3b0e8706	0.002174796

module.bn1.bias f4 [64]
0	0xbeb6c0bb	-0.35693917
1	0xbdf8b3e7	-0.12143689
2	0xbe56b06b	-0.20965736
3	0xbebc9f7c	-0.36840427
4	0xbde19b0f	-0.11015903
5	0xbdc698e3	-0.096971296
6	0xbeca574d	-0.3951973
7	0x3ea17b5c	0.31539428
8	0x3de44eba	0.111478284
9	0x3e594920	0.21219301
10	0x3d25819c	0.04040681
11	0xbeb3f6d7	-0.3514926
12	0xbe713574	-0.23555547
13	0xbdd268fb	-0.1027393
14	0xbe66e467	-0.22548066
15	0x3ef9a8b1	0.48761514
16	0xbe1034ca	-0.14082637
17	0x3e268e41	0.16265203
18	0xbd19edf9	-0.037580464
19	0x3b744df5	0.0037277911
20	0x3e74a0cb	0.23889463
21	0xbf9ea6b5	-1.2394625
22	0xbcdf0ba6	-0.027227234
23	0xbe95dcf7	-0.29270145
24	0xbe83e10a	-0.2575763
25	0x3cae286a	0.021259505
26	0x3ea423e0	0.3205862
27	0x3d9f9a1a	0.077930644
28	0xbe5fd375	-0.21858008
29	0xbec57512	-0.3856588
30	0x3e87890f	0.26471755
31	0x3de911ff	0.113803856
32	0xba813f9b	-0.0009860875
33	0xbc3d232e	-0.011544032
34	0x3f0de025	0.5542014
35	0x3ef81df7	0.4846036
36	0x3e3f7e60	0.18700552
37	0xbe43145a	-0.19050732
38	0xbe7e2078	-0.24817073
39	0x3e7e40c6	0.24829397
40	0x3db68ab3	0.089131735
41	0xbe8b8843	-0.27252397
42	0xbe33bce6	-0.17552528
43	0x3f80d202	1.0064089
44	0x3e27198e	0.16318342
45	0x3f03eed7	0.51536316
46	0xbe5920ec	-0.21203965
47	0xbee8db62	-0.45479876
48	0xbb444d18	-0.0029953178
49	0xbc71cf5b	-0.01475891
50	0xbd367f48	-0.04455498
51	0x3edab24e	0.4271416
52	0x3e9eb67a	0.30998594
53	0xbea1ef87	-0.31628057
54	0xbd6c8e27	-0.057752755
55	0x3de83674	0.11338511
56	0x3e38970d	0.18026371
57	0xbdd3ec72	-0.10347833
58	0x3e18f206	0.14936075
59	0xbdf1697f	-0.117877
60	0xbcdf6e83	-0.027274376
61	0x3da4164b	0.080120645
62	0xbe955979	-0.29169825
63	0xbc4a8a1d	-0.01236203

module.bn1.running_mean f4 [64]
0	0x3d65e29d	0.05612432
1	0xbd8de3b1	-0.06928194
2	0xbde4c802	-0.11170961
3	0x3e0ce1c4	0.13757998
4	0x3ca43033	0.020042514
5	0xbcb1ab8e	-0.021688249
6	0x3e11f5a7	0.14253865
7	0xbd89cdd9	-0.067287154
8	0x3cf94134	0.0304266
9	0x38e1df34	0.00010770411
10	0xbd10bc4b	-0.03533582
11	0x3d2ef823	0.04271711
12	0x3bb8a5a1	0.005634979
13	0x3e1c97fa	0.1529235
14	0x3e742989	0.2384397
15	0x3d171786	0.036887668
16	0xbd59364d	-0.0530303
17	0x3d06ef1d	0.03294288
18	0xbc96bb5f	-0.018399892
19	0xbe809273	-0.25111732
20	0xbd953ebb	-0.072873555
21	0x3ecc67b8	0.3992288
22	0x3cddff7c	0.027099364
23	0xbe0a5252	-0.13507965
24	0x3e32dddc	0.17467445
25	0xbb64c4c3	-0.0034907318
26	0x3cd73816	0.026271861
27	0xbc84d87c	-0.016216509
28	0x3c950b53	0.018193876
29	0x3e8e4317	0.2778556
30	0xbc63d56e	-0.013905866
31	0x3cc11863	0.023571199
32	0x3adab212	0.0016685149
33	0x3cc7a061	0.024368467
34	0xbc68712e	-0.01418714
35	0x3dd07f4e	0.101805314
36	0xbd0ecd4b	-0.03486375
37	0x3ec0ef09	0.3768237
38	0x3e84e445	0.25955406
39	0xbd4145af	-0.047185596
40	0x3d9e1dd5	0.07720534
41	0x3cdb0c0d	0.026739145
42	0x3d22c9ee	0.039743356
43	0xbcba1912	-0.022717033
44	0x3b5656bb	0.0032705504
45	0x3c8b7d58	0.017027542
46	0x3d49caa4	0.04926552
47	0x3e770e2a	0.24126497
48	0xbaffef73	-0.0019526317
49	0x3c976d79	0.018484818
50	0xbda99e31	-0.08282126
51	0xbdb0ac32	-0.08626594
52	0xbc338de3	-0.010959121
53	0xbe081766	-0.13290176
54	0x3a70737c	0.0009172482
55	0xbdb1e2a6	-0.08685808
56	0xbd3ad714	-0.04561527
57	0x3d135783	0.03597213
58	0xbcfb7fed	-0.030700648
59	0x3dc1b735	0.09458772
60	0x3a206598	0.0006118654
61	0x3e8aa213	0.27076778
62	0xbdb5c74f	-0.08875906
63	0xbc1d4b46	-0.009600466

module.bn1.running_var f4 [64]
0	0x3e8d7c50	0.27633905
1	0x3dd67244	0.10471013
2	0x3ea22dca	0.3167556
3	0x3f05f641	0.5232888
4	0x3dfaf806	0.12254338
5	0x3ea5ad1d	0.32358637
6	0x3f461273	0.773719
7	0x3f3f7459	0.7478691
8	0x3eb4e743	0.3533269
9	0x3f1ca522	0.6118947
10	0x3ebcc111	0.36866048
11	0x3f7a830c	0.9785621
12	0x3da33234	0.0796856
13	0x3ed1d3a4	0.4098178
14	0x3fb46fff	1.4096678
15	0x3fc62fba	1.5483315
16	0x3dd7fe53	0.10546555
17	0x3f32a035	0.69775707
18	0x3bee52c9	0.0072730524
19	0x3f666792	0.90001786
20	0x3f902ea0	1.1264229
21	0x40504ba3	3.2546165
22	0x3e49c8cf	0.19705509
23	0x3e8ff35a	0.2811535
24	0x400534e5	2.0813534
25	0x3ff06922	1.8782084
26	0x4055bcf8	3.3396587
27	0x3f627186	0.88454473
28	0x3d963acd	0.07335434
29	0x3fa0a2eb	1.2549719
30	0x4075ef98	3.8427486
31	0x3f52d8d5	0.8236211
32	0x3833e61d	4.2891235e-05
33	0x402bb5d4	2.682973
34	0x3ec6786c	0.3876375
35	0x400a9e26	2.1659026
36	0x3fc7b193	1.5601066
37	0x4017b919	2.3706725
38	0x3f8a2ad5	1.0794321
39	0x4053208e	3.298862
40	0x3ececbcf	0.4038987
41	0x3ee242f9	0.4419172
42	0x3e752425	0.2393957
43	0x3ea45b6e	0.32101005
44	0x3f82cffc	1.0219722
45	0x3f23054d	0.63679963
46	0x3f4a835a	0.79106677
47	0x3f6f7e52	0.93552125
48	0x387fbfdb	6.0975417e-05
49	0x40134987	2.3013628
50	0x3ddb82fc	0.10718343
51	0x3fa85f55	1.3154093
52	0x405fad93	3.4949691
53	0x3e955b92	0.29171425
54	0x3c002e40	0.007823527
55	0x3fa7598f	1.3074206
56	0x3f1dc725	0.61631995
57	0x3e1d1e1d	0.15343519
58	0x3f0788ef	0.5294332
59	0x3ea25f1e	0.31713194
60	0x3f3c070d	0.7344826
61	0x3f97f6ee	1.1872232
62	0x3e5e1c19	0.21690406
63	0x3ac29075	0.0014844077

module.layer1.0.conv1.weight f4 [16, 64, 3, 3]
0	0xbce9fc49	-0.028562682
1	0xbae7df03	-0.0017690364
2	0x3c74e23e	0.0149465185
3	0xbcf18a92	-0.02948502
4	0x3c47182e	0.012151761
5	0x3d234867	0.03986397
6	0xbd304e7a	-0.04304359
7	0xbc75bd25	-0.014998709
8	0x3b557c23	0.0032575212
9	0xbc6815bf	-0.014165341
10	0xbb23fcfd	-0.002502262
11	0x3ce6bd7d	0.028166527
12	0xbc9ed43f	-0.019388316
13	0x3a691b02	0.0008892269
14	0x3d409bbd	0.047023524
15	0xbcb5f370	-0.022210807
16	0xbc01fc06	-0.007933622
17	0x3ce9c11a	0.02853446
18	0xbccf9fb1	-0.025344701
19	0xbc8b3580	-0.016993284
20	0x3c90e347	0.0176865
21	0xbd11478e	-0.03546863
22	0xb9c4b990	-0.00037522288
23	0x3d90c7a3	0.07069328
24	0xbd076ff3	-0.033065747
25	0xbb2bb4eb	-0.0026200365
26	0x3d907945	0.0705438
27	0xbc114457	-0.008866391
28	0x3c134c48	0.008990355
29	0x3cfffaf4	0.031247593
30	0x3d525d8a	0.051358737
31	0x3d5d6acd	0.05405693
32	0x3d3da677	0.04630133
33	0x3ce44eab	0.027869543
34	0x3d863a22	0.06554057
35	0x3ccc6a1d	0.024952943
36	0xbc0931c9	-0.008373686
37	0xb97dc74f	-0.00024202208
38	0xbcc3a1fc	-0.023880951
39	0x3ccb90dc	0.024849348
40	0xbcfd080e	-0.03088763
41	0xbd36c404	-0.04462053
42	0x3d832bd2	0.064048424
43	0xbdab263a	-0.083569005
44	0xbd367a8d	-0.044550467
45	0x3d6f2bde	0.058391444
46	0x3c5d6a19	0.013514065
47	0x3986b38c	0.00025692245
48	0x3c2f9631	0.010716961
49	0xb7d3ccf4	-2.5248599e-05
50	0x3bbb4df5	0.0057160803
51	0xbc9a5e84	-0.018843897
52	0xbb7c39f9	-0.0038486703
53	0x3b3d93ba	0.0028927163
54	0xbd207327	-0.039172318
55	0xbc15ac1e	-0.009135274
56	0xbcd8b952	-0.026455555
57	0x3cbbf40e	0.022943523
58	0x3ca25d4d	0.01981988
59	0xbc6aa32f	-0.014321133
60	0x3dd5b8d3	0.10435643
61	0x3ce45294	0.027871408
62	0xbd0c8642	-0.034307726
63	0xbe09262d	-0.13393469
64	0xbc864de7	-0.016394569
65	0x3db159fd	0.08659742
66	0xbda4bd8e	-0.08043967
67	0x3d506ed0	0.05088693
68	0x3e20a7d9	0.15689029
69	0xbd26e38c	-0.04074435
70	0x3c8792d9	0.016549515
71	0x3d38e4a8	0.04513994
72	0x3d79b965	0.06096782
73	0x3cfe8870	0.031070918
74	0xbd3175b1	-0.04332513
75	0x3d0c13ef	0.034198698
76	0x3c727bf6	0.014800062
77	0x3c80f951	0.015743883
78	0xbd4e5adb	-0.050379615
79	0xbc3b6a67	-0.0114389425
80	0x3dc0d5a7	0.09415751
81	0xbdb45612	-0.08805479
82	0xbd81d634	-0.06339684
83	0xbc9680e0	-0.018372
84	0xbdb7920b	-0.08963402
85	0xba4301eb	-0.00074389455
86	0x3dc4ea72	0.096150294
87	0xbd3c76c0	-0.046011686
88	0x3d91cb19	0.07118816
89	0x3e34fc4b	0.17674367
90	0xbda31208	-0.079624236
91	0xbe22af28	-0.1588713
92	0x3d845d13	0.06463065
93	0xbd630bb2	-0.055431075
94	0xbcc36730	-0.023852915
95	0x3e532658	0.20620096
96	0xbcfb7edc	-0.03070014
97	0xba4d8ca6	-0.00078410876
98	0x3e767829	0.24069275
99	0xbdc9acc4	-0.098474056
100	0xbd50513f	-0.050858732
101	0x3d26f28c	0.040758654
102	0xbc40f0f5	-0.011776199
103	0xbc185852	-0.009298401
104	0xbc547859	-0.012968146
105	0x3d371f12	0.044707365
106	0x3c30563a	0.0107627455
107	0xbd3fd530	-0.04683417
108	0xbc1cd513	-0.009572285
109	0xbcbcfd62	-0.023070041
110	0xbcf9f0ad	-0.030510271
111	0xbbad78db	-0.005293948
112	0xbc80ac2b	-0.015707096
113	0xbca07a61	-0.019589605
114	0xbaa4331d	-0.001252744
115	0xbbc54c57	-0.0060210633
116	0xbc052b96	-0.0081280675
117	0xbc7f9ab3	-0.015600848
118	0x3c313c26	0.010817563
119	0x3d282167	0.04104748
120	0xbc82a83f	-0.015949367
121	0x3c7992c9	0.01523275
122	0x3d44e544	0.048070207
123	0xbd0c3542	-0.034230478
124	0xbc51fd7d	-0.012816784
125	0x3c1d8d0b	0.009616147
126	0x3de0c83f	0.10975694
127	0x3c9d4427	0.019197537
128	0xbd86ef83	-0.06588652
129	0x3d8f1b09	0.069875784
130	0x3cbe7c42	0.02325261
131	0xbcecc1f1	-0.028901072
132	0xbd143665	-0.036184687
133	0xbb8723db	-0.0041241474
134	0xbcd42606	-0.025897037
135	0x3d8c6035	0.068542875
136	0xbbb74857	-0.0055933404
137	0xbc3b35d6	-0.01142641
138	0x3dc2b8d0	0.095079064
139	0xbd948614	-0.07252136
140	0xbe130707	-0.1435815
141	0x3e013b14	0.12620193
142	0xbaf7f3f4	-0.0018917308
143	0xbd20e551	-0.039281193
144	0xbb90d2ba	-0.004419652
145	0xbb8c442a	-0.0042805867
146	0x3cd50604	0.026003845
147	0xbc9480b1	-0.018127771
148	0xbc829bb0	-0.015943378
149	0x3cc516a2	0.024058644
150	0xbcb71f7b	-0.022353878
151	0xbc6ab188	-0.014324553
152	0x3cc85916	0.024456542
153	0xbdaa9f25	-0.08331136
154	0xbda4c5f3	-0.08045568
155	0xbd422a24	-0.04740347
156	0xbd7d1931	-0.061791603
157	0xbca65be6	-0.020307492
158	0x3d3bb313	0.045825075
159	0x3c54f15b	0.012996997
160	0x3d9a7308	0.07541472
161	0x3e111c9f	0.14171074
162	0x3bdfd0b1	0.006830298
163	0x3ba42046	0.00500873
164	0x3add8eb1	0.0016903487
165	0x3baaf85c	0.005217595
166	0x3b83e0f6	0.00402462
167	0x3aeda216	0.001812997
168	0x3b37d688	0.0028051455
169	0x3b912b91	0.0044302423
170	0x3b83013b	0.0039979494
171	0x38e86438	0.00011081289
172	0xbc89d926	-0.016827177
173	0xbb8c095f	-0.004273578
174	0xbcc55595	-0.02408866
175	0xbcf10cd5	-0.029425064
176	0xbb16b0a3	-0.0022993467
177	0xbd4d006e	-0.050049238
178	0xbd69a477	-0.05704161
179	0xbd0d8412	-0.03454978
180	0xbd7491d9	-0.059709404
181	0xbc9b7bde	-0.018979963
182	0x3e0ec8b3	0.13943748
183	0xbd42026b	-0.047365587
184	0x3cc66b62	0.024221126
185	0x3e23859a	0.15968934
186	0xbd594c4b	-0.053051274
187	0xbab53b02	-0.001382679
188	0x3e0217fb	0.1270446
189	0x3d37cb0c	0.044871375
190	0x3da9fa2d	0.0829967
191	0x3cd0f372	0.025506709
192	0x3e02d66c	0.12777108
193	0x3d80536d	0.06265912
194	0xbd86564e	-0.0655943
195	0x3b32c711	0.0027279297
196	0x3bb99055	0.0056629577
197	0xbda53b71	-0.08067978
198	0x3d43d6ef	0.0478124
199	0x3d054fb2	0.032546706
200	0xbd17c383	-0.03705169
201	0x3cb82ea3	0.022483176
202	0x3c2b7323	0.010464462
203	0x3abf5d5c	0.0014599967
204	0xbd85a4c2	-0.06525566
205	0xbd3cdfe1	-0.046111945
206	0xba2e6295	-0.0006652263
207	0xbcc87052	-0.024467621
208	0x3b40afb3	0.00294016
209	0x3ce91f91	0.028457435
210	0xbd0488cd	-0.032357026
211	0x3c05c4b9	0.008164578
212	0x3d8b4ac5	0.068013705
213	0xbcf79ce6	-0.030226182
214	0x3b947eb4	0.0045317058
215	0x3d829739	0.063765
216	0x3e166f65	0.14690931
217	0x3b02561a	0.0019887746
218	0xbe077a23	-0.13230185
219	0x3d1893f9	0.037250493
220	0xbd40d276	-0.04707571
221	0xbe196725	-0.14980753
222	0xbdc2f6a8	-0.09519702
223	0xbd4d6540	-0.050145388
224	0xbd156f3b	-0.03648303
225	0x3da76f48	0.08175522
226	0xbc78ffc2	-0.015197696
227	0xbde342a5	-0.11096696
228	0xbd4ee459	-0.050510738
229	0xbd2b8c2c	-0.041881725
230	0xbcfb2857	-0.030658884
231	0xbde6ee36	-0.11275904
232	0xbc93f4e6	-0.018061113
233	0x3d9637ba	0.07334848
234	0xbd9faea2	-0.077969804
235	0xbad561cc	-0.0016279756
236	0x3d85bcf4	0.065301806
237	0x3bad2b89	0.005284731
238	0xbbab249a	-0.005222869
239	0xbc90f6e5	-0.017695853
240	0x3de0d387	0.10977846
241	0xbc2c691c	-0.010523107
242	0xbe04371b	-0.12911646
243	0xbdb5ee15	-0.08883301
244	0xbdb3ef6e	-0.08785902
245	0xbd02a2e8	-0.03189364
246	0xbd8c39be	-0.06846951
247	0x396e81ad	0.00022745757
248	0x3ddec705	0.10877804
249	0xba5d9357	-0.00084524363
250	0x3dc2db7d	0.0951452
251	0x3e5c9595	0.21541436
252	0x3ba628e5	0.005070793
253	0xbb958b52	-0.0045637274
254	0xbc41b778	-0.0118235275
255	0x3b0f615f	0.0021878106

module.layer1.0.bn1.weight f4 [16]
0	0x3f37c1e3	0.7178022
1	0x3f79c923	0.97572535
2	0x3f6b11a4	0.9182379
3	0x3f2af512	0.667802
4	0x3f24a85a	0.64319384
5	0x3f2b854e	0.6700028
6	0x3f1a12db	0.6018502
7	0x3f03edd6	0.51534784
8	0x3f382435	0.7193025
9	0x3f6ec27b	0.93265504
10	0x3f45ba76	0.7723764
11	0x3f0f84d9	0.56062084
12	0x3f1df5d4	0.6170323
13	0x3f2d0c50	0.6759691
14	0x3f22b4ce	0.63557136
15	0x3f458494	0.77155423

module.layer1.0.bn1.bias f4 [16]
0	0xbe4fce45	-0.2029353
1	0xbde8b4d3	-0.113626145
2	0x3efcb234	0.49354708
3	0xbe84f7bf	-0.25970265
4	0xbe3ed117	-0.18634449
5	0x3f0e8966	0.55678403
6	0x3ea60da5	0.32432285
7	0x3f00a359	0.5024925
8	0x3f21f644	0.63266397
9	0x3e94447f	0.28958508
10	0xbe44179b	-0.1914963
11	0xbe0cf9ef	-0.13767217
12	0x3eb60e44	0.3555776
13	0xbe926e5b	-0.2859982
14	0x3f24b15f	0.64333147
15	0xbd807149	-0.062716074

module.layer1.0.bn1.running_mean f4 [16]
0	0xbfdce65b	-1.7257799
1	0xbe7e7e0e	-0.24852774
2	0xbf7f63d9	-0.9976173
3	0xbf768773	-0.9630043
4	0xbfa773f7	-1.3082265
5	0xbf8d5064	-1.1040158
6	0xbf38e385	-0.7222217
7	0xbf4b1664	-0.7933104
8	0xbfa0e314	-1.2569299
9	0xbfcbdf8c	-1.5927596
10	0xbf774b1a	-0.9659897
11	0xbf195e82	-0.5990983
12	0xbf431187	-0.7619862
13	0x3e51e0b2	0.2049587
14	0xbfa45f5e	-1.2841604
15	0xbf1fccf4	-0.6242211

module.layer1.0.bn1.running_var f4 [16]
0	0x402d5363	2.7082145
1	0x4085a1e0	4.17601
2	0x3fc5b858	1.5446882
3	0x3f3a780f	0.72839445
4	0x3f559c02	0.83441174
5	0x3fc57fe1	1.542965
6	0x3f574b3b	0.8409917
7	0x3f3baaa9	0.7330728
8	0x3f8cf85f	1.1013297
9	0x3fc11aaa	1.5086262
10	0x3fcf59ef	1.619932
11	0x3f117641	0.56821066
12	0x3f8c0f97	1.0942258
13	0x3f3f5ec1	0.7475396
14	0x3f5a443c	0.8526037
15	0x407a06ec	3.9066725

module.layer1.0.conv2.weight f4 [16, 16, 3, 3]
0	0xbe03b733	-0.12862854
1	0xbe1efefe	-0.1552696
2	0xbdc5e059	-0.096619315
3	0xbe4d1711	-0.2002833
4	0xbe4bd338	-0.19904792
5	0xbd5dc87b	-0.05414627
6	0xbe1301ea	-0.14356199
7	0xbdeec866	-0.11659317
8	0x3b6ea8ae	0.003641646
9	0x3e5bef91	0.21478106
10	0x3e855ea2	0.26048762
11	0x3eaea22f	0.3410811
12	0x3df1dc1c	0.11809561
13	0x3d905fb3	0.07049503
14	0x3e65f148	0.22455323
15	0x3daad7d3	0.083419465
16	0xbd9c1d48	-0.076227725
17	0xbbd3a54d	-0.0064589144
18	0xbe1ffbb3	-0.1562336
19	0xbd78c9fd	-0.060739506
20	0xbd4fde92	-0.05074937
21	0xbe1216a6	-0.14266452
22	0x3d33eef4	0.043929055
23	0x3dd91f93	0.106017254
24	0x3b7b77f1	0.0038371051
25	0x3e50a315	0.20374711
26	0x3df647dc	0.12025425
27	0xbdeedb80	-0.1166296
28	0xbdb0e3dd	-0.086372115
29	0xbc4b373f	-0.012403308
30	0x3cf57dbc	0.029967181
31	0x3cff631a	0.031175185
32	0x3e6446a1	0.22292568
33	0xbd8e9a09	-0.069629736
34	0xbca26c5c	-0.01982706
35	0x3e0c37e2	0.13693193
36	0x3dfc2671	0.123120196
37	0x3c96eee2	0.018424455
38	0xbdacfe92	-0.08446993
39	0x3e3df69b	0.18551104
40	0x3d8b0073	0.06787195
41	0xbd3201e2	-0.043458827
42	0xbc1865e9	-0.009301641
43	0xbce56be3	-0.028005546
44	0xbd32a817	-0.043617334
45	0x3e3e9eeb	0.1861531
46	0x3e04aec9	0.129573
47	0xbda84c14	-0.08217636
48	0x3dba847e	0.09107302
49	0x3d1ac567	0.037785914
50	0xbe91c55d	-0.2847089
51	0xbba80d2f	-0.0051285247
52	0x3d1b8dd8	0.03797707
53	0xbe50da4b	-0.20395772
54	0x3ed055eb	0.4069055
55	0x3e1d1d5d	0.15343232
56	0xbe6c352e	-0.23067161
57	0x3eb9aa42	0.3626271
58	0xbb6ecfaf	-0.0036439707
59	0xbeccac2e	-0.39975113
60	0x3d142483	0.036167633
61	0xbe69a58e	-0.2281706
62	0xbed4d74b	-0.41570505
63	0xba4637c8	-0.00075614126
64	0x3d15d8de	0.036583774
65	0xbc52f930	-0.012876794
66	0x3e382c0e	0.17985556
67	0x3da2ea6e	0.0795487
68	0xbd6b25f1	-0.05740923
69	0x3ddac76e	0.106825694
70	0xbdcd7eb2	-0.10033931
71	0xbe211f52	-0.15734604
72	0xbd902e87	-0.070401244
73	0x3dc1d825	0.094650544
74	0x3e8d1345	0.27553764
75	0xbea10c22	-0.3145457
76	0xbc4372ac	-0.011929195
77	0x3e87f982	0.26557547
78	0xbee4134c	-0.44545972
79	0xbe33763a	-0.17525569
80	0x3e33b3ab	0.17549007
81	0x3e0df420	0.13862658
82	0xbd337dc0	-0.043821096
83	0xbdda8490	-0.106698155
84	0x3e06496b	0.13113944
85	0xbe136dac	-0.14397305
86	0xbe1266e0	-0.14297056
87	0x3d2bbde1	0.04192913
88	0xbe269664	-0.16268307
89	0xbd8225dc	-0.06354877
90	0x3dac2418	0.08405322
91	0x3b1ee223	0.0024243675
92	0xbca1608c	-0.019699357
93	0x3d88eca4	0.066857606
94	0x3dc1b9c3	0.09459259
95	0x3df56d33	0.11983719
96	0xbd20387b	-0.039116364
97	0x3de5045e	0.111824736
98	0x3e53882b	0.20657413
99	0x3c4eadaa	0.012614647
100	0x3d95c0e2	0.0731218
101	0x3d131e86	0.03591778
102	0x3dc55cf7	0.09636872
103	0xbd92e29c	-0.071721286
104	0xbe0a27ea	-0.13491789
105	0xbc4f8b9a	-0.012667561
106	0xbe056da2	-0.13030103
107	0xbe76194e	-0.2403309
108	0x3e197987	0.14987765
109	0x3ce0a2fe	0.02742147
110	0x3cfe0f45	0.03101314
111	0x3e52006f	0.20507978
112	0x3da882db	0.08228084
113	0x3e0ab583	0.13545804
114	0x3ddb890e	0.107195005
115	0xbd52c457	-0.051456776
116	0x3d8a2d8e	0.0674697
117	0xbdbead06	-0.09310345
118	0x3d70b365	0.058764834
119	0x3de9a5f3	0.114086054
120	0x3d52e507	0.05148795
121	0x3d8b30b4	0.06796399
122	0xbd791d55	-0.06081899
123	0x3ddb14c3	0.10697319
124	0xbcfe9a39	-0.031079398
125	0xbe479135	-0.19488986
126	0xbe0de03f	-0.13855074
127	0xbeaa3e60	-0.33250713
128	0xbdf43523	-0.119241975
129	0xbddaa6d9	-0.10676355
130	0xbda41dec	-0.0801352
131	0x3dc8723f	0.09787416
132	0x3e1820e2	0.14856294
133	0x3ed0c486	0.40774935
134	0x3e910c26	0.2832958
135	0xbd2d4a9d	-0.042307485
136	0x3b599abf	0.0033203808
137	0x3cd15970	0.025555342
138	0xbdc1fdc0	-0.09472227
139	0xbcb055d7	-0.021525307
140	0xbd27a3c2	-0.040927656
141	0xbda24798	-0.07923812
142	0xbe01480b	-0.12625138
143	0xbe237abc	-0.15964788
144	0xbdab4ebe	-0.08364628
145	0xbe019413	-0.12654142
146	0x3ca1f6d7	0.019771023
147	0x3d4995aa	0.049214996
148	0xbe0ad4b4	-0.13557702
149	0x3d854807	0.06507879
150	0x3d3d1431	0.046161834
151	0x3e1be2d6	0.1522325
152	0xbdf6f7da	-0.12058993
153	0xbe0d2d80	-0.13786888
154	0x3e034f88	0.12823308
155	0xbe3732e4	-0.17890507
156	0x3d6507ec	0.055915758
157	0x3dd23830	0.10264623
158	0x3d1b4aa3	0.037912976
159	0x3dbf1742	0.09330608
160	0xbe2fe3b7	-0.1717671
161	0x3e10768f	0.14107727
162	0xbce53f32	-0.027984235
163	0x3b8b95cb	0.0042598
164	0x3d5e4bdb	0.05427156
165	0xbe4fe9f6	-0.20304093
166	0x3f17cbc0	0.5929527
167	0xbed98fff	-0.42492673
168	0x3e926977	0.28596088
169	0xbf33af4a	-0.70189345
170	0x3e9d74c4	0.30753148
171	0xbe1d93c8	-0.15388405
172	0x3d71ba71	0.059015695
173	0x3dcee982	0.10103132
174	0xbc40127c	-0.011723157
175	0x3c852b0e	0.016255882
176	0x3dfb5f90	0.122740865
177	0x3e4f9953	0.20273332
178	0xbbafb3b7	-0.005362
179	0xbe0fd801	-0.14047243
180	0xbc8eb2aa	-0.017419178
181	0xbbfd4083	-0.0077286377
182	0xbd039c20	-0.032131314
183	0x3d543cc7	0.051815774
184	0x3b8e29b1	0.004338466
185	0xbda64233	-0.08118095
186	0x3e337091	0.1752341
187	0x3db35454	0.08756319
188	0xbe99b0ed	-0.30017796
189	0xbceb497e	-0.028721567
190	0x3cacb0f3	0.02108047
191	0xbe21f427	-0.15815793
192	0xbdbb00dd	-0.09131024
193	0x3cf83d8a	0.030302782
194	0x3e4edeb1	0.20202138
195	0x3ed51423	0.41616926
196	0xbedb5f9d	-0.42846385
197	0xbc10e18d	-0.008842838
198	0xbdd93c2a	-0.106071785
199	0xbb21dc58	-0.0024697986
200	0x3d54a21d	0.051912416
201	0xbc1800a9	-0.009277501
202	0xbdc82a50	-0.097736955
203	0x3e4d01eb	0.20020263
204	0xbd8cf1aa	-0.06882031
205	0x3da02606	0.078197524
206	0x3c27e555	0.010247548
207	0x3d40dcde	0.047085635
208	0x3db54aca	0.088521555
209	0xbea5791e	-0.32318968
210	0x3d57c807	0.052680995
211	0xbec74d2a	-0.3892606
212	0x3ee40b03	0.4453965
213	0x3e0ef096	0.13958964
214	0xbe34d577	-0.17659555
215	0xbe019ce2	-0.12657502
216	0xbdc96157	-0.09833019
217	0x3e94cba5	0.29061618
218	0xbe570867	-0.20999299
219	0x3eb423af	0.35183474
220	0xbf3d1237	-0.7385592
221	0x3e877766	0.2645828
222	0xbe2e2a70	-0.17008376
223	0x3cc036bf	0.023463605
224	0x3dc495e3	0.09598901
225	0x3e02858e	0.1274626
226	0xbde1652b	-0.110056244
227	0x3d3e43aa	0.04645125
228	0x3e5a6592	0.21327808
229	0xbf0906af	-0.53525823
230	0x3df0b649	0.11753518
231	0xbe3eb8aa	-0.18625131
232	0x3f1721be	0.5903586
233	0xbe116d37	-0.14201818
234	0x3d15e13d	0.036591757
235	0xbe037a24	-0.12839562
236	0xbcb6a14f	-0.022293715
237	0xbdab2351	-0.083563454
238	0x3d83e218	0.06439608
239	0xbe4be7cd	-0.19912644
240	0x3e50a270	0.20374465
241	0xbdbb6b6b	-0.09151348
242	0xbb112147	-0.002214508
243	0xbc090b2f	-0.008364483
244	0x3d915d99	0.070979305
245	0xbd42d9ba	-0.04757092
246	0x3e08f097	0.13373028
247	0xbd2b5245	-0.041826505
248	0xbd86b48c	-0.06577405
249	0xbb7aff6a	-0.0038299211
250	0xbd6a5782	-0.05721236
251	0x3d608ebb	0.05482362
252	0xbc6b6694	-0.014367718
253	0x3ccc82ea	0.024964768
254	0x3dd089cd	0.101825334
255	0xbdfd1e7c	-0.1235933

module.layer1.0.bn2.weight f4 [16]
0	0x3f0273bc	0.50957847
1	0x3fa93688	1.3219767
2	0x3f052e40	0.52023697
3	0x3f9693b1	1.1763822
4	0x3f69771a	0.9119736
5	0x3f986353	1.1905311
6	0x3f09dcfb	0.53852814
7	0x3f238f24	0.6389029
8	0x3f69cfc7	0.9133267
9	0x3f004850	0.5011034
10	0x3fa44fee	1.2836893
11	0x3ec883ed	0.3916315
12	0x3fa8aba9	1.3177387
13	0x3f0761ad	0.52883416
14	0x3f139a08	0.5765691
15	0x3f5f8943	0.8731882

module.layer1.0.bn2.bias f4 [16]
0	0x3e62de31	0.22155072
1	0xbd173701	-0.03691769
2	0x3ea1b4da	0.3158329
3	0x3ca19da1	0.019728484
4	0x3d5759b9	0.0525758
5	0x3cd35247	0.025796069
6	0x3e66d1e8	0.2254101
7	0xbde11b39	-0.109915204
8	0xbd346529	-0.044041786
9	0x3e821c16	0.25412053
10	0xbbb9fb03	-0.005675675
11	0x3ec5d962	0.38642412
12	0xbdc32f80	-0.09530544
13	0x3eae59c8	0.34052873
14	0x3dd7214f	0.105044
15	0x3f36b6fe	0.71372974

module.layer1.0.bn2.running_mean f4 [16]
0	0x3e0dd8b2	0.13852194
1	0xbee12d64	-0.43979943
2	0x3ec2bbc1	0.3803387
3	0x3d562391	0.052280013
4	0x3e46ac66	0.19401702
5	0x3da09d76	0.07842533
6	0x3e88f896	0.26752156
7	0xbd7ad3dc	-0.0612372
8	0x3e8bcac8	0.27303147
9	0xbee4beca	-0.4467681
10	0xbecefe36	-0.40428323
11	0xbe67570f	-0.22591804
12	0xbd652e4c	-0.055952355
13	0xbeea5c1f	-0.45773408
14	0xbf402843	-0.75061435
15	0xc007aacf	-2.1198003

module.layer1.0.bn2.running_var f4 [16]
0	0x3f133c97	0.5751433
1	0x4042daf1	3.0446131
2	0x3f2d7efe	0.677719
3	0x403430d9	2.8154814
4	0x3faeb5d3	1.3649238
5	0x4041f9ad	3.030864
6	0x3f50e97a	0.81606257
7	0x3eb58aa0	0.35457325
8	0x3faa0f6b	1.3285955
9	0x3f49d0f4	0.7883446
10	0x4091761d	4.545668
11	0x3f0f9fab	0.5610301
12	0x4044c8e0	3.0747604
13	0x3f4be4ea	0.7964617
14	0x3f61013b	0.878925
15	0x402cc01c	2.6992254

module.layer1.0.shortcut.0.weight f4 [16, 64, 1, 1]
0	0x3cb65338	0.022256479
1	0xbd6a4db4	-0.05720301
2	0xbdc471ce	-0.09592019
3	0x3e07da46	0.13266858
4	0x3e2ca242	0.16858771
5	0xbe378f11	-0.17925669
6	0xbd264c81	-0.040600304
7	0x3d791cae	0.060818367
8	0x3da0a4b1	0.078439124
9	0xbea34cef	-0.31894633
10	0xbe2139a7	-0.15744649
11	0xbd8af878	-0.06785673
12	0xbb21601d	-0.0024623938
13	0xbddd17aa	-0.10795529
14	0x3d85a58f	0.065257184
15	0xbd612988	-0.054971248
16	0xbcde5a47	-0.027142657
17	0xbe42e5d6	-0.19032988
18	0x3ba4766d	0.0050190003
19	0xbe90c095	-0.28271928
20	0xbea48acd	-0.32137147
21	0x3e384165	0.17993696
22	0x3c6391ea	0.013889769
23	0xbd90c4d5	-0.07068793
24	0x3d9fc27f	0.07800769
25	0xbde30702	-0.11085321
26	0x3e257b83	0.16160397
27	0xbe69352f	-0.22774194
28	0xbdb88162	-0.09009053
29	0x3d45cbdf	0.04829013
30	0xbe806108	-0.2507403
31	0xbe01eb45	-0.12687404
32	0xba453388	-0.00075226324
33	0xbe892dd2	-0.2679277
34	0x3e394adf	0.18094967
35	0xbcf07220	-0.029351294
36	0x3d8b9f34	0.06817475
37	0x3e0617f8	0.13095081
38	0xbe1bddd8	-0.15221345
39	0xbe860109	-0.26172665
40	0x3e33066e	0.17482921
41	0xbe3148d3	-0.17312936
42	0xba84bc8a	-0.001012699
43	0x3c974e21	0.018469872
44	0xbef4adea	-0.47788936
45	0x3d9c814e	0.076418504
46	0x3ccb7de0	0.024840295
47	0xbd1a7133	-0.03770561
48	0x3a75f6ce	0.0009382785
49	0x3cdf698a	0.027272005
50	0xbd644618	-0.05573091
51	0x3dc4a05a	0.09600897
52	0x3ea6ad13	0.3255392
53	0xbde45c16	-0.111503765
54	0xbd2ae5c9	-0.041723046
55	0x3ddd1793	0.10795512
56	0xbdf7bf0a	-0.12096985
57	0xbcde045a	-0.027101684
58	0xbe4d7be8	-0.20066798
59	0xbd9566a4	-0.07294968
60	0xbefb526d	-0.49086323
61	0xbd1ada22	-0.037805684
62	0xbd7e062b	-0.0620176
63	0x3bf89151	0.0075856824
64	0xbd82d61a	-0.06388493
65	0x3c5f6c13	0.013636607
66	0x3ca4780a	0.02007677
67	0xbd0857f3	-0.033287
68	0x3d2b33d2	0.041797467
69	0x3d874e2d	0.06606708
70	0xbc2f0ce1	-0.010684223
71	0xbd2ce2ce	-0.042208485
72	0xbd454406	-0.048160575
73	0xbd35deff	-0.04440212
74	0x3da271f5	0.07931892
75	0xbd890a4d	-0.06691418
76	0xbd3978d0	-0.04528123
77	0xbc2685a0	-0.010163695
78	0xbd6385a2	-0.055547364
79	0x3e145d66	0.14488754
80	0x3b05f0bb	0.0020437676
81	0x3cd13b80	0.025541067
82	0x3b06582c	0.0020499332
83	0x3c33d081	0.010975004
84	0xbd929828	-0.07157928
85	0x3e56c5b9	0.20973863
86	0xbc4c34e0	-0.012463778
87	0x3d4761ae	0.04867714
88	0x3d3da475	0.046299417
89	0xbe045ea5	-0.12926729
90	0x3dd8f837	0.10594218
91	0xbc12e00a	-0.008964548
92	0x3c6fa70e	0.014627231
93	0xbcdd46e4	-0.027011342
94	0xbc842fdb	-0.0161361
95	0x3c4fca4b	0.012682508
96	0xb9954fd8	-0.00028478983
97	0xbd160886	-0.036629222
98	0xbd5afff4	-0.053466752
99	0x3d1ad75e	0.037803046
100	0xbd2f572a	-0.042807736
101	0x3d7e201e	0.062042348
102	0x3d268b75	0.04066034
103	0xbdb6d9cd	-0.08928261
104	0xbdcc0a06	-0.09962849
105	0xbdc68363	-0.09693029
106	0xbd810fa8	-0.06301814
107	0xbd4f0b1a	-0.050547697
108	0xbd0f563e	-0.034994356
109	0xbc9cf896	-0.019161504
110	0xbc4141fd	-0.011795518
111	0x3daff3e1	0.08591438
112	0xb9b3e538	-0.00034312322
113	0xbde5328b	-0.11191281
114	0x3c622b24	0.013804231
115	0x3b061452	0.002045889
116	0xbdd95c84	-0.10613349
117	0x3d6fcccf	0.05854493
118	0xbbf62d6f	-0.0075127403
119	0x3c977063	0.018486207
120	0xbda3d2ef	-0.07999217
121	0x3c1ddbe5	0.0096349465
122	0xbc12ba31	-0.008955524
123	0x3c67d34a	0.014149496
124	0xbdd6bb47	-0.10484939
125	0xbc355a53	-0.011068898
126	0x3da035d7	0.07822769
127	0x3b625bf0	0.0034539662
128	0x3dba420b	0.09094628
129	0x3ddbc023	0.107300065
130	0x3e67a422	0.22621205
131	0x3e07c6f3	0.13259487
132	0x3df629d2	0.12019695
133	0x3d8fec39	0.07027478
134	0x3e340506	0.17580041
135	0x3dd4fb75	0.10399524
136	0x3c6c0760	0.014406055
137	0xbd8cbff5	-0.068725504
138	0xbd1608db	-0.03662954
139	0xbafd6838	-0.0019333428
140	0x3e23170f	0.15926765
141	0x3dd629c0	0.10457182
142	0x3e796bb9	0.24357499
143	0xbd237c8d	-0.039913703
144	0x3dbc30cf	0.09188997
145	0x3cdda0f5	0.02705429
146	0x3d1e051e	0.0385791
147	0x3e31f333	0.1737793
148	0xbcbe38e2	-0.023220483
149	0x3f3f65db	0.74764794
150	0x3dbd37e4	0.09239176
151	0x3e5cdcd1	0.2156861
152	0x3e1553f0	0.14582801
153	0x3e013407	0.12617503
154	0xbe2b0e9f	-0.16704796
155	0x3cc67b7a	0.0242288
156	0x3d912392	0.070868626
157	0x3e94d2d3	0.29067096
158	0xbc4f43ac	-0.012650412
159	0x3e0de50f	0.1385691
160	0x37daf593	2.610198e-05
161	0x3d7e0ea4	0.06202568
162	0x3dbcd0e7	0.092195325
163	0xbe30640c	-0.17225665
164	0x3d57b938	0.052666873
165	0x3ecc14de	0.3985967
166	0x3daff8be	0.08592366
167	0x3e72d622	0.23714498
168	0x3e90766e	0.28215355
169	0xbe40c65c	-0.18825668
170	0xbd63ef49	-0.055648122
171	0x3d3b9ec9	0.045805726
172	0xbe069e5e	-0.1314635
173	0xbd23310f	-0.039841708
174	0x3df69f9c	0.12042162
175	0x3e57f980	0.2109127
176	0x3aff10d1	0.0019459968
177	0x3d15a3f2	0.036533304
178	0x3dcfe60b	0.10151299
179	0x3df1f015	0.1181337
180	0x3d99465b	0.07484122
181	0x3e99fef5	0.3007733
182	0x3d1b9c81	0.03799105
183	0xbb3cead4	-0.0028826492
184	0x3dd2cf59	0.10293455
185	0x3d9588fb	0.073015176
186	0x3d7e8c16	0.062145315
187	0x3de0f263	0.109837316
188	0x3db2ffc8	0.08740193
189	0x3eababc5	0.33529487
190	0x3e3a8608	0.18215191
191	0x3bed0aa2	0.0072339335
192	0xbddeb4e4	-0.10874346
193	0x3de32b98	0.11092299
194	0x3e3f6ed7	0.18694626
195	0xbdb68e76	-0.08913891
196	0x3da2987e	0.07939242
197	0x3dab35bc	0.083598584
198	0xbe079833	-0.13241653
199	0xbe6853f6	-0.22688279
200	0x3d220c93	0.039562773
201	0x3c3a16b2	0.01135795
202	0x3d512568	0.051061064
203	0xbdf3382f	-0.118759505
204	0x3d23a0fe	0.039948456
205	0xba9dfb33	-0.0012053013
206	0x3d32199a	0.043481447
207	0xbe12a550	-0.14320874
208	0x3c5c4427	0.013443983
209	0x3cd767b1	0.026294561
210	0x3bb688fb	0.0055705286
211	0x3d171766	0.03688755
212	0xbdcce832	-0.10005225
213	0xbd87a9cf	-0.06624185
214	0x3d17a3d9	0.03702149
215	0x3e18ffed	0.14941378
216	0x3c57efc2	0.013179721
217	0x3d866471	0.065621264
218	0xbebf7458	-0.3739345
219	0x3d93da48	0.07219368
220	0xba0ecc45	-0.00054473086
221	0x3c58de1f	0.013236552
222	0x3e53c507	0.20680629
223	0xbd6074ec	-0.054799005
224	0x39bbe714	0.00035839586
225	0xbe22a3fc	-0.15882868
226	0x3dc10013	0.09423842
227	0x3e982fc2	0.29723936
228	0xbe001861	-0.125093
229	0xbe1d94e0	-0.15388823
230	0xbc85331a	-0.016259719
231	0x3ea8fbd3	0.33004627
232	0x3c82aee6	0.015952539
233	0xbda136b3	-0.07871761
234	0xbd6c47ff	-0.05768585
235	0x3da659d9	0.08122606
236	0x3d467f54	0.048461273
237	0xbc967e3c	-0.01837074
238	0x3dad2120	0.08453584
239	0xbdf69f9c	-0.12042162
240	0xb94c22b5	-0.00019467885
241	0xbd91541f	-0.07096123
242	0x3c9e2945	0.019306788
243	0xbe635627	-0.22200833
244	0xbe389e45	-0.18029125
245	0x3e0aeaa2	0.13566068
246	0x3d1060ab	0.03524844
247	0xbdc5a3e0	-0.09650397
248	0x3df1a696	0.11799352
249	0x3a225ab0	0.0006193323
250	0x3d23bcd1	0.03997499
251	0x3c28cea4	0.010303173
252	0xbd1742a7	-0.0369288
253	0x3dc730b0	0.09726083
254	0x3d5471ef	0.051866468
255	0xbb5dee89	-0.0033864102

module.layer1.0.shortcut.1.weight f4 [16]
0	0x3f0f9f15	0.56102115
1	0x3df090ee	0.11746393
2	0x3f1d0fe0	0.6135235
3	0x3e939fc3	0.28832826
4	0xbd34519c	-0.04402314
5	0x3eaff352	0.34365326
6	0x3f257ec1	0.64646536
7	0x3f0db5e0	0.55355644
8	0x3f064c10	0.5245981
9	0x3f18c7b2	0.5967971
10	0x3e7a7a71	0.2446077
11	0x3f1bac04	0.6080935
12	0x3e9046ea	0.28179103
13	0x3f276a15	0.65396243
14	0x3f1ffa09	0.624909
15	0x3ef6b189	0.48182324

module.layer1.0.shortcut.1.bias f4 [16]
0	0x3e62de31	0.22155072
1	0xbd173701	-0.03691769
2	0x3ea1b4da	0.3158329
3	0x3ca19da1	0.019728484
4	0x3d5759b9	0.0525758
5	0x3cd35247	0.025796069
6	0x3e66d1e8	0.2254101
7	0xbde11b39	-0.109915204
8	0xbd346529	-0.044041786
9	0x3e821c16	0.25412053
10	0xbbb9fb03	-0.005675675
11	0x3ec5d962	0.38642412
12	0xbdc32f80	-0.09530544
13	0x3eae59c8	0.34052873
14	0x3dd7214f	0.105044
15	0x3f36b6fe	0.71372974

module.layer1.0.shortcut.1.running_mean f4 [16]
0	0xbe93ed4b	-0.28891978
1	0xbe10fcec	-0.14158982
2	0x3f203403	0.62579364
3	0xbd74798c	-0.05968623
4	0xba525830	-0.0008024005
5	0xbec7141a	-0.38882524
6	0xbefd0bbb	-0.49423012
7	0x3ef0d6f9	0.4703901
8	0xbf19d5ac	-0.6009166
9	0x3e5f8a5c	0.21830124
10	0xbe12c14f	-0.14331554
11	0xbef69597	-0.48161003
12	0xbec016c1	-0.3751736
13	0xbf3e639e	-0.74370754
14	0xbde5a813	-0.11213698
15	0xbec2dd76	-0.38059586

module.layer1.0.shortcut.1.running_var f4 [16]
0	0x3e98d070	0.29846525
1	0x3d007582	0.031362064
2	0x3ea783c9	0.32717732
3	0x3e71dcbc	0.2361936
4	0x3c8646f9	0.016391264
5	0x3eaabc1d	0.33346644
6	0x3ea1a29c	0.31569374
7	0x3e1916b8	0.14950073
8	0x3e4167ca	0.18887249
9	0x3e9b46b5	0.30327383
10	0x3e535b35	0.20640261
11	0x3e9f198c	0.31074178
12	0x3e2a9c18	0.16661108
13	0x3ebd0439	0.36917284
14	0x3e8add7b	0.271221
15	0x3eeb05ca	0.45902854

module.layer2.0.conv1.weight f4 [32, 16, 3, 3]
0	0x3cdda128	0.027054384
1	0x3e693ca1	0.22777034
2	0x3eba456f	0.363811
3	0xbe61311e	-0.21991393
4	0xbe0743bb	-0.13209431
5	0x3d1d3337	0.03837892
6	0xbe8bef27	-0.27330896
7	0xbe9c0fbf	-0.30480763
8	0xbe95f1ba	-0.29285985
9	0x3c9ab16f	0.018883435
10	0xbc5e9c95	-0.013587137
11	0xbd1d8116	-0.038453184
12	0x3d24e5b4	0.040258124
13	0xbcbf5110	-0.023354083
14	0x3c701b3b	0.01465493
15	0x3dc35b9b	0.09538957
16	0x3d4e2c1f	0.050335046
17	0x3cb2b164	0.021813102
18	0xbc89891a	-0.016789008
19	0xbda7aac4	-0.08186868
20	0xbd781335	-0.060565192
21	0xbdb9430f	-0.090459935
22	0xbe336e82	-0.17522624
23	0xbe1677a7	-0.14694081
24	0xbd10ee57	-0.03538355
25	0xbe34de93	-0.1766303
26	0xbdc62493	-0.09674945
27	0x3dd73a65	0.10509185
28	0x3d8a447a	0.06751342
29	0x3db19484	0.08670905
30	0x3dcb993c	0.099413365
31	0x3d181172	0.037126012
32	0x3d537532	0.051625438
33	0x3dae605b	0.08514472
34	0x3df4228c	0.11920652
35	0x3daef200	0.085422516
36	0xbe45381d	-0.19259687
37	0xbe54cf42	-0.20782188
38	0xbe059ca8	-0.13048041
39	0xbdcfdddf	-0.101497404
40	0xbdf0ca15	-0.11757294
41	0xbe0c3ba9	-0.13694634
42	0xbdb971eb	-0.09054931
43	0xbe40a6c4	-0.18813616
44	0xbde1833e	-0.110113606
45	0x3d2993e1	0.041400794
46	0x3e193030	0.14959788
47	0x3da8ec83	0.08248236
48	0x3c9142da	0.017732073
49	0x3d02afc2	0.031905897
50	0x3db5338c	0.088477224
51	0xbd96405a	-0.07336493
52	0xbc62d6de	-0.013845174
53	0x3ce1475d	0.027499849
54	0x3b8d8aa9	0.004319508
55	0x3db72002	0.08941652
56	0xbd048b61	-0.032359485
57	0xbe1b7115	-0.15179856
58	0x3b508fa2	0.0031823893
59	0xbdf4841c	-0.1193926
60	0x3c7a5f6f	0.015281542
61	0xbd4004e6	-0.04687967
62	0xbe4b33a7	-0.19843923
63	0xbdd6ead3	-0.10494008
64	0xbd655fa4	-0.055999413
65	0x3c6f1aee	0.014593823
66	0xbe5abf47	-0.21362029
67	0xbe0bddeb	-0.13658874
68	0xbda8fd53	-0.08251443
69	0xbe6c467b	-0.23073761
70	0xbe9ee539	-0.31034258
71	0xbe9380f1	-0.28809312
72	0x3e36fd88	0.17870152
73	0x3df72ccd	0.12069092
74	0x3b3700ce	0.0027924064
75	0x3ea96d47	0.33091184
76	0x3e5ba148	0.21448243
77	0x3dc48978	0.095965326
78	0x3eb10e81	0.34581378
79	0x3e651d99	0.22374572
80	0x3dd64a40	0.10463381
81	0x3db1b72a	0.08677514
82	0x3e5fa763	0.21841197
83	0x3e271414	0.16316253
84	0xbe3e25aa	-0.18569055
85	0x3d413268	0.04716721
86	0x3e659f80	0.22424126
87	0xbed3cf9e	-0.41369337
88	0xbebbb20d	-0.3665928
89	0xbe0e0a26	-0.13871059
90	0xbaf42096	-0.0018625434
91	0xbda84f4b	-0.08218249
92	0xbde8a735	-0.11360017
93	0x3d92f241	0.071751125
94	0x3cdf0961	0.027226152
95	0xbd1e5c4a	-0.038662232
96	0x3dfa8a03	0.12233355
97	0x3c67ac53	0.014140206
98	0x3cd00fac	0.025398098
99	0x3e9ca43b	0.30594048
100	0x3e80cf60	0.25158215
101	0x3e71ffa1	0.23632671
102	0x3e3109cc	0.17288893
103	0x3e4e064f	0.20119594
104	0x3e61526d	0.22004099
105	0xbe23bbda	-0.15989628
106	0xbca59b85	-0.020215759
107	0x3d5d6646	0.054052614
108	0x3db80077	0.08984464
109	0x3cb79c4d	0.022413397
110	0xbdcbcfe8	-0.09951764
111	0x3e0230c3	0.12713914
112	0x3de57c01	0.112052925
113	0x3cf7c606	0.030245792
114	0xbb0df42a	-0.0021660426
115	0x3ca44e02	0.020056728
116	0x3c9eeb6f	0.019399373
117	0xbe6564f5	-0.22401793
118	0xbdf9b6e9	-0.121930905
119	0x3d400893	0.046883177
120	0xbe4b9cc1	-0.19884016
121	0xbe6f7464	-0.23384243
122	0x3ceed948	0.029156342
123	0xbd34a320	-0.04410088
124	0xbdae5728	-0.085127175
125	0x3d781d81	0.060575012
126	0xbd778fb9	-0.0604398
127	0x3daaed09	0.08345992
128	0x3ddfcf5a	0.10928221
129	0x3dff0926	0.12452917
130	0x3e83c041	0.25732616
131	0x3ebb83d0	0.36624002
132	0xbd177d22	-0.03698457
133	0x3d5aba66	0.05340042
134	0x3e1a9b2a	0.15098253
135	0x3d324f31	0.043532554
136	0xbc9141f0	-0.017731637
137	0x3d3684cf	0.04456025
138	0x3d66be1b	0.056333642
139	0x3d90cd35	0.0707039
140	0x3de5123e	0.1118512
141	0x3c1119a1	0.008856208
142	0x3cb20df0	0.021735162
143	0xbd38ec31	-0.045147125
144	0xbdd5f1d5	-0.104465164
145	0xbdd1396f	-0.10216033
146	0xbdbca417	-0.09210985
147	0xbe0a99a1	-0.13535167
148	0xbdaf422b	-0.085575424
149	0xbdb4ad63	-0.088221334
150	0xbda34b3b	-0.079733334
151	0xbe0d48d4	-0.13797313
152	0xbe3482ab	-0.17627971
153	0x3bc0a577	0.0058791
154	0xbe0a11e3	-0.13483386
155	0xbe22c4db	-0.15895407
156	0xbe4833dc	-0.19551033
157	0xbe90ab26	-0.28255576
158	0xbe8349c3	-0.25642213
159	0xbda52a22	-0.08064677
160	0xbe5581c4	-0.20850283
161	0xbe11c4fd	-0.14235301
162	0x3e74cd6c	0.23906487
163	0x3e793e01	0.24340059
164	0x3d8f75ca	0.07004888
165	0x3d8b43dc	0.068000525
166	0x3dd28543	0.10279324
167	0x39081fa7	0.00012981762
168	0xbd64a70a	-0.055823363
169	0x3dc6d5be	0.09708737
170	0x3ca43e28	0.02004917
171	0x3dd7cefd	0.10537527
172	0x3cd9ce85	0.026587734
173	0x3cd62c57	0.02614419
174	0xbcf165dd	-0.029467518
175	0x3c5ca68e	0.013467444
176	0x3a8482f1	0.0010109824
177	0xbd3a76c8	-0.045523435
178	0xbc59c216	-0.013290903
179	0x3d529da5	0.051419873
180	0x3eb00740	0.3438053
181	0x3dfdd161	0.123934515
182	0xbe8cc36d	-0.27492848
183	0x3ea6c50a	0.32572204
184	0x3e26a082	0.16272166
185	0xbea1ec50	-0.31625605
186	0x3e93d442	0.28872877
187	0x3d42687d	0.04746293
188	0xbe877d42	-0.26462752
189	0x3df194de	0.11795972
190	0x3d396c0a	0.04526905
191	0x3af165f5	0.0018417226
192	0x3dc2ac40	0.0950551
193	0xbd2d8ed0	-0.042372525
194	0xbd056d1e	-0.032574765
195	0x3cbbd63f	0.022929309
196	0xbd4232fa	-0.047411896
197	0xbaba8114	-0.0014229142
198	0xbc1bd09f	-0.009510188
199	0x3d51d2b4	0.051226333
200	0xbdfcaa81	-0.123372085
201	0xbd20cdd4	-0.039258793
202	0x3ca0fe28	0.019652441
203	0xbdf3fa02	-0.119129196
204	0x3db7b38a	0.08969791
205	0x3deb9047	0.11502128
206	0xbd730b0d	-0.05933671
207	0xbe0b2380	-0.13587761
208	0xbda14596	-0.078746006
209	0xbd08c538	-0.033391207
210	0xbdd0cf18	-0.1019575
211	0x3b29824f	0.0025865023
212	0x3bf19b80	0.0073732734
213	0xbe13a35c	-0.14417785
214	0xbdceeaf2	-0.10103406
215	0xbdc8aa2e	-0.09798084
216	0x3e0d8f10	0.13824105
217	0xbd5db2e7	-0.054125693
218	0xbdf00aec	-0.11720833
219	0x3dbfe033	0.093689345
220	0xbdb193af	-0.086707465
221	0xbe653d39	-0.22386636
222	0x3dcefbbe	0.1010661
223	0xbdd04699	-0.101697154
224	0xbdc0bfef	-0.094116084
225	0x3d945858	0.07243413
226	0x3d4bf682	0.049795635
227	0xbde8e94e	-0.11372624
228	0x3cb3cf9f	0.021949587
229	0xbc8d018a	-0.017212648
230	0xbe0cb75d	-0.13741823
231	0xbcc7168c	-0.024302743
232	0x3c98775a	0.018611599
233	0xbe0c46b8	-0.13698852
234	0xbd883e2e	-0.06652485
235	0xbe351fd7	-0.17687927
236	0xbe0a8829	-0.13528503
237	0xbe16d647	-0.14730178
238	0xbe789287	-0.24274646
239	0xbe437549	-0.1908771
240	0xbdf8d45c	-0.12149879
241	0xbdf57c9d	-0.11986659
242	0xbdf21e2a	-0.118221596
243	0xbd393567	-0.045216944
244	0xbe037f4f	-0.12841533
245	0x3ce5e56d	0.0280635
246	0xbd351ee8	-0.044218928
247	0xbd6a26f3	-0.05716605
248	0x3db37783	0.087630294
249	0x3d66611b	0.05624495
250	0x3d6f3100	0.05839634
251	0x3dbd10b4	0.092317015
252	0xbdd8f1a1	-0.10592962
253	0x3de988c5	0.1140304
254	0x3e4d88d8	0.20071733
255	0xbdaf0feb	-0.08547958

module.layer2.0.bn1.weight f4 [32]
0	0x3f36dd5f	0.71431535
1	0x3f29caa6	0.6632484
2	0x3f09e19f	0.53859895
3	0x3f498e15	0.78732425
4	0x3f1914f7	0.59797615
5	0x3f0ecbca	0.5577971
6	0x3f04f10e	0.5193032
7	0x3f4e6e6d	0.80637246
8	0x3f41297c	0.75453925
9	0x3f8f772c	1.1208243
10	0x3f045655	0.5169423
11	0x3f4c471f	0.7979602
12	0x3f3f3a7a	0.74698603
13	0x3ee72202	0.45143133
14	0x3f4ad072	0.7922431
15	0x3f196a65	0.5992797
16	0x3f27091f	0.6524829
17	0x3f2a4a14	0.66519284
18	0x3f33d7f1	0.70251375
19	0x3f50029b	0.81253976
20	0x3f41550a	0.75520384
21	0x3f30d48a	0.6907431
22	0x3f260d81	0.64864355
23	0x3f14f2e0	0.581831
24	0x3f059e5f	0.5219478
25	0x3f5d2cd9	0.8639656
26	0x3f4c8c3b	0.79901475
27	0x3f07fb4a	0.5311781
28	0x3f93ffd7	1.1562451
29	0x3f1e2bfa	0.6178585
30	0x3f2cdf06	0.67527807
31	0x3f4217f8	0.75817823

module.layer2.0.bn1.bias f4 [32]
0	0xbe8ecf04	-0.27892315
1	0xbe6d1066	-0.23150787
2	0x3dd265f4	0.10273352
3	0x3e809bdb	0.25118908
4	0xbd50058f	-0.05078655
5	0x3d08d8cb	0.033409875
6	0x3e76bc09	0.24095167
7	0xbdc92996	-0.09822385
8	0x3c82338f	0.015893726
9	0xbeba85b7	-0.3643014
10	0x3df53fde	0.11975072
11	0x3d3d9564	0.046285048
12	0x3c50e893	0.0127507625
13	0x3f077113	0.5290691
14	0x3d1dfb96	0.03857001
15	0x3edca13d	0.43091765
16	0xbe81266f	-0.25224635
17	0xbeabb66d	-0.33537617
18	0x3e42e959	0.19034328
19	0xbe09f291	-0.13471438
20	0xbe3b7810	-0.18307519
21	0xbdd0d80d	-0.101974584
22	0xbe04d8c3	-0.12973313
23	0xbe2242c1	-0.15845777
24	0x3e72cb56	0.23710379
25	0xbe96c3bf	-0.29446217
26	0xbed5a0c9	-0.41724232
27	0x3ea17d56	0.31540936
28	0xbee5a826	-0.4485485
29	0xbdd84f8b	-0.105620466
30	0xbe33c1c1	-0.1755438
31	0xbdbcf6d4	-0.09226766

module.layer2.0.bn1.running_mean f4 [32]
0	0x3f20e882	0.6285478
1	0xbf3c6156	-0.7358602
2	0x3f1a4523	0.60261744
3	0xc0995fc0	-4.792938
4	0xbf0b7407	-0.5447392
5	0x3fb7035e	1.4297903
6	0xbf9ffbce	-1.249872
7	0xbf7daf41	-0.9909554
8	0x3f85b78c	1.0446639
9	0xc02ecaab	-2.7311199
10	0xbf947c2a	-1.1600392
11	0xc07b0d8c	-3.9227018
12	0xc0632b34	-3.549512
13	0xbf78bff4	-0.971679
14	0x3f36e253	0.71439093
15	0x4041a629	3.0257666
16	0x3f373bef	0.71575826
17	0xbfca1deb	-1.579038
18	0x405b1002	3.422852
19	0x3f9ff049	1.2495204
20	0xc02dda78	-2.7164593
21	0xbfa0f5d2	-1.2575018
22	0x3dab934d	0.08377705
23	0xbff1a308	-1.8877878
24	0xbf9c5258	-1.2212629
25	0xbef12fcb	-0.47106776
26	0xbec6b24e	-0.3880791
27	0xc02fc02f	-2.746105
28	0xc02639fc	-2.597289
29	0x4087ee2b	4.247823
30	0xbfa4fa27	-1.288884
31	0xbfef0dba	-1.8676064

module.layer2.0.bn1.running_var f4 [32]
0	0x4029b495	2.6516469
1	0x3feadd36	1.8348758
2	0x4060376a	3.5033822
3	0x40cba6a2	6.364091
4	0x400ab07f	2.1670225
5	0x4054c639	3.3245986
6	0x400d0ad7	2.2037866
7	0x407ecfd3	3.9814346
8	0x40726fb8	3.7880688
9	0x408c7d26	4.390277
10	0x3ffa350c	1.9547439
11	0x40704e0e	3.754764
12	0x40514911	3.2700846
13	0x403c7a12	2.9449506
14	0x40ae6e61	5.450974
15	0x40578824	3.3676844
16	0x3fd357ff	1.6511229
17	0x3fd5df32	1.6708739
18	0x4077ec34	3.8737917
19	0x4013fdcf	2.3123662
20	0x401f025e	2.4845195
21	0x40602133	3.5020263
22	0x40121643	2.2826087
23	0x4017a20c	2.3692656
24	0x403d4fbe	2.957992
25	0x4004b902	2.073792
26	0x4004e1f5	2.0762913
27	0x4034face	2.827808
28	0x404fd043	3.2470863
29	0x400f74d3	2.2415054
30	0x400ede0c	2.2323027
31	0x409a65b1	4.8249135
