results/N1ki/cifar10/nokd/resnet8_best.pth.tar (torch_old, 371376 bytes, 52 tensors)

module.conv1.weight f4 [64, 3, 3, 3]
000000 89 d5 5b 3d 0c a2 17 3e 7f bb 95 bb 89 40 10 3e
       0.05367044 0.1480791 -0.0045694704 0.14087118
000010 5b 43 9e 3e f8 cc 02 3e 7b 5c f2 3a 70 e1 36 3e
       0.30910763 0.12773502 0.0018490696 0.17859435
000020 ac 78 a0 3d db de 31 be 8e cf 08 be b6 31 d7 bd
       0.07835516 -0.17370169 -0.13360426 -0.105075285
000030 02 9a 81 be 16 87 50 be eb 03 20 be 4c 91 45 be
       -0.2531281 -0.20364031 -0.15626495 -0.19293708
000040 ff 30 fd bd 58 4b 4d bd da ae 96 3d c1 92 30 3d
       -0.12362861 -0.05012068 0.07357569 0.043108705
000050 aa b6 78 3b 1b ad 27 bd 18 33 32 bd 2e bf 8b bd
       0.0037950673 -0.04093657 -0.043505758 -0.06823574
000060 16 06 8d 3b 7f 76 1a bd 5c 42 83 bc 34 66 d8 bd
       0.004303704 -0.037710663 -0.016022854 -0.10566369
000070 0a 52 5a be 0e 8e a9 bd aa 6d 5d bc 6a 83 4d 3e
       -0.21320358 -0.08279048 -0.0135149155 0.20069662
000080 db 7b 1b 3d 9a dc b8 bc b1 9b 03 3e 0c 70 27 3d
       0.037959915 -0.022566129 0.1285236 0.04087834
000090 72 df e5 bd 63 99 34 be 27 22 4e be 06 95 d0 3c
       -0.112242594 -0.17636637 -0.20130216 0.025461685
0000a0 c1 32 92 3e 63 8b 05 bd b8 5a 61 3d 6c 08 66 3e
       0.28554347 -0.032603633 0.055018157 0.2246415
0000b0 53 42 07 3d 7d 8e e1 bc 59 0a 41 be 91 d3 1d be
       0.033022236 -0.027533764 -0.18851604 -0.15412737
0000c0 6b 32 2d 3d f6 ee 5c 3e 2e 21 d3 3b 09 55 03 3d
       0.04228441 0.21575531 0.0064431643 0.032063518
0000d0 5b e2 fc 3d 4d 9b 90 bd 88 e1 0d 3c a6 f3 fd 3d
       0.123478614 -0.07060871 0.008659728 0.12399988
0000e0 32 64 c9 3e 4a ea 04 be e8 de 76 be 34 b8 5a 3e
       0.39334255 -0.12979999 -0.2410847 0.2135933
0000f0 a0 67 bd bd 6a aa 49 be 7f b0 84 3c f6 f7 08 3d
       -0.092482805 -0.19693914 0.016197441 0.0334396
000100 16 27 3e 3c 2a 89 a6 3d cb 47 59 3d f0 0d 1f be
       0.0116059985 0.08131631 0.053046983 -0.1553266
000110 80 df 9a 3d ce 3e 01 3e 4c 61 ad 3b 80 a3 77 3d
       0.075621605 0.12621614 0.0052911397 0.06045866
000120 ab 44 8e 3d ef 39 9d bd e1 9b 02 be 5c 7d 47 3e
       0.06946691 -0.076770656 -0.12754776 0.19481415
000130 ce 73 73 bd e3 be 59 bd 58 b1 87 3e 96 06 0c 3e
       -0.05943661 -0.05316056 0.2650249 0.13674387
000140 bb f3 93 3c 51 ac 42 3d 02 16 28 be ff 3c d0 3d
       0.018060556 0.047527615 -0.16414645 0.10167884
000150 c5 e0 f3 be 76 72 1f 3f 0b dd f5 bd 66 cd 72 3e
       -0.47632423 0.6228403 -0.12005051 0.23711166
000160 04 84 fd bd 49 92 49 be de ed eb bd d1 25 ff bc
       -0.123786956 -0.1968471 -0.11519979 -0.031145962
000170 41 71 9d bc 0c cc 02 bf 47 66 3b 3f 6e cc 2d be
       -0.019219043 -0.510926 0.7320294 -0.16972515
000180 92 db 44 3e 61 c4 d7 bd eb d5 27 be d4 ca 3c 3c
       0.19224384 -0.10535503 -0.16390197 0.011522967
000190 03 1e a2 bd db 52 1a 3e ef 31 c2 be e3 16 11 3f
       -0.079158805 0.1507067 -0.3792872 0.5667555
0001a0 57 ce 59 bd 1a 98 13 3e 14 49 a2 bc f3 6b aa bd
       -0.053175297 0.14413491 -0.019810237 -0.08321371
0001b0 02 52 e8 3c a2 50 e7 3c e4 0e af bd 76 59 20 3c
       0.028359417 0.02823669 -0.08547762 0.009786954
0001c0 5a 32 be ba ed c7 a9 bd 10 7f 67 bd 26 a4 31 bd
       -0.0014510856 -0.08290086 -0.05651766 -0.043369435
0001d0 25 d4 89 bd 1b 43 6c 3d bd 45 cd 3d ec 3d 3d 3d
       -0.067299165 0.057681184 0.10023067 0.04620163
0001e0 da 3c c0 3c d1 be fd 3c 25 76 bd 3c bb e9 09 3c
       0.023466516 0.030974777 0.023127625 0.008417542
0001f0 35 ca 6e bc ad ea cc 3b ea 00 30 3d 41 cd b6 3d
       -0.014574577 0.0062535615 0.04296962 0.08925868
000200 fd 4d 8c 3d 49 a1 b6 ba 36 19 b4 3c 9b ef 2a 3d
       0.068508126 -0.0013933565 0.021984678 0.04173241
000210 35 9f 47 bd 8e a1 76 bd 0b 8a 69 3a d6 dd 9a 3d
       -0.048735816 -0.060212664 0.00089088146 0.07561843
000220 3c 44 5b 3c d4 56 6b 3c cb fb 20 3d ad ca b6 bd
       0.013382968 0.014363963 0.03930263 -0.08925376
000230 a3 1d ac bd ea f4 32 3d 90 79 a7 bd b9 d4 11 be
       -0.0840409 0.0436906 -0.08177483 -0.14241304
000240 73 5d 82 bc 96 52 e8 bd 0a 37 56 bd 16 63 a4 bd
       -0.0159137 -0.11343877 -0.052298583 -0.08026712
000250 09 6e 2c be 67 64 00 be f3 ee 0b 3c a0 ea b0 bd
       -0.1683885 -0.125383 0.008540857 -0.08638501
000260 a4 30 70 bd f1 a6 8d 3c 91 85 80 3d 2b f6 a4 3d
       -0.058640137 0.017291518 0.06275476 0.08054765
000270 11 8b a3 3c 3c f0 d5 3c a8 45 39 3d f4 87 aa 3d
       0.019963773 0.02611553 0.045232445 0.08326712
000280 65 c5 42 3c 97 d1 a7 ba b7 20 9e 3c 83 ef 02 3e
       0.011887883 -0.0012803552 0.019302709 0.12786679
000290 32 e7 a5 3e 32 d3 78 3e c1 12 db 3d 6e e5 be be
       0.3240295 0.24299315 0.106969364 -0.37284416
0002a0 bb 1e df bd cc 0a 8f be 08 9d 08 bc 31 1e 14 be
       -0.10894533 -0.27937925 -0.00833822 -0.14464642
0002b0 40 e5 08 be e7 77 8d 3d 87 c9 7e 3e 9d 7e e8 3d
       -0.13368702 0.06907635 0.24881564 0.113522746
0002c0 11 07 c2 be 06 3a 2e 3d d3 1f b8 bd 64 12 34 3e
       -0.37896016 0.042535804 -0.08990445 0.1758514
0002d0 83 e7 ac be 8f 86 2f be 2f f9 1e 3e 86 5c bc 3d
       -0.3377038 -0.17141174 0.15524743 0.09197335
0002e0 ed 5a 1e 3e c8 1d 51 be 3d 2c 58 3c 2e 79 56 3d
       0.15464373 -0.20421517 0.013194141 0.05236166
0002f0 92 b9 95 3e a9 31 4a 3e c2 8b b3 3d e8 57 2b bd
       0.2924314 0.19745506 0.08766891 -0.04183188
000300 a0 7c 62 3e d3 a5 0a 3d 5d 04 eb bd db bc 4f 3e
       0.22117853 0.03384955 -0.114754416 0.20286886
000310 cd 7d b9 3c 87 d6 9a bd 25 1d cd bd 65 d9 01 be
       0.022642994 -0.07560449 -0.100153245 -0.12680586
000320 20 26 9f bd c8 27 22 be 44 72 8d be 20 e7 2a be
       -0.07770944 -0.15835488 -0.2762624 -0.1668973
000330 55 a0 4e bd 37 1d 40 be e2 b8 e6 bd 24 99 2c 3d
       -0.050445873 -0.18761145 -0.11265732 0.042138234
000340 81 d1 8c 3d 7a a9 e5 3d 76 4a db ba d3 09 3c bb
       0.06875897 0.11213966 -0.0016730565 -0.002869238
000350 f5 56 27 3d 0a 26 25 3d da 15 00 bd 63 49 9e 3d
       0.040854413 0.04031948 -0.03127084 0.07728841
000360 3f 7f 14 3e f2 97 9d 3e e3 41 40 3e 51 05 8f bd
       0.14501666 0.30779988 0.18775134 -0.06983436
000370 e6 48 91 3d cc a0 e5 3c 86 9d 94 be 18 7c a7 be
       0.070939824 0.028030775 -0.2902643 -0.32711864
000380 a6 e9 d7 bd 0b f6 9e bb 77 77 fd 3d d4 01 0e 3d
       -0.10542612 -0.004851108 0.12376302 0.034669712
000390 8d d4 5f bd 82 9c 78 3d 33 1c 1f 3b 6a f8 cf bd
       -0.054646064 0.060696132 0.0024278283 -0.10154803
0003a0 fb 67 13 be a5 69 62 3d b2 97 cd bd 03 91 9b bb
       -0.14395134 0.05527653 -0.10038699 -0.0047475114
0003b0 d6 02 89 bd a3 b9 d4 bc 89 c9 3a 3d 61 e2 38 bc
       -0.06689994 -0.025967425 0.045602355 -0.011284442
0003c0 23 27 90 3c 1e 63 b7 3b a0 ff 9e 3d 26 84 c7 3d
       0.017596787 0.0055965325 0.077636 0.09742002
0003d0 6b 86 18 3e f5 21 d2 bd eb 69 1b 3d 78 6b 84 bd
       0.14895026 -0.10260383 0.037942808 -0.064658105
0003e0 e4 8e a2 3e 41 0f 0b 3c a8 5b 8e be fb ef ab 3d
       0.31749642 0.0084875235 -0.27804303 0.08395382
0003f0 79 d5 42 bd 61 d0 1c be c5 af 07 be 8c 25 39 be
       -0.047566865 -0.15313865 -0.13250645 -0.18080729

module.bn1.weight f4 [64]
000000 7e 44 8d 3e e5 3b 9e 3e be 82 9e 3e 8b 90 09 3f
       0.27591318 0.3090507 0.30959123 0.5373618
000010 c2 d9 73 3e f7 3c 84 3e 48 e6 52 3e 5c 31 9a 3e
       0.23813537 0.25827762 0.20595658 0.30115783
000020 e7 54 b1 3e 73 22 d2 3e b8 7d 99 3e 87 89 4c 3e
       0.34635088 0.41041908 0.29978728 0.19974338
000030 78 71 e4 3e 9d 86 0a 3f 5c c6 ce 3d 71 ea a5 3e
       0.4461782 0.54111654 0.10096428 0.32405427
000040 a1 f8 d2 3d 9d 0b 97 3e 97 f2 60 3e 49 64 cd 3e
       0.103013285 0.29501048 0.2196754 0.40115574
000050 6f 84 f5 3e 32 34 09 3e 6a 60 2c 3e ae 6e 9d 3e
       0.479526 0.13398817 0.16833654 0.30748504
000060 14 54 5a 3e 86 f0 b4 3e 1e 5c 0f 3f 08 5d 94 3e
       0.21321136 0.35339755 0.55999935 0.28977227
000070 6a b8 57 3e 23 08 ae 3e 86 82 b0 3e f5 88 e8 3e
       0.21066442 0.33990583 0.3447458 0.4541699
000080 24 31 9a 3e 09 55 8c 3e 67 d5 38 3e 40 cc cd 3e
       0.30115616 0.27408627 0.18050157 0.40194893
000090 91 36 82 3e 98 00 50 3e 62 47 8e 3e 91 aa 97 3e
       0.25432256 0.20312726 0.27788836 0.2962232
0000a0 fc fc 43 3e 3e ff 33 3e 91 b2 fd 3d 8c 65 ac 3e
       0.19139475 0.17577836 0.123875745 0.33671224
0000b0 60 94 75 3e 5c 7d aa 3e bd 33 7a 3e 38 15 94 3e
       0.23982382 0.33298767 0.24433799 0.2892244
0000c0 11 8b 94 3e be 04 9d 3e 7b 91 9d 3e 1a f6 fa 3e
       0.2901235 0.3066768 0.30775055 0.49015886
0000d0 88 e1 67 3e 76 2b 1f 3e b2 b5 6f 3e cb e0 0e 3e
       0.22644627 0.15543923 0.23409155 0.13952939
0000e0 b4 80 97 3e 67 28 95 3e bc 95 f4 3e 89 9b 58 3e
       0.2959038 0.29132387 0.47770488 0.21153082
0000f0 a7 1b 4f 3e 2f fe 54 3e 50 2e 67 3e 26 c9 92 3e
       0.20225392 0.20800088 0.2257626 0.2866909

module.bn1.bias f4 [64]
000000 d4 da 8d bd 7a f2 9a 3d cf ff 1d be 01 45 b7 3e
       -0.06926504 0.0756578 -0.15429614 0.35794833
000010 b4 08 f0 bd d9 7f b6 bd 07 90 7a 3e 1a 61 f3 3c
       -0.1172041 -0.08911104 0.24469005 0.029709388
000020 53 bb 67 bd 0e 40 ef 3c b7 25 25 bc 8d 9e c1 ba
       -0.05657513 0.029205348 -0.010079793 -0.0014771983
000030 07 ba 63 be 0a 12 09 bf 23 08 42 ba 22 7b 9f 3e
       -0.22238933 -0.5354315 -0.0007401725 0.3114863
000040 52 16 ca bd bd c1 92 3c b8 14 86 3e be e4 14 3e
       -0.098675385 0.017914647 0.26187682 0.14540383
000050 84 00 8f 3d 2f 96 22 3d 3c d7 0e 3d cf 7e 19 be
       0.0698252 0.039694007 0.034873232 -0.1498978
000060 2d c7 ac 3d 76 05 57 3e c9 7f 8e 3e e5 cb 1a be
       0.08436427 0.20998177 0.27831867 -0.15116842
000070 10 f9 9d 3c 87 6c 99 3d d4 e5 23 bc 7a db ce 3c
       0.019283801 0.07491403 -0.010003526 0.025251139
000080 9f de 3b 3d 3d 10 4b 3e 3d c6 dd 3d 9a d9 98 bd
       0.045866605 0.19830413 0.108288266 -0.07463379
000090 fb 22 2c 3d db 40 90 3d cf 0d 32 3e e3 96 75 be
       0.042025547 0.0704362 0.1738808 -0.2398334
0000a0 d5 80 b8 3d 42 c3 c8 3d c0 ae f7 3c bf 4c 44 3e
       0.09008948 0.098028675 0.030234694 0.19169901
0000b0 eb 30 b2 bd bf 98 17 be 57 7f d7 3d 61 6e f8 3d
       -0.087007366 -0.14804362 0.10522335 0.12130428
0000c0 d4 a8 73 3e 87 5c e7 3d 69 c3 2c be 7c 40 86 3e
       0.23794872 0.11296945 -0.16871418 0.26221073
0000d0 ed c5 9a 3c 24 b8 cd 3d 08 f8 14 be fa 9f 0b bd
       0.018893206 0.10044888 -0.14547741 -0.034088112
0000e0 b7 e0 34 3e f1 63 3b 3e 4e a1 b7 be b9 47 e6 3d
       0.17663847 0.18299843 -0.35865253 0.11244149
0000f0 43 90 44 3c 98 a5 a1 3b 4b 83 4b be 74 51 3d bd
       0.011997285 0.0049330704 -0.19874303 -0.046220258

module.bn1.running_mean f4 [64]
000000 13 ac 11 3e 6f 9a 8f bd dd 9a 43 be dd b0 43 bd
       0.14225797 -0.07011878 -0.19102044 -0.04777609
000010 60 72 57 bd d9 06 4e 3e cb e4 69 3b 42 15 21 3e
       -0.05259931 0.201198 0.003568935 0.15730765
000020 b5 57 19 3d 83 c7 2e 3e 78 2c 44 bd 5f 76 9e bb
       0.03743716 0.17068295 -0.04789397 -0.0048358883
000030 ab 28 1b 3e 25 06 bf 3e c1 dd 41 3d 67 aa e4 3c
       0.15152232 0.37309375 0.04733062 0.027913285
000040 88 ca 6e be e0 d0 18 3e f0 e6 01 bc 90 24 33 3d
       -0.23319447 0.1492343 -0.007928595 0.04373604
000050 cf 82 3b bc dd 70 8d bd 7d 27 43 be 55 16 37 3e
       -0.011444761 -0.069062926 -0.19058032 0.17879613
000060 50 41 37 3d 36 04 21 bc d2 35 7e bd 74 0f ef 3d
       0.04474002 -0.009827664 -0.062063046 0.11672869
000070 91 96 65 3e 9a b9 dd bd 5a a9 5d 3e 78 97 50 3d
       0.22420718 -0.10826416 0.21646634 0.0509257
000080 1f fb b3 3d d6 04 66 3d 9d 14 0e bd cc 6b 6e 3b
       0.08788132 0.056156956 -0.034687627 0.003638017
000090 13 5a bd bc 86 88 13 bc 5f 06 ed bd 18 94 65 be
       -0.02311424 -0.009004718 -0.11573481 -0.22419775
0000a0 64 b9 3e bd 26 1d 35 3e 09 29 95 bd c9 f1 5c bd
       -0.04656352 0.176869 -0.072832175 -0.05394152
0000b0 e2 5a d1 bd da 4c 21 3e 0e b9 1a bc 35 30 7d 3d
       -0.10222413 0.15751973 -0.009443535 0.061813552
0000c0 20 fc 8a 3b 40 2f 87 bd 9d 3b 19 be b9 39 9a 3d
       0.0042414814 -0.06600809 -0.14964147 0.07530541
0000d0 a2 1c 3b be 07 33 79 bd a9 34 33 3e 54 69 07 bd
       -0.18272641 -0.06083968 0.17500557 -0.033059433
0000e0 90 78 58 3d f0 68 53 3c 69 0f a3 3e 46 08 7c bd
       0.052849352 0.012903437 0.31847695 -0.061531328
0000f0 85 1a 4e 3d af cc f6 3a ce ea c0 bd d7 4c 48 be
       0.05031826 0.0018829311 -0.094197854 -0.19560562

module.bn1.running_var f4 [64]
000000 71 36 1d 3f 63 26 83 3f 1b f7 49 3f 3c ef 25 3f
       0.61411196 1.024609 0.7889268 0.6481817
000010 86 96 32 3e 07 b9 24 3f 10 00 02 3e 33 e9 0f 3f
       0.17440233 0.6434483 0.12695336 0.5621521
000020 ff 4b 27 3f 99 17 9d 3f c3 72 ab 3f b0 00 64 3e
       0.65350336 1.2272826 1.3394397 0.22265887
000030 cf 73 3f 3f 6e dc 06 40 b0 be 67 3e 29 81 fa 3e
       0.74786085 2.107204 0.22631335 0.48926666
000040 8b 2c 6e 3f d2 60 66 3f f9 d4 81 3e d1 a7 12 3f
       0.9303672 0.89991486 0.25357798 0.5728732
000050 6d f5 8c 3f 35 63 a8 3e 31 67 16 3f 7c 27 fa 3e
       1.1012398 0.3288819 0.5875121 0.4885825
000060 e7 08 d7 3d 12 91 6c 3f 61 1c 9a 3f 9f ba f8 3e
       0.10499745 0.9240886 1.203991 0.4857988
000070 2e d3 79 3f 17 7e ab 3f b7 30 67 3f e5 0a 4e 3f
       0.9758786 1.3397855 0.9030871 0.80485374
000080 06 f8 0f 3f 13 0b ae 3f 3a a2 47 3f 24 06 2d 3e
       0.5623783 1.359713 0.77981913 0.16896874
000090 d7 e5 82 3e 96 e8 00 3f 0b 64 a8 3f 21 ca 3f 3f
       0.2556598 0.503549 1.3155531 0.749178
0000a0 25 6b b4 3e e2 9e fe 3e f8 21 40 3e 6c 6c b5 3f
       0.35237995 0.49730593 0.18762958 1.4173713
0000b0 e4 50 5b 3e a7 d8 39 3f 62 bc 41 3f f8 0d a8 3f
       0.21417576 0.7259621 0.75678074 1.3129263
0000c0 1f 93 0c 40 cb a8 af 3f 70 3f d3 3e 83 be 8c 3f
       2.1964796 1.3723387 0.41259336 1.099564
0000d0 1a 9a 2c 3f 97 a9 75 3e 3b b0 08 3f 07 ed 08 3e
       0.6742264 0.23990475 0.53393906 0.13371669
0000e0 8c cf 96 3f 4a 6c ce 3f 23 aa be 3f 8c 4c 21 3f
       1.1782088 1.6126797 1.4895672 0.63007426
0000f0 4c ac 4e 3e 41 2a 61 3e 00 6a 54 3e 90 e5 21 3f
       0.20182914 0.21988775 0.20743561 0.6324091

module.layer1.0.conv1.weight f4 [16, 64, 3, 3]
000000 4a 4d 8d bd 06 d7 77 bd 5d 03 da bc 45 c3 38 bd
       -0.06899507 -0.060507797 -0.026612932 -0.0451081
000010 1b 45 93 bc f2 60 f5 3b b2 58 5d bc 0e a3 d0 3c
       -0.017977288 0.0074883634 -0.013509916 0.025468376
000020 5c 09 31 3d 82 e8 9a 3d 8a b1 f7 bc c9 08 c9 bb
       0.043221816 0.075638786 -0.030236024 -0.0061350805
000030 01 96 a3 3d 25 fe ff bb b7 8a 1e bd 1d 30 80 39
       0.07987595 -0.007812279 -0.038706508 0.0002444991
000040 84 e2 b5 bd fc c8 24 bd e3 37 d9 bc 27 b7 82 3c
       -0.08881095 -0.040230736 -0.026515907 0.015956474
000050 23 ae e1 bc e4 74 3d bd 8f d2 79 bb f3 89 c1 3b
       -0.027548855 -0.046254054 -0.0038119887 0.0059063374
000060 e2 0a 94 bc b6 d0 6a bc 90 9e fe 3c 34 ca 3d 3e
       -0.018071596 -0.014331987 0.031081468 0.18534166
000070 8b 57 2e bd f7 cb ea 3d 89 c2 1f 3e 0c 66 c5 bc
       -0.042563956 0.114646845 0.15601553 -0.024096511
000080 24 cb 0b be 9e 9b a2 3d cc d6 cd bd 7e 57 38 be
       -0.13651711 0.07939838 -0.10050735 -0.18002126
000090 c9 fa 15 bd 57 a3 23 bc 07 77 5c 3c 9f 82 cb bc
       -0.03661612 -0.009987674 0.013456113 -0.024842558
0000a0 49 90 b0 bc 55 97 6c bb 68 0a ee 3c fa 22 fb 3c
       -0.021553176 -0.0036100943 0.029057696 0.030656327
0000b0 db cd 65 3b 6c 60 04 bb 4f 36 4d bc 59 e3 e3 3b
       0.0035065326 -0.0020199073 -0.012525155 0.006954592
0000c0 2e 51 0b bc 25 b8 9f 3a 18 01 63 3c e8 ec 92 3c
       -0.008503241 0.0012185617 0.013855241 0.017935231
0000d0 04 36 ab 3c 86 53 b1 3b 89 8e 8b bb 89 42 73 bd
       0.02089978 0.005411568 -0.004258935 -0.059389625
0000e0 fd eb 3d bd 77 8f 46 bd cf b7 19 3d a1 36 08 3d
       -0.046367634 -0.048476662 0.03752881 0.033255223
0000f0 ca ba 7d bd 2b a4 48 bd 1c 6a 73 bd 08 4b 40 3a
       -0.061945714 -0.048984688 -0.059427366 0.0007335399
000100 45 f0 0b bd 8a 2b 51 3c ca b9 b8 3c d8 27 e6 3b
       -0.034164686 0.012766728 0.022549529 0.0070237927
000110 8b 5e 4c 3d 53 0a 08 3d 73 2e e0 3c 88 29 01 3d
       0.04989485 0.03321297 0.027365899 0.031533748
000120 79 4b 62 bd e7 8e 05 bd e1 eb 69 3c d9 ff 9c bd
       -0.055247758 -0.032606985 0.014277429 -0.076659866
000130 f4 ed 6c bd 46 99 49 3c 3c 89 e6 bd 47 83 2a bd
       -0.057844117 0.01230461 -0.11256644 -0.041629102
000140 0e 39 c8 3c a5 5b 55 bd d9 3d 9b bc 5e 21 58 bd
       0.024441268 -0.052089352 -0.01895039 -0.052766196
000150 5c 4c 6e bd a9 a4 c1 bd 9c 11 5d bd 37 a3 d4 bd
       -0.05817829 -0.094552346 -0.05397187 -0.10382693
000160 81 12 ca ba 3a 4c 28 bb 05 46 88 bd 68 fd b6 bd
       -0.0015416892 -0.00256802 -0.0665398 -0.08935052
000170 0b 38 01 bc f8 03 50 bd 67 90 e6 bc 52 81 8e 3d
       -0.007886897 -0.050785035 -0.028145028 0.0695826
000180 29 46 c3 bc 00 f5 cd bc 34 e7 cc 3d dc 21 f6 3c
       -0.023837166 -0.02514124 0.10005036 0.030045442
000190 4c 93 f6 bb 8a 3a b1 3a 4d 8a 79 3c 8f 72 04 bd
       -0.0075248834 0.0013521474 0.015230727 -0.032335814
0001a0 d3 84 f4 bc 67 d1 46 bb b5 3d ec bc 98 db ea bc
       -0.029848492 -0.0030337216 -0.028838018 -0.028669164
0001b0 9e e7 c9 bd 74 69 e3 bd 79 7b b7 bd df f3 3a bd
       -0.098586306 -0.11104098 -0.089590974 -0.04564273
0001c0 4c 47 84 bd af 6d 42 bd d6 23 84 bd 42 95 99 bd
       -0.06458911 -0.047467884 -0.06452148 -0.07499172
0001d0 a9 79 1d bd 8e b3 1c bd 76 ff bf bc b6 d9 4d bc
       -0.038446102 -0.038257174 -0.023437243 -0.012564113
0001e0 d2 c1 81 bd d7 c1 44 bd 56 64 a5 ba 19 59 92 bd
       -0.063357964 -0.048036423 -0.0012618403 -0.071459
0001f0 10 b9 7e bd 44 21 3c 3c 81 40 cc bc c2 5f bf bc
       -0.062188208 0.0114825405 -0.024933102 -0.02336109
000200 b6 17 9c bc 3f 26 d3 bb f6 f4 c3 bc 9c 93 55 bc
       -0.019054275 -0.0064437683 -0.023920517 -0.013035681
000210 fd 52 27 bc 85 ce b7 bc a9 48 a1 bc 90 d5 9f bd
       -0.010212657 -0.022437343 -0.019687967 -0.07804406
000220 3f 03 d3 bc 92 06 91 bd f0 61 07 bc 90 ed e3 bd
       -0.025758384 -0.07081331 -0.008263096 -0.11129296
000230 59 84 8c 3d aa c9 0e 3c be 35 6a 3d 48 98 6e 3d
       0.06861181 0.008715073 0.05718016 0.058250695
000240 c8 cc f6 3b 88 03 06 3c 37 21 27 3d 70 4a 92 3b
       0.007531736 0.008179553 0.04080316 0.00446444
000250 b2 0d c5 3c 19 31 86 3c 5c 2c 98 b8 82 b3 51 3b
       0.024054382 0.016380833 -7.2561874e-05 0.0031997864
000260 a7 8e ab 3b f5 1d 39 bd da 68 64 bd 08 b0 8f 3c
       0.0052355113 -0.045194585 -0.055764057 0.017539993
000270 9a fb fa ba 84 cd 11 3c e8 08 54 3d 06 7c 45 3d
       -0.001914847 0.008899096 0.051766306 0.04821398
000280 ec d5 a5 bb 37 51 d0 bc 37 83 8a bd 96 04 06 3c
       -0.005060902 -0.025429351 -0.067633085 0.008179804
000290 f1 3c 3b 3d e9 0b c5 bc 80 87 24 3d 31 c3 ae 3d
       0.045712415 -0.02405353 0.040168285 0.085333236
0002a0 cf 30 da bc 81 8b 48 bc ff fa 0d 3d 1f 8b 40 3c
       -0.026634602 -0.012240292 0.034663197 0.011751919
0002b0 45 ee 1c bc c5 e2 aa 3c 31 f2 1c bd bf 51 76 bd
       -0.009578292 0.020860085 -0.03831691 -0.060136553
0002c0 db 23 34 3d a9 f9 29 3d e6 fc 5f 3d 38 db 9b 3d
       0.043979507 0.04149786 0.054684542 0.07610172
0002d0 bd 1f 48 3d b5 4a 78 bd 6e 2e 76 bd 47 2d 80 3d
       0.048858393 -0.06061812 -0.060102873 0.06258636
0002e0 17 e2 36 bd 4a 72 77 bd e3 e8 6e 3d a3 70 1c bc
       -0.04464921 -0.06041173 0.058327567 -0.009548339
0002f0 e6 65 8e bc 22 0b ab bc 1a 18 6c 3b 8d ca 90 3c
       -0.017382573 -0.020879332 0.0036025108 0.017674709
000300 75 c6 26 bc 74 0a d3 bc 88 46 9f 3c 19 ef b7 bc
       -0.010179152 -0.02576182 0.019442812 -0.022452878
000310 36 25 09 bd 8a a3 f3 bb f8 b1 13 bd 4c 83 fb bc
       -0.033482753 -0.007435267 -0.036058396 -0.030702256
000320 4f 44 41 bd e9 57 11 bb 19 0a a2 bc 48 71 5a bd
       -0.047184285 -0.0022177643 -0.019780206 -0.05333069
000330 23 d6 6b 3b 16 48 b5 bc da 26 52 bd 25 04 fa bc
       0.003598579 -0.0221291 -0.051306583 -0.030519554
000340 e5 2f 5a bb e8 6e 49 bc 65 8b b3 bc 31 ba 12 bc
       -0.0033292708 -0.0122945085 -0.021917054 -0.008955524
000350 eb f4 46 bb 76 1f 59 bd 37 f7 fd bc 7d a1 11 bb
       -0.0030358385 -0.05300852 -0.03100167 -0.0022221499
000360 1c c7 a4 bc 39 3c b3 3c 6e 46 a0 3d 97 61 b6 bc
       -0.020114474 0.021879302 0.078259334 -0.022263331
000370 da 33 92 3c 3e c2 ac 3d 73 57 4a bd bd 75 0d 3c
       0.01784699 0.08435486 -0.049399804 0.008634028
000380 39 51 47 3d 15 8e 3d bd 31 c9 d0 bd 5e 7a 17 3d
       0.048661444 -0.046278078 -0.10194624 0.036981933
000390 8f 9d e9 bd 4a 50 fe bc 75 3d c2 3d 3e 2a 66 3d
       -0.11407005 -0.031044144 0.09484378 0.05619263
0003a0 fe a3 2c 3d d6 bb 98 3d 5e 4a 2a 3c c7 02 60 be
       0.042148583 0.07457702 0.010393707 -0.2187606
0003b0 94 f1 1b 3b c4 42 c7 3c fd f2 4a 3d 47 fc 9c bc
       0.0023795115 0.024323829 0.049548138 -0.019163264
0003c0 81 95 73 bd 56 2d 15 3d c8 b6 a7 3d ad c9 9b bc
       -0.05946875 0.03642019 0.0818916 -0.019017065
0003d0 76 cb 30 bd d8 79 d1 bb 2d 3b 8c bc cd 63 8c bc
       -0.043162785 -0.0063926987 -0.017118061 -0.017137432
0003e0 78 cd 8b 3b 84 73 20 3c 6d fe 0d 3c 4f 95 03 bc
       0.004266437 0.009793166 0.008666617 -0.008031203
0003f0 34 ae 85 bc 24 15 82 39 7e fd 0c 3d fa 23 ad 3b
       -0.016318418 0.00024811283 0.034421436 0.0052838298

module.layer1.0.bn1.weight f4 [16]
000000 53 78 b5 3e 7e 31 d7 3e 50 91 ba 3e 99 4f ff 3e
       0.35443363 0.42029947 0.3643899 0.49865416
000010 fe 26 aa 3e b4 a0 20 3f 5c 5f e2 3e 71 3a a5 3e
       0.33232874 0.62745214 0.44213378 0.3227115
000020 a0 ee f5 3e fe 5e 06 3f 03 7d e5 3e d2 a7 aa 3e
       0.4803362 0.52488697 0.4482194 0.33331162
000030 c9 d9 f8 3e 9b dd d7 3e e0 43 0a 3f 1b 7e de 3e
       0.48603657 0.4216126 0.5400982 0.43455586

module.layer1.0.bn1.bias f4 [16]
000000 75 b7 e9 3c e7 c3 be 3d de d0 dd bd 81 82 87 3e
       0.028529862 0.09314709 -0.10830854 0.26466754
000010 ab 18 04 be 08 41 ab 3e 68 34 4a be ce 55 32 be
       -0.12900035 0.33448052 -0.19746554 -0.17415544
000020 e2 c5 8e be e3 fa 89 be f9 b7 90 3d c9 b5 17 3e
       -0.27885348 -0.26949224 0.0706634 0.1481544
000030 5a 0d 37 be 89 c6 85 bd f3 81 0a bf 8c 7e ce 3d
       -0.17876187 -0.06532008 -0.54104537 0.10082731

module.layer1.0.bn1.running_mean f4 [16]
000000 90 14 83 bf 74 29 23 bf 83 f4 a8 be 4a 50 74 bf
       -1.024065 -0.6373513 -0.32999048 -0.9543501
000010 bc c2 1f bf 55 d6 03 bf 63 67 b9 be 96 19 56 bc
       -0.62406516 -0.5149892 -0.3621169 -0.013067624
000020 10 2e fe 3e 55 4c 2c bf e3 a4 35 bf b2 09 5a be
       0.49644518 -0.67303973 -0.7095472 -0.21292761
000030 79 93 73 bf f3 8b fd be 01 bd c1 3e c5 fd 84 bf
       -0.951469 -0.49520835 0.3783951 -1.0389944

module.layer1.0.bn1.running_var f4 [16]
000000 68 29 06 3f af 72 1e 3f 25 03 48 3e 57 c9 3d 3f
       0.5240693 0.61893743 0.1953245 0.74135345
000010 a7 d0 00 3e 21 7a 82 3f 84 9a 34 3e 13 91 7e 3d
       0.12579595 1.0193521 0.17637068 0.062150072
000020 ce 35 b7 3e 5d 8c b9 3e 97 79 02 3f 85 27 87 3e
       0.35783237 0.362399 0.5096678 0.26397339
000030 97 46 bc 3e 6f c1 91 3e 9f f5 bf 3e 0c 9d 80 3f
       0.36772606 0.2846789 0.37492082 1.0047927

module.layer1.0.conv2.weight f4 [16, 16, 3, 3]
000000 8f f6 7e bd 86 55 1d be 2a 1a bc bd bc 27 f7 bd
       -0.062246855 -0.15364656 -0.09184678 -0.120681256
000010 21 4c fc bd b6 9b 7d bd fb 2f de bd 39 6d 20 be
       -0.12319208 -0.061916076 -0.10848995 -0.15666665
000020 9d 1e 6b bd 0c 82 55 3d 46 98 50 bd 77 ca 02 be
       -0.057402242 0.052125975 -0.05092647 -0.12772547
000030 6f bc c6 3d 01 7b b8 bd b6 35 6e be d0 85 73 3d
       0.097039096 -0.09007836 -0.23262677 0.059453785
000040 c3 f7 da bc 01 4e ce bd b0 ba b8 3c 4d d6 6f bd
       -0.02672947 -0.10073472 0.022549957 -0.058553983
000050 21 6f c8 3d 36 0d 3c bc 73 33 8e bd 6a fa 0c 3e
       0.09786821 -0.011477759 -0.06943407 0.137674
000060 e2 0c f7 39 36 37 aa 3b 8d e2 54 3e 13 9f f0 bd
       0.0004712111 0.00519457 0.20789547 -0.11749091
000070 8f 67 6b 3c 8f 05 3c 3e 84 c2 80 be 48 2b 4a 3d
       0.014367952 0.18361495 -0.25148404 0.049357682
000080 d4 4e cf 3d 33 2c 00 be 9c 2f b2 bd e2 9f fc 3a
       0.10122457 -0.1251686 -0.08700487 0.0019273723
000090 ac 7c 23 be 3d f0 b2 bd aa 00 60 bd 4f bb e0 bd
       -0.15965527 -0.08737228 -0.054688133 -0.10973226
0000a0 c8 b8 97 bd d7 d7 89 3c a4 43 9f bc c4 41 83 3b
       -0.07408291 0.016826553 -0.019441433 0.0040056426
0000b0 99 6b 50 3d b5 01 f3 3c 5a 0c 14 bd 70 21 08 be
       0.050883863 0.0296639 -0.036144592 -0.13294005
0000c0 aa 5d 67 3e d3 37 83 3c 84 5b 47 3a 92 28 c1 bd
       0.22594324 0.01601783 0.00076048844 -0.09431566
0000d0 d9 e2 9c bd 01 f1 e7 bd 06 cd 1c 3d 92 54 5b 3d
       -0.07660455 -0.11325265 0.038281463 0.05354745
0000e0 b0 21 48 3e 68 60 8c 3c ef 5e 0f bd 3e 1d ea 3d
       0.19544101 0.017135814 -0.035002645 0.11431359
0000f0 b6 0b 1d be 80 de 9b be 0b 85 c0 bd 73 76 74 3b
       -0.15336499 -0.30443192 -0.09400376 0.0037302047
000100 d2 7f 8b bd 39 99 65 bd a3 76 91 3c ca 51 bb bc
       -0.06811489 -0.056054328 0.017756766 -0.022866149
000110 63 11 16 3c a6 ad bc bc fe fc 8c bd ef 7d a9 bb
       0.009159419 -0.02303202 -0.06884192 -0.005172483
000120 15 81 21 be 3b b4 5a bd 51 ac 41 3d f4 af fc bd
       -0.15771897 -0.053394537 0.047283474 -0.12338248
000130 ca 2d 53 bd 3c 3a 34 3d b6 14 bb bd 2d 7f d6 bc
       -0.05155734 0.04400085 -0.0913481 -0.026183689
000140 ba 30 aa 3c c4 e2 cd bc f9 a8 ba bc 97 7e 81 3c
       0.020775188 -0.025132544 -0.02278565 0.015807433
000150 61 c3 26 3e 60 9e 77 3c 38 84 7a bd ae ac 63 3e
       0.16285469 0.015113443 -0.06116125 0.22233841
000160 7b d4 97 3d 9f b9 9b bd 0c b2 62 bd 8c 86 31 bd
       0.07413574 -0.07603764 -0.05534558 -0.043341205
000170 3b 11 fd 3c 1a 82 81 be b4 b0 f6 bd 91 bf 52 3d
       0.030892005 -0.25294572 -0.12045422 0.051452223
000180 17 3f 24 be 13 f5 b3 bd 26 74 de 3c 9d d9 8a bd
       -0.16039692 -0.087869786 0.027154993 -0.06779788
000190 d8 23 9f 3d d7 6d 83 3d c9 b5 a4 bd b1 98 b3 bc
       0.077705085 0.06417435 -0.08042485 -0.021923395
0001a0 5e 79 86 bd 40 8d d1 bd 0c 4b 95 bd 22 2f d6 bd
       -0.06566118 -0.102320194 -0.07289705 -0.104582086
0001b0 2b ba 9a 3d 67 c8 f1 bd e7 b0 30 be a4 5e 22 3e
       0.0755504 -0.11805802 -0.17254983 0.15856415
0001c0 62 11 27 bd 1f b8 1c be 2e a5 17 3d 51 c2 c2 bd
       -0.040788062 -0.15304612 0.037022762 -0.09509719
0001d0 9e 3b cd bd 8f b8 5d 3b 2a fd 2d bd bf 9c 8d 3d
       -0.10021137 0.003383193 -0.042477764 0.069146626
0001e0 75 37 0a 3e 82 d8 42 bd 6d 9f 12 bd 40 d4 f3 3d
       0.13497718 -0.04756976 -0.03579657 0.11905718
0001f0 a6 f7 86 bd d7 fd 77 bd 25 93 13 be 62 35 72 bd
       -0.06590204 -0.060544815 -0.144116 -0.05913294
000200 b2 04 3e 3e 5e 6b 01 be 8e da 7b bd fc 5b 19 3e
       0.18556479 -0.12638614 -0.061487727 0.14976496
000210 37 81 db bd c3 79 aa bd 1b 08 d2 3d b8 0f 77 bc
       -0.10718005 -0.083240055 0.10255452 -0.015079431
000220 ef 61 5b bd ba f2 9b 3d 9d 80 06 3e 30 1e 26 3e
       -0.053560194 0.07614656 0.13135 0.16222453
000230 22 c7 5f 3e e3 c0 cd 3b 46 ca d7 bd c1 8d 24 3e
       0.21853307 0.0062790974 -0.105366275 0.160697
000240 69 7b 2c 3d 5a 67 5a 3c 15 31 5a 3c 52 f3 ac 3d
       0.04210988 0.013330305 0.013317366 0.08444847
000250 10 ad d7 3c f3 3e 92 3d 4a c3 7f 3c b6 16 5d be
       0.02632764 0.07140913 0.015610525 -0.21590695
000260 88 a4 43 be 38 35 20 bd e0 65 bb bd e7 0c 1b be
       -0.19105732 -0.039113253 -0.091502905 -0.1514164
000270 c7 4c 0a be 0c 3b f5 3c 71 e2 8e 3c 83 ea 6d 3e
       -0.1350585 0.029935382 0.01744196 0.2323399
000280 c5 36 9d 3d 5d a7 c2 3d 9a 16 99 3d bf 29 fb 3d
       0.07676462 0.09504578 0.07475014 0.12263822
000290 eb fa 54 3c dc 0b 5b 3d 4f 69 08 3d 90 e4 21 bd
       0.012999277 0.053478107 0.033303555 -0.039524615
0002a0 dc d4 98 bc e4 34 ec 3d c5 17 a5 3d fc 70 9a 38
       -0.018656187 0.115335256 0.08061174 7.364337e-05
0002b0 82 85 6a be 50 36 00 be 11 81 9f 3c a4 c6 24 3f
       -0.22902492 -0.12520719 0.019470723 0.643656
0002c0 57 21 68 3e 08 d8 42 3d a8 eb cb be be 58 04 be
       0.22668968 0.047569305 -0.3982823 -0.12924477
0002d0 a9 6d 45 bd 98 ee f6 bc 64 4a 0d be 94 d8 05 3c
       -0.048200283 -0.030143067 -0.13797909 0.008169312
0002e0 5a c8 81 3c 73 32 d0 bd fe f0 63 3c cf 74 b2 3d
       0.015842605 -0.101658724 0.0139124375 0.08713686
0002f0 09 94 a6 bc cd 1b 0f be fd 9c 29 3e 03 53 86 3d
       -0.02033426 -0.13975449 0.16563793 0.06558802
000300 85 13 19 3d 46 b3 38 be c2 5b 9a bd 90 0b b3 3a
       0.03737213 -0.18037137 -0.07537033 0.0013660062
000310 d9 c9 ec 3d c1 4c ee 3d 4c 5a 2a 3c 93 87 93 3d
       0.11561937 0.116357334 0.010397505 0.07203593
000320 90 7c db bd ab b4 ac 3d 67 ae c8 3d 0a 07 0e be
       -0.10717118 0.08432897 0.097988896 -0.13869873
000330 e0 3a 2b bc 0e 30 ed bc 76 b2 6d 3d 28 97 e0 bc
       -0.010451049 -0.028953578 0.05803152 -0.027415827
000340 d2 b7 a2 3d c2 50 28 bc 9e 51 2b 3d 09 e2 16 3e
       0.07945217 -0.01027316 0.041825883 0.14734663
000350 c9 99 0b 3d 46 03 80 3b 9e 26 c7 bb e4 05 37 3d
       0.034082208 0.00390664 -0.0060776016 0.044683352
000360 b2 51 8c 3d d1 b4 d5 bc cc 91 a2 3d 6c 14 54 be
       0.0685152 -0.026087197 0.07937965 -0.20710915
000370 57 d7 7b be 60 8f 47 be 48 64 09 3d 6b 12 03 bd
       -0.24593864 -0.19488287 0.0335429 -0.031999987
000380 b7 2f 8f bc 48 10 d0 bd ae 8d be bd 42 72 0a be
       -0.017478807 -0.101593554 -0.09304367 -0.13520148
000390 c5 78 f4 bd 36 25 8b bd 00 ca d7 bd f2 46 d4 3d
       -0.119370975 -0.06794207 -0.10536575 0.10365094
0003a0 1c f0 47 3e 5e 5e 5d 3d 8a c2 c0 3d 85 0b 35 bd
       0.19525188 0.054045074 0.094121054 -0.04420044
0003b0 22 5a 86 39 67 4a b5 bd b1 52 e2 3d e5 c1 a8 3e
       0.00025625626 -0.08852082 0.110509284 0.3296043
0003c0 ed d6 aa 3d e6 da 79 be 29 73 82 be b6 16 b2 3d
       0.08341775 -0.2439991 -0.25478485 0.08695738
0003d0 91 a9 30 bc b4 74 91 3d 6a 91 06 be 2c 04 56 be
       -0.010782615 0.071023375 -0.13141409 -0.20900029
0003e0 8e 32 07 be aa 57 3d 3e d0 91 ce 3d d3 f9 7a bd
       -0.13202879 0.18490472 0.10086405 -0.061273407
0003f0 4f 59 f0 3d 28 f7 29 3e ee a5 73 3c cd 89 f7 bd
       0.11735784 0.16598189 0.014871104 -0.1208683

module.layer1.0.bn2.weight f4 [16]
000000 1a ba 0a 3f 65 ae 7a 3f e8 2d d0 3e c6 dc ca 3e
       0.5419022 0.97922355 0.40660024 0.39621562
000010 a5 2f 06 3f a1 e1 37 3f 36 77 27 3f 34 0a 8d 3e
       0.5241645 0.7182866 0.65416276 0.27546847
000020 52 1c 74 3f aa 37 a7 3e a6 f4 b1 3e 8f 33 8a 3f
       0.95355713 0.32659656 0.34756964 1.0796984
000030 48 55 ec 3e 84 af 8f 3e 59 04 65 3f 90 c7 ec 3e
       0.46158814 0.28063595 0.8945976 0.46246004

module.layer1.0.bn2.bias f4 [16]
000000 c0 80 8b 3e 90 01 d7 bd 2f 85 95 3e a8 54 c3 bd
       0.27246666 -0.10498345 0.29203174 -0.09537631
000010 66 85 b0 3c 3b 9b ef bd 07 c6 3a bd ba ea e2 3b
       0.021547984 -0.1169953 -0.04559901 0.0069249542
000020 c2 ca a6 bd 75 98 26 3e c0 d9 89 3d 72 3e 64 bd
       -0.08144142 0.16269095 0.06730986 -0.055723615
000030 34 d1 6d 3e a7 59 7e 3d c4 09 4d bd b6 2a 28 bd
       0.23224336 0.062097218 -0.05005814 -0.041056357

module.layer1.0.bn2.running_mean f4 [16]
000000 85 42 00 bf 42 6b de bd 66 fa cb be a8 48 e2 3d
       -0.501015 -0.108603016 -0.39839476 0.11049014
000010 04 9c 52 be b7 99 06 3f c7 37 40 3e 1c 58 37 be
       -0.20567328 0.525783 0.18771277 -0.17904705
000020 8f 0a fb bd b9 7c 70 bd 9b 30 a7 3d d4 40 bb bd
       -0.12257873 -0.058712695 0.08163568 -0.09143224
000030 de 83 9b bd e9 3c 50 be 54 c6 3d 3d ec 64 81 be
       -0.07593511 -0.20335735 0.04633172 -0.2527231

module.layer1.0.bn2.running_var f4 [16]
000000 41 6a 29 3e a7 3e d3 3e fa 34 e4 3d 02 2d 65 3d
       0.16544439 0.41258737 0.11142917 0.055951126
000010 b9 75 0c 3e 7d c3 20 3e 76 b9 19 3e b4 c6 54 3d
       0.13716783 0.15699573 0.15012154 0.05194731
000020 80 2f c7 3e 1f e4 e4 3d a5 82 8b 3d 1a b3 87 3f
       0.38903427 0.11176323 0.06812028 1.0601532
000030 a2 06 41 3e 0f a9 69 3d 7a 9b c0 3e 79 75 87 3d
       0.18850186 0.057045992 0.3761862 0.06614203

module.layer1.0.shortcut.0.weight f4 [16, 64, 1, 1]
000000 fc ee 4f 3b 56 a9 ce bd ae 76 78 3d 8c d6 e8 bd
       0.003172814 -0.10090892 0.060660057 -0.113690466
000010 4c c4 02 3d cb d8 07 bc 3c 99 09 be 7a 6f c0 bc
       0.031925485 -0.008291434 -0.1343736 -0.023490656
000020 3d 87 20 bc 70 18 d2 3c a3 d9 3a be 4e 65 ed bc
       -0.009797868 0.025646418 -0.18247084 -0.02897897
000030 fd 25 81 bc 75 55 75 bd 25 d6 fa 3c 3d d2 a2 bd
       -0.015765185 -0.05989595 0.03061969 -0.07950256
000040 cd e4 c3 3b 1d ad 37 be 3b ee a5 3c ab 29 91 bb
       0.005978203 -0.17937131 0.020255199 -0.004430016
000050 fa bf a9 bd 28 71 af bc 8e b8 15 3d 43 78 1e 3d
       -0.0828857 -0.021416262 0.03655296 0.03868891
000060 4d 77 13 bc ef 48 5a be 8c 0d 9b bd 31 2d 88 bd
       -0.0090006115 -0.21316884 -0.07570943 -0.066492446
000070 21 0e b2 bd 36 53 15 be e2 49 3c bd df 69 4a be
       -0.08694101 -0.14582524 -0.045968898 -0.19766949
000080 a9 b1 a9 3c e5 f5 0e 3e 33 39 11 be b5 a3 19 3c
       0.020714598 0.13960989 -0.14181976 0.00937741
000090 0a dd 1d bd 5b 54 ae bd e9 56 c8 3d 26 96 6e 3c
       -0.038540877 -0.08512183 0.09782202 0.014562165
0000a0 ee ee 08 bd 18 49 95 bb cf 13 b7 3d e0 26 ac be
       -0.033430986 -0.0045558326 0.08939325 -0.3362341
0000b0 7e cc 17 3d b8 cb a6 bd bc 8b 40 be e5 c2 7f 3d
       0.037060253 -0.08144325 -0.18803304 0.062441725
0000c0 e2 43 61 bd 16 90 c1 bd f8 5e 72 bc a8 a1 35 be
       -0.05499638 -0.0945131 -0.01479315 -0.17737448
0000d0 47 8c 5d 3d d2 7c 09 3d 52 a4 1d bd 9e 61 50 3a
       0.054088857 0.033566304 -0.038486786 0.00079491164
0000e0 64 ff 1e bd 45 9a f7 3d fd 77 36 bd e9 f5 3d be
       -0.03881778 0.120899715 -0.044548023 -0.18550839
0000f0 99 be b4 bc 3e d7 20 3c 5c b2 9f 3c f7 ea d3 3d
       -0.02206354 0.009816943 0.019494228 0.1034755
000100 23 33 c1 bd 0b f2 1d be 17 21 a7 bc 47 4a e4 3d
       -0.09433582 -0.15424363 -0.02040152 0.1114698
000110 e6 21 b8 bc 5d 92 e5 b8 60 cf f0 3c e3 6a 44 bd
       -0.022477102 -0.00010946833 0.02939576 -0.047953498
000120 a3 a6 49 3e 0d 54 5f bd 9d 56 9d bd d9 9d ed bd
       0.19692473 -0.054523516 -0.07682536 -0.11602373
000130 5e c2 11 be 37 14 78 bc b4 c3 6b ba 2d 9f b9 3d
       -0.14234301 -0.015141538 -0.00089937006 0.090635635
000140 8e f2 c0 3b d0 41 58 3d 21 a2 da bd de c6 a0 bd
       0.00588829 0.05279714 -0.10675455 -0.07850431
000150 d2 d4 83 3d f4 99 a7 bc bc c0 9d bc 76 ed 8d bd
       0.06437077 -0.020459153 -0.019256942 -0.06930058
000160 4a bb e5 3d 25 d3 bc 3d ff bf 31 3e fb 2c 70 bd
       0.11217363 0.0921996 0.17358397 -0.058636647
000170 6c 17 b1 bc 80 b3 a3 3c 56 9b 48 be 6c 3f 9d 3b
       -0.021617614 0.019983053 -0.19590506 0.0047988202
000180 c6 30 7d bd 36 49 28 bc e0 f7 13 be 84 28 d4 3a
       -0.061814092 -0.010271361 -0.14450026 0.0016186391
000190 62 40 5c bc 92 d1 db bd 23 49 d7 3d ac 5e 57 3d
       -0.013443084 -0.10733332 0.105119966 0.05258052
0001a0 42 d4 0a 3d 70 76 5c 3c c1 f4 40 3d aa dd c5 3d
       0.03389383 0.013455972 0.047108416 0.0966142
0001b0 4f 1d 9e bc eb 67 df 3c 6e 9c 23 be 46 3c 0c 3e
       -0.019301085 0.027271232 -0.15977642 0.13694867
0001c0 e4 cd 3f 3e 0b e3 29 3e d3 25 8f 3d 9c 66 90 be
       0.18730885 0.16590516 0.06989636 -0.28203285
0001d0 86 35 30 be 20 6f 18 bc 0d 22 60 bd 88 91 b2 bc
       -0.17207918 -0.009303838 -0.054719973 -0.02179791
0001e0 c9 77 ae bb dd 5e 16 bd 4b f8 15 bd 31 f8 a6 3d
       -0.005324338 -0.036711562 -0.036613744 0.081528075
0001f0 6c 83 f4 bd 3d 09 72 3c 2c b4 40 3d e4 82 a6 bd
       -0.11939129 0.01477271 0.047046825 -0.08130434
000200 34 d5 30 3b b4 08 00 3c 32 d7 00 be cb 2c e2 bd
       0.0026982548 0.007814575 -0.1258209 -0.110437
000210 1e b1 c4 3c 5e 3e a1 3c 3f d6 17 3d ed 5d 69 3d
       0.024010237 0.01968306 0.037069555 0.05697434
000220 02 3a d9 bd 14 b6 97 be 29 d4 49 bc 01 35 7a bd
       -0.10606767 -0.29631102 -0.012318649 -0.061085705
000230 65 70 3a be 2b 60 02 be 09 bb 28 bd 4d ce bf bd
       -0.18206938 -0.12731998 -0.041193996 -0.093655206
000240 8e 3c 3b bb d4 f6 88 bd c3 32 4c 3d cc ae ef bd
       -0.002857003 -0.06687704 0.049853098 -0.11703262
000250 ef 75 86 3e 4c 7c 89 3b 90 5b f8 3d 76 b0 ac bd
       0.2626185 0.0041957255 0.12126839 -0.08432095
000260 86 22 31 bd 7d a9 10 3d a8 96 67 3d 61 87 07 bd
       -0.043245815 0.035317887 0.05654016 -0.03308809
000270 7c 7e 70 3b e1 05 3e bc 64 e2 a6 bd fd 92 c9 3c
       0.0036696484 -0.011598081 -0.08148649 0.024606222
000280 0d 5c 62 3d b6 d8 94 be 0d ce cc 3c 9e b0 05 bd
       0.055263568 -0.29071587 0.025000596 -0.03263914
000290 52 62 34 3e 46 e2 82 bc e3 09 37 bd 86 73 03 3e
       0.17615631 -0.015977036 -0.044687163 0.12837037
0002a0 ba 81 2e bd a7 5b cf 3a d6 08 30 bd 1a 60 12 3d
       -0.042604186 0.0015820161 -0.042977177 0.03573618
0002b0 33 05 ad 3d ac d6 74 3b 34 d6 88 3d a5 d1 0b be
       0.08448257 0.00373594 0.06681481 -0.13654192
0002c0 e6 1b 9a 3d bf 44 de 3d ec 55 b8 3d 24 5e 30 be
       0.075248525 0.10852956 0.09000763 -0.17223412
0002d0 cb ba f6 3d 58 ad 56 bc bc c9 1b 3c 67 e1 c8 bb
       0.12047347 -0.013102852 0.009508546 -0.0061303857
0002e0 b4 23 d4 bd c5 78 78 be 37 1b e5 bd a4 be 34 3e
       -0.10358372 -0.2426482 -0.111868314 0.17650849
0002f0 1e a8 de bd 03 1b cf bd ec 28 fb 3c 77 a7 00 3e
       -0.108719096 -0.10112574 0.030659162 0.12563883
000300 0f 4c 69 3e 87 b3 bc bd db db 6f bd 2c 34 3a bd
       0.2278292 -0.092139296 -0.05855928 -0.04545991
000310 48 0d 39 be ec d5 1f 3e 2c 62 df bd ca fd 90 3e
       -0.18071473 0.15608948 -0.10907397 0.28318626
000320 f4 c5 96 bd 9e 1f e0 3d d6 af 82 bc e1 9e ec b9
       -0.07361975 0.109435305 -0.015952986 -0.00045131802
000330 80 82 03 be cc c3 ad 3d f3 9f c6 bb 57 7d c6 bd
       -0.1284275 0.08484611 -0.006061548 -0.096918754
000340 3b 45 f0 3d 10 35 2b 3e f4 bd 8a 3e 06 d9 1b be
       0.11731955 0.1671946 0.27098048 -0.15219507
000350 47 f4 02 3e e0 ba 89 3d 10 79 55 bd 5e ff 1d bd
       0.12788497 0.06725097 -0.052117407 -0.038573615
000360 ff c6 5c 3e d1 5a eb bd 6e 43 05 bd 45 90 42 3d
       0.21560286 -0.11491931 -0.03253501 0.047500867
000370 9e cd a2 3d be a3 ff 3d 95 c2 a0 bd ef 06 9b 3e
       0.079493746 0.12482403 -0.078496136 0.30278727
000380 02 e7 39 3d 94 65 bc ba ec d1 33 3c 90 c0 b6 bd
       0.04538632 -0.0014373534 0.010975342 -0.08923447
000390 d7 2c a0 3c 53 25 e9 bd a5 98 0d 3d 53 b3 0c 3e
       0.019552631 -0.11384072 0.0345694 0.13740282
0003a0 42 01 63 3d f0 8c 41 3e 4f a2 92 bd 15 87 9f 3b
       0.05542112 0.1890142 -0.07159864 0.004868398
0003b0 74 23 bc bb ff 2f a5 3d c0 6f 30 3e c5 b5 83 bd
       -0.005741531 0.08065795 0.17230129 -0.06431154
0003c0 a0 3e d7 3c c6 7a 42 3d 94 3e 14 3e 98 1c 4e 3d
       0.02627498 0.047480367 0.14476997 0.050320238
0003d0 83 b2 2e 3e 29 89 b0 3b 1a 32 b7 bd 85 5f 95 bb
       0.17060284 0.0053874445 -0.08945103 -0.004558506
0003e0 90 c8 41 3e 87 a6 fc bd f5 14 2e 3d ae b8 45 3a
       0.18924165 -0.1233645 0.042500455 0.0007542473
0003f0 6c 61 b1 3d c5 7a b0 3c 81 5a f5 bc 47 a0 15 3e
       0.0866116 0.021542916 -0.029950382 0.14611922

module.layer1.0.shortcut.1.weight f4 [16]
000000 f3 ab b6 3e c0 a5 8e 3e 18 a7 ce 3e 6d eb d8 3e
       0.35678062 0.27860832 0.40361857 0.42367116
000010 4a 64 b5 3e 0f 21 db 3e 9b db 91 3e 9c 6a 0a 3f
       0.35428077 0.4279866 0.28487858 0.54068923
000020 ae 69 93 3d 0b 5d cf 3e a0 99 cf 3e 88 92 0a 3d
       0.07197891 0.40500674 0.40546894 0.03383115
000030 c4 1d ed 3e 92 6c f4 3e a4 11 0b 3e fc 7f e7 3e
       0.46311772 0.47739083 0.13580948 0.45214832

module.layer1.0.shortcut.1.bias f4 [16]
000000 c0 80 8b 3e 90 01 d7 bd 2f 85 95 3e a8 54 c3 bd
       0.27246666 -0.10498345 0.29203174 -0.09537631
000010 66 85 b0 3c 3b 9b ef bd 07 c6 3a bd ba ea e2 3b
       0.021547984 -0.1169953 -0.04559901 0.0069249542
000020 c2 ca a6 bd 75 98 26 3e c0 d9 89 3d 72 3e 64 bd
       -0.08144142 0.16269095 0.06730986 -0.055723615
000030 34 d1 6d 3e a7 59 7e 3d c4 09 4d bd b6 2a 28 bd
       0.23224336 0.062097218 -0.05005814 -0.041056357

module.layer1.0.shortcut.1.running_mean f4 [16]
000000 aa de fc be 4a ae 1e 3d 94 40 61 be fc 7d 7e 3e
       -0.4938863 0.038740434 -0.21997291 0.24852747
000010 41 39 11 bc d0 11 9a 3e cd 99 f2 3e 58 03 3c bf
       -0.008863748 0.30091715 0.47382966 -0.734426
000020 2b 0b b5 be 56 d9 a7 3b a7 21 e1 bd 09 d9 a7 bd
       -0.35360083 0.005122344 -0.10992747 -0.08195693
000030 84 c8 78 bc ca 98 bd bd 22 1d d4 be 05 37 24 bf
       -0.015184525 -0.09257658 -0.41428477 -0.64146453

module.layer1.0.shortcut.1.running_var f4 [16]
000000 2c 48 f1 3d 11 4a 1c 3e 0c aa 1b 3e e0 52 76 3d
       0.11781344 0.15262629 0.15201586 0.06013763
000010 86 ed ad 3d ff ce 46 3d c8 69 e3 3d 30 0a 13 3e
       0.084925696 0.04853725 0.111041605 0.14359355
000020 4a d6 36 3d e5 d3 1e 3e 69 b8 9f 3d d7 cf 03 3d
       0.044637956 0.15510519 0.07798845 0.032180633
000030 e9 6a 2c 3e ee 3a dd 3d 53 76 a5 3d 93 72 dc 3d
       0.16837658 0.108022556 0.08079209 0.10764041

module.layer2.0.conv1.weight f4 [32, 16, 3, 3]
000000 75 2d 4a 3d b7 8a 3c bd 91 18 62 bd c6 65 82 bd
       0.049359757 -0.046030726 -0.05519921 -0.06367068
000010 f4 56 de bd 16 98 76 bc 7c ce ba bc 23 fa c6 3c
       -0.10856429 -0.015050909 -0.022803538 0.024289196
000020 41 7e 6f 3e 28 49 27 3e 1d 51 6e 3e d1 2f 17 3e
       0.23388006 0.163365 0.2327313 0.14764334
000030 84 16 c0 bd 74 f4 b0 bd 43 cd 01 be 64 18 81 3d
       -0.093792945 -0.08640376 -0.12675957 0.0630348
000040 2f fc d9 3d 7e d5 bd 3c 41 d9 29 be 04 e3 90 bd
       0.10643803 0.02317309 -0.16586782 -0.0707455
000050 06 22 a8 3d 14 5e 1a be 0a 3b d2 bd 1e 85 09 bc
       0.082096145 -0.1507495 -0.10265167 -0.008393554
000060 37 87 0a 3e 4b 2e 76 3d 50 21 0e bd 56 03 58 3c
       0.13528143 0.060102742 -0.034699738 0.013184389
000070 75 28 91 3d ab 94 8c 3d 5f 08 85 3d 5c c4 88 3d
       0.07087795 0.06864294 0.06495737 0.066780776
000080 55 00 c0 3c 86 59 7f bd 2a 4e da bd 32 d2 ed bd
       0.023437658 -0.062341236 -0.1065944 -0.11612357
000090 99 23 0b 3d af 87 a4 3d f8 d1 05 3e 2e 8a 10 3d
       0.033969495 0.08033692 0.13068378 0.03528803
0000a0 44 a6 81 3d 11 52 94 3c 68 04 a7 3b d8 c6 07 bd
       0.06330541 0.018105539 0.005096961 -0.033148617
0000b0 71 a1 74 bd 21 94 34 bd 11 d0 4c bd 0a a8 93 bd
       -0.059724275 -0.04408658 -0.050003115 -0.07209785
0000c0 37 3b 0b bd 9c 7e 22 bd 2c bc 7a bd b4 93 49 bd
       -0.03399202 -0.039671525 -0.06121461 -0.049213126
0000d0 a5 63 8d bc 6b 94 81 bd 3a 90 08 3d 34 12 5b 3e
       -0.017259428 -0.063271366 0.03334067 0.21393663
0000e0 d1 ee 26 3e 15 d4 ec 3c fb 6b 90 3d 2b 22 89 3a
       0.16302039 0.028909722 0.07051846 0.0010462453
0000f0 02 7c 27 be 90 c3 45 be f4 e9 77 be 77 ce 0f bd
       -0.16355899 -0.19312882 -0.2421034 -0.03510901
000100 b3 2b 35 3c 85 13 28 bd b2 59 cf 3d 64 f4 8c 3d
       0.011057782 -0.04103424 0.1012453 0.06882551
000110 3d 62 9a 3b 3c e9 27 bb aa 16 09 3d 65 d7 63 bd
       0.004711418 -0.0025621196 0.03346888 -0.055625338
000120 36 e3 19 be 1c 81 20 be 43 4e 04 be 14 29 57 be
       -0.1502808 -0.15674251 -0.1292048 -0.21011764
000130 6a b9 1a be 2f ed 22 bd 01 b5 fa bc 04 00 45 bd
       -0.15109792 -0.039776977 -0.030603888 -0.048095718
000140 2b bc 06 bc 83 9b 85 bd 56 a4 a2 3c d3 a3 26 3e
       -0.008223574 -0.06523802 0.019853752 0.16273431
000150 a6 1c e5 bd b4 e3 ae bd 4f d8 97 3c 28 c2 a0 3b
       -0.11187105 -0.08539525 0.018535761 0.0049059577
000160 ad 52 d2 bc 35 e9 ef bc ea 30 c8 bc e8 67 93 3a
       -0.025674189 -0.029286006 -0.024437387 0.0011246176
000170 a5 1d 06 3e 78 38 07 3d ca ca b1 3c 25 39 82 3d
       0.13097246 0.033012837 0.021703143 0.06358556
000180 74 83 8c 3d 9b 10 d2 3c 9d 75 4c bc f5 0d bd bd
       0.0686101 0.025642684 -0.012479213 -0.09231178
000190 38 d2 8d bd a6 d6 a6 39 44 95 ea 3d 0e 1b 35 3e
       -0.06924862 0.00031821913 0.114542514 0.17686102
0001a0 6c b9 4e 3e 15 09 23 3d 52 41 89 3e e3 38 88 3e
       0.2018792 0.039803583 0.26807648 0.266059
0001b0 26 ed 3a be 37 14 4f be 15 f6 57 be d0 bc 77 3e
       -0.18254527 -0.20222555 -0.21089967 0.2419312
0001c0 40 c8 6a 3e a4 13 87 3e 90 5d 08 3e 4d 5a b5 3d
       0.22927952 0.26382172 0.13316941 0.08855114
0001d0 27 c0 78 3d 57 9c 05 3d a2 ef 05 3c af d0 1d 3d
       0.060730126 0.0326198 0.008174809 0.038529094
0001e0 de 48 46 bc 60 1b 2e bd 53 5e a4 bc 55 a5 42 3d
       -0.012102334 -0.042506576 -0.020064509 0.047520954
0001f0 55 59 35 bc ca c4 82 bc d2 3a d1 bc 26 90 b3 bd
       -0.011068662 -0.015962977 -0.025540743 -0.087677285
000200 8c 33 04 bd 4a e4 2b bd 40 87 3b bd 83 25 5e bd
       -0.03227572 -0.04196576 -0.04578328 -0.054234993
000210 aa ec ab bd c9 a1 d2 bd 54 70 37 bc cb 7e 8d 3d
       -0.083947495 -0.10284764 -0.011196215 0.069089495
000220 78 57 81 3d 79 47 a0 3d 83 b0 b5 3c 66 be b5 bc
       0.063155115 0.07826132 0.022178894 -0.022185516
000230 fe 37 d3 bb 06 ae 69 3d 1b 76 23 3d ff 0d 6f 3d
       -0.006445884 0.057050727 0.039907556 0.058362957
000240 f4 0a cd 3b f2 f9 02 3d 55 35 dc bc 7f f9 92 ba
       0.006257409 0.031976648 -0.0268809 -0.0011213272
000250 78 8c 29 bd fb 32 a7 bd 88 f3 30 3d 9d b0 ff 3c
       -0.041393727 -0.08164021 0.043201 0.031212145
000260 00 78 e3 bc 69 ca a2 3c a2 ad da 3c 9b 98 2d 3d
       -0.027767181 0.019871907 0.026694123 0.042381864
000270 7e 23 72 3b 0a 94 86 bd bc 91 65 3b 3f a4 9d bc
       0.0036947425 -0.06571205 0.0035029491 -0.019243358
000280 92 dd 51 bd 2d 03 8a bd 01 ef b5 bd 6d 56 34 3c
       -0.051236697 -0.06738887 -0.08883477 0.011006934
000290 19 09 1a bd 5c 23 d5 bd 89 bf 8d bd f0 67 df bd
       -0.037606332 -0.10407135 -0.06921298 -0.109084964
0002a0 bb 84 e2 39 9a cd d5 ba 48 be 04 bd 6f 37 81 3d
       0.0004320497 -0.0016311884 -0.03240803 0.06309401
0002b0 59 6f 76 bd 2f 0a b8 bd 74 4f af 3d 13 e0 89 bd
       -0.060164783 -0.08986317 0.08560076 -0.06732192
0002c0 0e 3f 13 be b5 59 28 3e 99 bb 44 3d c0 3e 2e bd
       -0.14379522 0.1644047 0.04803047 -0.04254031
0002d0 84 e9 91 3c b8 3c 90 bd bb 63 54 bc b6 27 39 bd
       0.017811544 -0.07042831 -0.012963231 -0.045203887
0002e0 3c f4 03 be fd 62 94 bd c2 a7 c8 bc 19 72 d4 bc
       -0.12886137 -0.07245443 -0.024494056 -0.025933312
0002f0 99 d3 39 3d 45 d1 a5 bd c7 34 91 bd fe d4 d3 bc
       0.04536781 -0.080965556 -0.070901446 -0.025858399
000300 4a 6c e2 bd e9 93 04 be b4 c7 dc bd b9 9c b2 bc
       -0.11055811 -0.12947048 -0.10780278 -0.021803247
000310 df f1 23 bd bd 5c 29 bd 3b e4 d2 bd 91 a4 67 bd
       -0.040025588 -0.041348208 -0.10297438 -0.056553427
000320 c3 86 91 3c 2e 87 16 be 2a a8 a7 bd a9 00 7d bc
       0.017764455 -0.14700004 -0.081863716 -0.015442052
000330 34 a0 e0 bd c5 af ca bd e8 ab cc bd 31 4f 55 bd
       -0.10968056 -0.09896807 -0.09993726 -0.052077476
000340 e1 c0 39 bc 16 3f 59 bd a3 c3 c2 3c 2b d2 69 3d
       -0.01133749 -0.05303868 0.023774927 0.057085197
000350 c5 9d 9d 3d 69 68 cf 3a 3e 41 f5 3c 1c 43 11 3d
       0.07696108 0.0015823963 0.029938336 0.03546439
000360 c9 30 02 3e 11 ba ed 3d d2 42 2e 3e b2 2d 5d 3e
       0.12713923 0.11607755 0.17017677 0.21599463
000370 0b 74 3f 3d 58 ca 28 3d 16 4d ff 3d c9 ed 6b 3d
       0.046741527 0.041208595 0.12465875 0.057599816
000380 69 a2 c4 bb 96 a6 da 3c 96 3a 54 3d 65 4d 4f 3d
       -0.006000806 0.026690762 0.051813684 0.05061092
000390 aa ec 75 bc 64 45 13 3b 8b 00 ff 3c d5 07 ea bc
       -0.015010038 0.002247178 0.031128189 -0.028568188
0003a0 4f d6 17 bd c3 b3 c9 bb b5 95 35 bd c4 8a 05 bd
       -0.037069615 -0.0061554625 -0.044332225 -0.03260304
0003b0 bc 7c 8c bc d6 63 15 3c 16 6c 3b bd 6a ce 15 bd
       -0.017149322 0.009118041 -0.045757376 -0.036573805
0003c0 82 7d a0 3c 32 b7 42 bd 88 18 c7 bd f5 1e b0 bd
       0.019591097 -0.04753799 -0.09721476 -0.085996546
0003d0 98 84 6a be 96 bc 0b be fc c7 30 be fd 29 a5 be
       -0.22902143 -0.13646159 -0.17263788 -0.32258597
0003e0 4d 95 88 be a0 b6 ca bd 02 0c a5 be bc b7 89 be
       -0.26676407 -0.09898114 -0.32235724 -0.2689799
0003f0 83 7a c8 bd f1 2e 19 be 0e 81 04 be 6a 1e 5c bd
       -0.09788992 -0.14959313 -0.12939855 -0.053739943

module.layer2.0.bn1.weight f4 [32]
000000 01 d9 e9 3e fb b5 cb 3e ba 29 e7 3e 77 ab 1c 3f
       0.45673373 0.39787278 0.45149022 0.61199135
000010 a4 e2 e2 3e d9 0d 06 3f 96 e1 1c 3f 54 02 13 3f
       0.44313538 0.5236488 0.61281717 0.5742543
000020 e4 74 15 3f 31 8d f4 3e 15 da d6 3e fe 48 0c 3f
       0.58381486 0.4776397 0.41963258 0.5479888
000030 f6 23 b3 3e 54 e1 0f 3f 5d be 0e 3f dc 10 0b 3f
       0.34988374 0.562032 0.5575922 0.543226
000040 fc a0 08 3f be 86 f8 3e 94 85 cf 3e 91 9b 0f 3f
       0.5337064 0.485403 0.405316 0.5609675
000050 f2 ad 03 3f f6 1a 0d 3f 3d 43 be 3e 7d a5 0d 3f
       0.51437294 0.55119264 0.37160674 0.5533064
000060 0e e4 b7 3e f5 06 05 3f ac 22 d1 3e ab 40 ef 3e
       0.3591618 0.5196374 0.40846765 0.46729025
000070 2a 53 ed 3e e1 88 e9 3e 13 32 07 3f c2 52 1b 3f
       0.46352512 0.45612243 0.5281078 0.60673153

module.layer2.0.bn1.bias f4 [32]
000000 9b 06 e6 bc 8f 85 96 3d 16 67 e5 3b 0a e2 94 be
       -0.028079322 0.07349693 0.007000814 -0.29078704
000010 74 99 07 3d 17 63 66 be e8 8f 8a 3d 94 51 16 be
       0.03310533 -0.22498737 0.06765729 -0.14679557
000020 1d 64 5c be f4 c9 04 be 87 f1 2f 3c e8 0e 83 be
       -0.21522565 -0.12967664 0.010738737 -0.2559731
000030 a9 d4 c4 3d ca a8 45 be 09 be cb bd 8e 94 1c be
       0.09610874 -0.19302669 -0.09948356 -0.15291044
000040 8b 49 19 be 1d 96 ca bd 4b 33 64 3d ac 5a 30 be
       -0.1496946 -0.09891913 0.05571298 -0.17222089
000050 11 21 8c be 42 e5 7e be 48 bb 62 bd b7 66 0c be
       -0.27368978 -0.24892142 -0.055354387 -0.13711058
000060 f3 e2 d9 3b 18 32 b3 bd f7 75 a4 3d be a5 37 bd
       0.006649369 -0.08749789 0.080303125 -0.0448358
000070 7b 6f 64 bd d2 c6 25 bd 53 fe 22 be aa 26 55 be
       -0.05577038 -0.040472813 -0.1591733 -0.2081553

module.layer2.0.bn1.running_mean f4 [32]
000000 63 8a 6b 3e f7 5a ef bf e3 b0 a8 bf 7f 88 d6 be
       0.23002009 -1.8699635 -1.3178982 -0.41901013
000010 ad 9c 56 bf 42 6b 92 bd a3 30 b3 bf 46 53 df be
       -0.8383282 -0.07149364 -1.3999218 -0.4361822
000020 39 f6 35 3e 12 7c 0a 3f 2f 8c 3e bc b0 e0 c2 bd
       0.17769708 0.54095566 -0.011630102 -0.09515512
000030 5e b1 6a 3f 08 a6 be bf 8d 29 df bf c6 3b 01 3d
       0.9167689 -1.4894419 -1.7434555 0.031551145
000040 b0 67 91 bf 75 70 de be 94 12 9c bf 7d 17 bb be
       -1.1359768 -0.43445173 -1.219317 -0.36541358
000050 10 ae 70 3f e4 54 5b 3e 30 84 2f 3f c9 ac 2d be
       0.940156 0.21419102 0.6856108 -0.16960444
000060 f0 a6 fa 3e c4 1f 35 bf 58 26 70 be 67 b4 2d bf
       0.48955488 -0.70751595 -0.23452127 -0.678534
000070 e4 31 3c bf e0 0a 8a be 97 92 ba bf 4b 0c b5 bf
       -0.7351363 -0.26961422 -1.4575986 -1.4144377
