results/dzZs/cifar10/nokd/resnet8_best.pth.tar (torch_old, 371450 bytes, 52 tensors)

module.conv1.weight f4 [64, 3, 3, 3]
0.02969316 0.006727509 0.009079197 0.025172504 -0.061710205 -0.068390705 -0.020589935 -0.029252918
-0.052029878 0.01153849 -0.003868221 0.022992454 0.023562377 -0.028175501 -0.0024576702 -0.008669375
0.02191271 0.020930063 -0.0508763 -0.05026892 -0.0013972835 -0.008188267 -0.03323466 0.01100187
-0.034884814 0.007367062 0.03198218 -0.000364363 -0.00061041705 0.00023840417 -0.00041835004 -0.00073291286
0.00025656944 -0.0011661622 -0.0025363478 -0.0012726294 -0.0022323087 -0.0029107374 -0.0024461127 -0.0025043683
-0.0025080724 -0.0033806635 -0.0036036142 -0.0050809924 -0.0046600127 -0.00029019386 0.0010783673 0.0010491508
0.0017962222 0.0022650205 0.0020002131 0.0001279838 -0.00028717314 -0.00038192322 0.09463332 0.10783924
0.0331811 0.033458985 0.043550074 -0.0126908105 -0.05670683 -0.08492558 -0.07713274 0.07793745
0.08780571 0.009816531 0.013107364 0.017388625 -0.039337453 -0.059429407 -0.09872738 -0.08768603
0.13805845 0.14477418 0.047328513 0.037580993 0.02844304 -0.05628737 -0.064659595 -0.12639476
-0.15346372 0.12251749 0.14122032 0.09574894 -0.0030296757 -0.033775374 -0.05987207 -0.010874525
-0.13318156 -0.07502804 0.099629715 0.1768848 0.16589902 -0.07015445 -0.049781855 -0.055937435
-0.052488465 -0.13733353 -0.08297961 0.1264573 0.17652452 0.16683161 -0.07275659 -0.04279782
-0.05520033 -0.11860691 -0.1567671 -0.08905205 0.01013327 -0.041257344 -0.08873965 0.07189254
0.037355714 -0.032912176 0.043882973 0.041869376 0.013402689 0.0010800472 -0.025164902 -0.04332772
0.024002539 0.0077092387 -0.028310575 -0.0012385744 0.00871149 0.007342832 0.0047975015 0.00071844505
0.0043386407 -0.023813143 -0.022943437 -0.026274292 -0.054016482 -0.036515385 -0.013825508 0.027223274
0.31730077 0.075692035 0.15066741 0.41030788 0.20183863 -0.25132623 -0.12443821 -0.21226859
-0.15581019 -0.21790391 -0.03699663 -0.13002032 -0.24055105 0.017794032 0.013864728 0.008082426
0.17914818 0.051805187 -0.08793498 -0.078488745 0.09426064 -0.12747933 -0.14293638 0.20875923
0.0936612 -0.047097337 0.0076134494 -0.0005242755 -0.1546566 0.15342268 0.24842577 -0.12679963
0.1161447 0.10613829 -0.05453971 -0.05164353 -0.11009763 0.0029192728 -0.11100544 -0.08806868
-0.029567558 0.003082885 -0.09301395 0.08971865 0.056238715 0.059777822 0.16479701 -0.08912957
-0.014799726 0.11151228 -0.094230965 -0.17981923 0.026317362 9.790162e-05 0.00045484476 0.00044171273
8.93071e-06 1.6169817e-05 0.00021392594 -0.000869608 -0.00083195115 -0.0001876821 -3.342654e-05 -0.00037281532
-0.00057588535 9.0186986e-05 -0.00034621198 -0.0004105492 -0.0002455736 -0.0007001176 -0.000330438 -3.268371e-05
-0.000765459 -0.0010357103 0.00062787154 0.0005789564 -0.00027688997 0.00043809813 0.00040710001 0.00022958628
0.30658618 0.3525724 0.36009926 0.0301354 0.06167458 -0.22390321 -0.21129529 -0.41475835
-0.4377591 0.0809482 -0.18334287 -0.07537761 0.045575213 0.18653105 -0.05678383 0.016811434
0.105753586 0.11527988 -0.37545994 -0.5273506 -0.11798381 -0.066408075 0.09315327 0.14670923
0.21418327 0.23848644 0.31691712 -0.05783883 -0.1219023 0.121621825 -0.10134507 0.47915366
-0.49757588 0.036129337 0.0017973875 0.100124896 0.00015852005 0.028673667 0.11083125 -0.16518486
00000000: 123f f33c 7072 dc3b eac0 143c 9136 ce3c
00000010: d7c3 7cbd 6d10 8cbd 39ac a8bc d1a3 efbc
00000020: 481d 55bd ef0b 3d3c fb81 7dbb ac5a bc3c
00000030: e305 c13c 4fd0 e6bc dd10 21bb ff09 0ebc
00000040: 4982 b33c 8675 ab3c ab63 50bd c8e6 4dbd
00000050: 0e25 b7ba 1528 06bc 1121 08bd 3041 343c
00000060: 61e3 0ebd 6567 f13b bfff 023d f907 bfb9
00000070: 6504 20ba 22fc 7939 fe55 dbb9 f320 40ba
00000080: 2b84 8639 e9d9 98ba db38 26bb 5bce a6ba
00000090: ed4b 12bb 12c2 3ebb f64e 20bb 5420 24bb
000000a0: 795e 24bb 1f8e 5dbb 9d2a 6cbb 747e a6bb
000000b0: 05b3 98bb 2925 98b9 0158 8d3a a983 893a
000000c0: 376f eb3a bd70 143b 0216 033b 6433 0639
000000d0: ba8f 96b9 de3c c8b9 1dcf c13d d2da dc3d
000000e0: e8e8 073d 4a0c 093d 9061 323d 1eed 4fbc
000000f0: 6c45 68bd 76ed adbd c5f7 9dbd ab9d 9f3d
00000100: 7bd3 b33d 84d5 203c 45c0 563c 9772 8e3c
00000110: 4f20 21bd 406c 73bd 9531 cabd bc94 b3bd
00000120: 325f 0d3e af3f 143e 8bdb 413d 87ee 193d
00000130: 6101 e93c 968d 66bd 406c 84bd a16d 01be
00000140: 9825 1dbe 73ea fa3d 0f9c 103e 0518 c43d
00000150: 868d 46bb 0c58 0abd 6a3c 75bd 102b 32bc
00000160: bf60 08be 4da8 99bd aa0a cc3d 4a21 353e
00000170: 6fe1 293e 23ad 8fbd 0fe8 4bbd a71e 65bd
00000180: 25fe 56bd 29a1 0cbe 37f1 a9bd 067e 013e
00000190: d8c2 343e e8d5 2a3e 6801 95bd c44c 2fbd
000001a0: be19 62bd 2ee8 f2bd 8e87 20be ec60 b6bd
000001b0: 0406 263c 76fd 28bd 22bd b5bd 653c 933d
000001c0: 4e02 193d ebce 06bd a2be 333d 397f 2b3d
000001d0: f496 5b3c 5f90 8d3a a026 cebc 6878 31bd
000001e0: f9a0 c43c c89d fc3b 94eb e7bc a957 a2ba
000001f0: a3ba 0e3c 249c f03b 5c34 9d3b 0856 3c3a
00000200: 282b 8e3b c813 c3bc e0f3 bbbc 2f3d d7bc
00000210: 6340 5dbd 2891 15bd 6284 62bc 5803 df3c
00000220: 3f75 a23e 6d04 9b3d 8f48 1a3e e013 d23e
00000230: c9ae 4e3e d5ad 80be 76d9 febd f05c 59be
00000240: b58c 1fbe 3422 5fbe c789 17bd 0c24 05be
00000250: 0453 76be cac4 913c e228 633c 276c 043c
00000260: 9f72 373e ad31 543d 4117 b4bd b5be a0bd
00000270: b90b c13d f189 02be ea5d 12be fbc4 553e
00000280: 71d1 bf3d 23e9 40bd 3e7a f93b 896f 09ba
00000290: 4d5e 1ebe d61a 1d3e 5363 7e3e c3d7 01be
000002a0: 46dd ed3d 085f d93d 0865 5fbd 2b88 53bd
000002b0: de7a e1bd 4551 3f3b d256 e3bd 5a5d b4bd
000002c0: aa37 f2bc 3a0a 4a3b 197e bebd 69be b73d
000002d0: 915a 663d 97d9 743d 8cc0 283e 9089 b6bd
000002e0: 8d7a 72bc 8d60 e43d 2afc c0bd 8822 38be
000002f0: 8297 d73c 8850 cd38 3b78 ee39 ae95 e739
00000300: 1bd5 1537 6ba4 8737 4f51 6039 68f6 63ba
00000310: 4c17 5aba 88cc 44b9 7933 0cb8 6d76 c3b9
00000320: 03f7 16ba c522 bd38 c983 b5b9 fb3e d7b9
00000330: 55c0 80b9 1988 37ba a33e adb9 de15 09b8
00000340: 15a9 48ba acc0 87ba bf97 243a 1bc5 173a
00000350: 8b2b 91b9 89b0 e539 0a70 d539 19bd 7039
00000360: ddf8 9c3e 5f84 b43e ee5e b83e 84de f63c
00000370: 7c9e 7c3d e246 65be cb5d 58be 355b d4be
00000380: f621 e0be 2bc8 a53d 3cbe 3bbe 945f 9abd
00000390: 13ad 3a3d ff01 3f3e 2996 68bd 22b8 893c
000003a0: 5695 d83d dc17 ec3d 493c c0be 7300 07bf
000003b0: 7fa1 f1bd f500 88bd 24c7 be3d f23a 163e
000003c0: dc52 5b3e ca35 743e f642 a23e 69e8 6cbd
000003d0: eaa7 f9bd dd14 f93d 018e cfbd a153 f53e
000003e0: 44c2 febe 5bfc 133d 5196 eb3a 480e cd3d
000003f0: 6738 2639 0ae5 ea3c 7ffb e23d 3826 29be

module.bn1.weight f4 [64]
0.10228412 0.0016849991 0.18243131 0.18404724 0.16617638 0.17187713 0.15908767 0.00032681253
0.23318045 0.36748713 0.2621106 0.15226147 0.21875195 0.20432287 0.3332169 0.18282159
0.19859609 0.25711283 0.39108422 0.13590598 0.17849736 0.27393356 0.1363328 0.21615647
0.18759777 0.17265895 0.2557913 0.13343088 0.10464389 0.13344395 0.2023007 0.1884892
0.18794674 0.43840584 0.4210602 0.2184629 0.15777284 0.09872884 0.0129259 0.17344144
0.32464996 0.069831476 0.45690095 0.2685925 0.22818084 0.2675326 0.1701676 0.14785455
0.41000625 0.2444483 0.0942507 0.07507024 0.17468637 0.15899895 0.19824202 0.28147864
0.120568134 0.21286125 0.19906199 0.14666954 0.18416764 0.043168426 0.30551535 0.11089196
00000000: 567a d13d 30db dc3a 46cf 3a3e e176 3c3e
00000010: 242a 2a3e 8f00 303e e1e7 223e 0958 ab39
00000020: dbc6 6e3e 4627 bc3e 5c33 863e 6eea 1b3e
00000030: 8300 603e 043a 513e 689b aa3e 9535 3b3e
00000040: c65c 4b3e 4ba4 833e 313c c83e f02a 0b3e
00000050: 03c8 363e 0541 8c3e d39a 0b3e 1f58 5d3e
00000060: a119 403e 82cd 303e 14f7 823e 1ba2 083e
00000070: 894f d63d 88a5 083e ea27 4f3e 5003 413e
00000080: 1c75 403e bb76 e03e 3495 d73e bdb4 5f3e
00000090: 348f 213e 5932 ca3d 27c7 533c a29a 313e
000000a0: 8538 a63e ce03 8f3d ecee e93e f584 893e
000000b0: 3da8 693e 08fa 883e 6a40 2e3e 2f67 173e
000000c0: 57ec d13e a850 7a3e 8306 c13d 6dbe 993d
000000d0: fce0 323e 9fd0 223e f5ff 4a3e f81d 903e
000000e0: 6dec f63d 4df8 593e e8d6 4b3e 8a30 163e
000000f0: 7196 3c3e 60d1 303d 826c 9c3e 531b e33d

module.bn1.bias f4 [64]
-0.08319277 -0.0035329228 0.012945249 0.10608701 -0.12999727 0.047843914 -0.040170282 -0.00094563747
0.19233301 0.23557357 -0.052944023 -0.016548185 -0.09332378 -0.13735005 -0.22160776 -0.05375444
0.09779889 0.19333504 -0.26769912 0.055029623 -0.11371568 0.19125594 0.09560149 -0.116467774
0.087575115 0.08359834 -0.1419549 0.030924264 -0.078867525 -0.119016275 -0.011972287 -0.1460521
0.17331667 -0.26201555 -0.18881766 -0.075751565 0.043070015 0.12913102 -0.030880148 0.13041167
-0.119730726 -0.09199341 -0.16258392 0.110874 0.23605521 0.113700636 0.056872714 0.08552272
-0.2918532 0.08426063 0.033203427 -0.0058423188 -0.12872364 -0.067146175 -0.078421906 0.06235064
0.008246877 0.06351196 0.032241058 0.11971969 0.06138653 -0.028897602 -0.28287268 -0.10695322
00000000: f960 aabd 9c88 67bb 4f18 543c 2544 d93d
00000010: 011e 05be fbf7 433d 9889 24bd a8e4 77ba
00000020: f2f2 443e 333a 713e d5db 58bd 0f90 87bc
00000030: 8a20 bfbd 7ea5 0cbe 25ed 62be 9e2d 5cbd
00000040: c94a c83d 9ff9 453e dc0f 89be be66 613d
00000050: c4e3 e8bd 99d8 433e b7ca c33d a886 eebd
00000060: 955a b33d 9b35 ab3d a05c 11be e254 fd3c
00000070: 4c85 a1bd cebe f3bd 6927 44bc af8e 15be
00000080: ed79 313e e726 86be 6b59 41be a323 9bbd
00000090: 2f6a 303d ec3a 043e 5df8 fcbc a38a 053e
000000a0: 6235 f5bd 0a67 bcbd 667c 26be e811 e33d
000000b0: 75b8 713e e1db e83d 5df3 683d 8926 af3d
000000c0: c86d 95be d690 ac3d 5100 083d ec70 bfbb
000000d0: 21d0 03be ef83 89bd aa9b a0bd 6263 7f3d
000000e0: e91d 073c 8f12 823d 330f 043d 992f f53d
000000f0: 7170 7b3d aaba ecbc b0d4 90be 4a0a dbbd

module.bn1.running_mean f4 [64]
0.06803648 0.008292495 0.0033964005 0.03226636 0.041230317 -0.0011871485 0.020158371 0.00094554276
-0.010727452 -0.03194337 0.14582211 0.034176003 -0.0026323986 0.039517835 -0.13704112 0.04916092
-0.06865758 0.06809153 0.20862526 -0.12925199 -0.002857427 -0.010458203 -0.004442543 -0.0004472203
-0.028353957 0.015797317 0.056121483 -0.013017635 0.026712013 0.025156843 0.02880903 0.013683309
-0.07163255 0.17385206 0.09895679 0.058884434 -0.027918203 -0.061227705 0.063378364 0.008779828
0.08711381 -0.05147444 0.11769954 0.021068335 -0.05265763 -0.0579353 0.023702718 -6.116763e-05
-0.0098817265 -0.01609111 -0.018369656 0.019023342 -0.061036948 0.052480567 -0.024673304 -0.044682585
-0.09504342 0.007416119 0.15593858 -0.029866733 0.024270497 -0.00757762 0.09365477 0.06956344
00000000: b656 8b3d 3fdd 073c 2596 5e3b bb29 043d
00000010: 1fe1 283d 189a 9bba 2b23 a53c 4dde 773a
00000020: 32c2 2fbc 0dd7 02bd 6452 153e 23fc 0b3d
00000030: 5284 2cbb 74dd 213d 8254 0cbe f65c 493d
00000040: 589c 8cbd 9273 8b3d dca1 553e a25a 04be
00000050: ac43 3bbb e258 2bbc c092 91bb e578 eab9
00000060: 8f46 e8bc 6069 813c a4df 653d eb47 55bc
00000070: 27d3 da3c b915 ce3c ea00 ec3c f52f 603c
00000080: 16b4 92bd 4606 323e dca9 ca3d ce30 713d
00000090: b7b4 e4bc e7c9 7abd 84cc 813d 45d9 0f3c
000000a0: ba68 b23d ddd6 52bd 750c f13d 8097 ac3c
000000b0: 87af 57bd 914d 6dbd 342c c23c 1f47 80b8
000000c0: f7e6 21bc 81d1 83bc f67b 96bc d7d6 9b3c
000000d0: e101 7abd ddf5 563d ab1f cabc 1605 37bd
000000e0: 20a6 c2bd ea02 f33b 5dae 1f3e 14ab f4bc
000000f0: ecd2 c63c af4d f8bb 12ce bf3d 4777 8e3d

module.bn1.running_var f4 [64]
0.08442046 0.0011651894 0.6324538 1.1227465 0.07006083 0.1299583 0.048063032 1.7094282e-05
0.21287245 0.51176023 0.4998387 0.1524175 0.024498293 0.09058984 0.35140735 0.21524522
1.4184325 1.6051158 0.7401118 0.36156887 0.016935462 0.13348208 0.057954535 0.09257144
0.23177044 0.07615119 0.1583974 0.22135983 0.032863095 0.05820251 0.17667186 0.06896714
0.34854916 0.7083155 0.540469 0.2072414 0.53464127 0.2635142 0.06568117 0.07614515
0.304382 0.049017176 0.59450096 0.50928336 0.29603896 0.756417 0.9274412 0.67576176
0.5244818 1.798606 0.06677582 0.011743366 0.09745348 0.09691746 0.114230946 0.5586436
0.27758244 0.44736394 0.5047298 0.9250121 0.13705124 0.003875071 0.29568744 0.09283369
00000000: a2e4 ac3d 45b9 983a 7ee8 213f 28b6 8f3f
00000010: 0d7c 8f3d ca13 053e bedd 443d b165 8f37
00000020: 3cfb 593e b802 033f dcea ff3e 5513 1c3e
00000030: a5b0 c83c 2b87 b93d aaeb b33e 3e69 5c3e
00000040: 328f b53f 6f74 cd3f f877 3d3f 8e1f b93e
00000050: 3dbc 8a3c 87af 083e bc61 6d3d 1896 bd3d
00000060: 3b55 6d3e 28f5 9b3d ee32 223e 27ac 623e
00000070: 749b 063d c165 6e3d 78e9 343e a53e 8d3d
00000080: 0975 b23e 2a54 353f 2d5c 0a3f 1737 543e
00000090: 40de 083f 55eb 863e d983 863d fdf1 9b3d
000000a0: f5d7 9b3e 3cc6 483d 3731 183f 6560 023f
000000b0: 6b92 973e 8ba4 413f c96c 6d3f b9fe 2c3f
000000c0: 7044 063f b938 e63f c3c1 883d 3f67 403c
000000d0: b195 c73d a97c c63d eaf1 e93d 4403 0f3f
000000e0: 491f 8e3e e30c e53e f935 013f 98cd 6c3f
000000f0: 2957 0c3e e7f4 7d3b 5864 973e 971f be3d

module.layer1.0.conv1.weight f4 [16, 64, 3, 3]
-0.010188818 -0.0022162034 0.007728964 -0.027488627 -0.013714764 0.011152882 -0.023059951 -0.004548107
0.012298813 -0.0016782054 -0.0015354985 -0.0007155267 -0.00031476433 -0.00040467497 -5.603768e-06 0.00050789176
0.00015335318 0.00044969053 -0.034485515 -0.013855112 -0.00054092146 -0.0084858425 -0.007289123 -0.03248691
-0.022291368 -0.029751865 -0.05247746 0.009149249 -0.0066189156 0.004499018 0.047371197 -0.0027206538
-0.017216679 0.032268487 -0.0017481727 -0.020976087 0.0077847564 -0.012863115 -0.030569995 0.008670659
-0.00896287 -0.029677251 0.014750896 -0.004709977 -0.025300192 -0.11657173 -0.17458534 -0.09803795
-0.053223565 -0.062310312 -0.0058263014 0.0102559365 0.0652599 0.09219691 -0.048482254 -0.05026511
-0.0466563 -0.08174931 -0.013512363 0.011490164 -0.049439635 0.014789752 0.06620965 -0.00013236034
-0.00027847325 -0.00033991638 -1.6252427e-05 -7.973715e-05 -0.00020834657 0.00014774688 5.7640154e-05 -7.344918e-05
-0.052121885 -0.14034401 -0.04276819 -0.057605457 -0.066866 0.019244546 0.08939364 0.054769095
0.0069035385 0.012074586 -0.021651164 0.043759394 -0.03847925 -0.037094627 0.048142254 0.03077345
-0.04457935 0.057794597 -0.04097351 -0.003134385 0.018039457 -0.01941437 0.008016857 0.007458291
-0.01424656 -0.02381748 -0.06535536 0.0059400587 0.020606266 -0.012482739 -0.006419932 -0.0012788315
-0.025610356 -0.030308817 -0.034587786 -0.03789082 0.011598096 0.01670009 -0.009755869 0.010649145
-0.0042095673 -0.037914116 0.01401778 -0.002066523 -0.008294483 0.0031578518 0.004633373 0.0024724766
-0.021942891 -0.018643461 0.0023662613 -0.020826945 -0.017955514 0.003556931 -0.010040901 0.013266522
-0.0181922 0.026864095 0.046537925 0.01012228 0.014574285 0.024519647 0.024077883 0.015188709
-0.00022773854 -0.009158126 0.0059964736 0.0029793868 0.0007625407 -0.011101705 -0.008643552 0.0039016474
0.025188169 -0.014195189 -0.024639273 -0.00022888671 -0.013357686 -0.0056301057 0.0040952913 -0.0075424802
0.0038282496 -0.008898958 -0.029702174 0.006557214 -0.029647259 -0.071868256 -0.0055275783 0.027750485
-0.017473673 0.02246212 -0.0851569 -0.04938961 0.022740489 -0.07424741 0.002554536 0.07095723
-0.034994293 0.034871645 0.044175666 -0.04596079 -0.060875762 -0.03817191 -0.056530107 -0.052131675
-0.022899307 -0.035699468 -0.028030861 0.019014716 -0.059916914 -0.04678355 -0.028272936 -0.036291312
-0.03480922 -0.033005986 -0.017287321 -0.010791729 -0.039019454 -0.011235164 -0.012489757 -0.004850474
0.031841606 -0.0044995327 -0.016053474 0.03945242 0.013060469 -0.0010198592 -0.027180819 0.043233093
0.033138383 -0.0038509483 0.0023814852 -0.060572617 -0.04121803 -0.048212875 -0.0481043 -0.01583274
-0.0008025547 -0.0029761184 -0.013926126 0.0033299776 -0.021491613 -0.020861562 -0.021977467 -0.046955273
-0.10584934 -0.09060311 -0.042066477 -0.09303706 -0.012576828 0.04888395 0.004465396 0.09423476
0.15084708 0.034507215 -0.013528325 -0.008367073 0.031306844 -0.033442583 -0.028014522 0.0034087056
-0.01781566 -0.019153815 0.016108606 0.005478508 -0.024274781 0.031655762 0.02466273 -0.012069467
0.05345085 0.015760923 -0.031764038 0.024223858 0.008383341 0.03367655 -0.0319552 -0.052985083
-0.012089431 -0.050940342 -0.07402503 -0.047496073 0.0017518044 -0.008280565 -0.01957455 0.0049887556
00000000: 00ef 26bc b93d 11bb 4043 fd3b d42f e1bc
00000010: e4b3 60bc 94ba 363c 39e8 bcbc 4908 95bb
00000020: f680 493c 3bf7 dbba c842 c9ba 2f92 3bba
00000030: f406 a5b9 8e2a d4b9 0008 bcb6 0a24 053a
00000040: 6ecd 2039 71c4 eb39 af40 0dbd 8d00 63bc
00000050: a0cc 0dba 3408 0bbc 98d9 eebb fe10 05bd
00000060: 639c b6bc 2fba f3bc 9bf2 56bd bbe6 153c
00000070: 7de3 d8bb 806c 933b 4d08 423d ff4c 32bb
00000080: fe09 8dbc f62b 043d f122 e5ba 0bd6 abbc
00000090: 4517 ff3b d1bf 52bc ed6d fabc 610f 0e3c
000000a0: 00d9 12bc b51d f3bc bead 713c 2756 9abb
000000b0: 5942 cfbc 29bd eebd 80c6 32be 1fc8 c8bd
000000c0: f400 5abd 1939 7fbd 8fea bebb 8408 283c
000000d0: fca6 853d bcd1 bc3d 5495 46bd cae2 4dbd
000000e0: ad1a 3fbd 2f6c a7bd f562 5dbc 3e41 3c3c
000000f0: 3781 4abd b750 723c ed98 873d 35ca 0ab9
00000100: 0c00 92b9 ce36 b2b9 d255 88b7 8e38 a7b8
00000110: 9b77 5ab9 80ec 1a39 a5c2 7138 ba08 9ab8
00000120: c27d 55bd 57b6 0fbe b32d 2fbd b3f3 6bbd
00000130: 0bf1 88bd bda6 9d3c 0314 b73d 8f55 603d
00000140: 1437 e23b 7cd4 453c c85d b1bc 0d3d 333d
00000150: 6b9c 1dbd 89f0 17bd d030 453d 9a18 fc3c
00000160: d698 36bd 07ba 6c3d d7d3 27bd 416a 4dbb
00000170: 7cc7 933c e30a 9fbc 2359 033c ae64 f43b
00000180: 676a 69bc e01c c3bc 08d9 85bd d3a4 c23b
00000190: 79ce a83c 6784 4cbc 4b5e d2bb 779e a7ba
000001a0: cfcc d1bc 324a f8bc ecab 0dbd 6833 1bbd
000001b0: f105 3e3c a1ce 883c 15d7 1fbc c079 2e3c
000001c0: 69f0 89bb d54b 1bbd d5aa 653c 816e 07bb
000001d0: 95e5 07bc f6f3 4e3b 8dd3 973b 4609 223b
000001e0: 94c1 b3bc 2cba 98bc 4713 1b3b 459d aabc
000001f0: 7117 93bc 661b 693b 9782 24bc d45b 593c
00000200: cf07 95bc 1712 dc3c 8d9e 3e3d ebd7 253c
00000210: fbc8 6e3c 6ddd c83c fb3e c53c 10da 783c
00000220: 19cd 6eb9 f70b 16bc 117e c43b d141 433b
00000230: 3de5 473a ede3 35bc af9d 0dbc c8b2 7f3b
00000240: 6b57 ce3c f092 68bc 4dd8 c9bc 4f01 70b9
00000250: 32da 5abc c07c b8bb cb31 863b e926 f7bb
00000260: 5fe3 7a3b efcc 11bc f951 f3bc e6dd d63b
00000270: cfde f2bc aa2f 93bd b020 b5bb fc54 e33c
00000280: f324 8fbc 7b02 b83c be66 aebd c24c 4abd
00000290: 434a ba3c 070f 98bd 016a 273b 0652 913d
000002a0: 2d56 0fbd 92d5 0e3d 8bf1 343d 6241 3cbd
000002b0: dd58 79bd 265a 1cbd 1d8c 67bd 0688 55bd
000002c0: 5497 bbbc 9b39 12bd faa0 e5bc c0c4 9b3c
000002d0: 706b 75bd 1ca0 3fbd a59c e7bc 33a6 14bd
000002e0: 1d94 0ebd 4931 07bd 249e 8dbc cbcf 30bc
000002f0: ddd2 1fbd b113 38bc d6a1 4cbc baf0 9ebb
00000300: 586c 023d d170 93bb 9382 83bc dc98 213d
00000310: 94fb 553c ccac 85ba 4faa debc 2f15 313d
00000320: 1dbc 073d 3160 7cbb b112 1c3b fe1a 78bd
00000330: 3dd4 28bd dd7a 45bd 0409 45bd aab3 81bc
00000340: 8962 52ba fb0a 43bb 682a 64bc c13b 5a3b
00000350: 2e0f b0bc dee5 aabc 170a b4bc 2c54 40bd
00000360: 8ac7 d8bd 208e b9bd e64d 2cbd 378a bebd
00000370: 0a0f 4ebc 893a 483d 7552 923b 27fe c03d
00000380: a877 1a3e 7057 0d3d e8a5 5dbc 0c16 09bc
00000390: 9b3b 003d 17fb 08bd b67e e5bc 9764 5f3b
000003a0: 26f2 91bc 76e8 9cbc 32f6 833c 0e85 b33b
000003b0: e8db c6bc 79a9 013d 7e09 ca3c 04bf 45bc
000003c0: 47ef 5a3d 0d1d 813c 021b 02bd 1d71 c63c
000003d0: 485a 093c 6cf0 093d 75e3 02bd e306 59bd
000003e0: c012 46bc d2a6 50bd 6f9a 97bd 3e8b 42bd
000003f0: cd9c e53a 35ab 07bc cf5a a0bc b778 a33b

module.layer1.0.bn1.weight f4 [16]
0.23922217 0.46942863 0.40783983 0.3519304 0.29835796 0.38468945 0.32780367 0.30850375
0.41816 0.2949029 0.37418586 0.30498847 0.28983688 0.3691334 0.31971416 0.37255293
00000000: a8f6 743e f358 f03e 62d0 d03e 3930 b43e
00000010: 60c2 983e 04f6 c43e e2d5 a73e 34f4 9d3e
00000020: 1119 d63e 83fd 963e 4a95 bf3e 7327 9c3e
00000030: 8065 943e 0eff bc3e 93b1 a33e 42bf be3e

module.layer1.0.bn1.bias f4 [16]
0.07423682 0.20820968 0.08977505 -0.12670377 0.10801735 0.1882208 -0.13487981 0.00960613
-0.23654607 0.11156388 0.09661359 0.027570385 0.123709254 -0.21062395 0.048398364 -0.120940536
00000000: 7909 983d eb34 553e fbdb b73d a2be 01be
00000010: 3338 dd3d f4bc 403e ef1d 0abe 0863 1d3c
00000020: 2239 72be 9b7b e43d 59dd c53d 4adb e13c
00000030: 475b fd3d cead 57be 5d3d 463d acaf f7bd

module.layer1.0.bn1.running_mean f4 [16]
-0.43018126 -0.24279161 -0.40161258 -0.30626848 -0.32716182 -0.18056333 -0.3154399 -0.4996588
-0.30549097 -0.2890029 -0.21148507 -0.37686282 -0.18829826 -0.27789193 -0.21779244 -0.4102313
00000000: b840 dcbe 5d9e 78be 2aa0 cdbe 39cf 9cbe
00000010: c181 a7be 98e5 38be 5781 a1be 47d3 ffbe
00000020: 5069 9cbe 30f8 93be 8b8f 58be 2af4 c0be
00000030: 42d1 40be da47 8ebe fb04 5fbe d609 d2be

module.layer1.0.bn1.running_var f4 [16]
0.06347825 0.16560483 0.12604006 0.075855665 0.10068814 0.09905549 0.10748368 0.09187046
0.10463227 0.13524662 0.12087568 0.08213444 0.07928424 0.044075806 0.1204716 0.07993132
00000000: e200 823d 5094 293e a510 013e 375a 9b3d
00000010: 9535 ce3d 9bdd ca3d 6720 dc3d 9426 bc3d
00000020: 7249 d63d 177e 0a3e ab8d f73d 1a36 a83d
00000030: c75f a23d d588 343d d0b9 f63d 08b3 a33d

module.layer1.0.conv2.weight f4 [16, 16, 3, 3]
-0.14077526 -0.046524547 0.07975956 -0.21255709 -0.0028576565 0.23512676 -0.081870005 0.056124188
0.13417923 -0.01331933 -0.0049576955 -0.08259998 0.10057342 0.053861633 -0.0080579 0.08609719
0.04517589 -0.0006831671 -0.079414606 -0.012129598 0.08277798 0.06357526 0.10914745 0.0899969
0.0015973195 -0.007950228 0.013883664 -0.049331814 0.04144025 0.16143653 0.039219234 -0.012188666
-0.024341695 0.10320449 0.024862422 -0.11418153 -0.019583873 0.08666404 -0.025600975 -0.120445736
-0.02865127 -0.026302116 -0.11043766 -0.084974386 -0.03125533 0.005648329 -0.0675046 0.023947999
-0.026828479 -0.002426481 0.12353892 -0.049788866 0.004737234 0.07169227 -0.042641893 -0.08222396
-0.049281023 -0.076273896 -0.12775947 -0.10397867 0.018375715 -0.065693334 -0.037355162 0.01908087
-0.012928587 -0.036670346 0.10850934 0.10340309 0.12511145 0.062010095 0.11988453 0.12954867
0.00086519297 -0.026980883 -0.08222824 0.007182331 -0.0441743 -0.10465425 -0.03192474 -0.040812347
-0.116740085 0.0033118112 0.01988363 0.09200316 -0.08552479 -0.039681982 0.051487118 -0.11211784
-0.036935274 0.02446832 0.08319248 0.01229835 -0.04146216 0.069819614 -0.0042227586 0.05672369
-0.036889933 -0.041570745 0.023515884 0.038744926 0.009852012 -0.10826374 0.025649311 -0.06886612
-0.18909998 0.081058145 0.033101708 -0.075168304 -0.02169067 0.02385097 -0.012507345 -0.014886604
-0.020031778 -0.21342655 0.0742152 0.026869323 -0.21781789 0.07097818 0.05922986 -0.061164614
0.06254903 -0.0882673 -0.23386991 -0.004112262 -0.09162586 -0.21579671 -0.09079251 -0.07040475
-0.10648047 -0.026678888 -0.080259316 -0.15636708 -0.008897311 0.049133603 0.06434037 -0.11545334
-0.08800278 0.017441476 -0.18102443 -0.11139896 -0.0158306 -0.14266938 -0.05163314 -0.0421834
-0.037962463 -0.091930814 -0.024093846 -0.00077017775 0.032860436 0.059112187 0.060433373 0.03407127
0.030315492 -0.033225913 -0.05080891 -0.042465907 0.0014845568 -0.050443023 -0.07766306 0.044072594
0.17921269 0.08036519 0.00029928514 0.057625704 0.04192418 -0.018743534 0.09935551 0.04173388
-0.02783941 -0.044063356 -0.014983522 0.05374936 0.08537379 0.032534424 0.094428174 0.15240325
0.059722874 -0.0055124736 0.03831165 -0.089663684 -0.063016 -0.027928013 -0.010341077 -0.023081789
-0.03349574 0.029256383 0.01980221 0.08164815 0.14579408 -0.0057703964 0.10132775 -0.050108615
0.0073138303 0.14895652 0.013953961 0.05010862 -0.15948826 0.0068865926 -0.041238587 -0.09306845
-0.0772327 0.033006508 0.007617758 -0.0090650795 -0.01139613 0.041622907 -0.0020459855 -0.02908889
0.020256618 0.025387634 -0.056367513 0.024738865 0.0641839 -0.028553994 0.045899168 -0.047833584
-0.0064707613 -0.01966012 -0.008221689 0.006677818 0.029481204 0.04595248 -0.055413865 -0.024170144
0.06770749 -0.054790754 -0.013472204 0.07049672 -0.083231956 -0.09028052 -0.048166167 -0.13841715
-0.14748274 -0.18352526 -0.018349161 -0.081722476 -0.008146703 0.085306995 -0.025909672 -0.030926174
0.21621391 0.2142114 0.078369215 -0.021779675 -0.011364985 -0.07358074 0.05686771 0.03207905
-0.0766448 -0.08442865 -0.01599661 0.13251711 0.067832656 0.01425617 -0.022692118 0.13922338
00000000: 6427 10be 8690 3ebd fb58 a33d 91a8 59be
00000010: 8547 3bbb 12c5 703e 76ab a7bd 7ae2 653d
00000020: 4866 093e 5239 5abc 2a74 a2bb 2e2a a9bd
00000030: 70f9 cd3d 049e 5c3d 4805 04bc b953 b03d
00000040: 5b0a 393d 9116 33ba 20a4 a2bd 39bb 46bc
00000050: 8087 a93d bf33 823d b388 df3d 4b50 b83d
00000060: 265d d13a ac41 02bc 4f78 633c 2810 4abd
00000070: 40bd 293d 9e4f 253e 59a4 203d f8b2 47bc
00000080: 3c68 c7bc e05c d33d 47ac cb3c 02d8 e9bd
00000090: 5c6e a0bc eb7c b13d 23b9 d1bc 41ac f6bd
000000a0: 11b6 eabc 8977 d7bc 242d e2bd 0d07 aebd
000000b0: 9705 00bd 9e15 b93b da3f 8abd 982e c43c
000000c0: 66c7 dbbc 9905 1fbb f901 fd3d 69ef 4bbd
000000d0: cd3a 9b3b 66d3 923d 44a9 2ebd 0965 a8bd
000000e0: e6da 49bd 7d35 9cbd 61d3 02be c5f2 d4bd
000000f0: ab88 963c 3a8a 86bd ba01 19bd 7c4f 9c3c
00000100: 6dd2 53bc a533 16bd 253a de3d 00c5 d33d
00000110: 371d 003e 4cfe 7d3d 0586 f53d 68a8 043e
00000120: 1ece 623a 0307 ddbc 4867 a8bd c259 eb3b
00000130: 1cf0 34bd f854 d6bd 84c3 02bd d92a 27bd
00000140: 6d15 efbd f90a 593b ffe2 a23c 276c bc3d
00000150: 9f27 afbd 9389 22bd 28e4 523d 0a9e e5bd
00000160: 7149 17bd c971 c83c d260 aa3d 057f 493c
00000170: 3ad4 29bd 96fd 8e3d 115f 8abb 1a57 683d
00000180: e619 17bd 1646 2abd 62a4 c03c 00b3 1e3d
00000190: 556a 213c 61b9 ddbd 811e d23c ae09 8dbd
000001a0: 6da3 41be d001 a63d a895 073d d7f1 99bd
000001b0: a2b0 b1bc 1c63 c33c 9beb 4cbc f1e6 73bc
000001c0: af19 a4bc 7d8c 5abe 24fe 973d 0e1d dc3c
000001d0: a70b 5fbe 025d 913d 029b 723d bf87 7abd
000001e0: b519 803d 7cc5 b4bd 987b 6fbe 27c0 86bb
000001f0: 57a6 bbbd d0f9 5cbe 6cf1 b9bd 5e30 90bd
00000200: 6f12 dabd af8d dabc ff5e a4bd b11e 20be
00000210: 07c6 11bc 5140 493d e2c4 833d cd72 ecbd
00000220: cd3a b4bd 6de1 8e3c 785e 39be 2325 e4bd
00000230: 2daf 81bc ec17 12be 457d 53bd 80c8 2cbd
00000240: 877e 1bbd 3946 bcbd 7560 c5bc c1e5 49ba
00000250: aa98 063d 9f1f 723d fc88 773d 518e 0b3d
00000260: 3258 f83c e517 08bd 011d 50bd bbf0 2dbd
00000270: 7695 c23a 589d 4ebd cf0d 9fbd 7785 343d
00000280: 8883 373e 8196 a43d 5fe9 9c39 ee08 6c3d
00000290: b0b8 2b3d 0a8c 99bc e77a cb3d 25f1 2a3d
000002a0: 790f e4bc c77b 34bd 727d 75bc 4a28 5c3d
000002b0: 74d8 ae3d d142 053d 8f63 c13d 990f 1c3e
000002c0: f99f 743d fba1 b4bb adec 1c3d 98a1 b7bd
000002d0: 880e 81bd 4ac9 e4bc 9f6d 29bc 0516 bdbc
000002e0: d432 09bd 15ab ef3c 3f38 a23c 2537 a73d
000002f0: 0b4b 153e 9815 bdbb ec84 cf3d b13e 4dbd
00000300: dba8 ef3b 0f88 183e 289f 643c b23e 4d3d
00000310: e450 23be eda8 e13b cbe9 28bd ac9a bebd
00000320: 2e2c 9ebd d531 073d 639e f93b b385 14bc
00000330: d5b6 3abc c87c 2a3d f115 06bb d34b eebc
00000340: 35f1 a53c baf9 cf3c 9fe1 66bd 29a9 ca3c
00000350: d972 833d 11ea e9bc c400 3c3d 26ed 43bd
00000360: ae08 d4bb 430e a1bc 43b4 06bc 99d1 da3b
00000370: 9182 f13c ab38 3c3d a6f9 62bd 7700 c6bc
00000380: 39aa 8a3d 456c 60bd 85ba 5cbc 9660 903d
00000390: 8475 aabd fee4 b8bd e349 45bd 3abd 0dbe
000003a0: b705 17be 0cee 3bbe fb50 96bc 1d5e a7bd
000003b0: c079 05bc 6fb5 ae3d 8540 d4bc e358 fdbc
000003c0: 2e67 5d3e 3c5a 5b3e 0a80 a03d 4a6b b2bc
000003d0: 3434 3abc 80b1 96bd 1eee 683d 5265 033d
000003e0: f3f7 9cbd eee8 acbd 530b 83bc 91b2 073e
000003f0: d9eb 8a3d b692 693c d2e4 b9bc 9390 0e3e

module.layer1.0.bn2.weight f4 [16]
0.34687185 0.47056553 0.63987756 0.66058177 0.23955885 0.30724284 0.5782727 0.6751691
0.4824014 0.28716937 0.6467899 0.300785 0.41964433 0.31756032 0.17178355 0.6678333
00000000: 3099 b13e f7ed f03e 04cf 233f e31b 293f
00000010: ea4e 753e ef4e 9d3e ae09 143f e2d7 2c3f
00000020: 51fd f63e dd07 933e 0694 253f 7e00 9a3e
00000030: 9fdb d63e 4497 a23e 07e8 2f3e 20f7 2a3f

module.layer1.0.bn2.bias f4 [16]
0.3176046 -0.0388494 -0.024319276 -0.019019833 0.12830123 0.120805256 -0.030050201 -0.07054651
-0.08563914 0.20481193 -0.022236949 0.10110784 -0.026188742 -0.08891105 0.14027186 -0.05533627
00000000: 129d a23e 8c20 1fbd 3839 c7bc 7bcf 9bbc
00000010: 6661 033e bf68 f73d d72b f6bc b07a 90bd
00000020: 9363 afbd 38ba 513e 432a b6bc a111 cf3d
00000030: c689 d6bc ff16 b6bd 6da3 0f3e 49a8 62bd

module.layer1.0.bn2.running_mean f4 [16]
-0.11233705 0.1345016 -0.017774334 -0.07008608 0.030397067 -0.040958855 -0.01860875 -0.035011258
-0.16750869 -0.08505621 -0.024037795 -0.10416885 -0.041899826 0.16224533 0.067323074 -0.0020493413
00000000: f810 e6bd caba 093e 7b9b 91bc 4a89 8fbd
00000010: 4503 f93c 79c4 27bd 6171 98bc f767 0fbd
00000020: 6687 2bbe f331 aebd e9ea c4bc 7a56 d5bd
00000030: 279f 2bbd a423 263e aee0 893d 3e4e 06bb

module.layer1.0.bn2.running_var f4 [16]
0.05009475 0.07044646 0.16621582 0.18607554 0.023742901 0.030410284 0.10105134 0.12963703
0.05396627 0.03292159 0.13345183 0.029735938 0.03287573 0.010093879 0.013356237 0.13775837
00000000: 2730 4d3d 3c46 903d 7b34 2a3e 968a 3e3e
00000010: 7980 c23c fd1e f93c 01f4 ce3d 92bf 043e
00000020: bc0b 5d3d cad8 063d 99a7 083e c898 f33c
00000030: b4a8 063d cc60 253c 1ed4 5a3c 8810 0d3e

module.layer1.0.shortcut.0.weight f4 [16, 64, 1, 1]
-0.020308409 0.0006324219 -0.029474806 0.009877534 0.022363508 -0.004770218 -0.038983423 -0.000459332
-0.0010489753 -0.012257343 0.072971985 -0.07435353 0.0007491505 0.05739464 0.06525034 -0.0131641785
-0.24596798 -0.028791487 -0.07521661 0.034642093 0.0063770423 -0.04495132 -0.0034209422 -0.02689588
-0.010155113 -0.029948723 -0.060225595 0.044848427 0.030388376 -0.0011334328 -0.029252129 0.059758607
-0.011894401 -0.06294014 -0.07873266 -0.06461483 -0.100688696 0.033199288 0.00917415 0.03704381
-0.0171891 0.011358637 -0.14879155 -0.21170014 0.056319386 -0.048094474 -0.24319953 0.077130936
0.023528362 0.002130184 -0.03881475 -0.028867848 -0.0372148 0.003461755 0.023475531 -0.026098203
0.033090107 0.086199604 -0.079161614 0.015352369 -0.012422942 -0.0007691257 0.034619633 -0.00679496
-0.06086681 0.0011520718 0.09824141 0.1217779 -0.010063454 0.018599384 -0.026157847 -0.00024229487
0.17884064 -0.016653843 -0.013556539 -0.020805357 -0.014432267 -0.05015551 -4.507153e-05 -0.00045698995
-0.008500454 -0.28330806 -0.048633512 -0.06711515 0.017284298 0.016637493 -0.08327048 0.044021986
-0.00823725 0.1119827 -0.076855205 -0.045569763 0.015297961 0.01548879 0.033991974 -0.03389193
0.035226103 -0.07282782 -0.101886034 -0.031338993 -0.008889432 0.014075905 -0.0028190808 -0.048205785
-0.13044187 0.0078367265 -0.18447714 0.06740725 0.026882594 -0.011868381 -0.00578179 -0.0059860884
-0.053932715 -0.07548931 -0.011734242 -0.025310101 -0.038550865 -0.022445545 0.098323874 0.009017743
-0.08931073 -0.0061344136 0.038208038 0.08930119 0.010727402 0.0070038093 -0.04706629 -0.006054735
-0.011845151 -0.00030900782 -0.0051366114 0.022193456 -0.0034888526 -0.02215963 -0.033662893 7.577679e-06
-0.03522103 -0.17423421 0.03645597 -0.007690692 -0.002912164 -0.014014474 -0.007650314 0.03553911
-0.03890826 0.06305862 -0.058099177 -0.03716962 0.021596897 -0.07721929 0.007894041 0.026838943
-0.0684368 -0.015328248 -0.024714332 -0.013068602 -0.004228605 0.007351538 -0.04099708 -0.024996249
-0.050275087 -0.043659214 -0.008028724 0.038859505 -0.024658078 -0.008874926 0.0018586181 0.00050466263
0.040253233 -0.01446952 0.10689834 0.030474817 -0.0017718382 -0.11316098 -0.0018426917 0.014222774
-0.040973753 0.0032484583 -0.0539416 0.011769719 0.034689788 -0.0017222762 -0.0007236686 -0.046163
0.018361937 -0.06830179 0.004192319 0.020478528 0.023005048 0.0055057737 -0.008242449 0.01977884
-0.0053998083 -0.0018002795 0.012895652 0.05958834 -0.0404343 -0.026656685 -0.036491748 -0.0003175979
0.0957556 -0.056829862 -0.04911491 0.019540329 -0.04180489 -0.046207722 0.016527813 0.074797645
0.02206234 0.10141961 -0.054553717 -0.0720013 0.0307262 -0.02922791 0.012986523 0.026819719
-0.010121627 0.0424786 -0.043725643 -0.023937186 -0.0141571155 -0.0068008546 0.003437699 -0.033932634
-0.046090003 -0.09924891 0.13270654 -0.017969223 -0.030348238 -0.059426874 -0.0030918666 -0.03722943
0.019571938 -0.009958916 -0.011664132 0.006204086 -0.1509697 -0.073725894 0.02067859 -0.054062366
-0.037756838 -0.073256426 -0.026729858 -0.008202803 0.018346146 -0.023348602 0.02715591 -0.1059692
-0.054346103 -0.050646216 -0.007308062 0.020558586 -0.00362849 0.010981001 -0.07063826 -0.009125656
00000000: d25d a6bc 1ec9 253a 2675 f1bc 61d5 213c
00000010: ad33 b73c 7d4f 9cbb 15ad 1fbd 7fd2 f0b9
00000020: c57d 89ba 06d3 48bc 5672 953d aa46 98bd
00000030: a462 443a a416 6b3d f8a1 853d 91ae 57bc
00000040: 08df 7bbe 20dc ebbc 2b0b 9abd dee4 0d3d
00000050: 82f6 d03b e01e 38bd e331 60bb c054 dcbc
00000060: a261 26bc 0657 f5bc 1daf 76bd fcb2 373d
00000070: 0bf1 f83c b28f 94ba 29a2 efbc 71c5 743d
00000080: bce0 42bc c3e6 80bd 973e a1bd c854 84bd
00000090: e035 cebd fafb 073d 2d4f 163c 40bb 173d
000000a0: 28d0 8cbc 9419 3a3c d05c 18be ecc7 58be
000000b0: 28af 663d b6fe 44bd 4c09 79be d3f6 9d3d
000000c0: 8dbe c03c 8f9a 0b3b 37fc 1ebd 447c ecbc
000000d0: 8c6e 18bd 9dde 623b c24f c03c e6cb d5bc
000000e0: 7e89 073d 6b89 b03d 7c1f a2bd 8188 7b3c
000000f0: 9889 4bbc 279f 49ba 51cd 0d3d 41a8 debb
00000100: 7a4f 79bd 1d01 973a cb32 c93d b166 f93d
00000110: 2fe1 24bc bc5d 983c fb48 d6bc 8910 7eb9
00000120: 0022 373e a46d 88bc 3f1c 5ebc ff6f aabc
00000130: 5175 6cbc dd6f 4dbd 300b 3db8 2798 efb9
00000140: 7d45 0bbc c10d 91be ef33 47bd ab73 89bd
00000150: cd97 8d3c 5a4b 883c b789 aabd 6650 343d
00000160: 88f5 06bc 3057 e53d 4366 9dbd 5ca7 3abd
00000170: 4da4 7a3c b2c4 7d3c 2b3b 0b3d 44d2 0abd
00000180: 3f49 103d c126 95bd a0a9 d0bd 515d 00bd
00000190: fba4 11bc a09e 663c 54c0 38bb 6e73 45bd
000001a0: 8e92 05be 9d65 003c 93e7 3cbe d00c 8a3d
000001b0: e338 dc3c 9973 42bc 2b75 bdbb f326 c4bb
000001c0: 8de8 5cbd 249a 9abd fa40 40bc 2157 cfbc
000001d0: 83e7 1dbd b8df b7bc 075e c93d 28bf 133c
000001e0: 8be8 b6bd 3103 c9bb 0880 1c3d 8be3 b63d
000001f0: fcc1 2f3c 3680 e53b 95c8 40bd cc66 c6bb
00000200: 2a12 42bc 5402 a2b9 0551 a8bb 0dcf b53c
00000210: 3ca5 64bb 1d88 b5bc 1ae2 09bd c443 fe36
00000220: ed43 10bd 746a 32be db52 153d 3302 fcbb
00000230: 01da 3ebb f79c 65bc 7caf fabb 7591 113d
00000240: 455e 1fbd e124 813d 67f9 6dbd 2c3f 18bd
00000250: faeb b03c 2625 9ebd 0256 013c 58dd db3c
00000260: 9828 8cbd 5523 7bbc b675 cabc b11d 56bc
00000270: 1c90 8abb 2ce5 f03b 8eec 27bd efc4 ccbc
00000280: 40ed 4dbd 01d4 32bd e98a 03bc 252b 1f3d
00000290: bdff c9bc 2368 11bc e09c f33a 564b 043a
000002a0: 93e0 243d 9111 6dbc 84ed da3d 53a6 f93c
000002b0: 063d e8ba f2c0 e7bd 7986 f1ba a306 693c
000002c0: 18d4 27bd 16e4 543b def1 5cbd c8d5 403c
000002d0: e116 0e3d 00be e1ba 94b4 3dba 6a15 3dbd
000002e0: c66b 963c cfe1 8bbd b85f 893b 96c2 a73c
000002f0: 1575 bc3c c769 b43b 560b 07bc 3c07 a23c
00000300: e0f0 b0bb 5bf7 ebba 4948 533c e712 743d
00000310: 709e 25bd 1f5f dabc 5f78 15bd 4583 a6b9
00000320: 831b c43d 6ec6 68bd b72c 49bd 0a13 a03c
00000330: 9b3b 2bbd 4f44 3dbd 5665 873c 822f 993d
00000340: 15bc b43c 16b5 cf3d b873 5fbd 6b75 93bd
00000350: 83b5 fb3c 5f6f efbc 6dc5 543c 07b5 db3c
00000360: 2ed5 25bc 0afe 2d3d a919 33bd eb17 c4bc
00000370: 3ff3 67bc b4d9 debb 054b 613b f2fc 0abd
00000380: dfc8 3cbd 0343 cbbd 39e4 073e 3134 93bc
00000390: de9c f8bc 9869 73bd eaa0 4abb e37d 18bd
000003a0: 5455 a03c b92a 23bc ea1a 3fbc a54b cb3b
000003b0: cd97 1abe 9afd 96bd 2566 a93c 8070 5dbd
000003c0: eaa6 1abd 7707 96bd 93f8 dabc 0d65 06bc
000003d0: a84a 963c 9145 bfbc 1276 de3c 6106 d9bd
000003e0: 059a 5ebd 6872 4fbd 7878 efbb 7b6a a83c
000003f0: f6cb 6dbb a8e9 333c cbaa 90bd c783 15bc

module.layer1.0.shortcut.1.weight f4 [16]
0.18571739 0.30456817 0.05856078 0.07894628 0.2869089 0.28923136 0.208088 0.14576676
0.26436052 0.23450853 0.03913262 0.22953348 0.17821673 0.56517047 0.34326228 0.095369175
00000000: b32c 3e3e 5cf0 9b3e 6edd 6f3d 96ae a13d
00000010: b9e5 923e 2216 943e 0515 553e e243 153e
00000020: 435a 873e 0123 703e 8749 203d d30a 6b3e
00000030: 727e 363e 03af 103f 13c0 af3e ea50 c33d

module.layer1.0.shortcut.1.bias f4 [16]
0.3176046 -0.0388494 -0.024319276 -0.019019833 0.12830123 0.120805256 -0.030050201 -0.07054651
-0.08563914 0.20481193 -0.022236949 0.10110784 -0.026188742 -0.08891105 0.14027186 -0.05533627
00000000: 129d a23e 8c20 1fbd 3839 c7bc 7bcf 9bbc
00000010: 6661 033e bf68 f73d d72b f6bc b07a 90bd
00000020: 9363 afbd 38ba 513e 432a b6bc a111 cf3d
00000030: c689 d6bc ff16 b6bd 6da3 0f3e 49a8 62bd

module.layer1.0.shortcut.1.running_mean f4 [16]
-0.120566994 -0.042561363 -0.10760889 -0.09258279 0.046149444 -0.017050246 0.079093546 -0.08803685
-0.15871178 -0.18977806 -0.0056256005 -0.12290381 -0.050440494 0.28286758 0.17309527 -0.18345512
00000000: d4eb f6bd d354 2ebd 0d62 dcbd 0c9c bdbd
00000010: 3307 3d3d f5ac 8bbc ccfb a13d aa4c b4bd
00000020: 5785 22be 2e55 42be f556 b8bb feb4 fbbd
00000030: b19a 4ebd 05d4 903e e33f 313e a9db 3bbe

module.layer1.0.shortcut.1.running_var f4 [16]
0.024390193 0.022841953 0.011038973 0.008216526 0.02002507 0.022710958 0.019384986 0.0074055837
0.024302926 0.021284763 0.0031004148 0.01216085 0.010612308 0.02352141 0.028520549 0.007210152
00000000: f1cd c73c 0c1f bb3c cfdc 343c 9c9e 063c
00000010: 9e0b a43c 550c ba3c 43cd 9e3c 8aaa f23b
00000020: ee16 c73c 625d ae3c 5430 4b3b 4d3e 473c
00000030: 3fdf 2d3c f9af c03c eda3 e93c 2443 ec3b

module.layer2.0.conv1.weight f4 [32, 16, 3, 3]
0.051649053 -0.008593486 -0.0226684 -6.5188564e-05 -0.012169584 -0.06849328 0.007491388 0.028968371
-0.014202879 -0.07405222 -0.024189042 -0.0035444545 0.034156326 -0.05568054 -0.02641387 0.16624647
0.08616684 0.043403793 -0.017235614 -0.030677626 0.0113023305 -0.08651755 -0.0412122 -0.0353865
-0.100620076 -0.1537542 -0.12699988 -0.1063572 -0.13538441 -0.10576874 -0.044675987 -0.07980497
-0.029357966 0.09872093 0.043486234 0.02976202 -0.026151195 -0.059244823 -0.005730928 -0.018572897
-0.034111954 0.0056688515 -0.020339591 -0.013468499 0.02312057 0.0078019304 0.008265346 0.018998342
0.06834668 0.04823769 0.055287417 0.0011652899 -0.015701082 0.008035156 0.06413405 0.074322954
0.006925664 0.11892015 0.10669215 0.035740692 0.04228495 0.06263746 0.010335221 0.03437787
-0.014487496 -0.04548735 0.01115397 -0.022510776 -0.006306091 0.0076270076 -0.015300794 0.021481635
0.09383492 0.055272788 0.012758915 0.04738246 0.0018371311 -0.021385113 0.01826156 0.026611228
0.024017537 -0.012982291 -0.012541104 0.05268069 -0.09797182 -0.067904845 -0.012870564 -0.003019218
0.032506157 0.092766404 -0.24062492 -0.32992968 -0.22677998 -0.31973344 -0.4191762 -0.2829536
-0.1362513 -0.2588959 -0.15188147 0.019378318 0.022015454 0.016359838 -0.038145006 -0.02883065
-0.029183263 0.06857762 0.034348696 0.024098089 -0.009621009 -0.00074767927 0.011661781 -0.010648657
0.035017364 -0.016558053 0.00599154 0.043023866 -0.018918999 -0.01027109 -0.015254643 -0.02867594
-0.045612995 -0.040668562 -0.013957147 0.050326627 0.03096299 0.05442511 -0.062165044 -0.041353606
-0.09935466 -0.09977874 -0.07375259 -0.11673976 -0.029740484 0.04169676 -0.010000148 0.002267718
-0.046934545 -0.074413374 0.02833769 -0.022549096 0.018523248 0.05510301 0.020239104 -0.0156818
0.058657523 0.13830255 0.121203616 -0.07560433 -0.028519396 0.12364497 -0.15762219 -0.24055456
-0.17390776 0.15921715 0.010876432 -0.13121118 0.11482424 0.05129942 -0.06364556 -0.032927096
0.04271768 0.0032345438 -0.044493135 -0.08775288 -0.052569132 -0.031106416 -0.055688187 -0.037729125
0.07414722 0.03918316 0.028874008 0.05310863 -0.031377528 -0.027818363 0.033297766 -0.041159168
-0.0315815 -0.017395236 -0.025533129 -0.033746462 0.016020518 -0.030504396 -0.18191698 -0.013111991
0.047764596 0.004446698 -0.04946574 0.059382338 0.11732815 -0.12708431 0.015466916 0.102694295
-0.15354212 -0.0284774 0.16292548 -0.115926884 -0.055974692 0.08899596 -0.050347846 -0.04840956
-0.050032612 -0.027836893 0.026604379 -0.0038222892 0.00079186034 0.0396882 0.060261376 -0.09749153
-0.121014796 -0.050341472 -0.16908379 -0.24565287 -0.14927287 -0.08315175 -0.17660555 -0.11090378
-0.024427004 -0.0613755 -0.028413123 -0.0164146 -0.06496817 -0.09360164 -0.008849826 -0.08684505
-0.11065766 -0.03606035 -0.13552682 -0.015219339 0.15303604 -0.06359082 -0.13297664 0.1954356
0.06389423 -0.11502611 0.009543435 0.0021174608 -0.03241507 0.052040275 0.061018288 -0.025906269
0.052766584 0.087812446 0.058402516 0.08074526 0.03374409 0.0022191163 0.017667199 0.038823508
0.053197853 -0.059149936 -0.049964648 0.01729866 -0.13945286 -0.043555383 0.004046495 -0.07689742
00000000: f58d 533d b1cb 0cbc 15b3 b9bc d8b5 88b8
00000010: ef62 47bc 3446 8cbd 517a f53b 144f ed3c
00000020: 31b3 68bc b1a8 97bd 1928 c6bc 144a 68bb
00000030: 81e7 0b3d 4711 64bd e661 d8bc 843c 2a3e
00000040: 3d78 b03d 2dc8 313d b431 8dbc a54f fbbc
00000050: 692d 393c 1d30 b1bd 20ce 28bd 6ff1 10bd
00000060: e611 cebd be71 1dbe 420c 02be ced1 d9bd
00000070: 36a2 0abe 489d d8bd 2bfe 36bd ca70 a3bd
00000080: 1e80 f0bc 332e ca3d 9f1e 323d 7bcf f33c
00000090: 083b d6bc b3aa 72bd 82ca bbbb 3026 98bc
000000a0: fab8 0bbd c6c1 b93b 379f a6bc fbaa 5cbc
000000b0: 5a67 bd3c 56a7 ff3b 606b 073c 69a2 9b3c
000000c0: 58f9 8b3d e294 453d 0f75 623d a4bc 983a
000000d0: 8e9f 80bc e3a5 033c b658 833d a236 983d
000000e0: aef0 e23b 688c f33d 6a81 da3d d564 123d
000000f0: fc32 2d3d 1248 803d 0f55 293c cfcf 0c3d
00000100: f65c 6dbc f250 3abd 24bf 363c 8568 b8bc
00000110: 53a3 cebb faeb f93b 2eb0 7abc 41fa af3c
00000120: 862c c03d b865 623d c50a 513c 1c14 423d
00000130: e4cb f03a d52f afbc 4499 953c caff d93c
00000140: 6dc0 c43c adb3 54bc 3479 4dbc b5c7 573d
00000150: 73a5 c8bd b211 8bbd 0fdf 52bc 13de 45bb
00000160: 2d25 053d 50fc bd3d 6166 76be 8bec a8be
00000170: 0339 68be 1ab4 a3be 439e d6be 4bdf 90be
00000180: 7685 0bbe 018e 84be d186 1bbe 47bf 9e3c
00000190: c159 b43c 1105 863c f03d 1cbd 412e ecbc
000001a0: bd11 efbc 6c72 8c3d 38b1 0c3d 5b69 c53c
000001b0: 70a1 1dbc e8ff 43ba 0e11 3f3c b477 2ebc
000001c0: 5e6e 0f3d c1a4 87bc ae54 c43b cb39 303d
000001d0: 04fc 9abc 1348 28bc 9cee 79bc cee9 eabc
000001e0: b1d4 3abd 1494 26bd 84ac 64bc 4b23 4e3d
000001f0: 19a6 fd3c ddec 5e3d c6a0 7ebd 6662 29bd
00000200: 757a cbbd cc58 ccbd 990b 97bd 4115 efbd
00000210: 51a2 f3bc 39ca 2a3d a9d7 23bc ff9d 143b
00000220: 703e 40bd 0a66 98bd 7124 e83c e2b8 b8bc
00000230: 11be 973c b2b3 613d 7acc a53c 1e77 80bc
00000240: df42 703d 2f9f 0d3e 9a39 f83d 71d6 9abd
00000250: 82a1 e9bc 9339 fd3d b667 21be ef53 76be
00000260: e014 32be d209 233e 1033 323c 395c 06be
00000270: f928 eb3d 571f 523d 9a58 82bd 90de 06bd
00000280: bcf8 2e3d a4fa 533b 6f3e 36bd c8b7 b3bd
00000290: bb52 57bd e2d2 febc 4c19 64bd db89 1abd
000002a0: 7fda 973d 857e 203d 2f89 ec3c 6f88 593d
000002b0: b985 00bd 56e3 e3bc 3d63 083d 8496 28bd
000002c0: 9a5b 01bd 7480 8ebc da2a d1bc bb39 0abd
000002d0: 763d 833c 5be4 f9bc 7248 3abe add3 56bc
000002e0: cfa4 433d 9bb5 913b 969c 4abd e53a 733d
000002f0: be49 f03d 6422 02be f368 7d3c 6351 d23d
00000300: 253a 1dbe 7049 e9bc f0d5 263e 136b edbd
00000310: b845 65bd 8443 b63d 8b39 4ebd 1a49 46bd
00000320: ffee 4cbd 320a e4bc 6df1 d93c 5f7f 7abb
00000330: d994 4f3a 1890 223d a2d4 763d a4a9 c7bd
00000340: 9bd6 f7bd dc32 4ebd 4d24 2dbe 6d8c 7bbe
00000350: fdda 18be 774b aabd 16d8 34be 8521 e3bd
00000360: 241b c8bc e064 7bbd a3c2 e8bc e977 86bc
00000370: 080e 85bd 37b2 bfbd dcfe 10bc d1db b1bd
00000380: 7ca0 e2bd 04b4 13bd 8bc7 0abe 895a 79bc
00000390: 7bb5 1c3e e73b 82bd 072b 08be 4520 483e
000003a0: fada 823d cf92 ebbd 115c 1c3c 19c5 0a3b
000003b0: aac5 04bd 2f28 553d 50ee 793d 6239 d4bc
000003c0: c621 583d 03d7 b33d 7a37 6f3d c55d a53d
000003d0: 3e37 0a3d 986e 113b cdba 903c 6605 1f3d
000003e0: fee5 593d 3447 72bd bba7 4cbd ebb5 8d3c
000003f0: bbcc 0ebe 2167 32bd 7698 843b 657c 9dbd

module.layer2.0.bn1.weight f4 [32]
0.47705466 0.39941743 0.3596572 0.3144033 0.4842771 0.3975706 0.31389236 0.5613173
0.362732 0.4407693 0.36371318 0.43454126 0.32714653 0.3419028 0.27783263 0.2911383
0.40869567 0.4049499 0.4267047 0.3498777 0.37173662 0.4337318 0.2976634 0.3920765
0.31511658 0.34238854 0.38789147 0.36022285 0.34632903 0.41828358 0.2990167 0.34647495
00000000: 8240 f43e 7180 cc3e fd24 b83e 78f9 a03e
00000010: 2bf3 f73e 608e cb3e 80b6 a03e 7eb2 0f3f
00000020: 02b8 b93e 84ac e13e 9d38 ba3e 317c de3e
00000030: c07f a73e e20d af3e 1440 8e3e 1410 953e
00000040: 8f40 d13e 9855 cf3e 0a79 da3e 2b23 b33e
00000050: 4354 be3e 1812 de3e 5667 983e 40be c83e
00000060: f656 a13e 8d4d af3e b699 c63e 216f b83e
00000070: 0a52 b13e 4429 d63e b818 993e 2a65 b13e

module.layer2.0.bn1.bias f4 [32]
-0.08328743 -0.09195913 -0.050170213 0.03717318 -0.3064466 0.04246467 -0.045196705 -0.18344314
-0.2341009 -0.080895565 -0.07837645 -0.46814972 -0.04285746 -0.051473163 0.19744931 0.16840468
-0.16368935 -0.08631916 0.07408828 -0.15552343 -0.05271992 -0.23957007 0.0554445 -0.15179856
0.08904922 -0.012845767 -0.051625907 -0.09956991 -0.038534954 -0.14602025 -0.024334498 -0.10813687
00000000: 9a92 aabd 1155 bcbd 487f 4dbd e842 183d
00000010: 92e6 9cbe 6fef 2d3d 2e20 39bd 85d8 3bbe
00000020: 25b8 6fbe 93ac a5bd d583 a0bd 52b1 efbe
00000030: 4e8b 2fbd 86d5 52bd 2730 4a3e 4772 2c3e
00000040: 2e9e 27be 1ac8 b0bd 99bb 973d 8941 1fbe
00000050: d8f0 57bd db51 75be c619 633d 1571 1bbe
00000060: 705f b63d 0d77 52bc b075 53bd 4feb cbbd
00000070: d4d6 1dbd 5586 15be 2459 c7bc dd76 ddbd

module.layer2.0.bn1.running_mean f4 [32]
-0.60991275 -0.3806375 0.09459894 0.8076687 -0.67253494 -0.6488789 0.0032211225 -0.3328288
0.12044637 -0.26555002 0.12221354 0.6534541 -0.28930533 -0.17665038 -0.62945133 -0.82293147
-0.20811535 -0.3270822 -0.65425134 0.41917014 -0.34341335 0.49153703 -0.31094825 -1.5662675
-0.70428675 0.22194608 -0.43845943 0.089641 -0.20326889 -0.16090488 -0.10945988 0.35563922
00000000: 3e23 1cbf ebe2 c2be 17bd c13d 60c3 4e3f
00000010: 402b 2cbf ed1c 26bf 7819 533b 8968 aabe
00000020: 96ac f63d 2cf6 87be 184b fa3d c548 273f
00000030: d41f 94be d6e3 34be b923 21bf a3ab 52bf
00000040: 311c 55be 5177 a7be 047d 27bf 789d d63e
00000050: e0d3 afbe beaa fb3e 9c34 9fbe 747b c8bf
00000060: 234c 34bf d545 633e c17d e0be b395 b73d
00000070: b825 50be 40c4 24be 802c e0bd 5816 b63e

module.layer2.0.bn1.running_var f4 [32]
0.17684412 0.1238849 0.15140751 0.16974309 0.23147164 0.29269513 0.23808657 0.35285455
0.14349228 0.38035384 0.18646133 0.11239983 0.1374353 0.15077093 0.14770009 0.20926662
0.20318587 0.22424461 0.46154952 0.1333345 0.19628787 0.23851648 0.17048332 0.24641499
0.21638916 0.14642484 0.16402493 0.20173901 0.14610632 0.13486153 0.21964502 0.1705392
00000000: a016 353e 5eb7 fd3d 920a 1b3e 22d1 2d3e
00000010: e706 6d3e 23dc 953e f7cc 733e 5aa9 b43e
00000020: a4ef 123e bdbd c23e b8ef 3e3e e231 e63d
00000030: d7bb 0c3e b263 1a3e b13e 173e fd49 563e
00000040: f50f 503e 61a0 653e 3850 ec3e d788 083e
00000050: b0ff 483e aa3d 743e 2e93 2e3e 3654 7c3e
00000060: 1f95 5d3e 65f0 153e 27f6 273e ac94 4e3e
00000070: e59c 153e 2419 0a3e a0ea 603e d4a1 2e3e
