results/Njio/cifar10/ikd/resnet8_best.pth.tar (torch_old, 371434 bytes, 52 tensors)

module.conv1.weight f4 [64, 3, 3, 3]
0.067103386 0.17543438 -0.013544023 -0.14815247 0.009454577 0.040713683 -0.11315439 -0.1554265
0.02438596 0.00090359873 0.14135736 0.060699694 -0.18859647 -0.029548729 0.10078477 -0.12956761
-0.13957092 0.042386975 0.0078019397 0.12877019 0.035516687 -0.09803192 -0.012497888 0.07731525
-0.09550623 -0.12151405 -0.02701423 -0.06412289 -0.022060717 -0.014102668 -0.16635899 -0.20383005
-0.16916178 -0.117066495 -0.22376256 -0.15488932 -0.013121793 0.053992063 0.025423964 -0.015495158
0.057409678 -0.0036376338 0.027514871 -0.0045948154 0.0062568965 -0.013596883 0.14081228 0.023294719
0.12166841 0.2920554 0.14125292 0.118245214 0.2452256 0.13086504 0.0051591224 -0.0014024078
0.100493446 -0.19506545 -0.23235685 -0.014857752 -0.04345667 -0.023399271 0.102044836 0.10509897
0.062087126 0.05688841 -0.044508018 -0.14621134 -0.022500388 0.062407713 0.051593993 0.060449224
0.010047393 0.0063577937 0.02351569 -0.091561124 -0.116129905 -0.03188153 0.045898214 0.03814983
0.07251173 0.1225937 0.17127106 0.067377836 0.11093844 -0.0007435268 -0.27198115 -0.020206518
-0.14199108 -0.26678866 0.18312612 0.08850113 -0.1549529 0.2919251 0.06700511 -0.34325886
0.27779368 0.11228895 -0.1852955 -0.00648245 -0.039357256 -0.064011134 0.14408906 -0.0058774436
-0.24168551 0.17832766 0.06281631 -0.08038511 -0.049160603 -0.23131949 -0.2206482 0.111452565
0.010612076 -0.1042632 0.09060113 0.20156284 0.08818141 0.004410927 -0.2025348 -0.108845055
0.009755638 -0.022924883 -0.028644675 0.13931884 0.25221893 0.21813731 -0.009204268 -0.24579133
-0.15013207 -0.03451122 -0.13429627 -0.07125413 0.12990648 0.17514555 0.1815124 -0.15478288
-0.07744379 -0.05875038 0.24081515 -0.059074614 -0.16495912 0.0949476 -0.053016238 0.19329287
0.2278255 0.09628839 -0.17079951 0.51946133 -0.018301576 -0.37660813 0.1588557 -0.20775074
-0.13022465 0.14894411 0.025355853 -0.07910141 0.4319931 -0.024645485 -0.3151458 0.15016665
-0.17349884 -0.16128306 -0.08287125 0.13279945 0.28009546 -0.4031611 -0.04731847 0.2584827
-0.25042993 -0.034951705 0.35272828 0.09958674 0.10156822 -0.096456416 -0.10146966 0.015670188
-0.1883784 0.048623763 0.012676616 0.022673143 0.14654687 0.074423134 -0.3732818 0.11612518
0.13965768 -0.35155344 0.23399366 0.17458114 -0.10626649 0.06653842 -0.055788994 -0.17051978
0.1424164 0.11190882 0.0102640055 0.12813422 0.10484658 0.087921865 -0.045389652 -0.07322983
-0.08385699 -0.106773585 -0.092521265 -0.055613663 -0.11183286 -0.11624798 -0.058283884 0.090490356
0.0650299 0.052156325 -0.007876592 0.043701448 0.065859884 -0.06773603 -0.061612144 0.07080801
0.05584924 -0.026306402 0.0059808637 -0.061604682 -0.0817387 -0.018103374 -0.00085877895 -0.079350464
-0.04291764 0.010462846 0.00095881184 0.033528805 -0.047275517 -0.0043192278 0.05534797 0.07608744
0.06972646 0.078879304 -0.05703769 -0.04939318 -0.049923953 -0.04950486 -0.06586351 -0.04120756
-0.004809565 -0.025861025 -0.042259734 0.24844709 -0.12380051 -0.104093395 -0.049574144 -0.25126553
0.23549013 0.17170252 -0.058225147 0.03620524 0.2205087 -0.12183062 -0.07777551 -0.03596228
00000000: 806d 893d 12a5 333e c0e7 5dbc 48b5 17be
00000010: 5fe7 1a3c 64c3 263d 7dbd e7bd 2028 1fbe
00000020: 11c5 c73c 7cdf 6c3a fcbf 103e 3ea0 783d
00000030: 6f1f 41be 2d10 f2bc 3f68 ce3d 5fad 04be
00000040: aeeb 0ebe f79d 2d3d 6aa7 ff3b 55dc 033e
00000050: f279 113d f6c4 c8bd f1c3 4cbc 7557 9e3d
00000060: c598 c3bd 5cdc f8bd f24c ddbc dd52 83bd
00000070: adb8 b4bc e00e 67bc 035a 2abe d3b8 50be
00000080: bf38 2dbe 8fc0 efbd 0322 65be 4e9b 1ebe
00000090: cafc 56bc c826 5d3d eb45 d03c 67df 7dbc
000000a0: 6926 6b3d 5e65 6ebb de66 e13c 1b90 96bb
000000b0: a706 cd3b 76c5 5ebc 1831 103e 91d4 be3c
000000c0: 4a2d f93d 4988 953e 9ba4 103e 8c2a f23d
000000d0: 6b1c 7b3e 7c01 063e db0d a93b ffd0 b7ba
000000e0: 82cf cd3d 3dbf 47be f4ee 6dbe ee6d 73bc
000000f0: 9fff 31bd d4af bfbc e2fc d03d 213e d73d
00000100: 124f 7e3d d203 693d 0a4e 36bd 6db8 15be
00000110: bc52 b8bc 3b9f 7f3d 3954 533d 9b99 773d
00000120: d29d 243c 0a55 d03b faa3 c03c 6684 bbbd
00000130: 84d5 edbd 3596 02bd c4ff 3b3d ff42 1c3d
00000140: 0881 943d 6812 fb3d ae61 2f3e 64fd 893d
00000150: b133 e33d 3de9 42ba 1d41 8bbe 2488 a5bc
00000160: 1c66 11be 8698 88be 6a85 3b3e 1540 b53d
00000170: f9ab 1ebe 3577 953e fa39 893d a0bf afbe
00000180: f93a 8e3e c0f7 e53d 1bbe 3dbe bb6a d4bb
00000190: 1335 21bd 4518 83bd 158c 133e 9297 c0bb
000001a0: 687c 77be 879b 363e d6a5 803d f3a0 a4bd
000001b0: a15c 49bd 04df 6cbe 9af1 61be 3e41 e43d
000001c0: 46de 2d3c f287 d5bd 168d b93d 7d66 4e3e
000001d0: 7598 b43d 8a89 903b 4865 4fbe 28ea debd
000001e0: 1dd6 1f3c f7cc bbbc 3da8 eabc 99a9 0e3e
000001f0: d722 813e 635f 5f3e 80cd 16bc b9b0 7bbe
00000200: 39bc 19be a35b 0dbd f684 09be afed 91bd
00000210: 3406 053e 5b59 333e 63de 393e 677f 1ebe
00000220: da9a 9ebd 3da4 70bd 3f98 763e 39f8 71bd
00000230: 0beb 28be e373 c23d 8e27 59bd 91ee 453e
00000240: 164b 693e d932 c53d 11e6 2ebe 6bfb 043f
00000250: 30ed 95bc c8d2 c0be 12ab 223e 9cbc 54be
00000260: 9c59 05be ce84 183e 14b7 cf3c ecff a1bd
00000270: 332e dd3e 54e5 c9bc ca5a a1be 49c5 193e
00000280: aea9 31be 6327 25be 67b8 a9bd 94fc 073e
00000290: ac68 8f3e 226b cebe 03d1 41bd d857 843e
000002a0: 5a38 80be 8529 0fbd cd98 b43e 22f4 cb3d
000002b0: 0003 d03d f18a c5bd 53cf cfbd c45e 803c
000002c0: 44e6 40be b629 473d 95b1 4f3c 07bd b93c
000002d0: 6210 163e 286b 983d cb1e bfbe 0ad3 ed3d
000002e0: 6c02 0f3e d0fe b3be 099c 6f3e 66c5 323e
000002f0: 3fa2 d9bd 4c45 883d 0083 64bd bd9c 2ebe
00000300: 9bd5 113e 7430 e53d 5c2a 283c 9e35 033e
00000310: ceb9 d63d 6110 b43d 80ea 39bd 85f9 95bd
00000320: 37bd abbd 1cac dabd ca7b bdbd 27cb 63bd
00000330: a008 e5bd 6c13 eebd 15bb 6ebd 0253 b93d
00000340: 652e 853d dfa1 553d d20c 01bc 4a00 333d
00000350: 8ce1 863d 30b9 8abd 045d 7cbd ca03 913d
00000360: 2cc2 643d 8680 d7bc 1ffb c33b 3155 7cbd
00000370: 9f66 a7bd 874d 94bc ae1f 61ba 7f82 a2bd
00000380: 68ca 2fbd 5b6c 2b3c c658 7b3a 8055 093d
00000390: f9a3 41bd 4f88 8dbb 8eb4 623d bbd3 9b3d
000003a0: bfcc 8e3d 798b a13d 5aa0 69bd 8150 4abd
000003b0: 0f7d 4cbd 9cc5 4abd 73e3 86bd 42c9 28bd
000003c0: 8e99 9dbb 80da d3bc 8b18 2dbd ea68 7e3e
000003d0: 1f8b fdbd eb2e d5bd 420e 4bbd e0a5 80be
000003e0: 5324 713e c9d2 2f3e 7e7d 6ebd f24b 143d
000003f0: 08cd 613e 5582 f9bd c448 9fbd 2f4d 13bd

module.bn1.weight f4 [64]
0.3725123 0.22102274 0.3280486 0.30248752 0.28079394 0.38095832 0.3336893 0.24358091
0.28591654 0.30974266 0.4116936 0.2748907 0.28044695 0.52909464 0.43293816 0.25971764
0.33559436 0.19681746 0.27144685 0.24366374 0.35990664 0.31638357 0.27761716 0.351784
0.28546238 0.21404806 0.34027597 0.30538473 0.34977973 0.51946586 0.43785524 0.24690501
0.34235388 0.19039102 0.37601414 0.30762216 0.36233962 0.23014982 0.22890949 0.21389097
0.30902982 0.2594626 0.15004627 0.34299546 0.39331773 0.19923683 0.2968785 0.25786522
0.32549953 0.27749145 0.20871353 0.24469943 0.19510782 0.37213153 0.27779257 0.29430184
0.12775949 0.1793827 0.35015073 0.4084707 0.23130606 0.2904852 0.3121224 0.20777532
00000000: efb9 be3e c953 623e fcf5 a73e a5df 9a3e
00000010: 39c4 8f3e f80c c33e 53d9 aa3e 466d 793e
00000020: a763 923e 9796 9e3e 81c9 d23e 79be 8c3e
00000030: be96 8f3e bf72 073f 12aa dd3e b6f9 843e
00000040: 06d3 ab3e 848a 493e 15fb 8a3e fd82 793e
00000050: af45 b83e 07fd a13e d623 8e3e 081d b43e
00000060: 2028 923e 6a2f 5b3e a738 ae3e 635b 9c3e
00000070: 5416 b33e b7fb 043f 902e e03e abd4 7c3e
00000080: 0249 af3e ddf5 423e ed84 c03e a780 9d3e
00000090: 9484 b93e 65ac 6b3e 4067 6a3e 3c06 5b3e
000000a0: 2839 9e3e 48d8 843e bba5 193e 1a9d af3e
000000b0: f160 c93e bd04 4c3e 7500 983e e906 843e
000000c0: e0a7 a63e 5c13 8e3e 00b9 553e 7d92 7a3e
000000d0: 58ca 473e 0688 be3e d43a 8e3e bbae 963e
000000e0: 62d3 023e 19b0 373e f546 b33e 1223 d13e
000000f0: 7fdb 6c3e 7aba 943e 82ce 9f3e 0ec3 543e

module.bn1.bias f4 [64]
-0.10572682 0.06267422 -0.16465306 0.19180329 0.100074954 0.19405444 0.088880524 -0.06289497
-0.15837009 0.2242451 -0.28203586 -0.08441123 -0.18783544 0.31763616 0.5610688 0.1490639
-0.1495837 -0.12990606 0.017419122 0.25413892 0.04726816 -0.06821909 0.16931301 0.2613544
0.107995346 0.05593279 -0.21061231 0.37400648 0.0207184 -0.38635397 -0.22181596 -0.17188783
-0.2707952 0.105301365 0.20833595 -0.022829426 0.20018128 0.20469405 0.008327114 -0.24376552
-0.146101 -0.07159579 -0.044613738 0.30305302 -0.052194644 0.11867621 -0.1573934 0.18721898
-0.21123545 -0.18424694 -0.052368466 -0.02087124 -0.09013494 0.12897408 0.0017195157 0.2674193
-0.06337669 0.112372056 0.25157008 0.043151196 -0.24207224 0.23831135 0.112054035 0.04141446
00000000: 4e87 d8bd 575b 803d d09a 28be 1568 443e
00000010: 19f4 cc3d 35b6 463e fe06 b63d 14cf 80bd
00000020: c52b 22be 82a0 653e 0167 90be ccdf acbd
00000030: ef57 40be 35a1 a23e 34a2 0f3f 35a4 183e
00000040: 782c 19be 1806 05be 8cb2 8e3c 7f1e 823e
00000050: 429c 413d 73b6 8bbd 6460 2d3e 3ed0 853e
00000060: aa2c dd3d c819 653d c1aa 57be c77d bf3e
00000070: a2b9 a93c 30d0 c5be b923 63be 5d03 30be
00000080: aba5 8abe 3ea8 d73d 0556 553e c704 bbbc
00000090: 52fc 4c3e 519b 513e 736e 083c ab9d 79be
000000a0: 809b 15be d0a0 92bd e5bc 36bd c429 9b3e
000000b0: 0dca 55bd 830c f33d bc2b 21be 55b6 3f3e
000000c0: 1b4e 58be 3bab 3cbe 5180 56bd 2afa aabc
000000d0: ab98 b8bd c811 043e 5f61 e13a 2feb 883e
000000e0: a3cb 81bd 5223 e63d cbcd 803e 4fbf 303d
000000f0: c9e1 77be e407 743e 967c e53d 35a2 293d

module.bn1.running_mean f4 [64]
0.10779459 -0.06629252 0.08267228 -0.020540878 0.0025037916 -0.0073249657 -0.042750806 0.029049106
0.11104425 0.030372137 0.1509797 0.029767461 -0.22428793 0.059594646 -0.08297179 -0.0048807478
0.12504669 -0.12844642 0.02740436 0.038448434 0.272233 0.06120937 0.22230168 0.04093298
-0.021415273 -0.035733715 -0.051405013 -0.017763676 0.19697209 0.21874657 0.21256134 -0.13197686
0.14547278 -0.01831739 -0.057841014 -0.20853207 0.04259702 -0.029403754 -0.045172565 -0.26187122
0.13435028 0.09546658 0.030416554 -0.026911525 0.09405242 0.0017532911 0.12912184 0.08403045
0.20173135 -0.106500134 0.05535593 0.10001804 -0.04600229 -0.0621884 -0.07745876 -0.03583112
-0.23476522 -0.052301873 0.09104046 0.003200181 -0.19540899 -0.08372254 -0.0066947998 -0.0046626
00000000: 69c3 dc3d 5fc4 87bd 1650 a93d 5845 a8bc
00000010: a716 243b 4406 f0bb 781b 2fbd 64f8 ed3c
00000020: 2b6b e33d fdce f83c 6c9a 1a3e e4da f33c
00000030: bcab 65be 8419 743d 1ded a9bd aeee 9fbb
00000040: 3d0c 003e 7587 03be 1c7f e03c 1b7c 1d3d
00000050: 2062 8b3e adb6 7a3d 0da3 633e 57a9 273d
00000060: 156f afbc 845d 12bd 108e 52bd 2185 91bc
00000070: 0db3 493e 1aff 5f3e aea9 593e f124 07be
00000080: d1f6 143e 5a0e 96bc b3ea 6cbd 6e89 55be
00000090: 367a 2e3d 24e0 f0bc de06 39bd fc13 86be
000000a0: 1f93 093e fb83 c33d 232c f93c 8f75 dcbc
000000b0: 8e9e c03d b0ce e53a 8438 043e 2818 ac3d
000000c0: aa92 4e3e be1c dabd e6bc 623d 42d6 cc3d
000000d0: e66c 3cbd 44b9 7ebd b3a2 9ebd a7c3 12bd
000000e0: 4b66 70be 7d3a 56bd 6c73 ba3d 21ba 513b
000000f0: 4b19 48be b976 abbd 0d60 dbbb b9c8 98bb

module.bn1.running_var f4 [64]
0.83036834 0.8127657 0.3228222 1.7571628 1.8017895 2.098957 0.26890332 0.08568917
0.22954628 0.51960295 0.8161997 0.16170023 0.8640697 1.1919994 0.33214226 0.20467086
0.45298082 0.32332873 0.98795956 1.9542013 1.3119093 1.275615 1.7155994 0.4964184
1.411842 0.23848683 0.54892915 0.28169477 0.7643053 0.8772826 0.92122346 0.31127316
0.47183466 0.55423516 2.4947464 0.81610245 0.85570574 0.31465054 0.44503906 1.1962917
0.59005797 0.327757 0.15134795 1.3839813 0.6110171 1.0429636 0.40557197 0.32276055
1.0367863 0.33927107 0.1200743 0.65075076 0.33461484 0.8392123 0.61610997 0.4030739
1.006465 1.0000348 1.9910702 0.9608465 0.66352373 1.6615801 0.57317466 0.060974635
00000000: 0593 543f 6a11 503f f448 a53e b6ea e03f
00000010: 0aa1 e63f 5055 0640 b2ad 893e ce7d af3d
00000020: 2e0e 6b3e b304 053f 77f2 503f bf94 253e
00000030: ac33 5d3f 7093 983f 8d0e aa3e 3d95 513e
00000040: 1aed e73e 588b a53e ebea 7c3f 4523 fa3f
00000050: a5ec a73f 5a47 a33f c398 db3f 8d2a fe3e
00000060: 3db7 b43f e435 743e 9f86 0c3f 4c3a 903e
00000070: 83a9 433f 9895 603f 4dd5 6b3f 325f 9f3e
00000080: 5094 f13e 5be2 0d3f eda9 1f40 17ec 503f
00000090: 880f 5b3f e019 a13e 29dc e33e 1620 993f
000000a0: 0a0e 173f c4cf a73e f5fa 1a3e 4d26 b13f
000000b0: 9e6b 1c3f d57f 853f 21a7 cf3e df40 a53e
000000c0: 6ab5 843f f0b4 ad3e 84e9 f53d 9a97 263f
000000d0: a352 ab3e 9ed6 563f 62b9 1d3f b45f ce3e
000000e0: d8d3 803f 2401 803f 63db fe3f 09fa 753f
000000f0: b1dc 293f a8ae d43f 93bb 123f 8ac0 793d

module.layer1.0.conv1.weight f4 [16, 64, 3, 3]
0.032167993 -0.026905825 -0.06495211 0.045724243 0.035705633 -0.05004505 -0.06714245 -0.008006152
-0.029929252 -0.013984877 -0.0015081124 -0.026142677 -0.06253239 -0.00039348914 0.03373425 -0.08679581
-0.0089133205 0.04554778 0.0021153903 -0.03694739 -0.0023247986 0.056790907 0.0029184562 -0.024873268
0.013053249 -0.010090811 -0.01098036 -0.078015834 -0.07679171 -0.060306735 -0.06763711 -0.19924073
-0.1929215 0.042959265 -0.143579 -0.15217875 -0.012330903 0.03558748 0.057582423 -0.018433688
-0.0829628 -0.034180768 0.030208562 -0.1283915 -0.13691752 -0.011971109 0.00031928124 -0.09058147
-0.10844409 -0.18543898 -0.20983392 0.00773765 -0.10962986 -0.2073494 -0.07850326 0.05519704
0.09535493 -0.013827046 0.088370174 0.05183994 -0.12886414 0.012787311 0.03660441 0.01677674
0.011349297 -0.01701317 -0.045842458 -0.0067934105 -0.0021062768 -0.025749363 -0.04877943 -0.015490889
-0.027270438 -0.031154158 0.011167665 0.0342776 0.008761961 -0.0030961002 0.026366357 0.0117298225
-0.014186549 -0.032853816 -0.10572298 -0.021171577 0.086899 0.01859411 -0.0104729 -0.0069993944
-0.09421163 -0.09782642 -0.016319102 -0.015542271 0.07413044 0.01794953 0.0011565118 0.037300427
0.023289673 0.0100735715 0.00039412727 0.07374691 0.038340144 -0.05410715 0.012309807 0.03717482
-0.040899202 -0.057524618 -0.04433167 -0.03900646 -0.019176919 -0.017225098 -0.039787218 -0.001981425
0.031700008 0.037681915 0.022266893 0.061994247 0.07216101 -0.12307316 0.035667837 0.18420488
0.15310837 -0.11027729 -0.14290121 0.079971135 -0.0014992146 -0.008720324 0.082062945 -0.045476783
-0.066682026 -0.12942766 0.04193276 0.024670633 0.09180412 0.015280243 -0.052864663 -0.013766391
0.03286236 0.030132512 0.017776106 0.03135664 -0.028350286 -0.13991365 -0.00017766136 -0.030592034
0.03755054 -0.037513617 -0.07113937 0.04721988 -0.027859336 -0.06331001 0.0498045 0.025608074
-0.033385493 -0.029827474 -0.030168427 -0.040253147 -0.018485287 -0.008727379 0.025382172 -0.015827209
0.019219514 0.058112178 0.06855634 -0.04134149 -0.13858417 0.10624377 0.031001195 -0.12436327
-0.08613766 0.018517826 -0.014867289 -0.090519525 -0.009434518 0.058795065 -0.04972381 -0.0982579
-0.0078012655 0.07157359 -0.08433539 -0.12242303 0.036760632 0.0030144488 -0.05229631 0.05527281
0.01688978 -0.06972097 0.058219943 0.04308036 -0.02108793 0.11046481 -0.0092354305 -0.10238415
0.10107964 -0.0127449995 -0.10745651 -0.042920265 -0.008585827 -0.025607152 -0.056032613 -0.0883428
-0.12883835 -0.019432647 -0.1306802 -0.19533539 0.06021825 -0.03269946 -0.14701453 -0.012281035
-0.09727518 0.0028272911 0.064152755 -0.07612908 -0.07638706 0.14167573 0.061807513 -0.07606819
-0.10225607 -0.07517288 -0.05101387 -0.079372466 -0.15597421 -0.13647321 0.035458326 -0.124129765
-0.1543084 0.019449038 0.010337752 -0.007826984 -0.0010086462 0.03398993 0.04011454 -0.0042126123
-0.060077365 -0.04027106 0.09271466 -0.09822566 -0.08198271 0.11724201 -0.093859136 -0.11028884
0.013756354 -0.049266607 -0.06398791 0.089182794 0.1589482 0.02168394 -0.025983825 -0.1441495
-0.054142147 -0.055078108 0.014045502 0.0018557296 0.054475166 0.010775655 -0.046470135 0.04632566
00000000: 96c2 033d 9b69 dcbc 9d05 85bd 5849 3b3d
00000010: 1240 123d 0afc 4cbd fb81 89bd 3c2c 03bc
00000020: 312e f5bc d320 65bc dbab c5ba 2b29 d6bc
00000030: fb10 80bd 384d ceb9 ed2c 0a3d 00c2 b1bd
00000040: 2d09 12bc 4f90 3a3d 5ca2 0a3b 2556 17bd
00000050: a65b 18bb 959d 683d 9243 3f3b 06c3 cbbc
00000060: 4bdd 553c ee53 25bc f8e6 33bc c4c6 9fbd
00000070: f944 9dbd 3204 77bd 5385 8abd c305 4cbe
00000080: 378d 45be 0ef6 2f3d 6006 13be bfd4 1bbe
00000090: 8e07 4abc 2dc4 113d 8cdb 6b3d 3f02 97bc
000000a0: 67e8 a9bd 2201 0cbd f277 f73c 1079 03be
000000b0: 1b34 0cbe 7822 44bc 3465 a739 c782 b9bd
000000c0: ef17 debd b7e3 3dbe b4de 56be 1d8c fd3b
000000d0: 9f85 e0bd 6753 54be 51c6 a0bd 4b16 623d
000000e0: 7249 c33d d68a 62bc 6cfb b43d 1e56 543d
000000f0: f6f4 03be df81 513c 81ee 153d 606f 893c
00000100: 67f2 393c 345f 8bbc 4dc5 3bbd 429b debb
00000110: 7609 0abb 54f0 d2bc f1cc 47bd 7fcd 7dbc
00000120: 4166 dfbc 0137 ffbc 95f8 363c ab66 0c3d
00000130: 548e 0f3c f1e7 4abb 42fe d73c 712e 403c
00000140: b36e 68bc b991 06bd 4a85 d8bd 0470 adbc
00000150: 1af8 b13d ad52 983c 8796 2bbc 2d5b e5bb
00000160: 07f2 c0bd 3859 c8bd a3af 85bc 02a5 7ebc
00000170: b3d1 973d e50a 933c 1996 973a 55c8 183d
00000180: fcc9 be3c 9f0b 253c dea2 ce39 9f08 973d
00000190: 8e0a 1d3d 759f 5dbd 13af 493c a044 183d
000001a0: ec85 27bd ef9e 6bbd 2095 35bd 3dc5 1fbd
000001b0: ea18 9dbc a61b 8dbc ecf7 22bd ccda 01bb
000001c0: ded7 013d 5a58 1a3d 0f69 b63c aeed 7d3d
000001d0: 27c9 933d c80d fcbd 7018 123d 34a0 3c3e
000001e0: 71c8 1c3e 0fd9 e1bd b254 12be e8c7 a33d
000001f0: 4b81 c4ba b1df 0ebc 9e10 a83d dd45 3abd
00000200: 9690 88bd af88 04be b0c1 2b3d 111a ca3c
00000210: cc03 bc3d fc59 7a3c 9e88 58bd 6e8c 61bc
00000220: af9a 063d 75d8 f63c 329f 913c d26f 003d
00000230: dc3e e8bc 8645 0fbe 9c4a 3ab9 259c fabc
00000240: 98ce 193d e1a7 19bd 85b1 91bd a269 413d
00000250: 4339 e4bc aea8 81bd ceff 4b3d 06c8 d13c
00000260: 3abf 08bd bf58 f4bc c723 f7bc 7ce0 24bd
00000270: 756e 97bc 48fd 0ebc 46ee cf3c 10a8 81bc
00000280: 3e72 9d3c 0907 6e3d 4467 8c3d b255 29bd
00000290: 02e9 0dbe 5596 d93d 38f6 fd3c 2cb2 febd
000002a0: f168 b0bd b2b2 973c ee95 73bc 4d62 b9bd
000002b0: 3d93 1abc 18d3 703d 32ab 4bbd 703b c9bd
000002c0: c2a1 ffbb 2d95 923d 08b8 acbd edb8 fabd
000002d0: 5192 163d 0f8e 453b a834 56bd be65 623d
000002e0: 705c 8a3c dec9 8ebd 0978 6e3d 0875 303d
000002f0: 98c0 acbc 603b e23d 3450 17bc c8ae d1bd
00000300: d802 cf3d 67d0 50bc 2912 dcbd 29cd 2fbd
00000310: 92ab 0cbc 17c6 d1bc 7482 65bd 12ed b4bd
00000320: 33ee 03be 3731 9fbc 08d1 05be 0006 48be
00000330: 69a7 763d deef 05bd fa8a 16be 6536 49bc
00000340: 3638 c7bd 134a 393b 8562 833d 90e9 9bbd
00000350: d270 9cbd 7113 113e e029 7d3d a4c9 9bbd
00000360: a16b d1bd 3df4 99bd ebf3 50bd 088e a2bd
00000370: b4b7 1fbe a2bf 0bbe c03c 113d bf37 febd
00000380: 0503 1ebe 9753 9f3c ad5f 293c c03c 00bc
00000390: 8d34 84ba 0639 0b3d 254f 243d f409 8abb
000003a0: af13 76bd 44f3 24bd 2fe1 bd3d 892a c9bd
000003b0: 8de6 a7bd 941c f03d 3839 c0bd 1edf e1bd
000003c0: 5562 613c c8cb 49bd 180c 83bd 78a5 b63d
000003d0: 51c3 223e 85a2 b13c 08dc d4bc ed9b 13be
000003e0: 28c4 5dbd 9599 61bd 1b1f 663c f43b f33a
000003f0: 5a21 5f3d 5f8c 303c 7857 3ebd fabf 3d3d

module.layer1.0.bn1.weight f4 [16]
0.4346388 0.43008393 0.30267665 0.27929378 0.43972832 0.32379958 0.5943027 0.46896273
0.57660586 0.40581432 0.35969874 0.7343576 0.3960394 0.49636585 0.666697 0.45792317
00000000: fa88 de3e f633 dc3e 6ff8 9a3e 98ff 8e3e
00000010: 1224 e13e 0fc9 a53e 3924 183f e21b f03e
00000020: 719c 133f e5c6 cf3e 6f2a b83e dcfe 3b3f
00000030: adc5 ca3e aa23 fe3e a8ac 2a3f e874 ea3e

module.layer1.0.bn1.bias f4 [16]
0.08202453 -0.27405185 0.17037538 0.10905104 -0.061730992 -0.11391862 0.11400312 0.0019356651
0.19283819 -0.19650617 -0.00018314186 -0.7871726 -0.090102665 -0.1812041 0.3513905 -0.21895458
00000000: 7afc a73d 8650 8cbe e276 2e3e 2756 df3d
00000010: a3d9 7cbd 2a4e e9bd 787a e93d 25b6 fd3a
00000020: 6077 453e ea38 49be c509 40b9 2584 49bf
00000030: bf87 b8bd 918d 39be 75e9 b33e a135 60be

module.layer1.0.bn1.running_mean f4 [16]
-1.2488676 -0.41573596 -0.88582104 -0.41874385 -0.4654065 -0.5625319 -1.0260179 -0.9738035
-0.5249909 -0.31621283 -1.1545602 0.62480104 -0.5049877 -0.6445522 -0.94293904 -0.52679527
00000000: e5da 9fbf 58db d4be 2bc5 62bf 9865 d6be
00000010: c349 eebe 1702 10bf 8e54 83bf 304b 79bf
00000020: ce65 06bf a6e6 a1be a1c8 93bf f6f2 1f3f
00000030: e046 01bf 5f01 25bf 7464 71bf 0edc 06bf

module.layer1.0.bn1.running_var f4 [16]
0.7626988 0.24755596 0.41135398 0.3227984 0.30660892 0.2507407 0.8330219 0.42817712
1.3013457 0.16201304 0.48444697 0.84914774 0.5665685 0.55873036 1.0502487 0.1539736
00000000: 3b40 433f 4f7f 7d3e fd9c d23e d545 a53e
00000010: d8fb 9c3e 1661 803e ec40 553f 083a db3e
00000020: 7f92 a63f bfe6 253e 6f09 f83e bf61 593f
00000030: a20a 113f f408 0f3f 8d6e 863f 41ab 1d3e

module.layer1.0.conv2.weight f4 [16, 16, 3, 3]
-0.16048595 -0.16425133 -0.15127788 -0.12440729 -0.2745035 -0.25860384 -0.22342935 -0.1667245
-0.073379286 0.019129686 0.041854303 -0.063643806 -0.10108737 0.048851136 -0.058626357 -0.022820685
-0.0256159 -0.040331747 -0.022590205 0.04179681 0.041168876 -0.18732953 -0.12602916 0.10282765
-0.15684511 -0.029607406 0.078009814 0.1071716 -0.066451274 -0.1261718 0.03115538 -0.08847845
-0.111938134 0.004878049 -0.055105608 -0.01487217 0.008126689 0.1553775 -0.03640656 0.029580992
0.12581676 -0.011620404 -0.0543231 -0.033830795 -0.1052647 0.116746955 0.056918904 -0.05127866
0.14666358 0.030569877 -0.031295832 0.040588602 -0.041266553 -0.068682924 -0.08116368 -0.0033290016
0.12080478 0.17365013 0.093771674 -0.16035919 0.019079985 -0.091554396 -0.08244623 0.17918877
0.040878575 -0.19317329 0.15548092 0.02730118 -0.16148002 0.092035584 0.053221077 -0.1038381
0.08314391 0.014265216 0.059892446 0.09940489 -0.0054868143 -0.1281839 0.04562312 -0.09475399
-0.15822949 -0.08561334 -0.02401004 -0.041452575 -0.043615658 -0.020850282 -0.048523605 -0.012239083
-0.007057072 -0.038881935 0.0273611 0.008494705 -0.0115500325 0.19737089 0.11930935 0.03370387
0.19026068 0.15171498 0.07121389 0.038891293 -0.05512442 -0.28170058 0.08364661 0.006716579
-0.1319576 0.0611268 0.0073227515 -0.13364612 -0.041056193 -0.0642867 -0.041886445 0.007691625
-0.03391896 -0.050189175 -0.1255704 -0.143719 -0.055367153 0.019944606 0.01759035 -0.11982795
-0.039366588 0.014363993 0.0024937266 -0.009346864 -0.050528392 -0.038373373 -0.082728274 -0.12824915
-0.12048891 -0.24370813 -0.11912383 0.2754579 -0.09906386 0.06160581 0.24067755 0.038410585
0.031020705 -0.021989636 0.07355448 0.046142653 -0.016957797 0.089534506 0.013377656 -0.07024207
-0.06297431 -0.033339955 -0.05382837 0.014296245 0.007887828 0.113426544 -0.06985011 -0.020907389
0.15969431 0.13628495 0.03627103 0.033094015 0.054888543 0.00911356 0.00041131815 -0.1412321
-0.057253275 0.015906848 0.16707863 0.3014952 0.18663599 -0.2335431 -0.2251656 -0.074978195
-0.16034634 -0.27748406 -0.21601209 0.02386927 0.0008033713 -0.08018266 -0.014871943 -0.0477433
-0.12520795 0.023886507 -0.018544385 -0.085654184 -0.033666477 0.008059321 0.023865025 -0.08200063
-0.10545387 -0.036995847 -0.107758164 -0.14684382 -0.020719232 -0.058933876 -0.050078653 -0.1271084
-0.055324286 -0.03948445 -0.091187626 -0.057876933 -0.040155467 -0.08343686 0.011281915 0.014102267
-0.0036913273 -0.047133185 0.069932945 0.04257481 -0.00072060147 0.044549942 -0.018952237 0.03774561
0.043333113 -0.034515396 -0.09361462 -0.057891123 -0.14728722 -0.05970026 -0.053113475 -0.087495655
0.06301046 0.043486007 -0.040515848 0.014843468 0.06292354 -0.07161797 -0.08894212 -0.057342257
-0.0541608 -0.030070048 0.00657726 -0.0034090779 0.0055920566 0.002505636 0.017829709 0.00956312
-0.037763953 0.015964175 0.06720596 0.08526421 0.010449056 -0.019845178 -0.016101135 -0.06497214
-0.1051461 -0.08417535 -0.12573482 -0.021213628 -0.0646839 -0.022838822 -0.18430984 -0.20254046
-0.19634064 -0.06740806 -0.034238033 -0.03207145 -0.10226314 -0.13052432 -0.17042394 0.13350685
00000000: 6e56 24be 8031 28be 97e8 1abe 40c9 febd
00000010: b98b 8cbe b967 84be aaca 64be d4b9 2abe
00000020: e147 96bd dcb5 9c3c 6b6f 2b3d af57 82bd
00000030: e506 cfbd 2118 483d 3122 70bd 72f2 babc
00000040: 70d8 d1bc e732 25bd 180f b9bc 2233 2b3d
00000050: b2a0 283d 50d3 3fbe ca0d 01be 4e97 d23d
00000060: 019c 20be 3b8b f2bc 9cc3 9f3d c97c db3d
00000070: 9b17 88bd 2e33 01be 9139 ff3c 3134 b5bd
00000080: d23f e5bd 0ad8 9f3b 6bb6 61bd 67aa 73bc
00000090: ce25 053c 481b 1f3e 0c1f 15bd d653 f23c
000000a0: 1cd6 003e 8263 3ebc e681 5ebd 2992 0abd
000000b0: 0595 d7bd 0719 ef3d cc23 693d 9209 52bd
000000c0: fa2e 163e ae6d fa3c 0f30 00bd 3c40 263d
000000d0: 1e07 29bd a2a9 8cbd 2539 a6bd 612b 5abb
000000e0: 7f68 f73d 57d1 313e 5d0b c03d 3335 24be
000000f0: a14d 9c3c df80 bbbd 92d9 a8bd 437d 373e
00000100: 4b70 273d 38cf 45be 6436 1f3e b9a6 df3c
00000110: 055b 25be 277d bc3d 58fe 593d 12a9 d4bd
00000120: 5b47 aa3d a7b8 693c c851 753d ca94 cb3d
00000130: bcca b3bb a442 03be 4fdf 3a3d 610e c2bd
00000140: e906 22be 0c56 afbd b4b0 c4bc 2dca 29bd
00000150: 55a6 32bd 36ce aabc b0c0 46bd 6f86 48bc
00000160: 033f e7bb aa42 1fbd 6324 e03c 602d 0b3c
00000170: 593c 3dbc 981b 4a3e 7658 f43d 120d 0a3d
00000180: b2d3 423e 2c5b 1b3e 97d8 913d 7a4c 1f3d
00000190: 25ca 61bd 0f3b 90be ea4e ab3d c016 dc3b
000001a0: e51f 07be 1860 7a3d b1f3 ef3b 87da 08be
000001b0: 8a2a 28bd bfa8 83bd 1f91 2bbd 070a fc3b
000001c0: 9bee 0abd 2a93 4dbd 8795 00be 132b 13be
000001d0: abc8 62bd df62 a33c a319 903c 5b68 f5bd
000001e0: dc3e 21bd f456 6b3c ca6d 233b 9723 19bc
000001f0: dcf6 4ebd 662d 1dbd 716d a9bd bf53 03be
00000200: e4c2 f6bd a08e 79be 32f7 f3bd d108 8d3e
00000210: fee1 cabd 6056 7c3d 2d74 763e 6b54 1d3d
00000220: 221f fe3c 9c23 b4bc bba3 963d 1400 3d3d
00000230: 14eb 8abc de5d b73d f52d 5b3c 13db 8fbd
00000240: adf8 80bd 7a8f 08bd 237b 5cbd cc3a 6a3c
00000250: f33b 013c 2d4c e83d 930d 8fbd f945 abbc
00000260: e886 233e 488e 0b3e ee90 143d 978d 073d
00000270: cfd2 603d 0b51 153c 30a6 d739 269f 10be
00000280: 6982 6abd 144f 823c a916 2b3e 945d 9a3e
00000290: 811d 3f3e ec25 6fbe d091 66be 2b8e 99bd
000002a0: d531 24be 6412 8ebe 4632 5dbe 7d89 c33c
000002b0: 5699 523a ce36 a4bd 73a9 73bc 7b8e 43bd
000002c0: 8336 00be a3ad c33c 65ea 97bc 766b afbd
000002d0: dce5 09bd 3e0b 043c 9680 c33c f2ef a7bd
000002e0: 33f8 d7bd f588 17bd 50b0 dcbd 3a5e 16be
000002f0: 61bb a9bc a664 71bd 461f 4dbd b428 02be
00000300: b89b 62bd 72ba 21bd 94c0 babd 5d10 6dbd
00000310: 0f7a 24bd f2e0 aabd c8d7 383c 320d 673c
00000320: 32ea 71bb ba0e 41bd 0139 8f3d ed62 2e3d
00000330: bfe6 3cba 007a 363d b941 9bbc 249b 1a3d
00000340: 107e 313d 0460 0dbd 06b9 bfbd 3e1f 6dbd
00000350: 76d2 16be 4388 74bd 848d 59bd ec30 b3bd
00000360: a10b 813d 621e 323d f2f3 25bd 0432 733c
00000370: 0fde 803d 71ac 92bd 4927 b6bd b7df 6abd
00000380: b7d7 5dbd 7655 f6bc 0e86 d73b d66a 5fbb
00000390: 923d b73b 9935 243b 9c0f 923c a2ae 1c3c
000003a0: 60ae 1abd 4dc7 823c 47a3 893d 019f ae3d
000003b0: 8432 2b3c 5b92 a2bc 87e6 83bc 1d10 85bd
000003c0: d756 d7bd 2064 acbd a1c0 00be 34c8 adbc
000003d0: fe78 84bd 7b18 bbbc b8bb 3cbe c466 4fbe
000003e0: 850d 49be 3d0d 8abd 2e3d 0cbd 5a5d 03bd
000003f0: 566f d1bd 2ba8 05be 9d83 2ebe 05b6 083e

module.layer1.0.bn2.weight f4 [16]
0.76671547 0.65548545 0.65939796 1.0273315 0.24391976 0.6097485 0.2504594 0.40104836
0.86468947 0.8443213 0.34247565 1.1020615 0.77455163 0.19382098 0.67438173 0.89768314
00000000: 7747 443f e5cd 273f 4ece 283f 997f 833f
00000010: 1ac6 793e 7a18 1c3f 373c 803e 3656 cd3e
00000020: 4a5c 5d3f 7125 583f f858 af3e 5a10 8d3f
00000030: 0449 463f 0279 463e 48a4 2c3f 90ce 653f

module.layer1.0.bn2.bias f4 [16]
-0.10669339 -0.0706596 0.0030443452 -0.057614826 0.16136213 0.07400618 0.11655574 0.06311908
-0.10735342 -0.03069854 0.098738626 -0.047529243 -0.13825423 -0.012066599 -0.12953943 -0.07326396
00000000: 1082 dabd fbb5 90bd a383 473b 86fd 6bbd
00000010: 1d3c 253e 8d90 973d c7b4 ee3d 9444 813d
00000020: 1cdc dbbd 817b fbbc 7a37 ca3d 06ae 42bd
00000030: 8492 0dbe fcb2 45bc fca5 04be 6a0b 96bd

module.layer1.0.bn2.running_mean f4 [16]
-0.52289355 -0.3351766 0.16200878 -0.16957599 -0.07657711 0.36204565 -0.0586104 0.11507495
0.0060815653 -0.007943431 0.04040312 -0.15104532 -0.020037495 -0.18393373 -0.22177428 -0.1283291
00000000: 5adc 05bf 449c abbe a1e5 253e 54a5 2dbe
00000010: 76d4 9cbd 0c5e b93e 7511 70bd 6aac eb3d
00000020: de47 c73b 2a25 02bc be7d 253d a0ab 1abe
00000030: ac25 a4bc 2059 3cbe cc18 63be b468 03be

module.layer1.0.bn2.running_var f4 [16]
0.31030136 0.11830359 0.13623188 0.574786 0.10751344 0.1355003 0.08363178 0.10907659
0.33684248 0.32735977 0.13839327 1.0979711 0.31673008 0.029692808 0.18356714 0.47646165
00000000: d2df 9e3e 2749 f23d 5f80 0b3e 2d25 133f
00000010: 0230 dc3d 97c0 0a3e 2447 ab3d 8c63 df3d
00000020: 9e76 ac3e b39b a73e f7b6 0d3e 518a 8c3f
00000030: 722a a23e 553e f33c 06f9 3b3e c8f2 f33e

module.layer1.0.shortcut.0.weight f4 [16, 64, 1, 1]
-0.12976973 0.07631673 -0.031047417 0.18898918 -0.12638336 0.14856768 0.01491438 -0.066631
-0.02266289 -0.15340646 -0.059230853 -0.08247515 0.020184556 0.12978092 -0.00032508594 -0.03834156
-0.07206892 0.011287409 -0.15057325 -0.1039346 0.001837921 -0.10586811 0.10870876 -0.058117993
0.10156693 -0.051095404 -0.03821561 0.16566207 -0.060496546 -0.026094839 -0.080533564 0.011591584
-0.036027946 0.048987877 -0.4435987 -0.049254414 -0.020889198 0.07906603 -0.06383062 -0.013608895
0.03254142 -0.12273174 0.012220451 -0.0076180585 -0.12867552 -0.22468181 -0.060277756 -0.06214554
0.046780877 0.0107524395 -0.00966263 -0.050130256 -0.033251353 0.10758976 -0.08667833 -0.09454616
-0.07368365 0.029794084 -0.4346971 -0.1335457 -0.017828334 0.014462411 -0.14193057 -0.03277879
0.005979141 -0.005184512 -0.08081686 0.038844068 -0.14831725 0.017867422 0.021045985 -0.06754214
-0.058421277 -0.08472076 -0.12003207 -0.091958195 -0.0991396 -0.027604658 -0.04448949 0.0843886
-0.009506814 -0.03540697 0.1424834 -0.22465067 -0.06933329 0.15345354 0.025756322 -0.0452369
-0.07932155 -0.16784433 -0.11029215 0.058885828 -0.09881297 -0.09508901 -0.116417624 -0.09862695
-0.11211567 -0.042960323 -0.05738824 -0.20616084 -0.09708551 -0.064770274 -0.17789645 -0.047088545
-0.09354565 0.0021079627 -0.060725093 0.17692202 -0.07099289 -0.067946486 -0.06373645 -0.050492793
-0.13569431 -0.09660566 -0.04132043 0.011635522 -0.039335668 -0.007841871 -0.11898161 0.0027922697
-0.041164912 0.055908773 -0.00026956905 -0.08879265 -0.113182224 0.1204343 0.03476617 -0.04621458
0.11025389 -0.115953475 0.082746185 -0.105302155 -0.21634959 0.13565545 0.21065894 0.038840707
0.039979707 -0.04007212 -0.23043422 -0.033805035 -0.15518184 -0.092981435 0.03329269 0.2151758
0.087948136 -0.052078336 0.023739338 -0.055831026 0.16396773 -0.01619788 0.032851472 0.05967947
0.0068893875 -0.075266086 0.0712919 -0.1629131 0.13989976 0.08039517 0.29311892 -0.08993232
-0.056130525 -0.22679318 -0.004846272 -0.16383342 0.045670237 -0.20532025 -0.08652519 0.0441716
-0.20213886 -0.0043123704 -0.13483445 0.119382724 0.024977319 0.03722037 0.20661923 0.15709366
-0.11525675 -0.084530205 0.10725008 -0.075557314 -0.11696236 -0.14076005 -0.09528967 -0.013937729
-0.023140034 0.08516382 -0.0018801606 -0.0558599 -0.06929868 -0.21387088 0.0074396273 0.02904115
0.009846381 0.044536885 -0.110579886 -0.038487535 -0.14801559 -0.034181938 0.00043088137 -0.027841467
0.01697371 -0.09253121 -0.047452025 0.042412862 0.038352914 -0.17632973 0.045997385 -0.01207356
-0.037164852 0.04038476 0.010926281 -0.095239684 0.0491989 -0.0115568945 -0.036003925 -0.065040104
-0.06653001 -0.038821843 -0.04782587 -0.04267957 -0.009734091 -0.022506451 -0.019665245 0.022464702
0.040605456 -0.017089952 0.0059009506 -0.00999147 -0.15255648 -0.0111474795 -0.012291186 0.01687406
0.035306513 -0.015000427 -0.0013512295 0.031630702 0.028463328 -0.0238441 0.0022238952 -0.054773133
0.0025169349 -0.029022746 0.018195167 -0.008443642 -0.046691485 -0.027901392 -0.07237097 -0.032182425
-0.025801048 0.07750033 -0.032320295 0.018652486 0.0048072035 0.0076088943 0.013655037 -0.018547788
00000000: 5be2 04be f24b 9c3d 2757 febc 6186 413e
00000010: a46a 01be 2022 183e 725b 743c d575 88bd
00000020: 86a7 b9bc 9516 1dbe 0d9c 72bd bbe8 a8bd
00000030: 155a a53c 4ae5 043e 4c70 aab9 0a0c 1dbd
00000040: df98 93bd d3ee 383c e02f 1abe aadb d4bd
00000050: 65e6 f03a 61d1 d8bd b3a2 de3d 220d 6ebd
00000060: 5302 d03d 6a49 51bd f987 1cbd 51a3 293e
00000070: 3acb 77bd d8c4 d5bc c8ee a4bd a1ea 3d3c
00000080: 0a92 13bd 83a7 483d 5e1f e3be ffbe 49bd
00000090: d31f abbc 5fed a13d a1b9 82bd d8f7 5ebc
000000a0: 274a 053d c75a fbbd 4938 483c e8a0 f9bb
000000b0: 84c3 03be fd12 66be cfe5 76bd 528c 7ebd
000000c0: 4e9d 3f3d 002b 303c 0250 1ebc 6255 4dbd
000000d0: 9232 08bd 0558 dc3d 6984 b1bd 6ba1 c1bd
000000e0: 74e7 96bd b912 f43c 9e90 debe 34c0 08be
000000f0: ba0c 92bc c0f3 6c3c 3f56 11be 0d43 06bd
00000100: acec c33b d7e2 a9bb 4f83 a5bd f51a 1f3d
00000110: 7ae0 17be b35e 923c a168 ac3c 8953 8abd
00000120: 264b 6fbd 1482 adbd 60d3 f5bd 9454 bcbd
00000130: b409 cbbd 2a23 e2bc 9d3a 36bd eed3 ac3d
00000140: 78c2 1bbc e606 11bd 2be7 113e d30a 66be
00000150: 9dfe 8dbd ed22 1d3e ecfe d23c 544a 39bd
00000160: 5673 a2bd 62df 2bbe dae0 e1bd 4432 713d
00000170: 745e cabd 07be c2bd 5d6c eebd edfc c9bd
00000180: e79c e5bd 2af7 2fbd ee0f 6bbd d41b 53be
00000190: c5d4 c6bd 47a6 84bd 7d2a 36be ebdf 40bd
000001a0: dd94 bfbd bf25 0a3b e0ba 78bd 0c2b 353e
000001b0: b864 91bd 8727 8bbd 4288 82bd 88d1 4ebd
000001c0: 73f3 0abe 30d9 c5bd 9c3f 29bd eba2 3e3c
000001d0: 701e 21bd 317b 00bc a1ac f3bd 83fe 363b
000001e0: 8a9c 28bd 9900 653d f254 8db9 ecd8 b5bd
000001f0: 15cc e7bd 42a6 f63d f966 0e3d 804b 3dbd
00000200: cbcc e13d 0479 edbd d576 a93d a8a8 d7bd
00000210: bf8a 5dbe 43e9 0a3e fab6 573e 6f17 1f3d
00000220: c3c1 233d aa22 24bd f3f6 6bbe 2677 0abd
00000230: fde7 1ebe 0d6d bebd ea5d 083d 0b57 5c3e
00000240: 271e b43d 1850 55bd 0079 c23c 13af 64bd
00000250: 28e7 273e 6bb1 84bc 448f 063d 7672 743d
00000260: 5fc0 e13b 1b25 9abd 7d01 923d b1d2 26be
00000270: e241 0f3e 39a6 a43d af13 963e 702e b8bd
00000280: 1fe9 65bd 793c 68be 7acd 9ebb f3c3 27be
00000290: b710 3b3d 793f 52be 1e34 b1bd 48ed 343d
000002a0: 7dfd 4ebe c94e 8dbb 0b12 0abe ee7e f43d
000002b0: 3c9d cc3c 6374 183d fe93 533e 29dd 203e
000002c0: bb0b ecbd 2c1e adbd eea5 db3d cbbd 9abd
000002d0: f689 efbd 6723 10be 3b27 c3bd 135b 64bc
000002e0: 2b90 bdbc 5e6a ae3d b96f f6ba 5acd 64bd
000002f0: 77ec 8dbd f800 5bbe 1ec8 f33b b5e7 ed3c
00000300: b752 213c 4f6c 363d b577 e2bd 1ba5 1dbd
00000310: 6691 17be 5c02 0cbd ebe7 e139 ca13 e4bc
00000320: 730c 8b3c 0181 bdbd 0e5d 42bd 1cb9 2d3d
00000330: f217 1d3d c88f 34be c167 3c3d 2ed0 45bc
00000340: 2c3a 18bd 7d6a 253d 2504 333c 060d c3bd
00000350: c984 493d 2159 3dbc da78 13bd bf33 85bd
00000360: e340 88bd a703 1fbd 0fe5 43bd c6d0 2ebd
00000370: bd7b 1fbc 735f b8bc 0219 a1bc e507 b83c
00000380: e851 263d 3a00 8cbc c35c c13b 43b3 23bc
00000390: c437 1cbe eba3 36bc f860 49bc 783b 8a3c
000003a0: 909d 103d 5ac4 75bc bd1b b1ba 328f 013d
000003b0: ed2b e93c b454 c3bc c5be 113b cb59 60bd
000003c0: 29f3 243b 1cc1 edbc 080e 953c 3457 0abc
000003d0: 923f 3fbd 7691 e4bc 3b37 94bd b8d1 03bd
000003e0: b85c d3bc 7eb8 9e3d 4962 04bd 19cd 983c
000003f0: bf85 9d3b 0854 f93b 60b9 5f3c 88f1 97bc

module.layer1.0.shortcut.1.weight f4 [16]
0.43564662 0.32749683 0.4677998 -0.0007637179 0.46605077 0.3838072 0.38690817 0.3316394
0.3129902 0.16826253 0.4581309 0.095788576 0.37164626 0.4655821 0.43852323 0.36111197
00000000: 130d df3e aaad a73e 7583 ef3e 3e34 48ba
00000010: 359e ee3e 6182 c43e d418 c63e a4cc a93e
00000020: 4040 a03e 034d 2c3e 2290 ea3e cd2c c43d
00000030: 6b48 be3e c760 ee3e 1e86 e03e abe3 b83e

module.layer1.0.shortcut.1.bias f4 [16]
-0.10669339 -0.0706596 0.0030443452 -0.057614826 0.16136213 0.07400618 0.11655574 0.06311908
-0.10735342 -0.03069854 0.098738626 -0.047529243 -0.13825423 -0.012066599 -0.12953943 -0.07326396
00000000: 1082 dabd fbb5 90bd a383 473b 86fd 6bbd
00000010: 1d3c 253e 8d90 973d c7b4 ee3d 9444 813d
00000020: 1cdc dbbd 817b fbbc 7a37 ca3d 06ae 42bd
00000030: 8492 0dbe fcb2 45bc fca5 04be 6a0b 96bd

module.layer1.0.shortcut.1.running_mean f4 [16]
-0.3159765 -0.2651317 -0.08406595 -0.24850598 0.029528508 0.7559129 0.08859442 -0.098731324
0.17213544 0.13279647 -0.024557106 -0.17813286 -0.291837 -0.12146567 -0.5284468 -0.32525274
00000000: acc7 a1be 58bf 87be c52a acbd 5a78 7ebe
00000010: c5e5 f13c 8283 413f fe70 b53d a633 cabd
00000020: 4644 303e ccfb 073e fc2b c9bc 7668 36be
00000030: a96b 95be fec2 f8bd 4a48 07bf 8787 a6be

module.layer1.0.shortcut.1.running_var f4 [16]
0.18691166 0.07608698 0.080113955 0.03902489 0.11268146 0.07213275 0.09164389 0.090160795
0.13652556 0.06056516 0.1328861 0.049255695 0.16539481 0.06881256 0.13740519 0.18871543
00000000: c565 3f3e 7ed3 9b3d c912 a43d 90d8 1f3d
00000010: 8ac5 e63d 56ba 933d cbaf bb3d 39a6 b83d
00000020: 5bcd 0b3e 2c13 783d 4b13 083e 57c0 493d
00000030: 425d 293e 99ed 8c3d f2b3 0c3e 9e3e 413e

module.layer2.0.conv1.weight f4 [32, 16, 3, 3]
0.079081275 0.05844351 -0.061449066 0.0657297 0.11420664 0.015112734 0.0074289213 0.05353413
0.012608676 -0.16647105 -0.15322913 -0.086458385 -0.123912774 -0.12847666 -0.10371654 -0.10423774
-0.10588934 -0.03588335 -0.0006708183 0.0058909915 0.0013017592 0.0872032 0.08052444 -0.0073902854
0.13848454 0.19980536 0.120429754 -0.13339815 -0.21493645 -0.11643916 -0.284478 -0.3640681
-0.25508174 -0.17492762 -0.21862614 -0.13181587 -0.040669497 0.007703376 0.07025699 -0.027790343
0.00082244177 0.042555995 0.07656643 0.034269355 0.11476481 -0.014315458 -0.040767863 -0.03226357
-0.050568562 -0.08554635 -0.082947515 -8.929383e-05 0.010134294 -0.02922362 0.01426996 0.010943587
0.0028446182 0.03451675 0.06483526 0.069719255 0.02081883 0.025344785 0.02935938 0.02238289
0.044022623 0.048052974 0.001476876 -0.019285228 -0.028801212 0.07746268 0.05183881 0.043476053
-0.061029114 -0.24759829 -0.17445143 -0.22600652 -0.29560626 -0.19580364 -0.045230843 -0.118401095
-0.010922616 -0.06077627 -0.16491054 -0.08448613 -0.13561803 -0.18170288 -0.07197138 -0.22562493
-0.1804946 -0.046023656 -0.008827057 -0.061544564 -0.07648858 0.0063687437 -0.040081643 -0.009490072
-0.0097450465 -0.030764576 0.0022989572 0.020298569 0.07066859 0.109718986 0.01293773 0.13728611
0.07707484 -0.0009931097 0.11362064 0.07706105 0.08184784 0.01643064 -0.046948068 0.02626353
-0.06877145 -0.0633527 0.008066447 -0.02885638 0.068787575 -0.021849168 0.017696025 0.009401064
-0.016119653 0.02239927 0.009156648 -0.085991524 -0.06284726 -0.069646955 -0.0016054376 0.07160291
0.14704819 -0.008621519 0.09487872 0.16284518 -0.04862685 0.03664457 0.11776023 -0.04305624
-0.14249542 -0.0063885082 -0.11724782 -0.1532022 -0.1259349 -0.106849924 -0.10151371 -0.002575936
0.0010489726 0.036382843 0.08209115 0.035663467 0.0119544435 0.10331018 -0.04638923 -0.020484176
0.118227646 0.054085497 0.08774323 0.103799745 0.029428082 0.03022438 0.121694446 -0.040965546
0.004994814 0.1445552 0.07844624 0.15545897 0.0006487602 0.026854213 0.08208563 0.09580004
-0.034271784 -0.028574865 0.08845082 0.090046674 0.10710869 0.13573952 -0.048020888 0.079997286
0.05536284 -0.15035374 -0.2212104 -0.09444733 -0.03465471 0.03811604 0.0017426228 -0.004547931
0.030075988 -0.019873237 -0.032409996 0.021698998 -0.08428035 -0.016279675 -0.033785287 -0.017299857
-0.110353865 -0.1032885 -0.14005207 -0.0914189 -0.05932199 -0.06233156 0.001706839 0.040411532
0.027698388 0.027205482 0.021839133 0.04358118 -0.0038180386 0.014774275 0.026241137 -0.09219801
-0.050682984 0.01063697 -0.06739516 -0.06081498 -0.059013892 -0.05061664 -0.05467677 -0.052007165
0.032384608 -0.011697623 -0.09528688 -0.035591096 -0.0073794667 0.008223323 -0.026325805 -0.021028742
0.07471298 0.045930777 0.083425336 -0.024236748 0.035070352 0.1369614 0.16799985 0.027137807
0.110035576 0.21232498 0.04635612 0.06936994 0.025849214 -0.014720744 -0.015943516 -0.013337758
-0.05500281 -0.08676342 -0.008600251 0.078892104 0.07127985 0.13906251 -0.040667366 -0.061877176
-0.04574363 -0.17699574 -0.30235186 -0.17291294 0.041613553 0.0141441515 0.0042702635 -0.049549583
00000000: 5df5 a13d 7662 6f3d 04b2 7bbd 4b9d 863d
00000010: 2ce5 e93d 679b 773c 4f6e f33b 9b46 5b3d
00000020: 9f94 4e3c 6377 2abe 19e8 1cbe 1811 b1bd
00000030: fbc5 fdbd 638f 03be 5669 d4bd 997a d5bd
00000040: 83dc d8bd 6bfa 12bd dbd9 2fba 3809 c13b
00000050: ca9f aa3a 9797 b23d ffe9 a43d 352a f2bb
00000060: e4ce 0d3e c799 4c3e e0a3 f63d 8699 08be
00000070: 4d18 5cbe a877 eebd 1aa7 91be 2267 babe
00000080: 139a 82be 3a20 33be 88df 5fbe bdfa 06be
00000090: 0f95 26bd 9a6c fc3b e6e2 8f3d 93a8 e3bc
000000a0: 2299 573a 324f 2e3d dcce 9c3d 065e 0c3d
000000b0: d009 eb3d 628b 6abc 34fc 26bd ce26 04bd
000000c0: fb20 4fbd ed32 afbd 63e0 a9bd 4343 bbb8
000000d0: 4f0a 263c 6066 efbc 8dcc 693c bb4c 333c
000000e0: c66c 3a3b 7061 0d3d 59c8 843d f8c8 8e3d
000000f0: 408c aa3c de9f cf3c 1583 f03c 535c b73c
00000100: 1151 343d 32d3 443d bc93 c13a 0efc 9dbc
00000110: 85f0 ebbc c1a4 9e3d ef54 543d f213 323d
00000120: aaf9 79bd 688a 7dbe 65a3 32be 416e 67be
00000130: b459 97be c080 48be fa43 39bd 467c f2bd
00000140: c6f4 32bc 8af0 78bd 4fde 28be 1007 adbd
00000150: 74df 0abe 5210 3abe bb65 93bd 390a 67be
00000160: 94d3 38be 4d83 3cbd 5c9f 10bc 2716 7cbd
00000170: 0ba6 9cbd e5b0 d03b a62c 24bd 3f7c 1bbc
00000180: b0a9 1fbc fe05 fcbc 1aaa 163b 2f49 a63c
00000190: b2ba 903d 59b4 e03d c6f8 533c bb94 0c3e
000001a0: 6ad9 9d3d 3b2b 82ba f0b1 e83d 2fd2 9d3d
000001b0: d79f a73d 8d99 863c 9e4c 40bd 9d26 d73c
000001c0: 0cd8 8cbd 0fbf 81bd 2229 043c 3764 ecbc
000001d0: 80e0 8c3d 07fd b2bc 41f7 903c ec06 1a3c
000001e0: 5d0d 84bc ad7e b73c c405 163c 531c b0bd
000001f0: 10b6 80bd 10a3 8ebd 8c6d d2ba 8ca4 923d
00000200: cd93 163e 4641 0dbc c64f c23d e3c0 263e
00000210: f32c 47bd 9e18 163d 472c f13d bd5b 30bd
00000220: 52ea 11be b156 d1bb a01f f0bd 0ae1 1cbe
00000230: 14f5 00be 22d4 dabd 6ce6 cfbd 09d1 28bb
00000240: ae7d 893a 2d06 153d 681f a83d db13 123d
00000250: 92dc 433c 4a94 d33d a202 3ebd 6ece a7bc
00000260: 5621 f23d c188 5d3d b9b2 b33d f694 d43d
00000270: 2913 f13c 1e99 f73c f03a f93d 7dcb 27bd
00000280: 89ab a33b 4706 143e 6ca8 a03d a330 1f3e
00000290: 8f11 2a3a 5efd db3c 831c a83d d032 c43d
000002a0: 9260 0cbd d615 eabc b425 b53d 646a b83d
000002b0: cd5b db3d 4dff 0a3e 8db1 44bd 9ed5 a33d
000002c0: 25c4 623d 55f6 19be fb84 62be 9a6d c1bd
000002d0: 19f2 0dbd 911f 1c3d b868 e43a cf06 95bb
000002e0: eb61 f63c 33cd a2bc 58c0 04bd 19c2 b13c
000002f0: 2d9b acbd f45c 85bc 7162 0abd 6eb8 8dbc
00000300: 3501 e2bd ec88 d3bd cf69 0fbe d539 bbbd
00000310: 9dfb 72bd 614f 7fbd 03b8 df3a 9086 253d
00000320: bbe7 e23c 08de de3c fbe7 b23c 2e82 323d
00000330: 0f38 7abb cd0f 723c a7f7 d63c 4fd2 bcbd
00000340: f698 4fbd b046 2e3c 7906 8abd 2119 79bd
00000350: 8db8 71bd 6553 4fbd c0f4 5fbd 7705 55bd
00000360: b9a5 043d 63a7 3fbc c525 c3bd f8c7 11bd
00000370: 74cf f1bb 1ebb 063c 37a9 d7bc 7844 acbc
00000380: 1e03 993d e921 3c3d e7da aa3d 258c c6bc
00000390: eea5 0f3d 9c3f 0c3e 2708 2c3e 1b50 de3c
000003a0: 555a e13d b86b 593e eadf 3d3d d411 8e3d
000003b0: bbc1 d33c 472f 71bc fa9b 82bc 9d86 5abc
000003c0: a04a 61bd 05b1 b1bd 11e8 0cbc 2f92 a13d
000003d0: 2cfb 913d 6766 0e3e d392 26bd ec72 7dbd
000003e0: ac5d 3bbd 5f3e 35be ddcd 9abe 1710 31be
000003f0: f972 2a3d dfbc 673c 91ed 8b3b 81f4 4abd

module.layer2.0.bn1.weight f4 [32]
0.6127198 0.41057566 0.5263548 0.53680253 0.5439224 0.6446875 0.6816181 0.48610616
0.48918983 0.50915873 0.6782996 0.45287073 0.52204174 0.36090493 0.4696858 0.42689657
0.5184325 0.5379529 0.37382165 0.49846894 0.43115073 0.48447686 0.42678154 0.5582074
0.38892898 0.50342053 0.5115433 0.5393473 0.503925 0.46066982 0.50254184 0.58144087
00000000: 34db 1c3f f936 d23e 30bf 063f e46b 093f
00000010: 803e 0b3f 3d0a 253f 867e 2e3f e8e2 f83e
00000020: 1777 fa3e 3a58 023f 0ba5 2d3f acde e73e
00000030: 87a4 053f 88c8 b83e a87a f03e 3092 da3e
00000040: feb7 043f 48b7 093f 8d65 bf3e 5237 ff3e
00000050: cabf dc3e 5a0d f83e 1c83 da3e aee6 0e3f
00000060: b321 c73e 2be0 003f 80f4 023f aa12 0a3f
00000070: 3b01 013f eadc eb3e 95a6 003f 4fd9 143f

module.layer2.0.bn1.bias f4 [32]
-0.026626753 -0.17851947 -0.14663513 -0.12861498 -0.07944435 0.103126936 -0.037409592 -0.1524749
-0.17830943 -0.020799277 -0.023153463 -0.06272203 -0.20891114 0.029443625 0.014799031 -0.059320442
-0.055372674 -0.19745101 -0.11579641 -0.03488095 0.108010575 -0.20571175 0.22841637 -0.09839004
0.03367899 -0.19068061 -0.08748486 -0.016615653 -0.06711624 -0.13911246 -0.030311951 -0.11901882
00000000: 5920 dabc cfcd 36be 8527 16be a5b3 03be
00000010: b8b3 a2bd 3734 d33d cd3a 19bd 6122 1cbe
00000020: bf96 36be 3f63 aabc 55ac bdbc 6874 80bd
00000030: cdec 55be c233 f13c a377 723c fef9 72bd
00000040: 75ce 62bd 9930 4abe ab26 edbd 54df 0ebd
00000050: a634 dd3d 1aa6 52be fbe5 693e b880 c9bd
00000060: fbf2 093d c741 43be 432b b3bd 8d1d 88bc
00000070: 3d74 89bd 7f73 0ebe c550 f8bc 24c0 f3bd

module.layer2.0.bn1.running_mean f4 [32]
-1.031054 0.26654917 -0.29623204 -0.19527116 -0.3373098 -1.2811726 -0.5639339 0.14885941
-0.527273 -1.3783273 -1.0416415 0.4689563 -0.22628665 0.16039023 0.16113132 0.3172702
-1.1143522 -0.39749268 0.14323434 -0.07094895 0.5435575 0.7378003 -1.4869231 -0.55942506
-0.12201587 -0.3218296 -2.006337 -1.0582585 -0.85008067 -0.068388775 -0.0946691 -0.4122173
00000000: 94f9 83bf 2279 883e baab 97be 2af5 47be
00000010: dfb3 acbe 77fd a3bf f95d 10bf 9a6e 183e
00000020: 5dfb 06bf 076d b0bf 8254 85bf 0a1b f03e
00000030: b0b7 67be 563d 243e 9cff 243e 3d71 a23e
00000040: 18a3 8ebf 2984 cbbe 06ac 123e af4d 91bd
00000050: 9626 0b3f 7be0 3c3f 7f53 bebf 7b36 0fbf
00000060: 75e3 f9bd d9c6 a4be d367 00c0 0475 87bf
00000070: e39e 59bf 6a0f 8cbd e0e1 c1bd 250e d3be

module.layer2.0.bn1.running_var f4 [32]
1.1925926 0.6286672 0.7249384 1.358726 0.69354856 1.6575952 0.64067554 0.5752296
0.964495 0.7970778 1.1196117 0.93915594 0.61563116 0.5414775 1.315653 0.5217081
0.5979038 0.9731506 0.7947706 1.114262 1.0460979 0.55716634 1.2002168 0.89957863
0.5658385 0.66120607 0.7411476 0.8994187 0.58584315 0.48573834 1.2872162 0.5526202
00000000: e0a6 983f 55f0 203f 9095 393f bcea ad3f
00000010: 668c 313f 142c d43f 5003 243f 3f42 133f
00000020: 25e9 763f 4a0d 4c3f 704f 8f3f 866c 703f
00000030: 019a 1d3f 459e 0a3f 5167 a83f a98e 053f
00000040: 3910 193f 6620 793f 1676 4b3f 23a0 8e3f
00000050: 89e6 853f 74a2 0e3f b4a0 993f c94a 663f
00000060: cbda 103f cd44 293f d9bb 3d3f 4e40 663f
00000070: d1f9 153f b2b2 f83e 80c3 a43f 8478 0d3f
