results/it8B/cifar10/nokd/resnet8_best.pth.tar (torch_old, 371450 bytes, 52 tensors)

module.conv1.weight f4 [64, 3, 3, 3]
0	0x3eacb003	0.33728036
1	0x3f3070cb	0.6892211
2	0x3e80366a	0.25041515
3	0x3d4d7332	0.050158687
4	0xbe0d9e7d	-0.1382999
5	0xbcae3bc9	-0.021268742
6	0xbe6beba3	-0.23039107
7	0xbf45b87c	-0.77234626
8	0xbebba701	-0.3665085
9	0xbe7d935c	-0.24763244
10	0xbe07a21f	-0.13245438
11	0xbe819f2c	-0.2531675
12	0x3c6cf1cb	0.014461945
13	0xbd0b2810	-0.033973753
14	0x3df429b0	0.11922014
15	0x3ea9309d	0.33044901
16	0x3e6fad8e	0.2340605
17	0x3e616643	0.22011666
18	0xbe4ea179	-0.20178784
19	0xbe7d9192	-0.24762562
20	0xbe9f54f8	-0.31119514
21	0xbe1d41f5	-0.15357192
22	0x3b76027f	0.003753811
23	0x3c6bfdb2	0.014403747
24	0x3e3080da	0.17236653
25	0x3edd71bb	0.43250832
26	0x3e48a138	0.1959275
27	0xbcac176d	-0.021007264
28	0xbd422a30	-0.047403514
29	0xbc44ae61	-0.012004466
30	0x3be3ec53	0.0069556623
31	0xbcc666e1	-0.024218978
32	0xbad2202a	-0.0016031314
33	0xbda59984	-0.080859214
34	0xbdcd504b	-0.1002508
35	0xbd1a513a	-0.03767512
36	0xbd6bcb88	-0.05756715
37	0xbdca3572	-0.09873475
38	0xbd89fb65	-0.06737403
39	0xbd3b5509	-0.045735393
40	0xbdcfce41	-0.10146762
41	0xbdb3f478	-0.08786863
42	0xbe0fe4d5	-0.14052136
43	0xbe4094b9	-0.18806733
44	0xbe0f9264	-0.14020687
45	0x3db36339	0.087591596
46	0x3d832d4b	0.06405123
47	0x3db00014	0.08593765
48	0x3d8038d9	0.06260843
49	0x3c83d98f	0.016094951
50	0x3ce93f88	0.028472677
51	0xbda08199	-0.07837219
52	0xbdf59c77	-0.11992734
53	0xbd871216	-0.065952465
54	0xbc0f0509	-0.008729228
55	0xbc7c6716	-0.015405437
56	0xbc39655b	-0.011315669
57	0xbc9bcb73	-0.01901791
58	0xbcdc49ef	-0.026890723
59	0xbcc18e28	-0.023627356
60	0xbbd045fd	-0.0063559995
61	0xbc3fc54b	-0.011704753
62	0xbbed7dde	-0.0072476706
63	0x3bad9b01	0.005298019
64	0xbae21282	-0.0017247947
65	0x3b08d225	0.002087721
66	0xbc0ac784	-0.00847042
67	0xbc8a5454	-0.016885914
68	0xbc5759e0	-0.013143986
69	0xbb12abbd	-0.0022380196
70	0xbc030831	-0.007997558
71	0xbb54cdcb	-0.0032471295
72	0x3c2f3ab7	0.010695151
73	0x3ba1034c	0.004913723
74	0x3c09a5df	0.008401363
75	0xbb83753b	-0.0040117777
76	0xbc462221	-0.012093098
77	0xbc01e54a	-0.007928202
78	0x3a15a048	0.00057077827
79	0xbba388bf	-0.0049906666
80	0xb8e5497a	-0.00010933257
81	0xb8656fd0	-5.4701988e-05
82	0x39b4782a	0.00034421805
83	0x3a39701f	0.0007073897
84	0xb4537bc8	-1.9695938e-07
85	0xb9e1c43d	-0.00043061553
86	0xb921d3c4	-0.00015433045
87	0xb8f71b68	-0.000117829826
88	0xba68b94e	-0.000887771
89	0xba1890cf	-0.0005819918
90	0x397d7002	0.00024169686
91	0x3a310a2c	0.000675353
92	0x3a797703	0.00095163303
93	0x3a000cc5	0.00048847153
94	0x397e4e5e	0.00024252522
95	0x39bd85dd	0.00036148625
96	0x39ab3331	0.00032653802
97	0xb9690db6	-0.0002222572
98	0xb81b7228	-3.7061196e-05
99	0xb9105764	-0.00013765466
100	0x39b8cf65	0.00035249736
101	0x3a529c56	0.000803416
102	0x38bdec49	9.056234e-05
103	0x3810b05d	3.4496526e-05
104	0x39ca2dad	0.00038562473
105	0xb85a7e55	-5.2092906e-05
106	0xb9ccafb9	-0.00039040836
107	0xb7d24ac5	-2.5068768e-05
108	0x374f4cbf	1.235603e-05
109	0x35da9132	1.6284523e-06
110	0xb6dc0b20	-6.557806e-06
111	0x378eb2d7	1.7010998e-05
112	0x36d4327d	6.32397e-06
113	0xb798fc2b	-1.8237237e-05
114	0x376dc6a0	1.4172547e-05
115	0x373ac7e8	1.1133008e-05
116	0xb71fc1c6	-9.522255e-06
117	0xb69af62c	-4.618216e-06
118	0xb71f204d	-9.484659e-06
119	0xb69eb8c2	-4.7302756e-06
120	0xb6ac72b3	-5.139352e-06
121	0xb6b79033	-5.470612e-06
122	0xb75c8e63	-1.3146174e-05
123	0xb66d48b4	-3.535807e-06
124	0x35fe4885	1.8945581e-06
125	0xb69807aa	-4.530845e-06
126	0x35fe7cbb	1.8960776e-06
127	0x370240e3	7.763711e-06
128	0x3785a798	1.5932877e-05
129	0x368300c6	3.9041943e-06
130	0x37872628	1.6111022e-05
131	0x37793b57	1.4855373e-05
132	0x36d0381d	6.2054155e-06
133	0x37bb420a	2.2322889e-05
134	0x37b60713	2.1699385e-05
135	0x37de76df	2.6519816e-05
136	0x37ebf812	2.81297e-05
137	0x37adf9e1	2.0739566e-05
138	0x37969dfd	1.7954962e-05
139	0x3730bbe4	1.0534164e-05
140	0x368c24e4	4.1766198e-06
141	0x37ae2edc	2.0764237e-05
142	0x36dcb3ed	6.577457e-06
143	0xb694f30c	-4.439038e-06
144	0xb6823d31	-3.8814255e-06
145	0xb76f9440	-1.4280027e-05
146	0x358ef8ba	1.0652213e-06
147	0xb780d909	-1.5359854e-05
148	0xb81bb0b7	-3.711946e-05
149	0xb7a15e75	-1.923668e-05
150	0x3672f2ca	3.6202132e-06
151	0xb7ba19be	-2.2184915e-05
152	0xb749c0ba	-1.2025406e-05
153	0x379aaeba	1.8439594e-05
154	0x37532b11	1.2586607e-05
155	0x37ac5778	2.0544729e-05
156	0x370c8bb5	8.377178e-06
157	0xb69aed0d	-4.617154e-06
158	0x36cf2d48	6.174352e-06
159	0x37977bea	1.8058305e-05
160	0xb4210432	-1.499582e-07
161	0x36c03541	5.7282455e-06
162	0xbe09bdf4	-0.13451368
163	0xbe3387f8	-0.17532337
164	0xbe25a1b7	-0.1617497
165	0xbd5d3dbb	-0.05401395
166	0xbe63419b	-0.22192995
167	0xbe2b4ce7	-0.16728555
168	0x3c9c8094	0.01910428
169	0xbe5137d7	-0.20431457
170	0xbd77a500	-0.06046009
171	0xbe741bb2	-0.2383869
172	0x3ee007cf	0.43755957
173	0x3cc532ba	0.02407204
174	0x3e81f4b0	0.25381994
175	0x3f826452	1.0186865
176	0x3f013283	0.504677
177	0x3da2cd9f	0.07949375
178	0x3efbd99d	0.49189463
179	0x3e1ef334	0.15522462
180	0x3e510cb1	0.20414998
181	0xbd13b190	-0.03605801
182	0x3cba0ab6	0.022710185
183	0xbded0626	-0.11573438
184	0xbf25cf6e	-0.6476964
185	0xbeac931c	-0.33705986
186	0x3c151445	0.009099071
187	0xbf0ec434	-0.5576813
188	0xbd48e2ff	-0.049044605
189	0x35a6e3ff	1.2434319e-06
190	0xb735f340	-1.0845077e-05
191	0xb780654e	-1.5305963e-05
192	0xb62512dc	-2.4597894e-06
193	0xb782ab46	-1.5576963e-05
194	0xb7ad0af3	-2.0628306e-05
195	0xb729ae3b	-1.0113751e-05
196	0xb7bf8b3c	-2.283381e-05
197	0xb7c72c33	-2.374323e-05
198	0xb7917225	-1.73385e-05
199	0xb784bd6b	-1.582383e-05
200	0xb7a7b540	-1.9992352e-05
201	0xb76c7923	-1.40949005e-05
202	0xb71d54cc	-9.3776725e-06
203	0xb77fd208	-1.5248086e-05
204	0xb7a70185	-1.9908659e-05
205	0xb79fa0e7	-1.9029203e-05
206	0xb7b9e398	-2.21597e-05
207	0xb746f4c8	-1.1858712e-05
208	0x36df7f20	6.660717e-06
209	0x369a5e1e	4.6005143e-06
210	0x362b905d	2.5565016e-06
211	0x37e76043	2.7582171e-05
212	0x37cdaafd	2.4517527e-05
213	0xb68f492f	-4.270252e-06
214	0x3786b3e0	1.6057806e-05
215	0x37848cb8	1.5801153e-05
216	0x3c018959	0.007906281
217	0x3b9ba1da	0.004749519
218	0x3a00f7a8	0.0004919716
219	0x3ba47f77	0.005020078
220	0xbae6c83c	-0.0017607282
221	0xbbdc4397	-0.0067219245
222	0x3ae37948	0.001735487
223	0xbc063403	-0.0081911115
224	0xbc1e4476	-0.009659877
225	0x3ad1ec30	0.0016015824
226	0x3addf6ab	0.0016934475
227	0x3aa541b8	0.0012608087
228	0x3b3d57c7	0.002889143
229	0x3b27d340	0.0025608093
230	0x3adfb7c5	0.0017068317
231	0x3b9015b4	0.0043971185
232	0x3a965438	0.0011469191
233	0x3b10b5a0	0.0022080913
234	0xbbdbb375	-0.0067047426
235	0xba2a020c	-0.00064852904
236	0x3b5ef848	0.00340225
237	0xbb0ff589	-0.0021966419
238	0x3bb9afb5	0.005666698
239	0x3c190a34	0.0093408115
240	0x3b463920	0.0030246451
241	0x3bfa2465	0.007633733
242	0x3c3f7449	0.011685439
243	0xbaa38c6a	-0.001247776
244	0xba5267bf	-0.00080263236
245	0xbb189622	-0.0023282846
246	0x38ecddef	0.00011294695
247	0x3ae8a251	0.0017748569
248	0xb9a4bf16	-0.00031422888
249	0xba12d8a7	-0.0005601742
250	0x3b172b95	0.0023066748
251	0x3a17d238	0.0005791518
252	0xbb9f840b	-0.0048680357
253	0xbb9fd338	-0.004877474
254	0xbb9f0039	-0.0048523215
255	0xbb9a90f8	-0.0047169887

module.bn1.weight f4 [64]
0	0x3e748e3e	0.23882386
1	0x3ec3159a	0.38102418
2	0x3d5a8bf6	0.053356133
3	0x3950ab1c	0.00019900169
4	0x36c61c3d	5.904147e-06
5	0x3612821d	2.1831431e-06
6	0x3e88ea0a	0.26741058
7	0x36b52b79	5.3992812e-06
8	0x3ac17efa	0.0014762573
9	0x3ae1efe9	0.0017237636
10	0x3e572abd	0.21012397
11	0x3e7e94ce	0.24861452
12	0x3ef94675	0.48686567
13	0x3e8c8d5b	0.27451596
14	0x3e85bd17	0.26120827
15	0x3e613684	0.21993452
16	0x3e42d6d9	0.1902727
17	0x3e7fbfb1	0.24975468
18	0x3e77d088	0.24200642
19	0x3599f34b	1.1470196e-06
20	0x3e6b3968	0.22971117
21	0x3efe4973	0.49665412
22	0x342f8f80	1.635035e-07
23	0x3ddc56c4	0.10758737
24	0x3ebd56aa	0.36980182
25	0x3f10cbd4	0.5656102
26	0x3f0a57ec	0.5404041
27	0x3ec6925d	0.3878354
28	0x3893b408	7.04304e-05
29	0x3d266530	0.040623844
30	0x352f191d	6.5229125e-07
31	0x3c691c16	0.014227888
32	0x3e837b08	0.25679803
33	0x3ee22da3	0.44175443
34	0x3e03d1a1	0.12872936
35	0x3cbdf9c3	0.023190385
36	0x3e6eb9ab	0.23313014
37	0x3e689a22	0.22715047
38	0x3d15eae0	0.036600947
39	0x3b415da5	0.002950528
40	0x3f23ec33	0.64032286
41	0x3e2e06ea	0.16994825
42	0x3f164333	0.5869629
43	0x3e555c7c	0.20836061
44	0x36ae93fb	5.2028313e-06
45	0x3e5f4808	0.21804821
46	0x3e98ce7c	0.29845035
47	0x3a277d96	0.0006389258
48	0x3ebdf4bd	0.37100783
49	0x3e766a30	0.24063945
50	0x3509da67	5.1354294e-07
51	0x3ece59c4	0.4030286
52	0x3e9ebcd8	0.3100345
53	0x3d86963f	0.06571626
54	0x3e35ba9d	0.17746969
55	0x3ea2af96	0.31774586
56	0x375c2e5b	1.3123815e-05
57	0x3a9bdafa	0.0011890822
58	0x3ee081b2	0.4384895
59	0x3e57bb7f	0.21067618
60	0x3e8cef10	0.2752614
61	0x3e9a30d2	0.30115372
62	0x3ec6694b	0.38752207
63	0x3d88ebb0	0.06685579

module.bn1.bias f4 [64]
0	0x3eb912c3	0.36147127
1	0xbea045d1	-0.31303266
2	0xbd61766e	-0.055044584
3	0xba5bd315	-0.00083856407
4	0xb7b18679	-2.1162663e-05
5	0xb7861489	-1.5983607e-05
6	0x3e113371	0.1417978
7	0xb79ed950	-1.8936262e-05
8	0xbbb0594b	-0.0053817383
9	0xbbb434e3	-0.0054994687
10	0x3e289331	0.16462399
11	0x3e21d65b	0.15804426
12	0xbe74d928	-0.23910964
13	0xbe390f84	-0.18072325
14	0xbe488a4f	-0.1958401
15	0x3ebcccea	0.36875087
16	0x3dd7b5ff	0.1053276
17	0x3ec2b0d2	0.38025528
18	0x3d6dcca3	0.058056485
19	0xb61d9a63	-2.3484688e-06
20	0xbe04c460	-0.12965536
21	0x3e8626ad	0.26201382
22	0xb4b6551c	-3.3962067e-07
23	0xbdc06c69	-0.093956776
24	0x3ddff3b3	0.10935154
25	0xbede4ee4	-0.43419564
26	0xbe900864	-0.28131402
27	0xbea80ac5	-0.32820717
28	0xb9ac75dc	-0.0003289421
29	0xbd26c243	-0.040712606
30	0xb5bc0378	-1.4008101e-06
31	0xbc5e3241	-0.013561786
32	0x3e75651c	0.23964351
33	0xbdeaa348	-0.11456925
34	0xbe0caf39	-0.13738717
35	0xbcb6cd30	-0.022314638
36	0xbeb62802	-0.355774
37	0x3e359515	0.17732652
38	0xbb7d723e	-0.003867283
39	0xbc0fe422	-0.008782418
40	0xbf2436f0	-0.6414633
41	0x3d5c37ef	0.05376428
42	0xbe86d470	-0.26333952
43	0xbcd34427	-0.025789334
44	0xb76e10aa	-1.4189785e-05
45	0x3dd59fb0	0.104308486
46	0x3e1f1f38	0.15539253
47	0xbbaf9e41	-0.0053594415
48	0xbe9b950c	-0.3038715
49	0x3c91e10c	0.017807506
50	0xb6288c6d	-2.511569e-06
51	0x3eb984fa	0.36234266
52	0xbebe0700	-0.37114716
53	0xbd7f322f	-0.06230372
54	0x3e29b2b2	0.16572073
55	0x3e512b97	0.20426784
56	0xb7e80b2d	-2.766176e-05
57	0xbb660fcd	-0.0035104633
58	0x3e4436d3	0.19161539
59	0xbd5639bd	-0.052301157
60	0x3d2f4c64	0.04279746
61	0xbc86ce76	-0.01645587
62	0xbeaf66c3	-0.34258088
63	0xbd80dd84	-0.06292251

module.bn1.running_mean f4 [64]
0	0x3c3c8e71	0.01150857
1	0x3eb17705	0.34661117
2	0x3d660bf7	0.056163754
3	0xba4bdc51	-0.0007776665
4	0xb7d0f6d6	-2.4910474e-05
5	0xb7b59b97	-2.1649334e-05
6	0xbd87047d	-0.06592653
7	0x3866f5ad	5.5065077e-05
8	0xbc4d817c	-0.0125430785
9	0x3c04dfae	0.00810997
10	0xbdadfb70	-0.084952235
11	0x3d70ca55	0.05878671
12	0xbd263ff9	-0.040588353
13	0x3c9ac57e	0.018893
14	0x3dcce56c	0.10004696
15	0x3d36f521	0.044667367
16	0xbc3ee033	-0.011650133
17	0x3a2e6ce5	0.00066538
18	0xbca1e659	-0.019763159
19	0x36946c5d	4.423359e-06
20	0xbd9cc074	-0.07653895
21	0xbd846c95	-0.06466023
22	0x34e80041	4.3213552e-07
23	0x3da55340	0.08072519
24	0xbd52504e	-0.051346116
25	0xbd3590c2	-0.044327505
26	0x3e862014	0.2619635
27	0xbe0cc9d0	-0.1374886
28	0xba269be6	-0.0006355628
29	0x3d2f84a1	0.042851094
30	0x368432a4	3.939802e-06
31	0x3c6f1391	0.014592067
32	0xbd18649d	-0.037205327
33	0x3e75907f	0.23980902
34	0xbcee2b71	-0.029073449
35	0x3cbe1918	0.023205325
36	0x3cb2852f	0.021792023
37	0x3d297bab	0.041377705
38	0x3d4d46d3	0.05011637
39	0x3c92d9d4	0.017926134
40	0x3f79247a	0.97321284
41	0x3d95de4e	0.07317792
42	0x3e3c8827	0.18411313
43	0xbe83beb6	-0.25731438
44	0x37b99d67	2.2127015e-05
45	0xbcbcaba8	-0.02303107
46	0xbd0f3798	-0.034965128
47	0x3a696880	0.00089038163
48	0x3e42e0f4	0.19031125
49	0x3d034e5f	0.032057162
50	0x36a4375c	4.8940256e-06
51	0x3cbb5eb7	0.022872312
52	0xbe2cc15e	-0.16870639
53	0x3d83aecf	0.064298265
54	0xbd3f6499	-0.046726797
55	0xbd9b13fb	-0.0757217
56	0x38208bd5	3.82772e-05
57	0xbb345708	-0.0027517695
58	0xbd701778	-0.05861613
59	0x3e5584ec	0.20851487
60	0x3d61a6a3	0.055090558
61	0x3ddffe48	0.10937172
62	0x3e0d9a39	0.13828363
63	0x3d90d4ce	0.07071839

module.bn1.running_var f4 [64]
0	0x3e8b4c29	0.27206543
1	0x4002756b	2.0384166
2	0x3d4e0ce3	0.05030526
3	0x37b27c46	2.1277123e-05
4	0x3263b381	1.32539535e-08
5	0x3285da85	1.5582609e-08
6	0x3f30e295	0.69095737
7	0x335e3833	5.1739516e-08
8	0x3b3bc832	0.0028653261
9	0x3a9298ad	0.0011184417
10	0x3fd48d7a	1.6605675
11	0x3fbe1504	1.4850163
12	0x3f42c8f7	0.760879
13	0x3e97fb0a	0.29683715
14	0x3ee8f49b	0.4549912
15	0x3e9c866f	0.30571315
16	0x3f067329	0.5251947
17	0x3dc37664	0.095440656
18	0x3f374efd	0.716049
19	0x2fab5cce	3.117066e-10
20	0x3e558ef0	0.20855308
21	0x3f7a250e	0.9771279
22	0x2c65f534	3.2678972e-12
23	0x3df49344	0.11942151
24	0x3f6abc8a	0.9169394
25	0x3f38c6f3	0.7217857
26	0x3fd091a5	1.6294447
27	0x3eb33e63	0.35008535
28	0x37009933	7.665064e-06
29	0x3cefa57f	0.02925372
30	0x2f986cd8	2.7725977e-10
31	0x3b5f10aa	0.0034037032
32	0x4063c40b	3.5588405
33	0x3fa416ab	1.2819418
34	0x3d866e1c	0.065639704
35	0x3c0d318e	0.008617772
36	0x3e40cb8d	0.18827648
37	0x40141fd2	2.3144422
38	0x3d27633a	0.040866114
39	0x3bad16ae	0.0052822446
40	0x417432d1	15.262406
41	0x3dd36401	0.103218086
42	0x3fce2da0	1.6107674
43	0x3f918545	1.1368796
44	0x320c4f78	8.167142e-09
45	0x3f8bd395	1.0923945
46	0x4087b395	4.2406716
47	0x3a46f7d3	0.0007590029
48	0x3f4bb190	0.79567814
49	0x3f9a1359	1.2037154
50	0x2ff9c1f7	4.5430656e-10
51	0x3f2b2e63	0.66867656
52	0x3f07250b	0.527909
53	0x3d87efc1	0.06637526
54	0x3eb932b2	0.3617149
55	0x3eed1f8d	0.46313134
56	0x32ce5175	2.4018599e-08
57	0x39244d6c	0.000156691
58	0x3f9def85	1.233872
59	0x3f457390	0.7712946
60	0x3ee7c25c	0.45265472
61	0x3f7c935d	0.9866236
62	0x3f524d41	0.8214913
63	0x3da3b419	0.07993335

module.layer1.0.conv1.weight f4 [16, 64, 3, 3]
0	0xbd8f31b3	-0.06991901
1	0xbd3364f4	-0.04379745
2	0x3b706ba0	0.0036685243
3	0x3db8f9b1	0.09032
4	0x3d0d36a6	0.034475945
5	0x3ddda805	0.10823063
6	0x3d9e1f55	0.0772082
7	0xbe26c605	-0.16286476
8	0x3dfb503a	0.122711614
9	0x3dc32c32	0.09529914
10	0x3d9d39b1	0.076770194
11	0xbc887ecf	-0.01666203
12	0x3d476ba1	0.048686627
13	0x3d76bf5b	0.060241085
14	0x3cb29ab1	0.021802278
15	0xbcc4bdfd	-0.024016375
16	0xbd14e657	-0.03635248
17	0xbc8038c9	-0.015652077
18	0x3b5b1ac5	0.0033432704
19	0x3b20f075	0.0024557386
20	0xba6eb55b	-0.00091060036
21	0x3bf9c076	0.00762182
22	0x3c0409e5	0.008059
23	0xbb963062	-0.0045834044
24	0x3ba65f43	0.005077274
25	0x3be9f47f	0.007139742
26	0x3b81957a	0.0039545866
27	0x39d59612	0.00040738337
28	0x39629715	0.00021609322
29	0xb94b4551	-0.00019385411
30	0x3951293e	0.00019947157
31	0x37022e14	7.759332e-06
32	0xb92f096b	-0.00016692809
33	0xb9244657	-0.00015666462
34	0x38a7dad5	8.003941e-05
35	0xb7aeb222	-2.0825366e-05
36	0xb4a5727d	-3.0816946e-07
37	0xb66de63f	-3.5449773e-06
38	0x35af1c9b	1.3046841e-06
39	0x36a8f768	5.035592e-06
40	0xb6cbd066	-6.074132e-06
41	0x348722bb	2.517098e-07
42	0x35c374a0	1.4562575e-06
43	0xb6b81c0c	-5.4868924e-06
44	0xb433bf3c	-1.6740245e-07
45	0x37307cd8	1.0519485e-05
46	0x3653e8ef	3.1577035e-06
47	0xb6fc313d	-7.5159173e-06
48	0x35c79802	1.4870895e-06
49	0x368ac2d5	4.135402e-06
50	0xb6c9ee2f	-6.017995e-06
51	0xb68640c4	-4.001051e-06
52	0xb5e2c3af	-1.6895264e-06
53	0x35eb04ca	1.7510258e-06
54	0x3b2b787d	0.0026164346
55	0xbd1d9439	-0.038471434
56	0x3d9ddb71	0.07707871
57	0xbcdda950	-0.027058274
58	0xbe20f23d	-0.15717407
59	0x3d044ccd	0.032299805
60	0x3d95c094	0.07312122
61	0xbcba6af6	-0.022756081
62	0x3c9d9742	0.019237164
63	0x360c65b8	2.0920834e-06
64	0x36291513	2.519523e-06
65	0x36a81d71	5.0102176e-06
66	0xb5f8f8ae	-1.8549815e-06
67	0xb4890b56	-2.5526487e-07
68	0x366dc978	3.5433022e-06
69	0xb633f1d3	-2.6813839e-06
70	0xb626e74d	-2.4870562e-06
71	0xb3806d8b	-5.98039e-08
72	0xba2a55d4	-0.0006497775
73	0x3ab7e28c	0.0014029308
74	0x39c2bcf4	0.00037143345
75	0x3a892e3d	0.0010466051
76	0x3ae906af	0.0017778481
77	0x3a96c391	0.0011502375
78	0x3a41925c	0.0007384175
79	0x3aed4a0f	0.0018103736
80	0x3ada4ff6	0.001665591
81	0xb9ce4e48	-0.00039349706
82	0x3a5148c0	0.0007983558
83	0x3a654f7b	0.00087475
84	0xb8989805	-7.276241e-05
85	0x3a679204	0.00088337087
86	0x39f34c6d	0.00046405513
87	0xba98e2e1	-0.0011664295
88	0x39b19009	0.00033867385
89	0x399cdcbe	0.00029919104
90	0x3a37bf98	0.00070094457
91	0xbce04acd	-0.027379418
92	0x3da15561	0.07877613
93	0x3ce86d77	0.02837251
94	0xbbf475ec	-0.0074603464
95	0x3e25702e	0.16156074
96	0xbdbd23fd	-0.0923538
97	0xbd1dd59d	-0.038533796
98	0x3d10d903	0.03536321
99	0xbdd5b50a	-0.10434921
100	0x3ad2a059	0.0016069516
101	0xbe155136	-0.14581761
102	0xbdf54a81	-0.11977101
103	0x3e114e80	0.14190102
104	0x3bd53a85	0.00650722
105	0xbd79f4e5	-0.061024565
106	0xbd8f9a1f	-0.07011818
107	0xbd587f4f	-0.052855786
108	0xbcf2db04	-0.02964545
109	0xbcb3620b	-0.021897336
110	0x3dbc6244	0.0919843
111	0x3e184cc1	0.1487303
112	0x3da7f883	0.08201697
113	0xbd369881	-0.044579033
114	0x3b428d2f	0.0029686203
115	0xbcdfab63	-0.027303403
116	0xbd87e359	-0.0663516
117	0x3d145a96	0.036219202
118	0x3d326740	0.043555498
119	0x3d507ea5	0.050902028
120	0x3bf4af19	0.0074671623
121	0x3cc5302a	0.024070818
122	0x3d56ba72	0.0524239
123	0xbc6be527	-0.014397896
124	0x3cc9f53a	0.024653066
125	0x3d54bcc0	0.05193782
126	0x3c95b7ef	0.018276183
127	0x3cad9360	0.021188438
128	0x3c946480	0.018114328
129	0x3d0af466	0.033924483
130	0xba97064e	-0.0011522265
131	0x3c630a0f	0.013857379
132	0x3c5d5e0c	0.013511192
133	0x3cf1bce3	0.029509014
134	0x3d3737eb	0.044731062
135	0xbc7e5eb2	-0.015525507
136	0xbe12a2b2	-0.14319876
137	0x3d1dce8b	0.038527053
138	0x3dce5a08	0.10075766
139	0x3cc296db	0.023753574
140	0x3e05f4fa	0.13081732
141	0xbdddc688	-0.108288825
142	0xbd413804	-0.04717256
143	0x3d05442f	0.032535728
144	0xbd0874e8	-0.033314615
145	0xbc163ad8	-0.009169303
146	0xbd2a0374	-0.0415072
147	0xbde93653	-0.11387315
148	0x3dc62364	0.09674719
149	0x3dd529d6	0.1040837
150	0xbe13cbea	-0.14433256
151	0xbcb58951	-0.022160204
152	0x3d3a1449	0.0454295
153	0xbd229bc1	-0.03969932
154	0x3e1906c6	0.1494399
155	0xbcae52a1	-0.021279635
156	0x3decb013	0.11557021
157	0xbeae68b8	-0.3406427
158	0x3d9496e6	0.07255344
159	0xbe0e4d7f	-0.1389675
160	0x3e5dc58f	0.21657394
161	0xbda71a0d	-0.08159266
162	0xbd7bbbbd	-0.061458338
163	0xbd0f8495	-0.03503855
164	0x3cd37bf1	0.025815936
165	0xbd9baddc	-0.076015204
166	0xbd4074f7	-0.046986546
167	0x3d68b777	0.05681559
168	0xbd833c76	-0.064080164
169	0xbd5b99c7	-0.05361345
170	0x3dbecd5a	0.093165115
171	0xb3c304d0	-9.0812705e-08
172	0x333e84bb	4.435854e-08
173	0x34d68336	3.9956075e-07
174	0xb505a23b	-4.978244e-07
175	0x310e8d61	2.0744084e-09
176	0x34c716dc	3.708327e-07
177	0xb4ab5bac	-3.1917932e-07
178	0xb4325990	-1.6610124e-07
179	0x348ce24b	2.6241682e-07
180	0x3d0a9e76	0.033842526
181	0x3d053460	0.03252065
182	0x3cafe2a1	0.02147037
183	0x3c4f2b3c	0.012644585
184	0xbb852d3a	-0.0040642293
185	0xbc984e6e	-0.018592086
186	0x3d0f25c1	0.034948114
187	0x3c079385	0.0082749175
188	0x3ca18f8c	0.019721769
189	0x3d91b982	0.07115461
190	0x3d34ac3c	0.044109568
191	0xbdebdbbf	-0.115165226
192	0xbd239260	-0.039934516
193	0xbe87dbbe	-0.26534837
194	0x3eb83340	0.359766
195	0x3c93d3b2	0.01804528
196	0x3d299753	0.04140408
197	0xbe430541	-0.19044973
198	0x32b2cc62	2.081487e-08
199	0x333ee72a	4.4448065e-08
200	0x3391720c	6.772834e-08
201	0x32e17b71	2.6249582e-08
202	0x33290fb3	3.9362657e-08
203	0x33871627	6.290457e-08
204	0xb2b058fd	-2.0529564e-08
205	0x31c5d3f8	5.7575527e-09
206	0x3386620a	6.2576945e-08
207	0xbc1503f1	-0.009095178
208	0xbb324657	-0.002720257
209	0xbb4878d4	-0.0030589597
210	0x3bd1be61	0.0064008688
211	0x3c3a2a5f	0.011362641
212	0x3a4521cf	0.00075199915
213	0x3c899686	0.016795408
214	0x3c9dd9b1	0.019268842
215	0x3bcc6c02	0.0062384615
216	0x3dd46a4c	0.10371837
217	0xbe855201	-0.26039127
218	0x3e03d135	0.12872775
219	0x3e378f92	0.17925861
220	0xbedfef8c	-0.43737447
221	0xbd5af349	-0.05345467
222	0x3e117a18	0.14206731
223	0xbd702325	-0.058627266
224	0x3bcd48c0	0.006264776
225	0x3cae4ed0	0.021277815
226	0xbd846ae1	-0.06465698
227	0xbbf7cec5	-0.0075624906
228	0x3de132db	0.10996028
229	0x3d8bbb5b	0.068228446
230	0xbdf08557	-0.117441826
231	0xbc7503d1	-0.014954523
232	0x3bbf1d65	0.0058323615
233	0x3d9c0e15	0.076198734
234	0x3d3b9054	0.04579194
235	0x3df14035	0.11779825
236	0x3cb469a4	0.02202303
237	0x3e575953	0.21030168
238	0x3db0d415	0.086342014
239	0xbe4395f4	-0.19100171
240	0x3d1c3609	0.03813747
241	0x3dbac4e5	0.09119586
242	0xbd318856	-0.04334291
243	0x3d3f0b3d	0.046641577
244	0x3cc7cb17	0.024388833
245	0x3da3c638	0.079967916
246	0xbbdd89ee	-0.0067608273
247	0x3cb5a0e8	0.022171453
248	0x3d809ea2	0.06280257
249	0xbb8ee336	-0.0043605817
250	0x3d3006d6	0.04297527
251	0xbd1edfa7	-0.03878751
252	0xb7878122	-1.6153386e-05
253	0x38996d62	7.315983e-05
254	0x387d651c	6.0414066e-05
255	0xb6f8fc49	-7.420346e-06

module.layer1.0.bn1.weight f4 [16]
0	0x3f217da9	0.6308237
1	0x3ec2da20	0.3805704
2	0x3ed8d131	0.423471
3	0x3e9d666d	0.30742207
4	0x3f229944	0.63515115
5	0x3ed52b1e	0.41634458
6	0x3f32dcab	0.6986796
7	0x3ea4c78a	0.32183486
8	0x3e9ccb45	0.30623832
9	0x3eef04b6	0.46683282
10	0x3edcf79b	0.43157658
11	0x3f253725	0.6453727
12	0x3edf16d5	0.43572107
13	0x3ec2021c	0.37892234
14	0x3eeab21d	0.45839015
15	0x3ee655b9	0.44987276

module.layer1.0.bn1.bias f4 [16]
0	0x3e85ca34	0.2613083
1	0xbe148823	-0.14505057
2	0x3e28d8a5	0.16488893
3	0x3dec6047	0.11541801
4	0xbd868cc7	-0.0656982
5	0x3df48e0e	0.11941157
6	0xbf4347fa	-0.762817
7	0x3ce4c753	0.027927076
8	0x3e3a2241	0.1817713
9	0xbe8044b8	-0.25052428
10	0xbd4dc339	-0.050235007
11	0x3e3fac66	0.18718109
12	0xbe4d11ba	-0.20026293
13	0xbe1435f8	-0.14473712
14	0xbd7a8bcb	-0.061168473
15	0x3dc402fb	0.09570881

module.layer1.0.bn1.running_mean f4 [16]
0	0xbe98291a	-0.29718858
1	0xbeabbb08	-0.3354113
2	0xbf5fc40d	-0.87408525
3	0xbf183379	-0.5945354
4	0xbe38e561	-0.18056251
5	0xbf132b65	-0.5748809
6	0x3e9e5723	0.30925855
7	0xbec78820	-0.38971043
8	0xbed7b278	-0.42128348
9	0x3dcd1a24	0.100147516
10	0xbdbaa5c7	-0.09113651
11	0xbed3c371	-0.41360047
12	0xbec76931	-0.38947442
13	0xbe87e7e8	-0.26544118
14	0xbf2a9508	-0.66633654
15	0xbe0ed8eb	-0.13949935

module.layer1.0.bn1.running_var f4 [16]
0	0x3eac9800	0.33709717
1	0x3da8093a	0.08204885
2	0x3f112ec6	0.56711996
3	0x3e216c17	0.15763889
4	0x3fbad2e6	1.4595611
5	0x3e18f409	0.14936842
6	0x3e021d0d	0.12706394
7	0x3e2744f1	0.16334893
8	0x3e0a7cbd	0.13524146
9	0x3df8fb83	0.12157347
10	0x3e9d1591	0.30680516
11	0x3e97bbed	0.29635563
12	0x3df6802e	0.12036167
13	0x3dd99b3d	0.106253125
14	0x3e8069b4	0.25080645
15	0x3ebd1955	0.3693339

module.layer1.0.conv2.weight f4 [16, 16, 3, 3]
0	0xbc5e4400	-0.013566017
1	0x3e9ae38c	0.3025173
2	0x3da1492d	0.07875285
3	0xbedf4e77	-0.4361455
4	0xbe7858d3	-0.24252634
5	0x3e990b0f	0.2989125
6	0x3d962974	0.07332125
7	0xbe9343d1	-0.28762677
8	0xbdaab2d2	-0.083348885
9	0x3d50f634	0.051016048
10	0x3e0be27c	0.13660616
11	0xbdfadd52	-0.12249245
12	0xbe1212f8	-0.14265049
13	0xbbf6534f	-0.0075172554
14	0x3d735ffc	0.05941771
15	0xbe41f55d	-0.18941255
16	0xbdaf287c	-0.08552644
17	0x3d011ec6	0.03152349
18	0x3e3b4a08	0.1828996
19	0xbe2cb518	-0.16865957
20	0xbe9b69f7	-0.30354282
21	0x3e2f262e	0.17104408
22	0x3e4bfeab	0.19921367
23	0x3dea75f3	0.11448278
24	0xbe0ae257	-0.13562904
25	0x3e2fe3ca	0.17176738
26	0x3e3b4d34	0.1829117
27	0xbdd4b660	-0.10386348
28	0xbcf9e327	-0.030503822
29	0x3dcd8061	0.10034252
30	0x3d0670bc	0.032822356
31	0xbbfeb98b	-0.0077735833
32	0xbdca47a6	-0.09876947
33	0xbd0e0eb0	-0.034681976
34	0x3c827400	0.015924454
35	0x3d9dda1d	0.077076174
36	0xbd2b217d	-0.041779984
37	0x3c19db78	0.009390704
38	0xbba375c1	-0.0049884026
39	0xbd9728a3	-0.07380798
40	0x3cc3c1e3	0.023896163
41	0xbd44637e	-0.047946446
42	0xbd18ec77	-0.037334885
43	0xbdff0df4	-0.12453833
44	0x3df2ccb9	0.11855454
45	0x3caa6db7	0.02080427
46	0xbdb6d11c	-0.08926603
47	0xbe192e80	-0.14959145
48	0x3cb19589	0.02167775
49	0x3e16ef9d	0.14739843
50	0xbdf87c56	-0.1213309
51	0xbdb09dae	-0.08623825
52	0x3e435f79	0.19079389
53	0x3e119555	0.14217122
54	0xbc6de7b5	-0.014520575
55	0xbd2f74dd	-0.04283606
56	0xbd1f94b6	-0.03896018
57	0x3d850228	0.06494552
58	0xbcf6ecc3	-0.030142194
59	0xbc5a2c46	-0.01331622
60	0x3e323add	0.17405267
61	0xbb642c79	-0.0034816547
62	0xbca81716	-0.02051882
63	0xbd16fe39	-0.03686354
64	0x3dce3a90	0.10069764
65	0x3e08157b	0.13289444
66	0xbd78be48	-0.06072834
67	0x3d5416ee	0.05177968
68	0x3d41d670	0.047323644
69	0xbca2a993	-0.01985625
70	0xbdf0ec44	-0.11763814
71	0xbd8e7a6b	-0.06956943
72	0xbc0c6509	-0.0085690105
73	0xbe0400b0	-0.12890887
74	0x3d358b30	0.044322193
75	0x3b87c48c	0.0041433033
76	0xbe72c1a9	-0.23706688
77	0xbdcd024e	-0.10010205
78	0x3e2dec41	0.16984655
79	0x3cb1d062	0.02170581
80	0xbde209e9	-0.110370465
81	0xbdd86ca7	-0.10567599
82	0xbd07bc66	-0.033138655
83	0xbd16d36e	-0.03682273
84	0xbe336eae	-0.1752269
85	0xbd842b6b	-0.06453594
86	0xbd965dcb	-0.07342108
87	0xbd1bf315	-0.038073618
88	0x3c867462	0.016412918
89	0x3d7f8636	0.062383853
90	0x3d1b0628	0.037847668
91	0xbd8f923b	-0.07010313
92	0x3d93f4f8	0.072244585
93	0x3db8a175	0.090151705
94	0xbd090ec0	-0.033461332
95	0xbd45c105	-0.04827978
96	0xbc714201	-0.014725209
97	0xbdc1186f	-0.094284885
98	0x3b8b62f4	0.0042537395
99	0x3e0910b9	0.13385285
100	0xbe9e2611	-0.30888417
101	0xbda25abf	-0.07927465
102	0x3e766004	0.24060065
103	0x3e6d38e0	0.23166227
104	0xbe78c1c1	-0.24292661
105	0xbe65952c	-0.22420186
106	0x3e29a706	0.1656762
107	0x3c4780ab	0.012176673
108	0x3e08fcfd	0.13377757
109	0x3d3db3af	0.046313938
110	0xbd9c8e89	-0.07644374
111	0x3d86f2bc	0.06589267
112	0x3e7468a2	0.23868039
113	0x3e31fc08	0.17381299
114	0xbe8a2e33	-0.26988372
115	0xbe0d2bc4	-0.13786227
116	0x3dca2a92	0.09871401
117	0xbc48d461	-0.012257666
118	0xbc23df85	-0.010002022
119	0xbdd61493	-0.10453143
120	0x3c82bc32	0.01595888
121	0xbd5331c6	-0.05156114
122	0xbdb1a287	-0.08673578
123	0x3db33f3d	0.08752296
124	0x3daef95c	0.08543655
125	0xbd57520e	-0.052568488
126	0x3cee866f	0.029116837
127	0x3e0980c3	0.13428025
128	0x3e109883	0.14120679
129	0xbe02ca5b	-0.12772505
130	0xbc03fbfe	-0.008055685
131	0x3de43660	0.11143184
132	0xbe12684b	-0.14297597
133	0xbea5805f	-0.32324502
134	0xbdb6eaf9	-0.08931536
135	0x3e0b97e4	0.1363216
136	0x3dc164c2	0.09443046
137	0xbe645c0f	-0.22300743
138	0xbb90ace7	-0.004415143
139	0x3e6b2a1b	0.2296528
140	0xbbd98777	-0.006638463
141	0xbd592e90	-0.05302292
142	0x3d66ef9e	0.05638086
143	0x3d8c1f8f	0.06841957
144	0xbd87a440	-0.06623125
145	0x3e201bdd	0.15635629
146	0x3c88acbb	0.016683927
147	0xbee8af94	-0.45446455
148	0x3f0657eb	0.524779
149	0xbe303b01	-0.17210008
150	0xbe8f038d	-0.27932397
151	0x3ecd483d	0.40094176
152	0xbe1aecec	-0.15129441
153	0xbc7c86b4	-0.015412975
154	0x3ce9745a	0.028497864
155	0x3dc7a32f	0.09747922
156	0xbe2ca492	-0.16859654
157	0x3cd8bbe7	0.026456786
158	0x3d949dc1	0.07256652
159	0xbe07fef1	-0.13280846
160	0x3bf03011	0.0073299487
161	0x3da403e1	0.08008552
162	0x3e500762	0.20315316
163	0xbd18b04c	-0.037277505
164	0xbe42e2eb	-0.19031875
165	0x3e7f8e21	0.24956562
166	0xbc5d49eb	-0.013506393
167	0xbeb3d0c3	-0.3512021
168	0x3e82156e	0.25406975
169	0xbd610e9b	-0.05494557
170	0xbe4fb0b4	-0.2028225
171	0x3d06c892	0.032906123
172	0x3dc5e37b	0.09662529
173	0xbcf972a4	-0.030450173
174	0xbd925a44	-0.07146123
175	0xbd04aecb	-0.032393258
176	0xb9aad1d7	-0.0003258127
177	0xbde02404	-0.109443694
178	0xbd2a3c0f	-0.041561183
179	0x3cc3b835	0.023891548
180	0x3c81e488	0.015856043
181	0xbe1c50d8	-0.15265214
182	0x3da80de0	0.082057714
183	0xbcd0cd99	-0.025488662
184	0xbd9967d0	-0.07490504
185	0xbbe7da9b	-0.0070756203
186	0x3cbe7164	0.023247428
187	0x3d5045f1	0.05084795
188	0x3d86cd0b	0.065820776
189	0x3e024819	0.12722816
190	0xbe99b6fd	-0.3002242
191	0x3d73adf1	0.059492055
192	0x3e9a83d4	0.30178702
193	0xbec192a7	-0.378072
194	0x3e09adde	0.13445231
195	0x3da02951	0.078203805
196	0xbe2f6052	-0.17126587
197	0x3d9df79a	0.07713242
198	0x3e29f4a7	0.16597234
199	0xbe6d441a	-0.2317051
200	0x3df90b42	0.121603504
201	0x3e247bc3	0.16062836
202	0xbe806239	-0.25074938
203	0x3e20d660	0.15706778
204	0x3e0b977a	0.13632002
205	0xbe99f8d1	-0.30072644
206	0x3e04377f	0.12911795
207	0x3c1432da	0.009045327
208	0x3a22bde4	0.00062081055
209	0xbd834b5f	-0.0641086
210	0xbdd35b8e	-0.10320197
211	0x3db9acad	0.090661384
212	0xbda2ae0d	-0.07943354
213	0xbd98ff12	-0.07470526
214	0xbd89ce1f	-0.067287676
215	0x3db2fe25	0.087398805
216	0x3d5bb73e	0.05364155
217	0xbd93a894	-0.07209888
218	0xbd232734	-0.03983231
219	0xbc92d529	-0.017923908
220	0x3d0a824d	0.03381567
221	0x3d27a1c1	0.040925745
222	0x3d4c30ba	0.049851157
223	0x3defd684	0.117108375
224	0x3d46c57a	0.048528172
225	0xbd05247c	-0.032505497
226	0xbd4725ba	-0.048619963
227	0xbcfa12f6	-0.03052662
228	0x3db2c955	0.08729807
229	0x3d3fa996	0.04679259
230	0xbdbd1cd9	-0.09234018
231	0x3d0b6a57	0.03403696
232	0x3c2817a1	0.01025954
233	0xbdc56eb1	-0.09640253
234	0xbd22ac65	-0.03971519
235	0x3d1645f6	0.036687814
236	0xbccdfae5	-0.02514405
237	0x3d9ee6a7	0.07758837
238	0xbd9b9795	-0.07597271
239	0x3d20886a	0.039192595
240	0x3ddb9d14	0.1072332
241	0x3d3ae3c3	0.045627367
242	0xbdb16882	-0.086625114
243	0x3c0d758a	0.0086339805
244	0xbde4ad24	-0.111658365
245	0xbb0e2b17	-0.0021693164
246	0x3ea1c9cd	0.31599274
247	0xbf1bd867	-0.6087708
248	0x3e74dca2	0.2391229
249	0x3e808687	0.25102636
250	0xbec4f8c1	-0.38471034
251	0x3e40947c	0.18806642
252	0xbd7773b3	-0.060413074
253	0x3db2b957	0.08726757
254	0xbc3d53f1	-0.011555658
255	0x3e2480f2	0.16064814

module.layer1.0.bn2.weight f4 [16]
0	0x3f5a799c	0.8534181
1	0x3f69e918	0.913713
2	0x3eb1cba5	0.3472568
3	0x3f02c053	0.51074713
4	0x3eb1b00f	0.34704635
5	0x3f33a59a	0.7017456
6	0x3f53d0cd	0.8274048
7	0x3ec5877e	0.38579935
8	0x3f22fd42	0.6366769
9	0x3f21870e	0.630967
10	0x3f59e45f	0.8511409
11	0x3ede4490	0.43411684
12	0x3f07cf67	0.53050846
13	0x3e657828	0.22409117
14	0x3f07e6d4	0.5308659
15	0x3f259439	0.64679295

module.layer1.0.bn2.bias f4 [16]
0	0xbdb27aec	-0.08714852
1	0xbcc1e1b2	-0.02366719
2	0x3dc869c8	0.09785801
3	0x3d7b9121	0.061417703
4	0x3e48893c	0.19583601
5	0x3e8ecbb2	0.27889782
6	0xbd57b3ba	-0.052661635
7	0x3d1aa040	0.037750483
8	0xbdfaa435	-0.12238351
9	0xbd3b0cbe	-0.04566645
10	0xbd7ce66f	-0.061743196
11	0xbd541c77	-0.05178496
12	0xbe1817e6	-0.14852867
13	0x3e7a6e8d	0.24456234
14	0xbdbdfc52	-0.09276642
15	0xbd9f7b42	-0.077871814

module.layer1.0.bn2.running_mean f4 [16]
0	0xbe04ca8d	-0.12967892
1	0xbddbfa74	-0.107411295
2	0x3d6582ca	0.056032933
3	0xbe48ff9f	-0.19628762
4	0xbb98cb06	-0.004662874
5	0xbf2c7947	-0.67372555
6	0xbe1952ee	-0.14973041
7	0x3dc59d84	0.09649184
8	0xbdd1017a	-0.1020536
9	0x3e344792	0.17605427
10	0xbd82a463	-0.063790105
11	0xbe2a07a3	-0.16604476
12	0x3ddf4eb8	0.10903686
13	0x3ec46e14	0.38365233
14	0xbd1ed09f	-0.038773175
15	0xbee2df10	-0.44310808

module.layer1.0.bn2.running_var f4 [16]
0	0x3ec547cc	0.3853134
1	0x3f1e121c	0.6174638
2	0x3db0e418	0.086372554
3	0x3db4e9c6	0.08833651
4	0x3de40af3	0.11134901
5	0x3f018ed3	0.5060856
6	0x3eb6d8f1	0.35712388
7	0x3db8bd40	0.090204716
8	0x3e564ebe	0.20928475
9	0x3e54f378	0.20796001
10	0x3ec14e6e	0.3775515
11	0x3da408de	0.08009504
12	0x3d8c7e55	0.068600334
13	0x3d8c01d6	0.06836288
14	0x3db0d7aa	0.08634885
15	0x3e49f9f2	0.19724253

module.layer1.0.shortcut.0.weight f4 [16, 64, 1, 1]
0	0xbd434e2c	-0.047681972
1	0xbd92491f	-0.07142853
2	0x3947d091	0.00019055816
3	0xb934f2fd	-0.00017256658
4	0x377f9f66	1.5236297e-05
5	0x36f281c3	7.2272683e-06
6	0xbdae4903	-0.0851002
7	0x34b757d2	3.4150304e-07
8	0xb85c4aea	-5.2521857e-05
9	0xba802331	-0.0009776113
10	0xbe76e443	-0.24110512
11	0xbd9a0236	-0.07519953
12	0xbd9736cf	-0.07383501
13	0xbc965ff3	-0.018356299
14	0xbd957466	-0.07297592
15	0x3c1e789f	0.009672313
16	0xbda8f739	-0.08250279
17	0x3db56334	0.08856812
18	0x3c32f577	0.010922781
19	0x33637991	5.296312e-08
20	0x3c2f7969	0.010710099
21	0xbe50594b	-0.20346563
22	0xb3dd58b7	-1.03072516e-07
23	0xbbcff3e4	-0.0063462127
24	0x3deb6698	0.114941776
25	0xbcd48ec5	-0.025946984
26	0xbda3fba6	-0.080069825
27	0x3e0292a5	0.12751253
28	0xb85ead68	-5.309042e-05
29	0x39bcf10a	0.00036037742
30	0xb6078c17	-2.019811e-06
31	0xb84e740d	-4.9222308e-05
32	0x3df01b14	0.11723915
33	0x3e63bf4c	0.22240943
34	0x3b30ee0e	0.002699736
35	0x382d2ca6	4.1287996e-05
36	0xbd0584f9	-0.032597516
37	0x3df1f835	0.1181492
38	0x3b921f8c	0.004459327
39	0xbb271dc3	-0.0025499917
40	0x399a205b	0.00029397276
41	0x3df52ad2	0.11971058
42	0x3d6c5336	0.057696544
43	0xbd657b7c	-0.056025967
44	0xb6cef1da	-6.1674336e-06
45	0xbd18af76	-0.037276708
46	0xbd46b66b	-0.04851381
47	0xba219031	-0.0006163149
48	0xbd9a7388	-0.07541567
49	0x3d8b83ba	0.06812234
50	0xb61c3276	-2.3275184e-06
51	0x3d1e9e88	0.038725406
52	0x3d4d0f9a	0.050063707
53	0xb9903fb6	-0.0002751329
54	0xbc58c357	-0.013230166
55	0x3d3628f8	0.044472665
56	0x36d73d92	6.414667e-06
57	0x37d91ca5	2.5881754e-05
58	0xbe28a14d	-0.16467781
59	0x3beea69b	0.0072830445
60	0x3d05cea8	0.032667786
61	0xbd361aea	-0.04445926
62	0x3d4a51cb	0.04939441
63	0xb9103d9b	-0.0001375586
64	0xbd3bffae	-0.045898132
65	0xbdb2d150	-0.087313294
66	0xbbead4fb	-0.0071665025
67	0x38856fad	6.3627354e-05
68	0xb68e837b	-4.247236e-06
69	0xb5392bd8	-6.898167e-07
70	0xbdeb1f66	-0.11480598
71	0xb723a1fa	-9.75327e-06
72	0xba14ae70	-0.0005671745
73	0xb9ddc740	-0.00042300858
74	0xbce75966	-0.02824087
75	0x3dabe6d3	0.083936356
76	0xbc50fa67	-0.012755013
77	0xbd136b1b	-0.035990816
78	0x3dcb29c7	0.09920078
79	0x3bec98a4	0.0072203446
80	0xbcdfa02f	-0.027298061
81	0xbcac2a87	-0.021016372
82	0xba2e1096	-0.0006640045
83	0x35a0d932	1.1984141e-06
84	0x3ce5506d	0.027992452
85	0x3d6b5db2	0.0574624
86	0x32d72359	2.5045368e-08
87	0xbc803397	-0.0156496
88	0xbe61c814	-0.2204898
89	0xbd4c97cc	-0.049949452
90	0xbd04ec4d	-0.032451916
91	0x3d157da3	0.03649677
92	0xb6c2a4dc	-5.8008427e-06
93	0xbb9efff9	-0.0048522917
94	0x34a70e20	3.111645e-07
95	0xbae10884	-0.0017168676
96	0x3cc2fc8a	0.02380206
97	0xbd1ec5e3	-0.03876294
98	0x3d0499e1	0.032373313
99	0xbb3c2db8	-0.0028713774
100	0x3db781a0	0.08960271
101	0x3b53b5c9	0.0032304397
102	0xbbc94261	-0.006141946
103	0xba34bbaa	-0.0006894419
104	0xbd847b71	-0.06468857
105	0x3d14018d	0.03613429
106	0x3e7723d1	0.24134757
107	0x3da14675	0.07874767
108	0xb516a705	-5.61224e-07
109	0xbd36ff8f	-0.044677313
110	0x3bcdf69b	0.006285501
111	0x3afaa428	0.0019122409
112	0xbc5b54ac	-0.013386887
113	0x3cda90e1	0.026680412
114	0xb0b8ca02	-1.3445176e-09
115	0x3d6c55a5	0.057698864
116	0x3d29f653	0.04149468
117	0xbc056577	-0.008141867
118	0xbd3c55df	-0.04598033
119	0x3d091307	0.03346541
120	0x36c35ad1	5.8220253e-06
121	0xb83e71c7	-4.5405493e-05
122	0xbd1d628f	-0.03842407
123	0xba9b069b	-0.001182753
124	0xbe1b464d	-0.15163536
125	0x3d24a15f	0.040192958
126	0xbb40c38e	-0.0029413435
127	0xbc0889f1	-0.008333669
128	0xbddb85fd	-0.107189156
129	0x3ca2adc6	0.019858252
130	0x3bef4f66	0.007303166
131	0xb913afff	-0.00014084576
132	0xb6918b64	-4.337564e-06
133	0x377028e4	1.4314635e-05
134	0xbea4a170	-0.32154417
135	0xb79a3232	-1.8381605e-05
136	0xbb6493b9	-0.0034878089
137	0xbbcad131	-0.0061894883
138	0xbdb41a51	-0.08794082
139	0x3d0813f3	0.03322215
140	0xbdb83005	-0.08993534
141	0xbd306308	-0.043063194
142	0xbd6c0800	-0.057624817
143	0xbca2cd55	-0.0198733
144	0xbd8ed5b7	-0.069743566
145	0x3a847e14	0.0010108375
146	0xbeae6699	-0.3406265
147	0xb49abd49	-2.8822458e-07
148	0xbd2b4f5d	-0.041823734
149	0x3e383ea7	0.1799265
150	0xb416f14b	-1.405762e-07
151	0xbcff9156	-0.031197231
152	0xbc5544c5	-0.013016884
153	0xbb08fbb5	-0.0020901982
154	0x3d31e686	0.043432735
155	0xbe8f0788	-0.27935433
156	0xba2d14a5	-0.00066025025
157	0x3b7653ba	0.0037586526
158	0xb63ab353	-2.782054e-06
159	0x3a4ff9ba	0.00079336355
160	0xbe21c404	-0.1579743
161	0x3dcc8c44	0.09987691
162	0xbcffaca2	-0.031210247
163	0x3b16f9ca	0.002303707
164	0xbd9293ff	-0.07157134
165	0xbd94348b	-0.07236584
166	0x3c3c4567	0.011491156
167	0xbbe023cf	-0.006840206
168	0x3d68aa7e	0.05680322
169	0x3e75a21a	0.23987618
170	0x3d094b7f	0.033519264
171	0xbe8dfd12	-0.2773214
172	0xb75294fc	-1.25516635e-05
173	0xbd0be4bf	-0.034153696
174	0xbd5b2e41	-0.053510908
175	0x3b33da8f	0.0027443503
176	0xbb91ac28	-0.0044455715
177	0x3d347c49	0.04406384
178	0xb6a1a97f	-4.817906e-06
179	0xbb4fd92f	-0.0031715145
180	0xbd8007da	-0.062514976
181	0x3bbc98f0	0.0057555363
182	0xbdf950aa	-0.121735886
183	0xbdc4baf7	-0.09605973
184	0xb65adfee	-3.2614876e-06
185	0xba600300	-0.0008545369
186	0x3caf55a0	0.021403134
187	0x3c6068e8	0.013696887
188	0x3df12cd3	0.11776128
189	0x3dc67103	0.09689524
190	0xbd5484ad	-0.051884342
191	0x3b77acde	0.0037792246
192	0x3df6c888	0.12049967
193	0xb901d413	-0.00012381402
194	0xbadd90a2	-0.0016904066
195	0x397cad49	0.00024097147
196	0xb75848e1	-1.2891572e-05
197	0x370d13e1	8.408883e-06
198	0xbcdb0270	-0.02673456
199	0xb5e8921e	-1.7327873e-06
200	0xbb07c493	-0.0020716533
201	0xbb83fbf1	-0.0040278365
202	0xbdac22c3	-0.08405068
203	0x3cb92b34	0.022603609
204	0xbe8c47ad	-0.27398434
205	0x3987122b	0.00025762743
206	0xbcb1b572	-0.021692965
207	0xbe50f797	-0.20406948
208	0xbd95b56e	-0.073099956
209	0xbc941da5	-0.018080542
210	0xbd931275	-0.07181255
211	0xb56c8389	-8.810826e-07
212	0xbde53b08	-0.111929
213	0x3e8042b2	0.25050884
214	0x338dd72e	6.604965e-08
215	0xbc96cddc	-0.018408708
216	0xbdc71e9b	-0.097226344
217	0x3d93cbee	0.07216631
218	0xbb29b18e	-0.0025893184
219	0xbe02b841	-0.127656
220	0xb9b7ff90	-0.0003509489
221	0xbabaafc6	-0.0014243058
222	0xb5a8203a	-1.2526355e-06
223	0xba19a37f	-0.00058608496
224	0xbdd936ee	-0.1060618
225	0xbd215ccd	-0.039395142
226	0xbcd3944d	-0.025827551
227	0xba2e8ac8	-0.0006658253
228	0xbb694aa2	-0.0035597463
229	0xbdab3a76	-0.0836076
230	0xbbc8ad68	-0.0061241873
231	0xbb966684	-0.0045898575
232	0xbd5dfa2b	-0.054193657
233	0x3ccee6bf	0.025256513
234	0xbe2aea94	-0.16691047
235	0xbd550f15	-0.052016336
236	0xb6f0a002	-7.1711847e-06
237	0xbddee604	-0.10883716
238	0xbc29a7ac	-0.0103549175
239	0x3aefea68	0.0018304111
240	0xbbc2a4d1	-0.005940058
241	0x3d29081c	0.0412675
242	0xb631d61d	-2.6499686e-06
243	0x3b9fe13f	0.0048791463
244	0xbca75b76	-0.020429354
245	0xbaab68ad	-0.001307746
246	0x3b598619	0.00331915
247	0xbe943277	-0.28944752
248	0xb753c242	-1.2621809e-05
249	0xba08d058	-0.0005219034
250	0xbe2ca2db	-0.16859
251	0xbc322217	-0.010872385
252	0xbd93a6db	-0.072095595
253	0x3d8a417a	0.0675077
254	0xbc654eb3	-0.013995814
255	0xbb56157b	-0.0032666612

module.layer1.0.shortcut.1.weight f4 [16]
0	0x3e3474fa	0.17622748
1	0x3da3c765	0.07997016
2	0x3ec490e4	0.38391793
3	0x3e9143ad	0.28371945
4	0x3e9723db	0.29519543
5	0x3d9b97b5	0.07597295
6	0x3d93790e	0.07200824
7	0x3e8f8467	0.28030702
8	0x3f02d0fa	0.5110012
9	0x3e872e41	0.26402476
10	0x3d4b20d9	0.049591873
11	0x3edd06b2	0.4316917
12	0x3efe6363	0.496852
13	0x3ec9db59	0.3942516
14	0x3e945af9	0.28975657
15	0x3eab0031	0.33398584

module.layer1.0.shortcut.1.bias f4 [16]
0	0xbdb27aec	-0.08714852
1	0xbcc1e1b2	-0.02366719
2	0x3dc869c8	0.09785801
3	0x3d7b9121	0.061417703
4	0x3e48893c	0.19583601
5	0x3e8ecbb2	0.27889782
6	0xbd57b3ba	-0.052661635
7	0x3d1aa040	0.037750483
8	0xbdfaa435	-0.12238351
9	0xbd3b0cbe	-0.04566645
10	0xbd7ce66f	-0.061743196
11	0xbd541c77	-0.05178496
12	0xbe1817e6	-0.14852867
13	0x3e7a6e8d	0.24456234
14	0xbdbdfc52	-0.09276642
15	0xbd9f7b42	-0.077871814

module.layer1.0.shortcut.1.running_mean f4 [16]
0	0xbd7a0430	-0.06103915
1	0xbcff2be3	-0.031148857
2	0xbe4302f8	-0.19044101
3	0xbe726558	-0.23671472
4	0xbd9acb0f	-0.075582616
5	0xbe3711c0	-0.17877865
6	0xbe070dd4	-0.13188869
7	0x3db836ca	0.08994825
8	0xbd8b2f71	-0.06796158
9	0xbe2d34ac	-0.16914624
10	0xbc9b99af	-0.01899418
11	0xbe08cf79	-0.13360395
12	0x3e623f28	0.22094405
13	0x3e99a4f1	0.30008653
14	0xbd553998	-0.05205688
15	0xbdb6c242	-0.089237705

module.layer1.0.shortcut.1.running_var f4 [16]
0	0x3d1081f4	0.035280183
1	0x3ca53a93	0.020169532
2	0x3d230cfd	0.03980731
3	0x3cba49b3	0.02274022
4	0x3d6a9ca3	0.057278287
5	0x3c80626c	0.015671931
6	0x3c2d3ad4	0.010573108
7	0x3ccc6420	0.024950087
8	0x3dbc83a5	0.09204797
9	0x3d229579	0.03969333
10	0x3c143308	0.00904537
11	0x3cd74ba7	0.026281191
12	0x3cae0cdd	0.021246368
13	0x3d6be428	0.057590634
14	0x3cbe14c7	0.023203267
15	0x3d693899	0.05693874

module.layer2.0.conv1.weight f4 [32, 16, 3, 3]
0	0x3dbccd9b	0.09218904
1	0x3eafd944	0.34345448
2	0x3e8d69f9	0.27619913
3	0x3dd61253	0.10452714
4	0x3eae712a	0.34070712
5	0x3e843058	0.25818133
6	0xbc3c7085	-0.011501436
7	0x3cb573d0	0.02214995
8	0x3d5a244f	0.053257283
9	0xbc2f7a11	-0.010710255
10	0xbd834b77	-0.06410878
11	0x3b9483a8	0.004532296
12	0x3cd2281a	0.025653888
13	0xbd1c2766	-0.03812351
14	0xbd809873	-0.062790774
15	0xbcc61503	-0.024179941
16	0xbcb208a1	-0.02173263
17	0xbd9613a7	-0.07327967
18	0xbc5fdd3a	-0.013663584
19	0x3d9c09a2	0.07619025
20	0x3d4137fa	0.047172524
21	0xbd09d7c0	-0.03365302
22	0xbc747990	-0.014921561
23	0xbca30c6d	-0.019903386
24	0xbe0fb61a	-0.1403431
25	0xbd9ae1ae	-0.07562576
26	0x3c02e2a5	0.007988607
27	0xbd50518e	-0.050859027
28	0x3da267d2	0.079299584
29	0x3da54c2f	0.080711715
30	0xbce9a11d	-0.028519208
31	0x3d32ad92	0.04362256
32	0x3e04f8dc	0.12985557
33	0xbc669da0	-0.014075667
34	0x3ca208be	0.01977956
35	0x3d128261	0.03576887
36	0xbda0093b	-0.078142606
37	0xbd4f9eea	-0.05068866
38	0xbbbe5a8c	-0.005809134
39	0xbc82d8d8	-0.01597254
40	0xbd369de3	-0.044584166
41	0xbd8c2f7c	-0.068449944
42	0x3dfa2e49	0.122158594
43	0x3cbb7648	0.02288355
44	0xbc8c5df9	-0.017134653
45	0x3ce9e391	0.028550895
46	0xbd04eff7	-0.03245541
47	0xbe3ac677	-0.18239771
48	0x3e486609	0.19570173
49	0x3e0f3bcd	0.13987656
50	0xbcd83673	-0.02639315
51	0x3e0de5b4	0.13857156
52	0x3e7ad91c	0.24496883
53	0x3dc65dbd	0.09685848
54	0xbe22b052	-0.15887573
55	0xbe9fbd5d	-0.3119916
56	0xbe3b722f	-0.18305276
57	0xbe4ac527	-0.1980177
58	0xbec4c5c3	-0.3843213
59	0xbeaf5736	-0.34246224
60	0xbdc9f19e	-0.09860538
61	0xbe21ae85	-0.1578923
62	0xbe446b8a	-0.19181648
63	0xbcb558f8	-0.02213715
64	0xbc9a9543	-0.018870002
65	0xbccf2b55	-0.025289217
66	0x3d0640b1	0.03277654
67	0x3d037ab2	0.032099433
68	0x3cad9b5a	0.021192241
69	0xbd13294e	-0.035928063
70	0x3d8f76c9	0.07005078
71	0x3da31e5b	0.07964774
72	0xbcadf6f8	-0.021235928
73	0x3c2d351c	0.010571744
74	0x3d12af96	0.035811983
75	0xbd991a22	-0.074756876
76	0x3c7dd775	0.0154932635
77	0x3dd3ac9b	0.10335656
78	0xbc151b76	-0.0091007855
79	0xbd5656cd	-0.052328873
80	0x3b594a12	0.0033155722
81	0x3ca9da1c	0.020733885
82	0xbdef88fe	-0.11696051
83	0xbe3d3993	-0.18478994
84	0xbd0f8242	-0.035036333
85	0xbd8149c5	-0.063128985
86	0xbd9d5b55	-0.07683436
87	0x3d461b15	0.04836567
88	0x3d3bd98b	0.045861762
89	0x3dddb598	0.10825652
90	0x3c8924f4	0.016741253
91	0x3e4f503b	0.20245449
92	0x3e7c17fc	0.24618524
93	0x3bf699f7	0.0075256783
94	0x3e35dab4	0.1775921
95	0x3e667513	0.22505598
96	0xbd6fee87	-0.058577087
97	0xbbdb860c	-0.0066993292
98	0x3d851a15	0.064991154
99	0xbd91b72f	-0.071150176
100	0x3db3be3e	0.0877652
101	0x3e0ff6aa	0.14058939
102	0xbe3779a2	-0.17917493
103	0xbcff2d35	-0.031149486
104	0x3e2d09ca	0.16898265
105	0xbde24787	-0.11048799
106	0xbd5d59ec	-0.054040834
107	0x3d907213	0.07053008
108	0xbd54d323	-0.05195917
109	0x3b2a895e	0.0026021819
110	0x3c19c1d2	0.009384589
111	0x3cd719bb	0.026257386
112	0x3cbf187d	0.023327107
113	0xbced545d	-0.028970892
114	0x3cfe040a	0.031007785
115	0x3c90d241	0.017678382
116	0xbda588e2	-0.08082749
117	0x3e14d734	0.14535218
118	0x3dfe1836	0.124069616
119	0x3e2d0736	0.16897282
120	0xbd67681c	-0.05649577
121	0xbb5916c7	-0.0033125149
122	0x3e1c9906	0.15292749
123	0xbe9018b8	-0.2814386
124	0xbdf303fc	-0.11865994
125	0x3d62a631	0.055334274
126	0xbdbb2c3a	-0.09139295
127	0xbd2518ea	-0.040306963
128	0x3e2295aa	0.15877405
129	0xbc2b3661	-0.010449977
130	0xbd587c60	-0.05285299
131	0xbd8f935f	-0.07010531
132	0x3da1ef99	0.07907028
133	0x3d1d584d	0.03841429
134	0xbd578ced	-0.05262463
135	0x3cd68c3d	0.026189918
136	0x3d93d1ec	0.07217774
137	0x3e0ac3e6	0.13551292
138	0x3d6f152c	0.0583698
139	0x3e38c4a1	0.18043758
140	0x3e1992ba	0.14997378
141	0x3d05ee7f	0.03269815
142	0x3dc79875	0.09745876
143	0x3bc35990	0.0059616044
144	0xbd8824db	-0.066476546
145	0xbd7ec91d	-0.062203515
146	0x3d286f74	0.041121915
147	0x3cfb7816	0.03069691
148	0x3bff8332	0.007797622
149	0x3d847963	0.06468465
150	0x3cd97376	0.026544314
151	0x3c6253e9	0.013813951
152	0x3d5939d9	0.053033683
153	0xbe12702f	-0.14300607
154	0xbd949fc2	-0.07257034
155	0x3d2547b1	0.040351573
156	0xbbb6469a	-0.0055626156
157	0x388364df	6.2653555e-05
158	0x3df255b1	0.118327506
159	0x3d31b41b	0.043384653
160	0x3dca0edf	0.09866118
161	0x3dd8858d	0.10572348
162	0xbe0f488e	-0.13992521
163	0xbdbc1cd1	-0.09185184
164	0x3d2ff2ec	0.042956278
165	0xbe362f51	-0.17791487
166	0xbe1e5173	-0.15460758
167	0x3d4c0ae3	0.04981507
168	0xbe26dc16	-0.16294894
169	0xbe1186e5	-0.14211614
170	0x3da2132c	0.07913813
171	0x3dc113f5	0.094276346
172	0x3e16d42d	0.14729376
173	0xbd65d8ac	-0.056114838
174	0x3cb57fc6	0.022155654
175	0x3d35b2bf	0.04435992
176	0xbe08b8b9	-0.13351716
177	0x3d4deede	0.05027663
178	0x3be8a20d	0.007099396
179	0xbdbe0fd6	-0.09280364
180	0xbd38ebe2	-0.04514683
181	0xbd9757d3	-0.07389798
182	0xbcc814b8	-0.024423942
183	0x3dce7880	0.10081577
184	0x3c86f708	0.016475216
185	0x3d71f03e	0.059067003
186	0x3e039a1f	0.12851761
187	0x3db2b916	0.087267086
188	0x3d9069c0	0.0705142
189	0x3e27599e	0.1634278
190	0x3d847d2a	0.06469186
191	0x3d774432	0.06036777
192	0x3dd2a056	0.10284488
193	0xbd37fdab	-0.04491965
194	0xbd777d49	-0.060422216
195	0x3c94c37a	0.018159617
196	0xbdf0ecb0	-0.117638946
197	0xbe0de95e	-0.13858554
198	0xbd4347b6	-0.04767581
199	0xbdb74f98	-0.08950728
200	0xbd6c7dd1	-0.057737175
201	0xbd3ce2a8	-0.046114594
202	0xbd68d39c	-0.05684243
203	0xbcbcedf5	-0.023062686
204	0x3bd46054	0.00648121
205	0x3d931618	0.071819484
206	0x3d9b0370	0.07569015
207	0x3d903fd4	0.07043424
208	0x3e1f8c9c	0.15580982
209	0x3e2ec263	0.1706634
210	0xbda51304	-0.080602676
211	0xbca0a591	-0.019610198
212	0x3dd1f996	0.10252683
213	0xbe421569	-0.1895348
214	0xbdd3e623	-0.103466295
215	0x3d1f0046	0.03881862
216	0xbe089d8d	-0.13341351
217	0xbe5b8621	-0.21437885
218	0xbe43f9ba	-0.19138232
219	0xbe1908c3	-0.14944749
220	0xbe1ff575	-0.15620978
221	0xbdbb8931	-0.091570266
222	0xbd40e74f	-0.047095593
223	0xbd1e6462	-0.03866995
224	0x3b942720	0.0045212656
225	0xbd588891	-0.052864615
226	0xbe5f52a7	-0.21808873
227	0xbdf2d2f9	-0.11856646
228	0xbd66ca40	-0.056345224
229	0xbe277c9b	-0.16356127
230	0xbcb6e004	-0.022323616
231	0x3b889468	0.004168082
232	0xbce69241	-0.028145911
233	0x3db5bbdc	0.08873722
234	0x3c15e592	0.009148972
235	0x3bcea6c5	0.0063065016
236	0x3d1df099	0.03855953
237	0x3d8b3ab9	0.0679831
238	0x3da98138	0.082766
239	0x3e1363ac	0.1439349
240	0x3da14e48	0.07876259
241	0x3e0afdc2	0.13573363
242	0x3e11c70f	0.14236091
243	0xbda1558f	-0.07877647
244	0xbca32b11	-0.019917997
245	0x3cde7e9f	0.027159987
246	0xbd383177	-0.04496905
247	0x3ce19ccb	0.027540585
248	0x3db90e6d	0.090359546
249	0x3c2de626	0.010613954
250	0x3e02f238	0.12787712
251	0x3e1b4286	0.15162095
252	0xbe0ba65a	-0.13637677
253	0xbe0aded6	-0.13561568
254	0xbd6acbd0	-0.057323277
255	0xbdeee42e	-0.116646156

module.layer2.0.bn1.weight f4 [32]
0	0x3f128508	0.5723424
1	0x3eeb068f	0.4590344
2	0x3f10e770	0.56603146
3	0x3eb898e6	0.36054152
4	0x3f0613e3	0.52374095
5	0x3edc0752	0.42974335
6	0x3f082ac3	0.5319025
7	0x3efb715f	0.49109933
8	0x3ef84267	0.4848816
9	0x3ee8908e	0.45422786
10	0x3f301366	0.687796
11	0x3f070dc9	0.5275541
12	0x3ea5dc23	0.32394513
13	0x3ee39451	0.44449094
14	0x3edd69ba	0.43244725
15	0x3ee08d5f	0.43857858
16	0x3ee6d4f0	0.45084333
17	0x3eda0283	0.4258004
18	0x3ef254a0	0.4733019
19	0x3ef0c41c	0.4702462
20	0x3f140ca5	0.57831794
21	0x3efa814c	0.4892677
22	0x3ebf8d35	0.3741242
23	0x3f00fd6e	0.50386703
24	0x3f02c18e	0.5107659
25	0x3f00d05d	0.5031794
26	0x3edc98da	0.43085366
27	0x3f0c96fe	0.54917896
28	0x3f1c138d	0.6096733
29	0x3ee4d850	0.44696283
30	0x3ee75150	0.45179224
31	0x3eff4a28	0.49861264

module.layer2.0.bn1.bias f4 [32]
0	0xbe8f01dd	-0.2793111
1	0xbc02dc15	-0.007987042
2	0xbe8afb37	-0.27144787
3	0x3da8d270	0.08243263
4	0xbe446954	-0.19180804
5	0xbd0e98e5	-0.03481378
6	0xbe888bea	-0.26669246
7	0xbd86c4e9	-0.065805264
8	0x3e0af9f3	0.1357191
9	0xbe11fe6d	-0.14257212
10	0xbe145f46	-0.14489469
11	0x3d90cc87	0.070702605
12	0x3e5cfaee	0.21580097
13	0xbdec6d48	-0.11544281
14	0xbe1758ae	-0.14779922
15	0xbdc44daf	-0.095851295
16	0xbe1380b4	-0.14404565
17	0xbc0a7844	-0.008451525
18	0x3d8174eb	0.063211285
19	0xbe5847c5	-0.21121128
20	0xbe0bbc31	-0.13646008
21	0xbe4df54c	-0.20113105
22	0xbca7eed8	-0.020499632
23	0xbe616a16	-0.22013125
24	0xbe895536	-0.26822823
25	0xba8575e1	-0.0010182225
26	0xbe1db284	-0.1540013
27	0xbdbb8d84	-0.09157851
28	0xbbdc1b96	-0.0067171557
29	0xbe17bf02	-0.14818957
30	0x3dfc26be	0.12312077
31	0xbc5ce910	-0.013483301

module.layer2.0.bn1.running_mean f4 [32]
0	0x3f1d1aec	0.61369205
1	0xbec1647a	-0.3777197
2	0xbf29d081	-0.66333777
3	0xbf8167eb	-1.0109838
4	0xbf508558	-0.81453466
5	0xbf046a6d	-0.5172489
6	0xbf76c6a6	-0.96396863
7	0xbee79382	-0.45229727
8	0xbfa963b5	-1.3233553
9	0xbfb514b7	-1.4146947
10	0xbfa76232	-1.3076842
11	0xbf935ff0	-1.1513653
12	0x3dce76f2	0.10081281
13	0x3e851ef5	0.2600018
14	0xbe6cf82d	-0.23141547
15	0x3f054548	0.5205884
16	0xbf81b628	-1.0133715
17	0x3dad0d04	0.08449748
18	0x3e1f1103	0.15533833
19	0x3d8fc221	0.07019449
20	0x3ebf6c94	0.37387526
21	0xbe6bb217	-0.23017155
22	0x3f818430	1.0118465
23	0xbf5406da	-0.82822955
24	0xbe84bb49	-0.25924137
25	0x3f658fde	0.8967265
26	0xbd26777a	-0.040641285
27	0xbf5c19cf	-0.8597688
28	0xbf4f9f4f	-0.8110246
29	0x3e2ef95a	0.17087308
30	0x3f7fda2e	0.9994229
31	0x3f421350	0.7581072

module.layer2.0.bn1.running_var f4 [32]
0	0x3ee55667	0.44792482
1	0x3ecbe036	0.39819497
2	0x3ec9c9ce	0.39411777
3	0x3e9a432b	0.3012937
4	0x3eb314e8	0.34976888
5	0x3eb83d04	0.3598405
6	0x3f1a2ff9	0.6022945
7	0x3f1b3333	0.60625
8	0x3f386e11	0.7204295
9	0x3ea01d89	0.31272534
10	0x3f38f52e	0.72249115
11	0x3f29e4bd	0.6636465
12	0x3f1792c8	0.59208345
13	0x3ebdd38c	0.3707546
14	0x3ecb299f	0.39680192
15	0x3eab05be	0.33402818
16	0x3f19e376	0.601127
17	0x3f144ecc	0.57932734
18	0x3f042583	0.5161974
19	0x3ec99ac4	0.3937589
20	0x3f15eb93	0.5856258
21	0x3efab104	0.48963177
22	0x3ed75091	0.42053655
23	0x3ed96c79	0.4246557
24	0x3ea0dd1a	0.31418687
25	0x3f16a2bd	0.5884207
26	0x3f0ad4fd	0.54231244
27	0x3f285f94	0.6577084
28	0x3f28434e	0.657277
29	0x3eba97e4	0.36444008
30	0x3f83d420	1.029911
31	0x3f18954b	0.59602803
