results/2ewf/cifar10/ikd/resnet8_best.pth.tar (torch_old, 371448 bytes, 52 tensors)

module.conv1.weight f4 [64, 3, 3, 3]
00000000: 9ed5 1e3d 4f68 413d 3038 0d3d af7d 503d
00000010: 65ea 833d 8eab 1b3e 56e4 62bd c803 e9bd
00000020: 0bee e63d 0d0c ba3c 2683 9ab9 7c9b 44bd
00000030: 39bc 6ebc 5498 cd3b eaae d73c f239 b4bd
00000040: ca51 eebd 390d c23c a3e6 ab3b 3aaa 283b
00000050: 278d 29bd 3e98 95bc f9eb 823c c5ec 413b
00000060: 4921 08bd 8940 63bd 45ff 893c 2c06 893e
00000070: 96b6 c9be b4b0 91be 48cf 55bd 745b 4b3e
00000080: 048c d6be eaeb 0c3f 4d37 693e 9ab1 79be
00000090: f026 e7bb e194 79bd bc56 853e e36a f0be
000000a0: 51a3 e43e 167c ac3e d6f3 c6bc 227a 59be
000000b0: 42c0 8abd 3bc4 983e 5b6e 95bd 9eee 723c
000000c0: 9395 d1be 84a4 b73d f733 973e 2159 43be
000000d0: 1316 7dbe b458 2f3e 6ff2 88bb 8bd9 bbbc
000000e0: 8cea cabc 1b7a 0abb ec13 5fbc f772 b0bc
000000f0: bb1d 2e3b 2f07 9c3b 00a4 073c ed6a 8a3c
00000100: a6f5 ba3c a105 ad3c bb7f f63c a8cd 213d
00000110: 72cb cc3c 4da2 9a3c e62b fd3c 8e8e e23c
00000120: 015f aebb 7587 9c3b 1ef5 ac3b 43d7 5fbb
00000130: e411 f53b aab3 81bb 5ffe 0dbc 2b21 86bb
00000140: 93a8 cbbb 2afb 2fbe 2531 b1be 2ca7 16be
00000150: 9b40 d93c c67f 623d 1ec1 7b3d aad3 213e
00000160: d40f 3c3e 6dbe e43d 5c4a 4dbe 95f0 a6be
00000170: 1ea6 59be b327 e73d b751 5b3e dcf2 d83d
00000180: 493c 5e3e d1ea 973e c10a 093e d930 8abe
00000190: 28ae bebe 8fc1 67be 0fd8 abbc 4a3c 003e
000001a0: 886d a23d 0707 1e3e 738d 833e f3d9 063e
000001b0: 5ea9 3e3d 3468 a8bd 794e 303e ad1d 00be
000001c0: 8734 c2be b36b e7bd 7d34 633e 0fb0 a9bc
000001d0: 8f8c 163e decd f03d a837 8abd 46b4 193e
000001e0: 0a42 9a3c 64b5 88be 1fb6 9fbc 48d5 823e
000001f0: 0e39 28bc 76cd 243e f4a1 983d 884f dcbd
00000200: bee1 7b3d 3942 c2bd 474a 9dbe 9de2 08be
00000210: e9ec 9f3c cd24 23be 0215 32bd 7b62 923d
00000220: e0cf d6bd 3f6c 0f3e c404 9fbd ce07 a7be
00000230: d821 10bd 7b32 283e 86b6 88bc a6bc af3d
00000240: 3e20 533d 9ae2 1bbe 9751 443d aebb 0bbe
00000250: f5f3 aebe 5e75 e4bd 6fff cd3c abae 95bd
00000260: 6983 5ebc ae3c 643d c231 aabd 6a11 933c
00000270: 38d5 36bd 3bee 13be b55b b1bc 4783 173d
00000280: 1010 c13c 0e64 b53c 431c 393e e7ae 373d
00000290: e859 893d d941 8d3e f9d0 eabd 1ddb c5bd
000002a0: 4d41 b83d ba1d 07bd d36c e6bd 6879 653d
000002b0: 70bc 93be 16ee cbbd 50b5 743c a028 f2be
000002c0: e515 6ebe 0178 51bd 6374 70be 1256 32be
000002d0: 8422 673b 6575 603d 1a9a 743d 5ea5 233e
000002e0: 664e 4c3e 2f49 703e a601 383e 52c5 863e
000002f0: 8f9b 3c3e c5b2 943b 8dcd 7dbd 3012 9e3c
00000300: b7bd 91bc be3e a3bd 2eaa 45bc 877a 5bbc
00000310: fad2 bcbd 11d3 f03b 50a1 9cbd 410f dfbd
00000320: 1074 82bd 2264 8abd 31e9 acbd 97c2 57bd
00000330: d766 44bd aba4 a8bd c234 68bc ad93 d53d
00000340: 5738 be3d d5a7 fe3d 334a bf3d db00 dc3d
00000350: 8137 0e3e ade2 fd3c 1849 d13c bc46 c43d
00000360: 03dc 433d 5190 e2bd 4f14 46bd d622 f73d
00000370: 932f 753d 69d5 8ab9 c115 df3d abf2 003e
00000380: 75e5 b23b f024 ecbc a2b6 0dbe 9c85 d9bd
00000390: 43f6 253d eb27 8b3b fc10 a3bd 3069 f63c
000003a0: 17ae 163d 260e bcbd 12e0 38bd 46d2 ebbd
000003b0: 4ddf 01be 984a 323d 6d11 2e3d 0903 b1bd
000003c0: 7d47 383d f44a 8c3d 3609 a2bd d595 a03e
000003d0: 74ee 913d 8a20 eb3c 762c 673e 74d4 ebbd
000003e0: 3d65 d2bd 4010 cd3d d10a 79be 53d3 89be
000003f0: 3f85 a63e b5eb d73d 79d3 d43c 4b93 2f3e
0.03877794 0.047218617 0.034477413 0.05090111 0.064411916 0.15202162 -0.05539354 -0.11377674
0.11275872 0.022710824 -0.00029470882 -0.047999844 -0.014571243 0.0062742624 0.026328523 -0.08800115
-0.11636694 0.023687946 0.005246 0.0025736229 -0.04139438 -0.018261071 0.015981661 0.0029590589
-0.03323487 -0.055481467 0.016845355 0.2676252 -0.39397115 -0.28455126 -0.052199632 0.19859105
-0.41903698 0.55047476 0.22775002 -0.24384156 -0.0070542023 -0.060932998 0.26042736 -0.46956548
0.4465585 0.3368842 -0.024286192 -0.21237996 -0.067749515 0.29837212 -0.07296439 0.014827399
-0.4093443 0.08966926 0.29531834 -0.19076969 -0.24715452 0.17123681 -0.004179291 -0.022930881
-0.024770044 -0.002112991 -0.01361559 -0.021539195 0.0026568014 0.0047615985 0.008278847 0.01689669
0.022822212 0.021120848 0.030090204 0.03950277 0.024999354 0.01887622 0.030904721 0.027655866
-0.005321384 0.00477689 0.0052782437 -0.0034155406 0.0074789394 -0.003958185 -0.008666604 -0.0040933094
-0.006215164 -0.17185655 -0.34607807 -0.14712209 0.026520064 0.055297635 0.061463468 0.158034
0.18365413 0.11169133 -0.20047897 -0.32605425 -0.21254775 0.11286869 0.2141789 0.10593197
0.21702684 0.29671338 0.13383009 -0.26990393 -0.37242246 -0.2263243 -0.020977048 0.12522998
0.07931048 0.15432368 0.25693855 0.13169079 0.04654824 -0.08223 0.17217435 -0.1251132
-0.379307 -0.11299839 0.22187991 -0.020713834 0.14702056 0.11758016 -0.06748897 0.15010175
0.018830318 -0.2670089 -0.019496022 0.25553346 -0.010267509 0.16094002 0.07452765 -0.10757357
0.06149458 -0.09485287 -0.30720732 -0.13367696 0.019522147 -0.15932007 -0.043477066 0.0714769
-0.10488868 0.14006136 -0.07764581 -0.32623142 -0.035188526 0.16425507 -0.016688596 0.08580904
0.05154442 -0.1522316 0.047929373 -0.13645813 -0.341705 -0.111551985 0.025146214 -0.07308706
-0.013581135 0.05572193 -0.08310272 0.01795264 -0.044636935 -0.14446346 -0.021650175 0.03699043
0.02356723 0.022142436 0.18077187 0.044844534 0.067066014 0.275893 -0.114656396 -0.09660933
0.0899683 -0.032987334 -0.11251225 0.056023985 -0.28854704 -0.09957521 0.014935806 -0.4729662
-0.2325054 -0.051139835 -0.23481898 -0.17415646 0.0035268376 0.054799456 0.059717275 0.15981051
0.19951782 0.23465417 0.17969379 0.26322418 0.18418716 0.0045379126 -0.061963607 0.019295782
-0.017790658 -0.079709515 -0.0120645 -0.013395912 -0.09219928 0.00734938 -0.076479554 -0.10891581
-0.063697934 -0.0675738 -0.08442915 -0.05267581 -0.04794964 -0.08234533 -0.014172735 0.104285575
0.0928809 0.12434355 0.09340324 0.10742351 0.1388836 0.030991876 0.02554755 0.09583804
0.04781724 -0.110626824 -0.04835921 0.12067191 0.059859823 -0.00026480414 0.10892821 0.1259257
0.0054594823 -0.028826207 -0.138392 -0.10621187 0.040518057 0.004246702 -0.07962224 0.030079454
0.03678712 -0.09182386 -0.045135565 -0.11514716 -0.12682839 0.04352817 0.042497087 -0.08643157
0.04499005 0.06850234 -0.07911913 0.31364313 0.071255594 0.02870204 0.22575554 -0.115151316
-0.10273216 0.10012865 -0.24320532 -0.2691904 0.32523534 0.105430044 0.025979744 0.17146032

module.bn1.weight f4 [64]
00000000: 15b8 8d3e f3da 443e 2abb c53d ba28 8a3e
00000010: de91 1d3f bcb0 313f cbb3 5c3e aaac 8f3e
00000020: b505 b63e 6623 833e 8f4a 8a36 04ed 6739
00000030: 1af8 b63e 476c b43d 3ddf 973e 40ee b53e
00000040: 444c 913e 0ca2 903e e5c2 503e 30b8 833e
00000050: 7c07 c33d 5f46 f03e cef7 093f 25e5 923e
00000060: 4722 6c3e 01ea 713e 1ce3 863e 7142 863e
00000070: d413 be3e 3137 bf39 11e0 963e 02f9 7a3e
00000080: 4054 523e 3f83 df3e 513f 703e d5fe 0c3c
00000090: 3826 b13e 7672 5e3e a401 4c3e 7d2b 853d
000000a0: 6c2c 933e 1e92 eb3e 53a3 f23e 164d 503e
000000b0: 7867 433e 7dc8 c33e ef41 923d 241b 483e
000000c0: 994e e43e 856b 933e 963c e53d 74b4 cc3e
000000d0: 5772 973e 3359 443e 36f7 763e 2c5b 113e
000000e0: 29af 5e3e b4e7 a43e e24b 9f3e 7e93 b33e
000000f0: 712e e03d aa6e 993e f45c b03e d1c1 783e
0.27679506 0.19224147 0.09654839 0.26984197 0.615507 0.694103 0.2155296 0.2806142
0.3555123 0.25612944 4.1214003e-06 0.00022118172 0.3573616 0.08809715 0.29662505 0.35533333
0.283785 0.28248632 0.20386846 0.2572646 0.09522912 0.4692869 0.53893745 0.28690448
0.23059951 0.23624422 0.26345146 0.26222566 0.37124503 0.0003647148 0.29467824 0.24509051
0.20539951 0.4365482 0.23461653 0.008605679 0.3459947 0.21723351 0.19922501 0.06502435
0.2874483 0.46009916 0.47390231 0.20341906 0.19082439 0.38238898 0.07141482 0.19541603
0.44591215 0.28792968 0.111931965 0.39981425 0.29579422 0.19174652 0.24117741 0.14194936
0.21746506 0.32208025 0.31112581 0.35073465 0.10946358 0.29967242 0.34445918 0.24292685

module.bn1.bias f4 [64]
00000000: 7b2c 93be a9b9 e43e e35f d3bd 0cc2 583e
00000010: 4ff6 01bf 1ecc 1cbf 6c4e 273e 0163 23be
00000020: 10e5 55be e838 8e3d 2501 69b7 6833 38ba
00000030: dcaa 67be 3b5e 1dbd fb45 2dbe ec39 993e
00000040: 58b0 783e 8fc7 9abe e70a a63d 0a1d 443e
00000050: a44a 29bd b4cb 7abe ae7a 95be f195 04be
00000060: 1794 15be d78a ffbd fec9 c43e 1e6c 673e
00000070: 0fc8 8a3e 083c 9dba 638e 80be b8bf a13d
00000080: 5e1d b53d 0510 51be 1825 853e ffc4 bebb
00000090: d109 b2be a628 1f3e a6d9 f63d db59 60bd
000000a0: e789 e0bb 6bad acbe 18a8 95be 5854 2fbe
000000b0: e6c8 28bd 7803 83be 1a12 a0bd 39e5 eabd
000000c0: 120a 91be 662c 163e 345e adbd 4b05 113e
000000d0: 64ca f43d 9430 dfbc 3810 4dbd 9e83 04be
000000e0: 5457 13be 66c3 5fbe dd3b 48bc eb47 77be
000000f0: ef77 c1bd 03ec 6c3d 4751 49be 686d 9d3d
-0.28744873 0.44672897 -0.10321023 0.21167773 -0.5076646 -0.6124896 0.1633851 -0.15955736
-0.20888162 0.06944448 -1.3888149e-05 -0.0007026703 -0.22623771 -0.038419943 -0.16921227 0.29927003
0.2428602 -0.30230376 0.08107548 0.19151703 -0.04133095 -0.24491769 -0.2919516 -0.12947823
-0.14607273 -0.124776535 0.38435358 0.22599837 0.27105758 -0.001199604 -0.25108632 0.078978956
0.08843492 -0.20416267 0.26004863 -0.0058218236 -0.34773114 0.1554285 0.12053232 -0.054773193
-0.0068523767 -0.33726057 -0.29229808 -0.17122018 -0.041207217 -0.25588584 -0.078159526 -0.11469502
-0.28327996 0.14665374 -0.084652334 0.14162175 0.119526654 -0.027244844 -0.050064296 -0.12940833
-0.14388782 -0.21851882 -0.012221304 -0.24148528 -0.09446704 0.057842266 -0.19659911 0.07686883

module.bn1.running_mean f4 [64]
00000000: 8e14 83bc 44ec 13bc 76a4 34bd 9ae6 a2bd
00000010: c31d 533e b0c9 a63e 60c9 533c ae73 123d
00000020: 1029 813d d1fc 0e3c 7017 17b7 57ed 4eba
00000030: b660 2bbe 4526 c5ba 69b1 933c 0095 783d
00000040: 1e04 54bd 1832 0cbe 7603 cf3c 84a2 d13d
00000050: 24f9 013d bad9 b13d d2df 723e 4c36 ef3d
00000060: 9721 8dbd 6df2 9e3d f788 2b3c 7bb0 27bd
00000070: 1b09 a9bd 05e7 deba b69b 04be dfeb 1c3c
00000080: 4e19 463e 29b3 353e 9434 98bc 4d22 edba
00000090: 6d7d 173d 60c7 513c 4aee 653d 2d11 983c
000000a0: 78c5 09bc 04ae aebc 8a11 d53d 1e8d 61bd
000000b0: 49d9 f438 6524 02bd 441d e9bc c080 01bd
000000c0: ccef 6c3e 35fe 973d b72a 593c 698e cabd
000000d0: 0fea b8bd 04f6 e0bd 94e1 35be fff2 c2bc
000000e0: e703 3c3d a0e9 11be ed27 743e 6a9b 6dbb
000000f0: 0122 fbbc 8189 223d 7862 913d 39e9 15bd
-0.016001012 -0.009028498 -0.044102155 -0.0795414 0.20616822 0.3257575 0.0129264295 0.035754852
0.0630666 0.008727268 -9.005758e-06 -0.0007893643 -0.16736111 -0.0015041312 0.018028932 0.060688972
-0.05176174 -0.13690984 0.025270205 0.102360755 0.03173174 0.08684106 0.23718193 0.11680278
-0.068911724 0.07761083 0.010469667 -0.04093979 -0.0825369 -0.0017006105 -0.12950024 0.00957772
0.1934559 0.17744125 -0.018579759 -0.0018091887 0.03698485 0.012803882 0.056135453 0.018562878
-0.008408897 -0.021323211 0.10403736 -0.05506622 0.00011675299 -0.03177299 -0.028456338 -0.031616926
0.2313835 0.07421533 0.013254813 -0.09890444 -0.09029018 -0.10984424 -0.17761832 -0.02379751
0.04590216 -0.14249277 0.23843355 -0.0036255964 -0.030655863 0.039681915 0.070988595 -0.03659937

module.bn1.running_var f4 [64]
00000000: aeff 013e 7233 243e fc93 123d 140c 7540
00000010: 10c8 ac3f a2fc fc3f d035 383f 7f2e 5e3e
00000020: df2a 0b3f 159a fc3f 7b6b 2c31 0fb7 4e37
00000030: a6b4 153f 8bd3 8e3c b32e c33e d955 393f
00000040: f699 2b3f fefb bf3e 800e 893e c031 7740
00000050: f5ed c33c 941e 893f 89f8 9e3f cfe2 8f3e
00000060: 7616 923e 77a3 8f3e 79e5 a53e 7240 ab3e
00000070: 638e 803f 1d8d 7738 a94c e93e 7373 8f3f
00000080: 010b 623f 991c 933f 331d 853e dbce e338
00000090: 5d9a 6a3e ad27 043f 9237 2d3f 881c 583c
000000a0: f501 6a3f 8f50 f73e 56d5 343f 3c9b b43d
000000b0: 1395 f83d 3e94 003f 54f1 823c 32e4 033e
000000c0: 1fe6 9e3f 518f 6c40 1af7 fa3c f597 c13f
000000d0: c794 6f40 9586 a23e 9d76 233f 68b9 213d
000000e0: eea4 333e e1f1 283f 9afc 953f b6fa b53e
000000f0: 4658 d53c d7b0 d63f f891 7b3e 78cb 583f
0.1269519 0.1603525 0.03578566 3.8288622 1.3498554 1.9764597 0.7195711 0.21697424
0.5436229 1.9734522 2.509039e-09 1.23211785e-05 0.5847877 0.017434856 0.38121566 0.7239662
0.670318 0.37496942 0.26768875 3.8624115 0.023917178 1.0712457 1.2419597 0.2810273
0.2853276 0.280544 0.32401636 0.33447605 1.0043453 5.902081e-05 0.455663 1.1207107
0.8829804 1.1493102 0.2599884 0.00010862733 0.22910447 0.5162304 0.6766292 0.013190396
0.91409236 0.4830365 0.70638025 0.08818671 0.12137809 0.502262 0.015984215 0.12880018
1.2413977 3.6962473 0.030635405 1.5124499 3.7434556 0.31743303 0.63852865 0.039483458
0.17543384 0.6599408 1.1717713 0.3554284 0.026043069 1.6772717 0.24567401 0.8468547

module.layer1.0.conv1.weight f4 [16, 64, 3, 3]
00000000: aea3 99bc 3ca5 623c 6fa8 8d3c 5f94 a73c
00000010: 7268 1f3c d7ca 013c ab50 9a3c b573 2d3c
00000020: e4b5 143c 3ad8 c4bc 374e a3bc 2a02 33bc
00000030: cdc6 f43b 090f a83c 97ae 9f3d 59a5 00bc
00000040: 059c 023d 574d c3bd 05ca f13b 90ab 673b
00000050: 8e77 dd3a 0b73 c53a cce8 8c3b f80e 163c
00000060: ad67 213c 07d3 3b3c eb23 163c 52df dfbc
00000070: 4b78 12bd 33ea 3cbd b0c7 293d 328a 9c3d
00000080: 06da 873c 345c 5d3d 9b6f 3c3d e47b 1dbd
00000090: 1d50 96bc 3318 15bd 63d9 eabc 4ea6 a3bd
000000a0: 8947 69bd 8bdf 7ebd 7870 febd 7460 37bd
000000b0: f4e1 763c ad90 643d eb0f 943c 9ad9 d9b9
000000c0: 32c1 283d 1237 30bc 4534 4abd efda 6dbd
000000d0: 9ba6 5dbd 90bf 1ebd 0d70 c23d cadd 42bc
000000e0: 28f4 97bd 0ac3 2dbd 5f1c d6bd ce0f 98bd
000000f0: 2229 4bbd 3114 a2bd ab2b a43b f480 21bd
00000100: 03db ecbc 068c 0ebd 59d1 61bb daa3 58b9
00000110: 8ae0 94bb 2559 1f3c bcb7 a73c 9084 ad3c
00000120: 1621 60bd cd6a 61bd e361 4fbc 9f23 15bd
00000130: 75ae a6bd 5823 2ebd 7ec5 673b 5290 4abd
00000140: 376d 02bd 0d8e 2dbd b7fd d0bd 3ac0 a6bd
00000150: 241a dabd ef25 9fbd 46c8 d4bb 58b9 16bd
00000160: 66f6 27bd cac6 a53c 9052 18b6 c392 a7b3
00000170: d584 8c35 e547 21b5 fb40 6f35 e2a7 06b5
00000180: 76aa ad35 b8db 9db4 97d1 81b5 8d99 3037
00000190: e8b4 4038 de3f 5538 db97 2237 0838 e437
000001a0: 01a8 e7b6 ec68 1cb8 2f5c 34b8 3410 91b8
000001b0: f91b 5dbc 7d54 30bd 4dc9 a2bd 2cd5 f13b
000001c0: f067 64bc c99e 69bc 7c03 903c b392 203d
000001d0: ae22 913d c139 32bc 4480 29bc aa57 02bc
000001e0: dd7e 893a 3f5b 8b3a b1f7 80bb d41b 413c
000001f0: 2df9 253c d72f 993b 25ea 87bd 7863 9abd
00000200: 9d3f 67bd b4c7 48bd 1eb0 20bd 9489 f9bb
00000210: 55b4 723c d5ec 453b 3da5 0d3c e509 103e
00000220: afe1 2f3e 3225 703d 41b9 e73d 8aec 183e
00000230: 3a15 b0bd 0435 c93c bd00 c8bd 757c 48be
00000240: 1212 d4bc 2c18 14bd 15a1 38bd f83b f4bd
00000250: 03c3 84bd f44c 25bc 18cd 55bd c0c1 7a3d
00000260: 9d9b 4f3e 6155 e23c ad45 823c 0e3b 9a3c
00000270: 77ca a9bb 9d3a 253c b298 103d a2cc db3c
00000280: 5ef1 0b3d 9a99 d03c ed1b d03c 9b41 4e3d
00000290: f187 4c3d 67ed 0cbd 414a 84bc 7f7f 913b
000002a0: 5d92 96bc efd1 9fbc aa7e 07bc 5bec 023c
000002b0: bd94 ab3c 37fd a4ba 2f69 243d 3f05 813d
000002c0: 9b24 34bd 7cef 1d3d 241a 983c fe0f 04bd
000002d0: 1964 033b 9630 f13a be26 113b 9542 d53b
000002e0: 2440 133c 22d4 ee3b 98a9 bb39 a37d a43b
000002f0: a4d4 033c 92af 143c e50a f03c edda 123c
00000300: f122 8bbc e815 88bc 9e1f 713c b033 bd3c
00000310: 7c32 acbc 105b 04bd a775 cc3d 4630 8e3d
00000320: 561c 42bd 7d1b 3e3b c51c 16bd dba0 9ebd
00000330: bcaa 03be d7c8 05be 78ed ebbd ec02 043d
00000340: c378 033d 8442 bd3c 5ca8 7b3c c9ee 143c
00000350: fc2b e8bb 589a a1bc c0c0 aabc 4d21 0fbd
00000360: c341 27bd f295 73bc 7853 873c aeff fabb
00000370: 25b7 213b 36c1 f53b c1de b3bc b4a4 a7bc
00000380: 9470 8abc 0100 38bd 6614 0fbd 4af6 f5bc
00000390: 8ed7 afbc e918 b4bb 1234 38bc f940 44bc
000003a0: f24c 4dbc e9ab 3abc 9384 5ebd 20a7 c8bd
000003b0: f673 7fbd 2757 7dbe 6aea 0bbe e9c7 283c
000003c0: b9c8 aebc a709 613d ded3 473e 4118 83bd
000003d0: d16d 05be 0ce4 cabd cb82 e2bd 0ec0 27bd
000003e0: 04d8 863d 5aca b5bd 1723 793d 4c8f 883d
000003f0: ef94 03be c200 bfbc c262 c53d f00b 143d
-0.018754806 0.01383334 0.01729223 0.020456491 0.009729492 0.007921896 0.018837294 0.010586669
0.009076569 -0.024028886 -0.019934757 -0.010925809 0.007469988 0.020514982 0.07796972 -0.007851922
0.031887073 -0.09536236 0.007378819 0.0035350062 0.0016896592 0.0015064193 0.0043002125 0.009158842
0.009851378 0.011463887 0.009163837 -0.027328167 -0.03575925 -0.046121787 0.041450202 0.07643546
0.016583454 0.05404301 0.046004873 -0.03844823 -0.018348748 -0.03640003 -0.028668111 -0.079907045
-0.056952987 -0.062224906 -0.124237955 -0.04476972 0.01506852 0.055802036 0.018073997 -0.0004155159
0.04119987 -0.010755317 -0.049366254 -0.05807012 -0.054113965 -0.038756907 0.09494028 -0.011893699
-0.07419616 -0.042422332 -0.1045463 -0.074248895 -0.049599774 -0.079140075 0.0050100884 -0.03942962
-0.028913027 -0.034801506 -0.0034457056 -0.00020660405 -0.0045433687 0.009725844 0.020473354 0.021181375
-0.054719053 -0.055033494 -0.012657615 -0.036410924 -0.08138744 -0.042514175 0.0035365517 -0.04945404
-0.031842437 -0.0423718 -0.10204642 -0.08142133 -0.10649517 -0.07770907 -0.006493601 -0.03679785
-0.04100647 0.020236392 -2.2697823e-06 -7.803239e-08 1.0469472e-06 -6.0081794e-07 8.9129e-07 -5.016319e-07
1.2939115e-06 -2.9403395e-07 -9.672248e-07 1.0526169e-05 4.594485e-05 5.084264e-05 9.691309e-06 2.720581e-05
-6.9038947e-06 -3.7291014e-05 -4.3001197e-05 -6.917157e-05 -0.013495439 -0.043049324 -0.07948551 0.0073801484
-0.013940796 -0.014259049 0.017579786 0.039202403 0.07086693 -0.010878027 -0.010345522 -0.007955471
0.0010490079 0.0010632052 -0.003935777 0.01178642 0.010130209 0.0046748924 -0.066364564 -0.075385034
-0.05645715 -0.049018577 -0.03923046 -0.0076152775 0.014813502 0.0030200977 0.008645353 0.14066274
0.17175935 0.058629222 0.11314631 0.14933982 -0.08597799 0.024561413 -0.09765766 -0.19578727
-0.025887523 -0.036155865 -0.045075495 -0.11925501 -0.06482508 -0.010089148 -0.052197546 0.06121993
0.20274206 0.027628602 0.015902365 0.018826988 -0.0051816064 0.010084775 0.03530187 0.026830975
0.034165733 0.025463868 0.025403941 0.050355535 0.04993433 -0.034406092 -0.016148688 0.0044402475
-0.018380338 -0.019509284 -0.008269945 0.007990922 0.020944947 -0.0012587671 0.040139373 0.06299829
-0.043980222 0.03855847 0.018567152 -0.032241814 0.0020048677 0.001840132 0.0022148336 0.0065081813
0.00898746 0.007288472 0.00035793777 0.00501986 0.008046303 0.009075062 0.02930207 0.008963329
-0.016984435 -0.016612008 0.014717011 0.023095936 -0.021020167 -0.032313406 0.09983378 0.06942801
-0.047390305 0.0029008084 -0.03664853 -0.077455245 -0.12858099 -0.13064896 -0.11519903 0.03222935
0.03209759 0.023103006 0.015359964 0.009090134 -0.0070853215 -0.019726917 -0.020843863 -0.034943867
-0.0408342 -0.014867293 0.016519293 -0.007659874 0.0024675813 0.007499839 -0.021956803 -0.020464279
-0.016899385 -0.04492188 -0.034931563 -0.030024666 -0.02146509 -0.0054961336 -0.011242883 -0.011978381
-0.012530552 -0.011393526 -0.05432565 -0.097975016 -0.06236645 -0.24740277 -0.1366364 0.010301569
-0.021335946 0.054940846 0.19514415 -0.064011104 -0.13030173 -0.09906778 -0.11060103 -0.040954642
0.065841705 -0.08876486 0.06082448 0.06667957 -0.12849782 -0.023315791 0.09637977 0.036144197

module.layer1.0.bn1.weight f4 [16]
00000000: e31a fa3e f342 123f c633 013f 4bd1 283f
00000010: 64d1 033f e514 073f 6051 d33e 000a 3d3f
00000020: 4b38 f03e 97bd 103f 5439 1d3f 36cc ea3e
00000030: 1857 db3e 6183 bb3e 997f f93e a76f f83e
0.48848638 0.57133406 0.50469625 0.65944356 0.5149138 0.5276626 0.41273022 0.73843384
0.46917948 0.5653929 0.614156 0.45858926 0.42839885 0.36623672 0.48730162 0.48522684

module.layer1.0.bn1.bias f4 [16]
00000000: 2d33 57be 7446 e83e f9a1 76be bcf9 023e
00000010: 8498 653e 711c 9c3e e1c4 9c3e 1ea3 35bf
00000020: cd1e 88be eefd c0be 4ffa 553e f0bd 83be
00000030: c1a6 14be e6e2 18bd 28db 5dbe d0b4 92be
-0.21015616 0.4536625 -0.24085225 0.12790579 0.22421461 0.3049045 0.30618957 -0.7095202
-0.26586 -0.37693733 0.20896266 -0.25730848 -0.14516737 -0.037325762 -0.21665633 -0.28653574

module.layer1.0.bn1.running_mean f4 [16]
00000000: fb63 abbe 34b4 89be b69d 41be bc54 e9be
00000010: 5d9d 3cbf 6717 ed3d 1022 c1be c56e a53e
00000020: 61a9 0ebf 7e63 79be 6c03 1abf 15ea b1be
00000030: c55d c9be 3603 72be 5e6c 0bbf 6c15 a0be
-0.33474717 -0.26895297 -0.18907818 -0.4557246 -0.7367762 0.11576729 -0.377213 0.32311073
-0.557272 -0.2435436 -0.6016147 -0.34748903 -0.39329353 -0.23634037 -0.5446223 -0.31266344

module.layer1.0.bn1.running_var f4 [16]
00000000: cdc4 7e3e e6a2 553e 4203 0b3e b8ee c53e
00000010: 5d05 183f a4f2 843e 4d78 a63e dacf 563e
00000020: 4e4f f73d 47df d63d 7a79 813e eb24 143e
00000030: 58fd 1e3e 6d0f d53d f6ce 483e f187 3b3e
0.24879761 0.20862922 0.13575462 0.3865869 0.59383184 0.2596637 0.32513657 0.20977727
0.12075673 0.104918055 0.25287992 0.14467208 0.1552633 0.10403333 0.196102 0.18313576

module.layer1.0.conv2.weight f4 [16, 16, 3, 3]
00000000: 445f 5c3d 42d4 643d ab4c 913a bdbd fc3c
00000010: 45fc 5cbd ac60 5dbc 704d 6dbd fed2 c3bd
00000020: d39c 3cbd 250d 2cbe 8877 dabd 5847 36bd
00000030: c450 39bc f13d 88ba bd03 babd 632f 4c3e
00000040: 22c5 873e 30db c83d b6f9 a5bd 988e 9ebb
00000050: a508 e2bd 5ffc 043d d1f4 b63c 5b07 17bd
00000060: cee0 3bbd ea6d 8d3d eefd e73d d45a 27bd
00000070: e91e e63c 3279 f43d b303 923d 7b76 013d
00000080: 0ee4 7d3e a056 63bd 420c 183d d079 6a3e
00000090: 9de6 e0bd d531 2a3d a5a3 853d 9cac 7fbc
000000a0: 0271 ba3c 6e25 ad3d 8b0d 983d 3e19 17bd
000000b0: 2ee0 443d ed34 b73e be9f b53d d4d9 52be
000000c0: f08e c23e afca 243d 4bb5 acbe dee2 813d
000000d0: 3479 adbc 68fb 80be ab6c 863c 3450 6d3d
000000e0: 257e 6cbc 969b 27b9 c401 153d 0bae 513d
000000f0: 095d 50bd 271b 15bd c8dc dbbd df32 44bc
00000100: 8e22 733b b641 b9bc a42f 51bb c21a d73c
00000110: 9203 8f3c e37f 6bbd c335 02bc 1a71 22bd
00000120: f8aa 1d3d 8ea8 14bc 5d70 f9bd c845 51bc
00000130: 1c89 593c 3fa5 6abd a268 f1bd c4dd 743c
00000140: 6571 e33d 5f62 88bd a3d4 b4bc e122 a93d
00000150: c533 abbd 49f0 7ebc bf42 893d 0b11 ffbd
00000160: 8887 c83c 7278 fb3d 9f00 8fbd 6df5 163d
00000170: ea83 d53c fda6 12bd 5276 7b3d 03dc 0a3d
00000180: b38f fdbd 888c 9b3c 20fb e23d 69bc 09bd
00000190: 2e5d b2bc 6d80 333d 68a3 873c f58a a93c
000001a0: c43e 3c3d e8c2 0cbc de4c e93c 4673 803d
000001b0: cd87 283d d02c 27bc 0cfe 95bd a9c2 45bd
000001c0: 1d34 693c 2d10 233c 745e 92bd f24c f8bd
000001d0: 1e45 b3bd a40b 48be 8063 153e e703 d33e
000001e0: 7766 91be f221 d13b d4f9 a73e 627c 9dbe
000001f0: 84bc 2bbe cb6e cd3c edaa 11bd 6554 a2bc
00000200: 6615 8ebd ae0b 183e f996 39bc 4aaa 8cbd
00000210: 43b6 0c3e 20b7 363b 036e 13be f57f e23d
00000220: 2b8e 9b3d dee9 7abc 8770 efbc 5932 c2bb
00000230: 4e55 a13b 82ca 15be 868e 64bd aba3 a83c
00000240: f892 3f3d fb46 e1bc 3e28 8abd be58 a93d
00000250: 408c 983c d6de 83bc eb4b 5d3d 74e1 143d
00000260: 9aea 713d 7af5 03bc 4a8a 67bd cf1e 58bd
00000270: 4fa3 9cba b40a 40bd b249 45bd 57b6 8a3c
00000280: e971 823c 4fb2 80bd 5c61 b23c d39c fe3d
00000290: 2d88 933d 9d1f c33c d609 2a3d e20b 3f3d
000002a0: 917b ba3d 2db7 df3d deee f63d 8ab0 23bd
000002b0: dc3e 81bd a37a 8a3a b678 e0bd 3ad7 75bd
000002c0: 7fe1 a43b 74ff 57bd cfdd 0fbd 03a5 cf3c
000002d0: eb29 c73d b15d 543d 152f 3e3c 53ab 42bd
000002e0: 45ea 11bd 4ec4 2e3d 7e15 32be 83f2 d0bd
000002f0: 5b1e 933d 820a b1bb 9d40 21bd efcb 51bb
00000300: 5cb6 823d 2aa9 8ebc cfee d5bd 3b72 033d
00000310: 9c5f 06be 17c8 66bd 2581 5cbd 2a83 41bd
00000320: f4e2 ff3d d3f3 47bc 0e24 f3bc bd38 f63d
00000330: 4c1a d8bd a8af 843b 632e 2f3e b9de 0b3c
00000340: 9bda 5dbd 8fab 89bd 8fb1 2c3d 98aa ba3b
00000350: b0e9 733b bceb ecbc 9b1c a8bc faa0 42bd
00000360: 0e0c 58be f68e edbd d2d0 cd3c 69ea bfbd
00000370: 67a2 ad3c d82c ae3d 281e 223d a0b1 133d
00000380: 938c cd3d 19b1 283d 5a20 c73c 08a0 483d
00000390: 8e98 d1ba 46de e13c d199 973d 9e55 e43d
000003a0: b6d8 cb3d e049 053e 9ace 943c 9cb7 c73c
000003b0: e0f6 a6bb efa2 c93d 12eb c73c 2426 fbbc
000003c0: a2bb 293d 3084 893d 6ed2 84bd 6219 4abd
000003d0: bb1f 26be 52fd 61be 547d 29bc 5158 b63c
000003e0: dc2e 7cbd c03c a8bd 6f3d e63b ca11 06bd
000003f0: d0f9 52bd 3e70 8b3c 9244 453d ba7b 0dbe
0.05380179 0.055866487 0.0011085471 0.030852193 -0.05395152 -0.013511818 -0.05793518 -0.09561728
-0.046047997 -0.16801889 -0.1066733 -0.044501632 -0.01131076 -0.0010394437 -0.09082744 0.19939952
0.26517588 0.09807432 -0.08104269 -0.004838776 -0.11036805 0.032467242 0.022333534 -0.03687225
-0.045868687 0.0690573 0.1132773 -0.040858105 0.028090911 0.11937179 0.07129612 0.031607132
0.24794027 -0.055502534 0.037121065 0.2289803 -0.10981486 0.04155143 0.06525353 -0.015605118
0.022758964 0.08454405 0.07424458 -0.036889307 0.048065357 0.35782567 0.08868359 -0.20590907
0.37999678 0.040232357 -0.33732066 0.063420996 -0.021175958 -0.25191808 0.016409239 0.057937816
-0.014434372 -0.00015984321 0.036378637 0.05119137 -0.050869975 -0.036402848 -0.1073547 -0.011975019
0.0037099454 -0.022614341 -0.0031919265 0.026257876 0.017457757 -0.05749501 -0.007947388 -0.039658643
0.038493127 -0.00907339 -0.12179635 -0.012772985 0.013277318 -0.057286497 -0.11787535 0.014945451
0.11105613 -0.06659388 -0.02207405 0.08258606 -0.08359484 -0.015560218 0.06702184 -0.124544226
0.024478689 0.122788325 -0.0698254 0.03685515 0.026063878 -0.035803784 0.061392136 0.033901226
-0.12380924 0.018987909 0.110830545 -0.033626948 -0.021772947 0.04382365 0.01655741 0.020696143
0.045958295 -0.008591391 0.028479036 0.06271987 0.041145135 -0.010203555 -0.07323846 -0.048281346
0.014233616 0.009952587 -0.07146922 -0.12124051 -0.087534174 -0.1953569 0.14588737 0.41213915
-0.28398487 0.0063822204 0.3280779 -0.3075896 -0.16771132 0.025077244 -0.0355634 -0.019815633
-0.06937675 0.14848205 -0.011327499 -0.068684176 0.13741402 0.0027880147 -0.14397435 0.11059562
0.07595476 -0.015314547 -0.029228462 -0.005926412 0.004923499 -0.14628032 -0.055799983 0.020585855
0.04677102 -0.027499666 -0.06745957 0.08268879 0.018621564 -0.016097467 0.05402748 0.03634782
0.059061624 -0.008054132 -0.056528367 -0.052763756 -0.0011950525 -0.046885207 -0.048165984 0.01693265
0.015923457 -0.0628401 0.02177494 0.124322556 0.07203708 0.023818785 0.041513287 0.04664219
0.091056 0.1092361 0.12057279 -0.039963283 -0.063108176 0.0010565113 -0.10960524 -0.06001971
0.005031764 -0.052733853 -0.035123643 0.025347238 0.09724792 0.051847164 0.011607905 -0.04752667
-0.035623807 0.04266768 -0.17391011 -0.102025054 0.07183524 -0.005402864 -0.03936826 -0.0032012423
0.063824385 -0.017414648 -0.1044594 0.03209136 -0.1312241 -0.056343164 -0.0538341 -0.04724423
0.1249446 -0.012204128 -0.029680278 0.12022541 -0.10551891 0.00404926 0.17107539 0.008536988
-0.054163557 -0.06722175 0.04216152 0.005696606 0.0037218146 -0.028921 -0.020521453 -0.0475168
-0.21098348 -0.11599533 0.025123987 -0.09370882 0.021195604 0.08504647 0.03957954 0.03605807
0.10036578 0.04118452 0.024307419 0.048980743 -0.0015990899 0.027571809 0.07402385 0.11149143
0.09953444 0.13016462 0.018164922 0.024379544 -0.0050953478 0.0984553 0.024404082 -0.030657835
0.041438706 0.06714666 -0.06485449 -0.049340613 -0.16223042 -0.2206929 -0.010344822 0.02225891
-0.061568126 -0.08214712 0.0070263664 -0.03273181 -0.05150777 0.017021295 0.048161097 -0.13816729

module.layer1.0.bn2.weight f4 [16]
00000000: 1cf8 153f 9602 973e d638 5f3f a18f ca3e
00000010: 056a 593f 2e07 183f 257d 0d3f d4dd 4b3f
00000020: 595d 6f3f 77aa ae3e bcad 513f 0446 963e
00000030: 4724 693f 4bd3 9a3e b3cb 643f 2b17 213f
0.5858171 0.2949416 0.871961 0.39562705 0.849274 0.59385955 0.5526908 0.7963536
0.9350181 0.3411443 0.8190572 0.29350293 0.9107098 0.3023933 0.8937332 0.62925977

module.layer1.0.bn2.bias f4 [16]
00000000: b4a7 6dbe 13e8 843d ae53 26bc df83 323d
00000010: 52dd 4abd d8e9 e4bd 7dd3 95bd e60d 9cbd
00000020: c9d8 58bd 61b3 6c3e cbd5 39bd 529c 5f3e
00000030: de26 f5bc 14dd 823e 4631 2dbd b5a4 17bd
-0.23208505 0.06489577 -0.010151787 0.043582793 -0.049527474 -0.11177415 -0.07315729 -0.076198384
-0.052941117 0.23115303 -0.045369904 0.21836975 -0.02992576 0.25559294 -0.04228332 -0.03702231

module.layer1.0.bn2.running_mean f4 [16]
00000000: 276c 9d3e bfeb 9ebe 7e7e 95bd 0d8d c23e
00000010: 47c8 debd 0a25 e5bc 4b60 b03e dc42 f4bd
00000020: 7dcb debc 89c6 ddbe e9c8 2d3e 66d9 2ebf
00000030: 4bea eebc c93a 8e3e cc7f 6f3d 6002 9ebe
0.30746576 -0.31039235 -0.07299517 0.37998238 -0.108780436 -0.027971763 0.34448466 -0.11926815
-0.02719664 -0.43315533 0.16971172 -0.68300474 -0.029164454 0.27779225 0.058471486 -0.30861187

module.layer1.0.bn2.running_var f4 [16]
00000000: 4b00 e43d 7535 da3d 2783 443f b5cb ed3d
00000010: 40d4 0a3f 037d d83d 1b7c 6e3e f525 d53e
00000020: 6bac 033f b8a0 173e f8da fd3e f21d 1d3e
00000030: 15ce 493f c99b 093e 0c25 133f 82ff 633e
0.111328684 0.10654727 0.7676262 0.1161112 0.5423012 0.10570719 0.2328953 0.4163052
0.51434964 0.14807403 0.49581122 0.15343454 0.7883008 0.13438334 0.57478404 0.22265437

module.layer1.0.shortcut.0.weight f4 [16, 64, 1, 1]
00000000: b1be 90bd cff0 783d aae3 73bc 1d0b c8bd
00000010: adf1 d23d c61f 33bd 9269 9abe 195b dd3c
00000020: 71ae f7bd 0776 51bc 5e64 97b5 9f9e 1839
00000030: 4a79 cebc 6397 83bc 5578 2ebe d5f9 ddbc
00000040: eb80 5d3c b84e bdbd 21bc 36be 646d 8ebd
00000050: e595 433c b955 783d f6d5 ccbd 57cb c03c
00000060: 1151 01be 3aa4 50bd 42b1 3fbd 2441 3e3d
00000070: f9c3 96bd e8d8 e4ba a1c8 19be 633c 9cbc
00000080: 6410 b23d ec4a e0bd 79c8 5f3c db65 123b
00000090: 9a71 eebd 0041 a3be fca1 59be 9e25 fbbb
000000a0: 5c18 84bd 9c49 0c3e 7697 a63c d9e1 1cbd
000000b0: 0a55 c0bd 3d8f 53be a8a2 0ebd 7442 b7bd
000000c0: 0676 0d3d 19e7 b6bd a69a 46bd 1510 343d
000000d0: 7715 78bd c726 27be abf7 56be a8e0 4dbc
000000e0: 3bf8 a9bd 9189 11be 378e 943a 7af7 25be
000000f0: 856a cfbc 17de 1dbb 6d24 b23d 297b 813e
00000100: ff6e 54bd 74cd 043c 2a6d 27bc ca7a 1d3e
00000110: 93dd cebd 44d3 5dbd 4b95 f1bc c510 1fbd
00000120: f07a 50bc 260f 933d 1c55 89b5 1dea 6bb9
00000130: 5596 3cbe e649 98bb e76d 37be f9ae 5cbd
00000140: e1b0 13bb fc07 0fbd 15e2 10be b0f0 e03d
00000150: c1d0 97bc 9d92 a83d 68d1 473d 8910 8b3d
00000160: c21b 8cbc 77b7 bcbd b969 97bc 6e97 913d
00000170: ad37 363c 2746 8238 2456 b0bd 2493 1d3e
00000180: 649f 90be 3c32 523d 7d51 4dbd d41b 28bb
00000190: 72d9 77be 59b4 afbc f072 01bf 7bd1 db3b
000001a0: e836 87bc d3d7 03bd 47af b43d 9544 75bd
000001b0: 88e9 893b 82c2 143e 212c f9bc dbe2 8f3b
000001c0: 3d17 3ebe ea85 54bb db4b 0abd ff02 143d
000001d0: 8ddd e83d 3ea0 e4bd 3580 283e a066 debc
000001e0: 6bca 89bd 26c2 2d3e a995 c5be 8155 24be
000001f0: 8efa 5cbd 608e 45bd 50a7 17bd a5b7 37bd
00000200: 3c6e da3d 22dc 4fbd a0d2 a1bb 54c1 d13d
00000210: 0f5b 133c 19c2 f73c b718 283c b2e4 4b3d
00000220: 18fd 123c 339f 143d 2678 a436 779b 0e38
00000230: ae57 2fbd a199 bf3b 28f2 b43d 0205 a13d
00000240: ba73 05bd 0bb5 e2bc d623 0dbd d9a4 3f3e
00000250: ad48 dbbc f430 3e3e d7bb d9b8 b20c 3ebd
00000260: de39 b13d 5565 503d 992c 223e d5d3 12be
00000270: 3a08 5ebe 701d a1b6 4b67 d83d 5411 52bb
00000280: aff7 283c 3e13 c93d b05c 25bd 9a4a ebb9
00000290: 141d e53d 2c32 a1bd e7bf d8ba 7b34 ecbc
000002a0: 80b0 ec3c 9030 403d 1e05 9bbd dde6 19bc
000002b0: c7ff 413d 2fe4 153e 59e2 2f3c dd5a 823d
000002c0: 3776 8dbb ae79 5a3b 2d15 653d de3d 89be
000002d0: 50bb c2bc e66e 853c aef0 11bd 0e43 aebb
000002e0: 0f32 5a3d 4403 69bd 7d09 5b3c d6e9 663d
000002f0: 7e9b 5c3c 10e9 70bb 477b ab3c 8c6c 52bd
00000300: 5928 03bc 76c1 0f3d ba46 293d 0467 253d
00000310: 95a9 903c 1cd2 36bd cb5d 713e 8639 62bd
00000320: 365c 66bb e7b2 8a3c 1e36 cd36 3c70 7139
00000330: b05a a83e 6ddb 923c 2b2f 023d 1e31 2c3e
00000340: a882 f8bb e90c 063e a2b0 413e de13 e337
00000350: 6110 b9bb b7f7 8c3c f2a2 a63d 3d1e 4c3d
00000360: 0bfb e03c aa35 8abc 6244 9e3b f69f aa3d
00000370: 392c 453d 0645 1d3a 8d93 263d bd06 2f3e
00000380: b5e4 eebd 88f4 08bd 5386 8b3d 14be 40b9
00000390: 4753 ba3d 6b84 b23e 30c9 3a3e 1e92 003c
000003a0: e8aa 913c be48 b3bc 319e 25bb b83e a03d
000003b0: 1ea4 8c3b bf75 763d dc7f 543c 3cb1 013c
000003c0: 91e6 cc3c 1fda 273e 66a5 aabc d797 c63c
000003d0: bf64 0c3e cf70 443e 23f5 783e 51c3 aa3c
000003e0: 4caa 3cbb b34f 143e a741 533e a9d5 823d
000003f0: 76c4 653c f85d 88bd 070a 38bd 1b0c 583d
-0.070676215 0.060776528 -0.014885822 -0.09767745 0.10300002 -0.043731473 -0.3015867 0.027020978
-0.12093819 -0.012784488 -1.1279587e-06 0.0001455494 -0.02520432 -0.016063398 -0.1703809 -0.027096668
0.013519506 -0.0924353 -0.17845203 -0.06954458 0.011937593 0.060628626 -0.10001747 0.02353446
-0.1262858 -0.05093787 -0.046799906 0.04644884 -0.073615976 -0.0017459663 -0.1501794 -0.019071763
0.086945325 -0.1095179 0.013658636 0.0022338543 -0.116427615 -0.3188553 -0.21253198 -0.0076643964
-0.06449959 0.13699955 0.020335894 -0.038301323 -0.0939122 -0.2066011 -0.03482309 -0.08948222
0.034536384 -0.08930797 -0.048487328 0.04396065 -0.060567345 -0.16323386 -0.20992915 -0.012565769
-0.08299299 -0.14212634 0.0011333887 -0.16207686 -0.025319347 -0.0024088675 0.08698354 0.25289276
-0.051863667 0.0081056245 -0.010218898 0.15378872 -0.10100856 -0.054156557 -0.029490134 -0.038834352
-0.012724623 0.07180624 -1.0232066e-06 -0.0002249856 -0.18416722 -0.0046474813 -0.17913018 -0.053877804
-0.0022535848 -0.034919724 -0.14148743 0.109834075 -0.018532159 0.08231089 0.04878369 0.06790263
-0.01710308 -0.09214681 -0.01848303 0.07108961 0.011121673 6.21195e-05 -0.0861018 0.15388161
-0.28246605 0.05131744 -0.05012654 -0.0025651352 -0.24204043 -0.021448301 -0.50566006 0.0067083216
-0.016505674 -0.032188248 0.08822494 -0.059879858 0.0042087473 0.14527324 -0.03041655 0.004391057
-0.18563552 -0.0032428452 -0.033763748 0.03613567 0.113703825 -0.11163376 0.16455157 -0.027148545
-0.06728061 0.16968593 -0.38590744 -0.16048242 -0.053949885 -0.048231483 -0.037024796 -0.04485287
0.10665557 -0.050747044 -0.0049384385 0.102419525 0.008993878 0.03024392 0.010259799 0.049778648
0.008971475 0.036284637 4.901568e-06 3.4000226e-05 -0.042808227 0.0058471714 0.0883525 0.07862283
-0.03258107 -0.027674219 -0.034458004 0.18715228 -0.026768053 0.18573362 -0.00010382354 -0.046398826
0.086536154 0.050877888 0.15837325 -0.1433862 -0.21682826 -4.801601e-06 0.105665766 -0.0032053785
0.010312959 0.09818123 -0.040371597 -0.00044878275 0.11187187 -0.07870898 -0.0016536684 -0.028833618
0.028892756 0.046921313 -0.075693354 -0.009393421 0.04736307 0.14637826 0.010735118 0.06364987
-0.004317071 0.0033336687 0.055928398 -0.26805013 -0.023770958 0.016288232 -0.03562992 -0.005318052
0.053270396 -0.05688788 0.013368961 0.056375347 0.013464807 -0.003676001 0.020932807 -0.05137305
-0.008005225 0.035096608 0.041327216 0.040381446 0.017658988 -0.04463397 0.23570935 -0.05523064
-0.0035150177 0.01693101 6.115776e-06 0.00023025362 0.3288169 0.017926896 0.031783264 0.16815612
-0.007583935 0.13090862 0.18915036 2.706976e-05 -0.0056477045 0.017207963 0.08136548 0.049833525
0.027463457 -0.016871292 0.004829929 0.083312914 0.048137877 0.000599936 0.04066806 0.17092414
-0.11664716 -0.03343633 0.0681273 -0.00018381356 0.09097915 0.34866652 0.1824081 0.007847337
0.01778169 -0.021885272 -0.0025271291 0.07824463 0.004292025 0.060170885 0.012969937 0.007915791
0.025012286 0.163918 -0.020830821 0.024242325 0.13710307 0.19183658 0.24312262 0.020845087
-0.0028788028 0.14483528 0.20630513 0.06388409 0.014023891 -0.06658548 -0.044931438 0.05274592

module.layer1.0.shortcut.1.weight f4 [16]
00000000: d3cf 203f 9118 013f a710 073e f898 b93e
00000010: 33cf 313e ec48 033f 0f27 f13e 14b2 603e
00000020: 7a05 843d 5c3c e53e ef74 393e d212 033f
00000030: c4d5 ce3d 8075 153f dbce c33d aff4 b83e
0.62817115 0.5042811 0.13189946 0.36249518 0.17364196 0.51283145 0.47100112 0.21942931
0.06446357 0.44772613 0.18111013 0.5120059 0.10099366 0.58382416 0.09560939 0.3612418

module.layer1.0.shortcut.1.bias f4 [16]
00000000: b4a7 6dbe 13e8 843d ae53 26bc df83 323d
00000010: 52dd 4abd d8e9 e4bd 7dd3 95bd e60d 9cbd
00000020: c9d8 58bd 61b3 6c3e cbd5 39bd 529c 5f3e
00000030: de26 f5bc 14dd 823e 4631 2dbd b5a4 17bd
-0.23208505 0.06489577 -0.010151787 0.043582793 -0.049527474 -0.11177415 -0.07315729 -0.076198384
-0.052941117 0.23115303 -0.045369904 0.21836975 -0.02992576 0.25559294 -0.04228332 -0.03702231

module.layer1.0.shortcut.1.running_mean f4 [16]
00000000: 0007 95be 116c fdbd 4226 c8bc 6103 f13e
00000010: 7d4e 64bd 3367 7a3e b612 b73c cb21 07bd
00000020: 8b04 00be 05f6 b1be 5cd8 84be c037 efbe
00000030: 248d 31bd 999c 8abe 90e7 debd 0c42 5ebe
-0.29106903 -0.12374128 -0.024432305 0.4707289 -0.055738915 0.2445343 0.02234779 -0.03299121
-0.12501733 -0.3475801 -0.2594632 -0.4672222 -0.043347493 -0.270726 -0.10884011 -0.21704882

module.layer1.0.shortcut.1.running_var f4 [16]
00000000: bd34 4b3d 56b6 473d 0fec 203d 84e8 1e3d
00000010: 9664 3b3d 0a08 ca3c cd9b a33d 4336 1e3d
00000020: f5b0 ff3b 3450 8a3d 7e37 0d3d 57c6 cb3d
00000030: 318a b13c 7900 f03d c182 893c 0c37 893d
0.049610842 0.048757873 0.039287623 0.038795963 0.045750223 0.024662036 0.07988701 0.038625967
0.0078030773 0.06753579 0.03447675 0.0994994 0.02167234 0.1171884 0.016785981 0.066999525

module.layer2.0.conv1.weight f4 [32, 16, 3, 3]
00000000: 37de 6ebd fb58 3dbd 7a5f e4bd 9c04 dabc
00000010: aa68 08bd bcaa b3bd 6614 3e3d efe7 a73b
00000020: 8d0d 8cbd 93e7 083e 4d66 153e 0b27 6a3d
00000030: 9ec2 8e3c af7d 5e3d d16c b53d 4579 67bd
00000040: ea54 4d3d ae21 153e b871 95bd e5dc f5bd
00000050: f14f e73c b050 eebd 8f51 29be 3e48 343d
00000060: fe1f 82bd 4172 f6bd b2ee 133c e548 f1bd
00000070: 413d 7abd 1e9f 053b f981 7fbd 84f1 ebbc
00000080: 206c ce3a b55a e5bc e4a2 5939 62a7 493c
00000090: 1b71 683d 803f e13b 8869 f2bd 0c7a 773d
000000a0: f27c 2e3d 2b64 a23c 5692 ce3d cfe6 4b3d
000000b0: 74b1 e43d 12a9 8ebc 6e00 8f3c 83be c0bc
000000c0: 66f1 34bc a6e8 223c 6f66 52bd c865 ae3c
000000d0: 9985 eb3b 43ff dbbd d242 3f3c 922d 5b3d
000000e0: 00dc 173e a0c1 02bd 78f0 393d c238 163d
000000f0: 418d c5bd b519 f3bd 351c 08be 9f64 ed3d
00000100: e7e3 aa3d 85ef 07be be63 723c cda1 b53d
00000110: 20db 02be df59 983c 3147 e73c 20f8 36be
00000120: b22a a3bb 1040 f2bc fbc9 cebc 695b 76bd
00000130: 70f1 06be 14d7 b8bd b45f b9bd 4f51 ffbd
00000140: ea76 18be b9fb 783d 6329 023c cbe9 b1bd
00000150: 311f 1cbd 3e5d 72bd ca4c 13be 94e5 abbd
00000160: f153 7abd 1df9 c0bd 8f8f b0bd cae1 2ebd
00000170: e6f7 c43d 1192 b9bd 1e50 71be 4b13 1fbd
00000180: fd6d de3d e570 c8bd 5e37 00be b175 cb3c
00000190: 1eaa a5bc 9bfa 823d 3576 f4bc 2722 e4bd
000001a0: 3684 3fbd 6819 57bd c3d4 f5bd 81f7 1cbd
000001b0: c0a7 a7bc f64e 88bc 88bd 83bd 9b21 6dbd
000001c0: ecb4 f8bd 521a cebd b8ca 32ba 8a8c 0e3a
000001d0: f998 003d 97fa c43d d3b4 90bd 7b10 6abe
000001e0: 0a76 bc3d cb2e 92bd dd2d 8bbe 04a1 203e
000001f0: d062 ed3c 91ec 86be 59ee 8b3d 7116 ca3d
00000200: 17fa db3d ecf4 bf3d 9ea1 6a3e 12d3 023e
00000210: b11b 963d e0c7 723e 9ab3 183e 5ecc d4bd
00000220: 0d4f 41be bfec 56bc 6acd 5a3d 4a7d 31bd
00000230: 24d5 a8bc b375 bf3d 5912 0b3e 21ff 7fbc
00000240: d559 2bbd 2ff8 29bd bffc 01be fa43 9b3c
00000250: a904 ebbc 538a 17be d810 933d f959 063d
00000260: 25a4 d1bd 0bf0 b3bc 84f0 10bc 5f36 fdbd
00000270: 901e b83c b59d b2ba 19a9 61bd 20e6 c03c
00000280: 6c4a 00bd 5e25 5cbd 87ab 89be 8bf4 ddbe
00000290: c2b9 66be aff3 14bf 4cdb 0cbf b9ab 99be
000002a0: 5640 95be 6b1b b3be 2f0f 42be ad15 b9bd
000002b0: 382b 8fbc 0e7d 99bb 4a34 aebd c917 90bd
000002c0: a3bb babc 3e8a a4bd b7ad 3bbd 5fd7 9dbc
000002d0: 99b1 03be a051 a4bd 3bb1 073c 3462 dfbc
000002e0: b35f 9e3d cd01 b63d aa34 a23d e024 5c3e
000002f0: 8a1e ff3d e856 333a 56b5 d3bc c737 f83c
00000300: cf51 9fbd 5f3e fbbd 017c 9fbd a900 7dbc
00000310: b936 4fbd 083a a93c dc9b 32bc b044 00be
00000320: 3c50 41bd e4bf bcbd 5aef ecbc ea22 703d
00000330: a772 9bbc bcd9 7b3d 158d 1f3e 3432 1dbd
00000340: 9ec5 73be 7e49 c1bd 84d9 29be 9696 78be
00000350: 168d eabd f672 03be 42c1 2cbe 97ee fcbc
00000360: a788 893c c492 053e ca7d 253e 7ee8 0a3c
00000370: 3d8b 313e dd8e 843e a1af 183d 4e55 213e
00000380: 8ebe 623e 51f4 ca3d 0f89 3e3e f757 ef3d
00000390: fdb2 1e3d 9f18 0f3e 8da9 4d3d cdcc fdbd
000003a0: 20b0 9abd d619 f0bd 9bdd 203e e2aa ba3d
000003b0: fa37 863d 129e ec3c 5b54 7a3d f052 f43d
000003c0: c162 49bc 658a c03c bf91 9e3d 11cc 823d
000003d0: 5a0c 473d 3eca f4bd e8fb 2b3d b345 c43d
000003e0: 6a86 37bd e867 54bd 66a0 9c3d 994d 80bd
000003f0: 683b 8bbd 5b6b 70bc b6a3 953d 2077 9abd
-0.05831739 -0.046227437 -0.11151023 -0.026613526 -0.03330294 -0.087727994 0.046406172 0.005124084
-0.06838522 0.13369589 0.14589806 0.05716614 0.017426785 0.05431908 0.08858646 -0.056512136
0.05012981 0.14563629 -0.07297081 -0.12005023 0.028236361 -0.11636484 -0.16535018 0.044014208
-0.06353758 -0.12033511 0.009029077 -0.11781482 -0.061093573 0.002038903 -0.06237981 -0.028801687
0.0015748776 -0.027997354 0.00020755414 0.012307974 0.05674849 0.006874025 -0.11836535 0.060419127
0.042599626 0.019823154 0.10086505 0.049780663 0.11166659 -0.017414603 0.01745626 -0.023528343
-0.011043882 0.009943163 -0.05136722 0.021288767 0.007187557 -0.10742047 0.011673646 0.053510256
0.14830017 -0.031922936 0.045395344 0.036675222 -0.09646083 -0.118701376 -0.1329201 0.115914576
0.0834425 -0.13274963 0.014794288 0.08868752 -0.12778902 0.018597541 0.028232189 -0.1786809
-0.004979455 -0.029571563 -0.025242796 -0.06014577 -0.13178039 -0.09025398 -0.09051457 -0.1246668
-0.14889112 0.060786936 0.007944438 -0.086871706 -0.038115684 -0.059170954 -0.14384761 -0.08393398
-0.06111521 -0.094225146 -0.08621132 -0.042695798 0.096175954 -0.09061063 -0.23565719 -0.03883676
0.10860822 -0.09787158 -0.12521121 0.024836393 -0.02022272 0.063954554 -0.029841522 -0.111393265
-0.046756946 -0.052514464 -0.12003472 -0.038321976 -0.020465732 -0.016639214 -0.064326346 -0.057893377
-0.12143883 -0.10063614 -0.00068203686 0.0005437812 0.031395886 0.09618109 -0.070657395 -0.2285785
0.09202202 -0.07137831 -0.27183428 0.15686423 0.028977782 -0.2635236 0.068325706 0.098675616
0.1074106 0.09372887 0.22913215 0.1277583 0.073295005 0.23709059 0.14912263 -0.103905424
-0.18877812 -0.013117968 0.053418554 -0.043332376 -0.020609446 0.09348621 0.13581218 -0.015624792
-0.041833717 -0.041496452 -0.12694071 0.018953312 -0.028688746 -0.1479886 0.07180947 0.03280065
-0.10236386 -0.021965047 -0.008846406 -0.12363886 0.02247551 -0.0013627323 -0.055092905 0.023547232
-0.031320974 -0.053746574 -0.26888677 -0.43350634 -0.22531798 -0.5818433 -0.5502212 -0.30013826
-0.29150647 -0.34981856 -0.18951105 -0.090373375 -0.017476663 -0.004684097 -0.08506067 -0.07035787
-0.02279455 -0.0803418 -0.045819964 -0.019267736 -0.12860717 -0.08023381 0.008282001 -0.027268507
0.07733097 0.08887062 0.07920201 0.21498442 0.12456997 0.0006841258 -0.025843304 0.030300034
-0.077792756 -0.12267756 -0.07787324 -0.015442052 -0.050589297 0.020657554 -0.010901418 -0.12526202
-0.047195658 -0.09216288 -0.028922725 0.058627047 -0.018975569 0.061486945 0.15581162 -0.038377956
-0.23805854 -0.09437846 -0.16586882 -0.24276194 -0.11452691 -0.12836823 -0.16870597 -0.030875487
0.016788794 0.13044268 0.16161266 0.008478282 0.17338271 0.25890246 0.037276868 0.15755197
0.22143003 0.09909881 0.18606971 0.116867 0.038744915 0.13974236 0.050210524 -0.12392578
-0.075531244 -0.11723678 0.15709536 0.091146246 0.065536454 0.028883968 0.061115604 0.119298816
-0.012291611 0.023503492 0.077426426 0.06386579 0.048595764 -0.11952637 0.041988283 0.095836066
-0.04480592 -0.051856905 0.07647781 -0.062648006 -0.0679844 -0.014674033 0.07306616 -0.075422525

module.layer2.0.bn1.weight f4 [32]
00000000: f2b4 f83e a23b 053f c57b 013f aa8d 0e3f
00000010: 4902 e13e 1a85 393f e6a3 f43e a4d3 043f
00000020: 3cb5 ef3e 1ca5 0a3f 604d df3e 3e8e 093f
00000030: 6e3f a53e fc3b 023f dc90 053f 4278 233f
00000040: 9d4b 233f 471d e93e ed33 1d3f 6647 dd3e
00000050: 274e 313f cb84 d83e 472c e63e 0aa2 0a3f
00000060: 82a5 e43e bc32 183f 2922 f63e 71b5 fe3e
00000070: 70da f13e b675 c73e a36b 2d3f bade 0c3f
0.4857555 0.5204412 0.5057948 0.5568491 0.43947056 0.7246872 0.47781295 0.5188544
0.46817958 0.54158187 0.4361372 0.5373267 0.32274956 0.5087278 0.5217416 0.63855374
0.6378725 0.4553015 0.6140736 0.43218535 0.69259876 0.42288813 0.44955656 0.541535
0.44657522 0.59452415 0.48072937 0.49747804 0.47236967 0.38956994 0.67742366 0.55027354

module.layer2.0.bn1.bias f4 [32]
00000000: 2f74 8bbb 6fde e83d 4daa 79be 9165 75be
00000010: 271c c3bd 1b94 a4be 5a21 523e bb2d 023e
00000020: 64bc 4a3e a2e6 f2bd cf9b 18be c0be 81be
00000030: f25c 873e 2cb8 61be 0322 e3bc 7e7c 4bbe
00000040: 7eed f7bc d3eb 10bd de59 9bbd 3a10 88bd
00000050: e3bd 27be 6a39 25be 0f3f f4bd 9592 8fbd
00000060: 267d adbd 55f6 62be d29b 31be 28c9 0dbd
00000070: 5f10 bfbd 48c5 c83d 7c4a ebbd 6074 4dbe
-0.0042557935 0.11370551 -0.24381371 -0.23964526 -0.09526854 -0.32144246 0.20520535 0.12712757
0.19798428 -0.11860396 -0.14903186 -0.25340843 0.264381 -0.22042912 -0.027726179 -0.19871709
-0.030264612 -0.03538115 -0.075855 -0.0664372 -0.1638103 -0.16135183 -0.1192609 -0.0701038
-0.08471136 -0.2216428 -0.17344597 -0.034615666 -0.093292944 0.098032534 -0.11488816 -0.20063925

module.layer2.0.bn1.running_mean f4 [32]
00000000: 43ea 83bf 72a3 01bf 1842 89be e25c 21bf
00000010: b20b babe 475f 29bd 3fb6 3cbf e2af bdbe
00000020: 5ebf 5abf cc32 17be 8baf 1f3f f0eb 3dbf
00000030: fd4c 0b3f f9f5 673f 28d9 0bbf bd1c 37bf
00000040: afb8 69bf 7c35 c3bd 75ad 60bf 6d3e 2fbf
00000050: 50cc afbf 8466 853e 14c3 953f b3d7 c5be
00000060: 8bc5 44be 76f5 e9bf ab90 6ebe 11f7 4e3f
00000070: baa8 2cbf 8127 8bbe 3ca8 71bf 8e3d 33bf
-1.0305866 -0.5064002 -0.26808238 -0.6303235 -0.36337048 -0.04135063 -0.73715585 -0.3704825
-0.85448253 -0.14765471 0.6237723 -0.7418814 0.5441435 0.906097 -0.5462823 -0.71528226
-0.9129743 -0.09531686 -0.87764674 -0.6845463 -1.3734226 0.26054776 1.1700158 -0.38641128
-0.19215982 -1.8278034 -0.23297374 0.80845743 -0.67444956 -0.27178577 -0.9439733 -0.700158

module.layer2.0.bn1.running_var f4 [32]
00000000: 5e7b 003f 94fe 853f f3a8 143f d754 143f
00000010: f602 033f ff1f 263f 1dfc 5b3f 4fc2 7d3f
00000020: 7738 7d3f 579e 193f 6827 eb3e d299 1a3f
00000030: 084e 313f f3df 083f 230e 1e3f c26b 633f
00000040: 9279 3f3f 78a6 563f 40b6 483f 534d 1a3f
00000050: 16db 793f 7f7d 083f 9fc3 1a3f 35f3 443f
00000060: 80a3 1b3f ec0e 0f3f 4f89 0e3f d1b6 8d3f
00000070: ac70 043f efa9 2e3f 8268 903f 0832 313f
0.50188243 1.0468316 0.58070296 0.57941955 0.51176393 0.6489257 0.8593157 0.99124616
0.98914284 0.6000723 0.45928502 0.6039096 0.6925969 0.5346672 0.6174032 0.888363
0.74794877 0.8384776 0.7840309 0.6027424 0.97599924 0.5331649 0.60454744 0.76933604
0.60796356 0.55882144 0.55678266 1.1071416 0.51734424 0.6822805 1.1281893 0.69216967
