results/P8rx/cifar10/kd/resnet8_best.pth.tar (torch_old, 371448 bytes, 52 tensors)

module.conv1.weight f4 [64, 3, 3, 3]
00000000: 0770 ca3c 5672 403d e1ca 8b3d 4740 9e3c
00000010: 5266 263b 9722 923d 36c4 94bd 9e5c 09be
00000020: 47aa d4bc a281 9fbd 49ec 02bd 9602 163d
00000030: 4ca1 2ebd 3d8d 18bd 28cf 543d fedf 98bd
00000040: d64f fcbd e557 abbc 55fa 92bc 5e00 1a3d
00000050: cbbd a43d bb0e 1dbb e7be 173b c2c3 6f3d
00000060: dd12 48bd fadc c5bd 0610 febc e4fc 18be
00000070: 017c 6bbd f774 143d fa25 94bd 315a 4b3d
00000080: 353c ac3d e7b4 b13c d603 c03d 7831 933d
00000090: 6795 06be b8f4 96bd f272 183c 7fab b3bd
000000a0: 6aaf a43c 9456 843d 79ed b6bc b29e 423d
000000b0: a90f 563d 7fb3 71bd 3a26 07bd 8a7d 953b
000000c0: a46e 62bd 8936 d43c 097f 6a3d bb20 d23a
000000d0: ab13 583d 4652 7c3d a2cd 59bb a73c 50bb
000000e0: db8b 5a3b 1adf bf3b 9709 253d 7a3c aa3c
000000f0: a3ec 6cbd df8b debc 95f3 a1bc 0d63 51bc
00000100: 4bc8 63bc d23f 6abc e4ba 9f3c de05 503d
00000110: 7576 5d3c 9ae6 4fbd 0973 0abd 9efb 29bd
00000120: 9c54 363d f8c5 453d 1c46 893d 50ff bf3d
00000130: 5fb9 fa3d 435c bb3d e303 8c3c 9906 d13c
00000140: 5846 7e3c e47c ccbd b472 19be 9b45 43bd
00000150: 71b4 bfbb 31ca 64bc f7dc 993c 6cab 9d3d
00000160: e101 fc3d db21 af3d 493e 0e3c a258 ffbc
00000170: a4d5 163d e7d6 903c 1964 40bc ad3a 8b3c
00000180: a721 cabc 5ff2 adbc 262a 56bc affb 7f3d
00000190: 8bee 393d 7268 983d 998b dc3c 1eb7 773a
000001a0: a6c3 383c 294b cbbd 170c efbd 42ff b7bd
000001b0: dc83 0e3e 26bc fbbd f1e7 063e 6584 99bd
000001c0: 2bfc 85be 6145 13bd 9bb6 383d 0904 03bd
000001d0: 9b70 853d b9b4 063e 7043 f7bd 86ea d93d
000001e0: 88d2 51bc dcae 3ebe 6c0c 7b3c c358 983d
000001f0: 8981 f0ba 15d6 a43d d298 e73d 38e5 00be
00000200: e757 883d 1238 94bd 8c15 6cbe c574 93bd
00000210: 7bb7 35bb 1fe0 7bbd b1b6 6bbc 4276 963c
00000220: c091 0f3d f5c2 7a3b 6c2c 0e3d f81f 173d
00000230: da13 faba afee 123d c428 3a3c fe68 c8bc
00000240: 3c4b 0a3d 88ae 153d 5aee ce39 f3bc 623d
00000250: 54fc 493d c627 41ba 0dfc 743d 3015 1b3d
00000260: c320 fdbb 7c8b 1cbc 6862 f2bb 40f5 82bd
00000270: ea8f 76bc a698 e1bc 39e0 c0bd 1a11 0abd
00000280: 7d90 89bd 105b f4bd b858 f6bd 8681 a7bd
00000290: 0bbf 243d 6ff5 e03c c878 d8bc 910c 423d
000002a0: a6fc a33d 6b48 beba 64c7 043c c384 bfbd
000002b0: 8a40 bfbd 2f53 af3c c5f9 473d 8203 30bd
000002c0: 5736 b43c 3123 903d a69b 09bd 359a e4bc
000002d0: 0354 93bb e4b2 5abc ec30 a93d b909 ae3d
000002e0: bb74 503c c4c3 7b3d e66f a33d 8c67 05bb
000002f0: 93c1 5e3a 9a90 4e3e 9839 5c3e 362a 003e
00000300: 3a67 9d3d b815 b03c 695c c3bd b24b cebd
00000310: d6bf 4cbe b6ba 6cbe 79d7 c0ba aab8 30bd
00000320: 4796 c6bc 0667 003c f375 953c 81c3 f6bc
00000330: 51f0 c53c 2fc4 083d e465 e43b 9d43 84be
00000340: 8c24 5ebe 022a b3bd bac2 1abe 872d d33c
00000350: 1988 bc3d b107 8c3d d205 613e 84e8 793e
00000360: b4a5 babd 3307 d6bd 349a d0bd 5175 f3bb
00000370: 8ec8 e9bb 421a b63c 58c2 a93d d1b0 803d
00000380: 62c5 303d c53a 8ebd e041 98bd f393 a2bd
00000390: 2ee7 a4bb 27e9 433c 33ab 0e3d 6fd7 943d
000003a0: 3933 823d 0d7e 2d3d 44aa febc dc6d 24bd
000003b0: 483d 15bd 03f6 4a3c 0c9a b83c f3e0 723d
000003c0: 2bbf 863d a595 3e3d 4330 433d edcc 8d3d
000003d0: ea57 0b3d 4629 01bd 669d b03d 177b d63c
000003e0: 202e babd 1b33 103d 04c8 6dbc e034 89bd
000003f0: d5c5 cd3d c689 2ebb b7df c2bd 63d8 0b3e
0.024711622 0.04698404 0.068258055 0.01931776 0.0025390578 0.07135504 -0.07263987 -0.13414237
-0.0259601 -0.07788397 -0.03196362 0.03662356 -0.042634293 -0.03724407 0.051955372 -0.07464598
-0.12319915 -0.020915935 -0.017941633 0.037598006 0.08044013 -0.002396508 0.0023154558 0.0585363
-0.048846114 -0.096612886 -0.0310135 -0.1494022 -0.057491306 0.03624436 -0.07233806 0.04964656
0.08409921 0.021692706 0.09375732 0.0718717 -0.1314293 -0.07370895 0.009304749 -0.08772945
0.020103175 0.06461826 -0.022330033 0.047514625 0.05226103 -0.05900907 -0.03299544 0.0045620846
-0.055281296 0.02590491 0.057250056 0.0016031483 0.05275313 0.0616019 -0.003323414 -0.0031774433
0.003334752 0.005855453 0.04029235 0.02078079 -0.05784286 -0.027166305 -0.01976947 -0.012779963
-0.013902734 -0.0142974425 0.019498296 0.050786845 0.013517012 -0.05075703 -0.033801112 -0.041499726
0.044514284 0.0482845 0.067028254 0.09374869 0.12242388 0.09148457 0.017091697 0.025515841
0.015519701 -0.099847585 -0.14985162 -0.047673803 -0.0058503677 -0.013964222 0.018782122 0.07698712
0.12305046 0.08551379 0.008681842 -0.031170193 0.036824837 0.017680598 -0.011742615 0.016995752
-0.02467425 -0.021233736 -0.013071572 0.062495884 0.045393508 0.07441796 0.026922034 0.0009449589
0.011277115 -0.09926445 -0.11672228 -0.089842334 0.13917488 -0.12291746 0.13174416 -0.074959554
-0.2616895 -0.035954837 0.04509602 -0.03198627 0.065156184 0.13154878 -0.120734096 0.10640435
-0.012806542 -0.18621391 0.015322786 0.07438805 -0.0018349151 0.080486454 0.11308445 -0.1258744
0.06657391 -0.07237257 -0.23055094 -0.072000064 -0.002772777 -0.061493035 -0.014386819 0.018366937
0.035051107 0.0038263176 0.034710333 0.036895722 -0.0019079403 0.035872158 0.011362258 -0.024464127
0.033763155 0.0365434 0.00039468968 0.055355977 0.049312904 -0.00073682924 0.059810687 0.037862003
-0.0077248528 -0.00955474 -0.007396985 -0.06394434 -0.01504896 -0.027538609 -0.09417767 -0.033707716
-0.06717012 -0.11931431 -0.120286405 -0.081790015 0.040221255 0.027460782 -0.02642478 0.047375266
0.08007173 -0.0014517432 0.008104179 -0.09351494 -0.09338482 0.02140197 0.048822183 -0.042972095
0.021998568 0.07037962 -0.033595704 -0.027905563 -0.004496099 -0.013348315 0.08261284 0.08497948
0.012723143 0.061465994 0.07980327 -0.0020355908 0.0008497473 0.20172349 0.21506345 0.12516102
0.076857045 0.021494731 -0.0953911 -0.100730315 -0.19995055 -0.231181 -0.0014712653 -0.04314486
-0.02424158 0.007837063 0.01824472 -0.03012252 0.024162443 0.03339022 0.006970154 -0.25832835
-0.21693629 -0.08748247 -0.15113345 0.025778545 0.09205646 0.068374045 0.21974877 0.24405104
-0.091136366 -0.10450592 -0.10185662 -0.0074297567 -0.0071345037 0.022229318 0.08289021 0.06283725
0.04315699 -0.06944803 -0.0743444 -0.07938375 -0.0050324416 0.011957443 0.034831237 0.07267653
0.06357426 0.04235654 -0.031087048 -0.040143833 -0.036435395 0.012387755 0.022534393 0.05929656
0.06579431 0.04652943 0.047653448 0.06923852 0.03401939 -0.031533502 0.08623771 0.02618174
-0.09090829 0.035204988 -0.0145130195 -0.06699538 0.10047499 -0.0026632412 -0.095153265 0.13656764

module.bn1.weight f4 [64]
00000000: b742 823e 8dd9 073e 986a 573e 9631 ad3d
00000010: 0355 003f 1cef 1f3e 09b6 f73d 47b1 483e
00000020: b9bd 693e a1f9 253e 342d 8a3d 6bfa 173e
00000030: 39af 0b3e 711f 443e 2cc6 dc3d 6d9c a23e
00000040: b196 013e 3792 bd3d 6f8d 293e 6c11 0b3e
00000050: 7ef1 e13d 2a19 933e 57c6 163c 8b32 6f3e
00000060: dc4b 583e 101b 563e 4920 a43e 4aad 8e3e
00000070: 3ebf 9f3d 2b32 1f3e d547 4d3e 7396 363e
00000080: 6b68 e73d 52b3 0a3e 3afe 5d3e 3912 8e3e
00000090: 1644 903e 3ed3 c73d 71bb 093e 03ed 1e3e
000000a0: aac4 813e 3040 3c3e e06a a93e 81a6 203e
000000b0: d6ec 323e ffac 253e f237 cf3d a107 603e
000000c0: 982d b03d 4caf 4c3e 192c 5b3e bef4 743e
000000d0: afa1 5f3e 58eb 013e 71f8 ca3e 1798 943e
000000e0: dcf4 213e f2cf 963e 7c99 3c3e 32b4 483e
000000f0: e6a0 263e c6cf 133e e48a 723e 2413 3b3e
0.25441524 0.13266583 0.21036756 0.084567234 0.5012972 0.15618557 0.12095267 0.19598876
0.2282628 0.16208507 0.06746903 0.1484162 0.13641061 0.19152619 0.10779986 0.31759968
0.1265514 0.09256404 0.16557859 0.13580865 0.11032389 0.28730136 0.009202561 0.23359124
0.21122688 0.20908761 0.32055882 0.27866584 0.078001484 0.15546481 0.20046933 0.1783083
0.11299213 0.13544968 0.21679011 0.27748278 0.28176945 0.09757088 0.1345041 0.155201
0.25345355 0.1838386 0.33089352 0.15688516 0.17473158 0.16179274 0.101180926 0.2187791
0.08602446 0.19988745 0.2140354 0.23921487 0.21839021 0.12687433 0.3964267 0.29022285
0.15816063 0.29455525 0.18417925 0.19599989 0.16272315 0.14434728 0.23685795 0.1826902

module.bn1.bias f4 [64]
00000000: 14ac dbbd 2681 0f3d ba17 0ebe 8e3f 993c
00000010: 96e8 d3be 07b7 41be 2976 4abd 60b4 86bc
00000020: aa58 dfbd 50e1 ae3d dacb 5ebd 7f08 8d3d
00000030: ed5d c63d 8299 173e 7d5c a6bd b331 36be
00000040: 5695 a73d 8468 5cbd ab7d 513d d62d 0ebd
00000050: 5803 483d 454c 383e dcc5 febc b3a2 b9bd
00000060: b647 68be 9f47 e2bd 668d ca3e ead3 cf3d
00000070: 4dba d0bc e00c 25bd 6fc7 fe3b 6874 c33d
00000080: 6e38 8c3d 0660 933d 6ff4 8e3e d04d 28be
00000090: 75fa 433d 688e 013d 056c d7bd f958 0a3b
000000a0: 121b 273e d272 b8bd 8e7b 273e 14a9 433e
000000b0: f11f 1d3e c9d6 723d 4bca a9bd 96ba 733d
000000c0: f8ed 9abd 99af 003e c038 28bc d3e6 1c3e
000000d0: e820 06be 9d46 41bc f0d3 9dbe 4863 873c
000000e0: 1d92 473b ac53 11be 5bb6 763d 3b00 39bd
000000f0: 5ab2 6ebd 8a90 fd3d 62fa c6bd 5538 b9bd
-0.10726181 0.035035275 -0.13876238 0.018707063 -0.41388386 -0.18917476 -0.049429093 -0.016443431
-0.10905583 0.08539069 -0.054393627 0.06886386 0.09685884 0.14804652 -0.081231095 -0.17792396
0.081827804 -0.05381061 0.051145237 -0.03471168 0.048831314 0.17997845 -0.031100206 -0.090642355
-0.22683606 -0.11048817 0.39561003 0.10147841 -0.02547946 -0.04029548 0.007775239 0.09543687
0.068467006 0.071960494 0.27920863 -0.16435933 0.047846276 0.03162995 -0.1051865 0.002111016
0.1631892 -0.09006275 0.16355726 0.19107467 0.15344216 0.059286866 -0.082905374 0.059504114
-0.0756492 0.12566985 -0.0102674365 0.15322427 -0.1309849 -0.011796621 -0.30825758 0.016526833
0.003045208 -0.14192075 0.0602325 -0.045166235 -0.058275558 0.12381084 -0.097157255 -0.090439476

module.bn1.running_mean f4 [64]
00000000: 4464 d53d 9f61 eebb 8631 f4bd b74f 1b3d
00000010: f4f2 3e3e 56b6 f6bb f36f febc 9085 2d3c
00000020: 2e2a 65bc 1909 7fbc c966 35bd fbfe 053b
00000030: 13fc 10bd 1323 7ebb 517b 8dbd 5465 293d
00000040: 3495 61bc 6b98 e1bc 85d2 8bbd c9eb 75ba
00000050: b99c ddbc dea8 9e3c 66e1 06bd 2733 97ba
00000060: b83a 193d 92b8 bfbd 6519 293d f730 45bd
00000070: 9af8 71bd ebea aa3d 51df 193c 9cc7 de3b
00000080: 7556 a7bc 543c b0b8 855e 2abd 210a ba3d
00000090: 1aa8 34bc 584d 1a3d ae13 aabd 63ed 953b
000000a0: 578e 6bbd d767 9c3d fe75 82bd ff22 1b3c
000000b0: 733e ea3c d16f fb3c e86c 123d 7266 9fbc
000000c0: 54d0 9fbc 36c2 c63c 553f f73c 8c46 f43a
000000d0: 02cc df3c 4baf 09be 6ab0 1d3e 8c89 333c
000000e0: d071 9f3c ab38 3f3e ae08 f53d 1c2d 4dbd
000000f0: 04ac 2a3d 3e4c bcbc d44a 723d 1261 973d
0.10419515 -0.007274821 -0.11923508 0.03791782 0.18647367 -0.0075290604 -0.03105924 0.010590926
-0.013987107 -0.015566134 -0.044287477 0.002044617 -0.035396647 -0.003877823 -0.06908286 0.0413564
-0.013768483 -0.027538499 -0.06827263 -0.0009381143 -0.02705227 0.019367632 -0.0329298 -0.001153563
0.037409514 -0.09361376 0.041283984 -0.0481424 -0.059074976 0.08345588 0.009391622 0.0067986976
-0.020426968 -8.403571e-05 -0.041594047 0.09083963 -0.011026407 0.037671417 -0.08304535 0.004575418
-0.057508793 0.076369934 -0.063701615 0.009468793 0.028594231 0.030692967 0.035748392 -0.01945803
-0.019508518 0.024262529 0.030181566 0.0018636747 0.027318958 -0.13445775 0.15399328 0.010958087
0.01946345 0.18673961 0.11964546 -0.050091848 0.041667953 -0.022985574 0.059153393 0.073915616

module.bn1.running_var f4 [64]
00000000: e81a cf3e 9819 bf3e 1413 b23e e9de 373d
00000010: 84c5 573f 5c85 e13d 6f80 063e f0ea 963d
00000020: 1609 a63e 43ff 163f f258 093d 6b31 f63e
00000030: 77a4 163f f503 533f 5652 d73d 36d6 a73e
00000040: f651 0e3e 352b be3c 0a56 c13e cf04 363d
00000050: fb19 143e 5d16 f53e aecd c13c f854 9e3e
00000060: db4b ff3d 74e1 473e dbd1 8f3e eeba 013f
00000070: 78b8 8d3d d694 413e 7de2 633e 3b85 283f
00000080: bc3c f63d daab a93e 1771 e73d 5f53 d43e
00000090: d5a6 033f c86d bc3d 5ddd 2c3e 077e 003e
000000a0: 6749 e63f c948 0d3e cef9 1d3f 4fef 2c3d
000000b0: c160 1b3e ede1 4d3e 4431 143d 962f 243e
000000c0: 428d 773c 9159 1e3f 827b 323f f44e 983f
000000d0: 4f08 383e ac7f aa3e 4e8d 183f 58a3 0b3e
000000e0: 5563 4a3e 6272 203f 757a 8a3e ef13 a03d
000000f0: 2b9d b53d 1522 4e3e fa82 913e 66b7 543e
0.40450215 0.37324214 0.3478018 0.044890318 0.8428576 0.110117644 0.13134931 0.073690295
0.32428807 0.5898325 0.03353209 0.48084578 0.58844703 0.8242791 0.10513751 0.32780617
0.13898453 0.023213962 0.37760955 0.04443818 0.14463036 0.47868624 0.023657646 0.309242
0.1246564 0.19519597 0.28089795 0.5067586 0.0691995 0.18904433 0.22254367 0.65828294
0.12023303 0.33138925 0.11300867 0.41469857 0.5142644 0.092006266 0.16881318 0.12548076
1.7991151 0.13797297 0.61709297 0.04222041 0.15173627 0.20105715 0.036179796 0.16033778
0.015109362 0.6185542 0.6971971 1.1899095 0.1797192 0.3330053 0.59590614 0.1363653
0.19764455 0.62674534 0.27046552 0.07816302 0.08867868 0.20130189 0.2842024 0.20773086

module.layer1.0.conv1.weight f4 [16, 64, 3, 3]
00000000: c27e 883c 4263 273c 669a 14bc 499e 0dbd
00000010: 92ca a0bc 2d4f c8bb a094 25bd f981 19bd
00000020: 8f4c 503a 1473 5fbd 8f04 e5bc 1a43 843b
00000030: 8bad 923b 8660 3b3d bf96 733b 8883 f93c
00000040: 54c7 953c 20c7 44bd 2ca5 db3c 30c4 193c
00000050: efa9 4fbc 789c eabb 30e0 eabc 6789 d0bc
00000060: c3da 08bd d88f 2bbd ae3d 95bc edca 37bd
00000070: af53 403c eb4b b43c 293b 833c 44d2 113d
00000080: 3ce5 abba 2952 3b3d 6dd2 bb3b e532 11bd
00000090: 9f64 dabc 5786 043d eaf4 1abd fbd0 bd3c
000000a0: e1f2 f63c 890b 953c bf90 1cbd e1fe 503b
000000b0: a7c1 3d3d d3fd 4dbc 5644 4cbc e987 fdba
000000c0: 1454 8fbc d104 fbbb b2b8 1ebb 74d5 94bc
000000d0: 5144 b2bb a6bc 593b 7336 1ebd d13f edbb
000000e0: d27c f03b 2e40 e2bb d7e2 f53c d4d8 9c3b
000000f0: 0deb 563c 8fe3 7b3c f856 4fbd d169 3d3d
00000100: 42d7 1dbd 65b1 87bd 73b5 51bd b575 2fbd
00000110: 6464 03bc 4a9f 6cbd 74ef 663c bd23 3b3d
00000120: cd25 f1bc 6260 e6bc d69e 863b a0a6 a5bb
00000130: a52b dfbb 0142 16bd 0cc7 b13c ec5c 17bd
00000140: 4d47 90bd cb9c 303c 845a a8bc ff1f efbb
00000150: 9fbd 86bc f6a3 2abc 6b34 3cbc 63c4 9fbc
00000160: e061 fc3b 58f3 1b3c 39c6 4bba 20e0 93b9
00000170: ebaf 5439 854c 00bc 4231 b9bb 7f89 5cba
00000180: b574 0fbc 7e7c c5bb 1356 2fb9 8aff 133b
00000190: 1746 03bd 487f a2bc 82d2 c7bc f3e2 20bc
000001a0: 8f5a 98bb e2eb 17bd 7641 d23b 2743 913c
000001b0: 75ec 203c 4708 263c 193a 853c 9579 0b3c
000001c0: 5835 71b8 0b3c 23bc c42d 7dbc 0fa4 a53b
000001d0: ac99 723c f75a 56bd 3ef4 e0bc 7ed7 a7bb
000001e0: 9f1b 073c 4e20 a93c c5e9 ee3a c746 da3c
000001f0: f3fb 4e3c 13e6 f93b 833f 8bbc 9b70 e6bb
00000200: 8c2c 1e3b ee0c b1bc b6e8 06bc 0940 473b
00000210: 2f51 7dbc 89ce 97ba b3e5 8e3b 378c 07bd
00000220: 33fd 55bd f540 98bd 8601 393d 9087 abbb
00000230: 10ed 77bd 63a2 403c 4448 2bbc 5068 8ebb
00000240: 2ece 0d3c 1fac a23c 9a03 763c a120 45bc
00000250: 29ed 543c 8422 7bbb 4d92 d7bc 5e50 c83b
00000260: a58f 3fbc a2df 52bc 0056 c33b 1d4c 49bc
00000270: 6926 adbc ede7 acbc 2d07 69bc e107 b8bc
00000280: 6a76 7ebc d2f6 553b c1d9 083d c39f 963c
00000290: 521d 47b9 16f7 32bc 4b1e 07bd a2ea afbc
000002a0: a676 3dbd 541e 4bbd 0987 c4bc f658 213c
000002b0: b3d8 b5bb 8d0a 9ebc 6892 163c 6dcf 2bbc
000002c0: ebfc babb b4cd 6fbc d6d8 72bc 27b8 0d3c
000002d0: 0673 73bd 038d 1cbd 59db 683c c7b2 72bd
000002e0: 5305 35bc 6903 103d efc5 c43b 4587 343d
000002f0: 6144 483d 824e b43d e990 733d 0fe0 4ebd
00000300: 1177 693d be42 89bd b7c0 bfbd f46a 88bd
00000310: 636e 7cbd 2c35 3a3d c321 e7b9 b82d a13c
00000320: 7c48 dc3b 69b6 103c 62f2 283c f63b 23bc
00000330: a7ba 923b 5e30 6abb 52b0 6fbc 4cef d53b
00000340: fa55 fbbb 61d4 fd3b f3cb 01bd 0da1 adbc
00000350: b968 27bc d31c 22bd 2a35 9bbc d2ef 5cbc
00000360: 65fd 13bd 328f fd39 f48d ed3c bd53 5abd
00000370: 78d9 d9bb ae39 7c3c fa97 24bd c929 33bb
00000380: bfd5 40bb 98f6 293c 5c8d 133b 312d 3fbc
00000390: f3a9 23bc 154c 83bc 8f9e 5dbc 2e2b adbc
000003a0: 8575 b8bc 938d acba 93f8 8a3e 7f01 983c
000003b0: 1a1f 2ebe 3af1 473d e8f6 6ebe e6ee 43bd
000003c0: 6bc5 f0bd f822 04be 3c9b 2d3e 5269 9abd
000003d0: d8fe 9abd cb38 7ebc 8686 23bd 8b81 563d
000003e0: 738f 293d 44d6 4d3d e502 823d a46f 53bc
000003f0: 9600 90bc 3bee 50bc be2f 13bc d36a 5cbc
0.016662005 0.010216536 -0.009070015 -0.03457478 -0.019627843 -0.006112954 -0.040424943 -0.037477467
0.00079459784 -0.054553106 -0.027956275 0.0040363194 0.0044762543 0.04574635 0.003716871 0.030458227
0.018283524 -0.048041463 0.026812159 0.009385154 -0.012674793 -0.007159766 -0.028671354 -0.025456144
-0.033411752 -0.041885227 -0.018217888 -0.04487126 0.011738702 0.022008857 0.01601942 0.035600916
-0.0013114582 0.04573265 0.005731872 -0.035448927 -0.026659308 0.03235468 -0.037831225 0.023170939
0.03014511 0.018193977 -0.038223978 0.00318902 0.04632726 -0.012572723 -0.012467464 -0.0019342873
-0.017496146 -0.0076604863 -0.0024218974 -0.018168189 -0.005440273 0.0033224015 -0.038626146 -0.0072402735
0.0073390985 -0.0069046235 0.030015392 0.00478659 0.013117564 0.015374078 -0.05062005 0.046243493
-0.038535364 -0.06625632 -0.051198434 -0.042836864 -0.00801954 -0.057769097 0.014095176 0.04568838
-0.02943697 -0.02812213 0.00410829 -0.0050552636 -0.0068106228 -0.03668404 0.021701358 -0.03695385
-0.070448495 0.01077957 -0.020550974 -0.0072975154 -0.01644784 -0.010415068 -0.011487107 -0.019502824
0.0077020973 0.009518467 -0.0007773373 -0.0002820501 0.0002028343 -0.007830744 -0.005651624 -0.00084128225
-0.0087558525 -0.0060268035 -0.00016721366 0.0022582733 -0.032049265 -0.019836083 -0.02439237 -0.009819734
-0.0046494673 -0.03709019 0.006416495 0.017732216 0.009822001 0.010133809 0.016263055 0.008512874
-5.7508558e-05 -0.009963046 -0.015452806 0.0050549577 0.014807146 -0.052332845 -0.027460214 -0.005122124
0.0082463315 0.020645287 0.0018227628 0.026645077 0.012633312 0.007626304 -0.016998058 -0.0070324666
0.0024135439 -0.02161261 -0.008234194 0.0030403158 -0.01546125 -0.0011581938 0.0043608784 -0.033092704
-0.052243423 -0.074342646 0.04516747 -0.005234666 -0.060528815 0.011757466 -0.010454241 -0.004345931
0.008655114 0.019857464 0.015015507 -0.012031705 0.0129959965 -0.0038320133 -0.026314879 0.006113096
-0.011691962 -0.012870701 0.0059611797 -0.012286213 -0.02113648 -0.021106685 -0.014222902 -0.022464694
-0.015531162 0.0032648337 0.03341079 0.018386727 -0.00018989042 -0.010923168 -0.032987874 -0.021474186
-0.04625573 -0.04958947 -0.023990171 0.00984787 -0.005549514 -0.01929214 0.009190179 -0.010486466
-0.0057064197 -0.014636446 -0.0148222055 0.008649862 -0.059435867 -0.038220417 0.014212453 -0.059252527
-0.011048633 0.035159502 0.006005041 0.044074316 0.048893336 0.08804037 0.05946437 -0.050506648
0.056998316 -0.06702183 -0.09362929 -0.06661025 -0.06162871 0.045460865 -0.00044084908 0.01967512
0.006722508 0.0088325525 0.010311695 -0.009963026 0.004477817 -0.0035734395 -0.01462944 0.0065287706
-0.0076701613 0.007746265 -0.03168864 -0.021194959 -0.010217839 -0.03957827 -0.018946249 -0.013484912
-0.036130328 0.0004836261 0.028998353 -0.053302515 -0.0066482387 0.015394611 -0.040184 -0.0027338138
-0.0029424278 0.010373734 0.0022514677 -0.011668489 -0.0099892495 -0.01602749 -0.013526573 -0.021138754
-0.022516975 -0.0013164751 0.27142772 0.0185554 -0.17004052 0.048814036 -0.23336375 -0.047835253
-0.117564045 -0.12903965 0.16953748 -0.075396195 -0.07568139 -0.01551647 -0.039923213 0.052369636
0.04139657 0.050253168 0.06348208 -0.012905035 -0.017578404 -0.012752111 -0.008983551 -0.013453203

module.layer1.0.bn1.weight f4 [16]
00000000: 6b6c c63e 664c 7a3e 9c9e 7b3e 44f4 dd3e
00000010: 534b f33e 99da e03e 25be c73e 0ba6 ad3e
00000020: 99ee a63e 2ad7 983e df7f ec3e 01e0 9d3e
00000030: c69b b63e 3619 b33e c9bb 8f3e 4ff2 9f3e
0.3875459 0.24443206 0.24572223 0.43350422 0.47518405 0.43916777 0.39012256 0.33915743
0.3260391 0.29851657 0.46191308 0.30834964 0.3566572 0.34980172 0.28072956 0.31239554

module.layer1.0.bn1.bias f4 [16]
00000000: 7973 6cbe 060f c03d 2e12 f63d 25d9 463e
00000010: 7a91 013e b834 b7bd 5d38 23be 44f9 42be
00000020: af55 c03d d168 d2bd f39d 2b3e 41b3 febd
00000030: 1e77 e9bd dd77 07be d8af 453e ad93 e53d
-0.23090924 0.093778655 0.12015186 0.19418772 0.12653151 -0.08945602 -0.1593947 -0.190404
0.09391343 -0.102738984 0.16759472 -0.12436534 -0.11399673 -0.13229318 0.1930536 0.112098075

module.layer1.0.bn1.running_mean f4 [16]
00000000: 2dcf 97be 7e1c 4dbe ca78 8cbe fb71 c0be
00000010: 30a5 62be dcce a6be 3cfa 53be 0b76 31be
00000020: 3550 8abe f97f 68be 676c 42be 01b8 15be
00000030: 0e84 53bd 828b debe e506 b5bd 0eb2 0abe
-0.2965025 -0.200304 -0.27435905 -0.3758696 -0.22133327 -0.32579696 -0.20700926 -0.17330186
-0.27014318 -0.22705068 -0.18986665 -0.14620973 -0.05163961 -0.4346581 -0.08839206 -0.13544485

module.layer1.0.bn1.running_var f4 [16]
00000000: 42ec af3d dfb8 773d 039b a83d 8280 fa3d
00000010: 35d8 123e 2bb3 973e a3d8 1a3e 369d 843d
00000020: 12f3 c13d 7bab 9d3d 8ad5 163e fc65 9c3d
00000030: 2fa4 803d d9d2 f43d cfa4 3a3d 23ef 0d3e
0.085899845 0.06047904 0.08232691 0.12231542 0.14340289 0.29628882 0.15121703 0.06475298
0.0947019 0.07698723 0.14729896 0.076366395 0.062813155 0.119542785 0.04556733 0.13860755

module.layer1.0.conv2.weight f4 [16, 16, 3, 3]
00000000: 4115 643d 8053 973c f35c 65bd 5c12 a6bd
00000010: 0b4b 933b c93e 033d 5e8c 363d 7cb9 eb3c
00000020: 230c bf3d 39db 683d 5e0f ee3c 45b2 6ebc
00000030: 40f3 0e3d b0fa 673c 6f53 2bbd a690 d2bd
00000040: 9478 37bd f50c 38bc 7d6a 3d3d 7045 86bd
00000050: 5fe1 acbd 64bf 8bbd 9b6c bdbd 4249 31bd
00000060: cdd2 1f3e 21e3 063e db34 9a3d 685f 223d
00000070: 0321 003e 0aca 09bd e209 39bd 1cba 14be
00000080: 28e2 6f3d 7dbd 913c 27c4 043e 8eec 04bd
00000090: 3584 4f3d bd28 a63d e8dd f13c 8695 8cbe
000000a0: f87a cabe f520 7fbe e48d 2d3e 27f7 973e
000000b0: 6256 493e 294d 10bd 360c 28bd 0341 40bd
000000c0: 8656 83bd 9dec 78bd 1590 643d 39bc 713d
000000d0: 85e9 c33c 6792 84bc 1632 7abc 8b85 e1bc
000000e0: 48a6 84bd 65a1 353d ff36 6c3d eb00 bc3a
000000f0: d513 22bd 8c5e 3fbd bae9 f33b d0fe 52bd
00000100: 3f01 04bd c3cf 783d b1a0 a23b 313b 4fbd
00000110: 26db 8bbd 2621 813d b28d a43d ebc0 a23d
00000120: 2477 1e3d 14ad de3d 7f0f 963d c30d 1dbe
00000130: 2715 92be 8a54 2dbe 5c61 c13c 2974 9c3d
00000140: 772b bf3c ec5d 5f3c 0c6c ad3d 8a06 913d
00000150: fd45 2f3d 485f 103e 7a8e 643d 5921 ebba
00000160: 7152 663a f621 4cbd 6207 243c 87e1 95bc
00000170: 4ce2 9c3d 660f 173d 693d fe3d 4abe 0bbd
00000180: 7bbb 5bbd 682f a6bd 4644 f93b 3eda 7d3d
00000190: 4bb4 883c 9e9f 10bd f892 c0bd 4213 6bbd
000001a0: fa9d a8bd e4dc 17bb f4b2 3b3b 3f3c 383c
000001b0: 5d09 c7bd b652 15bd 47d8 b9bd 9899 21bd
000001c0: 0fe6 8ebd 76e1 8dbd 6480 b23c 28a9 573d
000001d0: 897f d73c adad 03be d04c 2ebd bc35 a43d
000001e0: 37c9 a3bd 7c6b b0bd 799e 18bd 39f6 3c3b
000001f0: a4a0 283d 1fda 383d 7742 8abd 9b6b cfba
00000200: c070 b13d f4bb 0a3e 7db9 13be 129a dbbd
00000210: c24b 72bd a591 843d 0815 303d 9f78 1cbe
00000220: a07e 01be ecd9 16be 2682 9d3d 4bdc fc3d
00000230: b0a7 603d b1fb ee3d 8e6c e83d a519 f73d
00000240: d40c c1bc 37de 74bd cc14 39bd d199 9fbb
00000250: a295 55bc ba6c 21bd 544e 743c fa8d aabc
00000260: 4fdc 52bd 6810 5e3d 39ba 4cbc eeda a63d
00000270: eaad 483b 9601 a4bd 5ae7 22bd b6ca d13d
00000280: 0f25 263c 010b 613d 5eec 553d 0820 bbbb
00000290: 505e e3bd f8f3 0f3e 79b6 c03d 72eb ebbb
000002a0: 5e4c 673d 2333 c53c 5604 abba b473 28bd
000002b0: ba60 b9bd d268 4b3d d612 9b3d 42a4 043e
000002c0: 3a3b 15bc 0902 7bbd f7b4 d2bc 0e4b 293d
000002d0: e87d e93c d258 90bc 765e e8bc 781d 513d
000002e0: 1884 063e bf5c 173e 4033 04bd f183 46be
000002f0: b1e0 d23b 902b fabc 521c 69bd 9b91 59bd
00000300: e14d 2b3d eff5 3ebd a827 03be 2109 d03d
00000310: 5c35 efbc b487 51bd a811 103c cc59 3f3d
00000320: 21e6 bb3d 9f0f 1fbd c0a5 96bd 2ab6 a53d
00000330: 9927 9dbc e6e8 b4bd f5be fb3b d274 1e3d
00000340: 0df4 b43c b80f 9cbc d937 4c3c b9bf 133c
00000350: 4671 483d 4442 0fbd 7e5b b4bd 548b 1dbd
00000360: fce9 373c f8f2 cebd f05e 8ebc c79f f5bc
00000370: 5f26 e1bc ac34 9dbd f742 163c d69b 523d
00000380: 83d9 143d 22c4 af3c e108 283d 5c5a ba3a
00000390: 4b06 d83c 461a 0a3d 1eac dbba dc7d 10bd
000003a0: 7055 13bc fdaf 94bc 3b47 d4bc 8448 5d3d
000003b0: 95a6 453c 23d6 bdbd a2c0 e5bd 60aa ac3c
000003c0: f343 663d e650 b83d 614b e5bb ce11 35bd
000003d0: 196f 81bd 29e6 4fbd 4fe5 4bbd 4157 90bd
000003e0: cc90 c4bd 073e 3fbd 8702 42bd 3a75 94bd
000003f0: 174f e73c 4274 993d 782f 823d 592c 473c
0.05568433 0.018472433 -0.055996846 -0.081089705 0.00449503 0.0320423 0.04456746 0.02877497
0.09328487 0.056849692 0.029060062 -0.01456887 0.03489995 0.01415889 -0.041827615 -0.10281496
-0.044792727 -0.011233558 0.046244133 -0.06556213 -0.084414236 -0.06823614 -0.092492305 -0.043282755
0.15607758 0.1317258 0.07529613 0.039641768 0.12512593 -0.033639945 -0.04517544 -0.1452412
0.05856529 0.01779055 0.12965451 -0.03245216 0.05066319 0.08113239 0.029524758 -0.27457827
-0.39546943 -0.24914916 0.16948658 0.2968075 0.19661859 -0.035229836 -0.04102727 -0.046937
-0.064129874 -0.060772527 0.05580147 0.059017394 0.023915062 -0.016183091 -0.0152707305 -0.027529499
-0.06477028 0.04434337 0.057669636 0.0014343535 -0.039569695 -0.046721026 0.007443634 -0.05151254
-0.03222775 0.060745012 0.0049630036 -0.05059356 -0.068289086 0.06305151 0.08034839 0.079469524
0.03868784 0.10872856 0.073271744 -0.15337281 -0.28531763 -0.1692678 0.023605995 0.07639343
0.023336155 0.013633233 0.08467874 0.07081325 0.042791355 0.14098847 0.05579994 -0.0017939016
0.00087860884 -0.049837075 0.010011526 -0.018296016 0.0766035 0.03687992 0.12414057 -0.03411702
-0.053645592 -0.08114511 0.007607016 0.06197571 0.016687533 -0.035308473 -0.09403032 -0.057391413
-0.08233257 -0.0023172433 0.00286406 0.011244833 -0.09718583 -0.036455832 -0.09074455 -0.03945312
-0.06977474 -0.06927769 0.021789737 0.052651554 0.02630593 -0.12859221 -0.042553723 0.080180615
-0.07997363 -0.08614251 -0.037260506 0.0028833284 0.041168824 0.04512989 -0.067509584 -0.0015824916
0.086640835 0.13548261 -0.14426227 -0.10722746 -0.05915428 0.06473092 0.042988807 -0.15280388
-0.1264596 -0.14731568 0.076908395 0.12346705 0.05484742 0.116691 0.1134883 0.12065438
-0.023565687 -0.059782233 -0.04518585 -0.0048706313 -0.0130361635 -0.03941033 0.014911253 -0.020819653
-0.051479634 0.054214865 -0.012495571 0.08147226 0.003062124 -0.08008115 -0.039771415 0.10243742
0.010140671 0.054942135 0.05222737 -0.0057106055 -0.11101973 0.1405791 0.09409804 -0.007199698
0.056469314 0.024072235 -0.0013047557 -0.041125968 -0.09051652 0.04966051 0.07571952 0.12953284
-0.009108359 -0.061281238 -0.025721056 0.041331343 0.02850242 -0.017620478 -0.028365355 0.051053494
0.13136327 0.14781474 -0.03227544 -0.19386269 0.0064354767 -0.03053835 -0.056911774 -0.053117376
0.041822318 -0.04662126 -0.12808096 0.10157991 -0.029200248 -0.051154807 0.008793272 0.046716496
0.09174753 -0.038833257 -0.07355833 0.08091386 -0.01918392 -0.08833484 0.007682676 0.038685627
0.022089029 -0.019050464 0.012464487 0.009017878 0.04893615 -0.034975305 -0.08806513 -0.03846295
0.01122522 -0.10104936 -0.017379254 -0.029983414 -0.027484117 -0.07676062 0.009171239 0.051418148
0.036340248 0.021455828 0.041024093 0.0014217603 0.026370188 0.033716463 -0.0016759669 -0.03527628
-0.008992538 -0.018150324 -0.025912872 0.054024234 0.012063642 -0.09269359 -0.112183824 0.021077335
0.056217145 0.08999805 -0.0069975113 -0.044206433 -0.06320018 -0.050756607 -0.049779233 -0.07047892
-0.0959793 -0.046690013 -0.04736569 -0.07248922 0.028235955 0.074928775 0.0635671 0.012156569

module.layer1.0.bn2.weight f4 [16]
00000000: 7f78 183f 0082 9b3e 4f95 de3e a4c1 e43e
00000010: cc8b 843e 600b 0a3f 3b95 3c3f c7bc 263f
00000020: 5218 c63e b2b3 4c3e 8d2c 863e c75a 8c3e
00000030: 5f98 973e c42d cf3e b8b5 223f ad44 863e
0.5955886 0.3037262 0.43473288 0.44678986 0.25887907 0.53923607 0.7366521 0.651318
0.3869043 0.19990423 0.26205865 0.27413008 0.29608437 0.40464604 0.6355853 0.2622427

module.layer1.0.bn2.bias f4 [16]
00000000: 2c80 1fbd 95bf 1a3e 727d cfbd 632d 023e
00000010: d778 803c edec 7abd 2d3a 0fbd d53a 95bd
00000020: a1a5 003d f2fd c13d 46c0 12bc 0f8a 40bd
00000030: 371f 3f3d 9e5a 8e3a d62a 85bd cd53 493e
-0.038940594 0.15112145 -0.10131349 0.12712626 0.01568262 -0.061261106 -0.03496759 -0.07286612
0.031407956 0.09472264 -0.008956974 -0.047006663 0.04666063 0.0010860746 -0.06502311 0.19660874

module.layer1.0.bn2.running_mean f4 [16]
00000000: 0fe5 15bd 7aba 3f3e cd98 fdbd 5330 98be
00000010: 6918 f83d 800d 763d af2b 58bd b70d bbbd
00000020: b28a dabc 54c4 2f3d 8a9a a7bc eec4 bebc
00000030: 82c8 bcbd 69c0 df3d 44ff 75bd ecd0 b0bd
-0.0365954 0.18723479 -0.1238266 -0.29724368 0.12114031 0.06007147 -0.052776035 -0.09133475
-0.026677463 0.042911842 -0.020459432 -0.023287263 -0.09217931 0.10925371 -0.060057893 -0.08633599

module.layer1.0.bn2.running_var f4 [16]
00000000: 603b 1e3e 573c 7d3d fb15 593d 2d2b 943d
00000010: f76a 273d b69d d33d 733c 963e e64e 123e
00000020: e17b 613d 26fb b33c b938 143d edd4 ce3c
00000030: f74c 163d 7cb7 603d 4717 063e 0a8d 153d
0.15452337 0.061825123 0.052999478 0.072347976 0.040873494 0.10332815 0.29342994 0.1428791
0.05504978 0.021970343 0.036186907 0.025248015 0.036694493 0.054862484 0.13094817 0.03651146

module.layer1.0.shortcut.0.weight f4 [16, 64, 1, 1]
00000000: c1f3 36bd 0e01 d43c 4352 e9bd 3802 fa3b
00000010: 674b 10be 9dd2 553d 21b6 d6bb 7b92 713d
00000020: 67c4 af3d 177c 9abb ed32 74bc b772 e5bb
00000030: f07d 5c3d 7c41 ad3d 3429 3d3c 00c6 4c3d
00000040: 03be f73c a3b4 bcbb 1a36 c8bd 445b 05bc
00000050: de5a 21bd 6089 5e3c e0b7 50bc 72c8 43bd
00000060: 68c9 223c 52fe 403c d315 b73b b4a5 6fbe
00000070: 89db 833c d2d3 833c 30f3 38bc d56b 92bc
00000080: 92c4 c5bc 4ca8 e5b8 a27e 013b 7c4c 89bc
00000090: d60f eabc 3e5f 9ebc 5c1c 4c3d 8e33 98bb
000000a0: 6e86 58be 7da8 d1bb cc79 f5bd e080 61bd
000000b0: 9d7a f63c 10cd 27bc 75b6 453b 4e37 e9bd
000000c0: e2e5 02bc a058 8b3b 85b0 a03c 7f61 a53c
000000d0: b4eb bfbb 8842 c2bd 634a c9bd 501d a73d
000000e0: 8385 0fbe 1191 f8bc a75f 9a3d f473 69bc
000000f0: 93bb f9bc b38f e4bb fcc9 cebc 8306 71bc
00000100: 1632 bf3d 623e 9b3d 3133 3c3e 2c20 193d
00000110: 6f26 513e 24e8 1c3d 214c 093d fd4c bd3d
00000120: 69ca 7b3d 1374 dbbb 6381 583d 80f6 c1bc
00000130: 737a 9a3d 2203 f73d b02c 293d a929 003e
00000140: d38a e83c 2fef 973d 1ef2 743d e36d 6abb
00000150: 6f14 a43d cfe6 15bb 0850 233b a23b 173d
00000160: 3512 30bd aac9 cd3d f9d6 e03a 6142 f13d
00000170: ac94 6c3d 69f8 293d e3c4 c6bc 588c b73c
00000180: 3add 7a3d e161 8dbb 9187 573d 4d6c 8c3d
00000190: 6948 b9bb 5552 bd3d d992 833d 0231 95bd
000001a0: b137 6a3c d0f3 843a e0f5 e83d 54b0 aa3c
000001b0: 3213 98bb 2a1a 27bd c0a9 923d e5e3 03bd
000001c0: 3711 733d a7c1 8e3d a812 503d 53ed f03d
000001d0: 5e11 4c3d 0ff8 2c3e e6a2 403e 859e a73d
000001e0: bbea a93d cd50 bb3d 2d69 8abb 76d9 a23d
000001f0: b95e e3bb dddd 7c3d 636f 77bd 5018 883d
00000200: 83dd 3dbd 2224 aabd 0568 00bd f9b1 a43c
00000210: 8f81 73bd c6f7 49bc b847 86bc ec89 38bd
00000220: 51b9 43bd 3dbd ac3d fd8a 68bc 64a4 963d
00000230: ee6b f13c 0b1a a4bd 42b1 c8bc 16d2 94bc
00000240: e8a6 353c 1657 ebbc 5ac9 1bbd 62e5 6d3c
00000250: ac54 60bc 6008 2bbd 74f0 9c3b 1a51 7ebd
00000260: 2ffc aebc a74f fdba 98c5 28bd 1922 c5bc
00000270: 93ad 95bb 6d42 e23c dd6f 813d 6062 4dbc
00000280: 04ef 713c 03f9 673d 67e4 023d f011 32bd
00000290: 7a2d f73c 0b02 c6bc 4862 60bd 54fb 0e3d
000002a0: 5d94 cd3b cf8b 013d 2e33 493c 07c1 c4bc
000002b0: 5cd5 18bd ee9d 753d 6e11 fe3b 2af0 be3d
000002c0: 02ce 293b 095b 50be e2e5 e8bc 15a2 7abe
000002d0: 3eb2 cdbc 8b7e 06bd fdb7 373d 731d 3d3d
000002e0: 0987 90bb 1674 9a3c d92e 833c 3d8f a43c
000002f0: 28f6 babc 848c f13c 831e 093c f725 2f3b
00000300: 9a96 50bd 3c1d 03bd 5fa7 b83d c026 e13c
00000310: 2e07 073d a595 ffbc 13af 52bc f276 87bd
00000320: e93e 093d 1b70 c7bd a8f2 373b 21f4 f3bd
00000330: 8e8f c6bd 7ccd a4bc 65dd 483c e7af bd3d
00000340: efcb 9ebd cb68 93bc 6a24 9d3d da2a 6fbc
00000350: d6e2 513c 1e7e 753d b227 d43b d59f f73d
00000360: 7d7a 8c3c 004a 8e3d 7009 45bd f35f 3c3c
00000370: 0efd da3c 2887 343c 6b4d 4dbd 302f 8d3c
00000380: d76b 80bc 4c18 b5bd 5ae0 d9bb 8f5f dfba
00000390: 97f1 50bc a00a 4e3d 65bb 073c e2a6 89bd
000003a0: a16d 363d b5e5 9c3d a6e0 95bd 00d5 d6bc
000003b0: 4f40 43bd 6e4e c8bd f395 713b 4a81 25be
000003c0: 5adf 00bd 2e69 e7bd b1e3 4bbd 1c15 c8bd
000003d0: 2c27 d3bd 8af3 f63d 0dfe 9abd eea3 823d
000003e0: 4e43 34bd 38dd 513d 75fd 2fbd 75bc 5dbd
000003f0: f075 823a 426f 2fbc 6d10 e6bb 0bf8 10bd
-0.044666056 0.02587941 -0.11392643 0.007629659 -0.14091264 0.05220281 -0.006552473 0.058977585
0.08582383 -0.0047144997 -0.01490472 -0.0070022005 0.05383104 0.08459756 0.011545468 0.049993515
0.030241972 -0.0057588383 -0.09775944 -0.008139435 -0.0393933 0.013582557 -0.012739152 -0.04779858
0.009935714 0.011779385 0.0055873184 -0.23403054 0.016095893 0.016092215 -0.011288449 -0.017873684
-0.024141584 -0.00010950919 0.0019759317 -0.016760103 -0.028572004 -0.019332524 0.049831733 -0.0046448177
-0.21145031 -0.006398259 -0.119861215 -0.055054545 0.030087763 -0.010241762 0.0030168567 -0.11387502
-0.007989379 0.0042525083 0.019615421 0.020188091 -0.0058569554 -0.09485346 -0.09828641 0.08159888
-0.14015774 -0.03034261 0.075377755 -0.014248837 -0.03048495 -0.006975138 -0.025242798 -0.014711025
0.09335725 0.07580258 0.18378903 0.037384197 0.20424818 0.038307324 0.033519868 0.092432
0.06147233 -0.0066971867 0.052857768 -0.02367711 0.075428866 0.120611444 0.041302383 0.12515892
0.028386509 0.074186675 0.059801213 -0.0035771064 0.0801171 -0.0022873168 0.0024919529 0.036922105
-0.042986114 0.1004823 0.0017153911 0.11780239 0.057758972 0.041496668 -0.024263805 0.022405788
0.061246134 -0.0043146466 0.05261952 0.06856594 -0.005654384 0.09244219 0.06424493 -0.07284738
0.014295504 0.0010143463 0.11375022 0.020836033 -0.00464096 -0.040796436 0.071612835 -0.03219976
0.05934259 0.0697053 0.050799042 0.11764016 0.04982125 0.16891502 0.18812141 0.08184532
0.082967244 0.09146271 -0.0042239637 0.07951634 -0.006938782 0.061735023 -0.06040896 0.06645262
-0.04635383 -0.08307673 -0.0313492 0.020104395 -0.05944973 -0.01232714 -0.01639162 -0.045053408
-0.047784153 0.08434532 -0.014193294 0.07355574 0.02947041 -0.0801278 -0.024498586 -0.018166583
0.011087157 -0.02872805 -0.03803382 0.014520021 -0.013692062 -0.041756034 0.0047894064 -0.062089063
-0.021360485 -0.0019326106 -0.041204065 -0.02406411 -0.004567811 0.027619565 0.06320164 -0.012535661
0.014766458 0.05663396 0.031956103 -0.043474138 0.030173052 -0.024170896 -0.05478123 0.034907654
0.00627379 0.031627472 0.012280269 -0.024017824 -0.03731285 0.059965067 0.0077535426 0.093231514
0.0025910144 -0.20347227 -0.02842993 -0.24475892 -0.025109407 -0.032835525 0.0448532 0.046170663
-0.0044106287 0.018854182 0.01601355 0.020087833 -0.022822455 0.029485948 0.008369091 0.002672551
-0.050924875 -0.032010302 0.090162985 0.027484298 0.03296583 -0.031199286 -0.012859124 -0.06614484
0.03350726 -0.09738179 0.0028068218 -0.11911798 -0.0969535 -0.020117514 0.012259816 0.09262066
-0.07753741 -0.017994305 0.07672961 -0.014597619 0.01281043 0.059934728 0.0064744586 0.120910324
0.01714825 0.06947708 -0.048104703 0.011497485 0.026731994 0.011018552 -0.05012266 0.017234415
-0.015676422 -0.08842525 -0.0066490592 -0.0017042028 -0.012752912 0.0503031 0.008284424 -0.067212835
0.044538144 0.07661001 -0.07318239 -0.026224613 -0.04766875 -0.09780584 0.0036863058 -0.16162601
-0.031463005 -0.11299358 -0.04977769 -0.09769651 -0.10310206 0.1205817 -0.075679876 0.06378923
-0.0440095 0.05123636 -0.042966325 -0.054134805 0.0009953361 -0.010707678 -0.007021001 -0.035392802

module.layer1.0.shortcut.1.weight f4 [16]
00000000: dd49 353e 513e 633e 1ac7 893e aa13 133e
00000010: 3d5b cd3e 767d 223e 99f6 fc3c f94d ba3d
00000020: ecb2 173e 24c2 8a3e b61a c43e 771f ad3e
00000030: 3f14 903e 439a e73d 80f4 b43d 7891 603e
0.17703958 0.2219174 0.26909715 0.1436297 0.40108672 0.15868172 0.030879306 0.09096903
0.14814347 0.27101243 0.3830163 0.33813068 0.28140447 0.1130872 0.08835697 0.21930492

module.layer1.0.shortcut.1.bias f4 [16]
00000000: 2c80 1fbd 95bf 1a3e 727d cfbd 632d 023e
00000010: d778 803c edec 7abd 2d3a 0fbd d53a 95bd
00000020: a1a5 003d f2fd c13d 46c0 12bc 0f8a 40bd
00000030: 371f 3f3d 9e5a 8e3a d62a 85bd cd53 493e
-0.038940594 0.15112145 -0.10131349 0.12712626 0.01568262 -0.061261106 -0.03496759 -0.07286612
0.031407956 0.09472264 -0.008956974 -0.047006663 0.04666063 0.0010860746 -0.06502311 0.19660874

module.layer1.0.shortcut.1.running_mean f4 [16]
00000000: 37a0 fcbd 7a41 7f3e 051c acbd 9feb 07be
00000010: 4b17 88bd 51c0 7cbd ed86 54bd 5ca8 35be
00000020: 214c 1a3d 2b2c 4cbe a280 d03d a947 06be
00000030: 2560 6bbe 8868 cb3c a557 61bd ff05 5d3c
-0.12335246 0.24927321 -0.08403782 -0.13273476 -0.06645068 -0.061706845 -0.051886488 -0.17740005
0.03767026 -0.19938724 0.10180785 -0.13113274 -0.22985895 0.024830118 -0.055015225 0.013490199

module.layer1.0.shortcut.1.running_var f4 [16]
00000000: 8099 8c3c 4bf8 8a3c 527d 843c 04ed 053c
00000010: 20a4 903c 702f 7b3c 51c5 cb3b 40b4 0e3c
00000020: a8bf 273c 9bf9 8f3c bf6a d83c 23b3 893c
00000030: d1b7 a73c e5a7 153c c924 e73b e74b 513c
0.017163038 0.016964098 0.016173039 0.008174185 0.017656386 0.015331134 0.0062185903 0.008709967
0.0102385655 0.017575076 0.026418088 0.016809052 0.020473393 0.009134267 0.0070539457 0.012774444

module.layer2.0.conv1.weight f4 [32, 16, 3, 3]
00000000: 6454 913d d06d 053e 36a4 a33c 2353 343e
00000010: e317 2c3e 810a 383d 8242 1b3e 4a60 0e3e
00000020: 27a6 93bc 5423 23bd cf7f fabb e0c5 d2bc
00000030: f30c 16bd 8167 e0bc e832 28bd 1d15 6bbd
00000040: 160b afbd a3f8 2bbd 7832 23bb 9b80 453c
00000050: f06c ba3c d7c3 653d da85 dc3c 3439 403d
00000060: 286c be3c 132a 00bd 5194 843c 9a29 04be
00000070: a633 0abe 4e3d b6bd b1ac ccbd 6501 14bd
00000080: 6f90 263d 929b e2bb 78f0 b23d 7d40 353e
00000090: 6084 1e3d ee45 ba3d 0334 b63d 0a96 7c3d
000000a0: aadd 2e3d 5bc4 1e3d 195e 64bc cfec e5bc
000000b0: 08a9 90bc eaa5 fa3c 035f da3d d53c 003d
000000c0: 8791 133c 015b 933d 2f2f 913c b28b 123d
000000d0: a41d 213d 1466 ec3c dff5 cd3c 2df1 103d
000000e0: da16 60bc ba5e 72bc bab5 9dbd 352e 57bd
000000f0: 9572 0fbe bdcd 7bbe 3d8c 43be f876 7b3d
00000100: 89d5 b43d 84d2 233d 2a52 033e 6537 ff3d
00000110: 4079 6fbd cfb3 8e3d ddaa ee3b a02f 12be
00000120: e11d 8f3d d4ae cc3d f2f9 033e 78c7 903d
00000130: 3344 503d 1967 f83b 0ff3 80bd 6aa6 bebc
00000140: bd90 23bd 3ea3 00bd d067 00bd ea73 74bc
00000150: 88ec 30bd c38b a23c 8bb1 193a 4d9e afbb
00000160: ce29 d2bb a655 b7bc 3450 063d 24e2 96ba
00000170: d9b4 f5bd 1c14 af3d 96ae d63a 6c29 dabd
00000180: f1a0 e43c d36e a6bc 58bc afbd 3962 b6bd
00000190: e7fb e8bd 7db5 82bd b54e 68bd 798e 7dbd
000001a0: 8d87 28bd a1bb e1bc f6b7 b4bc 46e1 253c
000001b0: 573d 063d 496a c43d e816 013e 5c8c 2f3a
000001c0: 855f 723d 0745 923d 2ce2 eb3c 8770 4c3d
000001d0: 28ab 313d f6bc 2e3e 2117 f73d b328 b0bc
000001e0: 61d6 a33d 9b82 d83b 2f87 93bb c5fc ebbc
000001f0: 06a9 a43b 253f 4dbc 448a 2b3d 0fa8 b83d
00000200: 1a6c 943d 7913 b63b c573 8f3d 1e54 663d
00000210: bce3 5abd 0138 1bbd f694 e936 3e30 0bbd
00000220: 37e8 cb3b 5f25 a33c c963 9fbd 6ba2 fa3b
00000230: 6a43 653d bdd7 d9bd cbf1 f5bc 74c8 6e3d
00000240: 8e54 a338 6eca 853b ffa5 a23c 0dcb 30bd
00000250: f9c0 163d d8bb 683d a1ed 39bd c944 d9bb
00000260: c095 d43c 327a 2cbd c99e 8538 0e02 243d
00000270: 8ba0 d5bc 8f96 5d3d 44e3 e63d 262c b1bc
00000280: 7c12 c93d 581b e93d c7b1 5e3d 175d 203d
00000290: 1b63 193b 2c77 a03d ffd1 863d ea65 043d
000002a0: 9bc4 5c3c ad0b ebbc cdb4 8c3c 105f 06ba
000002b0: 72a7 05bd 9327 a9bd 06af 73bd 5265 64bd
000002c0: fcd2 66bd 89f7 aabd e4d8 90bd d5b1 eabc
000002d0: 8d9f 623c f777 b53d 69ed f13d 7b67 34bc
000002e0: a1a6 813d d444 af3d 40d2 2dbc 6a9f a3bc
000002f0: f326 f3bc e438 43be ef56 a7bd 739f 42bd
00000300: 0b98 63be 1909 19be 072f 10be 5ae0 1fbe
00000310: 8821 06be 9baf 1bbe 2e77 febd afd9 04bb
00000320: 85fc 7e3d 28d4 1fbe bf48 22be 8fc4 d3bd
00000330: a441 99bd df0e 48be a0d7 1cbe 5b1a 5bbc
00000340: 481f d2bb 51ca 473b 6711 4d3d 094b b53b
00000350: 4005 6d3c d682 b43d bb1e 773d 7b45 1bbd
00000360: 9a98 35bd 97c1 d03c ca50 433d 0272 d4bd
00000370: 8215 a6bd 0672 4bbd ac0e f9bd 76d0 14be
00000380: c997 debd c2b1 1dbd a4d2 97bc b13a efbc
00000390: eacc a6bc 8876 dabc 188f 13bd 348c 58bb
000003a0: 34f3 ff3c 5c09 c4bb 4592 193d 8a8d dabb
000003b0: 71c0 13bd 70a9 833d 7816 103d 3864 9a3c
000003c0: b430 8e3d 33ae eb3c 7bfb 233c 2594 483d
000003d0: f530 493d 4735 4c3c 70be a23c f33a 9a3c
000003e0: 720b 353d d4ce 03bd c5dd 59bc 7ada 84bc
000003f0: ce20 0fbd a44a a63c 66cb 953c 8207 edbc
0.07096174 0.13030171 0.019975763 0.17609839 0.16805987 0.044931892 0.1516209 0.13903919
-0.018023564 -0.039828613 -0.0076446305 -0.02572912 -0.036633443 -0.027393105 -0.041064173 -0.057393182
-0.08547036 -0.041985165 -0.0024901908 0.012054588 0.022757024 0.05609497 0.026919294 0.046929553
0.023244932 -0.031290125 0.016184004 -0.12906495 -0.13496265 -0.08898412 -0.09993876 -0.036134142
0.040665086 -0.006915518 0.08737272 0.17700382 0.03870046 0.09095369 0.08896639 0.061666526
0.042691864 0.038761478 -0.01393845 -0.02806702 -0.017658725 0.030596692 0.10662653 0.031308014
0.009006864 0.07195092 0.017722694 0.035777755 0.039334908 0.028857268 0.025141655 0.035386253
-0.013677323 -0.014793092 -0.07700677 -0.0525343 -0.14008553 -0.24590202 -0.19096465 0.061392754
0.08829791 0.039995685 0.12824312 0.124617375 -0.058465242 0.069678895 0.007283552 -0.1427598
0.06988121 0.09994283 0.12888315 0.07069296 0.05084629 0.0075806496 -0.0629636 -0.023272712
-0.039932955 -0.03140568 -0.031349003 -0.014920214 -0.043194324 0.019842034 0.0005862943 -0.005359447
-0.006413675 -0.022379708 0.03279133 -0.0011511487 -0.119973846 0.085487574 0.0016378935 -0.10652432
0.027908774 -0.020316517 -0.085808456 -0.08905453 -0.113761716 -0.063822724 -0.056715686 -0.06190345
-0.041144896 -0.027555289 -0.022060376 0.01012451 0.032773342 0.09590585 0.12606394 0.00066966354
0.059173126 0.07142072 0.02879437 0.049912002 0.043376118 0.1706427 0.12064958 -0.021503782
0.07999874 0.0066073663 -0.004502199 -0.028807053 0.005025032 -0.012527262 0.041879907 0.0901643
0.07247181 0.0055565205 0.07004503 0.056232564 -0.05343984 -0.037895206 6.9612825e-06 -0.033981554
0.0062227505 0.01991528 -0.077827044 0.0076487563 0.055972494 -0.10636852 -0.030022522 0.058296636
7.788195e-05 0.0040829694 0.019854544 -0.043162394 0.036805127 0.056819767 -0.045392636 -0.0066305143
0.025950313 -0.042108722 6.37151e-05 0.040041022 -0.02607753 0.054098662 0.11273816 -0.021627497
0.09817979 0.113821685 0.05436876 0.039151277 0.0023405019 0.0783523 0.06583022 0.032323755
0.013474609 -0.02869209 0.017176056 -0.000512586 -0.03263039 -0.08259501 -0.059493087 -0.05576069
-0.056353554 -0.08347995 -0.070726186 -0.02864925 0.013831985 0.08860772 0.118128605 -0.011011
0.0633061 0.0855805 -0.01060921 -0.019973475 -0.029681658 -0.19064671 -0.08170878 -0.047515344
-0.22225969 -0.14944877 -0.1408044 -0.15612927 -0.13098729 -0.15203707 -0.124250755 -0.002027135
0.06225254 -0.15608275 -0.15848063 -0.10340225 -0.07483223 -0.19536923 -0.1531663 -0.013372983
-0.0064124204 0.003048558 0.050065424 0.0055326265 0.014466584 0.088140175 0.06033204 -0.03790806
-0.044334985 0.025482936 0.04768447 -0.10373308 -0.08109571 -0.049669288 -0.121610016 -0.14532647
-0.108687945 -0.0384996 -0.018533058 -0.02920279 -0.020361383 -0.026667848 -0.036025137 -0.0033042552
0.031243898 -0.005982561 0.03749301 -0.006669705 -0.0360722 0.06428802 0.035177678 0.018846616
0.06942883 0.028769588 0.010008688 0.048969407 0.049118955 0.012463874 0.019866198 0.018826937
0.04420037 -0.03217967 -0.013297503 -0.016217459 -0.034943394 0.020299263 0.018285464 -0.028934244

module.layer2.0.bn1.weight f4 [32]
00000000: a4b9 b43e 6451 cb3e ba39 c13e 0b54 8d3e
00000010: 6609 8e3e 6c86 d93e 57d0 a83e 4288 9f3e
00000020: abc9 9a3e b867 d63e 3a4d ad3e 4cb0 a53e
00000030: f2d6 ac3e 6612 ce3e dc1b cd3e 2afd af3e
00000040: 091f cf3e 2f6a b23e d27c 983e 5d0f b03e
00000050: 550f ca3e 0fef b13e b3b3 c53e c555 8c3e
00000060: df12 b83e 2ead 003f e9f8 a23e b7aa 943e
00000070: 743d b83e 91b4 a73e 350e bb3e 3a23 8d3e
0.35297883 0.39710534 0.37739354 0.27603182 0.27741545 0.42485368 0.3297145 0.31158644
0.30231985 0.41876006 0.33847982 0.32361066 0.3375774 0.40248412 0.40060318 0.34372836
0.40453365 0.34846637 0.2978273 0.3438672 0.39464822 0.347527 0.38613662 0.27409187
0.35951898 0.5026425 0.31830528 0.29036495 0.35984385 0.3275495 0.36534277 0.27565938

module.layer2.0.bn1.bias f4 [32]
00000000: b0c1 f6bd 03b8 f83c 7d89 85bd 4580 43bc
00000010: aac3 87bd 3781 223b ac0f 55bd 41f7 c8bc
00000020: dc10 a63b eef8 afbb 1b66 56bc d2d8 09bd
00000030: c064 54be 1b18 01bd 1651 cbbd 1016 96bd
00000040: 80c1 75bd 9bc2 443c 6d64 733d 3b18 3abd
00000050: 3804 7f3d aeb6 3dbe 3027 25bd ff7c ef3d
00000060: 9c18 44bd 3386 18be 1f2b 16bd 4468 653d
00000070: 067d 80bd 3db3 15be 1f8c 97bd 1439 30bc
-0.12048662 0.030361181 -0.065203644 -0.011932437 -0.06629117 0.0024796256 -0.0520169 -0.024531962
0.0050679278 -0.005370251 -0.013085867 -0.03365404 -0.20741558 -0.03151713 -0.09927575 -0.07328427
-0.05999899 0.012009288 0.059421945 -0.045433264 0.062259883 -0.18526718 -0.040320575 0.11693763
-0.04787503 -0.14894943 -0.036662217 0.05600764 -0.06273846 -0.14619155 -0.07399773 -0.010755796

module.layer2.0.bn1.running_mean f4 [32]
00000000: 3274 183e 2200 16bf 20f1 f9be 06e8 03be
00000010: d418 64be c5c8 0ebf 3e80 34bf 1418 f93e
00000020: c51e 01bf 75c4 2cbf 1728 123e 9fa1 bc3c
00000030: 76f5 61be c3d3 9fbe 799f b2be 42b3 61bf
00000040: d8ee 39be 4bc7 4dbe 9f69 c5be bfb6 35be
00000050: a9fe f3be 13f5 893e 40a7 10bf 63a8 28bf
00000060: 26ef eebd d05b a63e b2b8 17bd eb99 b0be
00000070: 8a8e 36bf 8520 24be 4af2 a2be 65a0 37bf
0.14888075 -0.5859395 -0.48816776 -0.12881479 -0.22275096 -0.557751 -0.7050818 0.48651183
-0.50437576 -0.6748727 0.14273106 0.023026286 -0.22066292 -0.3121625 -0.34887293 -0.8816415
-0.18157518 -0.20095555 -0.38557145 -0.17745493 -0.47655228 0.2694479 -0.56505203 -0.6588194
-0.11666708 0.32491922 -0.037041374 -0.3449243 -0.7131125 -0.1602803 -0.31825477 -0.7172912

module.layer2.0.bn1.running_var f4 [32]
00000000: 482f 2a3e 886b 573e 28e6 213e 0bf3 e03d
00000010: 2dab e73d 4122 663e fb68 523e ec02 c93d
00000020: 942d 133e bda4 863e 4eb4 633e 9da8 3f3e
00000030: 34df 1d3e f2f7 f33d 0c15 103e 8269 123e
00000040: d252 1e3e 1f85 7f3e 1104 353e ff03 133e
00000050: 007d 913e cd1b 333e 3f6f 663e d431 383e
00000060: e266 3c3e ad4c 623e 766d 063e e977 c73d
00000070: aacd 073e 321e fb3d 7836 253e ed1b 153e
0.16619599 0.21037114 0.15810454 0.10983857 0.11311946 0.22474004 0.2054786 0.098150104
0.14372855 0.2629756 0.2223675 0.18716665 0.15417176 0.11912526 0.14070529 0.1429806
0.15461281 0.24953125 0.17677332 0.14356993 0.2841568 0.17491074 0.22503375 0.17987758
0.18398622 0.22099562 0.13127694 0.09739668 0.13262048 0.12261619 0.1613406 0.14561434
