results/pM7Y/cifar10/kd/resnet8_best.pth.tar (torch_old, 371294 bytes, 52 tensors)

module.conv1.weight f4 [64, 3, 3, 3]
0.09453002 0.2529864 -0.010825076 0.2504242 0.47328854 0.18296139 -0.04292904 0.13015452
-0.1557475 0.024129257 -0.3214184 -0.15830724 -0.15079956 -0.6973114 -0.2972878 0.13858876
-0.24327102 0.005573008 -0.03281909 0.15642609 0.076962784 -0.090443365 0.014983483 0.11135673
0.01841912 0.120320246 0.15772164 0.00019048603 4.344587e-05 -0.00019643079 0.00028801832 -3.3482086e-06
-0.00037160626 8.441136e-05 -9.187815e-05 -0.00033814317 -0.00016323243 -0.00023013064 -0.00012666588 -0.00015336578
-0.0003120519 -0.00023380273 -8.653957e-05 -0.0001478687 -6.209913e-05 -0.00030268345 -4.735917e-05 8.4947664e-05
-0.00023030238 -5.4534375e-08 0.00013448411 -0.00015579791 8.105594e-05 0.00023895358 -0.06584512 -0.1223848
-0.04187966 -0.14838977 -0.20795494 -0.14885868 -0.112397976 -0.18451667 -0.0843217 0.09172136
0.06309147 0.06247931 0.064442314 0.08350415 0.021881482 0.046301812 0.05928667 0.06703859
-0.029563144 0.018572154 -0.05521343 0.09881366 0.20642735 0.08071883 0.10874355 0.19041139
0.12822717 -0.033140842 -0.28750843 -0.08599458 0.24916832 -0.16002007 -0.022743301 0.023469392
0.046977192 0.18489434 -0.08526506 -0.30582908 -0.13128504 0.13403909 -0.20847298 -0.13909754
-0.028724307 -0.025091052 0.02192482 -0.073623314 -0.18907629 -0.0022975358 0.1367317 -0.0831548
0.03600159 -0.023397775 0.012292167 0.11901289 -0.20165834 0.099823534 0.22060896 -0.730152
-0.35696352 0.50989443 -0.29743397 0.28242305 0.47699812 0.2683402 0.17703675 -0.07418248
0.053634275 -0.3916447 -0.26188764 0.1399104 0.19571023 -0.16629988 0.1176984 0.0067664264
0.03374257 0.27000162 -0.15979205 -0.21603957 0.20347317 0.13377526 -0.2547746 -0.021915102
-0.012094648 -0.090163015 -0.03392181 -0.03996967 -0.029030353 -0.053996634 -0.09123352 0.011888842
-0.022736497 -0.063983396 -0.08902155 -0.07246971 -0.1516942 -0.05292491 -0.023109483 -0.13373898
0.040623315 -0.0057060937 0.03972928 -0.01259862 0.003042848 -0.023057126 0.0036374272 -0.08685084
-0.18656756 -0.056410845 -0.017491342 -0.01808287 -0.063378006 0.12363362 0.15170765 0.14120258
0.016511707 0.049977858 0.09553743 -0.05015705 -0.053741906 -0.07650477 0.008739383 0.01870706
0.0066735316 -0.025820116 -0.014305385 0.013840883 -0.014594004 0.01878167 0.036177862 -0.09076529
-0.065033585 -0.043836825 -0.081286006 -0.08855821 -0.077047564 0.088947825 0.11405844 0.050835695
0.13357927 0.1867861 0.1932971 -0.082699634 -0.060790572 -0.040290162 0.005208253 -0.10293467
0.017959105 0.024666982 -0.1062308 0.122053884 -0.014735096 -0.14870599 0.045770004 -0.0904434
-0.18870269 0.03990323 -0.090117395 -0.308342 0.024300462 -0.014540001 -0.24452499 0.0015000567
-8.439486e-06 -8.273363e-06 -7.391265e-06 -1.6332729e-06 -5.044059e-07 -2.2176914e-06 2.955914e-06 3.71897e-06
2.3266405e-06 -2.8441732e-06 2.0588337e-07 5.904066e-07 3.9028887e-07 4.184753e-06 2.9887506e-06 6.4749446e-07
2.3385853e-06 2.0138555e-06 -2.5134048e-06 1.0972336e-06 3.5577864e-06 -7.5362977e-06 -5.2012983e-06 -2.9259086e-06
-1.0954219e-05 -1.1674937e-05 -9.292403e-06 0.14187405 0.20055474 0.07449288 0.13258483 0.16307126
0.20976825 -0.061307244 -0.340266 -0.002725096 -0.006179957 0.086704016 0.00089732226 -0.03230603
00000000: f598 c13d 6f87 813e a95b 31bc 9a37 803e
00000010: e052 f23e 3b5a 3b3e 5cd6 2fbd 3a47 053e
00000020: 467c 1fbe b8aa c53c f490 a4be 4b1b 22be
00000030: 336b 1abe 0083 32bf 1b36 98be 36ea 0d3e
00000040: 0a1c 79be c89d b63b 4f6d 06bd 292e 203e
00000050: aa9e 9d3d 5f3a b9bd 487d 753c ff0e e43d
00000060: b2e3 963c 766a f63d c881 213e 34bd 4739
00000070: a639 3638 fdf8 4db9 2a01 9739 c9b1 60b6
00000080: 26d4 c2b9 0106 b138 b5ae c0b8 cf48 b1b9
00000090: 5f29 2bb9 394f 71b9 9dd1 04b9 d0d0 20b9
000000a0: e69a a3b9 f128 75b9 947c b5b8 340d 1bb9
000000b0: 373b 82b8 7cb1 9eb9 86a3 46b8 ee25 b238
000000c0: 537d 71b9 2e39 6ab3 4e04 0d39 af5d 23b9
000000d0: 94fc a938 9d8f 7a39 ced9 86bd e2a4 fabd
000000e0: 028a 2bbd 7df3 17be 24f2 54be 696e 18be
000000f0: e930 e6bd f0f1 3cbe dbb0 acbd 69d8 bb3d
00000100: 1a36 813d 4eea 7f3d 55fa 833d 3904 ab3d
00000110: cb40 b33c f8a6 3d3d 94d6 723d 874b 893d
00000120: 682e f2bc a124 983c 7a27 62bd d15e ca3d
00000130: b161 533e ea4f a53d f0b4 de3d 34fb 423e
00000140: fc4d 033e b1be 07bd 4e34 93be ed1d b0bd
00000150: fb25 7f3e 4ddc 23be 2950 babc e242 c03c
00000160: 286b 403d f154 3d3e 739f aebd a195 9cbe
00000170: 966f 06be 8b41 093e f179 55be 966f 0ebe
00000180: 3d4f ebbc c08b cdbc ae9b b33c d2c7 96bd
00000190: 379d 41be 4192 16bb 6503 0c3e 104d aabd
000001a0: 6776 133d b1ac bfbc 1665 493c 08bd f33d
000001b0: 867f 4ebe 4870 cc3d 51e7 613e 3eeb 3abf
000001c0: ecc3 b6be 7188 023f 4449 98be c199 903e
000001d0: 1939 f43e e363 893e 1f49 353e fcec 97bd
000001e0: 9daf 5b3d a785 c8be 2316 86be ac44 0f3e
000001f0: 4368 483e 844a 2abe dc0b f13d e6b8 dd3b
00000200: a635 0a3d a73d 8a3e 87a0 23be 7a39 5dbe
00000210: 455b 503e 62fc 083e d171 82be 4d87 b3bc
00000220: a128 46bc 63a7 b8bd 99f1 0abd 3db7 23bd
00000230: 10d1 edbc 932b 5dbd a4d8 babd 6bc9 423c
00000240: e441 babc ba09 83bd ee50 b6bd 006b 94bd
00000250: b955 1bbe cac7 58bd 1950 bdbc dff2 08be
00000260: a264 263d 2ffa babb 2bbb 223d 716a 4ebc
00000270: 856a 473b 4ce2 bcbc e761 6e3b dade b1bd
00000280: 910b 3fbe 0f0f 67bd 014a 8fbc 8722 94bc
00000290: 54cc 81bd a033 fd3d 4059 1b3e 6997 103e
000002a0: 8f43 873c 95b5 4c3d 21a9 c33d 7b71 4dbd
000002b0: 7920 5cbd 88ae 9cbd a12f 0f3c 8c3f 993c
000002c0: a4ad da3b b584 d3bc 2261 6abc dfc4 623c
000002d0: b01b 6fbc 04dc 993c 3d2f 143d 27e3 b9bd
000002e0: 5430 85bd 3e8e 33bd 4779 a6bd 025e b5bd
000002f0: 1dcb 9dbd 472a b63d 7997 e93d 1739 503d
00000300: 01c9 083e db44 3f3e adef 453e 6d5e a9bd
00000310: 89ff 78bd 4c07 25bd fea9 aa3b 6acf d2bd
00000320: f91e 933c 6912 ca3c 898f d9bd 63f7 f93d
00000330: 796b 71bc 6246 18be 5479 3b3d 643a b9bd
00000340: 473b 41be 9271 233d 788f b8bd 01df 9dbe
00000350: c311 c73c 2f39 6ebc c264 7abe 8d9d c43a
00000360: 5197 0db7 d3cd 0ab7 7c02 f8b6 d436 dbb5
00000370: 8266 07b5 a6d3 14b6 375e 4636 6b93 7936
00000380: 6123 1c36 86de 3eb6 ca10 5d34 6f7c 1e35
00000390: e588 d134 c16a 8c36 5892 4836 7bcf 2d35
000003a0: 97f0 1c36 c625 0736 f7ab 28b6 a944 9335
000003b0: 4ec2 6e36 4ee0 fcb6 d086 aeb6 ba5a 44b6
000003c0: 03c8 37b7 79df 43b7 91e6 1bb7 6e47 113e
000003d0: 395e 4d3e b98f 983d 51c4 073e 27fc 263e
000003e0: 7dcd 563e 4e1d 7bbd 5837 aebe 8697 32bb
000003f0: 3d81 cabb e091 b13d 473a 6b3a 5453 04bd

module.bn1.weight f4 [64]
0.18766718 0.00010493021 0.22838463 0.71524537 0.32381463 0.23893583 0.2524255 0.3560874
6.2465315e-06 0.4744562 0.003727614 0.28072882 0.85376436 0.18109612 0.4210164 0.30426705
0.45671338 0.47257864 0.60449 0.22003846 0.20156088 0.2694823 0.45552236 0.015791038
0.0001494966 0.003522095 0.25755072 0.27824906 0.3657548 4.252027e-06 0.35913926 0.15631762
0.2770688 0.18059063 0.34647575 0.47561362 0.23279637 0.24989513 0.26413363 0.31746677
0.2781244 1.1736693e-06 0.3322069 0.46617672 0.36084664 0.4508325 1.4178675e-06 0.67222154
0.15349184 0.40402874 0.00024359178 0.35859323 0.22732604 0.26422155 0.0009412476 0.49977347
0.29238647 0.21502772 0.3683705 0.5885251 0.31505185 0.26341382 0.24489503 0.25108045
00000000: d32b 403e fa0d dc38 a9dd 693e 521a 373f
00000010: 08cb a53e 98ab 743e ea3d 813e 1651 b63e
00000020: 4c99 d136 eceb f23e fc4a 743b b0bb 8f3e
00000030: 4d90 5a3f 4371 393e 768f d73e e4c8 9b3e
00000040: 56d6 e93e d4f5 f13e dbbf 1a3f c351 613e
00000050: fa65 4e3e 96f9 893e 3a3a e93e 355c 813c
00000060: 30c2 1c39 f3d2 663b b0dd 833e a976 8e3e
00000070: 3744 bb3e a2ac 8e36 1ae1 b73e ba11 203e
00000080: f6db 8d3e c0ec 383e 4565 b13e a183 f33e
00000090: 2c62 6e3e 82e4 7f3e 863c 873e 018b a23e
000000a0: 5266 8e3e f886 9d35 0617 aa3e b7ae ee3e
000000b0: e4c0 b83e 84d3 e63e 8e4d be35 b616 2c3f
000000c0: f72c 1d3e dbdc ce3e ac6c 7f39 8899 b73e
000000d0: 28c8 683e 0c48 873e 0fbe 763a 4fe2 ff3e
000000e0: aeb3 953e 3a30 5c3e 0f9b bc3e 95a9 163f
000000f0: 7a4e a13e 2dde 863e c3c5 7a3e 9e8d 803e

module.bn1.bias f4 [64]
0.093093954 -0.0002635797 -0.0042334218 -0.64457434 0.19598155 0.07953716 -0.4483294 -0.18646151
-1.4974172e-05 -0.5182864 -0.0074183927 0.08521563 -0.77655244 0.19642194 -0.39340848 -0.07165365
-0.16632798 -0.29507557 -0.32666248 0.20222127 0.12402186 0.20987152 -0.4024582 -0.030237954
-0.00023798186 -0.00796319 -0.28140804 0.07551418 0.19074768 -1.2067781e-05 -0.29191563 0.065494806
0.088240676 0.09173018 -0.32281289 -0.4296393 0.021436634 -0.028207006 0.03560673 0.14722489
-0.2513566 -7.993401e-06 0.46428114 -0.31475064 0.0020094463 -0.07167826 -5.779423e-06 -0.4856786
-0.14918593 0.28948376 -0.00045350203 0.03533618 0.21324766 0.29904783 -0.0032812976 -0.3433563
0.080627896 0.18137772 0.21606559 -0.38079372 0.28109485 0.13566758 -0.15300655 0.006900604
00000000: 0ba8 be3d 1231 8ab9 84b8 8abb d302 25bf
00000010: 63af 483e 61e4 a23d 6e8b e5be c4ef 3ebe
00000020: 9439 7bb7 6bae 04bf fd15 f3bb 8885 ae3d
00000030: 24cc 46bf d522 493e d66c c9be 26bf 92bd
00000040: e251 2abe 2514 97be 4e40 a7be 1813 4f3e
00000050: 2cff fd3d 8fe8 563e 000f cebe 96b5 f7bc
00000060: c58a 79b9 0a78 02bc b714 90be 2ea7 9a3d
00000070: 5c53 433e ba76 4ab7 f775 95be 2422 863d
00000080: 87b7 b43d 08dd bb3d bb47 a5be aff9 dbbe
00000090: e19b af3c 6112 e7bc 5dd8 113d 1fc2 163e
000000a0: d0b1 80be 651b 06b7 42b6 ed3e ff26 a1be
000000b0: eab0 033b 0dcc 92bd deec c1b6 deaa f8be
000000c0: 32c4 18be 3737 943e 03c4 edb9 acbc 103d
000000d0: 985d 5a3e cc1c 993e 0a0b 57bb 66cc afbe
000000e0: 3d20 a53d 15bb 393e 4c40 5d3e 65f7 c2be
000000f0: aaeb 8f3e 71ec 0a3e c0ad 1cbe 761e e23b

module.bn1.running_mean f4 [64]
0.039527427 0.0006033671 -0.04882899 0.28420058 0.028277878 0.35810107 0.011347576 0.12363912
1.39286285e-05 -0.08167619 0.006574663 -0.06136714 0.36782175 0.08820867 -0.1610497 -0.00029372732
0.05287502 0.2330994 0.08504842 -0.022080313 -0.11947584 -0.0035429932 0.017538466 0.024055073
-0.00023868289 0.0067802267 -0.09871708 -0.005560161 0.06463373 -1.043661e-05 -0.06895255 -0.039578456
-0.011258332 0.019939004 -0.05176647 -0.18659718 0.07145958 -0.10905494 0.017250463 0.0559683
0.05658258 -4.4378558e-06 0.023840582 0.034646083 0.010933688 0.22211619 8.601373e-06 0.26451087
0.043347463 0.05810672 0.00034897326 -0.016978865 0.01909415 0.008448685 -0.0039951922 -0.03271229
-0.014416437 -0.0062155025 -0.093295366 0.19117913 0.07061655 -0.042809065 -0.007612453 -0.011943385
00000000: 83e7 213d 482b 1e3a e800 48bd bd82 913e
00000010: 02a7 e73c 0659 b73e 2feb 393c 8236 fd3d
00000020: 01af 6937 d945 a7bd 4570 d73b 1c5c 7bbd
00000030: 2253 bc3e bfa6 b43d 36ea 24be 6aff 99b9
00000040: 7a93 583d 9cb1 6e3e de2d ae3d c6e1 b4bc
00000050: c0af f4bd 9031 68bb d4ac 8f3c 250f c53c
00000060: f346 7ab9 aa2c de3b 2e2c cabd 0332 b6bb
00000070: b05e 843d e618 2fb7 ff36 8dbd 051d 22bd
00000080: de74 38bc 1f57 a33c 1409 54bd 5513 3fbe
00000090: 6659 923d 3258 dfbd d850 8d3c 043f 653d
000000a0: 23c3 673d e4e8 94b6 534d c33c 0de9 0d3d
000000b0: 3623 333c 6d72 633e 9e4e 1037 f86d 873e
000000c0: 1c8d 313d 5001 6e3d 66f6 b639 4317 8bbc
000000d0: 566b 9c3c 5a6c 0a3c 1aea 82bb 52fd 05bd
000000e0: eb32 6cbc 6aab cbbb a411 bfbd 76c4 433e
000000f0: 699f 903d 8f58 2fbd e271 f9bb 30ae 43bc

module.bn1.running_var f4 [64]
0.34022593 6.254863e-06 0.549235 2.0806313 0.57176375 2.2016952 0.14410764 0.8339034
4.1002135e-09 0.55618274 0.0008845302 1.0264075 3.4797578 1.1183363 0.71152663 0.1193161
0.6398155 1.5466858 1.0561398 0.32040834 1.8075472 0.35732445 0.3618335 0.012899038
1.3792323e-06 0.0010038915 0.22471324 2.0118852 1.8739159 2.19108e-09 0.40395284 0.2284956
2.3442163 0.78723764 0.3502316 0.68873364 0.34213966 0.3417691 1.0449008 0.75406533
0.14528215 1.3416667e-09 0.26703596 0.4881065 1.6185677 1.5266484 1.7176328e-09 1.4676508
0.08297871 1.0846527 2.6709035e-06 0.53932613 0.6132199 0.3571206 0.00035072715 0.9352859
2.2249608 0.28294 1.1065091 1.1748015 5.5963826 2.5740619 0.174441 0.18046384
00000000: 1832 ae3e dde0 d136 aa9a 0c3f 1029 0540
00000010: 1c5f 123f 93e8 0c40 f490 133e b17a 553f
00000020: dce1 8c31 fe61 0e3f d1df 673a 5261 833f
00000030: 5ab4 5e40 a525 8f3f 9c26 363f 005c f43d
00000040: f3ca 233f cdf9 c53f 972f 873f 900c a43e
00000050: b55d e73f 3bf3 b63e 3e42 b93e 7d56 533c
00000060: 101e b935 0295 833a 3a1b 663e bac2 0040
00000070: 7adc ef3f e391 1631 e8d2 ce3e c0fa 693e
00000080: a407 1640 6888 493f 8e51 b33e d950 303f
00000090: ee2c af3e 5cfc ae3e 4fbf 853f 6d0a 413f
000000a0: d8c4 143e b365 b830 f0b8 883e 18e9 f93e
000000b0: 3a2d cf3f 3769 c33f d511 ec30 fbdb bb3f
000000c0: bef0 a93d e6d5 8a3f c63d 3336 4711 0a3f
000000d0: fbfb 1c3f 83d8 b63e cde1 b739 e66e 6f3f
000000e0: c265 0e40 83dd 903e 17a2 8d3f e55f 963f
000000f0: 9115 b340 6ebd 2440 a9a0 323e 83cb 383e

module.layer1.0.conv1.weight f4 [16, 64, 3, 3]
0.0015597001 -0.019188702 -0.07032923 0.08031784 -0.007927211 -0.073713064 0.092043325 0.054680683
0.007767172 8.121708e-05 2.8763663e-05 -3.4372464e-05 6.0980172e-05 1.6692366e-05 -5.571714e-05 0.00012511987
8.8312285e-05 -8.100629e-05 -0.08603611 0.03898568 0.09847956 -0.09366089 0.049734157 0.10714336
-0.099549465 -0.004607818 0.034325033 0.076947145 -0.040644035 -0.086912066 0.15319175 -0.06720318
0.0013881002 0.100181535 -0.15226157 -0.116174236 -0.040009357 -0.021336433 0.050207634 0.061295398
-0.20193417 -0.07175459 -0.032085825 -0.11314182 0.072106816 0.1702479 0.046943024 -0.11212345
0.16242525 0.061689455 -0.11028384 0.07755095 0.018567614 -0.13228703 0.0074525634 0.015687458
-0.012059662 -0.012459394 0.0012816883 -0.044802967 0.011433787 0.0439571 -0.0009767491 -0.059824705
0.01089508 0.026077399 -0.062391914 0.03773749 0.05016116 -0.057077866 0.051848866 0.059773996
1.1110363e-06 2.5269103e-06 2.5886775e-06 7.362029e-07 1.4174423e-06 2.1975472e-06 -2.7010306e-06 -2.4821054e-06
-3.8015156e-07 0.030522358 -0.09239356 -0.056083526 -0.01880667 -0.09010343 -0.049540732 0.0050383806
0.070987426 0.027745064 0.0012671257 0.0022030189 0.0012674852 0.0011161407 0.0008461762 -0.00046203492
-0.00014092198 -0.0013524194 -0.0016878728 0.09291846 0.036789823 0.08407 -0.14401942 -0.11008809
0.019090218 -0.09655231 -0.17542988 -0.026969025 -0.22718537 -0.12623888 -0.06527424 -0.15428375
-0.101990536 -0.03832086 0.0067887064 -0.05461756 0.006337278 -0.034854673 -0.13553672 -0.08801842
-0.050118573 -0.15740402 -0.043501984 0.009863528 -0.08360436 -0.044739336 -0.021060562 0.08813939
0.16061574 -0.032821175 0.10809345 0.07900358 -0.04358936 -0.082604334 -0.15917172 0.050646655
-0.057083547 0.07521265 -0.014226352 0.031832483 0.056516923 0.00590276 0.027098412 -0.03383774
-0.064466245 -0.0069330274 0.004947979 -0.087382704 0.019204034 0.028442651 -0.085677244 -0.06877127
0.066817515 0.032862704 -0.08252895 -0.10361841 0.070163526 -0.039242037 -0.012576953 -0.0014091786
-0.042484805 -0.053808812 0.10133971 0.026673289 -0.046354715 0.101580955 -0.06547036 -0.030222915
0.022420468 -0.07535029 -0.09653748 -0.06481455 0.08414731 0.11938675 0.019487191 0.061791494
0.06508482 0.016238432 -0.113921195 -0.10727532 -0.09618191 -0.033675935 0.013068619 -0.07349872
-0.079461634 -0.013741435 -0.08214755 -0.040112115 0.023506684 -0.0765729 -0.10981631 0.0070671523
0.079884 0.12909049 -0.035821717 0.10254676 0.020277781 -0.14626865 -0.0076595666 -0.006435086
0.0284555 -0.014326273 -0.019950964 0.012628139 -0.022196075 -0.04292502 -0.032290716 -0.0010047604
0.0007447584 0.0039961 -0.0016067913 0.0016432332 0.006580707 -0.0008084322 0.0023971545 0.0047370493
9.31222e-06 -3.6913145e-05 -4.2163374e-05 2.257977e-06 -2.2030277e-05 -3.3144435e-05 -4.870098e-05 -2.4723302e-05
2.22052e-05 0.00084187527 0.0017270684 0.0006138535 0.0017590753 0.0012941397 -0.00072041235 0.00055223005
-0.00081571384 -0.001655651 -0.0031581447 -0.038826413 -0.03833477 -0.01650148 -0.0029340135 0.034089714
0.03779418 0.06256036 0.0479105 0.10722474 -0.017538749 -0.1448835 0.11426016 0.007449001
-0.0639485 0.0029324063 -0.08826081 -0.025639461 -0.07839572 0.17801806 -0.17479159 0.11431699
00000000: da6e cc3a a031 9dbc c508 90bd ae7d a43d
00000010: 22e1 01bc e0f6 96bd 3681 bc3d daf8 5f3d
00000020: c383 fe3b 1653 aa38 7f49 f137 272b 10b8
00000030: f6c4 7f38 9506 8c37 d3b1 69b8 9c32 0339
00000040: 4c34 b938 ece1 a9b8 b333 b0bd 73af 1f3d
00000050: a7af c93d 48d1 bfbd 0bb6 4b3d fa6d db3d
00000060: 97e0 cbbd 2efd 96bb 6898 0c3d 7796 9d3d
00000070: 5c7a 26bd f4fe b1bd 4cde 1c3e d2a1 89bd
00000080: eaf0 b53a fa2b cd3d 75ea 1bbe c2ec edbd
00000090: dae0 23bd bec9 aebc 85a6 4d3d e210 7b3d
000000a0: d5c7 4ebe 12f4 92bd 6d6c 03bd e6b6 e7bd
000000b0: bdac 933d 7755 2e3e 5447 403d fba0 e5bd
000000c0: ce52 263e 15ae 7c3d 7edc e1bd 08d3 9e3d
000000d0: 1c1b 983c 4076 07be a234 f43b fc82 803c
000000e0: e395 45bc 7c22 4cbc 53fe a73a 5183 37bd
000000f0: c754 3b3c 5c0c 343d 4306 80ba c00a 75bd
00000100: 4781 323c 45a0 d53c aa8e 7fbd a092 1a3d
00000110: ca75 4d3d 7bca 69bd 7a5f 543d 94d5 743d
00000120: eb1e 9535 fd93 2936 24b9 2d36 7a9f 4535
00000130: f23e be35 9379 1336 5a43 35b6 3f92 26b6
00000140: a217 ccb4 060a fa3c d638 bdbd d7b7 65bd
00000150: 7210 9abc 2688 b8bd 39eb 4abd 0019 a53b
00000160: db61 913d 9e49 e33c af15 a63a 8660 103b
00000170: bf21 a63a 784b 923a ecd1 5d3a 473d f2b9
00000180: 75c4 13b9 aa43 b1ba 9d3b ddba 094c be3d
00000190: edb0 163d e42c ac3d d479 13be dd75 e1bd
000001a0: 1763 9c3c 38bd c5bd e4a3 33be 25ee dcbc
000001b0: 48a3 68be c444 01be 80ae 85bd 8ffc 1dbe
000001c0: 6ae0 d0bd 56f6 1cbd cc73 de3b aab6 5fbd
000001d0: f1a8 cf3b c6c3 0ebd 23ca 0abe 0043 b4bd
000001e0: 2249 4dbd 852e 21be 232f 32bd a39a 213c
000001f0: c338 abbd 9840 37bd 3387 acbc 6d82 b43d
00000200: 7478 243e 7f6f 06bd 1960 dd3d a1cc a13d
00000210: c28a 32bd 762c a9bd e9fd 22be de72 4f3d
00000220: 70d0 69bd 1709 9a3d a515 69bc c762 023d
00000230: 4a7e 673d f16b c13b 7dfd dd3c 7199 0abd
00000240: e106 84bd 732e e3bb a822 a23b b4f5 b2bd
00000250: c751 9d3c 9000 e93c 8d77 afbd f4d7 8cbd
00000260: 9fd7 883d 0b9b 063d f004 a9bd e435 d4bd
00000270: e5b1 8f3d 42bc 20bd 900f 4ebc 30b4 b8ba
00000280: 8c04 2ebd a166 5cbd 328b cf3d f181 da3c
00000290: 71de 3dbd ad09 d03d 5315 86bd 0c96 f7bc
000002a0: 21ab b73c 4151 9abd 71b5 c5bd 7ebd 84bd
000002b0: 6d55 ac3d 0a81 f43d 9aa3 9f3c 1419 7d3d
000002c0: 314b 853d 7606 853c 844f e9bd 2ab3 dbbd
000002d0: 05fb c4bd c7ef 09bd c31d 563c 7f86 96bd
000002e0: c8bc a2bd c123 61bc fa3c a8bd 9a4c 24bd
000002f0: 1791 c03c 41d2 9cbd 60e7 e0bd 9293 e73b
00000300: 399a a33d 4c30 043e cbb9 12bd 0904 d23d
00000310: 971d a63c 73c7 15be 1afd fabb 6add d2bb
00000320: 821b e93c bfb8 6abc 3470 a3bc 41e6 4e3c
00000330: 8bd4 b5bc 25d2 2fbd 4543 04bd 2ab2 83ba
00000340: e43b 433a b7f1 823b f89a d2ba c261 d73a
00000350: f9a2 d73b f7ec 53ba 9419 1d3b 4039 9b3b
00000360: ae3b 1c37 30d3 1ab8 94d8 30b8 c087 1736
00000370: a9cd b8b7 9104 0bb8 4744 4cb8 e364 cfb7
00000380: 4e45 ba37 4bb1 5c3a cd5e e23a 03eb 203a
00000390: c690 e63a 1fa0 a93a 0eda 3cba 88c3 103a
000003a0: a1d5 55ba 6e02 d9ba e0f8 4ebb 7208 1fbd
000003b0: eb04 1dbd 1d2e 87bc 9448 40bb a8a1 0b3d
000003c0: 12ce 1a3d a51f 803d cd3d 443d a598 db3d
000003d0: 6cad 8fbc 575c 14be 3b01 ea3d c016 f43b
000003e0: 6ef7 82bd 9d2d 403b 15c2 b4bd d909 d2bc
000003f0: ef8d a0bd 5e4a 363e 91fc 32be 071f ea3d

module.layer1.0.bn1.weight f4 [16]
0.6030757 0.58153087 0.5764281 0.6636132 0.7529787 0.4482287 0.48711032 0.5192393
0.58199084 0.7959741 0.5057749 0.47811258 0.5229836 0.54331005 0.5976783 0.69825786
00000000: 2b63 1a3f 35df 143f cb90 133f 8ee2 293f
00000010: 36c3 403f 3b7e e53e 8666 f93e deec 043f
00000020: 5afd 143f f5c4 4b3f 777a 013f 2ccb f43e
00000030: 41e2 053f 5e16 0b3f 7201 193f 07c1 323f

module.layer1.0.bn1.bias f4 [16]
0.1197621 -0.3040547 -0.12435788 0.28777498 0.29447258 -0.1953623 -0.25861162 -0.24757202
-0.15594909 -0.627799 -0.16560702 0.33348742 0.15596567 -0.3153718 -0.17326348 0.141744
00000000: d545 f53d 0fad 9bbe 58af febd 3e57 933e
00000010: 1cc5 963e 0e0d 48be be68 84be 8583 7dbe
00000020: 1eb1 1fbe 6fb7 20bf e394 29be ddbe aa3e
00000030: 77b5 1f3e 6a78 a1be fb6b 31be 5725 113e

module.layer1.0.bn1.running_mean f4 [16]
-0.98167455 -0.542933 -0.653033 -0.84580785 -0.44553402 -0.26037842 -0.34833708 -0.2868168
0.04602553 0.023529844 -0.64281464 -0.42279336 -0.29121083 -0.16883707 -0.07237148 -0.73718834
00000000: 064f 7bbf a8fd 0abf 2c2d 27bf dd86 58bf
00000010: 091d e4be 5250 85be 3d59 b2be a7d9 92be
00000020: 4485 3c3d a9c1 c03c 808f 24bf 5f78 d8be
00000030: 9619 95be a0e3 2cbe 8037 94bd 60b8 3cbf

module.layer1.0.bn1.running_var f4 [16]
0.68280584 0.20866886 0.56254655 0.40999824 0.45941162 0.14259985 0.1850983 0.17674603
0.54525995 0.20033897 0.4194452 0.2589295 0.32926783 0.13749968 0.43407765 0.55104387
00000000: 5dcc 2e3f 4aad 553e 0d03 103f 4aeb d13e
00000010: 0038 eb3e b205 123e 698a 3d3e e9fc 343e
00000020: 2896 0b3f a925 4d3e 85c1 d63e 6892 843e
00000030: cb95 a83e b7cc 0c3e 6d3f de3e 3611 0d3f

module.layer1.0.conv2.weight f4 [16, 16, 3, 3]
-0.12655847 -0.020395294 0.31064054 -0.49921802 0.04231364 0.48197004 -0.13882832 -0.033365216
0.20186019 0.11408085 0.0042154123 -0.12043348 0.03107829 0.10667712 0.016405027 -0.003942758
0.056411527 0.01700843 0.008317328 0.023697631 -0.086659916 0.013029106 0.0067950785 -0.0010786332
0.16009176 0.016149415 -0.117752254 -0.03525965 -0.16218686 0.23250754 0.019024268 -0.34408778
0.189362 0.0040374524 -0.15024681 0.087628424 0.03946846 -0.05271147 0.005348503 -0.055122335
-0.2886038 0.20613079 -0.06262444 0.049288668 -0.099902555 0.18802139 -0.1633232 0.021688476
0.10905065 -0.15259479 -0.038969968 -0.02338497 -0.039632056 0.07293233 0.006995621 0.03358406
0.051446076 -0.011740226 0.07883691 0.16832237 0.058234394 0.031458475 0.08038962 -0.09993906
0.0032657792 -0.004242159 0.038004234 0.0072045187 -0.1412394 -0.035841703 -0.16647254 -0.12231056
0.06003801 -0.16501985 -0.056549974 0.13468131 0.02843753 -0.19278923 0.14804049 0.10884455
-0.1788391 0.01734065 0.027412249 -0.13313325 -0.018617524 -0.06418532 -0.19849598 -0.05574844
-0.0040466534 -0.1433424 -0.1031697 0.04332515 0.11920459 -0.054736685 0.183466 0.06130609
-0.16220413 0.027362235 -0.097617894 -0.030905474 0.007574775 0.09542835 -0.10000823 -0.098753504
0.040930636 0.19468267 -0.004277025 0.06534418 0.17553851 0.21757898 -0.015700143 -0.16032855
-0.1817801 -0.071294054 -0.0684171 -0.046684153 0.019073583 -0.052691948 0.029217638 -0.01672481
-0.09740883 -0.0609382 0.01231027 -0.029392188 0.048141696 0.1103299 -0.04922997 -0.060377937
0.2551736 -0.028252313 -0.05106061 0.18708853 -0.10463144 -0.028814133 0.15362565 0.026273161
0.04173921 -0.06522251 0.29450026 0.18407948 -0.5660639 0.31741378 0.028197756 -0.18355115
0.12861301 0.05309454 -0.16560425 0.05774801 0.13672955 0.13458619 -0.12418879 0.077165276
0.291465 0.032309897 -0.022721207 -0.033278063 0.14625378 -0.030750496 0.0059173517 0.21266429
0.17569172 -0.015421327 0.2443031 -0.0061758105 -0.13647905 0.18310434 0.17365055 0.062598296
-0.025608415 0.029395197 0.037143257 -0.06168261 0.3566818 0.25271407 -0.41112378 -0.08788464
0.11539765 0.15778977 -0.13484323 -0.23229684 -0.08046878 0.052948665 -0.122951075 -0.06793435
0.07477148 0.15534925 -0.23713352 -0.053085905 0.16503568 0.08982008 0.17547396 0.14223735
0.06319122 0.16579293 0.13225059 0.012334064 0.043656822 -0.08295908 -0.028372036 -0.13540967
-0.08762833 -0.086379945 -0.18612126 -0.13470273 0.06405003 -0.090525486 -0.045757003 0.20557679
-0.10392517 -0.06767841 0.07315666 0.16791604 -0.077953495 -0.15989555 0.093234226 0.010635195
-0.025720356 -0.19066098 0.023445407 0.06914081 -0.14639848 -0.18662402 0.1001894 0.038357936
-0.08765498 -0.04171189 -0.14763853 0.08294652 -0.046122625 -0.19104192 0.0073533766 -0.23153272
-0.3416997 -0.09707396 0.16911875 -0.06677076 -0.0044217594 0.25634378 0.031996533 0.02204116
0.021320658 -0.15624961 0.020313008 -0.07945893 0.15064172 0.074621916 -0.016351633 -0.0017942137
0.03421451 -0.034794703 -0.064967975 0.051970605 0.024633687 -0.1489313 -0.44974396 0.4377032
00000000: 8b98 01be 0814 a7bc 470c 9f3e 8199 ffbe
00000010: 1151 2d3d c7c4 f63e 0329 0ebe f7a9 08bd
00000020: 70b4 4e3e 38a3 e93d 7121 8a3b d4a5 f6bd
00000030: e697 fe3c 8979 da3d d663 863c 4032 81bb
00000040: c60f 673d 4355 8b3c 6745 083c 8921 c23c
00000050: c17a b1bd 0878 553c 40a9 de3b ed60 8dba
00000060: 18ef 233e c74b 843c 1828 f1bd 6c6c 10bd
00000070: 5014 26be 7516 6e3e c8d8 9b3c 462c b0be
00000080: 1de8 413e 9b4c 843b 4dda 19be 8876 b33d
00000090: aea9 213d fbe7 57bd 7f42 af3b f5c7 61bd
000000a0: e1c3 93be f313 533e 3e41 80bd eae2 493d
000000b0: b699 ccbd ae88 403e 323e 27be 08ac b13c
000000c0: f255 df3d cf41 1cbe f99e 1fbd d691 bfbc
000000d0: 3955 22bd 8c5d 953d 863b e53b 708f 093d
000000e0: 1fb9 523d 145a 40bc 3f75 a13d b35c 2c3e
000000f0: 3087 6e3d 9ada 003d 50a3 a43d daac ccbd
00000100: af06 563b cf01 8bbb 54aa 1b3d e213 ec3b
00000110: 10a1 10be c0ce 12bd c777 2abe f57d fabd
00000120: 6bea 753d f7fa 28be f2a0 67bd e6e9 093e
00000130: d3f5 e83c 8a6a 45be ed97 173e e4e9 de3d
00000140: 9921 37be fb0d 8e3c a78f e03c 1554 08be
00000150: c783 98bc 9873 83bd 8842 4bbe 7a58 64bd
00000160: ca99 84bb 5ac8 12be a34a d3bd b675 313d
00000170: 8921 f43d 9333 60bd 83de 3b3e 181c 7b3d
00000180: d718 26be c426 e03c e4eb c7bd 7a2d fdbc
00000190: d135 f83b f06f c33d 1dd1 ccbd 473f cabd
000001a0: e2a6 273d e55a 473e 4926 8cbb 2bd3 853d
000001b0: 5ec0 333e 06cd 5e3e 969d 80bc 2b2d 24be
000001c0: 9024 3abe 9e02 92bd 441e 8cbd e237 3fbd
000001d0: 3440 9c3c 83d3 57bd d459 ef3c 7802 89bc
000001e0: 487e c7bd 569a 79bd 04b1 493c e3c7 f0bc
000001f0: 3a30 453d a5f4 e13d 5da5 49bd db4e 77bd
00000200: 1da6 823e 6571 e7bc ee24 51bd 2394 3f3e
00000210: 0249 d6bd 9e0b ecbc 0b50 1d3e d03a d73c
00000220: bcf6 2a3d 6193 85bd bdc8 963e 557f 3c3e
00000230: 90e9 10bf 0f84 a23e fbfe e63c d5f4 3bbe
00000240: 21b3 033e a979 593d 2994 29be 2d89 6c3d
00000250: d502 0c3e f6d0 093e b156 febd d408 9e3d
00000260: e73a 953e 6257 043d d321 babc 944e 08bd
00000270: 8dc3 153e 77e8 fbbc 58e6 c13b abc4 593e
00000280: 88e8 333e bca9 7cbc 982a 7a3e 745e cabb
00000290: 2ac1 0bbe b47f 3b3e 73d1 313e 8933 803d
000002a0: bdc8 d1bc 32ce f03c 8723 183d e8a6 7cbd
000002b0: ff9e b63e bd63 813e d17e d2be ddfc b3bd
000002c0: 9a55 ec3d a493 213e 5814 0abe 39df 6dbe
000002d0: d1cc a4bd b3e0 583d c6cd fbbd 2a21 8bbd
000002e0: ca21 993d e013 1f3e 21d3 72be 9b70 59bd
000002f0: 1dff 283e 97f3 b73d 72af 333e aba6 113e
00000300: 666a 813d 9fc5 293e b36c 073e d014 4a3c
00000310: 7fd1 323d 73e6 a9bd 796c e8bc d5a8 0abe
00000320: 7b76 b3bd f8e7 b0bd 9296 3ebe 83ef 09be
00000330: aa2c 833d 6d65 b9bd b26b 3bbd b982 523e
00000340: b8d6 d4bd fa9a 8abd 29d3 953d 2ff2 2b3e
00000350: 15a6 9fbd a9bb 23be 96f1 be3d 3e3f 2e3c
00000360: 7fb3 d2bc a23c 43be 9510 c03c b299 8d3d
00000370: 7ce9 15be 5e1a 3fbe 1a30 cd3d 361d 1d3d
00000380: 7484 b3bd 16da 2abd 8e2e 17be dddf a93d
00000390: 14eb 3cbd 7ea0 43be 98f4 f03b ea16 6dbe
000003a0: 43f3 aebe b6ce c6bd 772d 2d3e 1cbf 88bd
000003b0: 68e4 90bb 7e3f 833e cc0e 033d aa8f b43c
000003c0: a9a8 ae3c e6ff 1fbe 7767 a63c 5dbb a2bd
000003d0: d341 1a3e 60d3 983d dcf3 85bc d22b ebba
000003e0: 8424 0c3d e484 0ebd ee0d 85bd 21df 543d
000003f0: 96cc c93c 7281 18be d744 e6be a21a e03e

module.layer1.0.bn2.weight f4 [16]
0.77812994 0.8422179 0.4266138 0.78495145 0.47151574 0.36731592 0.96365696 0.47914773
1.0917135 0.9613657 0.68115765 0.67626053 0.9666044 0.66445136 0.5279787 0.36526415
00000000: 8633 473f 989b 573f 206d da3e 94f2 483f
00000010: 836a f13e d510 bc3e 39b2 763f da52 f53e
00000020: 45bd 8b3f 101c 763f 5960 2e3f 691f 2d3f
00000030: 6373 773f 7c19 2a3f 9d29 073f e703 bb3e

module.layer1.0.bn2.bias f4 [16]
-0.06926308 -0.077078864 0.072733544 -0.2416681 0.12003419 0.17120515 -0.059005667 0.26394272
-0.09592281 -0.040538207 0.03237932 -0.09113205 -0.021971846 -0.1353133 0.053493164 0.15941064
00000000: cdd9 8dbd 86db 9dbd 53f5 943d d877 77be
00000010: 7cd4 f53d 6750 2f3e edaf 71bd 8023 873e
00000020: 2e73 c4bd 640b 26bd 2ea0 043d 71a3 babd
00000030: 4dfe b3bc 928f 0abe a61b 5b3d 8b3c 233e

module.layer1.0.bn2.running_mean f4 [16]
-0.12147768 0.23471232 -0.08134864 -0.0769703 -0.3085028 0.017505582 -0.12630424 -0.26272157
-0.01056592 0.0068166745 0.02431433 0.06981398 -0.026210338 -0.26819858 -0.04968912 -0.06603901
00000000: 4ac9 f8bd 6d58 703e 1e9a a6bd 9ba2 9dbd
00000010: 14f4 9dbe de67 8f3c e655 01be 7183 86be
00000020: ae1c 2dbc 695e df3b d92e c73c a2fa 8e3d
00000030: 10b7 d6bc 5351 89be d286 4bbd 763f 87bd

module.layer1.0.bn2.running_var f4 [16]
0.4399592 0.530706 0.17303956 0.18064326 0.25741914 0.16674866 0.61150354 0.20853123
0.7944645 0.88309366 0.33379185 0.16361654 0.8118866 0.38555506 0.20166993 0.17464969
00000000: 5542 e13e 59dc 073f 4831 313e 8cfa 383e
00000010: 71cc 833e 29c0 2a3e 7f8b 1c3f 3689 553e
00000020: 0762 4b3f 6d12 623f c4e6 aa3e 188b 273e
00000030: cdd7 4f3f 7967 c53e 9082 4e3e 5ed7 323e

module.layer1.0.shortcut.0.weight f4 [16, 64, 1, 1]
-0.018308703 7.092615e-05 -0.016491799 -0.013665588 0.017056473 0.025917362 0.0791751 0.08752697
-2.609128e-06 -0.0004944097 0.0012867944 -0.079354584 0.0045446907 -0.06846724 0.03718296 -0.015958263
-0.06962532 -0.09765009 -0.289587 0.014166323 -0.24025677 0.014274625 0.12206849 -0.0012255915
9.8012315e-06 0.0013398526 -0.046513524 0.17871886 0.3844773 6.057355e-07 -0.039969273 0.059595346
-0.17422298 0.117343605 -0.03804438 -0.117709115 -0.11275457 0.005822909 -0.03045467 -0.06934685
-0.058001876 8.888713e-07 0.05825529 -0.16346528 0.05324144 0.05429992 -1.7848221e-06 0.07957787
-0.036876343 0.15312403 -7.29554e-05 0.047206145 -0.16587436 0.21295518 0.00085209386 -0.027703946
0.0911118 -0.013499179 -0.05537134 -0.01922915 0.043749414 -0.18028234 -0.058519494 0.108660184
-0.07067096 8.2585975e-05 -0.050570898 -0.10269728 -0.09501819 0.1583556 -0.0961209 0.10087971
2.0086381e-06 0.066513956 0.00052644586 -0.2065028 -0.09826363 -0.08207141 0.08129763 -0.05959194
0.08802557 0.0117055625 -0.17388292 -0.08174882 -0.112679124 -0.08672998 0.07639208 0.00440241
4.182272e-06 2.088767e-05 -0.062188372 -0.04395405 0.116237365 2.883925e-06 0.05327839 -0.067145936
-0.17225371 -0.11679362 0.005080305 0.040250987 -0.052074946 -0.07250595 0.035569623 0.13974914
-0.04777742 -2.91322e-06 -0.024980944 0.083946496 -0.14860636 -0.11312025 -1.1241028e-06 -0.11261145
-0.001150829 -0.11853681 -6.5115026e-05 0.041097272 -0.18177292 0.15656893 0.00016018539 0.04692649
0.18064743 0.20477754 -0.023640828 -0.0018091665 -0.3147727 -0.18644406 -0.03150042 -0.14441353
0.1967313 0.00021599844 -0.12717979 -0.1755612 -0.015089621 0.52599967 0.05747331 0.14830217
9.435186e-06 0.06332623 0.00041076486 -0.043003548 0.12263227 0.036295637 0.015283531 0.1893869
-0.03851734 0.14182574 0.09609504 0.038348388 -0.18581049 -0.011773383 0.14466682 0.019811435
0.00011926839 0.0038077564 0.1638056 0.008775723 -0.018257838 -1.689953e-07 0.014189829 0.21782413
-0.05169837 -0.08216507 0.07870403 0.26291347 0.2902816 -0.009810348 0.2618056 0.0572319
-0.048506975 3.6481308e-06 0.027082736 -0.027796196 0.042578608 -0.01616921 4.022492e-07 0.16479857
0.015828364 0.026090477 0.00020862787 -0.04637748 0.28464934 0.22392114 0.0018342526 0.06320831
0.025968255 0.1082596 -0.060590662 0.05971416 -0.25856957 -0.08003597 0.041574717 0.20275961
-0.2737003 -0.00026020675 -0.048433386 -0.054636657 0.03729255 0.06505288 0.0061140135 -0.07064298
-6.8425186e-07 -0.023478027 -0.0021950325 0.2156288 -0.052288525 -0.09962784 -0.14911844 -0.12482407
0.012070196 -0.14331909 0.13494013 0.12583078 -0.08043929 0.017536636 -0.27373862 -0.006945911
6.6490415e-05 -0.0016084008 -0.058877755 -0.17241572 -0.0017093878 -5.9534045e-06 -0.0698356 -0.2020129
-0.15660042 -0.039881103 -0.150256 -0.16553016 -0.24410868 -0.24638413 0.1891338 0.12194263
0.0022324473 5.96223e-06 0.028714245 0.04583159 -0.14615685 -0.050560232 -5.0614026e-06 -0.08925022
-0.05746977 0.02330433 -5.8216352e-05 0.023098435 -0.3176384 -0.060348168 -0.0016709493 -0.045282915
-0.11066962 -0.08678414 0.0085835615 -0.021913782 -0.059675336 -0.18835941 -0.06179671 -0.1619719
00000000: 22fc 95bc 30be 9438 cf19 87bc a1e5 5fbc
00000010: 04ba 8b3c a650 d43c 8e26 a23d 5741 b33d
00000020: 7a18 2fb6 469b 01ba a8a9 a83a a884 a2bd
00000030: a1eb 943b 8d38 8cbd 294d 183d e7ba 82bc
00000040: b897 8ebd c5fc c7bd bf44 94be dd19 683c
00000050: df05 76be 1ee0 693c 0bff f93d 07a4 a0ba
00000060: f86f 2437 fe9d af3a f784 3ebd 1402 373e
00000070: 35da c43e d499 2235 d2b6 23bd 401a 743d
00000080: 8267 32be d851 f03d 6cd4 1bbd 7a11 f1bd
00000090: deeb e6bd 1ace be3b 127c f9bc b905 8ebd
000000a0: 6093 6dbd c59a 6e35 199d 6e3d 7163 27be
000000b0: b213 5a3d 9869 5e3d 058e efb5 b9f9 a23d
000000c0: a60b 17bd 8ccc 1c3e a2ff 98b8 3b5b 413d
000000d0: f8da 29be ec10 5a3e 0d5f 5f3a 63f3 e2bc
000000e0: d398 ba3d a92b 5dbc 0fcd 62bd 7386 9dbc
000000f0: 9632 333d ef9b 38be 23b2 6fbd 3b89 de3d
00000100: f0bb 90bd 0232 ad38 6e23 4fbd f452 d2bd
00000110: e698 c2bd f827 223e 09db c4bd 059a ce3d
00000120: 24cc 0636 7838 883d 2f01 0a3a 7875 53be
00000130: 713e c9bd 0e15 a8bd 5f7f a63d ae16 74bd
00000140: c046 b43d b0c8 3f3c 5d0e 32be ed6b a7bd
00000150: 50c4 e6bd 7d9f b1bd 7373 9c3d 1742 903b
00000160: 7155 8c36 ee37 af37 3cb9 7ebd 2909 34bd
00000170: db0d ee3d 7489 4136 713a 5a3d cf83 89bd
00000180: 4763 30be 7e31 efbd b078 a63b 38de 243d
00000190: 8a4c 55bd 007e 94bd 74b1 113d 661a 0f3e
000001a0: 42b2 43bd bd80 43b6 d6a4 ccbc 24ec ab3d
000001b0: 442c 18be 97ab e7bd e1df 96b5 d5a0 e6bd
000001c0: 6ad7 96ba 6dc3 f2bd 5d8e 88b8 9d55 283d
000001d0: ae22 3abe 9b53 203e 70f7 2739 fe35 403d
000001e0: a4fb 383e 34b1 513e 69aa c1bc 8e21 edba
000001f0: e329 a1be 31eb 3ebe 9606 01bd 24e1 13be
00000200: ee73 493e a47d 6239 6b3b 02be 51c6 33be
00000210: 753a 77bc eaa7 063f 2269 6b3d 86dc 173e
00000220: d14b 1e37 2fb1 813d ed5b d739 7d24 30bd
00000230: a126 fb3d bcaa 143d c667 7a3c a4ee 413e
00000240: 5cc4 1dbd c43a 113e 7acd c43d 3313 1d3d
00000250: 1b45 3ebe 26e5 40bc 8a23 143e 974b a23c
00000260: bb1f fa38 8d8b 793b a8bc 273e 0dc8 0f3c
00000270: 7691 95bc 1375 35b4 757c 683c 4a0d 5f3e
00000280: acc1 53bd 2946 a8bd 942f a13d 989c 863e
00000290: ca9f 943e 95bb 20bc 620b 863e ff6b 6a3d
000002a0: 40af 46bd 69d2 7436 9ddc dd3c d9b4 e3bc
000002b0: e866 2e3d 4b75 84bc b6f4 d734 f5c0 283e
000002c0: 7caa 813c b2bb d53c 1ec3 5a39 50f6 3dbd
000002d0: 8fbd 913e 954b 653e 4e6b f03a 5c73 813d
000002e0: 61bb d43c 36b7 dd3d ea2d 78bd d696 743d
000002f0: 3b63 84be e6e9 a3bd 404a 2a3d 37a0 4f3e
00000300: 7222 8cbe 5c6c 88b9 1662 46bd b0ca 5fbd
00000310: 13c0 183d 723a 853d 1058 c83b 44ad 90bd
00000320: 6ead 37b5 fe54 c0bc 89da 0fbb cccd 5c3e
00000330: 7e2c 56bd ae09 ccbd 81b2 18be c3a3 ffbd
00000340: 12c2 453c 3dc2 12be bf2d 0a3e c9d9 003e
00000350: 5bbd a4bd fea8 8f3c 7827 8cbe 869a e3bb
00000360: c570 8b38 fad0 d2ba cd29 71bd bf8d 30be
00000370: 890d e0ba 5bc3 c7b6 f805 8fbd 78dc 4ebe
00000380: dc5b 20be 5e5a 23bd b5dc 19be bd80 29be
00000390: a0f7 79be 1f4c 7cbe 4aac 413e 0fbd f93d
000003a0: 404e 123b 2a0f c836 233a eb3c e8b9 3b3d
000003b0: 24aa 15be 3f18 4fbd 1ed5 a9b6 d2c8 b6bd
000003c0: 6c65 6bbd b9e8 be3c 552d 74b8 ee38 bd3c
000003d0: 80a1 a2be a42f 77bd c103 dbba 947a 39bd
000003e0: c1a6 e2bd e2bb b1bd 11a2 0c3c 8884 b3bc
000003f0: 206e 74bd 4ae1 40be 8c1e 7dbd f6db 25be

module.layer1.0.shortcut.1.weight f4 [16]
0.35063243 0.33700845 0.48559722 0.5399905 0.42418227 0.43381384 0.17876597 0.5726449
0.048050467 0.078001074 0.27040043 0.52988535 0.12575161 0.6373895 0.44218218 0.4299384
00000000: 1886 b33e 5f8c ac3e 33a0 f83e d13c 0a3f
00000010: 6b2e d93e d91c de3e 6d0e 373e db98 123f
00000020: 91d0 443d 07bf 9f3d ed71 8a3e 91a6 073f
00000030: 08c5 003e f52b 233f b465 e23e e320 dc3e

module.layer1.0.shortcut.1.bias f4 [16]
-0.06926308 -0.077078864 0.072733544 -0.2416681 0.12003419 0.17120515 -0.059005667 0.26394272
-0.09592281 -0.040538207 0.03237932 -0.09113205 -0.021971846 -0.1353133 0.053493164 0.15941064
00000000: cdd9 8dbd 86db 9dbd 53f5 943d d877 77be
00000010: 7cd4 f53d 6750 2f3e edaf 71bd 8023 873e
00000020: 2e73 c4bd 640b 26bd 2ea0 043d 71a3 babd
00000030: 4dfe b3bc 928f 0abe a61b 5b3d 8b3c 233e

module.layer1.0.shortcut.1.running_mean f4 [16]
0.10073292 -0.28905025 0.30709583 -0.32168934 -0.2979718 -0.09631653 -0.09411286 -0.20650297
0.08099109 -0.0071944017 -0.18980967 0.23707898 -0.20397843 -0.1871729 -0.11109763 0.19898407
00000000: 104d ce3d 65fe 93be aa3b 9d3e 77b4 a4be
00000010: c38f 98be 9a41 c5bd 3ebe c0bd 8475 53be
00000020: a8de a53d 04bf ebbb 775d 42be d5c4 723e
00000030: b9df 50be 41aa 3fbe 2787 e3bd 7bc2 4b3e

module.layer1.0.shortcut.1.running_var f4 [16]
0.09763731 0.06372259 0.063301645 0.062880315 0.09282866 0.08311771 0.030389173 0.12466648
0.0085116485 0.02331171 0.052517805 0.051717464 0.032676093 0.17125757 0.057241246 0.084065355
00000000: 12f6 c73d fd80 823d 4ba4 813d 65c7 803d
00000010: f41c be3d 9e39 aa3d b7f2 f83c 2451 ff3d
00000020: 7174 0b3c 33f8 be3c e91c 573d b1d5 533d
00000030: 5ed7 053d 255e 2f3e cc75 6a3d 752a ac3d

module.layer2.0.conv1.weight f4 [32, 16, 3, 3]
-0.04502532 0.021257252 0.09000653 -0.21381837 -0.17634246 -0.07504314 -0.12264309 -0.16760674
-0.021847691 -0.07715507 0.06649335 0.20214544 -0.0935605 0.13448282 0.14803186 -0.052653063
0.11093999 0.017089635 0.12562725 0.039769907 0.016280096 3.8892085e-05 -0.04933525 0.00017417158
-0.06998946 -0.09063954 0.016720293 -0.0029231007 -0.016600516 -0.012980268 -0.03826785 0.027553122
0.024040377 -0.08616448 -0.06287239 -0.01218202 -0.047453444 -0.10247479 0.012038172 0.03941673
-0.063816346 0.089698955 0.14585151 0.025727479 0.09234532 0.041180287 0.037413437 0.14772137
-0.038337294 -0.10116794 0.039813805 -0.115953885 -0.14058585 -0.03346011 -0.055102155 -0.0010250806
0.012654665 -0.09873127 -0.15666094 -0.18200588 -0.07291819 -0.210042 -0.2232305 0.12751566
-0.047376193 -0.15472646 0.10491325 -0.020455332 -0.07864607 0.03655908 -0.053486306 -0.0107024675
0.055238128 0.10661648 0.04000424 -0.059733957 0.049635902 0.09496612 -0.08673254 -0.042736158
0.042326048 -0.26872057 -0.57637507 -0.27904707 -0.5064682 -0.85284793 -0.49663055 -0.37607896
-0.6483454 -0.4193054 0.053208943 -0.07186961 -0.104472674 0.14335728 0.015107618 -0.03209761
0.082014464 0.045308795 0.08974808 -0.03153761 -0.0850901 -0.04418167 -0.027050238 -0.089383624
-0.027141085 -0.03111687 -0.08153111 -0.04516104 0.03359198 -0.06231121 -0.055855762 0.07950481
0.030953255 0.00029619926 0.054007385 0.108164154 0.062217947 0.22554821 0.044652995 -0.1092822
0.25439042 0.1241614 -0.14027613 0.2732575 0.22534041 -0.06855189 0.04588901 0.033715528
0.00938166 0.060438734 0.03037685 0.10408574 -0.055056375 -0.038964957 0.09046695 0.03728235
-0.0030107761 -0.025917752 0.0098277945 0.0008524212 0.012153015 0.07022168 0.0065844087 0.028101187
-0.21587269 -0.20378198 -0.145882 -0.09692238 -0.03569739 0.03340891 0.12210654 0.20559764
0.13980721 0.033953745 -0.033895887 -0.1203506 -0.055690173 -0.087609634 0.0016896268 -0.020904146
-0.045171283 0.098180234 0.03802966 0.21411176 0.12607914 0.19184223 0.05599451 -0.21786314
0.21288179 -0.15493797 -0.50218314 0.07655271 -0.029502446 -0.07324681 -0.07011267 -0.15253586
-0.04260141 -0.10126403 0.021894706 0.1291753 0.07077887 -0.06034417 -0.09334952 -0.016461294
-0.03894739 0.017280962 -0.16882412 -0.019385744 0.1610034 0.15248168 0.00092465716 -0.1183585
0.0847765 -0.052367967 -0.18941908 -0.10570426 -0.06294875 0.032425355 -0.08133917 -0.22513616
-0.106051765 -0.17472829 -0.20822367 -0.036305398 -0.15249343 0.0040248227 0.014671817 0.24420013
0.2515797 -0.10088209 0.43917474 0.009539627 -0.35948238 0.14802428 -0.34206048 -0.23906563
-0.103229344 0.048577614 0.107689194 0.012916506 0.2205861 0.18351653 0.12623665 0.20158517
0.12265545 0.070521235 -0.046357423 0.011467573 -0.0043467944 -0.01879468 -0.03100397 -0.0056365146
0.038214043 -0.0075700507 -0.036406115 -0.04645056 0.0820579 -0.05187883 0.012092977 0.049407043
0.20410864 0.026806274 -0.2222985 -0.07891539 -0.019426774 -0.03420964 -0.09603827 -0.09970019
-0.075371616 -0.05191721 -0.090030506 -0.09882085 -0.0462077 0.022412488 0.026258247 -0.07072535
00000000: 786c 38bd b023 ae3c 5855 b83d 34f3 5abe
00000010: 1e93 34be 38b0 99bd 4d2c fbbd 1aa1 2bbe
00000020: eef9 b2bc 7a03 9ebd aa2d 883d 37ff 4e3e
00000030: a69c bfbd ddb5 093e aa95 173e bdaa 57bd
00000040: 8134 e33d 90ff 8b3c 6ea4 003e c5e5 223d
00000050: d65d 853c 0f20 2338 c213 4abd d4a1 3639
00000060: a256 8fbd 39a1 b9bd fff8 883c 7e91 3fbb
00000070: cefd 87bc 31ab 54bc c0be 1cbd 16b7 e13c
00000080: 53f0 c43c 0177 b0bd 3dc3 80bd 1897 47bc
00000090: 8b5e 42bd 4dde d1bd c13b 453c 7073 213d
000000a0: 25b2 82bd 16b4 b73d 195a 153e 6fc2 d23c
000000b0: 8b1f bd3d a9ac 283d d53e 193d 4544 173e
000000c0: 9107 1dbd 2331 cfbd cd13 233d 3b79 edbd
000000d0: bdf5 0fbe 780d 09bd ccb2 61bd ff5b 86ba
000000e0: 8355 4f3c 9f33 cabd ba6b 20be c05f 3abe
000000f0: 2256 95bd 4015 57be 8996 64be 7793 023e
00000100: 8a0d 42bd 9d70 1ebe c2dc d63d f191 a7bc
00000110: 3111 a1bd f9be 153d 7514 5bbd 6759 2fbc
00000120: 6041 623d be59 da3d 7cdb 233d 98ab 74bd
00000130: 044f 4b3d 997d c23d d4a0 b1bd 1c0c 2fbd
00000140: 145e 2d3d be95 89be 518d 13bf 42df 8ebe
00000150: e6a7 01bf 3e54 5abf 5c46 febe 6c8d c0be
00000160: f7f9 25bf 33af d6be 9ff1 593d 6030 93bd
00000170: c5f5 d5bd 40cc 123e f185 773c c978 03bd
00000180: 33f7 a73d b795 393d d7cd b73d 952d 01bd
00000190: b843 aebd d7f7 34bd 7698 ddbc c30e b7bd
000001a0: fb56 debc cee8 febc c8f9 a6bd c8fa 38bd
000001b0: be97 093d 0a3a 7fbd 03c9 64bd 6bd3 a23d
000001c0: ae91 fd3c 314b 9b39 d936 5d3d 2b85 dd3d
000001d0: 3fd8 7e3d 1cf6 663e 0fe6 363d 59cf dfbd
000001e0: 763f 823e 5548 fe3d 8ca4 0fbe 68e8 8b3e
000001f0: a3bf 663e ef64 8cbd 1df6 3b3d 4b19 0a3d
00000200: 89b5 193c 9b8e 773d dfd8 f83c e82a d53d
00000210: cb82 61bd b899 1fbd bc46 b93d 61b5 183d
00000220: 7150 45bb 7751 d4bc c204 213c 0575 5f3a
00000230: 701d 473c 62d0 8f3d 06c2 d73b 7634 e63c
00000240: bb0d 5dbe 39ac 50be 1762 15be 3e7f c6bd
00000250: 6d37 12bd c8d7 083d fe12 fa3d 3088 523e
00000260: 9f29 0f3e 1513 0b3d 6ad6 0abd 607a f6bd
00000270: 611b 64bd ae6c b3bd 7876 dd3a 2c3f abbc
00000280: 8605 39bd b812 c93d fdc4 1b3d 1d40 5b3e
00000290: e41a 013e 4a72 443e 805a 653d 8417 5fbe
000002a0: affd 593e 0fa8 1ebe 138f 00bf abc7 9c3d
000002b0: 1daf f1bc 6c02 96bd 3b97 8fbd 5c32 1cbe
000002c0: d17e 2ebd 8463 cfbd 875c b33c 8846 043e
000002d0: 83f4 903d 732b 77bd 082e bfbd d6d9 86bc
000002e0: 4c87 1fbd ce90 8d3c 3be0 2cbe dace 9ebc
000002f0: 13de 243e 2824 1c3e b164 723a f165 f2bd
00000300: 4d9f ad3d cb7f 56bd 13f7 41be 7a7b d8bd
00000310: 46eb 80bd 73d0 043d 2795 a6bd 188a 66be
00000320: ab31 d9bd f9eb 32be 9638 55be f8b4 14bd
00000330: 3d27 1cbe a9e2 833b 1062 703c 990f 7a3e
00000340: 0ecf 803e 459b cebd 83db e03e 184c 1c3c
00000350: 130e b8be ad93 173e 8d22 afbe 9fcd 74be
00000360: e869 d3bd 52f9 463d 278c dc3d c19f 533c
00000370: 53e1 613e c2eb 3b3e 2e44 013e 586c 4e3e
00000380: c832 fb3d 706d 903d 48e1 3dbd 7de2 3b3c
00000390: 8e6f 8ebb 4df7 99bc 0afc fdbc 83b2 b8bb
000003a0: 5486 1c3d 300e f8bb 941e 15bd f142 3ebd
000003b0: f90d a83d e57e 54bd 9f21 463c 0a5f 4a3d
000003c0: db01 513e d598 db3c 38a2 63be 649e a1bd
000003d0: e624 9fbc 681f 0cbd b6af c4bd 9d2f ccbd
000003e0: 6f5c 9abd 24a7 54bd ea61 b8bd 9662 cabd
000003f0: 4944 3dbd 659a b73c 891b d73c 74d8 90bd

module.layer2.0.bn1.weight f4 [32]
0.70227224 0.6077185 0.46495298 0.54543024 0.3718996 0.5212576 0.51799023 0.5325788
0.34464002 0.5685095 0.5851519 0.5841455 0.5519886 0.8296526 0.6258021 0.56041265
0.5141099 0.61622965 0.65194386 0.5046146 0.52859414 0.5695766 0.62865025 0.5736999
0.54219383 0.42681572 0.47254407 0.57658875 0.48084956 0.6467627 0.4482611 0.6658183
00000000: 1dc8 333f 7193 1b3f 510e ee3e 51a1 0b3f
00000010: a069 be3e 2371 053f 029b 043f 1657 083f
00000020: a874 b03e d789 113f 84cc 153f 8f8a 153f
00000030: 204f 0d3f 1d64 543f 9134 203f 3477 0f3f
00000040: b59c 033f 3ac1 1d3f cbe5 263f 6c2e 013f
00000050: f251 073f c6cf 113f 39ef 203f ffdd 123f
00000060: 37cd 0a3f 9787 da3e 4cf1 f13e 529b 133f
00000070: ea31 f63e 3e92 253f 7b82 e53e 1173 2a3f

module.layer2.0.bn1.bias f4 [32]
-0.026201146 -0.21269378 -0.061721403 -0.24182947 0.09955062 0.23828533 0.031015847 0.22810955
0.34211516 -0.15443668 -0.2826122 0.059369102 -0.32573214 -0.0600621 -0.017668037 -0.15852591
-0.075249374 -0.40872538 -0.16864768 0.02543612 -0.067007236 0.010197545 -0.22867177 -0.22228345
-0.10799067 0.09861938 -0.103613034 -0.004451682 0.20644437 -0.30904937 0.376331 -0.2537529
00000000: c9a3 d6bc 66cc 59be 95cf 7cbd 25a2 77be
00000010: 32e1 cb3d 1201 743e f214 fe3c 8d95 693e
00000020: b829 af3e a624 1ebe 8cb2 90be 042d 733d
00000030: 5dc6 a6be ad03 76bd 8fbc 90bc 9e54 22be
00000040: 581c 9abd 7444 d1be fab1 2cbe 695f d03c
00000050: 173b 89bd 9b13 273c ef28 6abe 469e 63be
00000060: 362a ddbd f5f8 c93d 1233 d4bd 6adf 91bb
00000070: 2766 533e b83b 9ebe 75ae c03e e6eb 81be

module.layer2.0.bn1.running_mean f4 [32]
-1.2922261 -0.7475262 -0.8511046 1.0756193 -0.21831134 -0.5923118 0.02050781 -0.815127
1.2130802 -0.7219607 -0.20079832 -1.3074242 -0.8103737 -1.806728 -0.56851226 -1.0175459
-0.080797665 -0.68994975 -0.6771246 2.8011675 0.17092505 -1.0947901 -0.529131 -1.9519506
0.031374294 -0.95522237 -0.08454036 -0.41726145 -1.227941 -0.92499834 0.057124153 0.0014462504
00000000: aa67 a5bf e15d 3fbf fee1 59bf e5ad 893f
00000010: 028d 5fbe bfa1 17bf ffff a73c 2aac 50bf
00000020: 3646 9b3f 6bd2 38bf 139e 4dbe ad59 a7bf
00000030: a774 4fbf dd42 e7bf 058a 11bf f23e 82bf
00000040: 3f79 a5bd 8ca0 30bf 0a58 2dbf 5446 3340
00000050: fa06 2f3e 1522 8cbf 2175 07bf 84d9 f9bf
00000060: 5582 003d 7489 74bf 7f23 adbd 4ba3 d5be
00000070: 2c2d 9dbf b1cc 6cbf 04fb 693d 1c90 bd3a

module.layer2.0.bn1.running_var f4 [32]
1.5202688 0.9156178 0.7503187 0.8971058 0.80283904 1.3414135 1.1602578 1.5190845
1.006092 0.7519217 0.62235624 0.8700683 0.5469938 1.3765237 1.2818178 0.95325446
0.6728452 0.74634314 1.210499 1.665313 0.92884827 0.8688707 0.93123484 0.9166026
0.8010485 1.2048693 0.74579835 0.96099263 1.8895477 0.60278934 1.128065 1.0690254
00000000: 2b98 c23f ee65 6a3f e314 403f baa8 653f
00000010: dc86 4d3f 70b3 ab3f 5483 943f 5c71 c23f
00000020: 9fc7 803f f17d 403f bd52 1f3f ccbc 5e3f
00000030: c907 0c3f ee31 b03f 9b12 a43f 7c08 743f
00000040: 953f 2c3f 5810 3f3f a2f1 9a3f fa28 d53f
00000050: 00c9 6d3f 4f6e 5e3f 6865 6e3f 78a6 6a3f
00000060: 8411 4d3f 2839 9a3f a4ec 3e3f 9d03 763f
00000070: b3dc f13f 6750 1a3f 6f64 903f d3d5 883f
