results/TXC0/cifar10/nokd/resnet8_best.pth.tar (torch_old, 371434 bytes, 52 tensors)

module.conv1.weight f4 [64, 3, 3, 3]
00000000: e75e 9337 1e83 e536 b3f2 1eb7 72ee 9c37
00000010: 9726 85b5 08b3 9fb7 6b62 3e37 9575 e2b5
00000020: cd5e 49b7 0a9c 96b4 1c07 6735 f966 8036
00000030: a067 0bb5 7d3f 6bb6 dee3 87b5 67d9 2b35
00000040: da51 2d36 d368 c336 8921 18b7 1727 6b36
00000050: 29a5 6b37 a8bc 04b7 ce43 e035 40a2 4c37
00000060: 12c4 a5b6 b90c d536 ee7e 8037 877e 63bc
00000070: a5a0 673c cbf0 0abc 9ce4 eebc 266f dd3b
00000080: 0283 023a 0674 bdbb 7b06 6abb d0a2 03bb
00000090: 1900 f0bc d569 1439 c577 bdbc 36ae d9bc
000000a0: fb00 f23b 8090 70bb 786c 49bc b781 04bc
000000b0: 5a69 f3bb 347b 5c3b 350d 483d d179 ba3c
000000c0: 6db4 913c f1ed 693d 9382 2e3d ea46 883c
000000d0: 46ed d03c db45 c63c 297f 603d cd4c 1b3e
000000e0: c55f 9a3d e804 a63d a816 0a3d 6f0a 2ebd
000000f0: ef2a 8f3d 1c69 71bd c9b7 06be 7ee3 69bc
00000100: 90b4 a13d 46f9 36bb 95aa c4bb e537 b2bb
00000110: f2eb 9abd 7883 7d3b 0c3a 85bd 76b6 03be
00000120: 9838 d73c b33a d33d 61be 543c 7ac8 613c
00000130: 8f2c aa3c 8029 3cbd a29d aa3b e93c 91bd
00000140: a0bb 06be d9b9 d63d e1ca 013e 0e28 a63d
00000150: e6a8 603d 53d1 a93c 5ae9 b63c b635 babd
00000160: 836d 4abe dc04 e5bd 83eb fe3d fbf2 413e
00000170: cac8 083e c045 86bb 227d fb3c 4c0b 813c
00000180: 7cec 05be 4673 4bbe 7d15 fbbd 5a95 8d3d
00000190: fc57 6a3d 3e87 a13d 56ba 403c bd5d 0cbb
000001a0: 45c3 163d dd41 aabd 3fd9 23be 457a fdbc
000001b0: 5150 9a3c b5f3 dfbc d3c0 34bb 3b34 1bbb
000001c0: 4788 23be 7191 eabd d451 88bd 290b d7bd
000001d0: 4bb4 89bd ebdb c23c 7d8b 793a a1de 133d
000001e0: 0f1d e03d 0be3 94bc 6325 a93b a691 d03d
000001f0: 011d ab3d e26a ce3d ff07 f3bd 46a5 d6bd
00000200: b3af 573c 8f9c d8bc 102a f5bd ff69 41bd
00000210: 3864 7a3d f3cf 923d 02ea cd3d b6ee f33e
00000220: 9914 903e d790 91be 76e7 eb3e 210e ff3d
00000230: a8ed cbbe e861 493d 822f 58be 2829 bebe
00000240: a8da ffbd c51d 87bd f459 103e cc4a 25be
00000250: 767b 96bd 1249 2b3e 7561 0abd 0104 b3bd
00000260: 4357 b43d 0958 82be b886 1bbe eef5 573c
00000270: 0a7a 8fbe e39d 0d3d f2af 893e 7a52 263c
00000280: bb7f b73d 62e0 8f3e 86ed 6e3e 29f2 d73e
00000290: 4ad7 5a3e d280 8abd 2566 193e 9058 5abd
000002a0: af30 79be 726b 0abf d270 f4bd b30b 81be
000002b0: 3877 f3bd e224 06be a176 9a3d 1269 933e
000002c0: f336 a2bd 55c0 103e a8ee 003e 2a9a 253e
000002d0: 8217 77be b55a bfbe 7434 803d 583e 7abb
000002e0: 8c1b 70bd c32d e0bd 46a5 813e d19b 023e
000002f0: 6972 113e bb72 7dbc b47c 54bc 98b1 37bc
00000300: 4f72 b13c a1ea e83c 95a6 de3c 7035 d6bc
00000310: 5d33 2bbd 2677 34bd cc9b f6bc 6a94 0bbd
00000320: 05b9 debc 23ec aa3c 2509 c73c 5ca1 cb3c
00000330: 3886 33bc a263 fdbc 4ca3 07bd 1812 acbc
00000340: 5bd6 b0bc 14f2 8dbc 59e1 283d f7bb 313d
00000350: e7e1 3b3d 96be 463c 6144 09bc 9f3d dfbb
00000360: c2d5 943c 2df7 8b3c c051 9c3c 6bf3 33bc
00000370: 7819 6abb 8146 46bb 3182 14bc fb9e 9bbc
00000380: f771 87bc 339b 0bbc 7211 cfbc 30a9 9ebc
00000390: cc8f f9bc 328a 12bd 1c7c 0bbd 79e0 eaba
000003a0: 0655 55bc f482 35bc 46ab cfba 458a 2ebc
000003b0: bd9a 32b7 7d5c b2bc 00d1 94bc 6428 83bc
000003c0: 4248 40bb 2d53 c5bb 2f14 4ebb 2d6e 903c
000003d0: 95ea 1abe 9481 953d aee8 9bbc bf0b 073f
000003e0: c85c 01bf e698 533d b3ab 583c aaa3 aa3d
000003f0: 5d58 2abd 0bf9 c43d f048 243e 4ecc 36be
1.7567958e-05 6.839996e-06 -9.474042e-06 1.8707684e-05 -9.920503e-07 -1.9037645e-05 1.1347797e-05 -1.6872533e-06
-1.2002606e-05 -2.805321e-07 8.606455e-07 3.826685e-06 -5.193233e-07 -3.5054684e-06 -1.0124602e-06 6.4018826e-07
2.5826653e-06 5.823656e-06 -9.067714e-06 3.5040482e-06 1.4045546e-05 -7.911738e-06 1.6709034e-06 1.2197124e-05
-4.940209e-06 6.349376e-06 1.5317895e-05 -0.013885147 0.014137422 -0.008480261 -0.029161744 0.0067576347
0.0004978628 -0.0057816533 -0.003570943 -0.0020086057 -0.029296922 0.00014153805 -0.0231284 -0.026572328
0.007385371 -0.0036707222 -0.012293927 -0.008087567 -0.0074283304 0.003364277 0.04884072 0.022763165
0.017786229 0.057111684 0.042604994 0.016635377 0.025503766 0.024203232 0.05480877 0.15166016
0.07537798 0.081064045 0.033713013 -0.04249042 0.06990611 -0.05893813 -0.13156046 -0.01427543
0.07895768 -0.0027919575 -0.0060017803 -0.005438792 -0.07564534 0.0038683098 -0.06505212 -0.12862572
0.026272103 0.1031393 0.012984843 0.0137807075 0.0207732 -0.045938015 0.0052067796 -0.07091696
-0.13157511 0.104846664 0.12675048 0.081131086 0.054848574 0.020729696 0.022328068 -0.09092276
-0.19768338 -0.111825675 0.12447264 0.18940346 0.13357845 -0.0040976703 0.030699316 0.015752457
-0.13078493 -0.19868192 -0.12259958 0.06913252 0.057212815 0.078871235 0.011763176 -0.0021418177
0.036807317 -0.08313344 -0.16000842 -0.030942092 0.018837126 -0.027337888 -0.0027580753 -0.0023682255
-0.15969954 -0.11453522 -0.066562325 -0.105001755 -0.06723841 0.023786506 0.00095193816 0.036100987
0.109430425 -0.018174669 0.0051619275 0.1018403 0.083551414 0.1007898 -0.118667595 -0.10480742
0.013164449 -0.02644184 -0.119709134 -0.047220226 0.061130732 0.071685694 0.10054399 0.4764306
0.28140715 -0.28430817 0.46075028 0.12453867 -0.39829755 0.049165636 -0.21111873 -0.37140775
-0.12492877 -0.06597475 0.14096814 -0.16141814 -0.07347767 0.16727093 -0.03378435 -0.08740998
0.08805706 -0.2545779 -0.1518811 0.013181193 -0.28022796 0.0345744 0.26892048 0.0101515
0.089599095 0.28100878 0.23332796 0.4217694 0.21371189 -0.06762852 0.14980371 -0.053307116
-0.24334978 -0.540702 -0.11935581 -0.25204238 -0.118879735 -0.13100007 0.07542158 0.287911
-0.07920637 0.14135869 0.1259104 0.1617209 -0.24130061 -0.3737389 0.06260005 -0.0038184132
-0.05862002 -0.10946228 0.25321406 0.12754752 0.142038 -0.015469248 -0.012969185 -0.011211775
0.021660952 0.028432192 0.027179042 -0.026148528 -0.04179703 -0.04405894 -0.030103587 -0.034077086
-0.027187834 0.020864552 0.024296353 0.024857216 -0.010957293 -0.030931298 -0.033114716 -0.021004722
-0.021586588 -0.017327346 0.041230533 0.043392148 0.045869734 0.0121304 -0.008378119 -0.0068127657
0.018168334 0.017085636 0.01908195 -0.010983328 -0.0035720747 -0.0030254426 -0.009064243 -0.018996706
-0.016533835 -0.008520889 -0.025276873 -0.019367784 -0.030464076 -0.035776325 -0.034053907 -0.0017919681
-0.013020759 -0.011078585 -0.001584389 -0.010653083 -1.0645655e-05 -0.021772617 -0.018166065 -0.01601047
-0.0029339944 -0.006021878 -0.0031445136 0.01763066 -0.15128548 0.07300106 -0.019031849 0.527523
-0.505322 0.051659487 0.01322453 0.08331998 -0.041588176 0.09617814 0.16043448 -0.17851374

module.bn1.weight f4 [64]
00000000: d681 f035 b5e8 0a3e a223 5d3e 22e8 393e
00000010: 950b 813e d84e 363e 11da 253e e1f2 073e
00000020: 6753 fd3d 6277 8e3e c3de 813e 6f37 b43d
00000030: 6f84 2c3e a147 fe3d 0c3d af37 2f03 743e
00000040: 78ec 933e a981 9c3d ed9d d73e 23cd 0c3e
00000050: ddb9 163e 853d bb3e 61a4 9e3e efcd 3f3e
00000060: 5da6 203e 19ad 8a3e 33b6 6d3e a4c2 ef3e
00000070: 01d2 dc3d 1460 553a 3fa1 633e 24b3 8f3e
00000080: 94a0 4e3e 7e7d b03e ee6a c93e afb2 863e
00000090: fe4c b635 2b1b 173e 5392 143e 29b1 343e
000000a0: e18c b93e 427f 893e 3d42 2d3e 1b67 513e
000000b0: bdf8 283e 9695 443e 087a 193e 645e 0e3e
000000c0: aec1 5f3a 99a4 4a3e c5dd e63d 1e7e 243e
000000d0: 1140 473e c3bf 9f3e 7132 543e 6931 0c3e
000000e0: b5e4 4f3e 1e1e 173e f161 533e f2a3 2a39
000000f0: f07e 543e 32e8 cb3e bf26 383e 370d 033e
1.7919181e-06 0.13565333 0.21595624 0.18154958 0.2520415 0.17803514 0.16196467 0.13276245
0.12369423 0.27825457 0.25365266 0.087996356 0.16847394 0.12416006 2.0890053e-05 0.2382934
0.2889135 0.07641918 0.42112675 0.13750128 0.14719339 0.36570373 0.30984786 0.18730901
0.15688463 0.27085188 0.23214035 0.46828187 0.107822426 0.0008139622 0.22229479 0.2806636
0.20178443 0.34470743 0.39339393 0.263082 1.3582464e-06 0.14756458 0.14508943 0.17645706
0.36240295 0.26854903 0.16919799 0.20449488 0.16501136 0.19197688 0.14987957 0.13903195
0.00085356354 0.19789352 0.11272768 0.16063735 0.19458033 0.3120099 0.20722367 0.13690723
0.20302089 0.14757583 0.2064283 0.00016273538 0.20751548 0.39825588 0.1798353 0.1279801

module.bn1.bias f4 [64]
00000000: 8170 1db7 ee59 ecbd dc04 32bd 1ccf ea3d
00000010: abba c6bd 8a8c fe3d 6a2b 3d3e 7800 81bd
00000020: 9998 a0bd 68f7 8b3e fdff b6bd bf52 273c
00000030: f66f 6b3d d3c0 733d 4454 d7b8 02c5 26be
00000040: a127 00be 493b d73c 8535 a2be 4e80 643d
00000050: 7a1f edbd 4982 6dbe 4f54 32be 2869 efbc
00000060: a6f7 a93d 3dfd 6a3e fbe8 09be 043d dcbe
00000070: 3bdd 6d3d 173a b3ba 68f2 d03d 370e 19be
00000080: 9cca c23d 4902 49be f2c4 8cbe a2a6 53be
00000090: 5370 bbb6 9e79 0f3e 6169 afbc a225 753e
000000a0: f366 5bbe 8f00 8bbe 42bd 1ebe a22d 9ebd
000000b0: 101a 3a3b 78db bf3d ff2b d63c 4551 6a3d
000000c0: 1955 d7ba 5cc2 d73d c0f4 2f3d 46d6 193e
000000d0: 403c f8bd dce2 78be 450d 40be 3876 e13d
000000e0: a694 65be 18a8 0a3d d355 143d 66ad a5b9
000000f0: 4a4c ca3d e7a4 a2be a64f 46bd 5d0d a23d
-9.384124e-06 -0.1154059 -0.043461666 0.11465284 -0.09703573 0.124291494 0.18473592 -0.062989175
-0.07841606 0.27337193 -0.08935545 0.010212599 0.05747982 0.059510063 -0.000102676946 -0.1628609
-0.12515117 0.026273387 -0.31681457 0.055786423 -0.11578269 -0.23194231 -0.17414974 -0.029224947
0.08299188 0.22948165 -0.13467781 -0.430153 0.05807231 -0.0013673928 0.10202485 -0.14946829
0.09511301 -0.19629778 -0.27494007 -0.20669034 -5.5861105e-06 0.14011237 -0.021412553 0.23940137
-0.21425991 -0.27148864 -0.15501884 -0.077235475 0.0028396882 0.09368032 0.026144026 0.05720641
-0.0016428559 0.10535118 0.04295802 0.15023145 -0.12120867 -0.2430529 -0.18755062 0.110088766
-0.22419986 0.033851713 0.03621466 -0.00031600444 0.09877832 -0.31766436 -0.048415802 0.07912705

module.bn1.running_mean f4 [64]
00000000: 0696 6fb7 8d50 0cbd f1f5 293c 0987 8cbb
00000010: a62a b83d b8ee a73b a5de 83bc 5eb4 be3c
00000020: 6395 ac3d dec1 46bd c87c d53d 894a 0f3d
00000030: de8b 433b ca1e 15bd aff3 15b8 2833 a4bd
00000040: aaa9 b83d 4f58 663c be64 433e 4fbc 72bc
00000050: 8c98 53bd a7b8 9b3c 32a4 eb3d 5a57 193d
00000060: 6df1 b5bc 3f57 ca3b 3b31 af3d 464e 613e
00000070: 291a 69bd 1739 ba3a 411c 54bd 3715 783d
00000080: 30a2 94bd 3bed 0c3d 914a b53d 1e49 bdbd
00000090: 2d40 fc36 a99b 033d db3f e6bd 64c8 04bd
000000a0: 958f d03d 04e6 e13b 5b92 103d 7a30 c53c
000000b0: e363 31bd 4867 abbc c216 0c3d 7fdb f13c
000000c0: 04d4 da3a 6ac3 983c 6e9a 853c 3fc7 1e3c
000000d0: f5f3 653c 7d3f e1bd 845d e03c ac4a b13c
000000e0: c4fd d7bd d062 03bc 10e6 6a3e b1e4 ad39
000000f0: 8494 b63c 0837 2f3e 351b 0dbe 2b18 09bd
-1.428044e-05 -0.034256507 0.010373578 -0.0042885584 0.089925095 0.005124893 -0.016097376 0.023279365
0.08426931 -0.04852473 0.10424191 0.03498319 0.0029838006 -0.036406316 -3.5751316e-05 -0.0801757
0.09016736 0.01405914 0.19081399 -0.014815404 -0.051659152 0.019008948 0.11505927 0.03743682
-0.022209847 0.0061749513 0.08554312 0.22002515 -0.056909714 0.0014207688 -0.051784758 0.060567107
-0.07257497 0.034405928 0.08852113 -0.092424616 7.5176563e-06 0.03213087 -0.11242648 -0.03241767
0.10183636 0.006893875 0.035295825 0.024070967 -0.04330815 -0.020923272 0.03420139 0.02952361
0.0016695266 0.018647868 0.01630899 0.009691059 0.014035215 -0.109984376 0.027388342 0.021642052
-0.10546449 -0.008019164 0.22939324 0.0003316752 0.022287615 0.17110837 -0.1377991 -0.033470314

module.bn1.running_var f4 [64]
00000000: 11ca 7631 c9da 243d f03f ba3e b34d 833f
00000010: 94c1 763e 64de 2b3e 63f7 133e 0999 043d
00000020: cdc7 db3d 0c34 8a3e 335b b63e b6cf 643d
00000030: a7f6 0a3f e7f0 203e 4661 fb32 626c 883e
00000040: b29a 833e 8872 273e de30 273f 4d6b 633e
00000050: 1412 ac3d b5a7 b73e baa5 e23e 2438 3a3e
00000060: 7c63 de3e 885c c03e b095 753e f6e8 613f
00000070: db98 463e ece5 1438 c0df 0840 e4d5 b43e
00000080: 5caa 3a3f 632a b33e 8fd6 cc3e b752 963e
00000090: 70fa ab30 1dfd cb3f 9bd1 973e f009 f73d
000000a0: 0c5c cc3e bc6a 6f3e c5fa d83d 5e4c a13d
000000b0: 6a03 983e 237e 6f3f d176 143e 14f7 013f
000000c0: f337 4838 8082 df3f 0042 f93d d9de dc3d
000000d0: d065 893d a660 933e 5437 c93d 0732 8a3d
000000e0: d968 383e cd5b 313f bd1c 553f 73cf 0736
000000f0: bd9d ea3e 1514 3a3f 297d 9c3e d8d0 233e
3.5912573e-09 0.040247712 0.36376905 1.0258087 0.24097282 0.16784054 0.1444984 0.03237251
0.10731468 0.26992834 0.35616454 0.05586215 0.5428261 0.15716897 2.926448e-08 0.2664519
0.2570396 0.16352284 0.6530894 0.22208901 0.08401886 0.35870138 0.44267064 0.18185478
0.43435276 0.37570596 0.23982882 0.88246095 0.19394247 3.550008e-05 2.1386566 0.35319436
0.729162 0.34993276 0.40007445 0.2935998 1.2513066e-09 1.5936619 0.29652104 0.12062442
0.39913976 0.2338056 0.105947055 0.07875894 0.29690105 0.93551844 0.1449845 0.50767636
4.7735823e-05 1.74617 0.121707916 0.10784692 0.06708872 0.28784674 0.09825006 0.06747823
0.18008746 0.692807 0.83246976 2.023732e-06 0.4582347 0.7268689 0.3056424 0.15997636

module.layer1.0.conv1.weight f4 [16, 64, 3, 3]
00000000: f437 ed35 cd9f b136 cce5 3736 3913 7835
00000010: dc1a c5b4 95a4 1cb5 2456 ba35 cde6 24b5
00000020: 21f0 76b5 bced 3abc c08c bbbc b9b0 20bc
00000030: daa6 8ebb 79da 3e3c ef79 003c 1075 80bc
00000040: c4e5 71ba 9439 d53b 81be 1e3d 7638 02bd
00000050: 356f 85bc 2cce 9e3b 15bd 99bc 3c1d 6c3d
00000060: 5976 db3c 5dd9 20bd 0d84 e73c 6b58 d43b
00000070: 47e0 92bd eb1c 05be cb38 993d 3060 67bd
00000080: cc39 0cbd 5854 f63d e495 dbbc 8e8d 103d
00000090: a313 83bd 1a9e 89bd ab63 b73c 579b 86bd
000000a0: b16e 69bc 1e8b 2f3d 2e5a 57bc 626c b4bc
000000b0: 4c5e 5abb e045 c8bc 39fc 8d3c 1ffa ad3c
000000c0: 56d0 793d e449 0d3d 4578 d6bb c019 ecbd
000000d0: d79e a3bd 81be 7e3d 39f9 953d f4a2 7ebd
000000e0: 2b04 bdba c40a bcbc a500 163c f6bb 62bc
000000f0: e3ad 933d 33bd adbd 6f87 2c3c 594f 393c
00000100: 77f9 4cbb 1eeb d3bb 5932 b0ba ee84 39b7
00000110: bbc6 dcbb 4d68 be3b 8b06 103c b591 913c
00000120: fe27 f8bb 9128 91bc e7c3 a8bc a534 443b
00000130: cd62 30bc 0218 40bc 29de 2c3c d9f8 bb3c
00000140: 09d9 cc3c d432 e53d 3248 bdbd b506 58bd
00000150: ae45 5dbe 2f69 8e3e 16b2 a5bd 032b 993d
00000160: 6396 b0bd e6d7 18be eca9 c0bc b24e ccbc
00000170: 4823 e63c 6609 5b3d 43be cc3b 2efa 7b3c
00000180: bc2f 493d 9207 0fbd 1478 fcbc 07ec 1abc
00000190: 0ef3 a3bc e36d 70bb 19dd c4ba d061 ec3b
000001a0: dd50 e2bb a3d9 a63c bbd3 0dbc 7d7b 8abc
000001b0: 1e01 95bd f715 3bbd 2aa2 2f3d 436e 0abe
000001c0: 47ec 93bc 52a5 a93d 0958 f5bc 08f6 833d
000001d0: 2742 573d 533c 1bbd 032f 64bc 8543 f63c
000001e0: 81e3 4bbd 5f8c a53b 0d70 583d 8a77 033b
000001f0: 7a96 633c e267 4f3c 3b5f 1236 cd26 b5b6
00000200: c648 19b7 78e9 f235 b464 af36 ad96 68b5
00000210: d9d9 8db5 ea95 ea35 0659 3db5 dc1f cbbc
00000220: eb7b 103b 4e9c 503c 5e5b 28bd 4f34 41bc
00000230: 704c 923d 709b b2bc 0059 efbb 6c99 783d
00000240: 02bc 94ba e759 4f3c 2c0d d9bc 27ca 74bd
00000250: 7c23 b23c 9b53 053d 3da6 28bd c719 7ebc
00000260: 2cab a4bc 6d45 f93b 1e30 78ba 5b2f ea3b
00000270: 2a30 b83c 8b89 bbbc 2369 24bc a7e8 b03c
00000280: e42f d13c 3040 69bb 97f1 d53d 2824 c93c
00000290: 59d5 53bb 2efe 343d 5a3f eebc 1e9d c6bd
000002a0: f75c 0bbd e5f7 153d d008 c2bd 4466 4a3d
000002b0: 9e8d e3bb 1422 893d bace 97bd 1b6b 27bd
000002c0: 859d 433d 0171 f1bd c94c c5bd f825 a3bb
000002d0: f957 443c a506 ad3c 60d4 bdbc c552 603c
000002e0: 4a0e d9bc 92e4 beba 2b0f ecbc 7c55 d63b
000002f0: 12d2 473d f437 bf3c f22e 38be 32d5 81bc
00000300: aa95 c8bc 4cb0 13be 99e5 9d3c 8ca1 4d3d
00000310: df6d ecbd b859 65bd 00ef acbd 5b06 47bd
00000320: dc89 f9bb 549f 9f3c 73a8 febb b52e 143d
00000330: f608 b83d 37da 673d a35b df3d 9f95 bb3c
00000340: c8b9 9d3c f204 723d 70bc cbbb 33d6 2bbd
00000350: 4b48 5f3d 56ef 3ebc fb83 0ebc 9971 88bc
00000360: 01ab c3bd 4781 a53d 7555 b9bc e4bc 15be
00000370: ac09 ac3d 7559 d5bc ad22 01be 49e8 8a3b
00000380: c2a4 bcbc 120a 493d 123f 39bd 4b5f e23d
00000390: 61ed 843e 4b37 f7bd 22a9 fbbd 85ac cabd
000003a0: b3a4 363d 3509 793b b1ea 19bd c61c 13bd
000003b0: 6d52 873b d434 a3bd 63df 60bc 9d38 e6bb
000003c0: f904 393c 160d 583d 2c7b 923d eca6 20be
000003d0: 4882 253c c701 6d3c 497b 16bd e182 37bd
000003e0: 0605 16bd e370 4a3d f34d 313d b93c 13bd
000003f0: 00ad 5b3c 8cff 0ebc beb2 8dbc 6da7 e6ba
1.767416e-06 5.2936143e-06 2.7402884e-06 9.241517e-07 -3.6713652e-07 -5.8354027e-07 1.388315e-06 -6.143062e-07
-9.1991575e-07 -0.011409219 -0.022894263 -0.009807759 -0.0043533863 0.011648768 0.007841571 -0.01568082
-0.0009227658 0.006507108 0.038755897 -0.031792127 -0.01628838 0.004846355 -0.01876692 0.057645068
0.026789831 -0.039269794 0.028261209 0.006480267 -0.07171684 -0.12999313 0.074815355 -0.056488216
-0.034234807 0.12027806 -0.026804872 0.035291247 -0.0640023 -0.067196086 0.022386393 -0.065725975
-0.014247582 0.042857282 -0.013144059 -0.022024337 -0.0033320365 -0.024447381 0.017332183 0.021237431
0.0609897 0.034494296 -0.006545099 -0.11528349 -0.07989281 0.062193397 0.07322926 -0.062167123
-0.0014420798 -0.022954352 0.009155427 -0.013838759 0.07210901 -0.084833525 0.010530337 0.011310422
-0.0031276622 -0.006467237 -0.0013442739 -1.1057809e-05 -0.0067375577 0.0058107735 0.008790622 0.017769674
-0.007573127 -0.017719539 -0.020601226 0.0029938605 -0.010765743 -0.011724474 0.010551014 0.022945808
0.025005834 0.11191335 -0.09242286 -0.05274077 -0.21608612 0.27814624 -0.08090608 0.07478907
-0.08622434 -0.14926109 -0.023518525 -0.024939869 0.028092995 0.05347576 0.006248267 0.015379472
0.04911779 -0.03491933 -0.030818976 -0.009455687 -0.020013358 -0.0036686591 -0.0015019506 0.0072138086
-0.0069066123 0.02036745 -0.0086564375 -0.016904587 -0.07275604 -0.045675244 0.04287926 -0.13518624
-0.018057002 0.082834855 -0.029949205 0.06443411 0.052553322 -0.037899327 -0.013927224 0.030061493
-0.04977751 0.005052134 0.052841235 0.0020060265 0.013890857 0.012659045 2.1811127e-06 -5.3987374e-06
-9.1364545e-06 1.8098353e-06 5.22713e-06 -8.6645997e-07 -1.0568721e-06 1.7477989e-06 -7.053753e-07 -0.024795465
0.0022046517 0.012732578 -0.04110276 -0.0117922565 0.071434855 -0.021802634 -0.007304311 0.06069319
-0.0011347535 0.012655712 -0.026495539 -0.0597631 0.021745436 0.032550436 -0.041174162 -0.0155090755
-0.020101152 0.007607153 -0.0009467619 0.0071467585 0.022483904 -0.022892734 -0.010034832 0.021595312
0.025535531 -0.0035591237 0.1044647 0.024553373 -0.003232321 0.044187717 -0.029082943 -0.096979365
-0.034024205 0.036613364 -0.09474337 0.049413934 -0.0069443723 0.06695953 -0.07412477 -0.040873628
0.047757644 -0.11789132 -0.09633786 -0.0049788915 0.011983865 0.021121332 -0.023172557 0.013691609
-0.026496071 -0.0014563969 -0.028815826 0.0065409523 0.048784323 0.02334211 -0.17986658 -0.01584873
-0.024485428 -0.1442272 0.01927452 0.05020289 -0.11544394 -0.055993766 -0.08444023 -0.048590045
-0.007615311 0.019485153 -0.0077715456 0.036177356 0.08986084 0.05660459 0.1090615 0.022898493
0.019253626 0.059086747 -0.006217532 -0.041952323 0.054512303 -0.011653742 -0.008698459 -0.01665573
-0.09554101 0.08081298 -0.022623757 -0.14622837 0.08400282 -0.026043633 -0.12610884 0.0042391163
-0.023027781 0.04908187 -0.045226164 0.11053332 0.25962356 -0.12071093 -0.12288119 -0.09896187
0.044590663 0.0037999873 -0.037577335 -0.035916112 0.004129699 -0.079690605 -0.013725135 -0.007025792
0.0112926895 0.052746855 0.071523994 -0.15688676 0.010101862 0.014465756 -0.036738668 -0.04480255
-0.036625884 0.049424063 0.04328723 -0.03594658 0.013407946 -0.008727919 -0.017297145 -0.0017597504

module.layer1.0.bn1.weight f4 [16]
00000000: 62b5 b23e a0f5 d13e 8c6c 8f3e 42fa d13e
00000010: 9bca d23e caad a93e c87a 1d3f 1ed2 9b3e
00000020: 4331 cc3e a92d 803e 82d7 ae3e 8c04 923e
00000030: 7ee5 833e fb33 b63e d0fd 8b3e 82e6 a73e
0.3490401 0.4100771 0.28012502 0.41011244 0.411702 0.33140403 0.61515474 0.30433744
0.39881334 0.25034836 0.34148794 0.28519094 0.25761026 0.35586533 0.2734208 0.3279305

module.layer1.0.bn1.bias f4 [16]
00000000: 3426 e33d b6ee 183e 2f99 cb3d 6703 c63d
00000010: 15e3 89be 6d11 4cbe 1298 1cbf 7fb6 37be
00000020: 1eeb 1d3d a49f 3c3e 8d59 93bd fb66 33be
00000030: 926b b43d 9963 40be 09a3 ea3d d315 4dbe
0.11091271 0.14934811 0.09941327 0.09668618 -0.26931062 -0.19928522 -0.6116954 -0.1794071
0.038554303 0.18420273 -0.07194815 -0.17519753 0.0880958 -0.18787993 0.11456878 -0.20027857

module.layer1.0.bn1.running_mean f4 [16]
00000000: 5525 40be 048d f2bd 0d21 80be de47 74be
00000010: 054e 58be ec16 2ebe 2139 8f3e 11bb d6bd
00000020: 7a8b 82be d1e1 38be 3ed7 44be 09fa 24be
00000030: d296 e3be f742 00be 0fcf bdbe 3b1b 74be
-0.18764241 -0.11843303 -0.25025216 -0.2385554 -0.21123512 -0.17000932 0.27973273 -0.10484899
-0.25497037 -0.18054892 -0.19222733 -0.16111006 -0.44451004 -0.12525545 -0.37072036 -0.23838513

module.layer1.0.bn1.running_var f4 [16]
00000000: 11ac 2b3d 9326 b93d 662a cb3d d8cf 8b3d
00000010: 473e 2b3d e72e ef3c aef9 923d 53c7 003d
00000020: 1b9a 963d e49b 023d 94d6 d03d a72c d73c
00000030: 0248 b13d a825 183d c2b5 a23d a2bf 193d
0.041912142 0.090405606 0.09920196 0.068267524 0.04180744 0.02919717 0.07176529 0.03144009
0.07353612 0.03188695 0.101971775 0.02626641 0.086563125 0.037145287 0.07944824 0.03753627

module.layer1.0.conv2.weight f4 [16, 16, 3, 3]
00000000: 78d8 ae3d 16ef 10be 511c 2f3d 458e a13e
00000010: 3b7c d1be e084 1c3e 50ea fb3d c7cf 88be
00000020: e36d 813d 8bbf ebbd ec13 d53d e749 0f3d
00000030: c0ed c8be d8d2 ec3e 0af3 5fbe 68c5 4abe
00000040: 74b8 743e 9359 54bc b5eb 1b3c cbf7 52bc
00000050: 0b1a 9cbc 5d10 373d cfa6 823d 0715 75bd
00000060: 5894 773d 9681 dbbc bae2 96bd 4918 10bd
00000070: c885 96bc 1778 bf3c d59d 10bd 6bb1 d83d
00000080: 33dc 89bc 29d5 b6bd 2da7 183e 6ad2 9fbd
00000090: 2f25 f63b 288a 09bd 820b 223d 6f28 993a
000000a0: e8dc 81bb f806 793c e40d 3b3d 9e09 e8bb
000000b0: 076f 59bd e23f 203c 9555 52bb 490a 58bd
000000c0: e08d 55bb 2bc6 d9bc e8e4 06bc c847 44bd
000000d0: 21e7 123d 3ca4 eb3c c76a d53d 34ab 2fbe
000000e0: 6961 9b3d b671 153e 12bf 83be 679a a83d
000000f0: 976f 353e ae20 86be d8a5 d03d d495 8a3d
00000100: ad81 87bd 9dac 083d edba 753c 577b c73d
00000110: fbdb 7b3d 7e38 c93c f8e4 883d b750 233d
00000120: b716 a03c 96e7 cdbc ff00 a8bd 9aaf 8d3d
00000130: 8751 13be e873 373d 8ec0 423d 4da1 b4bd
00000140: 4adb 063e 0ba0 353b dc7e 77bd f8fb de3d
00000150: 1a5e e83d fb31 30be c5ec 163d 86de 343d
00000160: 72b6 06be cb2f 223d 174f 79bc ea58 debb
00000170: 8986 e6bd f708 5bbc 919b 0d3c 4be8 fe3a
00000180: 0f56 d1bd 5322 b73c 9204 a93c ea48 4c3d
00000190: 75ee 9739 d63a d13c 92e1 2ebc d40a 21bd
000001a0: 5365 bebb e6ef 173d f3cb 6d3d d4c7 46bd
000001b0: 9708 d8b9 e78c 16bd 8839 81bd 8cd1 b23d
000001c0: bd2f bbbc 4f81 2b3c efec 0d3d 4487 1cbd
000001d0: c0cf 943c 8a6f 04bd 364e cfbd a9bd 283d
000001e0: eee7 4e3d 64f4 90bd 2618 7b3d c72f 123e
000001f0: 7f9d 6a3c 0ade 153c 11d0 c9bd a781 063e
00000200: 4e26 ac3c 8809 44be 923d 1a3e 8eda 2d3b
00000210: 2d03 b3bd c174 e23d 6c53 8e3d b81a 143d
00000220: 3f30 20bd 5e8b edbc c8ec 1f3c 4367 913c
00000230: 8081 aebd a2ac 95bc 72c4 143d 3669 18bc
00000240: f205 a43d 2c9e ee3d 6cc7 75bd ecc5 acbc
00000250: 0e2d fbbd ef40 c63c eca0 06bd 8c24 883d
00000260: 449f a0bd 1831 44bd bce9 97bd f811 f9bb
00000270: d62b c13d ab84 2a3a 0de0 5fbd 4152 5fbd
00000280: e91e e53c 2c2d 263d 2367 053e 8bec 2a3e
00000290: e043 f63d 42aa cdbd e0e0 edbd 9fa4 45bd
000002a0: f48c ecbd 0b8c 62bd a667 d13b 7fd4 0cbe
000002b0: f81a 95be 83c4 e2bd 8ef1 303e 173e dc3e
000002c0: edc8 563e 2841 01bd 1596 80be 8d45 5dbd
000002d0: 37cf 253d ccdc 32bd 26d8 1cbd 7936 8ebc
000002e0: 871d da3c 5038 133d 1f64 74bc 0ae4 84ba
000002f0: a697 81bb 464d 9f3b d2ff 72bc eea0 b43c
00000300: 2cf4 e6bd 7d4d 343d fcec d13d 1f6e fe3c
00000310: 15f3 6c3d 008d 11bd 82a0 353d d62c 883d
00000320: 7034 033d 1083 f6bd e344 04be 61d0 0cbe
00000330: d3b7 a73d e4a2 383d 26d1 743d a2e0 2f3d
00000340: 6766 473a 44ac 1e3d 6c93 42bc 3410 723c
00000350: 9cc1 35bd 4866 fb3b 6f2b dcbc 93e1 13bd
00000360: 9b88 a53c c8aa 053e beaa 5e3d 445a 00be
00000370: 90ca cdbe 95dc 70be 7807 223d bf61 8a3e
00000380: f667 003e 5811 253e 11b1 4c3e d20d b5bc
00000390: b668 2dbe 0ea6 c3be 959c 5ebd 53fe c0bc
000003a0: 4a27 203e 8ad3 b23d 3fb9 1cbd d972 ef3c
000003b0: 5b38 093e c127 9ebc d602 c63d e8fa f43c
000003c0: db1b a8bd 4d64 0cbe 6290 08be f2a5 4dbd
000003d0: 388a e2bc 21a6 3ebd 8fe2 813d 3f8a 8f3d
000003e0: 9f7f b23d 47c9 77bb 5e30 b8bc 7b26 b4bc
000003f0: 5db6 e1bb 6255 053e ff2b 713b 30e6 ecbc
0.08537382 -0.14153704 0.042751614 0.31553856 -0.40915093 0.15285063 0.12300551 -0.26721022
0.06319787 -0.11511143 0.104041904 0.03498259 -0.3924389 0.4625461 -0.21870056 -0.19801867
0.23898488 -0.012960809 0.009516646 -0.012876461 -0.019055387 0.04469334 0.063794725 -0.059834506
0.060444206 -0.02679519 -0.073674634 -0.03517941 -0.018374339 0.023372693 -0.03530677 0.10580715
-0.016828632 -0.08927376 0.14907522 -0.07803805 0.007511757 -0.03357902 0.039561756 0.0011685024
-0.0039631017 0.015199415 0.045667544 -0.0070812246 -0.0530844 0.009780856 -0.0032094468 -0.052744184
-0.0032585785 -0.026583752 -0.008233286 -0.04792002 0.035864953 0.028764836 0.10420757 -0.17155153
0.07586939 0.14594159 -0.25731713 0.08232575 0.1771835 -0.26196808 0.10187882 0.06766859
-0.066165306 0.03336774 0.01499818 0.09740322 0.061489087 0.02456307 0.06684297 0.039871898
0.019542081 -0.025134843 -0.08203315 0.06918259 -0.14386569 0.04478827 0.047546916 -0.08819828
0.1316959 0.0027713801 -0.060423717 0.10887903 0.113460734 -0.17206566 0.036846895 0.044157527
-0.13155535 0.03959636 -0.01521661 -0.0067855017 -0.11256129 -0.013368837 0.008643047 0.0019447891
-0.102214925 0.022355234 0.020632062 0.049874224 0.0002897863 0.02554075 -0.010673897 -0.039316967
-0.0058104186 0.03709402 0.05805583 -0.048530415 -0.0004120513 -0.03675547 -0.06309801 0.08731374
-0.022849912 0.010467841 0.034649786 -0.038214937 0.01816547 -0.032332934 -0.101223394 0.0411965
0.050514154 -0.07077864 0.061302327 0.14276038 0.014319777 0.0091471765 -0.09854139 0.13135396
0.021014359 -0.19144261 0.1506255 0.0026527974 -0.0874084 0.11057425 0.06949505 0.036158293
-0.03910851 -0.02899712 0.009761043 0.017749434 -0.08520794 -0.018270794 0.036320157 -0.009302428
0.080089465 0.11651263 -0.060004637 -0.02109047 -0.12264453 0.024200885 -0.03286831 0.06647596
-0.078428775 -0.047898382 -0.07417628 -0.007601019 0.09432189 0.00065047544 -0.05465703 -0.054521803
0.02796884 0.040570423 0.13027625 0.16691796 0.12024665 -0.1004224 -0.11615157 -0.048252698
-0.11550322 -0.055309337 0.0063905297 -0.13752936 -0.29122138 -0.11072638 0.17279646 0.4301612
0.20975085 -0.03155628 -0.25114504 -0.054021407 0.04048082 -0.0436676 -0.038292073 -0.017359959
0.026625408 0.035942376 -0.014916449 -0.0010138762 -0.0039548455 0.0048615066 -0.0148315 0.022049394
-0.11277041 0.04401921 0.10250279 0.03105837 0.05784901 -0.03553486 0.044342525 0.06649177
0.03203243 -0.12036717 -0.12916903 -0.13751365 0.081893586 0.04507722 0.059769772 0.042938836
0.00076065067 0.038738504 -0.011875968 0.014774371 -0.044374093 0.007672105 -0.02687618 -0.036103796
0.02020674 0.13053429 0.05436205 -0.12534434 -0.40193605 -0.23521645 0.039557904 0.270277
0.12539658 0.16119897 0.1998942 -0.022101317 -0.16934475 -0.38212627 -0.054348547 -0.023558771
0.15639988 0.08731754 -0.038262602 0.029229568 0.13400404 -0.019306066 0.0966851 0.029904798
-0.08208438 -0.13710137 -0.13336328 -0.050207086 -0.027653798 -0.04654515 0.06342041 0.0700879
0.08715748 -0.003780918 -0.022484 -0.021991005 -0.0068881945 0.13020852 0.0036799905 -0.028918356

module.layer1.0.bn2.weight f4 [16]
00000000: 9196 183f 7456 243f 8f49 2b3f 9051 e53e
00000010: 4678 a33e d6e9 163f 6be7 263f 2955 8a3e
00000020: b5dc 213e 83ac ee3e 05ea f43e 3352 833e
00000030: 631f b73e 8984 a53e ea30 c53e da42 e33e
0.59604746 0.64194417 0.66909117 0.4478879 0.319277 0.58950555 0.65196866 0.27018097
0.1580685 0.4661599 0.47834793 0.2564865 0.35766134 0.3232768 0.3851388 0.4438694

module.layer1.0.bn2.bias f4 [16]
00000000: eedd 91bc 3edd f2bc 6d96 7cbd f044 23bd
00000010: 2e28 173e 0e1e f6bc 2a6c 8bbd c403 dc3c
00000020: 5758 403e 9703 e3bc fbba b0bd 02f2 253d
00000030: 54d2 123e be7b 6dbd 7b5c 8dbd 8e37 e63d
-0.01780602 -0.029646512 -0.061666895 -0.039860666 0.14761421 -0.030043628 -0.0680774 0.026857264
0.18783699 -0.027711673 -0.08629414 0.040514 0.14338046 -0.057979338 -0.06902405 0.11241065

module.layer1.0.bn2.running_mean f4 [16]
00000000: c296 9cbc 7032 babd 4889 92bc 9852 413e
00000010: 3fc9 943d 8e3b c0bd c1b2 49bc ea7b 6bbd
00000020: 80c9 a2bd b7e9 93bc 40d7 13be dc6b 3fbd
00000030: 1d49 6abe 8109 573d d62d 26be 28da 56be
-0.019114856 -0.090916514 -0.017887726 0.18879163 0.07264947 -0.09386359 -0.012310685 -0.05749122
-0.07948589 -0.01805578 -0.1443758 -0.046733722 -0.22879453 0.052499298 -0.16228423 -0.20981658

module.layer1.0.bn2.running_var f4 [16]
00000000: 085a 043e b954 123e 53b4 e63d 3659 653d
00000010: 36a5 0e3d 72ee b83d ab81 e03d 973f c43c
00000020: 9c52 813c 8d45 623d ff68 493d 0523 cf3c
00000030: d18a 623d f74d 863c a6ff dc3c e261 593d
0.12924969 0.14290132 0.11264863 0.05599328 0.034825526 0.09029855 0.10962232 0.023956103
0.015786462 0.05524211 0.049172398 0.025285253 0.055308167 0.016394598 0.026977371 0.053071864

module.layer1.0.shortcut.0.weight f4 [16, 64, 1, 1]
00000000: 9b7c 8335 88bd de3b 316f 1abc 4f7d 863b
00000010: 3206 1c3a 341e d5bc 4698 8abc a65d 2bbc
00000020: 2682 f8bb ccfe cdbd a589 543c 5b2b 143b
00000030: 9990 20bc a9ad 10bc 9294 2036 6b7f 9f3c
00000040: 1d86 2cbd 83d8 473b 8e47 9f3c 28db 073d
00000050: d465 fc3b f039 c0bd 608c b53c 0f00 4cbc
00000060: 37da 9cbd 2896 eebc 516e c7bc 23ca 8ebc
00000070: ace9 d4bb ea2d c538 2a43 3dbd 9b49 09bc
00000080: 985a 973a 3e22 92bc 5de4 d2bc d28c 9f3c
00000090: eaec 06b6 0892 9f3c d818 383c 42df afbb
000000a0: d948 523d 9509 b7bc ebb9 633c 23de 00bc
000000b0: b27b 92bc 02db f7bc b83e 0f3c 315b 6fb9
000000c0: 7664 0239 b6e0 d43c cff5 4e3c f3c3 813c
000000d0: b87a ac3b f202 c1bc 2aa0 f4ba c9d5 403c
000000e0: 2eb4 903c 0c0f 093b 57e9 493d 0edc 42b7
000000f0: e059 053d 52c9 13bd 051e 88b9 8c64 8dbd
00000100: 7c37 2db6 1dc3 363d cddf 413c 43a5 0b3d
00000110: 3878 76bd 43b3 8e3c e17a 5dbc a36e f4ba
00000120: 61b4 c3bb 24bd 7bbd 6807 843d 3569 fa3a
00000130: bf9a f9bc d572 adbd dbaa b137 c121 7f3b
00000140: 6c65 f8bd 212b 65bc 213f 81bc 480b 343c
00000150: 4d9a ae3c bc8c 0abd 41bd a5bb 5a2e 803b
00000160: b6bb 91bb 5766 a73d c2c6 9dbc f56f b53c
00000170: 0d7b 9cbc a2de 9139 9057 2dbd 8959 88bc
00000180: 34a9 3bbe 36ca 4c3d 73d8 033e 7725 6cbc
00000190: 8c4c edb5 2f12 39bc acc4 c3bb 3ac1 a4bc
000001a0: 87db 2e3c 9a23 693d 4a2f 483c d264 c43b
000001b0: 4b14 adbc 70ec 8bbc 61e4 d43b 7540 b4bc
000001c0: d7ae 6a39 6533 6b39 cbc9 ecbb 5c0f 183d
000001d0: aeaa 203c 7964 4d3d 8ffe 17bd ca74 39bd
000001e0: 7255 6c3d 12ac aabc 9ebe 213c f9d5 8a38
000001f0: 37c4 9c3c 7ffc c4bb 11ed 6abd 1189 9dbd
00000200: a064 f3b5 d83b e63c 70f7 17bd 08e9 a8bc
00000210: 6bf5 85bd 0d3b 9b3c 73fc cbbc 53b1 ffbb
00000220: 069d 2fbc 0a16 a5bd 3eb8 cebc 68df 2f3b
00000230: 1ad4 2cbd 02d6 38bb f4db 8f36 caf6 d73c
00000240: c07a ebbc d9b9 28bc de2a b8bc bc2e 44bd
00000250: 275b 59bc 7d66 41bd ffba af3c 5571 b33b
00000260: 8c5f 59bd c85d d33d 957e 05bd f310 a53c
00000270: 1d3a 3abd 56bb a437 3a0e 64bc 8820 6cbd
00000280: ee17 18bd 1e98 31bd c1e4 12bc ee62 fbbb
00000290: 1ab4 d435 a4aa 42bc 03ea 103c 46d6 04bd
000002a0: 3c8e 3e3d 76c5 48bd 8467 9f3c 3e8f 7f3b
000002b0: 9418 983c 05c9 88bd 0d39 ef3c 0a37 9f3c
000002c0: c588 9438 6230 a6bd 1d1d 903c e8d5 c43c
000002d0: 973d 9ebc 6288 823c 73f1 883c 6910 f4bc
000002e0: 070d 23bb 69b2 aebc e34c 433d 6d48 af37
000002f0: 558a c43d b7e0 98bb 5930 7abd b432 a2bc
00000300: 976c b3b6 3996 11bc 71d0 b53d fe48 803e
00000310: 7bc2 3ebd a23f a73b 05c9 8dbd a283 b43c
00000320: 44ee 1d3c c0ca 6e3d 91ad 1ebc d201 8c3c
00000330: 962b bb3c 818c 1bbd 816d b336 8e58 b23d
00000340: c7df 833d cc71 b6bd a271 70bd 1532 083d
00000350: b19e 233c 9ad0 333d 605c 5dbd 0b2b 88bd
00000360: 0036 413c 944b 8c3c 4a0d 4abd b326 74bd
00000370: 04f3 38bd ba7a 8c39 277d 33be 0ac7 00bd
00000380: 267b 26bd 894f d6bd 22e0 9bbd f9e2 593d
00000390: c39a e334 9889 a6be 7b46 42bd df5c b43d
000003a0: 3a6f 8cbd 9bc6 14bd 208e 24bd e960 cdbc
000003b0: 69d2 f0bc 819c 41be ba15 113d 306c 023e
000003c0: ccc2 ed39 b189 86bb 52a5 2dbd b63f 09bd
000003d0: e4ca 36bc 8366 023d 4cd4 183c 7b6d 503d
000003e0: b67b 413d ab1b 4abe fdc1 5a3d 3e22 7937
000003f0: d0a8 a0bc 4d34 02be 4d28 293b 9981 b3bc
9.796526e-07 0.006797496 -0.009425924 0.0041042934 0.0005951851 -0.026015379 -0.016918313 -0.010459339
-0.0075838743 -0.10058364 0.01297227 0.002260885 -0.0098001 -0.008830466 2.3928337e-06 0.019469937
-0.042120088 0.0030494041 0.0194433 0.033167988 0.0077025685 -0.09386051 0.022161663 -0.012451186
-0.07658809 -0.029124334 -0.024344595 -0.01743037 -0.0064975824 9.402244e-05 -0.04620663 -0.008379365
0.0011547385 -0.017838594 -0.025743658 0.019476328 -2.0105458e-06 0.019478813 0.011236392 -0.0053671906
0.051339004 -0.022343436 0.013899307 -0.0078654615 -0.017881248 -0.030255798 0.008742981 -0.00022826788
0.00012435191 0.025986057 0.0126318475 0.015840506 0.0052636527 -0.023560975 -0.0018663455 0.01176972
0.017664041 0.002091351 0.049294796 -1.1614537e-05 0.032556415 -0.036080666 -0.00025962308 -0.069039434
-2.5811305e-06 0.04461967 0.011833143 0.034093153 -0.060173243 0.017419463 -0.013518066 -0.0018648695
-0.0059724306 -0.061459675 0.06446725 0.001910484 -0.030469297 -0.08469168 2.1179605e-05 0.003893003
-0.1212872 -0.0139873335 -0.015777173 0.010989018 0.02131381 -0.03382562 -0.005057961 0.0039117755
-0.0044474257 0.08173817 -0.019259814 0.022148112 -0.019101644 0.0002782243 -0.042319834 -0.016644256
-0.18326265 0.04999753 0.12875538 -0.014413229 -1.7680154e-06 -0.011295839 -0.005974373 -0.020111669
0.010672457 0.056918718 0.012218306 0.005993464 -0.02112784 -0.017080516 0.0064969514 -0.022003392
0.00022381112 0.00022430492 -0.007226204 0.037124023 0.009806318 0.050144646 -0.037108 -0.045277394
0.057698674 -0.020834003 0.009872107 6.620208e-05 0.019136531 -0.006011545 -0.05735499 -0.07692159
-1.8134197e-06 0.028104708 -0.03710121 -0.02061893 -0.065409504 0.018949056 -0.02490065 -0.007803121
-0.01071859 -0.08060844 -0.025234338 0.0026836041 -0.042194463 -0.002820373 4.287338e-06 0.026362795
-0.028745055 -0.010298216 -0.022481378 -0.047896132 -0.013266361 -0.04721688 0.021451471 0.0054761567
-0.053069636 0.10320622 -0.03259142 0.020149684 -0.045465577 1.9637559e-05 -0.0139194075 -0.05764821
-0.037132196 -0.04335796 -0.008965672 -0.0076717054 1.5847647e-06 -0.011881504 0.008844855 -0.03243091
0.046522364 -0.04901644 0.01945854 0.003899529 0.018566407 -0.066789664 0.029202009 0.019435424
7.082665e-05 -0.08114697 0.017592007 0.02402778 -0.019316478 0.015934173 0.016716694 -0.029792981
-0.002487959 -0.021325307 0.047680747 2.0895352e-05 0.09596697 -0.00466546 -0.061081264 -0.019799568
-5.3472572e-06 -0.0088859135 0.08877648 0.2505569 -0.04657219 0.005104021 -0.06923107 0.022035424
0.0096393265 0.058298826 -0.009684936 0.017090712 0.022847932 -0.03797579 5.3473636e-06 0.08708297
0.064391665 -0.08908424 -0.05870212 0.033250887 0.009986565 0.04390011 -0.054043174 -0.06648835
0.01179266 0.017125882 -0.04932908 -0.05960722 -0.045153633 0.0002679432 -0.1752821 -0.03143982
-0.040644787 -0.10464389 -0.07611109 0.053194974 4.239465e-07 -0.3252685 -0.047430497 0.08806776
-0.06857152 -0.036322217 -0.040174603 -0.025070624 -0.029397206 -0.18907358 0.03542111 0.12736583
0.00045349298 -0.0041057696 -0.04239399 -0.033508025 -0.011156771 0.031836044 0.009327959 0.05088566
0.04723712 -0.19737117 0.053407658 1.4849529e-05 -0.019611746 -0.12715264 0.0025811375 -0.021912383

module.layer1.0.shortcut.1.weight f4 [16]
00000000: f641 163d b266 cb3d 2b46 963d 7a80 aa3e
00000010: 4a5a 7d3e 9af1 793d 8e74 4a3d 5eae db3e
00000020: bc63 823e 1312 4c3e d1d7 993e 2bf3 8e3e
00000030: f142 833e 6dfa 783e fdd4 963e 372f aa3e
0.036684 0.09931697 0.07337602 0.33301145 0.24741474 0.061021425 0.04942756 0.4290647
0.25466716 0.1992877 0.30047467 0.27919897 0.2563701 0.2431428 0.29459372 0.33239147

module.layer1.0.shortcut.1.bias f4 [16]
00000000: eedd 91bc 3edd f2bc 6d96 7cbd f044 23bd
00000010: 2e28 173e 0e1e f6bc 2a6c 8bbd c403 dc3c
00000020: 5758 403e 9703 e3bc fbba b0bd 02f2 253d
00000030: 54d2 123e be7b 6dbd 7b5c 8dbd 8e37 e63d
-0.01780602 -0.029646512 -0.061666895 -0.039860666 0.14761421 -0.030043628 -0.0680774 0.026857264
0.18783699 -0.027711673 -0.08629414 0.040514 0.14338046 -0.057979338 -0.06902405 0.11241065

module.layer1.0.shortcut.1.running_mean f4 [16]
00000000: 7ed5 66bd f9cd 47bd eade 5abd 2a9a 8cbd
00000010: 2541 5b3d 8a2d d9bd e454 0a3b 4e3d 9ebb
00000020: 6858 e8bb ba1f 6cbd 9637 01be 2eca 22be
00000030: 0da7 febd d320 d63d 95da b0bc ff32 d5bd
-0.056355946 -0.048780415 -0.053435244 -0.06865342 0.053528924 -0.10604389 0.0021107728 -0.0048290854
-0.007090617 -0.057647444 -0.1261886 -0.15897438 -0.12434206 0.104554795 -0.021588603 -0.10410117

module.layer1.0.shortcut.1.running_var f4 [16]
00000000: da2e 3e3b f9fc dc3b ae10 853b 6292 b53c
00000010: 441c 443c db50 f13b 54a1 373b 7e63 a53c
00000020: a82c 583c de70 2e3c 8198 813c 317e 273c
00000030: d8b3 963c 11e5 ce3b 7ce2 e43b 37a9 a33c
0.0029019625 0.006744024 0.0040608263 0.022164527 0.01196963 0.007364375 0.0028019743 0.020189043
0.013194241 0.010647027 0.01581979 0.0102229575 0.018396303 0.006313928 0.006985007 0.019978149

module.layer2.0.conv1.weight f4 [32, 16, 3, 3]
00000000: e960 583d 8810 463d f9fe 69bc 6d05 1b3d
00000010: 847b 15bd 224d 8dbd 9bec 33bd 4ed3 e9bd
00000020: 7e5c d0bd 3408 d2bb 42bd 993c b013 673d
00000030: 863e 373d f50b 093c c866 183c 11cd 173d
00000040: 8476 153c 2a4c 67bd 15eb c5bc 8ddc 8cbc
00000050: c57a ee3a 7bf4 9cbc f975 423c 02d0 19bd
00000060: ce00 213c 9a86 593c c115 28bd 7c46 bdbc
00000070: f8b2 293c f3ca 18bc a233 703d 9a5f a33d
00000080: eb26 fb3b 57ad 053e 227f 8f3d 108f 6dbc
00000090: 8661 20be 7e0f c6bc 4e1c d0bc 18e4 02bd
000000a0: 3989 1b3d d708 cabb 6af1 853c 85c6 283b
000000b0: 1360 36bd f8a1 4e3d 2f48 c83d 54ea 833d
000000c0: 7890 a13d 11b5 c03d a7b1 2e3c 6a8e ab3a
000000d0: 1896 1b3b b3e0 2abb 807b 8fbc 5dbb e4bc
000000e0: 7b5c d6ba 3010 14bc d8fa 69bd b6e0 35bd
000000f0: f68f 81bd 0455 c3bd a329 1ebd e26b 87bd
00000100: ec9f f6bc 3b1f 44bd 4671 36bc e93e 9a3c
00000110: e41a e8bc 6335 693d 4afb 6c3c 6366 f1bc
00000120: f028 533b 75c1 293c 94dd 9ebb 194d 2f3d
00000130: eaad d2bb 5e17 3ebc 002e 9fbc a38b 35bd
00000140: 4823 2fbd d0e3 933d f252 ae3d 5cc1 663d
00000150: c0d6 413d f17c 2b3d c356 74bc 7225 203c
00000160: 6fc5 82bd 5eea a4bc 4f7c 3dbd 4a43 86bc
00000170: a61c 9ebb 96ed 19bd 2505 84bd 46b3 e2bc
00000180: bb87 223c 74ca 2abd 650c 8dbd cd46 84bd
00000190: 5687 923d 4e10 ae3d 4788 3ebd 8697 883d
000001a0: 0479 b93d 9422 e2bc 056b ac3c e6f8 893c
000001b0: 14cf 8aba 2e84 313d d48e 63bc 5019 5e3e
000001c0: 7df2 783e bdb5 283e 3730 183e 352e 563e
000001d0: c0f9 f23d de1c 933b 4075 c2bc ac3c 343d
000001e0: ac64 a8bc 2581 2abd 3c8c 1f3d 1ffa 993c
000001f0: 45c9 a3b8 9538 12bd 2497 9e3c 42bc 893c
00000200: c33e 15bd 93e0 473d 3c85 9ebc 2603 f1bd
00000210: d222 e9bc 04de abbd f741 b6bd 9916 aabb
00000220: 0cbb 0dbd 85b3 78bc b691 74be 04b2 30be
00000230: d859 20be 9a90 2cbe 8fc5 9fbd 2d5d cabc
00000240: 9aeb d93c 0f1b 153b 7ab4 aebc db94 8c3d
00000250: b2cd cb3d 6a80 2e3d 32b7 cd3d 7a69 e53d
00000260: b9c0 4d3d 0448 ba3d 7767 923d 92c7 803d
00000270: a405 b33d eda9 003e 4c37 f93c 5832 873c
00000280: d8c8 c73d 82af 4c3d 12e8 243c 4047 e0bd
00000290: e765 27be 975d 313d 380a adbc a84b d1bd
000002a0: 01b0 903d a09a fb3d 31d1 393d 6f99 873d
000002b0: e321 553d 3822 6f3d 20b5 203d f621 b53c
000002c0: a274 b33d 4198 833d 46d8 773d 394d 3b3c
000002d0: 4e04 41bd 5455 f0bb c68c 0b3c cc9e 0abe
000002e0: 99f5 cfbd a84c c1bd b2b8 eebd 8b3e 23be
000002f0: d25f 1fbe d4bf ebbc 2604 1abd 2274 01bd
00000300: 9501 55bd 29be 8e3a db9c 0a3d 09de 073c
00000310: 8a02 dc3d 003e d43d 8cb8 1abd 006b 92bd
00000320: 9277 edbc d889 fbbb 0ad1 623d b784 b03c
00000330: f865 3a3d 027f d93d bef1 293d f67a 353d
00000340: e014 a23d bb4f 0a3d 5490 213d 52eb 823d
00000350: a05c 433d 3a11 da3d 4c65 303e f0e6 023e
00000360: 1ada b7bc 3e95 b1bd 3d38 5ebd b679 54bd
00000370: 6266 c8bd aa30 8abd 118d b4bd 9134 ffbd
00000380: e9e5 b0bd b4f8 a5bd 79d2 91bd efad c0bd
00000390: 00e5 21bc de7a 57bd da4e 54bb 2638 cc3b
000003a0: f665 bc3c 8cee 043d 7122 b3ba f12d 223c
000003b0: 1a40 e23c 4f3c 6e3d d7df 833d 493f fd3d
000003c0: 194f 363d 8429 c53d 6cb3 983d c100 38bd
000003d0: fa31 43bd e2eb 8dbd 11ae 8abd a00a cfbc
000003e0: 03c4 80bd a589 2bbd ac54 103c 950f cbbc
000003f0: 8e4a d6bd 581a 8fbd 4fa5 25bd 84ea 8fbd
0.052826796 0.04835561 -0.014281982 0.03784697 -0.036494747 -0.068994775 -0.043926816 -0.11417256
-0.101738915 -0.0064096693 0.018767003 0.05641526 0.04473736 0.008364667 0.009301849 0.0370608
0.009122495 -0.05646912 -0.024159947 -0.01719501 0.0018194547 -0.019159546 0.011868947 -0.037551887
0.009826852 0.01327672 -0.04103637 -0.023104899 0.010357611 -0.009325731 0.05864299 0.07977219
0.0076645515 0.13054405 0.070066705 -0.014499441 -0.15662202 -0.02417731 -0.025404122 -0.03195581
0.037972663 -0.0061656046 0.016350467 0.0025753092 -0.044525217 0.050447434 0.09779393 0.06441179
0.07888883 0.09409536 0.010662473 0.0013088707 0.0023740586 -0.0026073873 -0.017514944 -0.027921373
-0.0016354466 -0.0090370625 -0.05712399 -0.044403754 -0.063262865 -0.095377 -0.038613927 -0.06612374
-0.030105554 -0.047881346 -0.011135405 0.018828826 -0.028333135 0.05693568 0.014464209 -0.029467767
0.0032220446 0.010361065 -0.0048481915 0.042798135 -0.0064294236 -0.011602251 -0.019431114 -0.04432262
-0.042758256 0.07221186 0.08511914 0.056336746 0.047323942 0.0418672 -0.014913264 0.009774553
-0.06385314 -0.020131286 -0.046261128 -0.016389508 -0.0048251925 -0.037580095 -0.06446294 -0.027673375
0.009920056 -0.04169698 -0.0688713 -0.06458817 0.071547195 0.084992036 -0.046516683 0.06669526
0.09056285 -0.027604379 0.021047125 0.016842317 -0.0010590279 0.043338947 -0.013889033 0.21689343
0.24311252 0.16475578 0.14862143 0.20916064 0.11864042 0.004489525 -0.02373755 0.044003174
-0.020555817 -0.041627068 0.038952097 0.018796025 -7.809935e-05 -0.035698492 0.019359179 0.016813401
-0.036436807 0.048798155 -0.01935064 -0.11768179 -0.028458986 -0.083919555 -0.088993005 -0.005190682
-0.03460221 -0.01517952 -0.2388371 -0.17255408 -0.15659273 -0.16852036 -0.07801353 -0.024702633
0.026601601 0.0022751724 -0.021326292 0.068643294 0.09951343 0.042602934 0.10044707 0.11201759
0.050232623 0.09095767 0.071486406 0.06288065 0.0874131 0.12564822 0.030421875 0.016503498
0.09755105 0.049972065 0.0100650955 -0.1095109 -0.16347466 0.043302145 -0.021123037 -0.102195084
0.0706482 0.12285352 0.045365516 0.06621062 0.05203427 0.058382243 0.039235234 0.02211092
0.0876248 0.064255245 0.06050899 0.011431986 -0.047123246 -0.0073343907 0.00851745 -0.13537139
-0.10154266 -0.09438449 -0.116563216 -0.15941827 -0.15563896 -0.028777994 -0.037601613 -0.031604894
-0.052003462 0.0010890412 0.033840995 0.008292683 0.10742672 0.10363388 -0.037773654 -0.07149315
-0.02898768 -0.0076763444 0.055375136 0.021547658 0.0455074 0.10619928 0.04149031 0.044306718
0.07914138 0.033767443 0.039444283 0.0639254 0.047695756 0.10647817 0.17226142 0.12783408
-0.022442866 -0.08671044 -0.05425285 -0.051873885 -0.09785153 -0.06747563 -0.08815969 -0.12461198
-0.08637602 -0.08104077 -0.071202226 -0.09408175 -0.009881258 -0.05260741 -0.0032395632 0.0062322794
0.022997838 0.03245406 -0.001366688 0.009898649 0.027618457 0.058162984 0.064391784 0.12365586
0.044509027 0.09627059 0.07456097 -0.044922594 -0.047655083 -0.06929757 -0.06771482 -0.025273621
-0.06287386 -0.041879315 0.00880925 -0.024787704 -0.10463439 -0.069874465 -0.040440854 -0.07027152

module.layer2.0.bn1.weight f4 [32]
00000000: ad51 b43e f4d2 a33e 1652 ca3e f245 af3e
00000010: 1122 9c3e 9348 ae3e f000 ce3e fbc0 9f3e
00000020: 9c16 c83e a33a d13e e90e bc3e ac80 b23e
00000030: 371c aa3e 1475 0c3f a271 5a3e 4cfd bc3e
00000040: 6ed7 923e 1826 ad3e d9fa e33e e162 983e
00000050: 006b 943e b27c 9c3e a06e dd3e d459 b03e
00000060: 71c8 b23e 3fdb e73e 4054 b53e 0183 c43e
00000070: aeff b83e 3758 d63e 7ce8 953e 0246 a93e
0.35218564 0.31996882 0.39515752 0.34233052 0.3049474 0.34039745 0.4023509 0.3120192
0.3907975 0.4086505 0.36730126 0.34863794 0.3322465 0.5486615 0.2133241 0.36912
0.28679985 0.33818126 0.4452732 0.2976294 0.28987885 0.30563885 0.43248463 0.34443533
0.3491855 0.4528446 0.3541584 0.38381198 0.36132568 0.41864178 0.29278934 0.33061224

module.layer2.0.bn1.bias f4 [32]
00000000: 385b a6bd e612 7f3d 8004 12bd 77e9 60bd
00000010: 4100 523c 07ae c43a 7e75 9c3d bfb6 2dbd
00000020: 01c2 2ebe f836 88be 3c58 ddbd 4421 babd
00000030: 7be9 51be 9bb1 25bd 2ea6 1f3e 589e c73d
00000040: ec45 193c 733f 37bd 0678 13bd 3c7a 383e
00000050: 7963 893d 927c 57bd bc5f 6cbd 1eda 54bd
00000060: 3744 31be 4b78 9c3c d151 88bd 0f05 14be
00000070: 2c3d 6dbd 278e 48be c22f 23bd 2e4b d93d
-0.08122867 0.062273882 -0.035648823 -0.05491015 0.012817443 0.0015005477 0.07639597 -0.04241061
-0.17066194 -0.26604438 -0.10807845 -0.09088376 -0.20499222 -0.04045258 0.15590736 0.097469985
0.00935505 -0.044738244 -0.036003135 0.18015379 0.06708426 -0.052609034 -0.057708487 -0.051965825
-0.17311178 0.019100329 -0.0665623 -0.14455055 -0.057919666 -0.19585477 -0.039840467 0.106100425

module.layer2.0.bn1.running_mean f4 [32]
00000000: 8a04 81bc 81d4 97be e729 e3be 9bb9 9d3f
00000010: 9d86 cfbe f7e1 65be 4b58 b4be a6a8 0b3e
00000020: 3f19 0dbe 023a a53e 2a61 84bd b958 6bbe
00000030: 8ff1 99bd 6892 0ebf 770a 183f b84d c5be
00000040: c711 a83d 99c7 3f3e 2f0a fcbe 9bb9 133c
00000050: ecef c43e 5bf3 133c 77ad b1bc 715c a0be
00000060: 4fff b33e 7362 ccbe bb8e 88bd f899 85be
00000070: 6a59 8fbe 53d2 64be 5dac 8c3e 8968 733d
-0.015749235 -0.29654315 -0.44367906 1.2322267 -0.4053239 -0.2244948 -0.35223612 0.13638553
-0.13779162 0.3227082 -0.06463845 -0.22983064 -0.07516777 -0.5569215 0.5939097 -0.38535857
0.08206516 0.18728484 -0.4922652 0.00901642 0.38464296 0.009030188 -0.02168916 -0.31320527
0.35155722 -0.3991886 -0.06667849 -0.2609403 -0.27997905 -0.22345857 0.27475253 0.059425864

module.layer2.0.bn1.running_var f4 [32]
00000000: a537 233e eba2 7f3e 17b9 1d3e f27c ee3e
00000010: a3a1 3b3e 502e 2f3e 946e 843e 0281 e43d
00000020: 9cc4 c13d 1b45 193e 40ef d33d dbf0 1d3e
00000030: 322f d83d 2999 583e 73d3 003e 9dc3 873e
00000040: c092 d83d 25ee e23d 21bc 7d3e 368b 4b3e
00000050: fac5 733e 2eea 033e 05a1 163e a614 533e
00000060: 2bb7 153e 7d5a 3d3e 30e2 3f3e 45ed 013e
00000070: 173a d43d 9cb1 4b3e ecec ed3d aa79 373e
0.15939195 0.24964492 0.15402637 0.465797 0.18323378 0.1710751 0.25865614 0.11157419
0.094613284 0.14967768 0.10348368 0.1542391 0.10555877 0.21152176 0.12580661 0.2651643
0.10574865 0.11080579 0.24778797 0.19877324 0.23805991 0.12882301 0.14709862 0.20613346
0.14620654 0.1849155 0.18738627 0.12688167 0.10362642 0.19891971 0.11617455 0.17917505
