results/KOHZ/cifar10/nokd/resnet8_best.pth.tar (torch_old, 371444 bytes, 52 tensors)

module.conv1.weight f4 [64, 3, 3, 3]
000000 97 e9 6f bc 28 7d 14 bd ad a2 82 bc 63 59 1c 3c
       -0.0146430945 -0.03625217 -0.01594671 0.009542796
000010 d5 80 24 3d dd 1f fd 3d e6 f0 c0 bb 7d b9 0d be
       0.040161926 0.12359593 -0.0058880923 -0.1384029
000020 ea 8d b0 ba 5d d5 3c bd e8 73 85 bd 0c 04 ef bb
       -0.0013470028 -0.046101917 -0.06516248 -0.0072941836
000030 9d 02 c4 3b ad 35 8c 3d 9e 65 33 3e b8 66 a4 3c
       0.005981757 0.06846175 0.17519233 0.020068511
000040 1f 41 fd bd e4 69 f6 3b bd 46 1a bd b1 a9 47 bd
       -0.123659365 0.0075199474 -0.037665118 -0.048745815
000050 b7 6b 49 bc 69 ea fb 3c 1a c8 9f 3d cf 9d 09 3e
       -0.012293748 0.030751424 0.07801838 0.13439105
000060 61 f6 27 3c 35 55 07 be 2f 54 50 bd b6 6f 0f be
       0.010251612 -0.13216098 -0.050861534 -0.14007458
000070 fb 90 53 bd b3 39 a8 3c 2a b2 5e bd d2 13 e9 3d
       -0.051651936 0.020535326 -0.05436913 0.113807335
000080 df 83 9c 3d 49 b2 98 bc ab 6b ae 3d bf e0 a6 3c
       0.0764234 -0.0186397 0.0851663 0.02037084
000090 26 53 06 be 74 ce 4c bc 29 93 27 3b a9 58 81 bd
       -0.13117656 -0.012500394 0.0025569892 -0.06315739
0000a0 a5 e9 26 3e 7f 62 a4 3d 46 98 61 bd 50 56 b6 3d
       0.16300066 0.08026599 -0.05507686 0.089031816
0000b0 55 97 22 bc a3 69 1f be 19 c5 80 bc b9 80 5a bd
       -0.009923776 -0.15567641 -0.015718983 -0.053345416
0000c0 0f 8b 83 bd 96 82 42 3e 7c 81 c2 3d 9d 9f 8f bd
       -0.06423008 0.18995127 0.094973534 -0.07012866
0000d0 62 0c d6 3d a3 94 00 bc c1 d4 43 bc 36 dd 21 bd
       0.104515806 -0.007847938 -0.01195258 -0.039517604
0000e0 14 b6 0d bd 48 f0 02 bc 16 32 c5 bc 29 cc ed bc
       -0.03459747 -0.007991858 -0.024071734 -0.029028015
0000f0 a5 e7 7e 3c 8d 93 1d 3c 91 d2 d9 3b 3e 6e db 3c
       0.015558158 0.009617698 0.006647416 0.026785966
000100 c3 3f ab 3b 9d b8 91 bb a2 79 ec 3c 39 3d 9a 3c
       0.005226107 -0.0044470564 0.028866593 0.018828021
000110 72 11 2a 3b 73 e7 bb 3c 94 c4 7a 3c 90 c6 f9 3b
       0.002595034 0.022937512 0.015305657 0.0076225474
000120 d0 7c 8c 39 34 42 8b bc fb f6 fb bc fc 61 1b bc
       0.00026795873 -0.016999342 -0.030757418 -0.0094838105
000130 b4 71 a6 bc e1 c3 0a bd 20 8a 8d bc 6a 4a 13 bd
       -0.02031789 -0.03387821 -0.017277777 -0.03595964
000140 c6 54 1d bd b7 3f bf bd 20 80 ae 3c d5 30 61 3d
       -0.038410924 -0.093383245 0.02130133 0.05497821
000150 61 58 a7 3c 4c fe 89 3d a4 3d d6 3c 7e 65 ee 3c
       0.020427885 0.067379564 0.02615244 0.02910113
000160 f8 d1 7d 3c a7 21 60 bd 78 e6 52 bd 1a 69 c5 3b
       0.015491955 -0.054719593 -0.051489323 0.006024492
000170 e6 6e 22 3d 26 97 a6 3c 64 96 36 bc 8b c8 08 bd
       0.039656542 0.020335745 -0.011144254 -0.033394378
000180 d0 60 5a 3d d0 a7 a9 bc 1b 84 6f bd 2a 49 42 bd
       0.053314984 -0.020709902 -0.058475595 -0.047433056
000190 2e e3 b1 3b 0f 05 22 3c ec 98 6a 3c c8 2a 5b bc
       0.0054286933 0.009888901 0.014318686 -0.013376899
0001a0 ac 0e 40 bd 5f ab a2 3c f2 2e fc bc c4 a9 6c bd
       -0.046888992 0.019857107 -0.030784104 -0.05777909
0001b0 02 27 71 3c c4 b0 19 bc 5b a5 bc 3c e7 ff 1d 3c
       0.014718773 -0.009380523 0.023028066 0.009643531
0001c0 77 66 c6 bc 5d bb bb 3c 9e 15 ea 3b a5 9c c7 bb
       -0.02421878 0.02291649 0.0071436903 -0.0060916715
0001d0 20 5c 9c 3b e4 ac 0a 3a 0d 45 c1 bc d0 e6 32 3c
       0.0047717243 0.0005290045 -0.023592496 0.010919288
0001e0 40 e4 06 3c f3 b3 d6 bc 1f 6f 96 3c bc 4e 8a 3c
       0.00823313 -0.026208853 0.018363534 0.016883247
0001f0 82 60 03 3b 60 91 2a 3c d3 b1 aa bc bf 33 1c bd
       0.0020046537 0.010410637 -0.020836746 -0.038135286
000200 af 49 bb 3c 45 a8 2b 3b ef 55 f5 bc 47 9f 1d 3d
       0.022862284 0.0026192826 -0.029948203 0.038481977
000210 d2 5c 09 3d 39 5d 52 3c 3a 3d 27 3d 85 ef 41 bd
       0.033535786 0.012839609 0.040829875 -0.047347564
000220 2e f1 c4 3d d7 97 35 bd 75 91 ce bd 2f 4a 0f 3e
       0.09616314 -0.04433426 -0.100863375 0.13993143
000230 e2 be 69 bd ad 86 d5 bd 23 c8 78 3d d5 8d 4b bd
       -0.057066806 -0.10426078 0.06073774 -0.04969581
000240 b2 a0 94 bc 0d c8 d2 3d ab e2 c4 bd e0 fe 72 bd
       -0.018143032 0.10292063 -0.09613546 -0.0593251
000250 41 0c 3a 3e 70 68 b3 bd c4 f3 45 bd b2 97 14 3e
       0.18168737 -0.08760154 -0.048328176 0.14510992
000260 b1 66 30 bd 41 6a 13 bd 76 86 c2 3d e8 3e 7f bd
       -0.043066684 -0.035990003 0.09498303 -0.06231585
000270 5c 58 96 bd ad 16 10 3e e3 40 b1 bd bb 56 45 bd
       -0.07341072 0.1407115 -0.08654954 -0.048178416
000280 fd 90 ea 3d d5 bc 90 bd 40 ba ba 3c 52 ec 26 3d
       0.114534356 -0.07067267 0.022793889 0.040752716
000290 7a 17 c6 bc 13 32 bf 3d 35 43 f8 3c 05 a3 f3 bd
       -0.024181116 0.09335723 0.030305484 -0.11896328
0002a0 df 5f ba 3d 7d 2f ca 3c bc 54 e4 bd 66 13 8a bd
       0.09100317 0.024680847 -0.11148974 -0.06741981
0002b0 3f dd 19 bc 03 f7 08 bc b6 84 ed bb 15 1a 4a bc
       -0.009391128 -0.008359673 -0.0072484864 -0.01233532
0002c0 6f 69 a9 bd b3 8b 22 39 f8 00 62 bb ea 05 a3 bd
       -0.08272063 0.00015501566 -0.003448544 -0.079601124
0002d0 25 80 48 bd 64 80 17 3d 90 82 57 3d 13 fb f9 ba
       -0.048950333 0.036987677 0.05261475 -0.0019072018
0002e0 a4 6f 26 3d 37 08 d3 bb 4e b9 2a 3c 0d 5d 40 3d
       0.040633813 -0.0064401883 0.010420157 0.04696374
0002f0 46 b4 2b bc 49 be ad 39 d1 2d 35 bc 35 82 a7 3c
       -0.010479992 0.00033138905 -0.011058287 0.02044783
000300 97 ee 9b bc 59 f3 91 3b 9c d9 d1 bc d0 55 2b bc
       -0.019034667 0.004454058 -0.02561646 -0.010457471
000310 5e f1 4b 3c 23 f9 2f bc dc cf 3a bd 29 5d 84 bd
       0.012447683 -0.010740551 -0.045608386 -0.064630814
000320 93 68 0b bd fd a4 c9 3c 2a c9 65 3d 75 88 d9 3c
       -0.034035277 0.024614805 0.056100048 0.026554326
000330 68 47 96 bc 94 45 9b 3c 90 40 fb ba 1b e1 e8 bd
       -0.018344596 0.018954076 -0.0019169021 -0.113710605
000340 f1 4a 06 be 8e 3b d8 bd ce 6c af 3d 01 6e 05 3e
       -0.13114525 -0.10558234 0.08565675 0.13030244
000350 e2 0c dc 3d 9e 81 b4 3a ef 42 1a 3d 3b a0 d1 3c
       0.10744645 0.0013771539 0.03766149 0.0255891
000360 af 38 14 bc 57 4b d8 bb 4a f1 0e bc e5 c0 b4 bb
       -0.009046718 -0.006600778 -0.00872452 -0.005516159
000370 d2 42 94 3a 9f f4 20 bb 23 a2 ab ba 38 5f 84 3b
       0.0011311418 -0.0024559868 -0.0013094585 0.0040396713
000380 e3 15 47 b9 b4 e5 27 3a f8 36 0c 3b e4 4f cc ba
       -0.00018986272 0.0006404773 0.0021395069 -0.0015587774
000390 11 31 e4 3a e0 d0 07 3c ad ef 61 3b 50 8e 0e 3b
       0.0017409642 0.008289546 0.0034475133 0.0021752305
0003a0 ff 4f b1 3b d3 27 1e 39 b6 23 a1 bb 47 07 07 bb
       0.0054111476 0.0001508289 -0.004917587 -0.0020603703
0003b0 b4 30 a0 bb ec e8 07 bc 9a 54 2c bb 09 fd ac bb
       -0.0048886184 -0.008295279 -0.0026295544 -0.0052791876
0003c0 01 89 1a bc 2a 26 14 bc e8 1a 4e bc f5 10 ce bd
       -0.009432078 -0.009042302 -0.012579657 -0.10061828
0003d0 84 dd 02 3e 47 2f e1 bc cb 77 92 3d 27 e1 ba 3e
       0.12779814 -0.027488364 0.07151755 0.36499903
0003e0 c1 a8 06 3e 94 7b f6 bd e7 7e 2a 3e bc dd 8f bd
       0.13150312 -0.120352894 0.16649972 -0.07024714
0003f0 22 d8 44 3d 29 e5 8d be b6 61 02 be 1f 5d c6 bd
       0.048057683 -0.27713898 -0.12732586 -0.0968573

module.bn1.weight f4 [64]
000000 2d 9e 3a 3e 96 38 41 3e 0f 1a e9 3d 6c 8b d8 3d
       0.18224402 0.18869242 0.113819234 0.105734676
000010 6d f3 c4 3d a5 14 b5 3e bc c1 53 3e df 18 7b 3e
       0.09616742 0.35367313 0.20679373 0.24521206
000020 2d 26 2d 3c 45 3c 42 3e 6a d6 13 3e 91 74 3e 3e
       0.010568184 0.18968304 0.14437261 0.18599154
000030 98 d0 6a 3e d2 4b 18 3e 28 2e 50 3e e9 64 b0 3e
       0.22931135 0.14872673 0.20330107 0.34451988
000040 0d 3c 4a 3e ff f7 8c 3d 36 1b 19 3e 9f 29 46 3e
       0.1974947 0.06883239 0.14951786 0.19351815
000050 cf 08 09 3e b6 8f ae 3e 36 bd eb 3d 45 e0 10 3e
       0.13382266 0.34094018 0.115106985 0.14148052
000060 ee 82 2f 3e 21 d4 c0 3d a6 5f 5b 3e 17 c7 c8 3d
       0.1713979 0.094154604 0.21423206 0.098035984
000070 ec e7 84 3e 2e bc 69 3d eb 14 3b 3e 89 eb 18 3e
       0.25958192 0.057064228 0.18269698 0.149336
000080 62 31 b7 3d 01 30 17 3e 15 96 96 3e 80 dc a0 3d
       0.08944966 0.14764406 0.29411379 0.07854557
000090 1c b5 3b 3e 70 36 0f 3e 09 56 07 3e 0c c1 3e 3e
       0.18330806 0.1398561 0.13216414 0.18628329
0000a0 0a 59 3f 3e af ad a7 3e 94 7a c1 3e 57 ca 7e 3e
       0.1868631 0.32749698 0.37788832 0.24881874
0000b0 73 a8 70 3e a4 a8 29 3e 10 c3 bc 3e c7 61 36 3e
       0.23501758 0.16568238 0.3686757 0.17810737
0000c0 33 0e 1e 3e 5f a1 5b 3e 61 76 34 3e 0f 9b 3d 3e
       0.15435104 0.21448277 0.17623283 0.18516181
0000d0 87 ad 26 3e cc 7d 8c 3e df 7a b5 3e cc 8f 2b 3e
       0.16277133 0.27439725 0.35445306 0.16754073
0000e0 1c ce 94 3e 88 eb 64 3e 56 bd 08 3e c0 18 af 3e
       0.290635 0.22355473 0.13353476 0.3419857
0000f0 c0 9f 2f 3e 14 c6 85 3e 88 1d 77 3e 3d e4 c5 3d
       0.17150784 0.26127684 0.24132359 0.096626736

module.bn1.bias f4 [64]
000000 cf 18 88 3c d3 f6 d2 3d 5a 74 05 be ea eb e4 bd
       0.016613392 0.10300984 -0.13032666 -0.111778095
000010 03 8a be bd d2 25 4a be 20 48 ed bd 39 41 d3 bd
       -0.093036674 -0.1974099 -0.115860224 -0.103151746
000020 b1 f7 b7 bc 25 93 98 3d 56 da b0 3d 09 b9 ac 3c
       -0.022456976 0.074499406 0.08635394 0.021084325
000030 66 01 23 bc e3 64 e3 3d 98 18 69 be aa 5c 49 bd
       -0.009949064 0.11103227 -0.22763288 -0.049160637
000040 60 80 2b 3d 45 f9 09 bd ab 0b e8 3c 67 91 1a 3e
       0.041870475 -0.033684988 0.028325876 0.15094529
000050 83 e0 99 3d 09 4b b1 bd 07 3d b6 bc 36 5a d9 3d
       0.07513525 -0.0865689 -0.022245897 0.106129095
000060 90 41 18 3e ba 9d f4 3c 65 a6 24 3e 9e af af 3c
       0.1486876 0.029860366 0.160791 0.021446045
000070 29 cf 9c 3e 52 2e 7a bd 8f 6b 0a 3c 6a 99 42 3d
       0.306268 -0.06107933 0.0084484955 0.04750959
000080 7c b1 93 bd cd 86 c1 3c 87 9d b8 bd 71 96 70 3d
       -0.07211587 0.023623848 -0.09014421 0.058737222
000090 50 d2 96 3d ba a2 99 bd 5e 46 97 3b b8 ba c9 3c
       0.07364333 -0.07501741 0.0046165427 0.024625167
0000a0 92 6b a8 3c d0 aa 48 be 9e 2d dc 3d 08 9a 37 3e
       0.020559106 -0.1959641 0.10750888 0.17929852
0000b0 b5 68 81 3d 2b 08 2f bc 4c fe 91 be f9 3e ae bd
       0.063187994 -0.0106831 -0.28514326 -0.08508105
0000c0 74 8e 89 bd 12 92 47 3b 20 16 51 3c ce 4c 49 3d
       -0.06716624 0.0030452055 0.012761623 0.049145512
0000d0 30 71 68 3d 8b 9d 6d be 19 f4 9c be cd 62 3e 3e
       0.05674857 -0.23204629 -0.30654982 0.18592377
0000e0 e6 7d 1d 3e 49 08 2d be 32 ae dd 3d a5 dc 5c be
       0.15380058 -0.16897692 0.10824241 -0.21568544
0000f0 77 2f f0 bd e1 9f ca 3d 1a 8b ff bd 3e 41 80 3d
       -0.11727803 0.09893776 -0.124777034 0.06262444

module.bn1.running_mean f4 [64]
000000 7f 4e ed ba c6 0f 9f bd 1c 28 4b 3d 34 f3 cc 3c
       -0.0018105059 -0.077666804 0.0495988 0.025018312
000010 fa f6 db bc cc 54 b7 bc d5 36 d7 3c 7d 68 41 bb
       -0.026851166 -0.022379301 0.026271263 -0.0029511743
000020 85 d2 7f 3c eb 58 69 3d 6e 40 79 bc 1c d0 28 bc
       0.015614157 0.056969564 -0.015213115 -0.010303523
000030 f8 4a 16 3e d0 bd a4 ba b9 1e f6 bd c1 50 83 3d
       0.14677036 -0.0012568776 -0.12017579 0.06411887
000040 04 aa 3c bc a4 ac 5b 3d 15 de 74 bb c5 f7 b9 3b
       -0.011515144 0.05363144 -0.0037363817 0.0056752884
000050 61 8c 0e bd 4e d1 ab 3d 2e a5 31 3d ac 07 08 bd
       -0.034801845 0.08389531 0.04337042 -0.03321044
000060 04 83 15 bc 05 79 24 3c 24 97 2e 3d c9 7f 17 3c
       -0.009125475 0.010038619 0.042624608 0.009246775
000070 02 e5 72 bb f3 3d 16 3d 37 87 db 3b 1f 95 ed 3c
       -0.0037062769 0.036680173 0.0066994685 0.02900177
000080 ae db 50 bc 55 f2 31 bd 3b b0 b5 bc 86 cc 17 bc
       -0.012747688 -0.043443996 -0.02217876 -0.009265071
000090 12 d5 07 bd c6 c8 61 3c 29 41 f2 bd 93 d4 aa 3c
       -0.033162184 0.013780778 -0.118288346 0.020853316
0000a0 8e 39 0a 3a 28 c5 23 3e 5d 2d 5d bd d5 8b c8 bc
       0.00052728585 0.15993178 -0.05399834 -0.02448074
0000b0 26 bf eb bc b7 4e 3b 3b 10 05 36 3e f2 2f 91 3b
       -0.02877767 0.0028580853 0.17775369 0.0044307644
0000c0 0d ae 15 bd 47 50 80 3d fa 63 9c 3c 00 3c f2 bc
       -0.03654294 0.06265312 0.019090641 -0.029569626
0000d0 7e 8f 2c bc 6d c7 00 be 63 a4 1d 3e 70 e8 de bb
       -0.010532258 -0.12576075 0.1539474 -0.006802611
0000e0 e8 37 a0 bd 89 8d f9 bd a0 f7 0a bd 6c cd 12 3e
       -0.07823163 -0.12185199 -0.03392756 0.14336175
0000f0 4e 6b 97 3c 8c 05 06 bd fa ef 83 3d 5f b0 a1 3c
       0.018483784 -0.032720134 0.06442256 0.01973742

module.bn1.running_var f4 [64]
000000 17 b8 41 3e 5e bc 0c 3f 27 d2 80 3d 2c 55 2b 3d
       0.18917881 0.54974926 0.062900834 0.041829273
000010 f4 1b fc 3c a5 b7 92 3e 9c ce bd 3d b0 f9 f7 3d
       0.030775048 0.28655735 0.09267923 0.12108171
000020 4e 07 b0 3b a1 2e 16 3e d5 18 ae 3e 36 26 95 3d
       0.0053719645 0.14666225 0.3400332 0.07282679
000030 43 74 19 3f c4 9f c1 3e 53 51 8c 3e ef 9d 84 3f
       0.59943026 0.37817204 0.27405795 1.0360698
000040 cc 43 72 3e 62 23 53 3d 55 ef 58 3d 71 a8 5e 3e
       0.23658675 0.051547416 0.05296262 0.21743943
000050 2b ae b5 3e 69 97 e0 3e de 10 c5 3d 7b 45 82 3e
       0.35484442 0.43865517 0.09622358 0.25443634
000060 e3 6e f9 3d 31 7f 5f 3e 2a 26 0c 3f 93 0b 3b 3d
       0.12179353 0.21825863 0.54745734 0.045665335
000070 3d 7e f2 3d e9 3d da 3c 0e f3 38 3d 26 71 c1 3e
       0.11840484 0.02664085 0.04515367 0.37781638
000080 ba 3f 97 3c bf db 8e 3e 02 a1 ab 3d b3 b3 8c 3d
       0.018463004 0.27902028 0.08380319 0.068702124
000090 7c 5d 89 3e 1f a7 92 3d cd a7 71 3e 31 4d 29 3f
       0.26829135 0.07160782 0.23599167 0.6613341
0000a0 ab f2 e9 3f 0c 86 f3 3e 05 bb 4f 3f c7 8a ea 3d
       1.8277181 0.47563207 0.81144744 0.11452251
0000b0 25 93 da 3e 9f 1d b5 3e 14 df 27 3f e8 d9 81 3c
       0.42690387 0.35374162 0.65574765 0.015850976
0000c0 ee fb 43 3d d4 6b 09 3f bf 64 9c 3f 4c 48 63 3f
       0.04784768 0.5368016 1.2218245 0.8878219
0000d0 e5 5e 85 3f 6e 3e 93 3e bb 23 e1 3e 16 27 37 3e
       1.0419585 0.28758568 0.43972573 0.17886004
0000e0 8b c9 b3 3f 8f 35 c8 3e da cc 2a 3e 46 c5 0a 3f
       1.4045881 0.39103362 0.16679707 0.54207265
0000f0 58 f0 2f 3d 32 34 4e 3f 19 38 65 3e 0a c8 f4 3e
       0.04295382 0.80548394 0.22384681 0.47808868

module.layer1.0.conv1.weight f4 [16, 64, 3, 3]
000000 93 e4 a0 bc aa e2 d0 3c f8 12 07 bd 4a c4 29 bc
       -0.019640243 0.025498707 -0.032977074 -0.01036174
000010 64 b2 d5 3c bc bc 09 bd 99 ad 81 3a 53 65 01 3d
       0.02608604 -0.033627257 0.0009893655 0.03159077
000020 1a 20 17 bd cf 1a 7e bc 63 d3 88 3c 32 e4 58 3b
       -0.03689585 -0.015509321 0.01670236 0.0033095
000030 15 83 c1 bc 6e 97 ea 3c e0 1a f2 3b 59 68 39 bd
       -0.023622075 0.02863666 0.0073884577 -0.04526553
000040 85 2b b7 3c 7e ea c7 3b 07 1c 9a 3c a2 d6 fd 3b
       0.022359619 0.0061009517 0.018812193 0.0077465335
000050 46 e3 db 3b 7e c2 b4 3c b1 cd 16 3c 5c 93 09 3c
       0.0067104427 0.022065397 0.009204314 0.00839695
000060 73 4c 8a 3c 6e 83 47 3b 0c 87 0e 3b 8b e2 d1 bb
       0.016882157 0.0030443328 0.0021747975 -0.00640518
000070 52 ab a0 3b bb ff 44 bb 0e 9a 35 3c 6b 67 3d 3c
       0.0049032355 -0.0030059654 0.011084093 0.011560301
000080 f2 3c e6 b7 f0 dd 9d 3c 81 f1 ae 3c b8 20 e0 3b
       -2.7446516e-05 0.019270867 0.021355392 0.006839838
000090 23 5f 33 bb 1a f8 e2 ba bf 68 db bb 00 71 9b ba
       -0.0027369938 -0.0017316372 -0.0066958363 -0.0011859238
0000a0 4c 41 dc ba 31 be 5f bb 6d 4f ca b9 06 c3 0f bb
       -0.0016804128 -0.0034140463 -0.0003858762 -0.0021936311
0000b0 e2 45 75 bb d8 86 d4 bc 3a bd cd 3b aa 32 da bb
       -0.0037425687 -0.025943205 0.006278661 -0.0066588717
0000c0 e9 d6 21 bc 2d 74 f9 3b bb db 54 3c 63 b8 88 bc
       -0.009877899 0.007612726 0.012991841 -0.016689485
0000d0 03 01 06 3c c1 a2 5c bc 40 46 be 38 64 27 ae 39
       0.008178952 -0.013466538 9.072991e-05 0.00033217215
0000e0 04 9e 5b bc c4 71 09 3c ea 76 3a 3c 3e 7b 78 bc
       -0.013404373 0.00838894 0.01138089 -0.015166102
0000f0 35 26 f3 ba 0a 6d 50 3b da 35 ea bc 95 cb 90 bb
       -0.0018550815 0.0031803274 -0.028590132 -0.0044188
000100 7d 77 0a bb ed 52 77 bc ea de 3b bc 59 c5 09 bc
       -0.002112835 -0.015095455 -0.011466721 -0.008408868
000110 91 51 a3 bc 5c de 89 bc e3 ab 0d bc 04 f3 7a bc
       -0.019936355 -0.016829662 -0.008646938 -0.0153167285
000120 46 6a 88 3a a2 17 cc 39 54 6f ac 3a 46 e6 d0 3a
       0.0010407649 0.0003892752 0.0013155737 0.0015937767
000130 be 70 1f 3a ee bb af 3a 99 dc f6 39 07 13 52 ba
       0.00060821685 0.0013407448 0.00047085134 -0.00080136996
000140 ae 75 8c b9 3b 2d 10 3b b0 77 d8 bb c1 9b 6d ba
       -0.0002679056 0.0021999616 -0.0066060647 -0.00090640417
000150 c9 3a 5b 3c dc f2 a1 3b fb f1 75 bb 64 3e 8b 3c
       0.013380715 0.004942281 -0.0037528265 0.016997524
000160 ab e7 f5 3b ae 44 04 bc 02 c6 26 bc 79 7c 84 bb
       0.0075044236 -0.008073015 -0.010179045 -0.0040431586
000170 18 41 40 bc 94 3a 67 bc f2 22 4e bc c3 14 34 bc
       -0.01173427 -0.014113087 -0.012581574 -0.010991278
000180 e9 02 4c bb 8a 9d 12 3b 31 6e bb 3b 1c bc 66 bd
       -0.0031129664 0.0022371733 0.005719923 -0.05633174
000190 98 71 ef 3c 2b 01 9d 3c 71 ec 90 bc fe ca 22 3d
       0.02922897 0.019165596 -0.017690869 0.03974437
0001a0 2c bb 0c bc fd 9e 1b 3d 91 25 8d 3d 92 73 29 bd
       -0.008589547 0.03799342 0.06891931 -0.041369982
0001b0 f6 35 e6 b9 69 28 28 bc 47 d7 ac bc 3c 02 43 3c
       -0.00043909223 -0.010263541 -0.021098746 0.011902388
0001c0 7a 10 02 3c d8 c1 dc bb 0c 41 3e 3c cb 0a 03 3c
       0.007938499 -0.006736975 0.011612188 0.007998179
0001d0 89 16 87 bb a1 2c 87 3c 23 39 e3 3b 9c 64 92 3b
       -0.0041225594 0.016500773 0.0069343015 0.00446756
0001e0 92 17 17 3b 88 29 c5 bb f0 1b 07 bc ad 9c dd bb
       0.002305482 -0.006016914 -0.008246407 -0.006763062
0001f0 12 b1 7c bc 41 a5 55 bc 17 bb 0e 3c d3 b5 76 3c
       -0.015423076 -0.013039888 0.008711598 0.015057999
000200 9e 69 a5 3b 14 3c 05 3d 01 ff 21 3d cf 71 c4 3c
       0.005047991 0.032527998 0.03954983 0.02398005
000210 c3 53 23 3d 61 49 33 3d 2d b8 fc 3c 05 94 3b bd
       0.039874803 0.04377115 0.03084954 -0.04579546
000220 29 8f a3 bc a1 04 cc bc aa c3 1b bd f4 c1 85 bc
       -0.019965725 -0.024904551 -0.038028397 -0.016327836
000230 c9 5c 6d bc 85 af dc bc b3 30 d4 bc 9a 3e e0 bc
       -0.014487454 -0.026939163 -0.025902128 -0.0273736
000240 75 18 1b 3d aa 1d 8b bc 47 94 4e 3d 4d 53 c8 3c
       0.03786512 -0.016981918 0.050434377 0.024453783
000250 4c 86 37 bd 93 4d 02 3d e1 48 b5 bb 1d fb 8e bd
       -0.04480581 0.03181226 -0.0055323695 -0.0698149
000260 7a 0c d8 bc cc 79 e7 ba f9 58 8f 3b 80 06 9c ba
       -0.026373137 -0.00176602 0.00437462 -0.0011903793
000270 60 01 06 bb 49 cd a2 3b 73 45 bd 3a 3c f9 5a bb
       -0.0020447597 0.0049683196 0.0014440253 -0.0033412715
000280 9d b0 8e 3b 55 7c 8c 3b ab 8f 91 3b 86 f5 1b 3d
       0.00435455 0.0042872825 0.0044421754 0.038075946
000290 27 9a 2a bc 1e 93 ba bc 56 7c 3e 3d a2 c3 b1 3c
       -0.010412729 -0.022775229 0.046505295 0.02169973
0002a0 17 22 f8 bc 0a b7 94 3d 81 e6 40 3d a1 9d 08 3b
       -0.030289693 0.072614744 0.047094826 0.0020845907
0002b0 09 e4 db 3c 1c ef ff bb 89 17 93 3c db 19 91 3d
       0.026842134 -0.0078104865 0.017955558 0.0708501
0002c0 28 b6 a0 3c 20 70 c8 bc 38 98 cc ba 52 24 22 bd
       0.019618109 -0.024467528 -0.001560933 -0.03958542
0002d0 26 65 a2 3c 26 1d 36 3a 01 7e 34 bb e5 d3 de 3c
       0.019823622 0.00069470925 -0.0027540924 0.027200649
0002e0 75 5e 86 3c e0 c8 0d bc f7 5d 3b 3c 4e 33 f8 3a
       0.016402462 -0.008653849 0.011435977 0.0018936188
0002f0 83 1d ad bc ac 17 81 bc 6c 1f de 3c c7 9f d8 bc
       -0.021132236 -0.015758358 0.027114592 -0.026443375
000300 a3 21 c5 3b bd ef 6e 3d 0c ef 3d bb 3a 3d 6d bc
       0.0060159727 0.0583341 -0.0028981594 -0.01447993
000310 d5 32 2a 3d 08 ea d4 bc b7 e8 4f 3c 0b 15 1c bc
       0.041552383 -0.025990501 0.012689761 -0.009526501
000320 72 c4 a4 3c d8 81 8e 3c eb 84 e5 bb 97 63 b5 3c
       0.020113204 0.017395899 -0.0070043704 0.022142215
000330 cb 82 a9 3c f8 21 c9 bb bf ec d1 3c 6c 88 98 3b
       0.02069225 -0.0061380826 0.025625585 0.0046549346
000340 c5 5e 84 bc 49 f3 d7 3a d6 5c c6 3c 3a ea 81 3a
       -0.01615847 0.0016475703 0.02421419 0.0009911724
000350 40 85 9e 3c d2 97 e1 3c 8f bb a8 3b ff 3f b1 3c
       0.019350648 0.027538214 0.005149312 0.021636961
000360 9f 8f e8 bb 45 a4 18 3d 69 00 7f 3c e3 00 be 3c
       -0.007097199 0.037266035 0.015564063 0.023193782
000370 75 3a 3b 3d d0 a9 b9 bc 83 93 39 3d db 40 75 3d
       0.045710046 -0.02266398 0.045306694 0.059876304
000380 94 5d 5b bd 9c c2 90 3c 81 e2 26 bb 98 69 9f bb
       -0.05355604 0.017670922 -0.0025464597 -0.0048648827
000390 80 5e 31 3c 59 ed ea 3a 46 79 66 39 a4 98 a3 3c
       0.010825753 0.0017923518 0.00021979687 0.019970246
0003a0 24 e5 1f 3c 56 9d 4b 3c 5e 19 04 bd 83 a7 62 3d
       0.009759221 0.0124276485 -0.032250755 0.055335533
0003b0 f2 c5 22 b9 20 33 1d bd 9b a3 3e 3d d2 7e 3b bc
       -0.00015523264 -0.038378835 0.046542745 -0.011443811
0003c0 1c 64 7f bd 9b 7a 7e 3c 9b a7 5a bc 4a 0e d6 bc
       -0.06235133 0.015532161 -0.013345624 -0.02612986
0003d0 df 09 a3 bc ad 80 39 bc 5b 3c 66 bc 06 57 88 bb
       -0.019902168 -0.011322183 -0.014052476 -0.0041607646
0003e0 80 5b 20 b9 fe 2c 5d bc 8d cc b3 ba 56 fc 8b 3b
       -0.00015292875 -0.0134994965 -0.0013717577 0.004272024
0003f0 0a 9e 1b bd 4f 6f 9f 3d 7c 5d 58 bd 26 22 08 bc
       -0.037992515 0.07784902 -0.05282353 -0.008308923

module.layer1.0.bn1.weight f4 [16]
000000 1e a1 95 3e 65 50 b7 3e 12 84 bb 3e dd 86 cf 3e
       0.29224485 0.35803524 0.366242 0.4053258
000010 ed 3e 9e 3e a8 2c a1 3e 59 01 bb 3e be 40 a3 3e
       0.30907384 0.31479383 0.36524466 0.31885332
000020 86 98 d6 3e bc 5d ad 3e 5e 9e d7 3e 71 a1 80 3e
       0.4191324 0.33860576 0.42113012 0.2512317
000030 79 f8 d3 3e 45 d4 a6 3e 31 0f b4 3e 57 d4 f1 3e
       0.41400507 0.32583824 0.3516784 0.47232315

module.layer1.0.bn1.bias f4 [16]
000000 55 cd 4f be 3e 24 84 3c 68 12 82 be 85 ed ab 3d
       -0.20293172 0.016130563 -0.25404668 0.08394913
000010 d0 65 b4 bd 23 99 e0 bc 64 77 27 be 78 4b e4 bd
       -0.08808482 -0.027416771 -0.16354138 -0.11147207
000020 ee ca 02 3e 76 cd 25 be 65 48 a1 3d fa 35 d7 bc
       0.12772724 -0.16191658 0.07875136 -0.026270855
000030 68 0a b9 3c 9d 9e 82 3c 31 74 27 be 66 c8 4e be
       0.02258797 0.015944773 -0.16352917 -0.20193633

module.layer1.0.bn1.running_mean f4 [16]
000000 ba e3 c4 3d 9b 1b 7a be 68 95 f5 bd 3a 3e 5e be
       0.09613748 -0.24424593 -0.119913876 -0.21703425
000010 65 6a 7c bd 96 df a1 be 99 ef ad be 64 37 6b be
       -0.061624903 -0.31615895 -0.3397186 -0.22970349
000020 1c 25 b9 be 06 96 9e be ee 7e 19 be cd b2 d4 bd
       -0.36161125 -0.30973834 -0.14989826 -0.10385666
000030 97 21 91 be 59 75 e0 bd 0e 5a 8a be db 18 0c 3d
       -0.2834594 -0.10959882 -0.2702183 0.03420339

module.layer1.0.bn1.running_var f4 [16]
000000 87 42 05 3d 00 66 b6 3d c7 d3 f4 3c 54 e9 06 3e
       0.03253415 0.08906174 0.02988614 0.13174945
000010 b4 75 a6 3d fd 64 92 3d a5 41 c7 3d 9b 6d 30 3d
       0.08127919 0.07148168 0.097293176 0.043073278
000020 95 7a 1a 3e 87 cf 5c 3d 43 ff 0e 3e d4 83 5f 3d
       0.15085824 0.05390885 0.13964562 0.05456908
000030 95 6f 34 3e b9 b7 8c 3d 9e 6b 88 3d 2a fc 45 3d
       0.1762069 0.0687098 0.06661151 0.048336186

module.layer1.0.conv2.weight f4 [16, 16, 3, 3]
000000 88 c4 94 bc f3 c1 cf bc 8f c9 b6 3a c4 74 10 bc
       -0.01816012 -0.025361037 0.0013945567 -0.008816902
000010 89 28 c6 bc cb 1a 78 bb 16 e8 43 bc 76 d7 a0 bc
       -0.02418925 -0.0037857767 -0.011957189 -0.01963399
000020 74 26 09 3c f1 f9 a3 3a ce b8 bb bd 9f 33 35 bc
       0.008370984 0.0012510401 -0.09166108 -0.011059671
000030 e1 3f c9 3d 3f d6 bb 3d c7 60 24 bc f9 d7 1e 3d
       0.09826637 0.091717236 -0.010032839 0.038780186
000040 8b cc 87 3d 6a fd 2b 3c fb 2a fd 3c 4f 11 99 3c
       0.0663081 0.01049743 0.030904284 0.018685011
000050 76 4d 23 3d df 72 c3 bc ad 0f 9c bc 6e 63 8f bc
       0.039868794 -0.023858486 -0.019050444 -0.017503466
000060 26 bb 74 3d a7 08 99 3d a2 d7 58 3d 51 1d 63 3c
       0.05974879 0.074723534 0.05294002 0.01386197
000070 93 e8 20 bd bb 70 f8 3c 63 37 1f bd bd 41 72 bb
       -0.0392843 0.030327192 -0.03887118 -0.0036965453
000080 f4 13 24 bb bc d0 84 bc 6b 7f 3f 3d 13 0b 80 bd
       -0.0025036307 -0.016212814 0.046752375 -0.06252112
000090 7b e4 4b be 28 91 aa be 56 5b 63 be f2 66 04 be
       -0.19911377 -0.3331387 -0.2220281 -0.12929896
0000a0 13 7c 66 be 24 f5 29 be 4d c2 26 3d 71 af ca 3c
       -0.22508268 -0.1659742 0.040712643 0.02474186
0000b0 b0 60 01 3d 1d 5d 57 3d 32 dd 09 3e 27 f9 45 3d
       0.03158635 0.052579034 0.13463286 0.048333313
0000c0 1b 84 1b bd bb ea fb 3c e5 70 ea bb fc be da bc
       -0.037967782 0.030751577 -0.0071545714 -0.026702397
0000d0 65 72 80 bd 92 69 8a bd 06 18 e8 3c 7f fd f0 bc
       -0.06271819 -0.06758417 0.028331768 -0.029417751
0000e0 91 2a 34 bd ab fa 42 bd c6 fc 02 be 5f 87 9b bd
       -0.043985907 -0.047602337 -0.12791738 -0.07594179
0000f0 b5 bc 97 3c a8 b2 09 3b b4 76 4c bd b4 bb aa 3c
       0.0185226 0.0021011028 -0.04991789 0.020841457
000100 15 b0 a3 bd f4 81 94 bd e6 ab 2a bc dd 27 01 bd
       -0.07992569 -0.07251349 -0.01041696 -0.031532157
000110 c1 4b a6 bb 33 33 4f bd fc b2 3e 3d 72 f6 15 3e
       -0.0050749485 -0.050585937 0.04655741 0.14644793
000120 ed 1e b9 bc 92 7a 68 bd 1a 2e 1f 3d 6c 59 27 be
       -0.022597754 -0.056757517 0.038862325 -0.16342705
000130 c1 85 8c bd a9 dd 03 3d 00 b5 94 bc 44 c6 00 3d
       -0.06861449 0.032193813 -0.018152714 0.03143908
000140 5c e5 ea 3d 10 76 1a 3e 90 50 be 3c 30 8d e1 3a
       0.11469528 0.150841 0.023231775 0.0017208215
000150 e3 83 90 bd 36 6d 3e be e0 c2 2c be 8f b1 12 be
       -0.070564054 -0.18596348 -0.16871214 -0.14325546
000160 22 76 50 be 90 a9 96 bd d6 8d 5e bd 44 c5 b8 3d
       -0.20357564 -0.0735656 -0.054334484 0.090220004
000170 77 3a c8 bc da 13 86 bd c0 01 7b bd c3 c5 8a bc
       -0.02444194 -0.06546755 -0.061280966 -0.016940003
000180 40 f5 04 3c f9 5e b3 bc 96 89 10 3d 7b e9 ac bd
       0.008115113 -0.021895872 0.035287462 -0.0844297
000190 22 c9 8c bd b1 05 38 3c 4b 60 82 ba e4 48 96 bd
       -0.068743005 0.011231826 -0.000994691 -0.073381215
0001a0 6f 38 6c bd dd 73 94 3d d9 bf f8 3d 98 2e 84 3d
       -0.057671007 0.07248662 0.12145967 0.064541996
0001b0 ca 6b 25 3d 9e 7c 92 3d aa f8 22 bc 2a c4 62 3d
       0.040386 0.07152675 -0.009946981 0.055362858
0001c0 f1 9b 62 3d 9f aa 1a bc ff 58 57 bd 05 1c 2e 3d
       0.0553245 -0.009440093 -0.052575108 0.04250719
0001d0 40 bd 9b 3c cd 9d bd 3d fa a7 00 3d 5a 7e 2b bd
       0.01901114 0.09258614 0.031410195 -0.041868545
0001e0 d8 24 e5 3d 85 55 e5 3d f5 2f b6 3c c0 23 ff bc
       0.11188668 0.11197952 0.022239665 -0.031144977
0001f0 bf 70 9f bc 53 83 24 bd c0 d2 8e 3d ad dd f7 bc
       -0.019462941 -0.040164303 0.06973791 -0.03025707
000200 c2 59 77 bd bd 63 7d bb ba f2 01 bd 39 3b cd bb
       -0.060388334 -0.0038664185 -0.031725623 -0.0062631634
000210 b4 d4 c0 3d a7 36 11 3e fd a7 e0 3d 57 0d f3 bb
       0.0941557 0.14181004 0.10969541 -0.0074173617
000220 e0 24 8a bc 77 5e dc bc 16 f2 0f bd e2 1b 4d bd
       -0.016863286 -0.026900513 -0.03514298 -0.05007542
000230 fd e2 00 be 60 f5 33 bc 1b 22 08 3b e9 59 8c bd
       -0.12586589 -0.010983795 0.0020772282 -0.068530865
000240 a9 56 63 bd af d8 d0 bc aa 0b 24 bd a5 8d 5b bd
       -0.055502567 -0.025493948 -0.040050186 -0.05360188
000250 e6 4e f2 bc 69 8d 0f bd a3 83 1f bd b7 19 8b bc
       -0.029578637 -0.03504697 -0.038943898 -0.016980035
000260 d4 71 83 bc 45 96 55 ba 7e fc 87 bc be ed 80 bd
       -0.016045488 -0.0008147697 -0.01659989 -0.06295346
000270 77 1a 75 3d 33 ef 72 3d bf e5 5c bc 85 23 34 bd
       0.059839692 0.05931015 -0.01348251 -0.043979187
000280 85 c2 9f 3c 22 20 cd bc b3 1c 22 3d c8 b9 5a 3d
       0.019501934 -0.025039736 0.03957815 0.05339983
000290 c7 ad 44 3d 56 0d 1e 3c 31 4d 2b 3d c4 69 cb 3c
       0.04801729 0.009646734 0.041821662 0.024830706
0002a0 f4 fe 34 bc 50 4e 20 bc 9d 7b 15 bd d8 8a 05 3d
       -0.011047114 -0.009784296 -0.03649484 0.032603115
0002b0 9e 3d 9e 3c 10 92 58 bc 86 f7 8e 3c 77 d6 af 3c
       0.01931649 -0.013218418 0.017452013 0.02146457
0002c0 01 0e 19 3c e2 98 fc 3c 7d 1e cc 3b bc f2 70 3d
       0.009341718 0.030834619 0.0062292204 0.05882524
0002d0 8f 58 4d bd f3 94 80 bd e2 7a d5 bc d0 ff 08 bd
       -0.050133284 -0.0627841 -0.026059572 -0.033447087
0002e0 65 25 37 bc 52 43 81 bc 6e 4e 5e 3c e8 ba 14 3c
       -0.011178349 -0.015779171 0.013568504 0.009077765
0002f0 61 e5 68 3c 31 bd dc b9 cc 2f 05 bd cc fa 97 bb
       0.014214844 -0.00042102629 -0.032516286 -0.0046380516
000300 35 e2 94 3d ee 64 1f 3c 63 2f da bc 86 ea e2 3d
       0.07269708 0.009728653 -0.026633924 0.11079888
000310 b5 37 c0 bc de e1 a7 bd a1 f8 8e 3b b3 18 4a 3c
       -0.023464063 -0.081973776 0.004363135 0.01233499
000320 2e c1 87 3c 10 b8 84 3c 0b 4d c2 bc 7d 23 c0 bc
       0.016571607 0.01620105 -0.023718378 -0.023454422
000330 70 ac 97 3c 47 10 28 3c 10 86 62 3b 07 51 33 3d
       0.018514842 0.010257787 0.003456477 0.043778446
000340 25 7a 8a 3d 2f 4a 5e 3c ed b4 4b bc 11 b8 f0 3c
       0.067615785 0.013567491 -0.012433273 0.029384645
000350 85 57 c4 3c 64 ec 95 bd 80 cd 39 3b 2d 4b 9b 3d
       0.023967514 -0.073204786 0.0028351247 0.07582698
000360 53 35 41 bd cd 47 1b bc 33 33 f7 bc f8 c6 47 bd
       -0.047169995 -0.009477568 -0.03017578 -0.048773736
000370 71 d7 07 bd e2 6d 11 bc d0 ad 73 bc 75 c2 86 3c
       -0.033164445 -0.008876296 -0.014872983 0.016450146
000380 49 09 30 3d 82 b3 2d bd 05 54 0e bc 74 89 47 3c
       0.042977605 -0.04240752 -0.008687024 0.0121787675
000390 86 5c 00 3c 18 c4 4a 3d 73 25 7d 3d 0d 7f e8 3c
       0.007834559 0.049503416 0.061803292 0.028380895
0003a0 f8 08 b4 3d 4f 67 91 3d e6 13 19 bd 9d 1e e1 3a
       0.08790773 0.07099783 -0.037372492 0.0017175261
0003b0 35 b6 62 3c e3 8c cb 3c 67 05 68 bc 71 3c d1 bc
       0.013837387 0.024847453 -0.014161444 -0.025541516
0003c0 9a 7f e3 3c c0 cd 1c 3b 6b ae 90 3a cc d1 53 bc
       0.027770806 0.0023926347 0.0011038309 -0.012928437
0003d0 16 b7 13 3d 3f 68 52 bd f8 1b 3f 3d 31 dc a8 3d
       0.036063276 -0.051368948 0.046657532 0.08245123
0003e0 d4 ea 35 bd 46 bd 81 3d ba fe 95 3d e8 99 42 bd
       -0.044413403 0.06334929 0.07323976 -0.047510058
0003f0 d2 30 46 3c 6d 1f 6a 3d f5 93 29 3c 71 d4 98 bc
       0.012096601 0.057158876 0.010350217 -0.018655987

module.layer1.0.bn2.weight f4 [16]
000000 7f 2d ad 3e 5c 7c e6 3d 8a 19 04 3f 42 19 9f 3e
       0.33823773 0.112541884 0.5160147 0.31073958
000010 bf 11 e9 3e 0a a2 18 3f b4 3b 19 3f 0c d9 ad 3e
       0.45521352 0.5962225 0.59856725 0.33954656
000020 65 6f 0a 3f f8 93 3b 3e 34 02 84 3e e9 8e b3 3e
       0.54076225 0.18318164 0.2578293 0.3506997
000030 53 51 e1 3e 2b ba 54 3e f1 69 10 3f 26 1b 8e 3e
       0.44007358 0.20774142 0.56411654 0.27755088

module.layer1.0.bn2.bias f4 [16]
000000 ee 28 b7 3d 7d c4 ed 3c 66 f8 1d bd 39 48 28 3d
       0.089433536 0.029024357 -0.03856697 0.041084502
000010 b3 d8 99 bd 24 5b fd bc 1a 7d 29 bd 52 b7 30 be
       -0.07512035 -0.030927248 -0.04137907 -0.17257431
000020 30 a6 41 bd 91 4b 14 3e 8a 36 0f 3e 93 45 22 be
       -0.04727763 0.14481951 0.13985649 -0.15846853
000030 7a fd 6b bd bd 4f 11 3e 50 86 e5 bc 8d 20 29 3e
       -0.05761478 0.14190574 -0.028018147 0.16516323

module.layer1.0.bn2.running_mean f4 [16]
000000 6f bb bd bd 25 60 d7 3c 00 42 1b bd 40 e2 18 be
       -0.09264266 0.026290962 -0.03790474 -0.14930058
000010 ab 18 a0 3d 92 c3 3e bd a5 30 77 bd 05 c6 e3 3c
       0.07817205 -0.04657323 -0.060349125 0.027804384
000020 d3 9c 6d bd 46 19 bf 3a 81 ef a9 be 27 19 a6 3c
       -0.058010887 0.0014579676 -0.3319054 0.020275665
000030 b1 f6 5f bb 37 e2 fe 3b d6 14 a3 bc 3e ef 65 be
       -0.003417414 0.0077784318 -0.019907396 -0.22454545

module.layer1.0.bn2.running_var f4 [16]
000000 ed eb 0f 3d 8f 7a d2 3b a2 50 59 3d 79 a2 c9 3c
       0.035137106 0.0064233015 0.053055413 0.024613606
000010 54 3b 8d 3c 73 56 ee 3d c8 09 9f 3d 9e 70 28 3c
       0.017240204 0.11637583 0.077655375 0.010280756
000020 b4 9b 72 3d 96 4e c6 3c 60 8c d4 3c 63 44 2c 3c
       0.05923052 0.024207395 0.025945842 0.010514352
000030 33 68 2d 3d 62 cb 8e 3c 5c 3f 89 3d 1e 12 c1 3c
       0.0423357 0.017430965 0.06701538 0.02356821

module.layer1.0.shortcut.0.weight f4 [16, 64, 1, 1]
000000 cc 98 39 bd cc ec b3 bc 94 d2 06 39 c9 a5 c8 3b
       -0.045311734 -0.0219635 0.00012857682 0.0061232788
000010 0d ca 6b 3c 91 65 90 3d 37 19 22 3d 6e 59 37 be
       0.014391434 0.07050622 0.039574828 -0.17905208
000020 80 19 e4 ba 61 4b a7 bd 2f 3b b2 bc e1 62 02 bc
       -0.0017402619 -0.08168674 -0.021756737 -0.007958145
000030 63 76 f1 bd 24 c3 61 3d 13 30 fd bc 5c 68 97 be
       -0.117901586 0.05511774 -0.030906713 -0.29571807
000040 39 8f 16 3d 13 af e6 bc 63 2d 98 3b 30 3d 23 be
       0.03675768 -0.028159654 0.0046440824 -0.1594131
000050 43 bd b4 3d b4 78 fa bc 53 11 ec bc 01 96 54 3d
       0.08825161 -0.030575134 -0.028816855 0.051900867
000060 01 47 10 3d 3a 40 d1 bd 5f 24 16 3d e8 70 17 3c
       0.035223965 -0.10217328 0.03665578 0.009243228
000070 66 49 24 bd 9b 1a 76 bc 25 63 db bc 99 0f 6d 3d
       -0.04010906 -0.015020992 -0.026780674 0.057876203
000080 c5 09 f4 3c 05 9a b5 bc 67 c4 3b bc a5 41 17 3c
       0.029789815 -0.022168169 -0.0114604 0.0092319595
000090 14 98 d8 3d 58 03 c9 3c a7 9b 93 3d fc 6f 37 be
       0.105758816 0.024537727 0.07207423 -0.17913812
0000a0 db 38 cf be e3 a5 62 3d ca 97 b4 bc 53 b0 08 bd
       -0.40473065 0.055333983 -0.022045035 -0.03337128
0000b0 52 fe ad bd a7 2b f6 3c a3 7a 1b bb c7 18 c3 bd
       -0.084957734 0.030050112 -0.002372422 -0.0952621
0000c0 58 67 16 3b f1 09 92 3c 02 29 b8 be bf be 17 bc
       0.0022949781 0.017827006 -0.35968786 -0.009261786
0000d0 5e 18 86 bc c2 c7 7f bd 2e 2b b2 bc be 5f c9 bd
       -0.016369041 -0.062446363 -0.021749105 -0.098327145
0000e0 c9 7a 23 be d8 67 b1 bd b3 eb 2a 3d 7e 28 19 bd
       -0.15964808 -0.08662385 0.041728687 -0.037392132
0000f0 5b 0e aa 3c 17 37 49 3d be ac 88 3d 85 88 25 bc
       0.020758798 0.049124803 0.06673573 -0.01010335
000100 21 17 cb 3c 16 97 aa 3d 27 5b 38 3c 51 fd 01 bd
       0.024791302 0.083295986 0.011252201 -0.031735722
000110 65 c2 e2 3b 47 da 40 3d 69 23 16 3c c2 95 dd 3d
       0.0069201463 0.047083165 0.009163716 0.1081958
000120 ae 20 aa 3a f5 d4 a7 be 57 93 75 3d 4b 74 ed 3c
       0.001297971 -0.3277966 0.059954967 0.028986117
000130 8d b4 a4 bd ed 42 23 3a e3 d4 b4 bd 9b 8b 8c 3d
       -0.0804225 0.0006227929 -0.088296674 0.06862565
000140 99 78 31 3d 6f 02 c3 3c 5b aa 9a 3c 47 2a 5c bd
       0.0433279 0.023804871 0.01888006 -0.053751256
000150 11 53 96 be 3a 7d f5 bc 33 e2 f8 bc 80 d7 14 3e
       -0.2936025 -0.02996694 -0.030381298 0.14535332
000160 91 23 6b bb 8f 7c 3a bc 75 e6 6f bc ef f6 bf bc
       -0.0035879354 -0.011382236 -0.014642348 -0.023433177
000170 b0 67 3a bc 3d b1 94 3b 52 0e d0 3c eb a5 c6 3d
       -0.01137726 0.00453773 0.025397453 0.09699615
000180 3d 3a f6 bc 61 06 c3 3b fe 49 a5 3c 50 66 0d be
       -0.030057067 0.005951688 0.020176884 -0.1380856
000190 10 dd fe bd cc 1b 29 3d 1b 22 fb 3d 85 1e f8 3b
       -0.12444508 0.041286275 0.122623645 0.0075719976
0001a0 b7 d3 f0 bc 04 7c 84 3d c1 ae 35 3d 6e 0f 70 3c
       -0.029397829 0.064689666 0.04435611 0.014652116
0001b0 80 25 b2 bb 74 53 8e bb f0 a4 36 bb 95 4b 3f 3d
       -0.0054365993 -0.0043434445 -0.0027869307 0.04670294
0001c0 0e b4 0a 3d d3 45 82 3c eb cc 09 bc ac 85 86 3c
       0.03386312 0.015902435 -0.008410673 0.016421162
0001d0 21 c9 28 3c bf 1b b0 bd cb d1 98 3d db af 3a bd
       0.010301859 -0.08599042 0.0746189 -0.045577865
0001e0 74 97 18 3d 9e 4f 46 3e 69 1f b2 3c 15 d1 71 bd
       0.037253812 0.19366309 0.021743493 -0.059037287
0001f0 3d 96 a6 bd 7f 98 bb 3b ae bf b7 bd 1e b3 4c 3c
       -0.081341244 0.005724966 -0.08972107 0.012493877
000200 b8 4d 38 bd f7 92 41 3d 5e 4b ad 3c 2b e5 ad 3b
       -0.044995993 0.047259297 0.021154102 0.00530686
000210 40 a8 6a 3b 00 8a 72 bd 9e 6a c1 bb a4 00 39 3d
       0.0035805851 -0.05921364 -0.0059026023 0.045166627
000220 78 56 b8 3b 79 3f f1 ba 9a d7 9b 3d 37 08 54 3d
       0.0056255423 -0.0018405757 0.07609482 0.051765647
000230 6e 26 9a 3d 4a 3b a7 3d 62 a6 bb 3d 1b 4c 1e 3e
       0.07526861 0.08165605 0.091625944 0.1545872
000240 45 51 c2 bc 3a f9 65 3b 19 14 8c bd b7 d4 2a 3d
       -0.023720393 0.0035091178 -0.06839771 0.041706767
000250 7a 1d 34 bc 20 04 84 bd 4d 54 e0 3b b0 87 e8 3c
       -0.010993356 -0.06446099 0.006845987 0.028385013
000260 d5 ce b7 3c 1a a7 b3 bd 12 61 3e 3c f8 ac 52 bc
       0.022437492 -0.087721065 0.011619823 -0.012858622
000270 dc 19 a4 bc c1 a2 a7 3b 08 70 18 bd 8e f7 25 bd
       -0.020031862 0.0051158373 -0.037216216 -0.04051929
000280 f7 ac e4 3c ba 76 08 3d 0c 20 11 3d 09 38 df 3b
       0.027914507 0.03331635 0.035430953 0.0068121
000290 19 1f 0e 3d 69 ab 44 bb 8d bb a4 bc 8f 31 69 bc
       0.034697626 -0.0030009395 -0.020108962 -0.014233007
0002a0 d9 c1 1a be 57 03 9e 3d 7b 5e d6 bd 8e 9b e1 bd
       -0.1511301 0.07715481 -0.104672395 -0.11015998
0002b0 fa 92 07 bc a2 ab 89 bd 74 cf 9a 3d 13 ab 5e 3c
       -0.008274788 -0.067221895 0.075591 0.013590592
0002c0 c0 71 2d bd cf 65 cc bc 16 62 99 bd d5 fa ba 3b
       -0.04234481 -0.02495089 -0.074894115 0.005706171
0002d0 b0 43 25 3c 50 e7 08 39 a2 8e cd 3d 62 bb ab bc
       0.010086939 0.00013056141 0.10036971 -0.020963375
0002e0 c7 b3 92 be 77 8e 51 3b e7 07 e0 bc 4d b5 9c bc
       -0.28652784 0.0031975785 -0.027347518 -0.01912942
0002f0 db 28 69 bc 2d 6d c5 bc e0 45 54 bc 53 1d 87 3b
       -0.014230932 -0.02409991 -0.012956113 0.0041233688
000300 c9 6d a2 bd 02 3a 57 bc 5f 2b ec bc 0a c0 1e bd
       -0.07931096 -0.013136389 -0.028829275 -0.03875736
000310 98 ea 3b bd e6 e7 ac bd 92 36 9b bd 4e a9 87 3d
       -0.045878023 -0.084426686 -0.07578768 0.06624089
000320 29 85 32 bb ac c7 e2 bd 9e 8c 46 3d 6a 5c 96 bd
       -0.0027240014 -0.11073241 0.048473947 -0.07341845
000330 20 55 41 be 66 de 16 3d 47 f3 46 bd 31 c5 fb 3d
       -0.18880129 0.03683319 -0.04857185 0.12293471
000340 5d ce 7c bd 0d 8d c7 bc 22 8f ba bd 84 bc ed 3d
       -0.06172024 -0.02435925 -0.09109332 0.11608222
000350 7f 1c 8d 3c f1 56 3c be d1 a7 32 bd 37 28 f4 bd
       0.017225502 -0.1839254 -0.043617073 -0.11921733
000360 bf f9 9f bc 33 3d 37 3d 3c 50 54 3d d7 14 34 bd
       -0.019528268 0.0447361 0.05183433 -0.043965187
000370 78 b9 34 bd b0 ee f3 bc f5 56 56 bd 1f 28 d3 bd
       -0.04412219 -0.029776901 -0.052329022 -0.10310387
000380 2b 6a f5 bc b6 38 a3 3d 41 bd ba bd 3c f9 64 bb
       -0.029957851 0.07969801 -0.091181286 -0.0034938594
000390 2b 44 53 bd 72 65 57 39 19 2d ab 3c ce 48 13 bd
       -0.051578682 0.00020541789 0.020895528 -0.035958104
0003a0 00 98 cc 3d 07 59 be bd 82 3e 0e be 85 e6 ef bd
       0.09989929 -0.09294324 -0.13891032 -0.1171389
0003b0 2c f0 d9 3c df de e7 bd 1a 60 17 be 47 23 d0 3c
       0.02660378 -0.11321806 -0.14782754 0.025407447
0003c0 8b 66 20 bd 54 39 3d be f4 04 b2 3d 8d ef 3c be
       -0.039160293 -0.184789 0.08692351 -0.18450756
0003d0 cc cc 37 be fd e3 cd bd ed 3c c9 bd 84 46 1f 3d
       -0.17949218 -0.10053251 -0.09826074 0.03888561
0003e0 46 01 b5 3c 62 fa 29 be b9 c2 8b bc c9 84 10 bd
       0.022095334 -0.1659942 -0.017060624 -0.035282884
0003f0 54 04 46 bd d7 e2 78 3d ce 15 c0 bd 27 01 f7 bd
       -0.04834397 0.060763206 -0.09379159 -0.12060767

module.layer1.0.shortcut.1.weight f4 [16]
000000 6f 7d d5 3e e7 0d ae 3e 96 3a 80 3e ba 69 ca 3e
       0.4169726 0.33994982 0.25044698 0.39533788
000010 37 78 b2 3e 80 9c c4 3d c0 d6 09 3e d1 05 92 3e
       0.34857342 0.096001625 0.13460827 0.28520063
000020 5a b3 1d 3e 65 d0 82 3e 39 48 9c 3e 9b 74 e5 3e
       0.15400448 0.25549617 0.30523852 0.44815525
000030 e4 d6 9d 3e 1d c9 97 3e 32 71 13 3e 7e fe 80 3e
       0.3082801 0.29645625 0.1439865 0.25194162

module.layer1.0.shortcut.1.bias f4 [16]
000000 ee 28 b7 3d 7d c4 ed 3c 66 f8 1d bd 39 48 28 3d
       0.089433536 0.029024357 -0.03856697 0.041084502
000010 b3 d8 99 bd 24 5b fd bc 1a 7d 29 bd 52 b7 30 be
       -0.07512035 -0.030927248 -0.04137907 -0.17257431
000020 30 a6 41 bd 91 4b 14 3e 8a 36 0f 3e 93 45 22 be
       -0.04727763 0.14481951 0.13985649 -0.15846853
000030 7a fd 6b bd bd 4f 11 3e 50 86 e5 bc 8d 20 29 3e
       -0.05761478 0.14190574 -0.028018147 0.16516323

module.layer1.0.shortcut.1.running_mean f4 [16]
000000 e1 61 33 be fd f3 bf bc e1 df a9 bd 61 78 3a be
       -0.17517807 -0.023431772 -0.08294655 -0.18209983
000010 d5 92 2c 3d 7d 45 5a bd 5b 7b 31 bd c1 92 dc bc
       0.042132217 -0.053288925 -0.04333053 -0.026925446
000020 b7 e1 37 bd 30 42 94 bd 57 ce f9 bd 43 db 2e be
       -0.044892993 -0.07239187 -0.12197559 -0.17075829
000030 a9 70 1e be 20 88 a4 3d fa 73 96 bd 2b 61 fb bd
       -0.15472664 0.08033776 -0.073463395 -0.12274393

module.layer1.0.shortcut.1.running_var f4 [16]
000000 0c b1 c9 3c 97 73 65 3c ab de a9 3c eb ce b8 3c
       0.024620555 0.01400461 0.02073606 0.022559604
000010 0b bd 3b 3c 11 aa 07 3c cf bd 0f 3c a6 f4 a6 3b
       0.011458646 0.008280293 0.008773281 0.0050950823
000020 0b 06 15 3c fc c0 88 3c 55 ee cb 3c 07 a8 64 3c
       0.009095679 0.016693585 0.024893919 0.013956076
000030 ed c7 c7 3c 64 ad 9d 3c fc 48 36 3c c5 d0 18 3c
       0.024387324 0.019247718 0.011125799 0.009327118

module.layer2.0.conv1.weight f4 [32, 16, 3, 3]
000000 33 f9 91 bd 50 24 85 bd c8 4d 34 bd 7f a6 f3 bd
       -0.07127609 -0.06501067 -0.04401949 -0.11896991
000010 f6 da 34 be 73 1b 24 be e3 20 e7 bd ed a9 4a be
       -0.17661652 -0.16026096 -0.112855695 -0.19791384
000020 87 54 12 be 05 37 39 3d 11 cb 3a 3c 7f c4 66 bd
       -0.14290057 0.045218486 0.011400954 -0.056339737
000030 48 ea 71 bb de 25 42 bd a1 ed ac bd 02 d9 8a bd
       -0.0036913324 -0.047399394 -0.084437616 -0.06779672
000040 45 96 c4 bd fe f0 c2 bd 9c 52 c2 bc c6 06 ed 3b
       -0.09598974 -0.09518622 -0.023721032 0.0072334735
000050 af 79 0a bd 7a 15 0d bd aa 05 4f bd b8 60 9c bd
       -0.033807453 -0.03444431 -0.05054251 -0.07635635
000060 1b 80 8a bc 3c 89 13 bd 31 ed 07 bd de fc fb bc
       -0.016906789 -0.03601955 -0.033185188 -0.030760225
000070 47 34 f8 3c 08 41 22 3d eb 6c 1a 3c 0b 91 59 3d
       0.030298365 0.0396128 0.009425382 0.05311684
000080 b0 59 23 3d 22 15 6a 3d 71 49 53 3d 55 a4 4e 3d
       0.039880455 0.05714906 0.05158371 0.050449688
000090 41 b3 ad 3c 02 c7 61 bd 58 00 07 bd ad 2d 56 bd
       0.021203639 -0.05512143 -0.032959312 -0.052289654
0000a0 ba 19 09 be 23 23 c5 bd cd 49 22 bd 24 28 a8 bd
       -0.1338872 -0.096258424 -0.039621163 -0.08210781
0000b0 8c 59 91 bd 8b 78 5b 3d a9 87 c0 3d d1 72 7e 3d
       -0.07097158 0.053581756 0.09400875 0.062121216
0000c0 9a af a1 3b ab c8 8f 3c 11 f6 43 3d 0c 32 e3 bc
       0.0049342634 0.01755174 0.04784209 -0.027733825
0000d0 48 ee 1d bd 97 da 4c 3c 0b 04 e0 3c 22 f5 cc 3c
       -0.03855732 0.012503288 0.027345678 0.025019232
0000e0 0d 23 02 3c 54 88 4e bc 79 9e 09 bd c9 fc e2 3b
       0.007942927 -0.012605745 -0.033598397 0.006927107
0000f0 2e e6 93 bc b8 c3 84 bc 0c 5a 3b 3c cc 36 c3 3c
       -0.018054094 -0.016206607 0.011435043 0.02382984
000100 49 12 5d ba f4 d0 2c 3d 84 06 80 3c e4 63 24 bc
       -0.00084332057 0.04219146 0.015628107 -0.010033581
000110 5a b0 87 3c 6a 45 2d 3d c2 0c 0b 3d 9f 43 ac 3c
       0.016563583 0.042302527 0.033947714 0.021028338
000120 18 ba 19 bc c2 8d 8a 3d ee 78 98 3d 0c c0 da ba
       -0.009382747 0.067653194 0.074449405 -0.0016689315
000130 23 85 2a 3d f7 33 0c 3d be 47 56 3b 9e 2e e7 3b
       0.041630875 0.034229245 0.003269657 0.0070551177
000140 8e cc 4c 3b 7b e9 a5 3d 02 c7 21 3d 9a ca 3f 3c
       0.0031249854 0.081011735 0.03949643 0.011706019
000150 e1 8f 51 3d 9b d9 70 bc 57 19 ef bc 8a 7e 3e 3d
       0.051162604 -0.014700319 -0.029186888 0.046507396
000160 4d 6f ac bb 44 e4 6f 3c 34 80 0a 3d ae cc 9d 3c
       -0.0052622915 0.014641825 0.03381367 0.019262638
000170 30 6b 13 bd 45 86 f1 3c c9 1b 17 3d 59 e1 f4 bc
       -0.035990894 0.02948297 0.036891732 -0.02989261
000180 50 6c c9 bc 7d f3 e9 3c 6a ae 42 3d 7e df 80 bd
       -0.02458778 0.028558487 0.047529615 -0.06292628
000190 9d 24 f9 bd 33 41 6d bd ee 7a be bd b8 7d 01 be
       -0.121651866 -0.057923507 -0.09300791 -0.12645614
0001a0 68 59 6c bd 46 b9 4f bd 9e af 86 bd 59 65 bb 3c
       -0.057702452 -0.0507138 -0.06576465 0.022875475
0001b0 bb 69 99 bb 07 10 51 3c cc df 88 3d 37 57 22 bd
       -0.0046817935 0.012760169 0.06683311 -0.039633956
0001c0 4e 0a 39 bd c9 3b c3 3c de 5d 27 bd 5d 65 2a bd
       -0.045175843 0.023832219 -0.040861003 -0.041600574
0001d0 f2 16 9a bc 91 e1 6c 3b 9e e2 9a 3d bc df b7 3d
       -0.01880977 0.003614519 0.07562755 0.08978221
0001e0 87 b9 a9 3b 7a 6b 8c 3d 21 a4 bb 3c a9 77 8b 3d
       0.0051795873 0.06856437 0.022905411 0.06809933
0001f0 d6 e5 a3 3d ba f4 16 3c c1 9b 3c bc 85 17 1a bb
       0.08002822 0.009213621 -0.011511744 -0.0023512554
000200 86 45 c6 ba 51 b7 ce bb 00 22 3d 3c e8 bd 23 3c
       -0.0015126921 -0.006308474 0.011543751 0.009994008
000210 29 8a c0 3c 34 9f 36 3b 01 a1 bb 3b ea bb d8 bc
       0.02350338 0.0027865889 0.0057259803 -0.026456792
000220 bd 3d 6e bd 03 df ac bd b2 c2 19 bc 0c af 04 bd
       -0.058164347 -0.084409736 -0.009384798 -0.0323935
000230 b0 40 6b bc 0f 6b 96 bc b9 55 55 bd 78 e4 a8 bc
       -0.014358684 -0.018361596 -0.052083705 -0.020616755
000240 0e a2 79 3a 7f af 19 3d 94 b1 3a 3c 4b 7d 0e bb
       0.0009522744 0.03752088 0.011394877 -0.002174216
000250 98 91 e8 3d 17 03 1d 3e 0d ee 85 bd 0b 31 71 3d
       0.11355895 0.1533321 -0.06539545 0.05888466
000260 55 ea 0c 3e b8 74 ff 3b 72 cc e4 3c ef 8d 65 3c
       0.13761266 0.0077958964 0.027929518 0.01401089
000270 ea ea 0f 3b f2 4b a1 3b 73 cf b1 bc 63 f1 bf 3c
       0.0021960088 0.0049223835 -0.021705365 0.023430532
000280 73 63 e1 3c b0 90 04 bd 2e 56 ab 3c 49 3a 94 bc
       0.027513241 -0.032364547 0.020915117 -0.018094199
000290 04 5c 47 bc 80 5b fe 3d 34 e9 42 3d df 28 02 bd
       -0.012167934 0.12419796 0.04758568 -0.03177726
0002a0 a7 52 9d 3d 07 91 ec 3d 15 81 35 3d ae ab e2 3b
       0.0768178 0.11551099 0.044312555 0.0069174385
0002b0 a3 93 a6 3c 58 56 07 3d 2d 0e 64 3d 3c 20 a7 3d
       0.02033407 0.03304133 0.05567758 0.08160445
0002c0 cd c4 15 3e 50 c1 37 bd 7d 93 07 3c bc 43 ce 3d
       0.14625855 -0.04486209 0.00827491 0.10071513
0002d0 a9 e1 2a 3d 78 d3 ce bc 10 4e 4f bc b5 24 c1 3c
       0.041719113 -0.02524732 -0.012652889 0.023577074
0002e0 ec af 7e bd b0 2d 2a bd f9 09 b9 3c f4 65 75 bd
       -0.06217949 -0.041547477 0.022587763 -0.059911683
0002f0 74 9b 24 bd c4 2f 84 3b 27 5e 8f bd 9f 15 ca bd
       -0.040187314 0.0040340144 -0.0700038 -0.09867405
000300 89 3d 45 3d 29 4c 3d bd 2b 5f da bd c2 0e b7 3d
       0.048154388 -0.04621521 -0.10662683 0.08938362
000310 08 19 32 3d 4e c0 23 bd a3 a4 40 bd 16 9f 8f bd
       0.043480903 -0.039978318 -0.04703201 -0.07012765
000320 dd 19 7e bd 7e 13 e3 bc 53 c1 ae bd d1 73 ca bd
       -0.062036384 -0.027719256 -0.085329674 -0.098853715
000330 f6 cc 32 3d e6 16 18 bd 59 e3 a0 bd bc 71 37 bc
       0.043652497 -0.037131213 -0.07855863 -0.01119655
000340 a1 f3 60 bc 7d 20 7b 3c c0 57 6b bc a3 39 0f bd
       -0.013729961 0.01532757 -0.014364183 -0.034967076
000350 2e 50 17 3c d6 c7 93 bc 2e f4 dc bc 53 6d 1e 3d
       0.009235425 -0.018039625 -0.026971903 0.03867848
000360 a5 2e cf 3b e4 a7 23 bd e9 ec 7e bd 97 10 ce 3d
       0.006322699 -0.039955035 -0.062237654 0.10061758
000370 9f a2 93 3d be 6e 3d bd 98 31 d4 3d 93 48 c4 3d
       0.07208752 -0.04624819 0.10361022 0.09584155
000380 5b e9 d8 3c af df 8f bd ea bf 83 bc ff 89 33 3c
       0.02647846 -0.07025086 -0.016082723 0.010958194
000390 fd 30 13 bd 47 93 5d bd a0 c8 25 bd 67 76 7a 3d
       -0.03593539 -0.054095533 -0.040474534 0.061148074
0003a0 36 5f ea 3b 54 eb 91 bc 2c 04 be bd 42 8b 0f bd
       0.0071524633 -0.017812409 -0.092781395 -0.035044916
0003b0 b7 44 14 3d 09 3a ae bd b5 fa 8f bd bc d1 9a 3c
       0.036198344 -0.08507163 -0.070302404 0.018898837
0003c0 55 6e 69 bd f3 0b 85 bd a2 4e 6e 3c f6 b9 e8 3d
       -0.056989986 -0.0649642 0.014545115 0.11363594
0003d0 35 1c be 3c 30 59 43 bc 35 d3 ba 3c 9d f7 26 bd
       0.02320681 -0.011923119 0.02280579 -0.040763486
0003e0 f7 1e 47 bc a4 87 b7 bc 76 1a 92 bd 74 f1 5b 3b
       -0.012153379 -0.022403546 -0.07133953 0.0033560665
0003f0 12 ab 90 3c 91 aa e7 3b 59 5d d1 3b c5 f8 33 3d
       0.017659698 0.0070698936 0.0063893017 0.043938417

module.layer2.0.bn1.weight f4 [32]
000000 02 97 90 3e c5 dd b8 3e ba 33 ce 3e ad b1 a3 3e
       0.2824021 0.36106697 0.4027384 0.31971493
000010 43 bb b1 3e 0d 4e 70 3e 6d 56 bd 3e cf 52 be 3e
       0.34713182 0.23467274 0.3698 0.37172553
000020 b7 20 5f 3e 5e c5 b9 3e 95 3e b0 3e ce 70 ac 3e
       0.21789823 0.36283392 0.34422746 0.33679813
000030 98 a1 a9 3e 3b ae 9b 3e 9c 2f 9a 3e 12 01 a4 3e
       0.331311 0.30406365 0.30114448 0.32032067
000040 7f bb bf 3e b2 15 b3 3e e1 08 ae 3e 19 7b 9c 3e
       0.37447736 0.3497749 0.3399115 0.30562666
000050 9e f2 ae 3e 8f 2a b5 3e 49 eb d0 3e 3c bc a9 3e
       0.34169477 0.35384032 0.40804508 0.33151424
000060 6b 98 a1 3e 03 0c ae 3e 92 c6 bd 3e 2e 37 af 3e
       0.31561598 0.3399354 0.3706556 0.34221786
000070 f9 96 a6 3e df fe ad 3e ae 47 c7 3e 80 55 b5 3e
       0.32537058 0.33983514 0.38921875 0.35416794

module.layer2.0.bn1.bias f4 [32]
000000 ff 82 43 bc 1f c4 15 be ce 65 7d be d3 e9 1e be
       -0.011933087 -0.14625596 -0.24745867 -0.15518884
000010 39 22 88 bd d3 62 67 bb 0f 7a 09 be d7 a7 10 be
       -0.066471525 -0.0035306707 -0.13425468 -0.14126526
000020 aa 4e 26 3e d4 a4 3c be 7e 96 22 be d8 d7 48 be
       0.16240945 -0.18422252 -0.1587772 -0.19613588
000030 5e 42 f3 bd 03 9f c8 bd 5d ff b5 bd 15 6a af 3b
       -0.11877893 -0.09795954 -0.08886597 0.005353222
000040 f1 f3 0c 3c 49 92 0e be 5b 94 43 3a b6 21 0d bd
       0.008603082 -0.13922991 0.00074607664 -0.034455977
000050 03 22 cc bd 36 9d 2f be 10 19 b1 bd 9e d5 0e be
       -0.09967425 -0.17149815 -0.086473584 -0.13948676
000060 77 49 c2 bd 20 45 a0 bc e8 ef fa bd c1 77 0f bb
       -0.094866686 -0.019564211 -0.1225279 -0.0021891447
000070 3d eb 78 bd 97 cd 24 be 6a 90 43 be cb 54 5a bd
       -0.060771216 -0.16094051 -0.19098058 -0.05330352
