results/koce/cifar10/ikd/resnet8_best.pth.tar (torch_old, 371450 bytes, 52 tensors)

module.conv1.weight f4 [64, 3, 3, 3]
0	0x3d88d4cc	0.06681213
1	0x3db3e0d6	0.087831184
2	0x3dd9cdf3	0.10634985
3	0x3de57bed	0.112052776
4	0x3dece2e5	0.11566714
5	0x3e0b329b	0.13593523
6	0xbd2f8364	-0.042849913
7	0xbdeb085d	-0.114762045
8	0x3c008b93	0.007845777
9	0x3bde3223	0.006780879
10	0x3cb72ef5	0.022361258
11	0x3d8e19ee	0.069385394
12	0x3d33c26f	0.0438866
13	0x3c8f7db6	0.017515998
14	0x3d5fe4e0	0.05466163
15	0xbd893874	-0.06700221
16	0xbe323070	-0.1740129
17	0xbd836ac1	-0.06416846
18	0xbbc598f7	-0.0060301977
19	0x3c302b8b	0.010752569
20	0x3d85c0b1	0.065308936
21	0x3d0bc2c9	0.03412131
22	0x3cf93d40	0.030424714
23	0x3d965ed3	0.07342305
24	0xbd7708d1	-0.060311142
25	0xbe1addd7	-0.15123688
26	0xbd9a041a	-0.075203136
27	0x3b3627f2	0.0027794805
28	0x3dbcec18	0.09224719
29	0x3c81f912	0.015865836
30	0xbeca6c15	-0.39535585
31	0x3e139b3b	0.14414684
32	0x3e525925	0.20541818
33	0xbe936504	-0.28788006
34	0x3dd39c12	0.103325024
35	0x3e282c7d	0.16423221
36	0xbe853a35	-0.2602097
37	0x3c9d78ae	0.019222584
38	0x3e58ab76	0.21159157
39	0xbf2026bb	-0.625591
40	0x3e569bda	0.2095789
41	0x3ef5bd78	0.47996116
42	0xbedbd820	-0.42938328
43	0x3e2f26cf	0.17104648
44	0x3e9cbe04	0.3061372
45	0xbe9ccd4f	-0.30625388
46	0xbda05666	-0.07828979
47	0x3da6c46c	0.08142933
48	0xbf1087c3	-0.56457156
49	0x3e7b7ee2	0.2456012
50	0x3eeac221	0.45851234
51	0xbed00260	-0.40626812
52	0x3e851d96	0.25999135
53	0x3ea35e79	0.31908014
54	0xbe046ffb	-0.12933342
55	0xbd81a51c	-0.0633032
56	0xbc886ef8	-0.016654477
57	0x3cf86634	0.030322172
58	0x3d9ed738	0.077558935
59	0x3da08a44	0.07838872
60	0xbd862811	-0.06550611
61	0xbcdafe5f	-0.026732622
62	0xbd145286	-0.036211513
63	0xbe1eb6ca	-0.15499416
64	0xbdabdb52	-0.083914414
65	0xbd968353	-0.07349267
66	0x3d0d9618	0.03456697
67	0x3db7777c	0.08958337
68	0x3d5f523c	0.054521784
69	0xbca835fb	-0.020533552
70	0x3d1d3be2	0.038387187
71	0xbc348254	-0.011017401
72	0xbe021a85	-0.12705429
73	0xbd9b844c	-0.07593593
74	0xbdc3b881	-0.09556676
75	0x3e012f77	0.12615763
76	0x3e2b3d39	0.16722573
77	0x3dc95284	0.09830192
78	0x3cbc2f06	0.022971641
79	0x3da1eef6	0.07906906
80	0x3cab89bb	0.020939698
81	0xbdc40c45	-0.09572653
82	0xbe8b715c	-0.27234924
83	0xbe8bc61a	-0.27299577
84	0x3ea6bc11	0.32565358
85	0x3e0bde81	0.13659097
86	0xbec0a079	-0.3762243
87	0x3e9ea13d	0.3098239
88	0x3e8443f2	0.25833088
89	0xbde68d0c	-0.11257371
90	0xbe427d05	-0.18993004
91	0x3d3be1d4	0.045869663
92	0x3e8ea973	0.27863654
93	0xbcbede75	-0.023299435
94	0x3e472589	0.19447912
95	0x3d13223a	0.035921313
96	0xbe0d19bf	-0.13779353
97	0xbd45fefb	-0.04833887
98	0xbde5f067	-0.11227494
99	0xbe84d741	-0.25945476
100	0x3d127834	0.035759166
101	0x3ef086be	0.469778
102	0xbe71163e	-0.23543641
103	0x3ddf5ed9	0.10906763
104	0x3e4c5e53	0.19957857
105	0xbe66c2f7	-0.2253531
106	0xbda8b250	-0.082371354
107	0xbcc1af1c	-0.023643069
108	0xbd109e5e	-0.03530728
109	0xbd44b0eb	-0.048020285
110	0xbcd88a89	-0.026433246
111	0xbb913740	-0.004431635
112	0xbcd67225	-0.026177475
113	0xbc8a9ee4	-0.016921468
114	0x3b8efde7	0.0043637636
115	0xbc8e5754	-0.017375626
116	0xbc0639a3	-0.008192453
117	0xbce082d3	-0.027406132
118	0xbd1bbadc	-0.03802
119	0xbc7b263b	-0.015328939
120	0x3c5847f6	0.013200751
121	0xbb69de44	-0.003568546
122	0x3bfc9dc8	0.0077092387
123	0x3c8fd327	0.01755674
124	0x3b4bd693	0.0031103238
125	0x3c95ed48	0.018301621
126	0xbd0954f2	-0.033528276
127	0xbd247c31	-0.0401575
128	0xbc61eeba	-0.013789827
129	0x3c16ec29	0.009211578
130	0xb9388090	-0.000175955
131	0x3c88fdd7	0.016722603
132	0x3b830aad	0.0039990754
133	0xbbaacec0	-0.005212635
134	0x3c8e9455	0.017404715
135	0xbd06736b	-0.032824915
136	0xbd522929	-0.051308785
137	0x3db0ce55	0.08633105
138	0xbda10827	-0.07862883
139	0xbdd6c495	-0.10486714
140	0xbd101a9b	-0.035181623
141	0x3d85b414	0.06528488
142	0xbd6b7128	-0.05748096
143	0xbcc03d48	-0.023466721
144	0xbd5f3fbb	-0.054504137
145	0xbde64909	-0.11244399
146	0x3d41808c	0.047241732
147	0xbdbcce49	-0.09219033
148	0xbe2acfed	-0.1668088
149	0xbd8a5f47	-0.06756454
150	0x3cb95776	0.022624712
151	0xbe0d5a80	-0.13804054
152	0xbd6b8fe9	-0.05751029
153	0x3d2f4f03	0.04279996
154	0x3ab5daab	0.0013874372
155	0x3ddb8304	0.107183486
156	0x3c79f41d	0.015255955
157	0xbd212b23	-0.03934778
158	0x3c7070ae	0.014675302
159	0x3de52301	0.11188317
160	0xbc9e4b8f	-0.019323139
161	0x3c061f69	0.0081862
162	0xbbc64573	-0.0060507595
163	0x3b8fa597	0.0043837535
164	0x39a34853	0.00031143668
165	0x3d40040a	0.046878852
166	0x3c01d4fd	0.0079243155
167	0xbd9540b0	-0.07287729
168	0x3d6b50e2	0.057450183
169	0x3d29f695	0.041494925
170	0xbd7ec3bb	-0.062198382
171	0xbd0c7e56	-0.03430017
172	0xbc8e0f94	-0.017341413
173	0x3d76ea43	0.060282003
174	0x3c75de01	0.015006543
175	0xbd049583	-0.032369148
176	0xbce0191e	-0.027355727
177	0x3ce7a420	0.028276503
178	0xbc077054	-0.008266527
179	0xbd046acd	-0.032328416
180	0xbc6cb261	-0.014446826
181	0x3d75e8c2	0.06003643
182	0x3e1a07dc	0.1504206
183	0x3d90877d	0.07057092
184	0x3db2d41c	0.08731863
185	0x3dd09c6f	0.10186087
186	0x3d68bcd8	0.05682072
187	0x3d2ee2a8	0.042696625
188	0x3ced6d90	0.028982908
189	0xbd4f970e	-0.050681166
190	0xbd2a8cd6	-0.041638218
191	0xbd7c3b37	-0.06157991
192	0x3c117c6a	0.00887976
193	0x3d246657	0.04013666
194	0xbc16349e	-0.009167818
195	0xbdc1acc5	-0.09456781
196	0xbd6557f5	-0.055992085
197	0xbda35f2e	-0.079771385
198	0xbe0028b1	-0.12515523
199	0xbdb45ca4	-0.08806732
200	0xbe0c3b6b	-0.13694541
201	0xbd1aafc7	-0.03776529
202	0x3d84518a	0.06460865
203	0xbc51f188	-0.012813933
204	0xbde61663	-0.11234739
205	0x3d16376f	0.03667396
206	0xbbc1ae9a	-0.0059107067
207	0xbd24b3e4	-0.04021062
208	0x3cff7f4c	0.03118863
209	0xbd836a8d	-0.06416807
210	0x3e034438	0.12818992
211	0x3e8c4860	0.27398968
212	0x3e1783a4	0.1479631
213	0xbbb0bee9	-0.005393852
214	0x3e4a6919	0.19766654
215	0x3e02ae9e	0.12761924
216	0xbd7ebe19	-0.06219301
217	0xbe05ce80	-0.13067055
218	0xbdbbb1bd	-0.0916476
219	0x3e0f354f	0.1398518
220	0x3dcc24ff	0.09967994
221	0x3d8aa6c7	0.067700915
222	0x3e0d83a1	0.13819744
223	0x3e221e48	0.15831864
224	0x3dc87000	0.09786987
225	0xbdf91a6a	-0.12163241
226	0xbe3fafa9	-0.18719353
227	0xbdf3f633	-0.11912193
228	0x3d3fca69	0.046823893
229	0xbc8f3de2	-0.017485563
230	0xbd434df8	-0.04768178
231	0x3da249b0	0.07924211
232	0x3d73177e	0.059348576
233	0xbcc0a85d	-0.023517782
234	0xbdb7dcab	-0.08977636
235	0xbe052279	-0.13001432
236	0xbdc81a60	-0.09770656
237	0x3d9e9a7d	0.0774431
238	0x3d4b0cc8	0.049572736
239	0xbc5a6e13	-0.013331908
240	0x3dac8d56	0.08425395
241	0x3dbb8cb4	0.09157696
242	0x3bf8e578	0.007595714
243	0x3d4eed0a	0.050519027
244	0xbd0911b5	-0.033464152
245	0xbdb2f62d	-0.087383606
246	0x3e0e7c19	0.13914527
247	0x3ca9fc47	0.020750178
248	0xbd15c11f	-0.036561128
249	0x3e16307b	0.14666931
250	0x3d820ea7	0.06350451
251	0x3ce76798	0.02824764
252	0x3c55c948	0.0130484775
253	0xbdbc1619	-0.09183902
254	0xbdac4749	-0.08412034
255	0x3dd557e2	0.10417153

module.bn1.weight f4 [64]
0	0x3ecebbb0	0.4037757
1	0x3f0b52e7	0.54423374
2	0x3ea1d580	0.316082
3	0x3e8ec863	0.27887258
4	0x3d109f14	0.03530796
5	0x3ef2260c	0.47294652
6	0x3e532aa3	0.20621733
7	0x3e8ca907	0.27472708
8	0x3e2fefbc	0.17181295
9	0x3e9a60fa	0.30152112
10	0x3efc953f	0.49332616
11	0x3f2e6050	0.6811571
12	0x3e98c994	0.29841292
13	0x3a8e77d0	0.0010869447
14	0x3e140ec3	0.14458756
15	0x3f06aa23	0.5260336
16	0x3ec50c85	0.38486114
17	0x3e6f76cb	0.2338516
18	0x3e994d60	0.29941845
19	0x3ea478d2	0.3212343
20	0x3ebb5a14	0.36592162
21	0x3ead5e2c	0.3386091
22	0x3ebe0ab8	0.37117553
23	0x3b734614	0.0037120627
24	0x3eb4fa80	0.35347366
25	0x3e53cfac	0.2068469
26	0x3f7fdd8c	0.9994743
27	0x3e4912be	0.19636056
28	0x3ed76b00	0.42073822
29	0x3eba6a77	0.3640935
30	0x3ea33b4c	0.31881177
31	0x3e73ed2c	0.23820943
32	0x3e693547	0.2277423
33	0x3e4468cd	0.19180603
34	0x3e56d62a	0.20980135
35	0x3e78d813	0.24301176
36	0x3eaabeb2	0.33348614
37	0x3eb0b6df	0.3451452
38	0x3e7aad61	0.24480201
39	0x3e94fcea	0.29099208
40	0x3ec717f7	0.3888547
41	0x3e0b6d3d	0.1361589
42	0x3f0580b2	0.521495
43	0x3ec8e920	0.3924036
44	0x3e878e92	0.2647596
45	0x3ecd8a98	0.401448
46	0x3e8babb5	0.2727944
47	0x3f015103	0.5051424
48	0x3dea4f82	0.11440946
49	0x3ec8ddff	0.3923187
50	0x3dcd8a5e	0.10036157
51	0x3ed7c1e7	0.42140123
52	0x3ebbf1a3	0.36707792
53	0x3e2cbc7f	0.1686878
54	0x3e66ba9f	0.22532128
55	0x3eaee345	0.34157768
56	0x3ebecf8e	0.37267727
57	0x3ce54c06	0.027990352
58	0x3ed4c4ad	0.41556302
59	0x3ea9b0ab	0.331426
60	0x3ec2bf64	0.38036644
61	0x3ea4ed7c	0.32212436
62	0x3ebcfcf0	0.36911726
63	0x3ea00d52	0.31260163

module.bn1.bias f4 [64]
0	0xbe867b36	-0.26265877
1	0x3e73166a	0.23739019
2	0xbe5ab8cf	-0.21359561
3	0x3e73a723	0.23794226
4	0xbdb8e1cc	-0.09027442
5	0xbed090a6	-0.40735358
6	0xbdda6a82	-0.10664846
7	0xbdc0a5bb	-0.094066106
8	0x3d03cb4d	0.032176305
9	0xbd6d64ba	-0.05795739
10	0xbe0ba077	-0.13635431
11	0xbebebc54	-0.37253058
12	0x3bda8259	0.0066683707
13	0xbb78e9f1	-0.0037981237
14	0x3db2a18a	0.087222174
15	0x3ebcdc89	0.36887005
16	0x3e3fcb12	0.18729809
17	0xbe159acb	-0.1460983
18	0x3dcd5ce2	0.100274816
19	0xbdea4203	-0.11438372
20	0xbe91f423	-0.28506574
21	0x3e7b6c94	0.24553138
22	0xbe9263dd	-0.28591815
23	0xbc1e4732	-0.009660529
24	0x3ddfa9ce	0.109210595
25	0xbe1ecbbc	-0.15507406
26	0xbf3ad2e0	-0.7297802
27	0xbbc50192	-0.00601215
28	0x3e6a7b19	0.2289852
29	0xbe020e9d	-0.12700887
30	0x3bbb06cc	0.0057075974
31	0x3e152f05	0.14568718
32	0x3ddebe1e	0.10876106
33	0xbda47fb9	-0.08032174
34	0xbd570b6f	-0.05250114
35	0xbddf9d4d	-0.109186746
36	0x3daa6ebd	0.08321903
37	0x3e99cf74	0.30041087
38	0x3e7bcbbc	0.24589437
39	0xbe55708f	-0.20843719
40	0xbd74eed4	-0.059798077
41	0xbdb3d2ce	-0.08780442
42	0x3de5f2af	0.11227929
43	0x3f50b11c	0.8152025
44	0x3e6c68b1	0.23086812
45	0x3e563bec	0.20921296
46	0xbe2dcc9d	-0.16972585
47	0xbe39a9c9	-0.18131174
48	0xbe2af449	-0.1669475
49	0x3d9e9b7d	0.07744501
50	0xbd7ada01	-0.06124306
51	0x3e1220bc	0.142703
52	0xbe06d2c7	-0.13166343
53	0xbcd141e9	-0.025544124
54	0xbd393cda	-0.04522405
55	0x3f0ac2ce	0.542035
56	0xbdbec1b6	-0.09314291
57	0xbd800935	-0.06251756
58	0xbdd791fa	-0.1052589
59	0xbe957678	-0.29191947
60	0xbe3359eb	-0.1751477
61	0xbc3b4349	-0.011429616
62	0xbea800f7	-0.32813236
63	0xbeb023ab	-0.34402213

module.bn1.running_mean f4 [64]
0	0xbdbb2ca8	-0.09139377
1	0xbdb550eb	-0.088533245
2	0xbc45f19c	-0.01208153
3	0xbc240ade	-0.010012357
4	0x3d8ad563	0.067789815
5	0x3e534930	0.20633388
6	0xbe0f638d	-0.1400282
7	0xbce1f494	-0.027582444
8	0xbcf9ebc6	-0.030507933
9	0x3db10eeb	0.086454235
10	0x3e446e93	0.19182806
11	0x3dc1daed	0.09465585
12	0xbe8774ba	-0.26456243
13	0x3b6bdde3	0.003599041
14	0xbc14ef03	-0.009090188
15	0x3da10dc7	0.07863956
16	0xbd21426b	-0.03936998
17	0xbde964ff	-0.113962166
18	0xbc86a4be	-0.016435977
19	0x3ca5d9ec	0.020245515
20	0x3dbd1592	0.0923263
21	0xbd59b7ca	-0.05315379
22	0x3e15fc51	0.14647032
23	0xbbadfd2d	-0.005309722
24	0x3d11e2bd	0.035616625
25	0xbdd91a48	-0.10600716
26	0x3ed71f70	0.42016172
27	0x3d57a1f3	0.05264468
28	0xbde31b90	-0.110892415
29	0x3bfd50b7	0.007730569
30	0x3e6b9e15	0.23009522
31	0xbd279a2e	-0.04091852
32	0xbda5a56e	-0.08088194
33	0xbdc39837	-0.09550517
34	0x3d4b60b5	0.049652774
35	0x3d5e3598	0.05425033
36	0xbd244725	-0.04010691
37	0xbc7e05cb	-0.015504311
38	0xbdaa6455	-0.08319918
39	0xbe07b456	-0.13252386
40	0xbcc90ef4	-0.024543263
41	0x3d0f46a2	0.03497947
42	0xbde81123	-0.113313936
43	0xbd05e8be	-0.032692663
44	0x3ce8bf31	0.02841148
45	0x3d5b62d1	0.053561036
46	0x3da6bba7	0.081412606
47	0x3e8357a2	0.25652796
48	0x3e07f768	0.13277972
49	0x3d80c21e	0.06287025
50	0xbcf8dcb5	-0.030378679
51	0x3c80507d	0.01566338
52	0xbc84d855	-0.016216436
53	0xbd91da57	-0.07121723
54	0x3b971f00	0.00461185
55	0xbc760222	-0.015015157
56	0x3e421e91	0.18956973
57	0x3d94d7f4	0.07267752
58	0x3e5117c1	0.20419218
59	0xbe24f30b	-0.16108339
60	0x3cfb80b2	0.030701015
61	0xbc607801	-0.013700486
62	0xbd14ae94	-0.036299303
63	0xbe308eba	-0.17241946

module.bn1.running_var f4 [64]
0	0x3f17393b	0.590717
1	0x40d8018d	6.7501893
2	0x3eac3361	0.3363295
3	0x3e92d2b1	0.2867637
4	0x3ddfd920	0.10930085
5	0x3f404d08	0.7511754
6	0x3ef25a30	0.47334433
7	0x3ed72137	0.42017528
8	0x3f531cc3	0.8246576
9	0x3f6537e5	0.89538413
10	0x3f91078f	1.1330432
11	0x3feaf600	1.8356323
12	0x3fb038a9	1.3767291
13	0x39941b0b	0.00028248908
14	0x3dda5f2c	0.10662684
15	0x3fec9f53	1.8486122
16	0x3f3cebac	0.73797107
17	0x3ebcb114	0.3685385
18	0x3f025bd1	0.5092135
19	0x3f15eb3c	0.58562064
20	0x3f2f5534	0.68489385
21	0x407a0d95	3.907079
22	0x3efa6fac	0.48913324
23	0x3a3beb9a	0.0007168591
24	0x3f29b85e	0.66296947
25	0x3e8914ea	0.2677377
26	0x4072cf8c	3.7939177
27	0x3e634f63	0.22198252
28	0x3fe5097c	1.7893519
29	0x3e21be18	0.15795171
30	0x3fac16e3	1.3444484
31	0x40087d7d	2.1326592
32	0x3f94786a	1.1599247
33	0x3f3913d9	0.7229591
34	0x3e0ed1dc	0.13947242
35	0x3ed1672e	0.40899032
36	0x3f9627a1	1.1730844
37	0x405ce3ed	3.4514115
38	0x3f466757	0.77501434
39	0x3e9f1f68	0.3107865
40	0x3faaed80	1.3353729
41	0x3d833af5	0.064077295
42	0x40002fe2	2.0029225
43	0x3e996279	0.2995794
44	0x3ede57bb	0.43426308
45	0x3f97a1ec	1.184629
46	0x3e30a7cb	0.17251508
47	0x3fd24bfc	1.6429439
48	0x3edf76df	0.4364538
49	0x3ff81e2b	1.9384207
50	0x3cedf594	0.029047765
51	0x3fe202ed	1.7657143
52	0x3f91d296	1.1392391
53	0x3e62a704	0.22134024
54	0x3e98aa29	0.29817322
55	0x3ef01d55	0.4689738
56	0x3f664d45	0.89961654
57	0x3dcff06c	0.10153279
58	0x3f6f0cf6	0.9337915
59	0x3f0f4e23	0.559786
60	0x3e02e7a0	0.1278367
61	0x3e494da9	0.19658531
62	0x3e87d9fc	0.26533496
63	0x3f25acee	0.64716995

module.layer1.0.conv1.weight f4 [16, 64, 3, 3]
0	0x3d8588b0	0.06520212
1	0x3d246f87	0.040145423
2	0x3d1a12ae	0.03761547
3	0xbd2237b9	-0.039603923
4	0xbd793d20	-0.06084931
5	0xbce52c0b	-0.027975103
6	0xbcd0e7e3	-0.025501197
7	0x3b0736ce	0.0020632031
8	0x3d2e9cf3	0.042630147
9	0xbe04f21c	-0.12982982
10	0xbe8de864	-0.27716362
11	0x3dbe3a23	0.092884324
12	0xbd62cf4b	-0.05537347
13	0x3dd67920	0.104723215
14	0x3e7c611a	0.24646416
15	0x3c6d31fa	0.014477247
16	0x3e526d3b	0.2054948
17	0x3e10225f	0.14075612
18	0x3ccbd109	0.02487995
19	0xbc4de13c	-0.012565907
20	0xbc288951	-0.010286645
21	0x3c7543db	0.014969791
22	0xbc59040c	-0.013245594
23	0x3bb40af7	0.005494471
24	0xbd204a1f	-0.039133187
25	0xbd395b33	-0.04525299
26	0xbd8922ac	-0.06696066
27	0x3be3483d	0.0069361017
28	0xbe09bbcb	-0.13450544
29	0xbd430e9a	-0.047621347
30	0xbe0adfae	-0.1356189
31	0xbdf3fe56	-0.11913745
32	0x3e1e1f67	0.15441667
33	0xbd08e44f	-0.033420857
34	0x3dbc3870	0.09190452
35	0x3e2dca72	0.16971758
36	0x3c195d79	0.0093606645
37	0x3bf48ad2	0.0074628377
38	0x3bfff8f6	0.007811661
39	0x3a9c6f4d	0.0011935026
40	0x3bc79e4e	0.0060918694
41	0x3beb7848	0.0071859695
42	0xbb6969e3	-0.0035616092
43	0x3baba412	0.0052380646
44	0x39e9292d	0.00044471901
45	0x3bd10c56	0.0063796444
46	0x3a9be3a5	0.0011893405
47	0xbbc1586e	-0.005900434
48	0x3cde9705	0.027171621
49	0xbb0e5e91	-0.0021723846
50	0xbbe6a6ca	-0.007038926
51	0x3cac7471	0.021051617
52	0xbd07ed08	-0.033185035
53	0xbc031d5f	-0.008002608
54	0xbca0ae32	-0.019614313
55	0xbcda2813	-0.026630437
56	0xbc8f8dc5	-0.017523656
57	0xbced979a	-0.029002953
58	0xbbea4a44	-0.0071499664
59	0x3d306683	0.043066513
60	0xbcaaf113	-0.020866906
61	0x3d1a1e25	0.037626404
62	0x3dac067c	0.08399674
63	0x3c80a6d1	0.015704544
64	0xbca08bc6	-0.0195979
65	0x3cca9122	0.024727408
66	0xbb466429	-0.0030272102
67	0x3b2d6c3e	0.0026462222
68	0x3d66f54a	0.05638627
69	0xbc945d72	-0.018110964
70	0x3c18c8f0	0.009325251
71	0x3c2c519f	0.010517507
72	0x3b8245ce	0.0039756065
73	0x3be30dd0	0.006929137
74	0x3d28155b	0.04103599
75	0x3ca6b84c	0.020351551
76	0x3c0b135c	0.008488502
77	0x3cd5299b	0.026020816
78	0x3c163355	0.009167512
79	0xbcaf1169	-0.021370606
80	0xbc7806ec	-0.015138369
81	0xbbd4cd4d	-0.0064942003
82	0xbd82833e	-0.06372689
83	0xbdb721af	-0.089419715
84	0x3d1d1efb	0.038359623
85	0xbce4b70c	-0.027919315
86	0xbd6cb16a	-0.057786383
87	0x3c6574b5	0.014004876
88	0xbcf5cfcf	-0.030006317
89	0xb9ceee22	-0.00039468805
90	0x3b9c3fee	0.004768363
91	0xbd49a627	-0.04923072
92	0x3d6600bc	0.056153044
93	0x3b79839a	0.0038072825
94	0xbca3f4a2	-0.020014111
95	0xbcf956d3	-0.030436909
96	0x3d37ffab	0.04492156
97	0xbdab502d	-0.08364902
98	0xbd818237	-0.06323665
99	0xbca491a0	-0.02008897
100	0xbc2b5713	-0.010457772
101	0xbde4ff12	-0.11181463
102	0xba97a10f	-0.0011568385
103	0xbd89eaf3	-0.06734266
104	0xbe4d3dfd	-0.20043178
105	0xbd22a21c	-0.03970538
106	0xbd873c06	-0.066032454
107	0xbda6ea9c	-0.08150217
108	0xbc6d79be	-0.014494358
109	0x3a98daa4	0.001166184
110	0xbbce0373	-0.0062870323
111	0xbd219211	-0.03944594
112	0xbce4ed43	-0.027945166
113	0xbc17e9b1	-0.009272025
114	0xbd6b3f2c	-0.057433292
115	0xbd0c7110	-0.034287512
116	0xbc926c63	-0.017873948
117	0x3968e545	0.00022210654
118	0xb631e594	-2.6508687e-06
119	0x38891658	6.536831e-05
120	0xb883ea84	-6.290249e-05
121	0x393db45c	0.00018091634
122	0x3a155a8b	0.0005697391
123	0xb7fc80b7	-3.0100678e-05
124	0x399f4be3	0.00030383383
125	0x3a11e15c	0.0005564892
126	0xbc0a6839	-0.0084477
127	0xbcc2d7a9	-0.023784475
128	0xbcdce5e6	-0.026965093
129	0xbc3eef61	-0.011653752
130	0xbca4dd76	-0.020125132
131	0xbccde302	-0.02513266
132	0xbc0138a6	-0.007887041
133	0xbb190a8c	-0.0023352234
134	0x3c92a514	0.017900981
135	0xbe773118	-0.24139822
136	0x3e500cdb	0.20317404
137	0x3e3d4039	0.1848153
138	0x3e0a2e7e	0.13494298
139	0x3e819bd0	0.25314188
140	0xbeb67c7a	-0.35641843
141	0x3d3d8f94	0.046279505
142	0xbe1243de	-0.14283702
143	0xbe556995	-0.20841058
144	0x3d8369d9	0.06416673
145	0xbdc7035b	-0.09717437
146	0xbbbee497	-0.00582559
147	0xbd6a5366	-0.05720844
148	0xbe077396	-0.13227686
149	0x3dd2eb85	0.10298828
150	0xbddaf8db	-0.10691997
151	0xbd46ea02	-0.04856301
152	0x3e658e88	0.22417653
153	0x3bd1503d	0.006387739
154	0x3c60001d	0.013671902
155	0x3ca83286	0.020531904
156	0xbc96992d	-0.018383587
157	0x3c4e24fd	0.012582061
158	0x3d33cc33	0.04389591
159	0xbc8097ca	-0.015697379
160	0x3d08ad3c	0.033368334
161	0x3d4b6f43	0.049666654
162	0xbdd3cdc7	-0.10341983
163	0xbdc8104f	-0.097687356
164	0x3d3752f6	0.044756852
165	0xbdce9c65	-0.10088424
166	0xbd423750	-0.04741603
167	0x3dd66810	0.10469067
168	0xbd3e80ff	-0.04650974
169	0x3d0ae168	0.03390637
170	0x3e15d0e1	0.14630462
171	0x3c047f9a	0.008087063
172	0xbd80f34d	-0.06296406
173	0xbd86ce5a	-0.06582327
174	0x3c31f9bb	0.010862763
175	0xbcc49bb7	-0.024000032
176	0xbd60ae05	-0.054853458
177	0xbcc37d81	-0.023863556
178	0xbd20c3a5	-0.03924908
179	0xbd2bb478	-0.041920155
180	0x3d13a043	0.03604151
181	0x3c938e9c	0.018012337
182	0x3d957a33	0.07298698
183	0xbd14dce3	-0.036343466
184	0xbd1674e7	-0.03673258
185	0x3d1e9b19	0.03872213
186	0xbd5de7f5	-0.05417629
187	0xbc1fd064	-0.009754274
188	0x3d92fede	0.07177518
189	0x3df195e4	0.117961675
190	0x3c021c72	0.007941352
191	0xbd81504e	-0.06314145
192	0x3d5bec8d	0.05369239
193	0xbda3a3aa	-0.07990201
194	0xbe0f0418	-0.13966405
195	0xbded4182	-0.1158476
196	0xbe3bb658	-0.18331277
197	0xbe400437	-0.18751608
198	0x3d8ab440	0.06772661
199	0x3d2f7322	0.04283441
200	0xbb75fc6e	-0.0037534493
201	0x3d5fe31c	0.054659948
202	0x3c4a3c96	0.012343546
203	0xbb5969a9	-0.003317455
204	0x3b404a60	0.0029341206
205	0xbd39d35a	-0.045367576
206	0xbcffd73f	-0.031230567
207	0x39c6699e	0.00037844194
208	0x3a153be8	0.00056928257
209	0x3a51a940	0.00079979375
210	0x3a0f9dbd	0.0005478522
211	0x3a751d38	0.0009350362
212	0x3ab6d43c	0.0013948749
213	0xb90dfc51	-0.00013540803
214	0x39fbfaa5	0.00048061195
215	0x3a88dcf8	0.001044183
216	0x3cdb5ea3	0.026778525
217	0x3b90cc1f	0.0044188644
218	0x3d0a3228	0.03373924
219	0xbcc07fed	-0.0234985
220	0xbd08d39a	-0.033404924
221	0xbc00683a	-0.00783735
222	0x3b8fc03a	0.004386929
223	0x3b73ca5d	0.0037199475
224	0x3d627c27	0.055294182
225	0xbb495f1e	-0.003072686
226	0xbaf902ef	-0.0018998067
227	0xbc02f6dc	-0.007993426
228	0xbb6f985b	-0.0036559317
229	0xbc935bee	-0.017988171
230	0xbc9b8c07	-0.018987669
231	0xbcf4c024	-0.029876776
232	0xbd1b4b65	-0.0379137
233	0xbc8be619	-0.017077493
234	0xbd5430b3	-0.051804256
235	0xbc46c8da	-0.012132848
236	0xbcc3b328	-0.02388914
237	0x3d13d259	0.036089275
238	0x3b16cfc2	0.0023012017
239	0xbddcfafc	-0.10790059
240	0x3da4b1ab	0.080417
241	0xbd12d82c	-0.03585069
242	0xbd0b8434	-0.034061626
243	0x3c102c1a	0.008799577
244	0xbc1ca8ff	-0.009561776
245	0x3cae7546	0.021296155
246	0x3c0dbd12	0.008651035
247	0x3cc7d868	0.024395183
248	0x3d31c79e	0.04340326
249	0xbcb82d4a	-0.022482533
250	0x3b4695d6	0.0030301712
251	0x390f1f8a	0.00013649292
252	0x3e2c2fec	0.16815156
253	0x3c0e7d51	0.00869687
254	0xbdcec3c5	-0.10095934
255	0xbd894a1a	-0.06703587

module.layer1.0.bn1.weight f4 [16]
0	0x3f16ca94	0.5890286
1	0x3f373568	0.71565866
2	0x3ef62f55	0.48082986
3	0x3f39ce2e	0.7258023
4	0x3f29537e	0.66143024
5	0x3eda350d	0.426186
6	0x3f431b5d	0.7621363
7	0x3f5c8954	0.86147046
8	0x3f1f9f50	0.62352467
9	0x3ed32bb4	0.4124428
10	0x3f41da9c	0.75724196
11	0x3f08b9d8	0.53408575
12	0x3f38dccc	0.7221191
13	0x3ef9fbef	0.48825023
14	0x3f0ba50d	0.5454872
15	0x3f23cc95	0.6398404

module.layer1.0.bn1.bias f4 [16]
0	0xbe3ae768	-0.18252337
1	0xbea51d75	-0.32249036
2	0xbe66c657	-0.22536598
3	0x3e900fc9	0.28137043
4	0x3e813fe8	0.2524407
5	0x3bb00f52	0.00537292
6	0x3e932fd4	0.28747427
7	0xbf2f1582	-0.68392193
8	0xbe7994cf	-0.24373172
9	0xbdc5df95	-0.096617855
10	0x3dd097c4	0.10185197
11	0xbe1496c6	-0.1451064
12	0xbe8a6bc3	-0.2703534
13	0x3ecbd74e	0.39812702
14	0xbeb29e9a	-0.34886628
15	0xbea95b38	-0.33077407

module.layer1.0.bn1.running_mean f4 [16]
0	0xbf0f8040	-0.5605507
1	0xbfb8a65d	-1.442577
2	0xbe7460d2	-0.23865059
3	0xbf49a99e	-0.7877444
4	0xbf261956	-0.6488241
5	0xbe8b5ab6	-0.27217644
6	0xbf210b58	-0.62907934
7	0x3eaa3999	0.3324707
8	0xbf3a10a4	-0.7268164
9	0xbf27d425	-0.6555808
10	0xbf7731ee	-0.9656056
11	0xbe2197f0	-0.15780616
12	0xbf9c762f	-1.2223567
13	0xbf07c6c5	-0.53037673
14	0xbef79dac	-0.48362482
15	0xbee88b39	-0.45418718

module.layer1.0.bn1.running_var f4 [16]
0	0x3f891229	1.0708667
1	0x3fc90bce	1.5706728
2	0x3e9e0ae7	0.30867693
3	0x3fa40ef3	1.2817062
4	0x3f4a2c1b	0.7897355
5	0x3ea14159	0.3149517
6	0x3f8f6dc1	1.1205369
7	0x3f158c89	0.58417565
8	0x3f48dd78	0.78462934
9	0x3ebfe027	0.37475702
10	0x3f8633f3	1.0484604
11	0x3f03d9a5	0.51503974
12	0x3f768cfe	0.96308887
13	0x3eb905c7	0.3613722
14	0x3e84e748	0.25957704
15	0x3ed8d505	0.4235002

module.layer1.0.conv2.weight f4 [16, 16, 3, 3]
0	0x3daa7212	0.083225384
1	0x3db2b197	0.08725279
2	0x3dbd54a6	0.09244661
3	0x3d996e83	0.074917816
4	0xbc54affb	-0.01298141
5	0x3c2a8330	0.010407254
6	0xbbf58153	-0.0074922233
7	0xbe117e65	-0.14208372
8	0xbc294427	-0.01033119
9	0xbd4f6155	-0.050629932
10	0xbcc2e152	-0.023789082
11	0xbdc30c50	-0.09523833
12	0x3dcc3570	0.0997113
13	0xbd6000a2	-0.054688103
14	0xbd9e6aeb	-0.07735237
15	0xbb745b6a	-0.0037285932
16	0xbda39af2	-0.07988538
17	0xbe2e1199	-0.169989
18	0xbb16967a	-0.0022977875
19	0xbbda4af6	-0.006661768
20	0xbdb21462	-0.08695294
21	0xbd302a52	-0.04300911
22	0x3d18f5e5	0.03734388
23	0xbd54d9f6	-0.051965676
24	0xbd3797ee	-0.044822626
25	0x3cfc9f80	0.030837774
26	0x3d1175bb	0.035512667
27	0xbd6366b0	-0.055517852
28	0xbbe97323	-0.007124321
29	0x3e2e4977	0.17020212
30	0x3d3c35bf	0.045949694
31	0x3a406e25	0.00073406316
32	0x3e1c8f64	0.15289074
33	0x3db2a294	0.087224156
34	0xbcff8b35	-0.031194309
35	0x3dba87bc	0.091079205
36	0xbdb2b94d	-0.087267496
37	0xbe386b5f	-0.18009709
38	0xbe30f146	-0.17279539
39	0xbcd50fd1	-0.026008518
40	0xbdc6f85f	-0.09715342
41	0x3ccc39fa	0.02492999
42	0x3e4057aa	0.18783441
43	0x3eac84a3	0.33694944
44	0x3e4d2cf2	0.20036677
45	0xbe8b1d48	-0.27170777
46	0xbeadb9c5	-0.33930793
47	0xbe8fd4d0	-0.2809205
48	0x3d7906a7	0.06079736
49	0xbd4652e3	-0.04841889
50	0xbda1f38c	-0.07907781
51	0x3ebe0e9d	0.37120524
52	0x3ea125aa	0.31474048
53	0x3e34a1ce	0.17639849
54	0x3d577df7	0.052610364
55	0x3d5594d5	0.05214389
56	0xbe1c55e3	-0.15267138
57	0x3e5fca57	0.2185453
58	0x3dcacbf9	0.09902186
59	0xbe5a42ea	-0.21314588
60	0x3e0834f7	0.13301454
61	0x3d3eb88f	0.046562728
62	0xbd8d08cc	-0.068864435
63	0xbce8379c	-0.02834683
64	0xbd2f3c4b	-0.04278211
65	0xbd856b4c	-0.06514606
66	0xbb025e50	-0.001989264
67	0xbd200211	-0.03906447
68	0xbd0bbeb3	-0.03411741
69	0x3d08edd1	0.033429924
70	0x3ccf115c	0.025276832
71	0x3c96629e	0.018357571
72	0x3cbb3986	0.022854578
73	0xbc0763fa	-0.008263582
74	0x3cf2affd	0.029624933
75	0x3d84b6a3	0.06480148
76	0xbcf552d5	-0.029946724
77	0x3def64b1	0.11689127
78	0x3d235717	0.039877977
79	0xbc96f7e7	-0.018428756
80	0x3e2ba9fb	0.16764061
81	0xbd0653fa	-0.03279493
82	0xba5e8be3	-0.00084894727
83	0x3d831055	0.063995995
84	0xbdc17393	-0.09445872
85	0xbd393d80	-0.045224667
86	0xbbb99a81	-0.0056641703
87	0xbdbaa718	-0.09113902
88	0xbd9fd107	-0.07803541
89	0xbd85195f	-0.0649898
90	0x3daff453	0.08591523
91	0xba837ab8	-0.001003108
92	0xbdb6ce79	-0.089261
93	0x3e01f52b	0.1269118
94	0xbc3067ee	-0.010766966
95	0xbd79789c	-0.060906038
96	0x3d82886c	0.06373677
97	0xbd839a16	-0.06425874
98	0xbe1fcef4	-0.1560629
99	0xbcb4e6ef	-0.022082774
100	0x3d406077	0.046966996
101	0x3e15e897	0.14639507
102	0xbd6d643d	-0.057956923
103	0xbc931247	-0.017953051
104	0x3d2feba6	0.04294934
105	0xbdbbbf86	-0.091673896
106	0xbdad8ded	-0.08474336
107	0xbe21189d	-0.15732045
108	0xbc66472d	-0.014055056
109	0x3dd0e314	0.10199562
110	0x3d629aee	0.055323534
111	0x3d3f14aa	0.046650566
112	0x3da1d297	0.07901495
113	0x3d82916e	0.06375395
114	0xbe3b2242	-0.18274787
115	0xbdcdf908	-0.100572646
116	0xbe12cd13	-0.14336042
117	0xbe98325a	-0.29725915
118	0x3da805c7	0.08204227
119	0x3ec21f67	0.37914583
120	0xbef20451	-0.47268918
121	0x3bfe77b7	0.007765736
122	0x3ee8f28d	0.45497552
123	0xbeb4eaf1	-0.35335496
124	0x3c515f02	0.012778999
125	0x3e7367c3	0.2377005
126	0x3c11baf5	0.008894672
127	0xbd3d0dca	-0.04615573
128	0x3d98aa71	0.07454384
129	0xbcfabf52	-0.030608807
130	0xbd9511a2	-0.07278754
131	0xbc278e0c	-0.010226738
132	0xbca25567	-0.019816114
133	0xbcef3263	-0.029198831
134	0x3ca6cfcb	0.020362755
135	0x3d8c8121	0.06860567
136	0x3d8e1870	0.06938255
137	0x3d6b4d34	0.057446674
138	0xbd457481	-0.04820681
139	0x3b6439bb	0.003482445
140	0x3da2a780	0.07942104
141	0xbbc28156	-0.005935828
142	0xbd86e268	-0.06586152
143	0x3cdb78c7	0.02679099
144	0xbd890e19	-0.06692142
145	0xbddbdb68	-0.10735208
146	0x3cef0bcb	0.029180428
147	0xba7b1cb0	-0.0009579165
148	0xbd86d14c	-0.06582889
149	0xbe1e201f	-0.1544194
150	0x3cffd8d7	0.031231327
151	0x3cb891f2	0.02253053
152	0xbd79c6b8	-0.06098053
153	0x3d6468c3	0.05576397
154	0xbc4fcfad	-0.012683791
155	0xbdfa9faf	-0.122374885
156	0xbd88309f	-0.06649899
157	0x3da683dd	0.0813062
158	0x3c5f7554	0.013638813
159	0xbde7501e	-0.11294578
160	0x3e0ae7db	0.13565008
161	0x3e1c603f	0.1527109
162	0x3b2b0321	0.0026094394
163	0x3dbcf49a	0.092263415
164	0x3cd2b674	0.025721766
165	0xbd928735	-0.07154695
166	0xbc781485	-0.015141611
167	0x3ce51228	0.02796276
168	0xbd0cd4ea	-0.03438274
169	0x3bf6b23f	0.007528573
170	0x3dfac601	0.122447975
171	0xbd410dc4	-0.04713227
172	0xbdd53aab	-0.10411581
173	0xbe58aeae	-0.21160385
174	0x3e070ec6	0.1318923
175	0x3d3325e7	0.04373732
176	0xbe2911e5	-0.16510732
177	0x3de9d427	0.11417418
178	0x3e3889f4	0.18021375
179	0x3bc89cd4	0.006122211
180	0xbd83bffb	-0.06433102
181	0xb9ef3f4e	-0.00045632798
182	0x3d4ae461	0.049534205
183	0xbdf281b2	-0.11841144
184	0x3d857c89	0.06517894
185	0x3d4c7c67	0.049923327
186	0x3d1e4a07	0.038644817
187	0x3da1731c	0.078832835
188	0x3d2fe741	0.04294515
189	0xbd9776b9	-0.073956914
190	0xbe6804ea	-0.22658125
191	0xbe28ecc0	-0.16496563
192	0x3e5250bd	0.20538612
193	0xbd599589	-0.053121123
194	0xbe8e24f8	-0.2776258
195	0x3ec93125	0.39295307
196	0x3e772a19	0.24137153
197	0xbdb9baeb	-0.09068855
198	0x3d94192b	0.07231363
199	0x3e265a67	0.16245423
200	0x3e3539d3	0.1769784
201	0xbdda8e8a	-0.106717184
202	0x3da6f0ef	0.08151423
203	0x3e4480ca	0.19189754
204	0xbda94759	-0.082655616
205	0xbe3407e0	-0.17581129
206	0x3e04547c	0.12922853
207	0xbdd9d1ab	-0.10635694
208	0xbd9c90b4	-0.076447874
209	0xbcdceacf	-0.026967434
210	0xbe0c3fdf	-0.1369624
211	0xbde90997	-0.11378782
212	0xbd955790	-0.07292092
213	0xbda14208	-0.078739226
214	0xbd8ac363	-0.06775548
215	0xbd619b05	-0.05507948
216	0xbc895706	-0.016765129
217	0xbd0b2e43	-0.033979665
218	0x3dd97cb9	0.10619492
219	0x3e0fc145	0.1403857
220	0x3ccf1690	0.025279313
221	0x3ce49c13	0.027906453
222	0x3da96c1b	0.082725726
223	0x3d64a7cb	0.055824082
224	0x3b16327a	0.002291827
225	0x3dd61172	0.10452546
226	0xbd8042b3	-0.06262722
227	0xbe280eff	-0.1641197
228	0x3e2a6609	0.16640486
229	0xbca48e41	-0.020087363
230	0xbe0df09a	-0.13861313
231	0x3e73439c	0.2375626
232	0x3e19708c	0.1498434
233	0xbd916721	-0.070997484
234	0xbdbaec3f	-0.091270916
235	0xbd6069ff	-0.054788586
236	0x3db1e406	0.0868607
237	0xbcb57b83	-0.022153622
238	0xbe113e68	-0.14183962
239	0xbe09f338	-0.13471687
240	0x3e26d3e2	0.16291764
241	0xbd9e1411	-0.07718671
242	0xbe420044	-0.18945414
243	0x3d2c7da7	0.04211202
244	0xbc6f2315	-0.014595767
245	0x3c544c6d	0.012957674
246	0x3e83f448	0.2577231
247	0x3d8785e3	0.06617334
248	0xbe2f3d55	-0.1711324
249	0x3e4e3d43	0.20140557
250	0xbc1e11c0	-0.009647787
251	0xbe8ddda4	-0.2770816
252	0xbe423172	-0.18964174
253	0xbda4e99f	-0.08052372
254	0x3db33547	0.08750396
255	0xbd9f0feb	-0.07766708

module.layer1.0.bn2.weight f4 [16]
0	0x3f3571e0	0.70876884
1	0x3f13c400	0.5772095
2	0x3f8193b0	1.0123196
3	0x3e769cd8	0.24083269
4	0x3e936f41	0.28795817
5	0x3f51b39f	0.81914705
6	0x3f5c80f8	0.8613429
7	0x3f84ad8d	1.0365463
8	0x3f4c31b0	0.7976332
9	0x3efa175d	0.4884595
10	0x3f82179f	1.0163459
11	0x3ed30bc0	0.41219902
12	0x3f8fc62b	1.1232351
13	0x3f32617d	0.69680005
14	0x3f1567c9	0.5836149
15	0x3eed8f24	0.4639827

module.layer1.0.bn2.bias f4 [16]
0	0xbe76ca20	-0.24100542
1	0xbdb322ce	-0.08746873
2	0xbd812bf8	-0.063072145
3	0x3e7fc490	0.24977326
4	0x3e767bd0	0.24070668
5	0xbdcfe8ec	-0.10151848
6	0xbda98e3b	-0.082790814
7	0xbdfe9b37	-0.12431949
8	0xbdb9e11f	-0.090761416
9	0x3d2da442	0.042392977
10	0xbd10c965	-0.035348315
11	0x3dbfc1bb	0.09363123
12	0xbd6e31d9	-0.058153007
13	0x3ea2c9d1	0.317946
14	0x3e919191	0.2843137
15	0x3d523584	0.051320568

module.layer1.0.bn2.running_mean f4 [16]
0	0x3e707d69	0.2348534
1	0x3d973619	0.07383365
2	0xbddcb59b	-0.10776826
3	0x3ed36779	0.4128988
4	0xbef2b11a	-0.47400743
5	0x3e1d9134	0.15387422
6	0xbd92cc75	-0.07167903
7	0xbe97bd74	-0.2963673
8	0x3da22258	0.07916707
9	0xbec50d3c	-0.3848666
10	0xbe3799c9	-0.17929758
11	0xbf5c1663	-0.8597166
12	0xbe9320f2	-0.28736073
13	0xbed09fbb	-0.40746865
14	0xbde53c8b	-0.11193188
15	0xbe555c4c	-0.2083599

module.layer1.0.bn2.running_var f4 [16]
0	0x3e510d66	0.20415267
1	0x3e4834bc	0.19551367
2	0x3f7696b6	0.96323717
3	0x3e62c526	0.22145519
4	0x3e3b7fd3	0.1831048
5	0x3ea2cae2	0.31795412
6	0x3f54a246	0.8306011
7	0x3f7e30cc	0.9929321
8	0x3f3718ba	0.71522105
9	0x3e9d1dcf	0.30686805
10	0x3fb105f6	1.3829944
11	0x3e980b47	0.29696104
12	0x3ff30aaf	1.8987635
13	0x3f2c8fc3	0.6740686
14	0x3ebf4221	0.3735514
15	0x3e55a23e	0.20862672

module.layer1.0.shortcut.0.weight f4 [16, 64, 1, 1]
0	0xbdac6823	-0.084183
1	0xbe3095e6	-0.17244682
2	0xbdd409f4	-0.10353461
3	0x3ca8b314	0.020593204
4	0xbcd56d7e	-0.026053187
5	0xbe211bf5	-0.15733321
6	0xbe4a351f	-0.19746827
7	0xbdf554b0	-0.119790435
8	0xbdac1a4b	-0.084034525
9	0xbdcab620	-0.09898019
10	0x3ba3c2f5	0.004997606
11	0xbdcdfb8f	-0.100577466
12	0xbe8459b0	-0.25849676
13	0xba5c0ec7	-0.0008394536
14	0xbdc952cb	-0.09830245
15	0x3d813e6b	0.063107334
16	0x3be48142	0.0069734165
17	0xbdf32c99	-0.11873741
18	0x3e822a29	0.2542279
19	0x3c1c6453	0.0095454035
20	0xbe153c32	-0.14573744
21	0x3d7ec149	0.06219605
22	0xbd6b3576	-0.05742403
23	0xbb0b997b	-0.0021301198
24	0xbee49214	-0.446427
25	0xbc82bd7a	-0.01595949
26	0xbda7b801	-0.08189393
27	0xbe2321af	-0.15930818
28	0xbccefcc7	-0.025267018
29	0x3cd502a3	0.026002234
30	0x3d2e8059	0.04260287
31	0xbdfc3275	-0.123143114
32	0xbd54f6a9	-0.051993046
33	0xbd8d2d57	-0.068934135
34	0x3c50efeb	0.012752513
35	0xbe3328cc	-0.17496032
36	0x3e145080	0.14483833
37	0x3ce84582	0.028353456
38	0xbf14535a	-0.57939684
39	0x3d009537	0.031392302
40	0x3c91457a	0.017733324
41	0x3c9913a6	0.018686127
42	0x3d449f3f	0.04800343
43	0x3c753db2	0.014968323
44	0xbe0e15c2	-0.13875487
45	0x3d8e6c30	0.06954229
46	0x3d996bee	0.07491289
47	0x3df78d5a	0.120875075
48	0xbcb9f30d	-0.022698903
49	0xbe522dbe	-0.20525262
50	0xbd19a9e3	-0.037515532
51	0xbcb9e096	-0.022690099
52	0x3a7f2342	0.0009732732
53	0xbe04694d	-0.12930794
54	0xbdace22d	-0.08441577
55	0xbce8c676	-0.028414946
56	0x3daac8f2	0.083391085
57	0xbd1b8532	-0.03796882
58	0xbe81bbbd	-0.25338545
59	0x3c67aeea	0.014140824
60	0xbe326512	-0.17421368
61	0xbddf5e78	-0.1090669
62	0xbe65e219	-0.2244953
63	0x3bddd8a9	0.0067702127
64	0xbcf24869	-0.029575543
65	0xbd6ee9b8	-0.05832836
66	0xbdba6ee5	-0.09103183
67	0xbeddd557	-0.43326828
68	0xbd4ac5f3	-0.049505185
69	0xbd55514c	-0.052079484
70	0xbe24064a	-0.16018024
71	0xbdc850f1	-0.09781063
72	0x3d24b672	0.040213056
73	0x3e3ddc9a	0.18541184
74	0xbe08986b	-0.13339393
75	0xbc5b6cf3	-0.013392675
76	0xbe8fe03f	-0.28100774
77	0xbaf11dc7	-0.0018395715
78	0xbe24b67a	-0.16085234
79	0xbda169bd	-0.07881496
80	0xbd932269	-0.071842976
81	0xbdd8c976	-0.105853006
82	0x3d6e3d15	0.05816372
83	0x3ba0a302	0.0049022445
84	0xbe540351	-0.2070439
85	0x3bac4c89	0.005258147
86	0xbd46b772	-0.04851479
87	0xbaffbf5c	-0.0019511986
88	0xbbe9df93	-0.007137248
89	0xbd6ecb5d	-0.05829941
90	0xbde27841	-0.11058093
91	0xbdb4b6c0	-0.08823919
92	0x3ca6339f	0.020288287
93	0xbe355719	-0.17709006
94	0xbc2f94d3	-0.010716635
95	0xbb24adcb	-0.0025128003
96	0x3cb0933e	0.021554586
97	0x3ceb4ff8	0.028724656
98	0xbea123b5	-0.31472555
99	0xbe087857	-0.13327156
100	0xbe12df61	-0.14343025
101	0x3d200d80	0.039075375
102	0x3d192614	0.03738983
103	0xbda1864b	-0.078869425
104	0x3e637871	0.22213914
105	0xbc1fe958	-0.009760223
106	0x3e143845	0.1447459
107	0xbc952cf4	-0.018209912
108	0x3f0457a0	0.51696205
109	0x3d156cb0	0.036480606
110	0xbd52435f	-0.05133378
111	0xbd45d835	-0.048301894
112	0xbdd44a24	-0.10365704
113	0xbdf5d0bf	-0.12002706
114	0xbccbe90e	-0.024891403
115	0x3c9593df	0.018258987
116	0x3e570954	0.20999652
117	0xbddb2c31	-0.10701788
118	0xbe2122b6	-0.15735897
119	0xbe993227	-0.29921076
120	0xbd298f63	-0.04139651
121	0xbd35728b	-0.04429869
122	0x3ad01a65	0.0015877007
123	0xbd4ebb58	-0.050471634
124	0x3c9f9f80	0.019485235
125	0x3e24ab10	0.1608088
126	0xbcec12da	-0.028817583
127	0xbc4712b4	-0.012150455
128	0xbc962368	-0.01832743
129	0xbe21cc5b	-0.15800612
130	0xbd2bfcf1	-0.04198927
131	0xbc1e24f6	-0.009652367
132	0x3b54d45f	0.0032475216
133	0x3ced8ff9	0.028999316
134	0x3b869e5e	0.0041082343
135	0xbd7d8fc1	-0.061904673
136	0x3d02cc4f	0.031933125
137	0x3d00aa02	0.031412132
138	0xbd11e160	-0.035615325
139	0xbdfcae79	-0.123379655
140	0xbd8b6bef	-0.06807696
141	0x39e623cf	0.00043895698
142	0xbcfd5977	-0.03092645
143	0x3dd95c5d	0.1061332
144	0x3d1808c1	0.037117723
145	0x36dfc0e3	6.668373e-06
146	0xbda2eedb	-0.07955714
147	0xbc951fce	-0.018203642
148	0xbd68da9d	-0.05684911
149	0xbe187e53	-0.14891939
150	0x3c265c45	0.010153835
151	0x3adfa64f	0.0017063114
152	0xbdaed39f	-0.08536457
153	0xbc2235a4	-0.009900484
154	0x3d4abefa	0.049498536
155	0x3c1ac500	0.0094463825
156	0xbe23cf5f	-0.15997075
157	0xbbb3cba7	-0.0054869237
158	0xbd91c321	-0.07117296
159	0xbd4a0244	-0.049318567
160	0xbb1f28c8	-0.0024285782
161	0x3abdb2d8	0.0014472855
162	0xbd80c5a1	-0.06287695
163	0xbcea8eb9	-0.028632509
164	0xbda39525	-0.079874314
165	0x3d5623b4	0.052280143
166	0xbd874a92	-0.0660602
167	0xbcb97184	-0.022637136
168	0xbd551ec2	-0.052031286
169	0x39dd5b73	0.0004222054
170	0xbe602fd9	-0.21893252
171	0xbe1ddada	-0.15415516
172	0x3cb82a55	0.022481123
173	0x3dda94d7	0.1067292
174	0x3d1beaca	0.03806571
175	0x3cdc4fa1	0.026893439
176	0xbc52111d	-0.012821463
177	0x3b1c9f51	0.002389867
178	0xb9bc6a03	-0.0003593714
179	0xbd665b18	-0.056239218
180	0xbd9ada20	-0.07561135
181	0xbc2657ac	-0.010152739
182	0xbc114be6	-0.008868193
183	0xbb9fa5ce	-0.0048720604
184	0xbdc819e9	-0.09770567
185	0x3bb7c224	0.00560786
186	0xbe57af8d	-0.21063061
187	0x3d40bf19	0.047057245
188	0x3d4513b6	0.0481145
189	0xbcb7aba0	-0.022420704
190	0xbd8a6fc1	-0.067595966
191	0x3db1220c	0.08649072
192	0x3d3aab86	0.045573734
193	0xbe25313b	-0.16132061
194	0x3e0bc603	0.13649754
195	0x3e0d0c78	0.13774288
196	0x3db3065e	0.08741449
197	0xbdc11f22	-0.09429766
198	0x3e66ff1c	0.22558254
199	0x3db4a4df	0.08820509
200	0x3dd6f75b	0.10496398
201	0xbd67fa35	-0.0566351
202	0xbe0933a0	-0.133986
203	0x3dd2d146	0.10293822
204	0x3f11a523	0.56892604
205	0x3b93b631	0.004507803
206	0x3dcb4f75	0.099272646
207	0xbd26ab36	-0.040690623
208	0x3db5e5ae	0.088816985
209	0x3e49c7c1	0.19705106
210	0x3e3badd0	0.18328023
211	0x3d9de07a	0.07708831
212	0x3dedd497	0.11612814
213	0x3e53fc62	0.20701745
214	0xbcfb7aa0	-0.03069812
215	0xba26c2bc	-0.0006361415
216	0x3ea752b9	0.326803
217	0x3df9c13f	0.12195062
218	0xbddd4ab8	-0.10805267
219	0x3cc4f999	0.024044799
220	0x3dc04373	0.09387865
221	0x3e149564	0.14510113
222	0x3d43a2d5	0.04776271
223	0x3e7e6bf9	0.24845876
224	0x3e39b12a	0.18133989
225	0x3d82ed61	0.06392933
226	0x3e309891	0.172457
227	0x3da552c5	0.08072428
228	0x3e14bdda	0.14525548
229	0xbccddf2e	-0.025130834
230	0x3e8b5c4b	0.2721885
231	0x3e509190	0.20368028
232	0x3d277a65	0.04088821
233	0x3c0fd5bd	0.0087789865
234	0x3e2a731a	0.1664547
235	0xbca71aae	-0.020398464
236	0xbd360d9d	-0.044446576
237	0x3d178ecb	0.037001412
238	0xbd688c14	-0.056774214
239	0xbe0da850	-0.13833737
240	0x3e0c3678	0.13692653
241	0xbded972a	-0.11601098
242	0x3cf56263	0.029954141
243	0xbd86287a	-0.06550689
244	0xbdaa4228	-0.083133996
245	0x3da76ed5	0.081754364
246	0x3dd874b5	0.10569135
247	0x3e3d0790	0.18459916
248	0xbd54c45b	-0.05194507
249	0x3d8a90c5	0.06765894
250	0x3e145dde	0.14488932
251	0x3df4e8f5	0.119584955
252	0x3dbf18f0	0.09330928
253	0x3ca6025d	0.020264799
254	0xbd8e0a47	-0.06935554
255	0x3d9b8a15	0.075946964

module.layer1.0.shortcut.1.weight f4 [16]
0	0x3f3069fb	0.68911713
1	0x3f06333e	0.5242194
2	0x3dce7b3e	0.100821
3	0x3ed44c76	0.41464585
4	0x3ed0d0b3	0.40784225
5	0x3f142658	0.5787101
6	0x3ea5b062	0.32361132
7	0x3e3424b0	0.1759212
8	0x3ec04855	0.37555185
9	0x3f17c45e	0.5928401
10	0x3e1f4d54	0.15556842
11	0x3f1fd861	0.62439543
12	0x3de7f888	0.113267004
13	0x3e50b3e6	0.20381126
14	0x3f61fe12	0.88278306
15	0x3ee06c03	0.43832406

module.layer1.0.shortcut.1.bias f4 [16]
0	0xbe76ca20	-0.24100542
1	0xbdb322ce	-0.08746873
2	0xbd812bf8	-0.063072145
3	0x3e7fc490	0.24977326
4	0x3e767bd0	0.24070668
5	0xbdcfe8ec	-0.10151848
6	0xbda98e3b	-0.082790814
7	0xbdfe9b37	-0.12431949
8	0xbdb9e11f	-0.090761416
9	0x3d2da442	0.042392977
10	0xbd10c965	-0.035348315
11	0x3dbfc1bb	0.09363123
12	0xbd6e31d9	-0.058153007
13	0x3ea2c9d1	0.317946
14	0x3e919191	0.2843137
15	0x3d523584	0.051320568

module.layer1.0.shortcut.1.running_mean f4 [16]
0	0xbee0b9b2	-0.43891674
1	0xbea194af	-0.3155875
2	0xbec351d3	-0.38148364
3	0x3f11dd3f	0.5697822
4	0xbe2c1c4c	-0.1680767
5	0x3f0d29c5	0.5514186
6	0xbe981f40	-0.29711342
7	0xbe2f4d4c	-0.1711933
8	0xbd838e91	-0.06423677
9	0xbed93ddc	-0.42430007
10	0xbe2d6e88	-0.16936696
11	0xbf21ec8c	-0.63251567
12	0xbdce2d74	-0.10067263
13	0xbd8bf308	-0.06833464
14	0xbee4bd42	-0.44675642
15	0xbec39f6d	-0.3820757

module.layer1.0.shortcut.1.running_var f4 [16]
0	0x3e12a1aa	0.14319482
1	0x3daf0b6a	0.08547099
2	0x3d85a938	0.065264165
3	0x3e2e1c82	0.17003062
4	0x3dfbaf85	0.12289337
5	0x3dc43815	0.09581009
6	0x3e2260f2	0.15857294
7	0x3da7790a	0.08177383
8	0x3e451e7f	0.19249915
9	0x3e69bbf7	0.22825609
10	0x3dc4d5ab	0.096110664
11	0x3e476245	0.1947108
12	0x3d1ec4cf	0.03876191
13	0x3daa5134	0.083162695
14	0x3eb0d59a	0.34537965
15	0x3e01dc7d	0.12681766

module.layer2.0.conv1.weight f4 [32, 16, 3, 3]
0	0x3c0fe8ea	0.008783558
1	0xbdf5318b	-0.1197234
2	0xbdc5d44a	-0.096596316
3	0x3d18489c	0.03717862
4	0xbc293287	-0.010326988
5	0xbd95268e	-0.07282744
6	0x3d9da1c6	0.076968715
7	0xbc1e7a2b	-0.009672682
8	0xbdb41472	-0.08792962
9	0x3d2cadc8	0.04215792
10	0xbda1ee25	-0.079067506
11	0xbd792fff	-0.06083679
12	0x3d32fa55	0.043695766
13	0xbd9477d7	-0.0724942
14	0xbe0649f8	-0.13114154
15	0x3dac6b05	0.0841885
16	0xbd661b12	-0.05617816
17	0xbd4dc0c6	-0.05023267
18	0x3e1140b6	0.14184842
19	0x3dfc2fbe	0.123137936
20	0xbd6dc7d5	-0.058051903
21	0x3c93157c	0.01795458
22	0x3d22092d	0.039559532
23	0xbdb7d18f	-0.08975517
24	0xbd1c81c8	-0.038209707
25	0xbe16a001	-0.14709474
26	0xbde4b020	-0.11166406
27	0xbbb15786	-0.005412045
28	0x3d403464	0.046924964
29	0xbd558fca	-0.05213908
30	0x3dd8e60f	0.10590755
31	0x3da50006	0.08056645
32	0xbceb0042	-0.028686646
33	0x3e1bddd3	0.15221338
34	0x3d09b34e	0.033618264
35	0xbdd2801a	-0.1027834
36	0xbded14b7	-0.11576217
37	0x3d284e86	0.04109051
38	0x3de48068	0.11157304
39	0xbcac47b3	-0.021030283
40	0x3d15129a	0.036394693
41	0x3d6163dc	0.055026874
42	0x3d86604f	0.06561338
43	0x3d3f9a3e	0.046777956
44	0xbd397f22	-0.04528726
45	0x3d95e11c	0.07318327
46	0xbdd52c44	-0.104088336
47	0xbe241e64	-0.16027218
48	0xba48dac6	-0.00076619943
49	0xbe3f647f	-0.1869068
50	0xbe70a242	-0.23499396
51	0xbd44e79c	-0.048072442
52	0xbe4c0cb6	-0.19926724
53	0xbe46fc0c	-0.19432086
54	0x3dda15a7	0.10648661
55	0xbd573985	-0.05254509
56	0xbe4fb5a6	-0.20284137
57	0x3ca7173e	0.020396825
58	0xbe0cb9e1	-0.13742782
59	0xbe8e90a7	-0.27844736
60	0x3c3d7a0b	0.011564742
61	0xbd9e0ff4	-0.077178866
62	0xbe194234	-0.1496666
63	0xbd23101f	-0.039810296
64	0xbe79d001	-0.24395753
65	0xbe3d46cc	-0.18484038
66	0xbe22694f	-0.15860485
67	0xbeab340b	-0.33438143
68	0xbe8469e1	-0.2586203
69	0xbe3966f5	-0.18105681
70	0xbe8fb018	-0.28064036
71	0xbe810a68	-0.25203252
72	0x3e583baa	0.2111651
73	0x3e6f0652	0.23342255
74	0x3cbf04ae	0.023317661
75	0x3e3c4792	0.18386677
76	0x3e89988a	0.2687419
77	0x3da585ac	0.080821365
78	0x3cb2bfdd	0.021820003
79	0x3d8c7c56	0.06859653
80	0x3d0fd949	0.03511933
81	0x3c237211	0.009975926
82	0x3c126859	0.008936011
83	0x3c95c72d	0.018283451
84	0xbd17bef2	-0.037047334
85	0xbd019206	-0.0316334
86	0x3d13d5dd	0.036092628
87	0x3c3d74aa	0.011563459
88	0xbd7a9070	-0.061172903
89	0x3c7735d1	0.015088514
90	0x3e25e844	0.16201884
91	0x3df1f4c2	0.11814262
92	0xbb81876e	-0.003952912
93	0x3e38b83d	0.18039031
94	0x3d45b3c4	0.04826714
95	0xbdcfa859	-0.10139532
96	0x3ce68859	0.028141188
97	0xbd944dd3	-0.07241406
98	0xbe1583a0	-0.14600992
99	0xbe11ffd3	-0.14257745
100	0x3805e615	3.192395e-05
101	0x3d92414b	0.0714136
102	0xbe1cd232	-0.15314558
103	0x3d1f239d	0.038852323
104	0x3de5a707	0.112134986
105	0xbe39ee1f	-0.18157242
106	0x3c9dba77	0.019253952
107	0x3e0f27d2	0.13980034
108	0x3e5cbd79	0.21556653
109	0x3b6b4e31	0.003590476
110	0xbd9b7bab	-0.07591947
111	0xbda7a4ee	-0.08185755
112	0xbe5a0849	-0.21292223
113	0xbe44befa	-0.19213477
114	0xbde42ac9	-0.11140973
115	0xbe6ea36a	-0.23304525
116	0xbe398ce8	-0.18120158
117	0xbeb72ecb	-0.35777888
118	0xbe5512df	-0.2080798
119	0xbd262ed0	-0.040571988
120	0xbe7b53ed	-0.24543734
121	0xbd8e8a7f	-0.0696001
122	0x3d937d4e	0.07201634
123	0xbce460a2	-0.02787811
124	0x3d6f837c	0.058475003
125	0x3de8a101	0.11358834
126	0xbda48b4a	-0.0803438
127	0x3d92a407	0.07160192
128	0x3e52d4c3	0.20588975
129	0x3d85875f	0.065199606
130	0x3e16b59c	0.14717716
131	0x3e3d6cbc	0.1849851
132	0x3daa2310	0.08307469
133	0x3e11ff4f	0.14257549
134	0xbc22241d	-0.009896305
135	0xbcb849fe	-0.02249622
136	0x3d34a4b3	0.044102382
137	0xbc33d90f	-0.010977044
138	0xbd789c04	-0.060695663
139	0x3cbd4505	0.0231042
140	0x3d91a475	0.07111446
141	0xbe113cb3	-0.14183311
142	0x3d2f03ed	0.042728353
143	0x3dcf22bc	0.10114047
144	0x3ddaf854	0.10691896
145	0x3d9f08d4	0.07765356
146	0x3d9e76e1	0.07737518
147	0x3c7f7ef5	0.015594234
148	0xbd8bdb20	-0.06828904
149	0xbd37dfa8	-0.04489103
150	0xbd270c63	-0.040783297
151	0xbcf9b7e4	-0.030483194
152	0xbd9bb39e	-0.07602619
153	0x3d220541	0.03955579
154	0xbdca014d	-0.09863529
155	0xbdd56ca5	-0.10421113
156	0xbc6459db	-0.013937439
157	0xbc98d536	-0.018656354
158	0xbd32c4ef	-0.04364484
159	0xbdacc27d	-0.08435533
160	0xbd09986a	-0.03359262
161	0x3d86a252	0.06573929
162	0x3db6a928	0.08918983
163	0x3d92fd05	0.07177166
164	0x3da05fab	0.07830747
165	0x3db85b8d	0.09001837
166	0x3e024871	0.12722947
167	0x3df35213	0.11880889
168	0x3d56913b	0.052384596
169	0x3e0c1fc5	0.13683994
170	0x3dfa0020	0.12207055
171	0x3dc0106c	0.09378132
172	0x3cef3c65	0.029203603
173	0xbc9df1bb	-0.019280305
174	0xbd040d2a	-0.032239117
175	0xbd06d4ab	-0.03291766
176	0xbbaa55d0	-0.005198218
177	0xbd572a1c	-0.052530393
178	0xbc7226e6	-0.014779782
179	0x3d45e789	0.048316512
180	0x3c164fa8	0.009174265
181	0xbb3b230b	-0.0028554823
182	0xbc5f9437	-0.013646177
183	0x3c5338f4	0.012891997
184	0xbca6f10d	-0.020378614
185	0xbd734140	-0.0593884
186	0x3d5fe00f	0.05465704
187	0x3c97e206	0.018540394
188	0xbc40703c	-0.011745509
189	0xbe712ff7	-0.23553453
190	0xbe8a0b5c	-0.26961792
191	0xbdf92f41	-0.12167216
192	0xbe74aec8	-0.23894799
193	0xbe84210d	-0.25806466
194	0xbe0dc335	-0.13843997
195	0xbe30a5e1	-0.17250778
196	0xbe475125	-0.19464548
197	0xbd642ff0	-0.05570978
198	0xbd03669a	-0.03208027
199	0xbccc9e60	-0.024977863
200	0x3e17ddb4	0.14830667
201	0xbdc3f425	-0.09568051
202	0xbc877333	-0.016534423
203	0x3cb62aef	0.02223727
204	0x3db91b67	0.0903843
205	0x3dce779b	0.10081407
206	0x3d620884	0.055183902
207	0xbe079a8c	-0.13242549
208	0xbe8c13c0	-0.27358818
209	0xbe4378d2	-0.19089058
210	0xbe23fd35	-0.1601456
211	0xbea844dd	-0.3286504
212	0xbe934dc9	-0.28770283
213	0xbe17ae4d	-0.14812584
214	0xbe75486c	-0.23953408
215	0xbe128ad3	-0.1431077
216	0x3e283929	0.16428055
217	0xbc1571b2	-0.009121345
218	0xbe013a5b	-0.12619917
219	0x3c41a610	0.011819378
220	0xbdc579a8	-0.09642345
221	0xbe31fecf	-0.17382358
222	0xbe0f0f62	-0.13970712
223	0xbe31df66	-0.17370376
224	0xbdc11b65	-0.09429053
225	0xbd947c5b	-0.072502814
226	0xbe53dafc	-0.20689005
227	0xbe37298c	-0.17886943
228	0x3d1ed4cf	0.03877717
229	0xbd81eb42	-0.063437
230	0xbce807e2	-0.028324071
231	0x3dee2790	0.1162864
232	0xbd1bccc5	-0.03803708
233	0xbd2fdfe2	-0.04293812
234	0xbc4d5312	-0.012532013
235	0xbeabd20d	-0.33558694
236	0xbeba6341	-0.3640385
237	0xbe469487	-0.19392596
238	0xbf05a46c	-0.5220401
239	0xbf0f6c70	-0.5602484
240	0xbe16b770	-0.14718413
241	0xbec5b91b	-0.38617787
242	0xbeab452a	-0.33451205
243	0x3d04b8e8	0.032402903
244	0x3d9aa5e0	0.075511694
245	0x3db556dc	0.08854458
246	0xbd113fc6	-0.03546121
247	0xbbc9bbfd	-0.006156443
248	0x3d5fbee0	0.054625392
249	0x3d9574ba	0.072976544
250	0x3d55610c	0.052094504
251	0x3de8d419	0.113685794
252	0x3ceb04a0	0.028688729
253	0x3e10b110	0.14130044
254	0x3ce21406	0.027597439
255	0xbcab6baa	-0.020925362

module.layer2.0.bn1.weight f4 [32]
0	0x3f0d9801	0.55310065
1	0x3f36a98f	0.71352476
2	0x3f0eec8a	0.5582968
3	0x3f1a66ab	0.6031291
4	0x3f02f4c3	0.51154727
5	0x3f204f9e	0.62621486
6	0x3ee4d3da	0.4469288
7	0x3f08c4ef	0.53425497
8	0x3f355f6f	0.70848745
9	0x3efed9de	0.49775594
10	0x3f03447c	0.51276374
11	0x3f4141da	0.75491107
12	0x3efc21c1	0.49244502
13	0x3f00412a	0.5009943
14	0x3f3ac5e0	0.72958183
15	0x3f10cb77	0.5656046
16	0x3f044e37	0.51681846
17	0x3ef16db6	0.47154015
18	0x3f199a76	0.60001314
19	0x3f1bd3f4	0.6087029
20	0x3f0b5038	0.5441928
21	0x3f0f9a13	0.56094474
22	0x3f06c68b	0.526467
23	0x3f18e2ae	0.59720886
24	0x3efdbb73	0.49557075
25	0x3f1b3d07	0.60639995
26	0x3f03d1af	0.51491827
27	0x3f008b70	0.50212765
28	0x3f4f41e4	0.80959916
29	0x3f16659b	0.5874879
30	0x3f242683	0.64121264
31	0x3f0ea138	0.5571475

module.layer2.0.bn1.bias f4 [32]
0	0x3dd22457	0.102608375
1	0xbdd1f2d5	-0.10251395
2	0xbea7f3ae	-0.328031
3	0xbcccd1a0	-0.0250023
4	0xbe14c1c6	-0.14527044
5	0xbe7f61c6	-0.24939641
6	0xbd4dae2b	-0.050214928
7	0xbdfc995d	-0.12333939
8	0xbd3726d4	-0.044714764
9	0xbdcb6eeb	-0.09933265
10	0xbdae8abd	-0.08522556
11	0xbe4e3544	-0.20137507
12	0xbdd51fc2	-0.10406448
13	0xbe4e75d0	-0.2016213
14	0xbd6a1de0	-0.057157397
15	0xbe25d85b	-0.16195814
16	0xbdd18ddb	-0.10232135
17	0xbcbd941f	-0.023141919
18	0xbeb157ad	-0.34637204
19	0xbcefa2e3	-0.029252475
20	0x3e097315	0.13422807
21	0xbe69bd11	-0.2282603
22	0xbdf52d63	-0.119715475
23	0x3b83fe54	0.004028121
24	0xbd99cc96	-0.07509725
25	0xbe712eab	-0.23552959
26	0x3dac6243	0.084171794
27	0x3e71550b	0.23567598
28	0xbdad995f	-0.08476519
29	0xbde10604	-0.109874755
30	0xbec80e01	-0.39073184
31	0xbe148ea5	-0.1450754

module.layer2.0.bn1.running_mean f4 [32]
0	0xbf7ba7bd	-0.98302823
1	0xc040256c	-3.002284
2	0x3e0a5e54	0.13512546
3	0xbfda1190	-1.703661
4	0x3f90afff	1.130371
5	0xbf150a70	-0.5821905
6	0xbe799179	-0.243719
7	0xbfe73284	-1.8062291
8	0xbf80b417	-1.0054959
9	0xbf36a1ec	-0.71340823
10	0xc002d66c	-2.0443373
11	0xc0250fb8	-2.5790844
12	0xbec1dd3c	-0.378641
13	0x3e51847d	0.20460697
14	0xbfcc3ed9	-1.595668
15	0xc0245925	-2.567941
16	0x3f70f938	0.9413028
17	0xbdb219fa	-0.08696361
18	0x3ea31581	0.31852344
19	0xbf60306c	-0.87573886
20	0x3f0ab332	0.5417968
21	0xbdce3020	-0.10067773
22	0xbe7219b7	-0.23642622
23	0xbf93e624	-1.1554608
24	0x3f9d3645	1.2282187
25	0xbf9ee1b0	-1.2412624
26	0xbfbcf100	-1.4761047
27	0x3eec7f5f	0.46190926
28	0xbfafcc8b	-1.3734297
29	0xbfb0fc15	-1.3826929
30	0x3e5b3e07	0.2141038
31	0x3f461941	0.77382284

module.layer2.0.bn1.running_var f4 [32]
0	0x3fb40c33	1.4066223
1	0x400b841f	2.179939
2	0x3f6a72be	0.9158133
3	0x3fd52fce	1.6655214
4	0x3f9a710e	1.2065752
5	0x3f9a01db	1.2031816
6	0x3f5682cf	0.8379335
7	0x3eff6987	0.49885198
8	0x3fed55ff	1.8541869
9	0x3f708af3	0.9396202
10	0x3f50feeb	0.81638974
11	0x3f98d3eb	1.1939672
12	0x3f3062d2	0.6890079
13	0x3f4a5f08	0.79051256
14	0x3fe307dd	1.7736775
15	0x3f8c36b3	1.0954193
16	0x3f39ce83	0.72580737
17	0x3f883fe9	1.0644504
18	0x3f131351	0.5745135
19	0x3f70e317	0.9409651
20	0x3fce3d82	1.6112521
21	0x3f3021a2	0.6880132
22	0x3fa28088	1.2695475
23	0x3fb86a11	1.4407369
24	0x3f571403	0.8401491
25	0x3f904875	1.1272112
26	0x3fcf7efd	1.6210629
27	0x400ed787	2.2319047
28	0x3fa76263	1.30769
29	0x3f55a694	0.83457303
30	0x3f237ebe	0.6386527
31	0x3f84f51f	1.0387305
